Code/CNNLSTM/Outputs/best_model.pth (torch, 386018 bytes, 27 tensors)

conv1.weight f4 [64, 5, 2]
00000000: 9793 fc3a d16a a73d 0655 98bd b357 0cbc
00000010: 67e1 15bd b387 0ebd 4b0d e13c ca23 1fbd
00000020: dcae 30bc 9690 adbb dad7 8138 3505 9e38
00000030: 2bc2 deb8 0155 78b8 0d03 41b8 6fed 8f38
00000040: 689f d6b6 46d3 7238 2066 c8b8 7825 8e38
00000050: 46e4 943d 5ef1 89bd 938f dbbc e25d 63bd
00000060: 956d 073c a552 1b3d 5aec 96bd a1d9 cdbd
00000070: 14d9 2abc 183d c33d 80ad f03c 6169 4abc
00000080: 0a93 393b cae9 393b 5722 6e3c 47c2 a1bc
00000090: 19c1 7d3c 73d9 563c 8756 653c d0b5 52bc
000000a0: b601 1d3d 7124 c33d 1368 093d f980 d9bd
000000b0: 8b9a 443d b450 1d3b dd3c 973b cbee 1dbd
000000c0: b27c 8cbd 4858 303d a63f 8238 367a a2b6
000000d0: 795f 56b7 dc86 6cb8 63c5 0638 0a16 adb7
000000e0: 53cf 46b8 26fd e8b6 0c8a e736 e906 7e38
000000f0: b238 9abd dee8 013c 21b8 18bd 11e5 8e3d
00000100: 8fb3 cabc e43a c1bc fc10 06bd b460 2f3d
00000110: fe16 fabc 08f5 da3c 1f64 6f3d 1be9 fd3d
00000120: 02aa 933d 6cf0 69bd 64ce 12bd 655f edbd
00000130: d2a6 c1bd 71af 8dbd 933c 1bbd 77e0 06be
00000140: 4d36 2039 da8f cc38 e245 79b9 a81a aeb8
00000150: 6ef9 a8b8 490c d5b7 8330 2739 f535 f938
00000160: 01e1 81b7 6aea 0db8 86f5 07bc 8ded 863d
00000170: 8eab 663c 1a1d bcbc 8949 2fbc 48f9 6abd
00000180: ee8b d03c 61ba 4bbc 7d03 553b 4d6a 893b
00000190: 9165 0d3c 5899 0fbc cbf7 22bd 9c2f 073c
000001a0: 59d8 f6bc b2e4 90bc 33f8 20bd 7324 dfbc
000001b0: 3117 c13c 5fc0 1dbd 719d 0b38 dde6 eeb7
000001c0: b0c8 d8b8 56ad 1cb8 f6b7 9338 2ec6 97b6
000001d0: ab0e ac37 7c20 2838 5db3 e237 4cdc ef36
000001e0: de30 29bb c190 77bb b911 9ebb 4a9d 0d3b
000001f0: 8bee a23a d6d4 523a 3594 183c 3824 be3a
00000200: d662 a63b 37e0 5c3a c34b 6dbc 4541 8dbc
00000210: 966d 2abc 0603 563b 863d 153c 598f debb
00000220: 373c 8f3a 4e1c 55bb da06 fcbb cf9f eabb
00000230: ce34 f8bd 1815 ba3c 19b0 dbbc 09fa bdbc
00000240: c291 6d3d 30bb b2bd fa0a a6bd 35d9 f83d
00000250: 971d 04bd 0713 9fbc 87a4 8dbd 0824 813d
00000260: 4aa1 313b 4f46 23bd 1581 30bd e742 973d
00000270: f1d5 28bc 6728 69bd 117c 0bbd a890 3b3b
00000280: 5b27 32bd 1822 4ebd c6e1 10bd 4d85 143d
00000290: b344 adbc f125 58bd 7575 e73c 98a6 55bd
000002a0: 8016 1cbc 232f 14bc 1468 803d b00b c5ba
000002b0: 9c30 13bd ea75 96bd b982 d13b 4dd6 5fbd
000002c0: 20cd a2bc 88c5 1d3d 739f 043c 5662 2f3d
000002d0: bbd1 bebd aac4 2d3d e0ee 20bd b5ec 3f3d
000002e0: eb7c 073d b395 fe3d 3b0a d8bd 8edd 9ebd
000002f0: 6098 b33d ec9f 0e3e 9851 3f38 ae59 5d39
00000300: 5933 a5b9 2aa4 b538 42cc 57b9 c88f d9b7
00000310: 35a7 8139 6dfa 8239 6058 ad37 f0ef d538
00000320: a109 2e3c 6f72 cd3c 02dd 433c 0d88 99bc
00000330: df3b 30bb 0bfe b13c 761a 8a3b ee76 a3bc
00000340: c70c aa3a d049 67bc 7a3e b0bc b4a9 90bb
00000350: 0a45 2dbc b746 5bbd d26f 87bb 05a0 92bb
00000360: 317c 0f3d e955 fdbc da64 ebba 9252 af3c
00000370: 1eb4 2dbb 4137 71bc cafb f6ba 2f43 4e3c
00000380: f35a a13b ae63 8e3c 3f89 bb3b bfa4 9a3b
00000390: 0329 9638 7c40 61bb cf65 063d ca9f 38bd
000003a0: 83fe 563d e0d7 2d3d 39cd 9d3c f3f5 443b
000003b0: 3f48 203d 5049 913c d63e 3d3d 8f8f 613d
000003c0: b27e 1c39 b6a3 a638 aa8d 34b9 5878 d8b8
000003d0: 99ae 14b8 1aae 2fb8 b594 a738 d3bb 9b38
000003e0: e4ee b134 c5c1 8938 f214 4239 a9fe 9638
000003f0: 7520 3eb9 3683 0db9 da9c e5b7 98ed 03b8
0.001927006 0.081746705 -0.07438092 -0.008565831 -0.036591914 -0.03479738 0.027472159 -0.03885249
-0.010783877 -0.005296777 6.191405e-05 7.534997e-05 -0.000106219515 -5.9206974e-05 -4.6017627e-05 6.862997e-05
-6.3962543e-06 5.789406e-05 -9.5557654e-05 6.778067e-05 0.07270102 -0.0673549 -0.02680186 -0.055509456
0.0082658725 0.037920613 -0.07369299 -0.10051275 -0.010427732 0.09533137 0.029379606 -0.012354226
0.0028316402 0.002836811 0.014534554 -0.019745959 0.015487933 0.013113367 0.0139976805 -0.01286073
0.03833171 0.09528435 0.03354652 -0.10620303 0.047998946 0.0024004402 0.0046154098 -0.03855781
-0.06859721 0.04305294 6.2107385e-05 -4.8422035e-06 -1.2777623e-05 -5.6392382e-05 3.213192e-05 -2.063347e-05
-4.7399964e-05 -6.943609e-06 6.9004072e-06 6.0564755e-05 -0.07530345 0.007929055 -0.037284974 0.06977285
-0.024743823 -0.023587652 -0.03273104 0.042816833 -0.030528542 0.026728168 0.058445092 0.12397977
0.07210161 -0.05711405 -0.03584136 -0.11590461 -0.094556466 -0.069182284 -0.037899565 -0.13171564
0.00015279018 9.7542725e-05 -0.00023772524 -8.301932e-05 -8.057324e-05 -2.53973e-05 0.00015944433 0.000118832955
-1.5482774e-05 -3.3835335e-05 -0.008298283 0.06588278 0.014078988 -0.022963095 -0.0106986845 -0.05736664
0.025457349 -0.012434573 0.00325033 0.0041935802 0.008630172 -0.008764587 -0.039787095 0.008251097
-0.03013246 -0.017687175 -0.0392992 -0.02723906 0.023570629 -0.038513537 3.328681e-05 -2.8479315e-05
-0.000103370636 -3.735473e-05 7.0437716e-05 -4.523222e-06 2.0510828e-05 4.0084575e-05 2.7024822e-05 7.148401e-06
-0.002581648 -0.003777549 -0.00482389 0.0021608644 0.001243071 0.0008042579 0.009312679 0.0014506644
0.0050777 0.00084257446 -0.014483395 -0.017243037 -0.010402104 0.003265561 0.009108907 -0.0067919907
0.001092798 -0.0032518092 -0.0076912465 -0.007160164 -0.12119447 0.022715136 -0.026817368 -0.023190515
0.058000334 -0.087271094 -0.08107562 0.12150804 -0.03225478 -0.019418253 -0.06916147 0.063057005
0.0027104192 -0.039861973 -0.043091852 0.073858075 -0.010304914 -0.056923296 -0.034053866 0.0028620157
-0.043494564 -0.050325483 -0.035371564 0.036259938 -0.021150922 -0.05277056 0.02825425 -0.05216083
-0.009526849 -0.009044441 0.06269851 -0.001503339 -0.03593503 -0.07346709 0.006393757 -0.054647733
-0.019873202 0.03851846 0.008094656 0.04281839 -0.09317347 0.04242388 -0.03929031 0.0468566
0.033078115 0.124308966 -0.10548826 -0.07757102 0.087692976 0.13928193 4.561394e-05 0.0002110961
-0.0003150951 8.6613305e-05 -0.0002058009 -2.593537e-05 0.00024729376 0.00024982114 2.066436e-05 0.00010201323
0.010622413 0.02507898 0.011954548 -0.018741632 -0.0026891155 0.021727582 0.00421458 -0.019954171
0.0012973779 -0.014116719 -0.021514166 -0.0044147614 -0.010575542 -0.053534236 -0.004133203 -0.004474642
0.035030548 -0.030924754 -0.0017959133 0.021401677 -0.0026505063 -0.014722646 -0.001884335 0.01258926
0.004924172 0.017381515 0.005723148 0.0047193463 7.1601964e-05 -0.003437071 0.032811936 -0.04507426
0.052488815 0.042442203 0.019262897 0.0030053824 0.0391314 0.017735153 0.046202503 0.05506855
0.00014924517 7.9459904e-05 -0.00017218912 -0.000103220984 -3.5448556e-05 -4.1885396e-05 7.9908794e-05 7.425961e-05
3.3142635e-07 6.5687615e-05 0.00018509084 7.1999915e-05 -0.00018131903 -0.00013495688 -2.7371967e-05 -3.145411e-05

conv1.bias f4 [64]
00000000: e570 593d 0417 8db6 e5e5 c43b b33c 23bd
00000010: 2ed1 3fbd c86b a835 7348 d13d 3f65 3c3d
00000020: 8d9a 2337 e289 793d 0fd7 2a3d e639 2db7
00000030: ef23 05bc 6b5f 9c3c c240 5fbc 39e0 c73d
00000040: f511 1e3d 059d 5b3c fe7c efbc 7cb0 8838
00000050: d929 43ba 9cce cb3d f15d 21bd ec8e 26bd
00000060: 7008 f234 65bc 17b7 81a2 f4bc 4790 bbbd
00000070: 4caf b73c 8796 e3bc 08eb a9ba c306 49bd
00000080: ceda 74b9 c3ed 01bd 3636 0038 2178 a135
00000090: 0935 153c e844 913c 635c 54b9 14ee 3fbd
000000a0: 2ca5 8e38 e47f a3bc e138 30bd 42bb b7bd
000000b0: 662a febd 16c6 cebd 5b3d 803b 0745 d53c
000000c0: c4e6 9238 6e2e 21ba de51 6c3d be8a 81bd
000000d0: b028 ba3c bf84 bebc 66ff 5336 f9a9 febb
000000e0: 82f1 f6bb 1821 333a 4b15 68bc 451e 6bbd
000000f0: ecb5 0438 4580 4cba 2e46 7b37 9b49 9a3c
0.05308618 -4.204807e-06 0.006008851 -0.03985281 -0.04683035 1.2548344e-06 0.10218897 0.045994993
9.751541e-06 0.06092251 0.041709002 -1.0325084e-05 -0.008126243 0.019088468 -0.013626279 0.09759564
0.038591344 0.013404136 -0.029234406 6.517858e-05 -0.00074448955 0.09951517 -0.03939623 -0.040663645
4.5082152e-07 -9.044165e-06 -0.029862644 -0.09158378 0.022422455 -0.027781738 -0.0012963722 -0.049078714
-0.00023351164 -0.031720888 3.0568066e-05 1.2030397e-06 0.009106883 0.017733052 -0.00020252312 -0.04685791
6.801853e-05 -0.019958444 -0.043022994 -0.089712635 -0.124104306 -0.10096376 0.003913564 0.026033891
7.004806e-05 -0.0006148581 0.057695262 -0.06325291 0.02272448 -0.023256658 3.1590112e-06 -0.007771727
-0.007536114 0.00068332395 -0.014165233 -0.057401914 3.164068e-05 -0.0007801096 1.4977106e-05 0.018833926

conv2.weight f4 [32, 64, 1]
00000000: 0f09 13bd 03ec 1db8 94b5 6abd 00e2 8cbc
00000010: fc59 93bd eb31 adb7 9764 493d 5567 813d
00000020: cd86 ff36 1342 26bd c84a 21bd 2f51 1238
00000030: 7058 04bd e1a8 fa3b f62c 82bd e319 893d
00000040: fbe5 56bd 8581 1f3d 2830 bd3d d331 90b8
00000050: 30a8 a23c 7164 5bbd c693 6f3c fce6 873d
00000060: e6e2 d5b5 c453 2036 eb71 6e3d 23dc b43d
00000070: a7d0 b93d 496f 783d 939a 70bd c209 12bc
00000080: 7bb7 0d3b 278b 63bd 6aaf 8638 b1d6 33b7
00000090: c3de 753c 1870 073c e209 313a b00a bc3c
000000a0: 76a8 1039 a0dd 463b 607e c03c 6466 8cbd
000000b0: 5aa9 87bd 20f8 963d 829e b6bc 6e38 8bbd
000000c0: d283 9038 9594 ae3b 4332 5fbd 6bee 313d
000000d0: 61f6 183d 3426 e5bc 4d56 71b8 6d7b e13c
000000e0: 10df 85bc cbd0 90bb 7e72 e33c c23a 57bd
000000f0: 0c83 9838 4cc2 cfbc eaf8 e6b8 abe1 f3bc
00000100: 3622 4700 a0e3 c500 4c04 bf80 beac 4880
00000110: 508a 0c81 e025 3700 a95b b880 fa95 a500
00000120: 5092 4080 deed 1800 98cc 1681 c035 f981
00000130: 5d0f 8a80 d84c f280 22c8 bd80 db9b 9780
00000140: fb68 6880 bed7 5a00 04b8 0e81 a8a6 e800
00000150: 125f 8600 a83d 3700 046f c500 5aeb d100
00000160: 60e7 5e01 ec42 1401 3064 1800 40a2 ea80
00000170: 2ae3 b480 7bed 7980 e96b 6e80 48d6 dd00
00000180: 84f2 3b00 3fad 8800 2087 7e00 c2fe e881
00000190: d0f3 ae80 b2ef 1d80 28c9 8780 bdd9 5300
000001a0: 003a 0f00 a64a 5400 74cf b880 58a1 b400
000001b0: 20da 0d81 7f61 6880 40dd d600 20c7 0c00
000001c0: 88c7 7200 384d 0181 d45d 6900 b059 2c00
000001d0: 30fc 6c80 1062 0880 b809 d300 eb81 ad00
000001e0: aad8 2e80 ef77 c701 1ef4 f300 0ec1 e780
000001f0: e4e9 7c81 880b ca00 c2fc a280 d9d1 3480
00000200: 408d 3001 70ae 2280 1820 c401 300b ab80
00000210: 98b9 5a80 2815 5901 664d b801 f8ab c980
00000220: f816 a981 9e24 bb01 5ac9 5f02 38a1 d700
00000230: ae28 a381 1ef9 d681 48fb 8b01 7881 3e80
00000240: d89e 6d80 4c05 e481 267c be02 2094 fd81
00000250: b015 5101 d83e d581 f0e8 8c00 2452 8801
00000260: 483d 4000 4bda 0102 6036 1481 70ba 3100
00000270: 2cef 3301 6e11 9a02 dc86 b481 8275 f581
00000280: f005 9480 944d ac81 52a7 6a82 90ad 3881
00000290: 5c74 5301 009f 7c80 9853 2601 4866 a800
000002a0: 186f 5301 f026 7a01 6a0f 8a01 b873 8f00
000002b0: d864 cf81 1081 fb81 66aa c581 cc35 4601
000002c0: f8ff 1c82 ca3b 9281 906e cb80 481f 1481
000002d0: 386c 9a80 58b1 1181 0ac7 b881 a8fb 1e80
000002e0: 6099 5481 a8c8 a480 a083 af80 371e 1f82
000002f0: e8b2 3380 ce81 c881 2509 0502 a69a 8581
00000300: 49ac 0700 7ecf 4080 d24f 3680 74cd 0900
00000310: 6707 0780 c4f9 6200 29e3 1e00 bd67 5600
00000320: acaa 1600 be09 1a00 c3f6 1800 124a 0d00
00000330: 044b 5000 cc97 1e80 aa04 3b80 516b 0200
00000340: c75d 1280 d38a 0900 6c3e 1b00 1530 5b80
00000350: 939d 0500 1e58 1480 09b3 0800 98e8 3300
00000360: 2e74 4600 d7a8 3800 2f51 2500 4eb4 1e00
00000370: 12a9 5800 99c1 2b80 1b55 4980 0802 2b80
00000380: 5f0e 3880 c28f 1080 270d 0080 7f15 2100
00000390: cf35 4d00 73e6 0400 38c1 1800 390a 1500
000003a0: 92aa 0600 0515 5780 03a8 3780 4f6e 2300
000003b0: afd5 2f80 2974 2880 a924 1f80 6617 4300
000003c0: cd40 5280 5a90 0c00 c454 1b80 3d61 0200
000003d0: 4495 0700 d27b 1480 444f 4f80 e412 3180
000003e0: 2907 4c00 5d17 1700 4500 0600 57aa 3b80
000003f0: 67e8 5e00 e70f 2680 69c0 0c80 f7aa 2700
-0.03589731 -3.765152e-05 -0.057302073 -0.017197609 -0.071948975 -2.0646452e-05 0.049168196 0.06318537
7.615285e-06 -0.040590357 -0.039377958 3.488472e-05 -0.032310903 0.0076495265 -0.06356232 0.066943906
-0.05246542 0.03894188 0.09237701 -6.8757356e-05 0.019855589 -0.053562585 0.014622634 0.06635854
-1.5935773e-06 2.3890616e-06 0.05821411 0.0883105 0.090730004 0.060653005 -0.058741163 -0.008913459
0.0021624255 -0.055552628 6.422291e-05 -1.0719218e-05 0.015006724 0.008266471 0.0006753487 0.022954315
0.00013795667 0.00303445 0.02349776 -0.06855467 -0.06624098 0.07371545 -0.02229238 -0.067978725
6.8910085e-05 0.005327771 -0.054491293 0.043440264 0.03734434 -0.027972318 -5.753925e-05 0.027524674
-0.016341716 -0.0044194213 0.027764555 -0.05254627 7.272334e-05 -0.025361203 -0.000110136185 -0.029770693
6.532593e-39 1.8173249e-38 -1.7542121e-38 -6.674124e-39 -2.5813173e-38 5.064539e-39 -1.6930613e-38 1.5206658e-38
-5.929959e-39 2.289383e-39 -2.7697438e-38 -9.154528e-38 -1.267881e-38 -2.2251756e-38 -1.7428703e-38 -1.392307e-38
-9.588551e-39 8.342588e-39 -2.6213306e-38 2.136562e-38 1.2340061e-38 5.07307e-39 1.8131418e-38 1.9278047e-38
4.0940964e-38 2.723132e-38 2.239992e-39 -2.154771e-38 -1.661188e-38 -1.1197287e-38 -1.0140615e-38 2.0372514e-38
5.505292e-39 1.2551776e-38 1.1619746e-38 -8.55889e-38 -1.606684e-38 -2.749216e-39 -1.2469953e-38 7.700456e-39
1.398339e-39 7.74096e-39 -1.6972151e-38 1.6588269e-38 -2.6054107e-38 -9.585867e-39 1.9732166e-38 1.173459e-39
1.0540825e-38 -2.374896e-38 9.676386e-39 4.072936e-39 -1.0008701e-38 -7.69862e-40 1.9380776e-38 1.5934147e-38
-4.302157e-39 7.327315e-38 2.2403598e-38 -2.1283255e-38 -4.6452898e-38 1.8554907e-38 -1.4968023e-38 -4.850725e-39
3.2427437e-38 -3.184983e-39 7.204508e-38 -1.5707883e-38 -8.331773e-39 3.9871784e-38 6.7701986e-38 -1.8520625e-38
-6.2113754e-38 6.8745494e-38 1.6441238e-37 1.9802466e-38 -5.9935116e-38 -7.896865e-38 5.1421107e-38 -5.740245e-39
-1.0067051e-38 -8.3761573e-38 2.7989249e-37 -9.315007e-38 3.8402797e-38 -7.833402e-38 1.2940532e-38 5.0076376e-38
5.899455e-39 9.54007e-38 -2.722232e-38 4.56682e-39 3.3048705e-38 2.263827e-37 -6.631507e-38 -9.01674e-38
-1.3593783e-38 -6.329414e-38 -1.7239623e-37 -3.3919988e-38 3.8838063e-38 -1.144464e-38 3.054936e-38 1.5465055e-38
3.8834285e-38 4.5945684e-38 5.071531e-38 1.3173988e-38 -7.6184495e-38 -9.2388034e-38 -7.261088e-38 3.6405454e-38
-1.1534529e-37 -5.3717723e-38 -1.8682268e-38 -2.720575e-38 -1.4181488e-38 -2.6759532e-38 -6.787653e-38 -2.845342e-39
-3.9048292e-38 -1.5133003e-38 -1.611843e-38 -1.1690146e-37 -4.74779e-39 -7.365466e-38 9.773921e-38 -4.9078394e-38
7.04653e-40 -5.951906e-39 -4.987751e-39 9.00222e-40 -6.45504e-40 9.089478e-39 2.836555e-39 7.935067e-39
2.081606e-39 2.391218e-39 2.292573e-39 1.220433e-39 7.37375e-39 -2.80952e-39 -5.419967e-39 2.22169e-40
-1.68668e-39 8.7632e-40 2.501951e-39 -8.374279e-39 5.15704e-40 -1.86832e-39 7.9891e-40 4.767049e-39
6.470162e-39 5.203356e-39 3.427037e-39 2.819746e-39 8.142175e-39 -4.018376e-39 -6.734521e-39 -3.949655e-39
-5.147943e-39 -1.520939e-39 -4.718e-42 3.038283e-39 7.090636e-39 4.50012e-40 2.273366e-39 1.932213e-39
6.12202e-40 -7.997229e-39 -5.111224e-39 3.253814e-39 -4.392924e-39 -3.71509e-39 -2.860052e-39 6.161372e-39
-7.553757e-39 1.15381e-39 -2.509967e-39 2.18554e-40 6.96395e-40 -1.881128e-39 -7.28344e-39 -4.506716e-39
6.982066e-39 2.120598e-39 5.5111e-40 -5.4794e-39 8.715907e-39 -3.495454e-39 -1.17105e-39 3.642915e-39

conv2.bias f4 [32]
00000000: 1029 f235 9c7a dc01 c0e9 3d82 f253 b881
00000010: 80bb 8c81 000f f381 c085 9d81 39e6 86b6
00000020: d1b5 9535 ac00 98b4 3492 9501 403a 9d81
00000030: 50d3 db80 2839 b336 8074 8b01 a6d3 8a35
00000040: dc53 7236 50b2 6000 46f7 b435 574f d7b5
00000050: 7d3b 0282 00b2 3182 802c 5901 bcda 5801
00000060: 80cb 8481 293d 5002 2b60 c1b5 5016 8fb7
00000070: 805d b600 a113 0cb7 94b5 5937 f063 8181
1.8042356e-06 8.099117e-38 -1.395261e-37 -6.771138e-38 -5.1696927e-38 -8.9285626e-38 -5.7864613e-38 -4.0203126e-06
1.1154281e-06 -2.8312695e-07 5.4943747e-38 -5.7756276e-38 -2.0187778e-38 5.3412696e-06 5.1227705e-38 1.0343399e-06
3.6109623e-06 8.880174e-39 1.3483011e-06 -1.6041839e-06 -9.567964e-38 -1.305499e-37 3.9888533e-38 3.9829869e-38
-4.878115e-38 1.5298979e-37 -1.4407609e-06 -1.7057318e-05 1.6747602e-38 -8.3492205e-06 1.2976485e-05 -4.753052e-38

batch1.weight f4 [32]
00000000: 5a2e 203e e26a b780 a4ad cb81 b5d6 4800
00000010: 987d 1600 a839 aa80 b0e3 5380 be1f a03d
00000020: 3a82 a53d 40b8 de3c dd4d d980 187d 8f80
00000030: daa0 1300 6725 133e 4811 f481 3dd5 f33c
00000040: f040 bc3d 6ac2 a000 bad6 d83c 9008 073e
00000050: 50db 1280 2830 3580 7694 8081 a5e0 0f80
00000060: 0cb1 4b81 5e01 4600 9dd4 443e 4c80 073e
00000070: be23 9300 c95d ce3d 59c9 473e d32d 6700
0.15642682 -1.6844238e-38 -7.4819585e-38 6.689178e-39 2.065435e-39 -1.5632718e-38 -7.704025e-39 0.07818554
0.08081479 0.027187467 -1.9956235e-38 -1.3177351e-38 1.802577e-39 0.14369737 -8.965624e-38 0.029764766
0.09192073 1.4763422e-38 0.026469577 0.1318686 -1.731713e-39 -4.884557e-39 -4.7232805e-38 -1.45812e-39
-3.7412236e-38 6.428975e-39 0.1922173 0.13232535 1.351264e-38 0.10076482 0.19510402 9.475495e-39

batch1.bias f4 [32]
00000000: a0b3 693d a5d7 0400 6fa1 3203 199d 1400
00000010: aab6 3200 add7 a78b a84c 3600 a53b 38bb
00000020: 9659 cd3a 46c2 17bb 3f45 0c00 44b3 1a00
00000030: 092c 1b00 69c4 0a3d ac50 2000 4d5f 60bb
00000040: 87fb 0bbb a9d6 1b88 5c14 8ebb 9650 133d
00000050: 1671 7400 b980 2380 79c2 808b 3cea 2600
00000060: 994e 6407 2c0e 098a f5bb 09bd 261c 8e3b
00000070: 42a7 2f00 7782 c03c ab13 dcbb e2fb 2f00
0.05705607 4.447e-40 5.2494815e-37 1.893066e-39 4.657302e-39 -6.4650573e-32 4.986616e-39 -0.0028111723
0.0015666957 -0.0023156567 1.126867e-39 2.452031e-39 2.495355e-39 0.033878718 2.967675e-39 -0.0034236491
-0.0021359639 -4.6895948e-34 -0.004335923 0.035965525 1.0693485e-38 -3.26042e-39 -4.9596417e-32 3.573776e-39
1.7175911e-34 -6.5989755e-33 -0.033626515 0.0043368516 4.376269e-39 0.02349971 -0.006716212 4.406627e-39

batch1.running_mean f4 [32]
00000000: dfcd ea3b fc57 7c01 78d1 a081 698f 9100
00000010: 38ab 6401 d688 8000 16ab 4981 6480 943b
00000020: 861b 5d3b 66c8 5ebb bbd3 3381 d9b8 af80
00000030: e8fb ed80 46a2 8b3b 3f8c 6801 5fbc 013c
00000040: 7002 18bb 28d2 4a00 f0a6 e73b f5f3 913b
00000050: 38d4 0b80 70e6 0b00 4cb8 5580 8f75 1a80
00000060: 1f9d ef80 4215 5e00 0d53 503a 8da8 983b
00000070: ff9e bd00 5226 6e3b bc94 3ebc 51a0 9280
0.007165655 4.6348216e-38 -5.907529e-38 1.3367593e-38 4.199983e-38 1.1804031e-38 -3.7040618e-38 0.004531907
0.003373833 -0.0033993958 -3.3029017e-38 -1.6137523e-38 -2.185538e-38 0.004261288 4.2712292e-38 0.007918446
-0.0023194812 6.871217e-39 0.007069461 0.004454131 -1.08632e-39 1.092856e-39 -7.87213e-39 -2.429895e-39
-2.2005048e-38 8.640163e-39 0.0007946946 0.0046587647 1.7413946e-38 0.0036338759 -0.011632141 -1.3465493e-38

batch1.running_var f4 [32]
00000000: a5fc 3839 0400 0000 0400 0000 0400 0000
00000010: 0400 0000 0400 0000 0400 0000 8491 7e38
00000020: 15d8 1b38 6aab 8737 0400 0000 0400 0000
00000030: 0400 0000 de25 0439 0400 0000 e937 4237
00000040: 51eb 3637 0400 0000 faa3 2137 7d31 b038
00000050: 0400 0000 0400 0000 0400 0000 0400 0000
00000060: 0400 0000 0400 0000 7d69 ba38 40e9 8338
00000070: 0400 0000 98b7 1838 e7b9 c838 0400 0000
0.00017641725 6e-45 6e-45 6e-45 6e-45 6e-45 6e-45 6.069384e-05
3.7156122e-05 1.6173075e-05 6e-45 6e-45 6e-45 0.00012602608 6e-45 1.1576319e-05
1.0902834e-05 6e-45 9.634527e-06 8.401552e-05 6e-45 6e-45 6e-45 6e-45
6e-45 6e-45 8.88882e-05 6.290013e-05 6e-45 3.641061e-05 9.57137e-05 6e-45

conv3.weight f4 [32, 32, 1]
00000000: fcbd cf3c a266 e480 9a2b e501 264f 2700
00000010: 1aab 2c80 53bb 0e0c 8292 0580 4086 a03b
00000020: c203 0d3c e66b b43a fc39 ab80 5676 6d00
00000030: 2662 5980 1afc aa3c 5638 0680 7ced f23a
00000040: 950f d53b 8487 1d06 49cf f439 03f8 a13c
00000050: 95ec 5d00 d6f7 4780 5a1e 078a 0498 0c80
00000060: f017 c704 6656 1609 f76c ddbb 4951 be3b
00000070: 8161 0680 1948 70bc 206f 703c 2b76 0880
00000080: 89dd d53c a969 9f00 3d78 1301 fa09 1600
00000090: e45f b800 3098 930b ccb4 0780 48e1 1c3c
000000a0: b009 273c 15fd 1a3b 12a8 4600 1472 5680
000000b0: 1dca 0380 2e75 b43c 2b11 3a80 da85 ec3a
000000c0: 67f2 f73b f769 0987 6d98 9e3a de26 a33c
000000d0: b062 ac80 6872 9a00 faa8 fa89 e7aa 0400
000000e0: a173 b685 44f0 d488 fc12 25bb d429 4e3b
000000f0: 0ead 2d80 2242 5fbc 6b62 743c 1ae0 2480
00000100: 4b56 e83c deb7 0900 6296 db00 1d12 0080
00000110: e221 5100 63fa b60b 6a99 3800 cc2e ef3b
00000120: 0bed 213c fc9d 043b 6d9a c880 1c21 4180
00000130: 8e22 2b80 9bae a83c 95b3 4b00 ffcb 503b
00000140: 1571 e03b 86c0 5387 2bbd 703a db16 a23c
00000150: ac30 1600 6127 8080 5470 c589 ab8c 1980
00000160: da8a 9285 2f1c 9e88 9695 b5ba b06b ae39
00000170: df38 1400 71f6 75bc dd18 633c 249a 0780
00000180: 50d4 cc3c 21fb 6180 91ed 0702 c9b9 0000
00000190: 6c74 f280 c0df 5b0c 6a83 5a00 beac 963b
000001a0: 91bb 0b3c 43e1 58b9 4352 5980 4e7a 4c00
000001b0: 5dc1 1100 92eb c33c e89d 9580 32b2 333b
000001c0: b2e4 f03a b014 8787 713a e83a 085c a93c
000001d0: 2a0c 8380 fa4c 3080 d653 e289 ff9f 3400
000001e0: 1c74 4c04 c69f 4488 8499 09bc 8697 163c
000001f0: 4d0e 6e00 d4e1 5abc 444e 8c3c a2b7 0e80
00000200: 5f28 cb3c ba0d f080 62b1 cb01 c7b3 3000
00000210: 858b a080 90e6 420c e2ab ad80 9aa2 553b
00000220: 1b6e 0d3c 6331 c13b 43f5 4180 cc22 4180
00000230: 9375 3080 ee24 bb3c 28ed c180 ef2d a63a
00000240: 868f bb3a 1aca af87 2364 74ba 59a4 af3c
00000250: d6f9 4d80 19f5 2280 8880 d889 971c 4e00
00000260: d85e b603 42ec b188 b00c 0cbc ba1c 4d3c
00000270: e4d3 7c00 a155 34bc 0c61 7f3c 6ecb 1f00
00000280: 86b5 df3c c7f8 c480 0db2 9d01 75ee 0080
00000290: 5e64 af00 9303 f20b 1ca6 5280 7ed9 af3b
000002a0: 07e7 083c 5ab1 f63b 25a2 4400 1fa4 2180
000002b0: 0e27 2680 8d3e b03c cf55 0a80 4286 09b9
000002c0: 0962 433b d9d0 9a87 5212 5bbb b479 a23c
000002d0: a6ee 2300 469b 3e80 bc5e 6f89 ec37 5d80
000002e0: 56ce 6385 1894 5b08 1aca 9cbb 3fd9 1d3c
000002f0: 6676 f480 53ff 24bc 5d96 593c 2e47 5380
00000300: bd89 d13c 63e3 4180 f19c 1102 8189 2c00
00000310: 4065 6100 0712 c00a b809 5200 48ec a23a
00000320: 906a e53b 7d96 f13a feb6 2800 623f a180
00000330: e735 1080 ed81 bc3c 3875 c380 e3c6 0cba
00000340: eef2 873b a0cb 7e87 16ad b73a 6489 a83c
00000350: 1dd6 0880 dbb8 1080 61ee e289 2a8f 1d00
00000360: 80b4 de81 2cef 8407 7eb7 1fbc 8682 6b3c
00000370: 2017 7b00 6b0f f6bb 324a 7b3c 5921 1580
00000380: 7e30 c73c 3a44 2780 4a25 da01 d8eb 2200
00000390: 1d69 9a80 a49c 988a 90a7 4e80 86e0 7b3b
000003a0: 87c0 0a3c 77be d73b 47f0 8300 e373 4000
000003b0: 0609 1e80 f9c5 ba3c 4f8c 4f80 026c 00bb
000003c0: 9861 8a39 7f77 5a87 466d 0bbb 4155 b03c
000003d0: 4789 4780 8e21 6d00 50c5 6989 f391 1200
000003e0: 702c 4584 3328 0409 6a51 1bbc ad7a 8e3c
000003f0: 2979 2c00 96c8 00bc 3142 7c3c 6a08 0180
0.025359146 -2.0975311e-38 8.418388e-38 3.609977e-39 -4.102142e-39 1.0995653e-31 -5.11735e-40 0.0048988163
0.008606853 0.0013765066 -1.5724671e-38 1.005252e-38 -8.208568e-39 0.020872165 -5.71223e-40 0.0018533911
0.0065021017 2.962798e-35 0.00046693746 0.019771582 8.625571e-39 -6.609227e-39 -6.505722e-33 -1.156559e-39
4.680666e-36 1.8096218e-33 -0.0067573744 0.00580803 -5.85991e-40 -0.014665627 0.014674932 -7.77075e-40
0.026106613 1.4639748e-38 2.7085903e-38 2.02396e-39 1.693213e-38 5.6851327e-32 -7.07706e-40 0.009575196
0.010195181 0.0023649384 6.488777e-39 -7.938776e-39 -3.48011e-40 0.022028532 -5.332617e-39 0.0018045262
0.0075667384 -1.0337875e-34 0.001209987 0.019915994 -1.5831108e-38 1.4183708e-38 -6.0344216e-33 4.2865e-40
-1.7157673e-35 -1.2815772e-33 -0.0025188318 0.0031458037 -4.194678e-39 -0.013626607 0.014916043 -3.38647e-39
0.02836146 8.92479e-40 2.0165921e-38 -6.498e-42 7.45083e-39 7.048059e-32 5.197822e-39 0.00729928
0.009883176 0.0020235768 -1.8422497e-38 -5.981185e-39 -3.961322e-39 0.02059107 6.952084e-39 0.0031859872
0.006849418 -1.5930453e-34 0.00091834617 0.019786289 2.037841e-39 -1.176907e-38 -4.7531658e-33 -2.34635e-39
-1.378078e-35 -9.515905e-34 -0.0013853784 0.000332681 1.857111e-39 -0.0150123695 0.013860908 -6.98144e-40
0.025003582 -8.998131e-39 9.986412e-38 6.6647e-41 -2.2265954e-38 1.6938479e-31 8.312337e-39 0.004598229
0.008528606 -0.00020683282 -8.202869e-39 7.023372e-39 1.630569e-39 0.02391604 -1.3740135e-38 0.0027419445
0.0018378703 -2.0324701e-34 0.0017717612 0.020673767 -1.2034814e-38 -4.435718e-39 -5.448636e-33 4.832842e-39
2.40334e-36 -5.9169417e-34 -0.008398417 0.009191399 1.0107035e-38 -0.013359506 0.017127164 -1.351572e-39
0.024799524 -2.2045443e-38 7.4824955e-38 4.472596e-39 -1.474373e-38 1.5014599e-31 -1.5949201e-38 0.0032598139
0.008632208 0.00589578 -6.05729e-39 -5.98179e-39 -4.450281e-39 0.022844758 -1.7809326e-38 0.0012678484
0.0014309741 -2.6449858e-34 -0.0009322783 0.021440672 -7.160957e-39 -3.210331e-39 -5.212098e-33 7.173425e-39
1.0718774e-36 -1.0708344e-33 -0.008547947 0.012519056 1.1463614e-38 -0.011006744 0.015587103 2.919877e-39
0.027308237 -1.8089002e-38 5.792818e-38 -8.5542e-41 1.6107217e-38 9.322039e-32 -7.5901e-39 0.0053665033
0.008355862 0.007528466 6.30298e-39 -3.089447e-39 -3.503759e-39 0.021514202 -9.49137e-40 -0.00013115353
0.0029813072 -2.3294094e-34 -0.0033427668 0.019833423 3.299853e-39 -5.749502e-39 -2.8813122e-33 -8.560762e-39
-1.07113866e-35 6.6077e-34 -0.0047848346 0.009634315 -2.2450334e-38 -0.01007064 0.013280478 -7.64788e-39
0.025578374 -6.050878e-39 1.0697958e-37 4.090089e-39 8.944365e-39 1.8495709e-32 7.533997e-39 0.0012430036
0.0070012286 0.001843169 3.739065e-39 -1.4808252e-38 -1.488704e-39 0.023011172 -1.7949972e-38 -0.00053702126
0.0041488325 -1.9168676e-34 0.0014013376 0.020573325 -8.11493e-40 -1.535682e-39 -5.463169e-33 2.714587e-39
-8.1808925e-38 2.0001725e-34 -0.009748338 0.014374381 1.1304062e-38 -0.007509162 0.015337514 -1.940508e-39
0.024315115 -3.60606e-39 8.013406e-38 3.207012e-39 -1.4180374e-38 -1.4695989e-32 -7.223279e-39 0.0038433387
0.008468754 0.0065839845 1.2116645e-38 5.919044e-39 -2.758302e-39 0.022799479 -7.305337e-39 -0.0019595628
0.00026394124 -1.6435614e-34 -0.002127485 0.021525027 -6.569566e-39 1.0022106e-38 -2.813913e-33 1.705396e-39
-2.3177643e-36 1.5907824e-33 -0.00947986 0.01739248 4.084226e-39 -0.007860323 0.015396641 -9.4854e-41

conv3.bias f4 [32]
00000000: c4f2 b7b5 5039 e833 24fe 00b6 fa1e b234
00000010: 1ca6 1a36 27fb 6d34 7cd4 82b5 853a 69b6
00000020: c676 21b4 e694 4535 f93a 6cb5 a866 0db4
00000030: a4d9 09b4 3cd8 27b6 c53e 0235 8ef5 dc35
00000040: 0b18 86b4 43ad 09b5 0046 e1b5 6e8d 29b5
00000050: b6ee 8bb5 8249 0034 9e95 82b4 d9ea 0d35
00000060: 1001 8434 2e83 f4b4 40c7 aab1 a34e a531
00000070: dcc5 17b2 cf45 00b3 dadc 0131 2ab5 9501
-1.3705217e-06 1.0813767e-07 -1.9221416e-06 3.3177622e-07 2.3044477e-06 2.2163714e-07 -9.747596e-07 -3.4753768e-06
-1.5037503e-07 7.3604895e-07 -8.800267e-07 -1.3168994e-07 -1.2838296e-07 -2.5010804e-06 4.8520116e-07 1.6462743e-06
-2.4976939e-07 -5.1288606e-07 -1.6784179e-06 -6.3163213e-07 -1.0425781e-06 1.1947671e-07 -2.4323248e-07 5.286834e-07
2.458769e-07 -4.5543987e-07 -4.9703033e-09 4.811072e-09 -8.834345e-09 -2.9865813e-08 1.889751e-09 5.4993913e-38

batch2.weight f4 [32]
00000000: 6834 2e3e 63a7 313e a47f 333e a7d5 353e
00000010: c9d3 363e 6e14 373e 370f 363e 9bf3 353e
00000020: 10a9 363e 03df 333e 13bb 323e efda 303e
00000030: a4dd 2f3e 7dfc 3b3e 95c1 263e 75e9 243e
00000040: b8a4 1f3e 5ac9 1b3e 6206 163e 9214 0f3e
00000050: 1d17 173e 2f27 f63d 7539 e53d 9c80 cd3d
00000060: 9ef5 b03d 77e2 933d 046f 693d f64a 2a3d
00000070: d73f db3c 35e9 5e3c 6f43 2f3b 2cbb 0d00
0.17012179 0.17349009 0.1752916 0.17757283 0.17854227 0.17878887 0.17779242 0.1776871
0.1783793 0.17565541 0.17454176 0.17271017 0.17174393 0.18358035 0.16284783 0.16104682
0.15590179 0.15213528 0.14650872 0.1397269 0.14754911 0.120191924 0.111926 0.10034296
0.08640598 0.07220929 0.05699064 0.041575395 0.02676384 0.013605406 0.0026743074 1.261006e-39

batch2.bias f4 [32]
00000000: 5b27 0cbc a198 cdbb 8ea2 c6bb e5df 72bb
00000010: 1abe c9ba af79 27ba 38d1 6038 c900 f03a
00000020: 5a27 91bb a814 fdbb ac6f 19bb 2c30 153b
00000030: 765e 98ba bfd4 bfbc 0ec1 f7bb 3832 88b8
00000040: 696d 8eba fd65 02bb f1ba 81bb 409a 8fbb
00000050: ba21 a6bc 9154 27bc ffdb e9bb 41f5 dfbb
00000060: c53d fcbb cd89 f6bb 3952 dbbb 568f adbb
00000070: e9ff 82bb 5314 39bb c0ea 7eba 5c55 b838
-0.008554305 -0.0062742983 -0.0060618585 -0.003705972 -0.0015391738 -0.00063886767 5.3600612e-05 0.0018310781
-0.00442974 -0.0077234097 -0.002341251 0.0022764308 -0.0011624831 -0.023416875 -0.0075608557 -6.494339e-05
-0.0010866347 -0.0019897216 -0.0039590527 -0.0043824017 -0.020279754 -0.010213033 -0.0071368213 -0.0068346565
-0.007697793 -0.0075237514 -0.0066931513 -0.005296628 -0.003997792 -0.0028240874 -0.00097243115 8.789703e-05

batch2.running_mean f4 [32]
00000000: c6f5 303a 28be a739 f5e4 ec39 bee8 443a
00000010: f976 4c3a f259 313a 22bf 703a 9ad4 503a
00000020: 75f9 f238 3d6a d139 da5e 8c39 f3b1 703a
00000030: e8f9 f139 ffb0 a6ba de35 b239 86fa 743a
00000040: 564b 453a 65ab 733a 4b85 4b3a c3d6 263a
00000050: 8299 a5b9 ae72 26ba 4647 013a 755d 083a
00000060: 5aa6 f239 e887 0f3a 1d3a 123a fd53 0c3a
00000070: 74a8 f539 6a3e bc39 6ccd f438 cccc 4680
0.000675049 0.000319944 0.00045184014 0.0007511488 0.0007799711 0.0006765417 0.00091837544 0.00079662504
0.00011585924 0.0003994274 0.0002677355 0.000918179 0.00046153297 -0.0012717544 0.0003399094 0.0009345192
0.00075261795 0.0009295254 0.00077636976 0.00063643995 -0.00031585625 -0.0006349486 0.000493158 0.00052019145
0.00046281778 0.00054752687 0.00055781176 0.00053530914 0.0004685555 0.00035904656 0.000116730895 -6.501952e-39

batch2.running_var f4 [32]
00000000: 92f8 e738 f22b e738 2898 e838 4a11 ec38
00000010: fe86 ed38 c317 ec38 ee48 f738 d9de ef38
00000020: 4f59 e838 4830 b138 ca8f d338 b47f e638
00000030: 7af9 cf38 5751 9f38 bd81 e938 7fd0 d838
00000040: 1b74 ca38 4ee1 ca38 e4da be38 773b b538
00000050: a9bf 3038 daf9 9c38 3dd9 9838 562a 8b38
00000060: 48d0 7438 4a7d 5138 4932 2a38 8490 fe37
00000070: 6683 aa37 e53e 2a37 372d 8435 0400 0000
0.00011061238 0.00011023124 0.000110909634 0.00011256577 0.00011326185 0.00011257783 0.00011791462 0.00011437917
0.00011079257 8.449011e-05 0.00010088047 0.00010991041 9.916998e-05 7.5968615e-05 0.000111344714 0.00010338518
9.653737e-05 9.674077e-05 9.1006776e-05 8.641829e-05 4.2140167e-05 7.485198e-05 7.2883886e-05 6.635922e-05
5.836811e-05 4.9946168e-05 4.057799e-05 3.0346455e-05 2.0326766e-05 1.0147433e-05 9.847926e-07 6e-45

LSTM.weight_ih_l0 f4 [256, 18]
00000000: 03e6 2fba ef1c 1abb c482 613b 8c72 3e3b
00000010: 187e a5ba 2fce fb3b 0d6e ce3b feb8 0b39
00000020: b301 f6bb 0bd6 81bb 3559 b53a ea09 23bc
00000030: 1a86 9aba 91a2 0e3b 6d14 2f3b ef2f 8d39
00000040: ee1c 1abb 03e6 2fba 4454 d3b9 c653 6cba
00000050: b911 e73a 48b6 be3a 6440 16ba de7b 6f3b
00000060: a3a5 363b 0a24 0c39 443b 75bb fe09 07bb
00000070: 112b 0039 2575 a3bb 421c 5cba b765 843a
00000080: bfd5 b43a 2d25 0a39 c553 6cba 4454 d3b9
00000090: 9006 4321 1443 3e23 f008 c223 c139 9c23
000000a0: c42b 3fa4 888b a2a1 6461 e2a4 0c50 af24
000000b0: 2462 b5a5 f56e ab24 9dbb 2425 7f53 c8a4
000000c0: 916e 4925 e149 ac24 6833 16a3 9ee8 bc24
000000d0: 1443 3e23 9006 4321 cd0f b136 e8a2 8db7
000000e0: 09f2 7939 9ec1 0539 17d6 5e37 d754 c139
000000f0: 06b6 9039 101e 3f37 27fd c4b9 0736 41b9
00000100: 12b4 b938 ef43 88b9 3a59 9238 8be9 4d39
00000110: cc6e 3f39 54ee d9b7 e5a2 8db7 cd0f b136
00000120: 136f 80ae f17e 10af b6b1 0a30 a2d6 8c2f
00000130: 6fdc 95af 091c 1330 f4cc 93ad 1ed7 ddae
00000140: e0f0 4db0 2a1c e0af 79de dc2f 5efd fd2f
00000150: 72da 2530 677b 2330 a06d 0230 881b f4ad
00000160: f17e 10af 136f 80ae 5e46 b2b9 3a5f 5aba
00000170: 0753 b83a 2cb3 933a 2f2a 07ba 2507 443b
00000180: 88ac 133b 0c28 0a39 e30b 4ebb 277a d4ba
00000190: 0773 9d39 5850 82bb d8e9 11ba 7f98 633a
000001a0: 8f56 923a 7fad fc38 3b5f 5aba 5e46 b2b9
000001b0: 8fab 21b9 a436 3838 49be 593a 7158 2f3a
000001c0: 9b24 8db8 5c56 a13a cb61 713a 8e1c 0139
000001d0: 719e 91ba 4c1d 78ba a4b0 29ba 7d7c d9ba
000001e0: 4d67 1aba a527 9839 88ef 2d3a 6db9 b938
000001f0: a636 3838 8fab 21b9 5cd6 a2ba b28d 79bb
00000200: b5c8 e03b 2170 cc3b 831f 0abb 6894 6f3c
00000210: 36e6 423c a2d7 6e38 6e36 63bc d132 04bc
00000220: ec6d a43a 0d4f 9ebc 6afb 4abb 2c5b 7c3b
00000230: 2921 aa3b f8d5 b439 b38d 79bb 5cd6 a2ba
00000240: 841d 1ca6 38ac 03a6 00f6 ac26 100a 6d27
00000250: e71c e6a7 2497 3127 f493 83a7 de7d f727
00000260: e2c3 10a9 606e 9126 6806 6b28 88da 8626
00000270: 5281 a128 cbe1 2b28 803c c0a6 20ac a627
00000280: 50ac 03a6 841d 1ca6 3de2 07b9 8d36 88b8
00000290: b038 3b3a cb9c 033a 01e1 c5b8 1840 8e3a
000002a0: d8bd 513a cc5d af38 08cb 89ba 0cf3 54ba
000002b0: f472 dab9 c65e b8ba cd1b e7b9 d44a 9239
000002c0: 4c3c 163a 5cff 2138 8c36 88b8 3de2 07b9
000002d0: 902c fda7 8e7a 65a9 0950 2f29 e2f9 6228
000002e0: 2b37 87a9 ea93 8b29 e62d bda8 5fc1 2629
000002f0: c9ba 61aa 2711 b728 80a4 7e29 201c 15a7
00000300: 6f43 062a 30a6 042a 642d 2229 3c91 6629
00000310: 907a 65a9 902c fda7 2004 e520 c87d 1223
00000320: a044 a023 b84b 8523 f094 23a4 a02e 9c20
00000330: 1b10 c2a4 6c44 8d24 6d3a 9da5 1d16 8e24
00000340: 0ea5 0725 205c aaa4 1851 2325 2a85 7324
00000350: 40cd f6a2 d159 9a24 d07d 1223 2004 e520
00000360: 0065 9236 35ac c037 3183 0438 8f4a b437
00000370: 05e1 e537 d8ab b738 f671 f138 c461 9437
00000380: 9532 a8b8 542e f4b6 a07e 3d38 4409 80b8
00000390: bbf8 1138 8718 2b38 bcec 6437 6848 a537
000003a0: 2fac c037 0065 9236 8a5c 6d9b 5c6c ad9c
000003b0: d148 481d 7a14 a91c 8a4b 149d c1e5 4e1d
000003c0: c432 8c9c 70cd 499b a8ce 2e9e fc47 009d
000003d0: 5780 841d 3d30 0b1d ab1e db1d 2676 b41d
000003e0: a415 011d bf4b 2c9b 626c ad9c 8a5c 6d9b
000003f0: 1363 59b7 04eb 9b37 7be6 a439 8ec9 5539
-0.00067099946 -0.002351578 0.0034410218 0.0029059974 -0.001262608 0.007684491 0.00629974 0.00013324988
-0.007507527 -0.0039622835 0.001383579 -0.009951094 -0.0011789233 0.0021764378 0.0026715056 0.0002692933
-0.0023515779 -0.00067099946 -0.0004030784 -0.0009015169 0.0017629183 0.0014550174 -0.0005731641 0.0036542336
0.0027869723 0.00013364866 -0.0037419358 -0.002060532 0.00012223075 -0.00498833 -0.0008396545 0.0010101114
0.0013796611 0.00013174555 -0.0009015168 -0.0004030784 6.6077255e-19 1.0314125e-17 2.1037307e-17 1.6938014e-17
-4.1453594e-17 -1.1014481e-18 -9.817686e-17 7.602976e-17 -3.1464998e-16 7.43474e-17 1.4288298e-16 -8.687762e-17
1.7471432e-16 7.4718265e-17 -8.142402e-18 8.192607e-17 1.0314125e-17 6.6077255e-19 5.2768505e-06 -1.6884369e-05
0.00023836656 0.00012755996 1.3282078e-05 0.0003687504 0.00027601438 1.1391487e-05 -0.00037572646 -0.00018426041
8.855028e-05 -0.00025990556 6.978442e-05 0.00019637325 0.00018256454 -2.5979396e-05 -1.6884364e-05 5.2768505e-06
-5.840497e-11 -1.3141822e-10 5.045665e-10 2.5618357e-10 -2.725957e-10 5.351813e-10 -1.6802983e-11 -1.0088129e-10
-7.492087e-10 -4.0765374e-10 4.0175843e-10 4.620046e-10 6.033708e-10 5.947442e-10 4.744951e-10 -2.7751815e-11
-1.3141822e-10 -5.840497e-11 -0.00034003233 -0.000833023 0.001406283 0.0011268607 -0.0005156127 0.0029911485
0.0022533257 0.00013175624 -0.003144019 -0.0016210721 0.00030031076 -0.003976863 -0.00055661565 0.00086820865
0.0011164712 0.000120486126 -0.00083302305 -0.00034003233 -0.00015418067 4.3919907e-05 0.0008306248 0.0006688899
-6.730222e-05 0.0012309062 0.00092079927 0.00012313036 -0.0011109841 -0.0009464815 -0.000647316 -0.0016592887
-0.0005890027 0.00029021237 0.0006635119 8.856026e-05 4.3919914e-05 -0.00015418067 -0.0012423503 -0.0038078842
0.0068598636 0.0062389527 -0.0021075911 0.014622785 0.011895707 5.6944446e-05 -0.0138679575 -0.008068756
0.0012544966 -0.019324804 -0.0030972608 0.003850649 0.0051919413 0.00034491695 -0.0038078844 -0.0012423503
-5.4163374e-16 -4.5683155e-16 1.2001576e-15 3.2895812e-15 -6.386916e-15 2.4645618e-15 -3.6520215e-15 6.8692737e-15
-3.2144324e-14 1.0091313e-15 1.304651e-14 9.357351e-16 1.7930674e-14 9.541368e-15 -1.3339075e-15 4.6260874e-15
-4.568328e-16 -5.4163374e-16 -0.00012958884 -6.495146e-05 0.0007141931 0.00050206174 -9.435602e-05 0.0010852842
0.0008001006 8.362121e-05 -0.0010512779 -0.0008123375 -0.00041665847 -0.0014066331 -0.00044080467 0.0002790304
0.0005731031 3.8623213e-05 -6.4951455e-05 -0.00012958884 -7.026992e-15 -5.0954514e-14 3.8927225e-14 1.2599705e-14
-6.0047745e-14 6.198499e-14 -2.100312e-14 3.7027127e-14 -2.0048819e-13 2.032452e-14 5.654201e-14 -2.069315e-15
1.1924987e-13 1.1781613e-13 3.6010596e-14 5.119623e-14 -5.095452e-14 -7.026992e-15 3.8796839e-19 7.941311e-18
1.7376299e-17 1.4451957e-17 -3.5471146e-17 2.6458282e-19 -8.416137e-17 6.1264914e-17 -2.727475e-16 6.1620145e-17
1.1765306e-16 -7.3881814e-17 1.4165472e-16 5.280502e-17 -6.689575e-18 6.693901e-17 7.941318e-18 3.8796839e-19
4.362897e-06 2.2968374e-05 3.1593434e-05 2.1492391e-05 2.740371e-05 8.7581284e-05 0.000115130024 1.76885e-05
-8.020286e-05 -7.27716e-06 4.517904e-05 -6.1052415e-05 3.4802342e-05 4.079242e-05 1.3644978e-05 1.970325e-05
2.2968363e-05 4.362897e-06 -1.9634082e-22 -1.147619e-21 2.6507425e-21 1.1188775e-21 -1.962669e-21 2.7382653e-21
-9.277545e-22 -1.6692711e-22 -9.254219e-21 -1.6977874e-21 3.507281e-21 1.8421435e-21 5.8000527e-21 4.7767766e-21
1.7084196e-21 -1.4251981e-22 -1.1476196e-21 -1.9634082e-22 -1.2957275e-05 1.8586878e-05 0.0003145224 0.00020388348

LSTM.weight_hh_l0 f4 [256, 64]
00000000: 0ddc 92b9 5a9e 4238 cb9e 2830 e00f 83b8
00000010: 8f8c 08b5 06d7 f2b8 7c24 84b9 b96e 12b9
00000020: 8950 94b1 62d0 29b9 62a7 8132 71f5 1930
00000030: 8596 06b9 9024 3f2c f701 91b7 6180 b538
00000040: b5f8 1c32 ea9f 87af 198e ecb6 6943 eb31
00000050: b39d b0b9 4893 9ab1 e6d9 c0b8 fbe1 f0b7
00000060: 17ef 982f 04e8 a9b8 cf29 8639 cb4b 21b9
00000070: 32dd 6e38 d2fc 10b9 82a8 bbaf a8bb cf39
00000080: 8658 b335 6098 5935 86bc 98b1 1a34 8838
00000090: bee1 6639 56ba 71b9 8869 74b6 92f3 12b1
000000a0: 9169 a436 ab88 3d38 8674 0130 7f54 da38
000000b0: 40e4 0139 3daf e139 7a5b 08b5 43c0 b3b9
000000c0: 1612 0b33 70cd 82ae 2372 e037 93d8 57b8
000000d0: 98b6 a031 a2e8 7c38 881b 90b5 08f3 07b9
000000e0: 206e 273a 3b3a ad2e 332b 20b5 be18 5dad
000000f0: 70ca dd2c 61e6 1636 ec9b 74ac 9c49 6139
00000100: d71d 8fb8 d848 a337 a231 1a2e da71 c2b8
00000110: 5dac 33b4 674b 86b8 cd5d f7b6 4c46 8438
00000120: 933a e0af 860f 0838 da17 3bb1 f233 092e
00000130: 86c9 78b8 9009 8929 9e6b 2838 c497 e938
00000140: 8776 76b1 4300 5fad 9229 4cb4 fc0a af30
00000150: 8b16 2fb9 977a 2eaf b81e 19b8 07da 9338
00000160: bc2d bc2d 089c b1b8 0c99 1338 02b8 e8b8
00000170: 18b6 0439 6cb2 1538 1f6e d3ad 419d ab38
00000180: 28ca c231 de92 8e34 c8a3 67b0 e1e0 1239
00000190: 990f ef38 3c49 3eb8 724e c8b8 1cde 7dae
000001a0: d56e 5c35 05ae a838 9fab ed2e 39b8 e537
000001b0: a01a 7b38 a4f2 8939 50a0 07b4 855f abb8
000001c0: 2742 3032 c527 62ad 677d ec38 b1c7 b6b8
000001d0: b441 7e30 92b4 6fb7 d2a2 60b4 9b42 99b8
000001e0: dd2d 7f39 d240 882c 4c0b 9ab7 1553 8eac
000001f0: e457 872b e297 ef34 0816 1ca9 02f8 19b7
00000200: 1060 17a3 70ca 6c22 94b8 5098 e83a 4ea1
00000210: 8891 8e1c c0ad 56a2 e058 f221 246d 82a3
00000220: 4afc 0b1a f8da d821 e80a aa19 9a6e 4298
00000230: 80d8 baa0 089c 8a94 98f7 7e21 f055 df21
00000240: 425f 211a b62c a317 664b c01e 6c98 ef99
00000250: c0b6 55a2 722f c419 980d 00a1 70dc 8e21
00000260: 5075 c097 a059 35a1 0cf3 21a2 f819 22a2
00000270: 5036 8c21 08cd e821 e41c f017 5cef 25a2
00000280: 50d7 6a9d 5a16 129f ebb7 091a 50c9 36a3
00000290: c879 aca2 0882 eaa2 d4e7 87a1 6843 4219
000002a0: 68f1 719e f801 5821 f236 5498 34dc a320
000002b0: a05b ce20 38fa efa2 9aed 281d f0ee 3a22
000002c0: 5270 2d9b 4628 ba16 9c3b 8a21 60ec 55a1
000002d0: cc78 d399 1024 8d20 70ec 811d 9089 dba0
000002e0: 463b 90a2 6ab5 d996 4051 49a2 4075 3113
000002f0: 7e98 0e96 9094 0a9e d448 b414 f404 dfa1
00000300: 7dd4 16b8 bf52 2cb7 f49e 3bac 931e 7f36
00000310: da1d 1d32 2497 5a37 f863 04b8 14ee 75b8
00000320: b040 9a2c 4178 06b8 7f4c a4af 5c21 45ac
00000330: fabc a6b5 09b1 03a9 6539 ccb5 5789 10b8
00000340: bfcb 76af 2499 0c2c 0862 1e33 c4f4 842e
00000350: 1018 7c35 78f9 a52d cf3e 33b6 a7a9 33b7
00000360: c645 47ac ea6b a435 c65e 2338 84d5 c837
00000370: 1dfd e9b7 9e9a 17b8 a6a7 5d2c 856e 2138
00000380: 4c81 5fb2 7e90 29b4 f02d 3b2e 2fb1 20b8
00000390: f695 9437 a6ea 04b8 e646 8037 e45a 812d
000003a0: 27a4 bbb3 505b 46b6 d34e 6ead 78a1 0536
000003b0: 4ed0 b835 167d 8a36 687b 1132 4da0 29b8
000003c0: e0a9 bfaf 2f12 b82b b6a4 bcb7 b610 7936
000003d0: 3e8c 0bae fea6 9c35 178c a032 2c0b 4ab5
000003e0: 847f 2c38 de94 47ab 7a4d b337 951a 9dab
000003f0: dfd5 deaa c663 42b3 98c6 ff28 ec14 fa37
-0.0002801124 4.640068e-05 6.13437e-10 -6.249524e-05 -5.086849e-07 -0.000115795105 -0.00025204185 -0.00013964892
-4.3165227e-09 -0.00016194725 1.5093693e-08 5.600987e-10 -0.00012835309 2.7163029e-12 -1.7286262e-05 8.654665e-05
9.1369445e-09 -2.4669983e-10 -7.0498904e-06 6.847064e-09 -0.0003368683 -4.498734e-09 -9.19586e-05 -2.871546e-05
2.7818522e-10 -8.101764e-05 0.00025589622 -0.00015382392 5.6949626e-05 -0.00013827093 -3.4134834e-10 0.00039621932
1.3362303e-06 8.1060534e-07 -4.445215e-09 6.49469e-05 0.00022018605 -0.00023052967 -3.642026e-06 -2.138425e-09
4.8998704e-06 4.5188393e-05 4.7095516e-10 0.00010410789 0.00012387428 0.00043045907 -5.0797064e-07 -0.00034284787
3.237991e-08 -5.9482086e-11 2.675603e-05 -5.1461695e-05 4.6773714e-09 6.0298138e-05 -1.0736849e-06 -0.0001296514
0.00063869543 7.877473e-11 -5.966751e-07 -1.25678894e-11 6.303673e-12 2.248584e-06 -3.476104e-12 0.00021485094
-6.8243295e-05 1.9465035e-05 3.505963e-11 -9.2718474e-05 -1.673338e-07 -6.403663e-05 -7.3720935e-06 6.307344e-05
-4.0786982e-10 3.2439384e-05 -2.722564e-09 3.119633e-11 -5.931549e-05 6.085681e-14 4.0154548e-05 0.00011138574
-3.5865086e-09 -1.26761405e-11 -1.9014104e-07 1.2736048e-09 -0.00016697698 -1.586876e-10 -3.650665e-05 7.050117e-05
2.1393436e-11 -8.469081e-05 3.5190067e-05 -0.00011096896 0.00012656336 3.5690537e-05 -2.4036826e-11 8.183206e-05
5.6691256e-09 2.655642e-07 -8.427006e-10 0.00014007419 0.000113993134 -4.5367735e-05 -9.551355e-05 -5.7722813e-11
8.211767e-07 8.043278e-05 1.0807998e-10 2.7384713e-05 5.986786e-05 0.00026311458 -1.2631176e-07 -8.171707e-05
1.025959e-08 -1.2855443e-11 0.00011276715 -8.715632e-05 9.249803e-10 -1.4287552e-05 -2.092086e-07 -7.308015e-05
0.0002433578 3.872549e-12 -1.8363491e-05 -4.0451067e-12 9.616721e-13 4.4627728e-07 -3.4658067e-14 -9.1772545e-06
-8.2060684e-18 3.2091134e-18 -2.6976558e-24 -6.9873477e-19 9.434391e-22 -2.909439e-18 1.6422083e-18 -1.4140851e-17
2.8948324e-23 1.469469e-18 1.7581993e-23 -2.5129752e-24 -3.1652893e-19 -1.3995983e-26 8.6386235e-19 1.5133815e-18
3.3370968e-23 1.0544915e-24 2.0359975e-20 -2.4773584e-23 -2.896363e-18 2.0285088e-23 -4.338608e-19 9.680644e-19
-1.2437323e-24 -6.1443803e-19 -2.1948237e-18 -2.1968842e-18 9.501145e-19 1.5775203e-18 1.55169295e-24 -2.2488386e-18
-3.1080956e-21 -3.093519e-20 2.8479504e-23 -9.908869e-18 -4.6749634e-18 -6.3563503e-18 -9.20932e-19 1.00431775e-23
-1.28083554e-20 7.318625e-19 -2.7428098e-24 2.7758992e-19 3.495839e-19 -6.504601e-18 2.2357452e-21 2.5334193e-18
-1.4346517e-22 3.0075337e-25 9.367022e-19 -7.2480047e-19 -2.1865678e-23 2.3910193e-19 3.4390486e-21 -3.7191074e-19
-3.9094036e-18 -3.517273e-25 -2.7283593e-18 2.239835e-27 -1.1518787e-25 -7.336381e-21 1.8204081e-26 -1.5112379e-18
-3.5960682e-05 -1.0271265e-05 -2.6662535e-12 3.8015758e-06 9.14539e-09 1.3029003e-05 -3.1564356e-05 -5.863428e-05
4.384125e-12 -3.2060085e-05 -2.988578e-10 -2.8013902e-12 -1.2422963e-06 -2.9241397e-14 -1.5215888e-06 -3.4460183e-05
-2.2445955e-10 1.9980207e-12 3.68764e-08 6.046144e-11 9.391233e-07 1.8869115e-11 -2.6709638e-06 -1.0708732e-05
-2.8318333e-12 1.2250359e-06 3.8950493e-05 2.3941284e-05 -2.789363e-05 -3.6145204e-05 3.1499052e-12 3.848832e-05
-1.3009707e-08 -1.5791917e-07 4.2559678e-11 -3.8311988e-05 1.7712806e-05 -3.1689786e-05 1.5291804e-05 1.4705966e-11
-8.737725e-08 -2.955745e-06 -1.3546236e-11 1.9912532e-06 1.3769693e-06 4.1272824e-06 8.46817e-09 -4.044203e-05
-3.48634e-10 1.3079033e-12 -2.2488046e-05 3.7113618e-06 -3.17295e-11 1.1671507e-06 1.8690157e-08 -7.526712e-07
4.1126754e-05 -7.0905597e-13 2.137454e-05 -1.1162899e-12 -3.9583525e-13 -4.525989e-08 2.8396813e-14 2.9812065e-05

LSTM.bias_ih_l0 f4 [256]
00000000: cec3 133d 9483 8a3c 3659 6226 9c73 973a
00000010: 982a 01b0 4a29 623c 15d1 a03b 5ca3 873d
00000020: 6a1d 182a 0ddb 8d3b e4b2 04aa 29f2 4326
00000030: 98a8 ad39 e675 021f 813b b63a f748 ad3b
00000040: 0511 c3aa 24f5 1325 7d32 3633 5667 242a
00000050: d833 443c 7ef3 6829 2d2b 003a d815 fe3a
00000060: 1fb3 7425 735a 713a 9208 073c 9b59 093c
00000070: ea04 1c3b fe4e a73b e26d ba25 704a 043c
00000080: b661 9e30 dd7a bb33 1520 f829 1bd4 6a3d
00000090: 4e4b b43c fd22 103d 79bd 003b b08c 4e28
000000a0: 9c30 6fb4 84a5 9e3a 6a33 8126 2b18 7439
000000b0: a8be c939 8f8f 1e3d 8d00 8eb1 e283 213c
000000c0: 2d96 f1ac 4a86 8223 df82 0f3b d4f4 9e3a
000000d0: cb16 64a9 e421 1039 867c 22b1 1350 e539
000000e0: 772d 8b3c b89a 6223 0765 5b3c 5623 00a1
000000f0: 57be bc21 b46f 8cb3 47d2 4a1f 7db6 8f3b
00000100: 33ad 143d 919b 843c 4462 5326 645a 8d3a
00000110: 4eb0 ceaf dce3 563c a5c4 953b 68e3 913d
00000120: dc7b 102a abfe 833b 4089 9ba9 ab45 3426
00000130: 94bb a239 bfbc fa1e a9d3 a93a 7d7c a13b
00000140: 44c0 dbaa 676b 0425 3342 3c33 f577 f029
00000150: e9b3 393c f625 5629 be7b f139 d745 ec3a
00000160: aa23 6525 d5f9 613a 0137 fd3b 30dd 003c
00000170: 3dd9 103b 8ddf 9b3b 01a0 a925 e5ef f73b
00000180: 6140 7730 45e4 a533 248a e629 a6eb 773d
00000190: 85b9 ae3c 44a5 103d 9850 ef3a 5daf 4028
000001a0: 35d1 4fb4 000e 943a 9ffb 6f26 e67e 6139
000001b0: b77a bd39 ba30 203d ecdb 4fb1 0afa 173c
000001c0: e4a4 d1ac 6a79 6423 4f4a 053b c94f 943a
000001d0: b2e7 4aa9 69e6 0239 1cdb e9b0 e7ef d739
000001e0: 3f28 853c ed75 5523 d934 503c 517e 0ba1
000001f0: dc4a ab21 e428 6ab3 9cf9 361f d6ba 853b
00000200: f839 b5bc 3be6 103c fbca 1531 f4fd 23bb
00000210: b38a b136 4d22 46bc 9278 42bc 8049 0cbd
00000220: 72a9 03b3 16bf 07bc cf92 9ab4 93de 0931
00000230: 4894 a0b9 62d8 322d d78d a6bb bf42 b53a
00000240: ae13 abb4 86f4 69b0 078f b3b7 53c2 5a33
00000250: 1f94 37bc 8020 8eb2 5623 563b 8077 f3b8
00000260: 51d9 8f30 260a bc3b 5c35 593c d583 25bc
00000270: 68e2 d3ba 6fc9 6b3a c679 a2b0 2118 543c
00000280: f896 1b36 bdaa 1038 d2df 15b3 85af 2abd
00000290: 1476 ea3c e674 1abd f6e3 f63b 7f66 fdb1
000002a0: 78c9 b738 3a2b 61bb 6555 3e31 2b53 09ba
000002b0: 0426 7f3a 38ab d5bc 86be d6b6 92bc 0c3c
000002c0: 1262 d134 0439 afaf 2aef 20bc 3202 be3b
000002d0: 629b 3633 c9d2 aab9 5e4c a5b6 fe75 cf3a
000002e0: 1130 443c 6b06 ad2f fe2e 6ebb 8938 5cae
000002f0: da5f 1c2f 5c6c ca38 862e 67ad 13a6 813c
00000300: b893 183d 6e91 8c3c 2959 6226 a397 973a
00000310: 3a2b 01b0 e9d9 643c 3aba a13b 10e4 8f3d
00000320: 5e1d 182a 1a7e 8e3b d0b2 04aa 30f2 4326
00000330: 90ae ad39 d975 021f e083 b63a 7910 ae3b
00000340: 4c0f c3aa 3df5 1325 5b32 3633 a967 242a
00000350: 3061 463c 86f3 6829 d433 003a d694 fe3a
00000360: 17b3 7425 6584 713a b624 083c b358 0a3c
00000370: 8354 1c3b 5b22 a83b eb6d ba25 a487 053c
00000380: ff61 9e30 e37a bb33 1020 f829 376d 763d
00000390: dfd9 b73c cea2 143d 21f8 003b ae8c 4e28
000003a0: a030 6fb4 fbcf 9e3a 5433 8126 461e 7439
000003b0: 19c7 c939 c81c 243d cc00 8eb1 bd2a 233c
000003c0: 4596 f1ac 4f86 8223 29c8 0f3b 3c1e 9f3a
000003d0: b716 64a9 8a24 1039 f87c 22b1 9b5b e539
000003e0: eddb 8d3c c59a 6223 59f3 5d3c 6423 00a1
000003f0: 59be bc21 c76f 8cb3 4ad2 4a1f 786d 903b
0.036075406 0.016908444 7.8530404e-16 0.001155484 -4.6990456e-10 0.013803789 0.004907737 0.06622955
1.3510517e-13 0.0043290914 -1.178602e-13 6.7982404e-16 0.00033122743 2.7626094e-20 0.0013903232 0.005288239
-3.4650768e-13 1.2833274e-16 4.2421096e-08 1.4601978e-13 0.011975251 5.1725544e-14 0.0004889246 0.0019385172
2.1224315e-16 0.00092068984 0.008241789 0.00838318 0.002380664 0.005105852 3.2340316e-16 0.008074388
1.1523784e-09 8.730215e-08 1.1018978e-13 0.057331186 0.022008564 0.035189617 0.0019644185 1.1465804e-14
-2.2276294e-07 0.0012103771 8.965109e-16 0.00023278657 0.00038479757 0.038711127 -4.1328065e-09 0.0098581035
-6.866305e-12 1.4151502e-17 0.0021898074 0.0012127408 -5.064594e-14 0.00013745535 -2.3644886e-09 0.00043737944
0.016989453 1.22842475e-17 0.013390786 -4.3414854e-19 1.2789758e-18 -6.539577e-08 4.29491e-20 0.004385768
0.03629799 0.016187461 7.3338505e-16 0.0010784385 -3.7596454e-10 0.013115849 0.004570561 0.071234524
1.2832742e-13 0.0040281615 -6.907192e-14 6.2544463e-16 0.00031038804 2.6547843e-20 0.0012956756 0.0049281702
-3.9035626e-13 1.1485564e-16 4.383237e-08 1.067895e-13 0.011334398 4.755047e-14 0.00046059297 0.0018026185
1.9874667e-16 0.0008620297 0.0077275042 0.007865235 0.002210214 0.004756874 2.942525e-16 0.0075664395
8.9949564e-10 7.724933e-08 1.02380154e-13 0.060527466 0.021328697 0.03531386 0.0018258272 1.0696167e-14
-1.9354486e-07 0.0011295676 8.326079e-16 0.00021504945 0.0003614032 0.03910897 -3.0247476e-09 0.009275923
-5.958444e-12 1.2385615e-17 0.002033848 0.0011315282 -4.5053974e-14 0.000124836 -1.7015256e-09 0.00041186737
0.016254542 1.1571725e-17 0.012707912 -4.726221e-19 1.1607226e-18 -5.451956e-08 3.874647e-20 0.0040811105
-0.022122368 0.008843954 2.1797735e-09 -0.0025023194 5.291158e-06 -0.012093139 -0.0118695665 -0.034249783
-3.0654924e-08 -0.0082853045 -2.8791553e-07 2.0062643e-09 -0.00030628056 1.0166175e-11 -0.0050828266 0.0013829096
-3.186555e-07 -8.5112395e-10 -2.1405065e-05 5.0933817e-08 -0.011204748 -1.6545755e-08 0.003267487 -0.000116094016
1.0466384e-09 0.0057385145 0.013257351 -0.010102232 -0.0016165497 0.00089945545 -1.1821661e-09 0.012945206
2.3184675e-06 3.4491288e-05 -3.489533e-08 -0.041671295 0.028620757 -0.03770914 0.0075344993 -7.3749216e-09
8.7636465e-05 -0.003435804 2.769718e-09 -0.0005238528 0.0009733143 -0.02608262 -6.399877e-06 0.008589881
3.900064e-07 -3.1872827e-10 -0.009822646 0.0057986015 4.2516497e-08 -0.00032581974 -4.9262735e-06 0.0015828011
0.011974351 3.1473077e-10 -0.0036343927 -5.0072422e-11 1.422217e-10 9.652294e-05 -1.314116e-11 0.01582626
0.03725025 0.01715919 7.8530336e-16 0.0011565577 -4.6991355e-10 0.013967969 0.00493553 0.07025921
1.3510501e-13 0.0043485286 -1.1785993e-13 6.798244e-16 0.0003312719 2.7626052e-20 0.00139248 0.0053120223
-3.4649573e-13 1.2833308e-16 4.2420975e-08 1.460209e-13 0.012108132 5.172557e-14 0.00048905355 0.0019423019
2.1224304e-16 0.0009213149 0.008309534 0.008443999 0.0023854084 0.0051310486 3.234034e-16 0.008150015
1.1523865e-09 8.730219e-08 1.10189744e-13 0.06016275 0.022442756 0.036288075 0.0019679146 1.1465802e-14
-2.2276299e-07 0.0012116426 8.965086e-16 0.00023280931 0.00038486047 0.04006651 -4.1328345e-09 0.00995892
-6.8663152e-12 1.415151e-17 0.0021939373 0.0012139748 -5.0645872e-14 0.00013746522 -2.364514e-09 0.00043746535
0.017316783 1.2284258e-17 0.013546788 -4.3414926e-19 1.278976e-18 -6.53959e-08 4.294911e-20 0.004407581
