Code/LSTM/Outputs/Pretrained/best_model.pth (torch, 217698 bytes, 15 tensors)

feature.0.weight_ih_l0 f4 [256, 54]
00000000: 6dea 0339 6012 6639 c83e 9939 ccc5 2b80
00000010: 1e39 2480 e6fe 4700 b806 5d80 f450 0b80
00000020: a281 3d00 2630 0f3a 7b61 0f3a 34d8 e639
00000030: b118 eb39 a3f6 a039 a8b5 9336 a6fe 2c39
00000040: 4b89 323a 7fdb 353a e1d9 1c00 96ed 1d37
00000050: 0bc1 9938 c1ae a039 9963 213a 1757 0c3a
00000060: 3e01 bf39 8cec 9e39 a0be 063a f1c7 063a
00000070: 98a1 9c39 95fa 9e39 9096 243a f831 e338
00000080: 0bec 9e39 b67e 063a 4620 9d39 ad4e 063a
00000090: 4c95 9e39 eeb0 243a 86b1 b938 45b1 9d39
000000a0: 9e12 073a 9df4 9b39 0b46 063a 6ff7 9e39
000000b0: b3d3 243a fbe3 bd38 7921 2f80 a213 073a
000000c0: 36e0 f739 6732 c339 382e 1439 b6b1 063a
000000d0: 11fa 053a 908b 063a f839 6e3a 631c 1c3b
000000e0: 7316 283b 4d37 6600 59fe 0c00 8c9d 1a80
000000f0: 4bba 0a00 1213 0a80 02b0 6380 4480 b63b
00000100: 3869 b73b 4186 e83a c94a f33a 0b6b 1b3a
00000110: 5ee1 5d3b 96d6 543b 96e9 3b3a 8d4c 3b3a
00000120: 4229 1380 8aca 843b 0054 463a 128e a23b
00000130: 45f3 963b 0a96 853b 7af6 6d3b 2197 403b
00000140: 963d a13b 6e64 a13b 0c53 413b 6ea5 403b
00000150: 69b6 993b c3a8 003b 53a2 403b c5cb 9f3b
00000160: c126 413b 1011 9f3b a864 403b 95ba 983b
00000170: cf29 ff3a 3efb 403b e500 a23b 2b26 413b
00000180: 1e9c 9f3b de45 403b 3f9b 993b c45c ff3a
00000190: 768a 1b80 398b a03b ad24 6d3b 8719 00ba
000001a0: 4979 b93a d87c a03b 76d4 9e3b 5ad8 9d3b
000001b0: be81 043a 45d9 973a 45e7 963a 7ea0 4880
000001c0: 11b4 7280 8094 6200 9cdd 4200 e2ab 2e80
000001d0: 5237 1900 47b2 263b e04e 263b 3d91 893a
000001e0: 8e42 903a 2f2b 263a 7938 c43a 59ab be3a
000001f0: b879 523a ce7f 523a 2a80 0780 0984 e33a
00000200: f587 093a b7ee 093b 49fa 2f3b 33b9 0d3b
00000210: a419 f93a 7fe3 db3a df19 283b fa53 263b
00000220: 6333 dc3a bc6f db3a 5440 343b de61 313a
00000230: 8b32 dd3a f701 283b 011d df3a 2325 263b
00000240: ed19 db3a ad42 343b 8f93 1b3a 75ab db3a
00000250: 02e5 273b b112 dd3a cc05 263b 3e3b dd3a
00000260: 4350 343b e474 1b3a 4571 0580 b704 283b
00000270: d701 093b c0bc 073a 1329 473a 0bbf 263b
00000280: 6487 253b 2d32 263b 5a81 ec39 9ac3 863a
00000290: 9dba 793a 83e9 0300 2777 0a80 79c8 0200
000002a0: bf47 1e80 9852 0600 73de 3d80 d5c6 0e3b
000002b0: dce1 0f3b 4e51 7b3a 7b5e 833a 1ca1 323a
000002c0: 0821 993a b82e 9b3a 0b9d 603a a2c3 653a
000002d0: 2594 3780 d75d b23a 2a6e 013a 04be e63a
000002e0: 152e 193b 6b4a f73a 84a0 d13a ac7f b83a
000002f0: 87cb 0e3b 6301 0e3b 8c08 b93a 78eb bb3a
00000300: a3d0 1d3b ab57 193a cde0 bb3a 1835 0f3b
00000310: 2ef2 b93a 0884 0d3b e07a b83a 635b 1e3b
00000320: 39a1 073a 44da b83a 8834 103b 9bd1 bd3a
00000330: b9df 0d3b b2a7 ba3a 0055 1d3b 54e8 063a
00000340: c798 3380 be49 0f3b 3cff eb3a 14fb 183a
00000350: 9902 2c3a 4116 0f3b 8cb5 0d3b 763b 0e3b
00000360: 1b14 ab39 977e 383a da68 383a b8e6 1600
00000370: bd01 1480 59dc 8b09 07ad 1500 2e35 6380
00000380: 607b 2b80 4853 d03a 3854 d03a eab5 073a
00000390: bdd2 0f3a 3167 8839 b406 943a 5be3 843a
000003a0: c932 5a39 ada4 6839 1470 0900 1f6a ba3a
000003b0: e88d a739 c411 c03a aa75 e03a 6c72 ae3a
000003c0: 5fd8 a13a c4d3 b83a b834 d63a fc67 d43a
000003d0: 841d ba3a 28d5 b73a 4aa4 e83a 9857 da39
000003e0: a84c b83a 8d30 d63a 88c8 ba3a 5523 d43a
000003f0: b4ee b83a 97a4 e83a dc02 c239 310b ba3a
0.00012580464 0.00021941354 0.0002922921 -4.019882e-39 -3.326568e-39 6.61176e-39 -8.543111e-39 -1.039231e-39
5.648469e-39 0.0005462192 0.0005469543 0.00044030102 0.0004484109 0.00030701337 4.402089e-06 0.00016498062
0.00068106194 0.00069373095 2.649554e-39 9.4132465e-06 7.3315656e-05 0.0003064778 0.0006156504 0.00053535536
0.00036431284 0.0003031235 0.00051400997 0.0005141488 0.00029875035 0.00030322807 0.0006278539 0.00010833511
0.00030311974 0.0005130576 0.0002996942 0.0005123418 0.00030247343 0.0006282468 8.854554e-05 0.0003007745
0.00051526155 0.00029746155 0.00051221316 0.0003032046 0.0006287649 9.054687e-05 -4.328276e-39 0.0005152767
0.0004727856 0.0003723085 0.00014131598 0.00051381753 0.000511081 0.0005132491 0.00090876175 0.002382063
0.0025648146 9.387059e-39 1.193269e-39 -2.44424e-39 9.85184e-40 -9.25196e-40 -9.154854e-39 0.0055694897
0.00559726 0.0017740206 0.0018561716 0.00059287314 0.0033856253 0.0032476536 0.0007168291 0.0007144891
-1.759675e-39 0.004052465 0.00075656176 0.0049607838 0.0046066367 0.004076724 0.0036310242 0.0029386955
0.0049206717 0.004925302 0.0029498963 0.0029395479 0.0046909344 0.001963184 0.0029393628 0.004876586
0.0029472562 0.004854329 0.002935687 0.004660914 0.0019467416 0.0029446627 0.0049439543 0.0029472213
0.0048709055 0.002933852 0.004687696 0.0019482602 -2.529229e-39 0.004899409 0.003618519 -0.00048866164
0.0014150526 0.004897695 0.0048471047 0.004817051 0.00050547335 0.0011585137 0.0011513015 -6.66973e-39
-1.0533842e-38 9.05315e-39 6.140641e-39 -4.286093e-39 2.315733e-39 0.0025435851 0.0025376603 0.0010495555
0.0011006163 0.00063388323 0.0014970443 0.0014546915 0.0008029002 0.00080299086 -6.88825e-40 0.0017358075
0.00052463944 0.0021046826 0.0026852062 0.002162528 0.0019004834 0.0016776173 0.0025650186 0.0025379644
0.0016799982 0.0016741673 0.0027504163 0.00067665975 0.0016876025 0.0025635937 0.0017022194 0.0025351725
0.00167161 0.0027505562 0.00059347687 0.0016759472 0.0025618677 0.0016866532 0.0025333045 0.0016878617
0.002751366 0.0005930199 -4.99811e-40 0.0025637576 0.0020905638 0.0005177967 0.0007597368 0.002544346
0.00252577 0.0025359497 0.00045109802 0.0010281682 0.0009526404 3.59275e-40 -9.61099e-40 2.55587e-40
-2.780803e-39 5.80642e-40 -5.681765e-39 0.0021785994 0.002195469 0.00095870055 0.0010022664 0.00068141683
0.0011682818 0.0011839485 0.0008568323 0.00087648083 -5.104097e-39 0.0013608289 0.0004937375 0.0017604236
0.0023373414 0.0018866783 0.0015993272 0.0014076135 0.0021788792 0.0021668307 0.0014116927 0.0014337143
0.0024080656 0.00058495504 0.0014333964 0.0021851715 0.0014186555 0.002159359 0.0014074706 0.0024163357
0.00051738654 0.0014103134 0.0022003967 0.0014482023 0.0021648242 0.0014240651 0.0024006963 0.0005146314
-4.738416e-39 0.0021864022 0.0018005143 0.00058357534 0.00065616664 0.0021833333 0.0021623103 0.0021702922
0.0003263064 0.00070379063 0.0007034667 2.103147e-39 -1.837334e-39 3.3670247e-33 1.990616e-39 -9.110791e-39
-3.993185e-39 0.001589396 0.001589424 0.00051769486 0.00054864195 0.00026016825 0.0011293502 0.0010138558
0.00020809019 0.0002218659 8.66726e-40 0.00142223 0.0003195845 0.0014653732 0.001712491 0.0013309247
0.0012347809 0.0014101197 0.0016342616 0.0016205306 0.001419947 0.0014025318 0.0017749157 0.00041645463
0.0014060931 0.0016341374 0.0014250437 0.0016184846 0.0014109225 0.0017749247 0.00037004694 0.0014194009

feature.0.weight_hh_l0 f4 [256, 64]
00000000: 1b39 4c38 21a7 4eb7 9569 8138 2970 5838
00000010: 2326 bbb7 6628 5eb8 ee1c 6638 3dcd 49b9
00000020: b7e2 71b8 a02a ef37 cc54 24b8 86c3 5e38
00000030: d772 3538 4dd4 8638 7ca0 0338 7ff4 3739
00000040: a693 3438 c4fc 3bb8 cd37 61b9 785f 0438
00000050: 1863 98b8 4543 3338 c6a2 28b8 badd 5a38
00000060: b0bb 3bb9 373f 84b7 eb23 30b8 69cc 82b8
00000070: a160 ebb8 70bc 2db8 61a0 80b8 1ebf 5eb8
00000080: cd8c dd38 d6f1 39b8 36d7 00b8 8633 3ab8
00000090: 8091 89b8 94f4 c538 0efc 89b8 7841 4bb9
000000a0: d10a 84b8 76f8 0a39 f0d2 9438 bc2e 6237
000000b0: 8bb0 43b7 c88f 0db8 88e2 4e38 3b2d 8038
000000c0: a2ec 1b38 d1da e638 5c0b bbb6 28ef 59b8
000000d0: da8f 49b7 62a5 3e37 5b2a 9638 9054 3438
000000e0: 3651 5138 5276 3938 4cfe 84b8 49dc 6238
000000f0: 2b8b 48b9 49dc 54b8 e758 d8b7 a5f3 3fb8
00000100: b8d6 68b9 b054 1138 434b fa39 ecd9 f239
00000110: b60b 8ab9 704b e3b9 66e8 9c39 1176 6c39
00000120: 24bd fbb9 fde5 4b39 3409 97b9 174e be39
00000130: ab34 af39 ddaa e839 4bbe a239 4c2e 213a
00000140: c3ef a339 b664 cc36 ea66 68b9 3df5 bcb8
00000150: 790b 09ba 1ad4 2638 7399 1bb9 3374 1d39
00000160: ecba 4dba 43b0 bbb9 942d a1b9 2758 dfb9
00000170: e9df 1db9 1aa9 e6b9 3a52 cab9 6df6 05ba
00000180: d0af a6ba 70b1 b0b9 5fc3 5838 e4ee 2839
00000190: 2640 e0b9 e545 1f3a bb1e 07ba 29ff 5eba
000001a0: 2a15 82b9 ca04 3e3a 1b54 083a 0603 7b39
000001b0: e12c 2fb9 b44c 9539 c74d f638 6358 d9b9
000001c0: 827f e7b8 2112 58ba 171b a739 64e4 cab9
000001d0: 0bd6 9739 52e5 adb9 7ec7 da39 3249 c839
000001e0: 2675 053a 8d8e c039 3680 eab9 e12c e039
000001f0: 926a c039 1597 cab9 0c31 5337 f2a1 e6b9
00000200: 2865 12b9 5a7e 0d39 3006 8f39 a84f 8839
00000210: dd77 40b9 1caa 84b9 743a 6d39 b9f1 a937
00000220: 9fe3 8db9 a10b 3739 706c 64b9 800b 7739
00000230: fc14 6639 a643 8d39 dba7 5239 644d d539
00000240: 2b93 6939 a726 08b9 3cd0 56b9 4339 2cb9
00000250: 5c2a 9bb9 af4c 2b39 3298 33b9 26e7 4139
00000260: 16f3 f8b9 8a16 53b9 3cd3 5fb9 68a0 89b9
00000270: a496 3cb9 0d40 80b9 1452 81b9 7fff 8eb9
00000280: 58ca f3b9 8fe8 65b9 4e98 bcb8 f43e 0839
00000290: bb7c 8ab9 5cc4 b239 4455 96b9 cdd1 01ba
000002a0: 3039 6db9 a9fe d639 ed6d 9939 0a9c 3239
000002b0: 733c 0b38 de04 e236 3666 50b8 2168 44b8
000002c0: 1261 ac38 62d0 2fb9 9128 4439 7d0b 7ab9
000002d0: 0083 1c39 c30f 0138 6b0d 8e39 9a18 7939
000002e0: 92c5 8c39 9233 6f39 4435 8cb9 fc57 8439
000002f0: fed9 40b7 b9b2 79b9 6e5a a438 2fc9 81b9
00000300: 948b e1b8 795f f038 7917 7839 1dd7 6939
00000310: 7e19 25b9 2ea3 64b9 d000 5339 1c39 9db8
00000320: c3e0 74b9 0c12 2139 6ca7 45b9 76c1 5739
00000330: d979 4639 10df 7739 e06b 3439 efa0 ce39
00000340: cb97 4939 7b23 06b9 232f 85b9 2614 06b9
00000350: 400e 88b9 dfe4 1f39 429b 21b9 0514 3539
00000360: f0ce e8b9 b47d 31b9 a7f1 42b9 3fd0 70b9
00000370: e4a4 4db9 5f10 5ab9 716c 63b9 b7c4 74b9
00000380: 8645 95b9 a101 47b9 39a9 c6b8 e52b c938
00000390: 17f3 74b9 7e25 a039 c6a0 82b9 130b f3b9
000003a0: b119 57b9 7b8a c539 5256 8639 c8fd 1639
000003b0: 6ef8 1138 2ce9 1cb7 597b 06b8 1173 0eb8
000003c0: 77b6 c338 cd13 d9b8 a1b1 1839 bb24 5cb9
000003d0: e1c4 0239 0fa2 2938 82ee 7c39 d0f2 5439
000003e0: 6cce 6f39 3fcf 4d39 cb75 75b9 56d6 6439
000003f0: 2545 d8b8 e138 59b9 7798 8b38 7ce0 5db9
4.8690574e-05 -1.231747e-05 6.1708655e-05 5.160287e-05 -2.2309896e-05 -5.296655e-05 5.4863216e-05 -0.00019245311
-5.7670022e-05 2.8510869e-05 -3.917962e-05 5.311102e-05 4.3260716e-05 6.429162e-05 3.1382297e-05 0.00017543322
4.3052853e-05 -4.481968e-05 -0.0002147846 3.1560165e-05 -7.2663825e-05 4.2739575e-05 -4.0205916e-05 5.218175e-05
-0.00017903629 -1.5765063e-05 -4.199512e-05 -6.2369574e-05 -0.00011223672 -4.142191e-05 -6.1333885e-05 -5.3106916e-05
0.000105643274 -4.4332664e-05 -3.071801e-05 -4.439384e-05 -6.5597706e-05 9.439248e-05 -6.579618e-05 -0.00019383978
-6.296265e-05 0.00013253264 7.09648e-05 1.3481531e-05 -1.166401e-05 -3.3750926e-05 4.93252e-05 6.1119405e-05
3.717526e-05 0.000110080124 -5.5743567e-06 -5.1959563e-05 -1.2014027e-05 1.1363389e-05 7.160447e-05 4.29941e-05
4.9905117e-05 4.421763e-05 -6.341617e-05 5.4087755e-05 -0.0001912533 -5.0749895e-05 -2.5790605e-05 -4.576486e-05
-0.00022205233 3.4649565e-05 0.0004773979 0.000463202 -0.00026330136 -0.0004335302 0.0002992779 0.00022550697
-0.0004801537 0.00019445266 -0.0002880782 0.00036297805 0.00033417842 0.0004437779 0.00031040827 0.00061485614
0.0003126842 6.091398e-06 -0.00022163583 -9.010218e-05 -0.0005227845 3.977502e-05 -0.00014839116 0.00015015974
-0.0007847983 -0.00035798745 -0.0003074227 -0.00042599553 -0.000150561 -0.0004399501 -0.00038589706 -0.00051102677
-0.0012717191 -0.00033701537 5.1680367e-05 0.00016110722 -0.00042772404 0.0006075784 -0.00051544205 -0.000850665
-0.000248113 0.00072486384 0.0005200521 0.00023938352 -0.00016706019 0.00028476643 0.00011744681 -0.0004145532
-0.000110386885 -0.00082424475 0.00031872906 -0.00038698607 0.0002896044 -0.00033167988 0.00041728833 0.00038201507
0.0005091004 0.00036727302 -0.00044727483 0.00042758047 0.00036700495 -0.00038641007 1.2588e-05 -0.00043989677
-0.00013961329 0.00013493877 0.00027279695 0.0002599929 -0.000183552 -0.00025303743 0.00022623857 2.025893e-05
-0.00027063207 0.00017456572 -0.0002178417 0.0002356004 0.00021942327 0.00026944018 0.00020089692 0.00040684186
0.00022275436 -0.0001298437 -0.00020486204 -0.0001642453 -0.00029595464 0.00016336398 -0.00017127467 0.00018492024
-0.0004748336 -0.00020130925 -0.00021345628 -0.00026250188 -0.00017985195 -0.00024461784 -0.0002466595 -0.0002727471
-0.0004649933 -0.00021925777 -8.9929075e-05 0.00012993423 -0.00026414343 0.00034097105 -0.00028673757 -0.0004952222
-0.00022623385 0.00041006997 0.00029264335 0.00017033532 3.319648e-05 6.7358915e-06 -4.9686256e-05 -4.682702e-05
8.21968e-05 -0.00016766929 0.00018707129 -0.00023846138 0.0001492612 3.0770676e-05 0.00027094348 0.00023755655
0.00026850082 0.00022812028 -0.00026742567 0.00025242555 -1.1494847e-05 -0.0002381307 7.836973e-05 -0.0002475469
-0.000107548345 0.00011461875 0.00023659867 0.00022300748 -0.00015745123 -0.00021804564 0.00020122831 -7.496981e-05
-0.00023353384 0.0001536088 -0.00018849754 0.00020576068 0.00018928143 0.00023638853 0.00017206324 0.00039411287
0.00019225401 -0.00012792453 -0.00025402856 -0.00012786742 -0.00025950558 0.00015248683 -0.00015411995 0.00017268963
-0.0004440467 -0.00016926863 -0.00018591304 -0.00022965761 -0.0001961175 -0.00020796199 -0.00021688805 -0.00023342935
-0.00028471294 -0.00018978726 -9.472896e-05 9.592603e-05 -0.00023360211 0.00030545512 -0.00024915318 -0.00046356823
-0.00020513569 0.00037677944 0.00025622785 0.00014399656 3.4802062e-05 -9.352614e-06 -3.2062966e-05 -3.3962602e-05
9.332311e-05 -0.000103510545 0.00014562022 -0.00020994518 0.00012471109 4.044367e-05 0.00024121444 0.0002030835
0.00022869714 0.00019627529 -0.00023408902 0.00021823621 -0.00010312562 -0.00020715922 6.656435e-05 -0.0002115983

feature.0.bias_ih_l0 f4 [256]
00000000: b9c4 103a f333 b63b b6e9 253b e28f 0e3b
00000010: 8835 ce3a ac80 103b 6d74 253b 08f0 103d
00000020: 0966 1e3b ce2d 043b c6cc 1d3b ae29 1a3b
00000030: bd43 ee3a 570b 303b de65 ee3a 26ff 2b3c
00000040: 7dd4 143b 5af5 b03b fdba b93c 5898 7c3b
00000050: 7712 433b 6526 7e3b 65df 563b f94f 333b
00000060: c032 1e3c 486d a83a 9109 0b3b df4f 303b
00000070: 17f3 273c c0ea f33a 4f3d 2e3b be08 1e3b
00000080: df77 8d3e c0e8 0a3b 2bb2 b93b 732c 503a
00000090: 007c 333b a0ba 863b 9e99 313b 5b61 493c
000000a0: fe4e 3d3b 39d6 d13b 914e 3d3b da29 db3a
000000b0: 9f08 fe3b 342c 1d3c bc87 903b 8cd3 aa3b
000000c0: 862b 663b 0118 863c 1fd2 ca3a c9e8 273b
000000d0: 09a1 983a 8ab6 3a3c 8b32 403b e89e 0c3b
000000e0: f42b 1a3b 9904 043b 558c 293b 2678 133b
000000f0: dd08 cd3c 47ce 143b 834c 3d3b b31d 003b
00000100: 72bf 093a 800f 9aba 30af d33a 1e09 bf3a
00000110: 59df e639 4893 b13a 78df a239 d9fa 85bc
00000120: a962 d03a 84a0 7db8 a630 7738 b711 553a
00000130: e614 423a 1d47 903a 369b 083a 6774 0b3b
00000140: 5738 cd39 216e 07bb f097 54bc ae60 6eba
00000150: ac93 df3a e46f c8ba 05d6 44ba cb21 22ba
00000160: 7a4c 6c3b cf23 883a 0c9d 173a 4dd3 8d3a
00000170: 5cad 38bb 553d a73a a434 103a d521 063b
00000180: 5145 eebd be37 173a 2f10 0cbb e608 8938
00000190: 1a71 623a 71c3 193b 63f8 f03a 1053 e33a
000001a0: 7c9d 24b8 1031 5e3b 3eb6 e63a 8a06 1039
000001b0: 6cc6 31bb e702 70bb 206d a2ba 5073 11bb
000001c0: f0fa d9ba f979 b0bb 303c 8b39 0d5d b93a
000001d0: 8365 403a a76a 85bb fdd0 723a 8844 1d3a
000001e0: 8bd1 0b3b bf82 663a fc16 9e3a 1a10 ae3a
000001f0: 7798 20bc 9f00 203a 67dd 82ba df5b ab3a
00000200: 5bd1 debb 51c5 34bc 8c85 4d3c 48ff 473c
00000210: bc7f d7bb 75b2 3cbc b124 8c3b 2dcb 7bbb
00000220: 2950 4cbc 3d97 663b 90ff 3aba 8446 093c
00000230: aad3 f73b e3ab d73b e95d c33b 64cc 113c
00000240: 6f8f 9a3b b36d be3a 28a3 02bc 2917 013c
00000250: c62a 3ebc 843a 84bb 108e adba d84f abba
00000260: 97c7 78bc 4e14 27bc 1f29 cebb 4505 19bc
00000270: 0d2b 4abc 0e74 40bc 3fc7 55bb fa86 63bc
00000280: 2451 c4bd f8bf cbbb f50d 20bb b556 813b
00000290: 2544 e6bb 74ed 6a3c 0cd2 5cbc e247 62bc
000002a0: 43f3 38bb f3b6 763c 5acc 503c a4a8 cb3b
000002b0: 7b43 57ba d4ea 273b dc4b a13a 949f dfbb
000002c0: 9e99 ccbb 7abd 0bbc 27b8 be3a a4f0 2ebc
000002d0: 730b 8a3c dd73 aabb 4a70 dd3b 82e6 bb3b
000002e0: c831 683c fc90 0b3c ccd0 0cbc 303e 383c
000002f0: bace d9bb d774 efba d1d2 beba 563a 3fbc
00000300: b9a4 133a b8c0 bb3b 8541 323b d2f9 183b
00000310: c58f d43a 3bc5 193b 4eeb 2b3b 5782 163d
00000320: 67dc 2a3b 7c96 073b f683 233b 848d 213b
00000330: dd1b f73a f01b 3a3b 4fbe f63a 6656 413c
00000340: 9f45 1a3b 61da b53b 5b6f c73c 6ac7 803b
00000350: ec3e 513b adce 823b 1a67 5d3b 52b7 393b
00000360: f17e 333c 08c6 af3a 7993 103b 5a2e 3a3b
00000370: 5e34 333c 0acf 013b dfd1 363b 0a1a 2a3b
00000380: 5fb0 923e ed44 103b 4cee be3b dbd7 523a
00000390: 2242 3d3b 462b 943b d7de 403b 3217 503c
000003a0: 635a 443b db76 ef3b 2654 4b3b fac9 e03a
000003b0: df12 013c 7419 213c be68 923b 7ff5 ae3b
000003c0: 3617 6d3b cf8d 803c 9fe3 cf3a f2a4 333b
000003d0: 49b7 9d3a c526 3f3c 201e 4b3b b75a 123b
000003e0: 4273 253b 7ef4 093b 1364 333b daf5 1c3b
000003f0: ee98 d43c 409d 1b3b 8e23 403b d78e 083b
0.0005522478 0.005560392 0.0025316305 0.0021753241 0.0015732506 0.002204935 0.0025246397 0.03538516
0.0024169704 0.0020168903 0.0024078353 0.0023523378 0.0018178147 0.0026862228 0.0018188318 0.010497844
0.002270966 0.005400342 0.02267217 0.0038542952 0.0029765645 0.003878021 0.0032786962 0.00273609
0.009655654 0.0012849951 0.0021215419 0.0026903076 0.010250828 0.001860939 0.0026586836 0.0024114097
0.27630517 0.0021195859 0.005666991 0.0007941194 0.0027387142 0.004111603 0.002709962 0.012291278
0.0028886194 0.006403711 0.002888594 0.0016720847 0.0077524926 0.009593058 0.004410712 0.0052132066
0.0035121157 0.016368868 0.0015473998 0.0025620928 0.0011644672 0.01139606 0.0029327 0.002145702
0.0023524733 0.0020144342 0.0025870998 0.0022502034 0.02502864 0.0022705959 0.0028884716 0.0019548952
0.0005254663 -0.0011753887 0.0016150232 0.0014574861 0.00044035426 0.0013547922 0.00031065545 -0.016354965
0.0015898544 -6.0469392e-05 5.8934696e-05 0.0008127945 0.0007403627 0.0011007522 0.00052111165 0.0021279098
0.00039142623 -0.0020665007 -0.012975678 -0.0009093386 0.001705756 -0.0015292135 -0.0007508698 -0.0006184845
0.0036056326 0.0010386648 0.00057835947 0.0010820419 -0.0028179502 0.0012759367 0.0005501008 0.0020466943
-0.11634315 0.0005768499 -0.002137195 6.5343265e-05 0.0008638069 0.002346244 0.0018384572 0.001734348
-3.9247316e-05 0.0033903755 0.001760192 0.00013735346 -0.0027126325 -0.0036622824 -0.0012392141 -0.0022193976
-0.0016630571 -0.005385634 0.0002655699 0.0014142111 0.0007339345 -0.004071552 0.0009262709 0.00059992867
0.0021334614 0.00087932864 0.0012061293 0.0013279945 -0.009801975 0.0006103608 -0.0009984196 0.0013073644
-0.0067998595 -0.011033372 0.012544047 0.01220686 -0.0065765064 -0.011517157 0.004276835 -0.0038420663
-0.012470284 0.003518536 -0.00071334187 0.008378629 0.007563074 0.00658177 0.0059621227 0.008898828
0.0047168056 0.0014528543 -0.00797347 0.007879057 -0.011606878 -0.004035296 -0.001324119 -0.001307006
-0.015184305 -0.010197712 -0.006291523 -0.009339635 -0.012339366 -0.01174642 -0.003261998 -0.013887161
-0.09585789 -0.006217953 -0.0024422382 0.003947104 -0.0070271664 0.01433884 -0.013477813 -0.0138110835
-0.0028221167 0.015058267 0.012744034 0.006215172 -0.00082116545 0.0025622146 0.0012305933 -0.006824443
-0.0062438985 -0.008529061 0.0014550731 -0.01067749 0.016851163 -0.0052018003 0.0067577707 0.005734266
0.014172025 0.008518454 -0.008594703 0.011245295 -0.006646958 -0.0018269074 -0.0014558678 -0.011671623
0.00056321506 0.005729761 0.0027199697 0.0023342264 0.0016217163 0.0023463506 0.0026232782 0.036745396
0.0026071311 0.002068906 0.002495048 0.0024651 0.0018852908 0.0028398 0.0018825027 0.011800384
0.0023540033 0.0055497144 0.02434509 0.003930022 0.0031928374 0.003991923 0.0033783377 0.0028338027
0.010955558 0.0013410458 0.0022060557 0.0028408975 0.010937778 0.0019807243 0.002789609 0.0025955462
0.28650185 0.002201374 0.005826747 0.0008043029 0.002887853 0.00452176 0.0029429698 0.012700843
0.0029961101 0.00730787 0.0031025498 0.0017150037 0.007878034 0.009832729 0.0044680526 0.005339324
0.0036177165 0.01569262 0.0015860683 0.0027411547 0.0012032773 0.011666958 0.0030993298 0.0022331902
0.00252457 0.002105027 0.0027372881 0.002395025 0.025951829 0.0023744851 0.0029318067 0.0020837092

feature.0.bias_hh_l0 f4 [256]
00000000: b9c4 103a f333 b63b b6e9 253b e28f 0e3b
00000010: 8835 ce3a ac80 103b 6d74 253b 08f0 103d
00000020: 0966 1e3b ce2d 043b c6cc 1d3b ae29 1a3b
00000030: bd43 ee3a 570b 303b de65 ee3a 26ff 2b3c
00000040: 7dd4 143b 5af5 b03b fdba b93c 5898 7c3b
00000050: 7712 433b 6526 7e3b 65df 563b f94f 333b
00000060: c032 1e3c 486d a83a 9109 0b3b df4f 303b
00000070: 17f3 273c c0ea f33a 4f3d 2e3b be08 1e3b
00000080: df77 8d3e c0e8 0a3b 2bb2 b93b 732c 503a
00000090: 007c 333b a0ba 863b 9e99 313b 5b61 493c
000000a0: fe4e 3d3b 39d6 d13b 914e 3d3b da29 db3a
000000b0: 9f08 fe3b 342c 1d3c bc87 903b 8cd3 aa3b
000000c0: 862b 663b 0118 863c 1fd2 ca3a c9e8 273b
000000d0: 09a1 983a 8ab6 3a3c 8b32 403b e89e 0c3b
000000e0: f42b 1a3b 9904 043b 558c 293b 2678 133b
000000f0: dd08 cd3c 47ce 143b 834c 3d3b b31d 003b
00000100: 72bf 093a 800f 9aba 30af d33a 1e09 bf3a
00000110: 59df e639 4893 b13a 78df a239 d9fa 85bc
00000120: a962 d03a 84a0 7db8 a630 7738 b711 553a
00000130: e614 423a 1d47 903a 369b 083a 6774 0b3b
00000140: 5738 cd39 216e 07bb f097 54bc ae60 6eba
00000150: ac93 df3a e46f c8ba 05d6 44ba cb21 22ba
00000160: 7a4c 6c3b cf23 883a 0c9d 173a 4dd3 8d3a
00000170: 5cad 38bb 553d a73a a434 103a d521 063b
00000180: 5145 eebd be37 173a 2f10 0cbb e608 8938
00000190: 1a71 623a 71c3 193b 63f8 f03a 1053 e33a
000001a0: 7c9d 24b8 1031 5e3b 3eb6 e63a 8a06 1039
000001b0: 6cc6 31bb e702 70bb 206d a2ba 5073 11bb
000001c0: f0fa d9ba f979 b0bb 303c 8b39 0d5d b93a
000001d0: 8365 403a a76a 85bb fdd0 723a 8844 1d3a
000001e0: 8bd1 0b3b bf82 663a fc16 9e3a 1a10 ae3a
000001f0: 7798 20bc 9f00 203a 67dd 82ba df5b ab3a
00000200: 5bd1 debb 51c5 34bc 8c85 4d3c 48ff 473c
00000210: bc7f d7bb 75b2 3cbc b124 8c3b db61 7dbb
00000220: 2950 4cbc 3d97 663b 90ff 3aba 8446 093c
00000230: aad3 f73b e3ab d73b e95d c33b f7cb 113c
00000240: 6f8f 9a3b b36d be3a 4f0d bbbb 2917 013c
00000250: c62a 3ebc 843a 84bb 108e adba d84f abba
00000260: a6c6 78bc 4e14 27bc 1f29 cebb 4505 19bc
00000270: 0d2b 4abc 0e74 40bc 3fc7 55bb fa86 63bc
00000280: f86c ddbd f8bf cbbb f50d 20bb b556 813b
00000290: 2544 e6bb 74ed 6a3c 0cd2 5cbc c91a 61bc
000002a0: 43f3 38bb f3b6 763c 5acc 503c a4a8 cb3b
000002b0: 7b43 57ba d4ea 273b dc4b a13a 949f dfbb
000002c0: 9e99 ccbb eb98 11bc 27b8 be3a a4f0 2ebc
000002d0: 730b 8a3c dd73 aabb 4a70 dd3b 82e6 bb3b
000002e0: c831 683c fc90 0b3c ccd0 0cbc 303e 383c
000002f0: 4797 d9bb d774 efba d1d2 beba 563a 3fbc
00000300: b9a4 133a b8c0 bb3b 8541 323b d2f9 183b
00000310: c58f d43a 3bc5 193b 4eeb 2b3b 5782 163d
00000320: 67dc 2a3b 7c96 073b f683 233b 848d 213b
00000330: dd1b f73a f01b 3a3b 4fbe f63a 6656 413c
00000340: 9f45 1a3b 61da b53b 5b6f c73c 6ac7 803b
00000350: ec3e 513b adce 823b 1a67 5d3b 52b7 393b
00000360: f17e 333c 08c6 af3a 7993 103b 5a2e 3a3b
00000370: 5e34 333c 0acf 013b dfd1 363b 0a1a 2a3b
00000380: 5fb0 923e ed44 103b 4cee be3b dbd7 523a
00000390: 2242 3d3b 462b 943b d7de 403b 3217 503c
000003a0: 635a 443b db76 ef3b 2654 4b3b fac9 e03a
000003b0: df12 013c 7419 213c be68 923b 7ff5 ae3b
000003c0: 3617 6d3b cf8d 803c 9fe3 cf3a f2a4 333b
000003d0: 49b7 9d3a c526 3f3c 201e 4b3b b75a 123b
000003e0: 4273 253b 7ef4 093b 1364 333b daf5 1c3b
000003f0: ee98 d43c 409d 1b3b 8e23 403b d78e 083b
0.0005522478 0.005560392 0.0025316305 0.0021753241 0.0015732506 0.002204935 0.0025246397 0.03538516
0.0024169704 0.0020168903 0.0024078353 0.0023523378 0.0018178147 0.0026862228 0.0018188318 0.010497844
0.002270966 0.005400342 0.02267217 0.0038542952 0.0029765645 0.003878021 0.0032786962 0.00273609
0.009655654 0.0012849951 0.0021215419 0.0026903076 0.010250828 0.001860939 0.0026586836 0.0024114097
0.27630517 0.0021195859 0.005666991 0.0007941194 0.0027387142 0.004111603 0.002709962 0.012291278
0.0028886194 0.006403711 0.002888594 0.0016720847 0.0077524926 0.009593058 0.004410712 0.0052132066
0.0035121157 0.016368868 0.0015473998 0.0025620928 0.0011644672 0.01139606 0.0029327 0.002145702
0.0023524733 0.0020144342 0.0025870998 0.0022502034 0.02502864 0.0022705959 0.0028884716 0.0019548952
0.0005254663 -0.0011753887 0.0016150232 0.0014574861 0.00044035426 0.0013547922 0.00031065545 -0.016354965
0.0015898544 -6.0469392e-05 5.8934696e-05 0.0008127945 0.0007403627 0.0011007522 0.00052111165 0.0021279098
0.00039142623 -0.0020665007 -0.012975678 -0.0009093386 0.001705756 -0.0015292135 -0.0007508698 -0.0006184845
0.0036056326 0.0010386648 0.00057835947 0.0010820419 -0.0028179502 0.0012759367 0.0005501008 0.0020466943
-0.11634315 0.0005768499 -0.002137195 6.5343265e-05 0.0008638069 0.002346244 0.0018384572 0.001734348
-3.9247316e-05 0.0033903755 0.001760192 0.00013735346 -0.0027126325 -0.0036622824 -0.0012392141 -0.0022193976
-0.0016630571 -0.005385634 0.0002655699 0.0014142111 0.0007339345 -0.004071552 0.0009262709 0.00059992867
0.0021334614 0.00087932864 0.0012061293 0.0013279945 -0.009801975 0.0006103608 -0.0009984196 0.0013073644
-0.0067998595 -0.011033372 0.012544047 0.01220686 -0.0065765064 -0.011517157 0.004276835 -0.0038663063
-0.012470284 0.003518536 -0.00071334187 0.008378629 0.007563074 0.00658177 0.0059621227 0.008898727
0.0047168056 0.0014528543 -0.0057083736 0.007879057 -0.011606878 -0.004035296 -0.001324119 -0.001307006
-0.01518408 -0.010197712 -0.006291523 -0.009339635 -0.012339366 -0.01174642 -0.003261998 -0.013887161
-0.108118 -0.006217953 -0.0024422382 0.003947104 -0.0070271664 0.01433884 -0.013477813 -0.013739296
-0.0028221167 0.015058267 0.012744034 0.006215172 -0.00082116545 0.0025622146 0.0012305933 -0.006824443
-0.0062438985 -0.008886556 0.0014550731 -0.01067749 0.016851163 -0.0052018003 0.0067577707 0.005734266
0.014172025 0.008518454 -0.008594703 0.011245295 -0.006640348 -0.0018269074 -0.0014558678 -0.011671623
0.00056321506 0.005729761 0.0027199697 0.0023342264 0.0016217163 0.0023463506 0.0026232782 0.036745396
0.0026071311 0.002068906 0.002495048 0.0024651 0.0018852908 0.0028398 0.0018825027 0.011800384
0.0023540033 0.0055497144 0.02434509 0.003930022 0.0031928374 0.003991923 0.0033783377 0.0028338027
0.010955558 0.0013410458 0.0022060557 0.0028408975 0.010937778 0.0019807243 0.002789609 0.0025955462
0.28650185 0.002201374 0.005826747 0.0008043029 0.002887853 0.00452176 0.0029429698 0.012700843
0.0029961101 0.00730787 0.0031025498 0.0017150037 0.007878034 0.009832729 0.0044680526 0.005339324
0.0036177165 0.01569262 0.0015860683 0.0027411547 0.0012032773 0.011666958 0.0030993298 0.0022331902
0.00252457 0.002105027 0.0027372881 0.002395025 0.025951829 0.0023744851 0.0029318067 0.0020837092

feature.2.weight_ih_l0 f4 [128, 64]
00000000: 68c1 f2b6 e60f 5436 f2bd c936 1571 fc36
00000010: 66ea a5b6 1705 cab6 7910 5a36 83c5 a5b6
00000020: 8c6a 2fb7 2f4f d336 f22f 4ab6 0a93 df36
00000030: 0ec4 4936 574c 5236 cde9 ab36 d3ca 4f36
00000040: 143b 4337 56bf 20b7 72ce 3ab6 7d41 a3b6
00000050: af88 93b6 dabe 3d36 4638 11b7 6e91 7e36
00000060: 4295 42b5 3b6f 47b7 60b1 69b7 94a4 0ab7
00000070: ba41 bfb6 8709 f5b6 8096 4bb6 5762 e1b6
00000080: 01ce 33b7 1eee 5fb6 c3cf feb6 3ce9 0037
00000090: c1cf 2fb6 977b b236 3f8b bdb6 7d6c 78b5
000000a0: 16d5 09b7 c251 5136 95f4 2f36 ac58 f136
000000b0: 0a4d 7d36 bd9d c6b5 1bd2 85b6 b8ae b135
000000c0: 050f fc35 db45 a3b6 ae1b 3437 a2f4 2db7
000000d0: e31a 1d37 edb6 8e36 78ed a836 5175 df36
000000e0: 0c9a 1c37 842f cc36 b2cb 21b6 9501 9d36
000000f0: fedb 80b5 5b89 b8b5 5b0c 6636 5ac7 92b6
00000100: 5681 0434 b1ea 6ab4 2fb6 bab3 b9df 59b4
00000110: be5f ad33 f064 df33 cad5 8532 ce89 6fb4
00000120: 6c9e a834 a6a6 cfb3 7be4 dd32 3c10 1ab4
00000130: 09f2 2b33 a0d7 6532 9c09 ecb3 c89a 27b3
00000140: 7a45 be33 1db0 60b5 5195 6d34 58f3 e734
00000150: 80ac 8fb1 7be2 ec33 56c9 96b3 1902 d233
00000160: 59ca 4a34 f9de bbb4 5be9 2cb5 c5bb 8a34
00000170: 7eef 8bb3 daec 5e34 d861 2ab3 282d 0a34
00000180: ed54 a735 22c1 33b2 bf94 3eb5 5ada a034
00000190: 1428 adb1 98fe e931 a65d 2b33 338d ae34
000001a0: 9cc1 d533 c833 0c33 602e e332 c9cc 84b4
000001b0: fade c534 df05 fcb4 cbc5 a8b4 0fbe b235
000001c0: f69d 0d34 1442 b435 5c33 0334 32e7 e333
000001d0: d150 9c34 bf3d 8c35 9801 5d32 9a91 98b4
000001e0: 523b a4b4 500c 21b4 9fbd 8ab2 406f 15b1
000001f0: c2a8 c734 86b3 0f33 03a8 50b3 7842 4ab2
00000200: 5efb a436 289c 81b6 fa24 0fb7 ed88 11b7
00000210: 3fa2 c636 d2f1 0637 e7ae aeb6 f5b7 8736
00000220: 1eea 1637 1750 c8b6 ff15 a836 08b0 01b7
00000230: 7099 a6b6 2a76 c8b6 91d1 d2b6 e9c3 c4b6
00000240: b38b dfb6 47b4 9436 40f9 9d36 f4e3 ac36
00000250: 84ad 0237 a840 75b6 8562 c336 c314 a8b6
00000260: e6bc 4936 3ded c136 978c ce36 b530 1237
00000270: e4a9 c336 0602 0a37 8fd4 a836 68ea 1637
00000280: ec8c 3937 e22e b136 18ec 7d36 6863 8cb6
00000290: 4767 a536 3791 14b7 575c 0e37 eb64 6236
000002a0: b57e 0037 d9fe e5b6 8cfd bbb6 3164 c5b6
000002b0: d306 18b6 911c 9035 3023 1a36 f438 a135
000002c0: 0372 1db6 bd87 7a36 b85b b2b6 1fcf 0137
000002d0: f0c1 9cb6 fe74 e3b5 cfba f8b6 0b5a 04b7
000002e0: 83d2 16b7 9dce fab6 a1ac a936 c848 efb6
000002f0: 3c00 0236 f605 5836 768b 4bb6 81b0 f036
00000300: 801c 9eb6 b187 0836 3fd8 8d36 9292 ad36
00000310: 8a44 61b6 9560 8cb6 75f5 1836 d94d 60b6
00000320: 338d edb6 dec5 8d36 06d8 0cb6 79d9 9836
00000330: f09a 0e36 a97e 1636 ee16 6936 2c2a 1836
00000340: 244c 0137 0fd8 d8b6 987f 01b6 d3d5 50b6
00000350: dcb1 54b6 fc3c 0436 1b40 c1b6 8172 3136
00000360: dcb1 04b5 b2e4 02b7 0992 17b7 a229 bcb6
00000370: 8310 84b6 299d a8b6 541d 10b6 2f05 9fb6
00000380: 2f3c fab6 eff8 1cb6 e7b7 adb6 3758 a236
00000390: e3b8 f9b5 405c 8136 cf68 86b6 b0a2 1ab5
000003a0: 6005 bbb6 32b0 1c36 4966 0036 face 9d36
000003b0: 6aeb 2d36 db72 9db5 60cf 34b6 41ca b235
000003c0: f4f6 b235 5966 3cb6 dcaa e536 b11e ebb6
000003d0: 4f4a ce36 6ac6 5636 26d8 6d36 a625 9836
000003e0: be6e d736 bce9 8b36 0c75 e9b5 22bf 5c36
000003f0: 3a16 0fb5 8940 82b5 43e3 1636 3997 50b6
-7.2346775e-06 3.1599716e-06 6.0123793e-06 7.5233497e-06 -4.9446708e-06 -6.0206617e-06 3.249412e-06 -4.9403766e-06
-1.045562e-05 6.297508e-06 -3.0128253e-06 6.6630355e-06 3.0065453e-06 3.1336874e-06 5.123415e-06 3.0963463e-06
1.1636661e-05 -9.581292e-06 -2.7836327e-06 -4.8654024e-06 -4.3968535e-06 2.8274285e-06 -8.655776e-06 3.79336e-06
-7.248783e-07 -1.1887222e-05 -1.3929181e-05 -8.26376e-06 -5.699895e-06 -7.302678e-06 -3.033696e-06 -6.716971e-06
-1.0717195e-05 -3.3368192e-06 -7.5939765e-06 7.683699e-06 -2.619796e-06 5.319201e-06 -5.6488493e-06 -9.254507e-07
-8.215449e-06 3.1191016e-06 2.6219398e-06 7.1926825e-06 3.774478e-06 -1.4798057e-06 -3.9881684e-06 1.3238378e-06
1.8779834e-06 -4.865911e-06 1.0735281e-05 -1.0368562e-05 9.364189e-06 4.253225e-06 5.034435e-06 6.6595753e-06
9.334191e-06 6.0852053e-06 -2.4109436e-06 4.679149e-06 -9.600769e-07 -1.3749044e-06 3.4279863e-06 -4.3743466e-06
1.234051e-07 -2.1878328e-07 -8.694439e-08 -2.029109e-07 8.073356e-08 1.0402607e-07 1.5580458e-08 -2.2308743e-07
3.1407706e-07 -9.669502e-08 2.5831687e-08 -1.4348274e-07 4.003417e-08 1.3378582e-08 -1.0991354e-07 -3.902349e-08
8.860202e-08 -8.370278e-07 2.2126666e-07 4.320416e-07 -4.1814587e-09 1.1030803e-07 -7.021542e-08 9.7792686e-08
1.888633e-07 -3.4993698e-07 -6.441457e-07 2.5841123e-07 -6.516255e-08 2.0761527e-07 -3.9670198e-08 1.2868679e-07
1.2467186e-06 -1.0463085e-08 -7.099697e-07 2.9961194e-07 -5.039519e-09 6.8101365e-09 3.9899213e-08 3.2512762e-07
9.953803e-08 3.2643385e-08 2.6447367e-08 -2.4735917e-07 3.6856346e-07 -4.694293e-07 -3.1436352e-07 1.3317348e-06
1.3189114e-07 1.3430276e-06 1.221901e-07 1.06125654e-07 2.9116066e-07 1.0448783e-06 1.2864255e-08 -2.8418145e-07
-3.0590542e-07 -1.4998773e-07 -1.6151544e-08 -2.1745592e-09 3.7189426e-07 3.3458058e-08 -4.858158e-08 -1.1773061e-08
4.916844e-06 -3.8626786e-06 -8.5320735e-06 -8.674554e-06 5.9197478e-06 8.043326e-06 -5.2059654e-06 4.044729e-06
8.995206e-06 -5.969788e-06 5.009351e-06 -7.729985e-06 -4.965048e-06 -5.9742206e-06 -6.2828844e-06 -5.864062e-06
-6.662181e-06 4.4317308e-06 4.707981e-06 5.1525367e-06 7.789004e-06 -3.654548e-06 5.822922e-06 -5.009207e-06
3.0061287e-06 5.7794664e-06 6.155645e-06 8.713619e-06 5.8312307e-06 8.225912e-06 5.0315352e-06 8.995274e-06
1.105967e-05 5.280469e-06 3.7837362e-06 -4.1838975e-06 4.9294063e-06 -8.855298e-06 8.485359e-06 3.3735366e-06
7.658896e-06 -6.8544e-06 -5.602551e-06 -5.8827213e-06 -2.2653737e-06 1.073715e-06 2.296827e-06 1.201201e-06
-2.3461187e-06 3.7331913e-06 -5.315491e-06 7.737223e-06 -4.6717396e-06 -1.6946867e-06 -7.4127233e-06 -7.888778e-06
-8.98971e-06 -7.4746335e-06 5.056689e-06 -7.131228e-06 1.9371646e-06 3.2189978e-06 -3.0330534e-06 7.173105e-06
-4.712085e-06 2.0344562e-06 4.227302e-06 5.172865e-06 -3.3567508e-06 -4.1835688e-06 2.279264e-06 -3.3423914e-06
-7.079588e-06 4.2251622e-06 -2.0987368e-06 4.55527e-06 2.1249834e-06 2.2425468e-06 3.4733052e-06 2.2674312e-06
7.706727e-06 -6.462454e-06 -1.9296767e-06 -3.1118877e-06 -3.169399e-06 1.970503e-06 -5.759311e-06 2.6441705e-06
-4.943265e-07 -7.801851e-06 -9.034303e-06 -5.6076833e-06 -3.9358288e-06 -5.025086e-06 -2.1474743e-06 -4.7391727e-06
-7.457587e-06 -2.339071e-06 -5.177211e-06 4.838246e-06 -1.8605755e-06 3.855239e-06 -4.0057125e-06 -5.760621e-07
-5.57366e-06 2.334837e-06 1.9133024e-06 4.70306e-06 2.5916038e-06 -1.1730839e-06 -2.6942798e-06 1.3320897e-06
1.3333906e-06 -2.8073757e-06 6.8446225e-06 -7.0071187e-06 6.147929e-06 3.2003977e-06 3.5441567e-06 4.534336e-06
6.4203914e-06 4.169733e-06 -1.7393918e-06 3.2893809e-06 -5.3303995e-07 -9.704537e-07 2.2484026e-06 -3.1082438e-06

feature.2.weight_hh_l0 f4 [128, 32]
00000000: bf43 d733 08f7 51b3 4096 3c30 0796 2ab3
00000010: fcad a4b1 3c4a a4b3 a138 48b4 ee63 0eb4
00000020: c454 7134 2fcd 5136 b4bf 19b4 e4d4 27b4
00000030: 15d8 e2b3 6a63 b5b3 28de 77b4 2bb8 2434
00000040: f12c 3b34 82d0 d333 c03c f52f d83d 33b4
00000050: b2ea 53b4 63fa 22b4 347c 4334 3ca5 1234
00000060: 20df 3f34 a276 42b2 ae68 e232 a50c 5134
00000070: 698a 12b4 f808 3932 1db9 66b4 2e1d 1834
00000080: b459 8cb2 2234 7632 fab3 3f33 7fa1 4732
00000090: 968f 8eb1 48c5 7f32 7458 7e32 7f8b 8832
000000a0: d8ee a3b2 9a02 a3b6 2b05 8732 7a51 8332
000000b0: 36bb 8732 855e 8232 c64b 9132 9733 85b2
000000c0: 8ff2 80b2 a010 87b2 d084 b0b1 7fb9 8332
000000d0: e67d 5832 e371 8632 b490 80b2 0a2e 88b2
000000e0: 9350 81b2 b854 25b1 4087 20b1 c857 5cb2
000000f0: 0a24 8832 bd29 85b2 c02d 6c32 c0d1 7db2
00000100: ae21 ccb2 1895 4c33 3807 bcb2 e48e a4b1
00000110: ae02 d832 3078 5432 a82a 9c33 6531 2e33
00000120: 682d cdb3 7826 ceb6 0e57 4733 3706 6733
00000130: 4948 e332 d5fa 8932 8ada ea33 b76a 60b3
00000140: 4c4e 8bb3 91fa c4b2 44df c232 7a74 8133
00000150: b25a a933 adf5 5b33 a0fd 95b3 5388 37b3
00000160: f253 91b3 53b1 f132 5f3e 18b3 4854 a5b3
00000170: 1c4c 3733 e04d ffb2 ba3b c633 7738 3fb3
00000180: b1d9 7633 9ad5 d3b2 c241 db32 d23b a7b2
00000190: 002d ceb1 12d2 35b3 2edb f9b3 3cc1 aab3
000001a0: 8144 1634 2c62 e534 663f bab3 08a3 cdb3
000001b0: 1ee2 83b3 b419 4cb3 263d 1db4 a63f c933
000001c0: 2608 e833 ceb3 7333 0087 53b1 18fe dcb3
000001d0: 38d1 05b4 12b8 c6b3 044c f333 7888 b033
000001e0: c053 ee33 ea59 20b2 2f6d 8e32 3dc5 0334
000001f0: 3d65 b0b3 70e8 9caf 4f0a 12b4 c4e6 b833
00000200: 22e3 dd32 6425 05b2 fc41 2633 e49a b0b1
00000210: b6f6 d7b1 13f9 94b2 34ef 86b3 fc03 2ab3
00000220: 8a86 a133 03a2 eeb5 8873 3db3 2334 56b3
00000230: 3d11 f5b2 3ddb aeb2 1f34 aeb3 fb5e 5033
00000240: a662 7733 fed0 dc32 d09f adb1 ea10 69b3
00000250: 3416 94b3 13ea 4cb3 0db5 8233 f435 3133
00000260: 4c15 7f33 5cdd fcb1 6bd5 1d32 4051 9133
00000270: ff0c 31b3 d25d efb1 542f a2b3 34a1 3d33
00000280: 760f af33 3d5a 26b3 dc34 5032 0626 02b3
00000290: 2c14 d0b1 8ca8 83b3 b883 28b4 58c2 ebb3
000002a0: 9f35 4b34 ff3e 0c36 ca9d ffb3 e027 0cb4
000002b0: e071 b9b3 a651 92b3 8670 52b4 dc68 0934
000002c0: 7716 1d34 8e6b ac33 b02d fab0 8e18 16b4
000002d0: a81c 33b4 99d8 07b4 c058 2434 c82f f333
000002e0: 8e2c 2134 e80d 40b2 6891 c332 4a8f 3034
000002f0: 6001 f3b3 759b b731 c15a 43b4 da13 fd33
00000300: a280 2034 04fd b6b3 1e93 10b3 4358 77b3
00000310: 50c5 42b2 a2d0 f3b3 1747 95b4 d60c 54b4
00000320: 026d b534 7549 e336 e8f9 64b4 6dd8 79b4
00000330: 44c2 28b4 fbac 06b4 fe38 bab4 e656 7534
00000340: 4975 8b34 5589 1d34 6857 5eb1 b88f 85b4
00000350: 2d59 9db4 fec7 72b4 40bd 9134 3667 5a34
00000360: 6607 8f34 b7c7 bab2 f01b 4633 1e3b 9b34
00000370: bc3d 5ab4 c1f9 c832 0d1d acb4 60a2 6134
00000380: 6609 ff33 468e 84b3 b04a 4eb2 313d 4ab3
00000390: acd1 d9b1 f4cb c2b3 46d5 6bb4 a91c 28b4
000003a0: 908b 8e34 d0b7 9536 9a65 35b4 bfd3 45b4
000003b0: c127 06b4 26e1 d6b3 ab2e 92b4 3c3b 4234
000003c0: 3a85 5c34 1ab1 fa33 0032 38ae ba42 53b4
000003d0: 440f 79b4 de36 40b4 344b 6634 1d18 2d34
000003e0: 1a0f 6234 86e1 75b2 4a1b 0d33 f7b9 7534
000003f0: 14f8 2cb4 8544 8432 26c5 87b4 a62f 3334
1.00240406e-07 -4.8886278e-08 6.860752e-10 -3.971766e-08 -4.792808e-09 -7.650348e-08 -1.8647053e-07 -1.3261135e-07
2.2475712e-07 3.126286e-06 -1.4318977e-07 -1.5630536e-07 -1.056325e-07 -8.4465526e-08 -2.3084488e-07 1.534069e-07
1.7432082e-07 9.8633805e-08 4.4608406e-10 -1.6693173e-07 -1.9736288e-07 -1.5178516e-07 1.8205975e-07 1.3657422e-07
1.7869434e-07 -1.131926e-08 2.6357466e-08 1.9469242e-07 -1.3647663e-07 1.07704565e-08 -2.1487763e-07 1.4166719e-07
-1.6338937e-08 1.4330938e-08 4.463434e-08 1.16200445e-08 -4.1490678e-09 1.488781e-08 1.4804858e-08 1.589592e-08
-1.9084311e-08 -4.8580814e-06 1.5718419e-08 1.5287458e-08 1.5801202e-08 1.5176974e-08 1.691468e-08 -1.5506698e-08
-1.5011464e-08 -1.5723629e-08 -5.137373e-09 1.5334761e-08 1.2601481e-08 1.5651443e-08 -1.4966965e-08 -1.585342e-08
-1.5054217e-08 -2.4058817e-09 -2.3359945e-09 -1.28256445e-08 1.5848872e-08 -1.5502218e-08 1.374741e-08 -1.477423e-08
-2.3764041e-08 4.763305e-08 -2.1889363e-08 -4.789273e-09 2.5146928e-08 1.2367352e-08 7.272075e-08 4.0557456e-08
-9.554316e-08 -6.1437568e-06 4.6412474e-08 5.378953e-08 2.645915e-08 1.6062964e-08 1.0936226e-07 -5.225112e-08
-6.486934e-08 -2.2931347e-08 2.2686102e-08 6.0282176e-08 7.886173e-08 5.1213352e-08 -6.984487e-08 -4.2731994e-08
-6.767358e-08 2.813673e-08 -3.5446984e-08 -7.698742e-08 4.267723e-08 -2.972132e-08 9.230958e-08 -4.4522007e-08
5.7474328e-08 -2.4660768e-08 2.5524859e-08 -1.9468562e-08 -6.000505e-09 -4.2333404e-08 -1.16348346e-07 -7.951391e-08
1.399476e-07 4.2726003e-07 -8.672832e-08 -9.5757116e-08 -6.141293e-08 -4.7520828e-08 -1.464401e-07 9.3713695e-08
1.0804824e-07 5.6741378e-08 -3.078128e-09 -1.0290768e-07 -1.2462704e-07 -9.253576e-08 1.13293964e-07 8.220462e-08
1.1097973e-07 -9.33367e-09 1.6580627e-08 1.227208e-07 -8.214054e-08 -2.8541391e-10 -1.360106e-07 8.610144e-08
2.5831074e-08 -7.7501205e-09 3.87099e-08 -5.139883e-09 -6.2853713e-09 -1.7342733e-08 -6.283372e-08 -3.9584833e-08
7.521619e-08 -1.7779533e-06 -4.4110067e-08 -4.9873176e-08 -2.8529593e-08 -2.0355964e-08 -8.111987e-08 4.8515158e-08
5.759889e-08 2.570641e-08 -5.0531312e-09 -5.4264923e-08 -6.895826e-08 -4.771034e-08 6.08653e-08 4.1260094e-08
5.9391184e-08 -7.359331e-09 9.187128e-09 6.766868e-08 -4.1222844e-08 -6.9664816e-09 -7.552322e-08 4.4151605e-08
8.151885e-08 -3.8731958e-08 1.2119212e-08 -3.0302566e-08 -6.05589e-09 -6.1308214e-08 -1.5694138e-07 -1.0978391e-07
1.8925356e-07 2.0898294e-06 -1.19030645e-07 -1.3053022e-07 -8.6354476e-08 -6.8135066e-08 -1.959871e-07 1.2797267e-07
1.4629937e-07 8.028938e-08 -1.8202879e-09 -1.3978772e-07 -1.6681099e-07 -1.2651653e-07 1.5305977e-07 1.13242606e-07
1.5010502e-07 -1.1179033e-08 2.276711e-08 1.6443406e-07 -1.13158194e-07 5.3436744e-09 -1.8193806e-07 1.17848415e-07
1.4947958e-07 -8.521059e-08 -3.3661415e-08 -5.7589443e-08 -1.133715e-08 -1.13535194e-07 -2.7805137e-07 -1.9748708e-07
3.379319e-07 6.7736787e-06 -2.132507e-07 -2.3268667e-07 -1.5716893e-07 -1.2542652e-07 -3.4686667e-07 2.2849017e-07
2.5976104e-07 1.4671726e-07 -3.2354937e-09 -2.487775e-07 -2.9308413e-07 -2.2610763e-07 2.7146052e-07 2.034038e-07
2.664121e-07 -2.174407e-08 4.6125876e-08 2.8914013e-07 -2.0325291e-07 2.339664e-08 -3.2058634e-07 2.101383e-07
1.18760724e-07 -6.1726084e-08 -1.200776e-08 -4.7087443e-08 -6.339368e-09 -9.070928e-08 -2.1963669e-07 -1.5656646e-07
2.6551106e-07 4.4619446e-06 -1.6893901e-07 -1.8424088e-07 -1.2494185e-07 -1.0006106e-07 -2.7228575e-07 1.8089207e-07
2.0537564e-07 1.1673747e-07 -4.1881165e-11 -1.9675181e-07 -2.3195486e-07 -1.7901354e-07 2.1447778e-07 1.6120653e-07
2.1053384e-07 -1.4312155e-08 3.285394e-08 2.2885057e-07 -1.6108999e-07 1.5397982e-08 -2.5289154e-07 1.6688008e-07

feature.2.bias_ih_l0 f4 [128]
00000000: 43e7 39b5 0901 5736 f0c0 a736 b32f 1d35
00000010: 52c3 e535 c8b0 6cb4 bcd3 19b6 5799 a6b5
00000020: 44f3 33b6 ad4a d93e b558 c2b5 c834 dfb5
00000030: e048 42b5 ca26 adb4 d419 e3b4 c9b7 dcb5
00000040: 3c19 09b6 dd94 20b5 7886 cb35 4391 ffb5
00000050: 184e 0cb6 f4ee d6b5 bec3 14b6 da84 b1b5
00000060: 328a 10b6 8f9c f735 ab86 1a36 d55a 09b6
00000070: 3b0a b1b5 20b4 7535 b8d0 34b6 9195 94b5
00000080: 0e98 84b7 0e52 3eb7 664e 0db7 dfe5 6eb7
00000090: 63b7 5bb7 6f6f 7cb7 c73e 8eb7 e6e8 88b7
000000a0: 5b76 89b7 82d7 1fbe 5aa3 8ab7 c758 8eb7
000000b0: 2c2b 84b7 6220 80b7 4b40 d0b6 e239 8cb7
000000c0: 7075 8eb7 c48f 83b7 e783 5db7 e88c 8db7
000000d0: 6d05 9bb7 2dae 8cb7 2221 8eb7 be8e 89b7
000000e0: 1828 8eb7 c897 57b7 a774 50b7 52d6 9ab7
000000f0: 8c89 89b7 1583 92b6 c5a2 8db7 294e 93b7
00000100: 2d70 4338 c14b a6ba e113 28bb 9a27 d239
00000110: e3d8 45ba 7c59 0439 0941 40ba 8105 94b9
00000120: 1275 8f3a d6cf 053e fe2f bfb9 5b43 f2b9
00000130: d3ac a6b8 546a 9b38 d905 b0ba 5ee2 e939
00000140: 63ed 223a c76b ea37 3a02 3aba f9b4 12ba
00000150: f2a1 48ba 1c15 e2b9 0e01 363a 0846 a439
00000160: 710b 2e3a 2271 54ba eca7 7b3a aa6b 423a
00000170: dccc a3b9 7e92 f1ba b26a 82ba bb4a 9d39
00000180: bfe9 39b5 a0e6 5636 a7ff a736 14c6 1c35
00000190: 367d e535 f092 6db4 3eab 19b6 ad7f a6b5
000001a0: 0acf 33b6 5633 e33e 9232 c2b5 9af8 deb5
000001b0: ff4d 42b5 fc7d adb4 dcde e8b4 7e85 dcb5
000001c0: a6f4 08b6 38a2 20b5 6c41 cb35 f350 ffb5
000001d0: 8205 0cb6 12bc d6b5 029d 14b6 6666 b1b5
000001e0: 9a64 10b6 a155 f735 a363 1a36 c013 09b6
000001f0: d2eb b0b5 adca 7635 4ca0 34b6 f551 94b5
-6.92544e-07 3.20381e-06 4.9994487e-06 5.855647e-07 1.7118675e-06 -2.2043525e-07 -2.2922022e-06 -1.2412592e-06
-2.6814678e-06 0.42439786 -1.4479944e-06 -1.6630156e-06 -7.237668e-07 -3.2251984e-07 -4.2300837e-07 -1.6444766e-06
-2.042928e-06 -5.982127e-07 1.5163814e-06 -1.9041257e-06 -2.0907082e-06 -1.6013787e-06 -2.2167656e-06 -1.3226193e-06
-2.1538112e-06 1.8448499e-06 2.3026175e-06 -2.0467462e-06 -1.3190505e-06 9.153173e-07 -2.694358e-06 -1.1070389e-06
-1.5806432e-05 -1.1343987e-05 -8.4225085e-06 -1.42394265e-05 -1.3096115e-05 -1.5046316e-05 -1.6956952e-05 -1.6320915e-05
-1.6386786e-05 -0.15609553 -1.6526948e-05 -1.696906e-05 -1.575573e-05 -1.5273868e-05 -6.2063677e-06 -1.6716254e-05
-1.6982405e-05 -1.5683363e-05 -1.3203337e-05 -1.6874124e-05 -1.8479966e-05 -1.6770407e-05 -1.6943148e-05 -1.6398142e-05
-1.694639e-05 -1.2850338e-05 -1.2424926e-05 -1.8458031e-05 -1.6395723e-05 -4.366399e-06 -1.6884305e-05 -1.7560162e-05
4.6596095e-05 -0.0012687371 -0.0025646614 0.00040083827 -0.0007547272 0.00012621837 -0.000733391 -0.0002823286
0.0010944924 0.13067564 -0.00036466116 -0.0004620802 -7.947688e-05 7.410781e-05 -0.0013429477 0.0004460988
0.0006215183 2.7945161e-05 -0.00070956687 -0.0005596425 -0.0007653526 -0.00043121807 0.0006942906 0.00031332695
0.0006639278 -0.00081040163 0.00095999124 0.0007416556 -0.00031242415 -0.0018430499 -0.000995001 0.00030001052
-6.9258016e-07 3.2022726e-06 5.0067497e-06 5.840277e-07 1.7098271e-06 -2.21258e-07 -2.2898453e-06 -1.2405122e-06
-2.679359e-06 0.44375104 -1.4468844e-06 -1.6612642e-06 -7.238413e-07 -3.2315427e-07 -4.337552e-07 -1.6430129e-06
-2.0407983e-06 -5.9840704e-07 1.5143719e-06 -1.902254e-06 -2.0864832e-06 -1.5998978e-06 -2.214511e-06 -1.321733e-06
-2.151623e-06 1.8427855e-06 2.3005784e-06 -2.0426087e-06 -1.3181655e-06 9.1937073e-07 -2.6915395e-06 -1.1050712e-06

feature.2.bias_hh_l0 f4 [128]
00000000: 43e7 39b5 0901 5736 f0c0 a736 b32f 1d35
00000010: 52c3 e535 c8b0 6cb4 bcd3 19b6 5799 a6b5
00000020: 44f3 33b6 aa4a d93e b558 c2b5 c834 dfb5
00000030: e048 42b5 ca26 adb4 d419 e3b4 c9b7 dcb5
00000040: 3c19 09b6 dd94 20b5 7886 cb35 4391 ffb5
00000050: 184e 0cb6 f4ee d6b5 bec3 14b6 da84 b1b5
00000060: 328a 10b6 8f9c f735 ab86 1a36 d55a 09b6
00000070: 3b0a b1b5 20b4 7535 b8d0 34b6 9195 94b5
00000080: 0e98 84b7 0e52 3eb7 664e 0db7 dfe5 6eb7
00000090: 63b7 5bb7 6f6f 7cb7 c73e 8eb7 e6e8 88b7
000000a0: 5b76 89b7 6bdb 1fbe 5aa3 8ab7 c758 8eb7
000000b0: 2c2b 84b7 6220 80b7 4b40 d0b6 e239 8cb7
000000c0: 7075 8eb7 c48f 83b7 e783 5db7 e88c 8db7
000000d0: 6d05 9bb7 2dae 8cb7 2221 8eb7 be8e 89b7
000000e0: 1828 8eb7 c897 57b7 a774 50b7 52d6 9ab7
000000f0: 8c89 89b7 1583 92b6 c5a2 8db7 294e 93b7
00000100: 2d70 4338 c14b a6ba e113 28bb 9a27 d239
00000110: e3d8 45ba 7c59 0439 0941 40ba 8105 94b9
00000120: 1275 8f3a ad50 963c fe2f bfb9 5b43 f2b9
00000130: d3ac a6b8 546a 9b38 d905 b0ba 5ee2 e939
00000140: 63ed 223a c76b ea37 3a02 3aba f9b4 12ba
00000150: f2a1 48ba 1c15 e2b9 0e01 363a 0846 a439
00000160: 710b 2e3a 2271 54ba eca7 7b3a aa6b 423a
00000170: dccc a3b9 7e92 f1ba b26a 82ba 64ce a139
00000180: bfe9 39b5 a0e6 5636 a7ff a736 14c6 1c35
00000190: 367d e535 f092 6db4 3eab 19b6 ad7f a6b5
000001a0: 0acf 33b6 5833 e33e 9232 c2b5 9af8 deb5
000001b0: ff4d 42b5 fc7d adb4 dcde e8b4 7e85 dcb5
000001c0: a6f4 08b6 38a2 20b5 6c41 cb35 f350 ffb5
000001d0: 8205 0cb6 12bc d6b5 029d 14b6 6666 b1b5
000001e0: 9a64 10b6 a155 f735 a363 1a36 c013 09b6
000001f0: d2eb b0b5 adca 7635 4ca0 34b6 f551 94b5
-6.92544e-07 3.20381e-06 4.9994487e-06 5.855647e-07 1.7118675e-06 -2.2043525e-07 -2.2922022e-06 -1.2412592e-06
-2.6814678e-06 0.42439777 -1.4479944e-06 -1.6630156e-06 -7.237668e-07 -3.2251984e-07 -4.2300837e-07 -1.6444766e-06
-2.042928e-06 -5.982127e-07 1.5163814e-06 -1.9041257e-06 -2.0907082e-06 -1.6013787e-06 -2.2167656e-06 -1.3226193e-06
-2.1538112e-06 1.8448499e-06 2.3026175e-06 -2.0467462e-06 -1.3190505e-06 9.153173e-07 -2.694358e-06 -1.1070389e-06
-1.5806432e-05 -1.1343987e-05 -8.4225085e-06 -1.42394265e-05 -1.3096115e-05 -1.5046316e-05 -1.6956952e-05 -1.6320915e-05
-1.6386786e-05 -0.15611045 -1.6526948e-05 -1.696906e-05 -1.575573e-05 -1.5273868e-05 -6.2063677e-06 -1.6716254e-05
-1.6982405e-05 -1.5683363e-05 -1.3203337e-05 -1.6874124e-05 -1.8479966e-05 -1.6770407e-05 -1.6943148e-05 -1.6398142e-05
-1.694639e-05 -1.2850338e-05 -1.2424926e-05 -1.8458031e-05 -1.6395723e-05 -4.366399e-06 -1.6884305e-05 -1.7560162e-05
4.6596095e-05 -0.0012687371 -0.0025646614 0.00040083827 -0.0007547272 0.00012621837 -0.000733391 -0.0002823286
0.0010944924 0.018349016 -0.00036466116 -0.0004620802 -7.947688e-05 7.410781e-05 -0.0013429477 0.0004460988
0.0006215183 2.7945161e-05 -0.00070956687 -0.0005596425 -0.0007653526 -0.00043121807 0.0006942906 0.00031332695
0.0006639278 -0.00081040163 0.00095999124 0.0007416556 -0.00031242415 -0.0018430499 -0.000995001 0.00030862086
-6.9258016e-07 3.2022726e-06 5.0067497e-06 5.840277e-07 1.7098271e-06 -2.21258e-07 -2.2898453e-06 -1.2405122e-06
-2.679359e-06 0.4437511 -1.4468844e-06 -1.6612642e-06 -7.238413e-07 -3.2315427e-07 -4.337552e-07 -1.6430129e-06
-2.0407983e-06 -5.9840704e-07 1.5143719e-06 -1.902254e-06 -2.0864832e-06 -1.5998978e-06 -2.214511e-06 -1.321733e-06
-2.151623e-06 1.8427855e-06 2.3005784e-06 -2.0426087e-06 -1.3181655e-06 9.1937073e-07 -2.6915395e-06 -1.1050712e-06
