Code/CNN/Outputs/Pretrained/best_model.pth (torch, 63778 bytes, 15 tensors)

feature.0.weight f4 [16, 5, 3]
-0.0269401 -0.021506524 -0.0015549917 0.03731125 0.044971123 0.01894365 0.034033325 -0.03517333
0.093559094 0.06707798 -0.031504046 0.07882411 -0.07889259 -0.16522735 -0.1640195 0.007027143
-0.011849215 -0.010422947 -0.0249881 0.01388305 0.055992212 0.03304096 -0.05154388 0.030963995
-0.051014867 -0.052065894 0.063571386 -0.10797069 -0.04743207 -0.09103999 -6.207204e-05 1.1562469e-06
-1.3915174e-05 -5.4941454e-05 8.638038e-07 -1.9904812e-05 -6.5912864e-05 -2.06859e-06 -2.829202e-05 -2.8836082e-05
-5.0916784e-05 -6.789465e-05 -3.630517e-05 5.727456e-06 0.00013874478 -0.004202139 0.04281112 0.014500122
-0.0096600335 0.010150563 -0.0070036394 0.029145833 -0.06313882 0.04174881 -0.004233165 -0.027721453
0.029809544 -0.09850124 -0.0645034 -0.0023064315 -0.07790243 -0.033178303 0.018937195 0.08437294
0.028473632 -0.0042501595 -0.07252466 -0.037166376 0.06852379 0.04948744 -0.034922972 0.05162107
0.070848726 0.16846447 -0.032126337 -0.046964854 0.0378811 0.039372105 0.05270482 -0.12176055
-0.083266854 -0.013209078 0.041330088 0.07163115 0.060864303 0.0065296823 -0.021996649 -0.0040030507
0.14953485 0.10609541 0.043240335 -0.027939986 0.020342998 -0.043964762 0.009765928 -0.0058661285
-0.0076019038 0.030207269 0.017814659 -0.029623862 0.0076712705 0.035381842 0.008301611 0.008454409
-0.2308413 -0.014968368 0.008236707 -0.005722391 -0.00029385166 -0.0278891 0.046793755 -0.004826594
-0.037802592 0.044247206 0.04804608 -0.07040517 0.0029294866 -0.07441281 -0.10701231 0.022075545
-0.036115266 -0.0020627677 0.0033883199 0.07642448 0.041578013 0.010731221 -0.0015431483 -0.033876747
0.060527556 -0.0034501287 -0.06816012 0.10685014 -0.031646583 -0.13064007 -0.17173989 0.009897001
-0.052508775 0.021134645 -0.051235113 0.058803014 -0.027279677 0.057127237 -0.040204275 -0.0068901866
-0.04548711 0.044142824 -0.039063446 -0.22633152 0.12298367 0.061935052 0.02009195 -0.051313046
0.041354682 0.012450964 0.028337479 -0.0023671335 -0.0010844704 0.004448381 0.04925608 0.0730113
-0.052173074 0.05879601 -0.07713815 -0.13802648 -0.11205844 0.014767882 -0.050920025 -0.03135366
-0.0069496925 0.0025801568 0.058483005 0.008359046 0.038033076 0.026027935 0.009336258 0.031453196
-0.021379353 0.045683365 0.13148762 0.09339666 0.024717273 0.0001174997 0.0055600544 0.0184993
0.0087848045 -0.0054978393 0.012947079 0.0056962105 -0.0017547277 -0.019263372 -0.015334395 0.011709771
-0.009253269 -0.026218668 0.015620556 -0.06375613 0.015107225 0.005842555 0.0127057 0.024093958
0.014189248 0.05508157 -0.030048016 0.019071346 0.08665862 -0.014886016 -0.0067314696 -0.06745674
0.08862266 0.05413299 0.00039989868 -0.0110462 -0.03436861 0.022524891 -0.019250978 0.039187193
-0.07796064 0.033670183 0.00566721 -0.019142516 -0.014841556 0.040324487 0.058397174 0.024822062
-0.19495943 -0.029347729 -0.06031007 -0.0043295585 0.03789178 0.060467392 0.0424589 -0.02698044
0.06312284 -0.038141035 -0.027493306 0.04057086 -0.023077311 0.0620724 0.060150616 0.14707762
00000000: 7cb1 dcbc 732e b0bc ddd0 cbba aed3 183d
00000010: a433 383d b72f 9b3c 8766 0b3d e911 10bd
00000020: e99b bf3d 2e60 893d 630a 01bd 896e a13d
00000030: 7092 a1bd 5c31 29be baf4 27be f343 e63b
00000040: 3623 42bc 02c5 2abc d8b3 ccbc bb75 633c
00000050: 1758 653d f555 073d ad1f 53bd 34a8 fd3c
00000060: f7f4 50bd 0c43 55bd b731 823d bd1f ddbd
00000070: 2148 42bd 2d73 babd ac2c 82b8 5730 9b35
00000080: 3875 69b7 f070 66b8 25e0 6735 42f9 a6b7
00000090: b33a 8ab8 1bd2 0ab6 a654 edb7 04e5 f1b7
000000a0: 7b8f 55b8 aa62 8eb8 6146 18b8 792e c036
000000b0: 057c 1139 19b2 89bb b75a 2f3d eb91 6d3c
000000c0: 1e45 1ebc 8c4e 263c c97e e5bb 3ec3 ee3c
000000d0: ed4e 81bd cd00 2b3d 5db6 8abb 1a18 e3bc
000000e0: 2533 f43c 05bb c9bd 5c1a 84bd 8027 17bb
000000f0: 4f8b 9fbd f9e5 07bd 2d22 9b3c b8cb ac3d
00000100: 8941 e93c ec44 8bbb cf87 94bd c53b 18bd
00000110: 3356 8c3d 58b3 4a3d 640b 0fbd 9d70 533d
00000120: 2319 913d f381 2c3e e896 03bd 385e 40bd
00000130: 3629 1b3d a544 213d 02e1 573d 985d f9bd
00000140: d087 aabd e46a 58bc bd49 293d 5ab3 923d
00000150: d94c 793d f2f6 d53b 5132 b4bc 062c 83bb
00000160: aa1f 193e 8d48 d93d c71c 313d 66e2 e4bc
00000170: 5ca6 a63c 6514 34bd 4501 203c a738 c0bb
00000180: 6419 f9bb 3c75 f73c 0cf0 913c bead f2bc
00000190: 485f fb3b 8dec 103d 7b03 083c 5d84 0a3c
000001a0: a961 6cbe e33d 75bc 41f3 063c e582 bbbb
000001b0: 1a10 9ab9 af77 e4bc cfaa 3f3d 6828 9ebb
000001c0: e4d6 1abd 8f3c 353d f7cb 443d 9630 90bd
000001d0: a1fc 3f3b be65 98bd 4529 dbbd c6d7 b43c
000001e0: 9aed 13bd 802f 07bb 930e 5e3b 7084 9c3d
000001f0: b54d 2a3d 01d2 2f3c 7743 caba 58c2 0abd
00000200: beeb 773d 8e1b 62bb 8897 8bbd 3fd4 da3d
00000210: d99f 01bd 83c6 05be 95dc 2fbe 0827 223c
00000220: 7113 57bd 9022 ad3c e9db 51bd 6edb 703d
00000230: a179 dfbc 40fe 693d 3dad 24bd 13c7 e1bb
00000240: b150 3abd 1bcf 343d fe00 20bd 73c3 67be
00000250: ddde fb3d 9caf 7d3d e097 a43c a12d 52bd
00000260: 8763 293d 21ff 4b3c 0024 e83c e921 1bbb
00000270: ca24 8eba b9c3 913b bec0 493d f386 953d
00000280: 6fb3 55bd 16d4 703d 9bfa 9dbd d056 0dbe
00000290: e57e e5bd fdf4 713c 8491 50bd b26c 00bd
000002a0: 3fba e3bb d917 293b e08b 6f3d 61f4 083c
000002b0: 92c8 1b3d 8938 d53c 1bf7 183c 11d5 003d
000002c0: c123 afbc 7b1e 3b3d b1a4 063e c046 bf3d
000002d0: e17b ca3c 2c6a f638 1e31 b63b d88b 973c
000002e0: 24ee 0f3c 3827 b4bb fc1f 543c 47a7 ba3b
000002f0: e4fe e5ba 38ce 9dbc 1d3d 7bbc 57da 3f3c
00000300: 069b 17bc 88c8 d6bc 5ced 7f3c 9392 82bd
00000310: 4b84 773c e772 bf3b 912b 503c b160 c53c
00000320: 057a 683c 369d 613d 4227 f6bc 833b 9c3c
00000330: 137a b13d 7ae4 73bc a993 dcbb c226 8abd
00000340: cc7f b53d 8eba 5d3d 7ea9 d139 1ffb 34bc
00000350: 19c6 0cbd 1f86 b83c 3ab4 9dbc c082 203d
00000360: d4a9 9fbd bfe9 093d 01b4 b93b c4d0 9cbc
00000370: ff29 73bc 4a2b 253d e031 6f3d a357 cb3c
00000380: 72a3 47be a66a f0bc b107 77bd f8de 8dbb
00000390: 6934 1b3d a8ac 773d 62e9 2d3d 1506 ddbc
000003a0: 8c46 813d c639 1cbd a439 e1bc a12d 263d
000003b0: a10c bdbc a13f 7e3d 7e60 763d 849b 163e

feature.0.bias f4 [16]
0.07644003 0.04301324 -0.00124006 0.03341468 -0.0012180819 -0.14573702 0.08754158 0.02368479
0.070421174 -0.015832355 0.06514869 0.0039125555 -0.017135726 -0.07113537 0.07341763 -0.029843137
00000000: 978c 9c3d a72e 303d 8289 a2ba d5dd 083d
00000010: 0ca8 9fba 163c 15be 0049 b33d 9b06 c23c
00000020: fa38 903d dbb2 81bc ad6c 853d e534 803b
00000030: 3960 8cbc 6caf 91bd fb5b 963d 9879 f4bc

feature.2.weight f4 [16]
0.28615102 0.20918305 0.008092183 0.201833 0.21354084 0.27031204 0.25670207 0.22089104
0.26478282 0.2722861 0.2457317 0.22958028 0.046378803 0.16396438 0.21644005 0.20656675
00000000: 6382 923e 1534 563e 1395 043c 4fad 4e3e
00000010: 73aa 5a3e 5766 8a3e 746e 833e 4331 623e
00000020: 9d91 873e 1569 8b3e 17a1 7b3e 1817 6b3e
00000030: b3f7 3d3d 47e6 273e 76a2 5d3e 3c86 533e

feature.2.bias f4 [16]
-0.012258393 0.004958908 -0.0073793596 -0.014327522 -0.10329043 -0.08271267 -0.043152362 0.009734487
-0.030571477 0.032944527 0.006354727 -0.08403807 -0.006717737 -0.029069137 -0.016656157 -0.08392751
00000000: 6dd7 48bc 567e a23b 8ece f1bb fcbd 6abc
00000010: ef89 d3bd 4365 a9bd 88c0 30bd 667d 1f3c
00000020: 0971 fabc d7f0 063d 503b d03b 271c acbd
00000030: 7620 dcbb 6622 eebc 7e72 88bc 30e2 abbd

feature.2.running_mean f4 [16]
0.023374122 -0.039491747 -0.0012977736 -0.0050215493 0.08158934 -0.05006408 0.029467735 -0.03487569
0.010119077 -0.052250624 0.014778466 0.12327697 -0.007948198 -0.006793404 0.022877749 0.07782496
00000000: 167b bf3c 19c2 21bd 0e1a aaba cf8b a4bb
00000010: 5018 a73d fe0f 4dbd 5266 f13c d0d9 0ebd
00000020: 7cca 253c c004 56bd 6121 723c a378 fc3d
00000030: 2939 02bc 349b debb 1e6a bb3c b162 9f3d

feature.2.running_var f4 [16]
0.018777858 0.015728096 1.8164066e-06 0.0073505347 0.016723936 0.016311524 0.01276687 0.019491516
0.016015563 0.027700579 0.015933594 0.031679805 0.00086340413 0.0057914667 0.009077026 0.021915887
00000000: 06d4 993c 35d8 803c 41cb f335 c1dc f03b
00000010: a300 893c bf9f 853c 222c 513c acac 9f3c
00000020: 1233 833c 53ec e23c 2b87 823c afc2 013d
00000030: 1256 623a 58c6 bd3b ceb7 143c f288 b33c

feature.6.weight f4 [32, 16, 3]
-0.0011856963 -0.009892821 0.0046909023 -0.010904517 -0.017569443 0.008765572 0.00014072067 0.00017689989
5.154769e-05 -0.015821872 -0.0010953752 0.008034979 0.021215685 0.010478371 -0.010548267 0.022998873
0.040105645 0.02597818 -0.025317876 -0.037241902 -0.017184786 -0.022726707 -0.02981733 -0.015963344
0.029715018 -0.0023701258 0.01212154 0.032831993 0.025412587 -0.039358478 -0.0097348085 -0.021939537
0.0071080583 0.0012875971 0.0053553456 0.030686235 0.0047103325 -2.4782154e-05 -0.0057156384 0.03490173
0.04270402 0.008773702 -0.0028904045 -0.03455913 -0.0038535618 0.028192183 0.025380671 -0.018617703
-0.006533646 -0.013193936 0.0072849733 0.000891264 -0.013358625 0.016710024 -1.6248086e-05 0.00021984859
0.0002932794 -0.009974757 -0.0045087766 0.035505008 0.011710183 0.013319643 -0.0104860645 0.024810845
0.032155562 0.010899082 -0.009308 -0.025406625 0.0014472571 -0.019610608 -0.026343785 -0.013988809
0.036151376 -0.0061032074 0.030156044 -0.0060324986 0.0125313215 -0.042711835 -0.013068372 -0.0139237745
0.018771034 0.017972587 -0.005969989 -0.001537876 -0.017621987 -0.010353059 -0.008134386 0.03476904
0.03971275 7.117391e-06 -0.0066197943 -0.034312688 -0.01170193 0.020964786 0.035605207 0.008733437
-0.009177195 0.013668795 0.04446307 -0.0138626695 0.0116073815 0.039049666 -3.214505e-05 1.1830465e-05
3.6015408e-05 -0.013248946 0.012096745 0.02475081 0.0021393313 0.004871726 0.0015507044 -0.0050498554
0.016668811 0.00040198368 0.015579522 0.008555728 0.020334164 -0.018045455 0.010053863 0.039208468
-0.014752246 0.03066102 0.03517891 -0.0031035128 0.010742003 0.020224405 -0.0058250995 0.009573213
0.044175103 0.004266143 -0.0008941204 -0.0018321133 0.011425542 -0.0042149695 0.007886206 -0.0038549162
-0.0071473285 0.00014732302 0.0132280765 0.01952791 0.027621552 -0.00017085021 0.0014821566 -0.0022138054
0.008094259 -0.008702254 0.004455695 -0.0008931833 -0.015820742 -0.0019895125 5.7786754e-05 -5.2111936e-05
0.00016584287 -0.0052748667 -0.0011334331 -0.002011018 0.023426468 0.014441548 2.3707413e-05 0.01016341
0.020493878 0.0007759445 -0.010657207 -0.04807191 -0.020617634 -0.009123023 -0.028191393 -0.030493032
0.0043785404 -0.008026173 0.014788065 0.008197767 -0.000107686334 -0.04588911 0.010110883 -0.019112522
0.0001371549 0.022145275 0.014370157 -0.007189426 -0.010784567 -0.00078691804 -0.016925061 0.00028124033
0.036402956 -0.005939459 -0.008668499 -0.038244244 -0.017059807 0.015465947 0.01635847 0.00033738586
-0.0118212765 0.011596739 0.02430283 -0.011990117 0.018998433 0.032978963 -0.00027414516 -0.00035365255
-0.000105234736 -0.022341594 0.0039033247 0.034841277 0.0028980533 0.0066580456 -0.020194035 0.007726846
0.013264599 -0.011095317 0.014927817 0.021034157 0.029152416 -0.007975841 -0.00909653 0.041748695
-0.00602311 0.0033499575 0.038022578 0.006793427 -0.021816948 0.008034106 -0.011373907 0.0044095526
0.027603593 -0.004856548 -0.013895079 -0.015732931 -0.0031429732 0.004941696 0.002746856 -0.00063858187
0.002667654 -0.018958325 0.015171588 0.022500366 0.010454987 0.008734093 -0.018132128 -0.008489035
-0.0057644243 0.008664708 0.026185025 -0.016410287 -0.0016220758 0.037838843 0.00024043192 -0.00027374516
-0.0003445066 0.0027071566 0.006264812 0.055523667 0.0063102106 0.0062565794 -0.010869543 0.012477918
00000000: 5e69 9bba 8015 22bc 24b6 993b dca8 32bc
00000010: cbed 8fbc 799d 0f3c 6b8e 1339 347e 3939
00000020: e934 5838 df9c 81bc b192 8fba 25a5 033c
00000030: 84cc ad3c 79ad 2b3c a3d2 2cbc 2268 bc3c
00000040: d145 243d 31d0 d43c 6f67 cfbc f78a 18bd
00000050: 1cc7 8cbc 5c2d babc 7943 f4bc 8fc5 82bc
00000060: e96c f33c 1d54 1bbb 6c99 463c d77a 063d
00000070: 0f2e d03c 5b36 21bd bf7e 1fbc 8bba b3bc
00000080: b7ea e83b 97c4 a83a e57b af3b b361 fb3c
00000090: 2259 9a3b 45e3 cfb7 404a bbbb 1ef5 0e3d
000000a0: 69ea 2e3d 93bf 0f3c f16c 3dbb e08d 0dbd
000000b0: 0a8c 7cbb 4bf3 e63c 20eb cf3c 2784 98bc
000000c0: 3218 d6bb 612b 58bc c9b6 ee3b b7a3 693a
000000d0: 22de 5abc 76e3 883c 804c 88b7 2887 6639
000000e0: 4bc3 9939 2a6d 23bc 5cbe 93bb b36d 113d
000000f0: 11dc 3f3c a23a 5a3c becd 2bbc 1d40 cb3c
00000100: 8db5 033d 1092 323c 9580 18bc 8e21 d0bc
00000110: e4b1 bd3a 6da6 a0bc ecce d7bc 5131 65bc
00000120: 7713 143d 6afd c7bb cf09 f73c 44ac c5bb
00000130: 2c50 4d3c 9bf2 2ebd ba1c 56bc 8b20 64bc
00000140: b6c5 993c 3f3b 933c e69f c3bb 8e92 c9ba
00000150: fc5b 90bc e09f 29bc 1646 05bc fb69 0e3d
00000160: d6a9 223d ecd1 ee36 dcea d8bb 768b 0cbd
00000170: 74b9 3fbc 58be ab3c c4d6 113d b116 0f3c
00000180: f25b 16bc 15f3 5f3c e81e 363d 4020 63bc
00000190: e32c 3e3c 8bf2 1f3d 7cd3 06b8 767b 4637
000001a0: 400f 1738 1b12 59bc 6d31 463c 36c2 ca3c
000001b0: 0634 0c3b 00a3 9f3b 0141 cb3a 4279 a5bb
000001c0: 088d 883c 56c1 d239 4041 7f3c 532d 0c3c
000001d0: d593 a63c 10d4 93bc f5b8 243c 0f99 203d
000001e0: 68b3 71bc d22c fb3c c317 103d 4e64 4bbb
000001f0: 3aff 2f3c a7ad a53c 7ae0 bebb f7d8 1c3c
00000200: f4f0 343d 00cb 8b3b 6863 6aba 8523 f0ba
00000210: 3232 3b3c ba1d 8abb 2535 013c c3a2 7cbb
00000220: 2334 eabb b97a 1a39 93ba 583c fff8 9f3c
00000230: 9846 e23c 4126 33b9 ec44 c23a 7e15 11bb
00000240: c89d 043c e693 0ebc 1401 923b 8424 6aba
00000250: 809a 81bc 7b62 02bb 0e60 7238 c492 5ab8
00000260: 1be6 2d39 cad8 acbb b48f 94ba 49cb 03bb
00000270: dde8 bf3c 3e9c 6c3c 48df c637 6e84 263c
00000280: c7e2 a73c c168 4b3a 919b 2ebc 0de7 44bd
00000290: 50e6 a8bc bb78 15bc a3f1 e6bc 86cc f9bc
000002a0: dc79 8f3b 3680 03bc a449 723c ed4f 063c
000002b0: a9d5 e1b8 38f6 3bbd 1ea8 253c dd91 9cbc
000002c0: 3dd1 0f39 026a b53c cf70 6b3c 4795 ebbb
000002d0: c1b1 30bc 2d49 4eba 6da6 8abc 7073 9339
000002e0: 441b 153d cb9f c2bb 5206 0ebc ffa5 1cbd
000002f0: 02c1 8bbc e264 7d3c 3302 863c 2ae3 b039
00000300: 07ae 41bc 4000 3e3c bb16 c73c 3272 44bc
00000310: 9aa2 9b3c f314 073d 24bb 8fb9 716a b9b9
00000320: 78b1 dcb8 b805 b7bc ecce 7f3b bab5 0e3d
00000330: 44ed 3d3b bc2b da3b f66d a5bc 7b31 fd3b
00000340: c353 593c 22c9 35bc cd93 743c d34f ac3c
00000350: 0cd1 ee3c 1aad 02bc 9d09 15bc ae00 2b3d
00000360: 825d c5bb f68a 5b3b 90bd 1b3d 659b de3b
00000370: 75b9 b2bc 7ca1 033c a059 3abc 027e 903b
00000380: ee20 e23c ad23 9fbb 2fa8 63bc 59e2 80bc
00000390: 57fa 4dbb f3ed a13b 9904 343b 8166 27ba
000003a0: cfd3 2e3b 7d4e 9bbc 4192 783c b052 b83c
000003b0: 654b 2b3c 7119 0f3c d489 94bc 9815 0bbc
000003c0: 7fe3 bcbb 6bf6 0d3c fa81 d63c de6e 86bc
000003d0: d59b d4ba e7fc 1a3d 741c 7c39 7485 8fb9
000003e0: e59e b4b9 8d6a 313b 0d49 cd3b c96c 633d
000003f0: e2c5 ce3b fe03 cd3b 2b16 32bc 2e70 4c3c

feature.6.bias f4 [32]
-0.038918633 -0.011871598 -0.025896559 0.015271311 -0.0076323473 -0.016893003 0.03470028 0.01718753
-0.019826032 -0.021910008 -0.022663854 0.03758916 0.040361162 -0.03882682 0.02946863 0.028052796
-0.022235049 -0.018893516 0.01654172 0.0025113348 0.029272843 0.0115872985 0.021632409 0.025365483
-0.008593184 0.028796345 -0.03443271 0.019062495 -0.031806294 0.025631152 0.04426075 0.010013176
00000000: 2569 1fbd 1781 42bc 0525 d4bc 8534 7a3c
00000010: c518 fabb 3263 8abc e121 0e3d ddcc 8c3c
00000020: 346a a2bc 9e7c b3bc 8ca9 b9bc 17f7 193d
00000030: bf51 253d df08 1fbd 3268 f13c face e53c
00000040: 4726 b6bc 93c6 9abc 8082 873c 3595 243b
00000050: 9acd ef3c a7d8 3d3c 7336 b13c 46cb cf3c
00000060: 6dca 0cbc 50e6 eb3c 5009 0dbd f328 9c3c
00000070: 5147 02bd 6cf8 d13c c34a 353d 4e0e 243c

feature.8.weight f4 [32]
0.21046408 0.2083091 0.24805163 0.19329038 0.25292397 0.21875243 0.2180474 0.24852511
0.22017902 0.19300826 0.23174255 0.27239025 0.20412259 0.22804514 0.23334293 0.19902807
0.19908512 0.23275302 0.19372922 0.20144297 0.2197197 0.17343542 0.18050298 0.2439598
0.1556546 0.20737074 0.2389316 0.22526649 0.25259793 0.22131388 0.19599308 0.14836699
00000000: e583 573e fb4e 553e 3f01 7e3e eaed 453e
00000010: 407f 813e a300 603e d147 5f3e 5e7d 7e3e
00000020: 9c76 613e f5a3 453e eb4d 6d3e bc76 8b3e
00000030: 8305 513e aa84 693e 73f1 6e3e 04ce 4b3e
00000040: f8dc 4b3e cf56 6e3e f460 463e 1147 4e3e
00000050: 33fe 603e 0e99 313e c6d5 383e 99d0 793e
00000060: eb63 1f3e ff58 543e 7caa 743e 42ac 663e
00000070: 8454 813e 1ba0 623e 69b2 483e 84ed 173e

feature.8.bias f4 [32]
0.015665228 0.023753157 0.0633996 0.014487992 0.049771313 0.055808198 0.015942166 0.015121087
0.060199033 0.054387506 0.054088876 0.0300889 0.023297006 0.0637053 0.014062666 0.017662473
0.018672714 0.069148436 0.011826453 0.0040351367 0.03491057 0.03692514 0.027444223 0.017193252
0.041143 0.002903258 0.052898254 0.0101428935 0.00845551 0.00983486 0.010926031 0.004272099
00000000: 5d54 803c fb95 c23c a6d7 813d 0b5f 6d3c
00000010: 01dd 4b3d 2397 643d 2599 823c 70be 773c
00000020: 4393 763d 6fc5 5e3d 4c8c 5d3d ff7c f63c
00000030: 5dd9 be3c ed77 823d 1967 663c e4b0 903c
00000040: 85f7 983c b29d 8d3d bdc3 413c 2e39 843b
00000050: 63fe 0e3d d13e 173d b5d2 e03c ddd8 8c3c
00000060: 9085 283d 9644 3e3b d7ab 583d 612e 263c
00000070: fb88 0a3c 6522 213c 1803 333c f7fc 8b3b

feature.8.running_mean f4 [32]
-0.042817328 -0.013283918 0.027013753 -0.009215835 0.0219495 0.011566456 -0.030237366 -0.020122727
0.022571543 0.00036080138 -0.0064585865 -0.017935975 0.023119263 0.0019470192 -0.038906015 -0.012342235
-0.00706314 0.040724497 0.008914371 -0.035368085 0.03217306 0.038159467 0.0118697835 -0.021326276
0.01738333 -0.042740274 0.011887472 -0.027521383 -0.03455715 -0.018394869 -0.02327348 -0.011066383
00000000: 3961 2fbd caa4 59bc f24b dd3c 03fe 16bc
00000010: 70cf b33c 3c81 3d3c 5ab4 f7bc 6bd8 a4bc
00000020: f5e7 b83c f129 bd39 8da2 d3bb 77ee 92bc
00000030: 9c64 bd3c 2033 ff3a ea5b 1fbd 1637 4abc
00000040: ea71 e7bb bbce 263d 950d 123c 20de 10bd
00000050: e6c7 033d 1a4d 1c3d 7b79 423c 71b4 aebc
00000060: 7c67 8e3c 6d10 2fbd acc3 423c 8674 e1bc
00000070: cc8b 0dbd d6b0 96bc 06a8 bebc c64f 35bc

feature.8.running_var f4 [32]
0.003802718 0.0015484317 0.002714348 0.0015884081 0.002597295 0.0014382042 0.00437074 0.003263576
0.0014429785 0.0011002284 0.0012503236 0.0036326945 0.0024132687 0.001713674 0.0053120465 0.0027614853
0.0015397456 0.0036574767 0.0020758116 0.0036053415 0.0030151056 0.0024997834 0.0012072958 0.0034532808
0.001363874 0.005077442 0.0022579345 0.0036464292 0.0039102235 0.0038106465 0.0037828058 0.0008083646
00000000: 0537 793b bff4 ca3a 34e3 313b 2232 d03a
00000010: 6137 2a3b 2082 bc3a 6d38 8f3b b8e1 553b
00000020: 5322 bd3a 8a35 903a e6e1 a33a 8012 6e3b
00000030: ee27 1e3b 5c9d e03a ad10 ae3b 09fa 343b
00000040: 4ad1 c93a 47b2 6f3b 570a 083b 9847 6c3b
00000050: 1499 453b 68d3 233b 203e 9e3a 7050 623b
00000060: 04c4 b23a ac60 a63b dbf9 133b eef8 6e3b
00000070: 5521 803b 0abc 793b f3e8 773b 6ee8 533a

classify.0.weight f4 [32, 384]
0.011412451 -0.023247615 0.03748463 0.024055127 -0.02245448 0.021343801 0.030809144 0.014854943
0.017962396 -0.016676262 -0.022203246 0.018512696 0.033350326 0.044448253 0.03486048 0.027638372
-0.0025808765 -0.030372543 0.01578494 0.027786002 0.027829794 -0.022290494 -0.04905753 0.006663389
-0.00015766143 0.0066129453 -0.0012990518 -0.03757442 0.024391662 0.0458763 0.031131322 -0.022693336
0.007036091 -0.010209254 -0.001862095 0.03519825 -0.013402039 -0.038915448 0.011049688 -0.045944106
0.030156044 -0.011135755 0.0140898805 -0.013933442 -0.004106374 0.024510246 0.038976472 0.037998408
-0.015240868 0.017257102 -0.040604815 0.012703535 0.03977459 0.035954267 0.041301068 0.025863197
-0.0074379956 0.061911404 -0.0013830306 -0.02029752 0.0076900967 -0.011413483 -0.0054365 0.027596729
0.03039551 -0.034815278 -0.00849767 0.007060559 0.032070428 -0.020388361 0.008025875 -0.0038771399
0.03570024 0.012389261 0.03515475 -0.04034331 0.014479951 0.00478649 -0.03480333 0.03709909
0.02378217 -0.029815516 -0.008916139 -0.016875288 0.00948459 -0.031283543 0.038702946 -0.023764152
0.030383565 -0.03888262 -0.024144419 0.0068453164 0.007488687 -0.00908325 0.01426803 -0.009937922
0.012690402 0.01614819 -0.01588373 -0.010993533 -4.403546e-06 0.03503907 0.027475802 -0.020209698
-0.0015259412 0.047712725 0.014996608 0.012953352 -0.008910436 0.023883097 -0.0401556 0.042386312
0.008553826 -0.003546881 -0.0001405395 0.021335151 0.016543087 0.01250547 -0.020316057 0.040371805
0.017679773 0.0012400582 -0.016399123 0.046574514 0.009158812 0.004020981 0.00053851586 -0.031044485
-0.012817378 -0.008065147 -0.022510787 -0.031324584 0.029573524 0.054975033 0.003055848 0.013187886
-0.03968282 0.004874404 -0.014306776 -0.044519328 0.030637868 0.014412409 -0.03054043 0.022291873
0.0439988 0.039846167 0.032668162 0.035074737 0.010326215 -0.00774202 -0.013540734 0.042133585
-0.034884777 0.016211504 0.0011697761 0.022174845 0.004952398 -0.0031507127 0.0024378484 -0.012129027
0.031082332 -0.019867878 0.02232656 -0.0032418214 0.028270712 -0.002476976 -0.049873836 0.039767187
0.014256197 0.0051603364 0.043181486 0.0075166933 -0.015385254 -0.040503435 -0.032732006 -0.0072635175
-0.005122741 0.012204548 0.016359951 0.027811747 0.0030291164 -0.0116555 0.038775887 -0.017826032
-0.03922382 -0.021500723 -0.03835168 0.009482957 0.03337775 -0.032750916 -0.047990426 0.040768024
-0.0067302096 0.0136685455 0.02676446 -0.011078131 0.00044240322 0.011601332 0.046302605 -0.002222618
-0.022484899 -0.033459954 -0.034346037 -0.0431342 -0.049238183 0.011312696 -0.025150161 -0.011750256
0.04407084 0.020368649 0.0041330256 -0.026809534 0.012287751 0.02272158 -0.0040678326 0.005031357
-0.043442037 -0.016298287 -0.015613715 0.031874858 0.036183354 0.03287444 0.013581285 0.036221556
0.018706756 0.019397117 0.0076459153 0.025026744 0.020960322 0.043807626 0.04832952 -0.03470876
0.022131277 -0.04969581 -0.043907847 0.032982573 -0.01401399 0.02649544 0.01940197 -0.016399864
-0.046571113 0.010617537 0.030384617 -0.0073200255 0.039598864 0.03581449 0.04289472 0.022408502
0.01668932 -0.010503545 0.038230762 0.042732593 0.011152311 0.009104799 0.0072222273 -0.04102346
00000000: 4afb 3a3c c871 bebc 7c89 193d 420f c53c
00000010: 75f2 b7bc 32d9 ae3c 7563 fc3c 2662 733c
00000020: e025 933c a89c 88bc 95e3 b5bc f0a7 973c
00000030: 5a9a 083d 5f0f 363d ddc9 0e3d de69 e23c
00000040: ec23 29bb d7cf f8bc 6b4f 813c 789f e33c
00000050: 4ffb e33c 8e9a b6bc 8cf0 48bd 8f58 da3b
00000060: eb51 25b9 68b1 d83b f244 aaba a3e7 19bd
00000070: 06d1 c73c cae8 3b3d 1d07 ff3c 60e7 b9bc
00000080: 028f e63b b744 27bc 8a11 f4ba 0a2c 103d
00000090: 3a94 5bbc ce65 1fbd c009 353c e32f 3cbd
000000a0: cf09 f73c be72 36bc 3ed9 663c 1749 64bc
000000b0: c38e 86bb b6c9 c83c cba5 1f3d 38a4 1b3d
000000c0: d5b4 79bc c45e 8d3c 3c51 26bd 7d22 503c
000000d0: aeea 223d c844 133d 4f2b 293d 0edf d33c
000000e0: 6eba f3bb d096 7d3d ce46 b5ba fc46 a6bc
000000f0: 35fd fb3b 9eff 3abc ab24 b2bb 8912 e23c
00000100: 0100 f93c 779a 0ebd d039 0bbc 435c e73b
00000110: 485c 033d 7e05 a7bc f67e 033c 9d17 7ebb
00000120: 6a3a 123d 54fc 4a3c 6dfe 0f3d 073f 25bd
00000130: 513d 6d3c fdd7 9c3b f08d 0ebd 37f5 173d
00000140: d3d2 c23c ab3f f4bc ff14 12bc 0b3e 8abc
00000150: 4165 1b3c 2c23 00bd fb86 1e3d 0aad c2bc
00000160: f4e6 f83c 6243 1fbd 84ca c5bc ad4e e03b
00000170: a963 f53b e9d1 14bc 75c4 693c aad2 22bc
00000180: 67eb 4f3c 3549 843c 991e 82bc 381e 34bc
00000190: 2cc2 93b6 2185 0f3d ef14 e13c cf8e a5bc
000001a0: 1702 c8ba 6b6e 433d 55b4 753c 4c3a 543c
000001b0: 14fd 11bc 7ca6 c33c 337a 24bd 459d 2d3d
000001c0: 5925 0c3c ca72 68bb c95d 13b9 0ec7 ae3c
000001d0: 5e85 873c bee3 4c3c dc6d a6bc e85c 253d
000001e0: 2cd5 903c 7389 a23a 7457 86bc ebc4 3e3d
000001f0: d80e 163c 6fc2 833b 302b 0d3a 0151 febc
00000200: fbff 51bc ae23 04bc 8b68 b8bc 354e 00bd
00000210: 2d44 f23c 802d 613d 9f44 483b 0112 583c
00000220: 748a 22bd 77b9 9f3b f866 6abc e659 36bd
00000230: 44fc fa3c 0622 6c3c ed2f fabc 729d b63c
00000240: 1638 343d bc35 233d 0dcf 053d 87aa 0f3d
00000250: 492f 293c c5b0 fdbb f4d9 5dbc 4494 2c3d
00000260: 57e3 0ebd fdcd 843c 2c53 993a 05a8 b53c
00000270: ba47 a23b 307c 4ebb 4fc4 1f3b d4b8 46bc
00000280: 60a0 fe3c f6c1 a2bc 31e6 b63c bd74 54bb
00000290: fb97 e73c c354 22bb 8248 4cbd ebe2 223d
000002a0: d392 693c 0a18 a93b 12df 303d 984e f63b
000002b0: 6f12 7cbc eee6 25bd ff11 06bd cd02 eebb
000002c0: abdc a7bb 96f5 473c 4e05 863c 76d5 e33c
000002d0: 2484 463b b6f6 3ebc 77d3 1e3d e607 92bc
000002e0: 28a9 20bd 4922 b0bc a716 1dbd 685e 1b3c
000002f0: 1cb7 083d d325 06bd 9c91 44bd 5ffc 263d
00000300: 1789 dcbb 09f2 5f3c 2441 db3c 0d81 35bc
00000310: 5bf2 e739 8313 3e3c cda7 3d3d 58a9 11bb
00000320: 4032 b8bc 4e0d 09bd 6eae 0cbd 7dad 30bd
00000330: faad 49bd e358 393c b607 cebc 2584 40bc
00000340: a083 343d 27dc a63c 556e 873b ab9f dbbc
00000350: 9052 493c 9b22 ba3c 744b 85bb 15de a43b
00000360: 47f0 31bd fc83 85bc abd0 7fbc 368f 023d
00000370: ff34 143d 59a7 063d 0a84 5e3c 0e5d 143d
00000380: e93e 993c b4e6 9e3c 968a fa3b e304 cd3c
00000390: fbb4 ab3c a06f 333d 2df5 453d c62a 0ebd
000003a0: a74c b53c d58d 4bbd b7d8 33bd bc18 073d
000003b0: ef9a 65bc f70c d93c e1f0 9e3c 0259 86bc
000003c0: 5ac1 3ebd 2ef5 2d3c 29e9 f83c d3dc efbb
000003d0: 6b32 223d 37b2 123d 60b2 2f3d 0992 b73c
000003e0: 0ab8 883c 1017 2cbc dc97 1c3d 5f08 2f3d
000003f0: 2fb8 363c 4b2c 153c 6fa8 ec3b 3708 28bd

classify.0.bias f4 [32]
-0.00090314035 0.011029579 -0.024970513 0.007704558 0.025727132 0.020729205 0.03745869 0.0028234979
0.048158657 -0.0036310519 0.01616606 0.049353227 0.033759043 0.021941813 0.015383299 0.02641428
0.0025484273 0.008189068 0.027078317 0.029803865 0.037744477 0.022147935 0.004676444 0.037010424
0.0033358573 0.0136675015 0.0144510735 0.01682885 0.010083989 0.019337382 0.002943669 0.020641694
00000000: b9c0 6cba 68b5 343c f68e ccbc 8476 fc3b
00000010: b5c1 d23c 4bd0 a93c 496e 193d 6f0a 393b
00000020: 0342 453d f1f6 6dbb af6e 843c 9c26 4a3d
00000030: ec46 0a3d 51bf b33c 3c0a 7c3c c362 d83c
00000040: 8403 273b 712b 063c 59d3 dd3c 3c27 f43c
00000050: f499 1a3d 966f b53c db3c 993b 3e98 173d
00000060: 669e 5a3b a8ed 5f3c 32c4 6c3c a8dc 893c
00000070: 5137 253c 6e69 9e3c 92ea 403b c518 a93c

classify.3.weight f4 [1, 32]
-0.17900035 -0.17814438 0.13205636 0.060396932 0.097975366 0.12575892 -0.16671166 0.025328554
0.122245915 0.12426554 -0.17752837 0.13217472 -0.16770075 -0.15881027 -0.17490378 -0.15173523
0.06949216 0.06932603 0.05228313 0.12447664 0.11592377 -0.16995436 0.13080445 -0.17240687
0.093115605 -0.16064945 0.10515497 -0.16162676 -0.16705593 -0.17910512 0.10054378 -0.16585383
00000000: de4b 37be 7b6b 36be c839 073e c662 773d
00000010: 4fa7 c83d f2c6 003e 76b6 2abe d47d cf3c
00000020: 115c fa3d ee7e fe3d ffc9 35be cf58 073e
00000030: bfb9 2bbe 299f 22be fa19 33be 7b60 1bbe
00000040: e851 8e3d cefa 8d3d d626 563d 9ced fe3d
00000050: 7169 ed3d 8408 2ebe 9af1 053e 6d8b 30be
00000060: 65b3 be3d 4a81 24be 7d5b d73d 7c81 25be
00000070: b610 2bbe 5567 37be e6e9 cd3d 96d5 29be
