Code/CNN/Outputs/Pretrained/best_model.pth (torch, 63778 bytes, 15 tensors)

feature.0.weight f4 [16, 5, 3]
0	0xbe4a7dc0	-0.19774532
1	0x3d7794a1	0.060444478
2	0x3d86cbe6	0.06581859
3	0x3dcd03c4	0.10010484
4	0x3d4b7f85	0.04968216
5	0x3c8668b7	0.016407354
6	0xbd192136	-0.037385188
7	0x3c5321d6	0.012886485
8	0xbe0b822b	-0.13623874
9	0x3dba197b	0.09086891
10	0x3d5033bc	0.050830588
11	0x3db7eed4	0.089811
12	0x3deed9bd	0.11662624
13	0x3de984c5	0.11402277
14	0x3e590402	0.21192935
15	0x3bb70b27	0.0055860463
16	0xbdf4b69b	-0.11948892
17	0xbd03a656	-0.032141052
18	0x3dfe0132	0.12402572
19	0xbe2b5d07	-0.16734706
20	0xbd0fdfba	-0.03512547
21	0x3c8b9d0a	0.017042655
22	0x3e4231b0	0.18964267
23	0x3df43cb3	0.1192564
24	0x3ce15696	0.027507108
25	0xbd7c6edc	-0.06162916
26	0xbe1cce64	-0.15313107
27	0x3ccf7d53	0.025328314
28	0x3e74b97c	0.23898882
29	0x3e470d4a	0.19438663
30	0x3e0313cb	0.12800519
31	0x3b88b4a6	0.0041719256
32	0x3d4f75e2	0.05064953
33	0x3e2eb39e	0.17060706
34	0xbe0fc04e	-0.14038202
35	0x3e169cbe	0.1470823
36	0xbe4aa5a8	-0.19789755
37	0xbc92551a	-0.017862845
38	0xbda70529	-0.08155281
39	0x3d247211	0.040147845
40	0xbc742661	-0.014901728
41	0xbdad6838	-0.08467144
42	0x3e047879	0.12936582
43	0xbe12f24f	-0.14350246
44	0x3d8fac09	0.07015235
45	0xbe05bdfc	-0.13060755
46	0x3db3406d	0.087525226
47	0x3d3beb82	0.045878895
48	0x3dd30dba	0.103053525
49	0x3e436444	0.19081217
50	0x3de3d2bb	0.11124178
51	0x3cee1414	0.029062308
52	0xbe32e908	-0.17471707
53	0xbd328b6b	-0.04358999
54	0xbd374bf0	-0.044750154
55	0x3c450c68	0.012026884
56	0xbda3cb88	-0.07997805
57	0xbe6d89fb	-0.23197167
58	0xbacfce68	-0.001585436
59	0xbe7d5945	-0.24741085
60	0x3d535007	0.051589992
61	0x3dd050bc	0.10171649
62	0xbd57fe29	-0.05273262
63	0x3e03595d	0.12827058
64	0xbcf9fc0d	-0.030515695
65	0x3d84bd9b	0.06481477
66	0xbe2cd388	-0.16877568
67	0x3d73f579	0.059560273
68	0x3d6d17af	0.057883915
69	0xbd5352b7	-0.051592555
70	0xbcd37505	-0.025812635
71	0x3e163609	0.1466905
72	0xbdeed84f	-0.11662351
73	0x3db82dcf	0.08993112
74	0x3dedaa90	0.11604798
75	0x3db425df	0.08796286
76	0x3b1dd035	0.00240804
77	0x3e233753	0.15939073
78	0xbe502552	-0.20326737
79	0x3dad0001	0.08447266
80	0x3e404b96	0.18778834
81	0x3da1923f	0.07889222
82	0xbdb6589b	-0.08903619
83	0x3d835c57	0.06414097
84	0xbd1dd8a2	-0.038536675
85	0x3cde898d	0.027165199
86	0xbb8c6627	-0.0042846384
87	0xbd70d0cd	-0.058792878
88	0x3c1e268f	0.009652748
89	0xbe604018	-0.2189945
90	0x3d9b654f	0.075876825
91	0x3e20d0a3	0.15704589
92	0x3cf33da7	0.029692484
93	0x3dd513f9	0.104042
94	0x3dd72af8	0.105062425
95	0xbc3b49e6	-0.011431193
96	0xbdaa4259	-0.08313436
97	0x3dab7579	0.083720155
98	0xbdf014f8	-0.117227495
99	0x3ddaefc2	0.106902614
100	0xbcf8b13b	-0.030357948
101	0xbce19e01	-0.027541162
102	0x3dc27207	0.09494405
103	0xbd209e53	-0.03921349
104	0x3c9a83a0	0.018861592
105	0x3d97ce87	0.07412439
106	0xbdcff3aa	-0.10153897
107	0x3c59d9b3	0.013296532
108	0xbda90ff0	-0.08254993
109	0xbc5fdd07	-0.013663537
110	0xbe0f1a26	-0.13974819
111	0xbdb9184c	-0.090378374
112	0x3e04cfb1	0.12969853
113	0x3dfdc2d4	0.12390676
114	0x3dbae4ab	0.09125646
115	0x3db84aa4	0.089986116
116	0xbd06e1cf	-0.03293019
117	0xbe636a8d	-0.22208615
118	0xbe26a571	-0.16274048
119	0x3e55e73d	0.20888992
120	0xbd7fe15b	-0.062470775
121	0xbd88b27a	-0.06674667
122	0x3e0bb5bf	0.1364355
123	0xbd0483b6	-0.03235217
124	0x3d7b6535	0.061375815
125	0xbdbf339a	-0.09336014
126	0xbdd7936f	-0.105261676
127	0xba3189f4	-0.0006772571
128	0xbcc15bdf	-0.023603378
129	0x3cd9f598	0.026606366
130	0xbe522e3d	-0.20525451
131	0x3e033a2e	0.12815163
132	0x3de9f229	0.114231415
133	0xbdb3885c	-0.08766243
134	0xbe0b4ee3	-0.13604312
135	0x3cf6fa2e	0.030148592
136	0x3c14a17c	0.009071704
137	0x3da1a449	0.07892663
138	0xbe03c5be	-0.12868401
139	0xbd101c0d	-0.035183
140	0xbd9edc2d	-0.07756839
141	0x3d478123	0.04870714
142	0xbd636e2a	-0.055524983
143	0xbd67d529	-0.05659977
144	0x3dfc2eb0	0.123135924
145	0x3d2db8ff	0.042412754
146	0xbd891d4c	-0.06695041
147	0x3d279393	0.040912222
148	0xbcb074a5	-0.021539995
149	0x3deeafe2	0.11654641
150	0x3c8eba0b	0.017422697
151	0xbd134ba7	-0.03596082
152	0x3c4bd94e	0.012441946
153	0xbe243f72	-0.16039827
154	0x3df14ee4	0.11782625
155	0xbe08d47d	-0.13362308
156	0x3d69b287	0.057055023
157	0x3e05d372	0.13068941
158	0xbe08dd30	-0.13365626
159	0x3c9d4f1c	0.019202761
160	0xbd99ebb9	-0.07515664
161	0xbd3f49ca	-0.04670123
162	0xbe864b29	-0.26229218
163	0x3df1cc3f	0.11806535
164	0x3e0fbd23	0.14036994
165	0xbdf511c3	-0.119662784
166	0xbd42413e	-0.0474255
167	0x3ddd6df1	0.10811985
168	0xbd40278d	-0.04691272
169	0xbd8b29c0	-0.067950726
170	0x3de964e3	0.11396196
171	0x3de93215	0.113865055
172	0x3b2e83e4	0.0026628906
173	0xbd8327bc	-0.06404063
174	0x3df8342f	0.12119328
175	0x3ceed596	0.02915458
176	0xbe01c156	-0.12671408
177	0x3c8b6de5	0.017020175
178	0x3e590799	0.21194305
179	0x3e69c3c7	0.2282859
180	0xbdf0ff12	-0.11767401
181	0xbe1ac504	-0.15114218
182	0x3d9bea17	0.076130085
183	0xbda6ded7	-0.08147972
184	0x3d0abd82	0.033872135
185	0x3dc476d2	0.09592976
186	0x3dcdb5a9	0.100444146
187	0x3dcc2cbf	0.09969472
188	0xbd9007cd	-0.07032738
189	0xbc533e76	-0.01289331
190	0xbd2a9d34	-0.041653827
191	0x3d58086b	0.052742403
192	0xbd9bde2b	-0.076107346
193	0xbca3ad99	-0.019980239
194	0xbdf6a102	-0.120424286
195	0xbdc120ed	-0.09430108
196	0xbd022623	-0.03177465
197	0xbe23d7ea	-0.16000333
198	0x3d7f9912	0.06240184
199	0xbe066d52	-0.1312764
200	0x3cd3aa5d	0.025838071
201	0xbb9dbf15	-0.0048140385
202	0x3da9c428	0.08289367
203	0x3d4c586c	0.049889013
204	0xbe173c8b	-0.14769189
205	0x3da4d3c7	0.08048206
206	0x3db8f373	0.09030809
207	0x3e6f58cf	0.23373722
208	0x3e38eeb0	0.18059802
209	0x3df011a4	0.11722115
210	0xbd235d05	-0.039883632
211	0x3c190b86	0.009341126
212	0x3d822ca7	0.06356173
213	0x3e03976b	0.1285073
214	0x3e05ed15	0.13078721
215	0xbe2bc678	-0.16774929
216	0xbe47fc88	-0.19529927
217	0xbca1f3cb	-0.01976957
218	0xbde0adf0	-0.10970676
219	0xbe0e19c4	-0.13877016
220	0xbbaad5fe	-0.005213498
221	0x3dad40fb	0.0845966
222	0xbdb630a9	-0.08896
223	0xbd90e769	-0.07075388
224	0x3e1936d7	0.14962326
225	0xbdd2c72a	-0.10291894
226	0x3d5677ea	0.052360453
227	0x3e659d4d	0.22423287
228	0x3b9c6fa9	0.004774053
229	0x3c7d658d	0.015466106
230	0x3bcd58f6	0.0062667085
231	0x3e2a8fa4	0.16656357
232	0xbdf7d1c1	-0.12100554
233	0x3d9a539f	0.07535481
234	0x3b0d51f1	0.0021563733
235	0xbe04aba5	-0.12956102
236	0xbde1c9c7	-0.11024814
237	0xbd99d3f1	-0.07511128
238	0xbe1402f4	-0.14454252
239	0xbe3daf13	-0.18523817

feature.0.bias f4 [16]
0	0x3d1630cd	0.036667634
1	0x3d1db94a	0.038506784
2	0xbdf984ca	-0.12183531
3	0x3e71381d	0.23556562
4	0x3da79538	0.08182758
5	0xbdc5d815	-0.09660355
6	0x3de66caf	0.112511985
7	0xbd230ad9	-0.039805267
8	0x3e3ae2a0	0.18250513
9	0xbe00e22b	-0.12586276
10	0x3d23e8a0	0.04001677
11	0x3d3e99e8	0.046533495
12	0x3d1265c9	0.0357416
13	0xbe307ac4	-0.17234331
14	0x3dde6565	0.10859183
15	0x3e37c005	0.17944343

feature.2.weight f4 [16]
0	0x3f2e17ff	0.68005365
1	0x3f1fb50d	0.62385637
2	0x3ee53c74	0.44772685
3	0x3f3297d0	0.697629
4	0x3f1b532f	0.60673803
5	0x3f09860d	0.5372017
6	0x3f0e8014	0.5566418
7	0x3f2abd91	0.66695505
8	0x3f20beeb	0.6279132
9	0x3ef97faf	0.48730227
10	0x3f1b6101	0.6069489
11	0x3f293624	0.6609824
12	0x3f0ee4fc	0.5581815
13	0x3f4c0dd4	0.797086
14	0x3f1ac470	0.6045599
15	0x3f4075cf	0.7517976

feature.2.bias f4 [16]
0	0xbda678aa	-0.081284836
1	0xbd2c559f	-0.042073842
2	0x3a8084ae	0.0009805167
3	0x3ca82a06	0.02052785
4	0xbcda0dd4	-0.026617922
5	0xbc98bba6	-0.018644165
6	0xbd18037a	-0.03711269
7	0x3d1324c5	0.035923738
8	0x3bbfe24d	0.0058558346
9	0x3b1bc074	0.0023765834
10	0xbd5707e5	-0.052497763
11	0xbd50f943	-0.051018964
12	0x3d02f9ca	0.0319765
13	0xbce5fc64	-0.02807445
14	0xbd3fdbe8	-0.04684058
15	0x3c47cba9	0.012194552

feature.2.running_mean f4 [16]
0	0x3e8013f5	0.25015226
1	0x3e2e2cc3	0.17009263
2	0xbdde08ad	-0.108414985
3	0x3ddacdd4	0.1068379
4	0x3e5efe36	0.21776661
5	0xbd90becc	-0.070676416
6	0x3e8aae48	0.2708609
7	0xbd9d8b60	-0.07692599
8	0x3d80a4ac	0.06281409
9	0xbde30949	-0.110857554
10	0xbd342e5c	-0.043989524
11	0x3e5e7dd2	0.21727684
12	0xbd40b01e	-0.04704296
13	0xbd36e793	-0.04465444
14	0x3c92962c	0.017893873
15	0x3d8014da	0.06253977

feature.2.running_var f4 [16]
0	0x3df95858	0.12175053
1	0x3d82d95f	0.063891165
2	0x3d8bbc31	0.06823004
3	0x3d928f1c	0.07156202
4	0x3dcaebd7	0.09908264
5	0x3d15a21e	0.03653156
6	0x3df8736f	0.12131392
7	0x3d181b46	0.037135385
8	0x3d14b2de	0.036303394
9	0x3cb322dd	0.02186721
10	0x3d84fdd2	0.06493725
11	0x3db19045	0.08670095
12	0x3c9e7991	0.019345077
13	0x3d2fd87c	0.042931065
14	0x3d2b3548	0.04179886
15	0x3d55f1cc	0.05223255

feature.6.weight f4 [32, 16, 3]
0	0xbd80f563	-0.06296804
1	0x3e02696e	0.1273553
2	0x3da73248	0.08163887
3	0xbba2b836	-0.0049658073
4	0x3c07404d	0.008255077
5	0x3d7349ed	0.059396673
6	0xbdad4522	-0.08460452
7	0xbdabd746	-0.083906695
8	0xbc2e76ad	-0.010648412
9	0x3be27a96	0.006911586
10	0xbd8b81ac	-0.06811842
11	0x3c7159fb	0.014730926
12	0x3cfc51fa	0.030800808
13	0x3db04a0f	0.086078756
14	0xbdd12cbc	-0.102136105
15	0x3db7df5f	0.089781515
16	0xbdb298e4	-0.08720568
17	0xbd2a629c	-0.041597947
18	0x3cd1722c	0.025567137
19	0xbd7ebfef	-0.06219476
20	0xbd93c063	-0.07214429
21	0x3d46c0b9	0.04852364
22	0xbbe4768b	-0.0069721392
23	0xbdcbafa2	-0.09945609
24	0x3d173e50	0.03692466
25	0xbdd351c9	-0.10318334
26	0x3d2cca0b	0.04218487
27	0x3b2d7d63	0.0026472441
28	0xbcc55b80	-0.024091482
29	0xbd45279d	-0.04813348
30	0xbcd170e5	-0.025566528
31	0xbbe6e1bf	-0.007045954
32	0xbdbd3519	-0.09238643
33	0x3dba0d69	0.09084589
34	0x3ddc3d81	0.107539184
35	0xbd1b9517	-0.03798398
36	0xbd239129	-0.039933357
37	0xbcd6f17b	-0.026238194
38	0xbcf91043	-0.030403262
39	0x3b447d69	0.0029981977
40	0xbba8c98e	-0.0051509803
41	0x3deb0972	0.11476411
42	0xbbb5db80	-0.005549848
43	0x3d18e955	0.037331898
44	0xbd976616	-0.07392518
45	0xbd4d11b2	-0.050065704
46	0xbdff963a	-0.12479825
47	0xbda1bf1e	-0.07897781
48	0xbd12a198	-0.03579864
49	0xbc95c6e3	-0.018283313
50	0x3d1ab0cd	0.037766267
51	0x3d59a1d9	0.053132866
52	0xbc6d7e57	-0.014495454
53	0x3ca7f2a0	0.020501435
54	0x3c84bfe7	0.016204787
55	0x3c04a17a	0.00809514
56	0xbd1f76e8	-0.038931757
57	0x3c885837	0.016643627
58	0x3c730934	0.014833737
59	0x3c5a89d9	0.0133385295
60	0x3d05ea97	0.032694425
61	0xbd00cb80	-0.031444073
62	0xbd8d5ae8	-0.069021046
63	0xbcefcff0	-0.029273957
64	0xbdc241fd	-0.094852425
65	0x3cdc93be	0.026925918
66	0xbda25e36	-0.079281256
67	0xbd953d22	-0.07287051
68	0xbd8b0670	-0.06788337
69	0xbbffaf50	-0.0078028813
70	0xbc5795a9	-0.01315824
71	0x3c3a1a5c	0.011358824
72	0x3d278bc2	0.040904768
73	0xbd4cec11	-0.050029818
74	0xbce3b4d7	-0.027796192
75	0x3cf65759	0.030070947
76	0xbb917cc7	-0.0044399234
77	0xbc26baf8	-0.010176413
78	0xbcb4af5a	-0.02205627
79	0xbcf76b48	-0.030202523
80	0x3db02da7	0.086024575
81	0xbc72e02d	-0.0148239555
82	0xbd1054ed	-0.03523724
83	0xbcfb1ca8	-0.030653313
84	0xbc8ea995	-0.017414847
85	0x3d5b8044	0.05358912
86	0xbd02b81a	-0.031913854
87	0x3c470934	0.01214819
88	0xbc2b721d	-0.010464218
89	0x3d595d38	0.053067416
90	0xbccf5c45	-0.025312552
91	0xbd20dc80	-0.039272785
92	0xbccaa7a8	-0.024738148
93	0xbaf2de48	-0.001852938
94	0x3ddee7c7	0.10884052
95	0x3c8575a3	0.016291445
96	0xbccfcdab	-0.025366625
97	0xbd0586f2	-0.032599397
98	0xbcd012d6	-0.025399607
99	0xbc8e906c	-0.01740285
100	0xbbf26980	-0.0073978305
101	0xbd5432d3	-0.051806282
102	0xbc952de6	-0.018210363
103	0xbb1530f3	-0.0022764772
104	0x3d783f1c	0.06060706
105	0x3d84b4a3	0.06479766
106	0xbd41b6aa	-0.047293343
107	0x3e057332	0.13032225
108	0xbd207dcc	-0.03918247
109	0xbd351616	-0.044210516
110	0x3bea62da	0.0071528973
111	0xbcd221ea	-0.025650937
112	0x3d067fab	0.032836597
113	0xbccbf79c	-0.024898343
114	0xbcc4d817	-0.02402882
115	0xbd1c8752	-0.03821499
116	0xbc21ad7d	-0.009868023
117	0x3c6fe007	0.014640815
118	0x3ca6f229	0.020379143
119	0x3d8efe81	0.069821365
120	0x3d376d12	0.044781752
121	0x3d97744b	0.07395228
122	0xbb71d679	-0.0036901517
123	0xbcd217e8	-0.025646165
124	0x3d94879b	0.07252427
125	0x3d5eca2b	0.05439202
126	0x3d313530	0.043263614
127	0x3c95479c	0.018222623
128	0x3d9c525a	0.07632895
129	0x3cfa03db	0.030519417
130	0x3d10f3d9	0.0353888
131	0xbc6a0c96	-0.014285227
132	0x3d21a181	0.039460663
133	0x3d66a8ae	0.05631321
134	0x3c9159cd	0.017743016
135	0x3d6c4d13	0.05769069
136	0xbd221ebf	-0.039580103
137	0xbbdadca8	-0.0066791363
138	0xbc28ebc9	-0.010310122
139	0xbcf20a67	-0.029545976
140	0x3d283225	0.041063447
141	0x3d45f8d0	0.04833299
142	0x3cf73f0c	0.03018143
143	0x3d6074be	0.054798834
144	0xbda6d256	-0.08145587
145	0xbd580e48	-0.052747995
146	0xbce3acd3	-0.02779237
147	0x3d3c5380	0.04597807
148	0x3c091311	0.008366362
149	0x3c4f23b2	0.012642788
150	0xbd13d9a4	-0.03609623
151	0xbca945e0	-0.020663202
152	0x3d215cf8	0.039395303
153	0xbd5ea351	-0.05435497
154	0x3d9b13e5	0.07572154
155	0x3d55dd46	0.052212976
156	0xbdce8e0f	-0.10085689
157	0xbd27a796	-0.040931307
158	0x3dc2ada6	0.09505777
159	0xbba06fc1	-0.0048961346
160	0x3c9ec087	0.019378914
161	0x3c6ae905	0.014337783
162	0x3bfe7542	0.007765443
163	0xbdd5d796	-0.104415104
164	0xbd028b58	-0.03187117
165	0x3cd840b5	0.026398042
166	0xbdac60a4	-0.0841687
167	0x3e096ca3	0.13420348
168	0xbd34b4b5	-0.04411765
169	0x3d6ce689	0.057837043
170	0xbda3bd9f	-0.07995152
171	0xbca11420	-0.019662917
172	0x3d0ccf09	0.03437713
173	0xbd693721	-0.05693734
174	0xbc7b3e24	-0.01533464
175	0x3be5eb6d	0.0070165903
176	0x3d282c88	0.041058093
177	0xbda040e9	-0.07824881
178	0x3d14f3af	0.036365207
179	0xbb3e5c59	-0.0029046743
180	0xbd6545cc	-0.055974767
181	0x3d0c99a2	0.034326203
182	0xbcfec648	-0.031100407
183	0xbbd20684	-0.006409468
184	0xbdc65882	-0.0968485
185	0xbcc65f22	-0.024215285
186	0xbd7e9910	-0.06215769
187	0xbd00ff39	-0.0314934
188	0x3daebfeb	0.08532699
189	0xbc8faa52	-0.01753727
190	0x3de591ff	0.11209487
191	0xbd900720	-0.07032609
192	0x3bb4acc8	0.005513761
193	0xbd296571	-0.041356508
194	0xbb39bb28	-0.0028340314
195	0xbd3abfdd	-0.04559313
196	0xbd3af87f	-0.04564714
197	0x3b96990c	0.0045958813
198	0x3d27e59a	0.04099045
199	0xbb05e2f7	-0.002042947
200	0x3d1880a8	0.03723207
201	0xbc6daab0	-0.014506027
202	0x3e020f93	0.12701254
203	0x3e129162	0.14313272
204	0xbd1b36da	-0.037894107
205	0xbd570512	-0.05249507
206	0xbd7bb3ef	-0.061450895
207	0xbccdae79	-0.02510761
208	0xbc6d7716	-0.014493724
209	0x3da73f79	0.08166403
210	0xbcab7b46	-0.020932805
211	0xbc066fb5	-0.008205344
212	0x3d0808d0	0.03321153
213	0x3b49ccfc	0.0030792346
214	0x3cd9fa79	0.026608692
215	0x3d966457	0.07343357
216	0xbd768ce5	-0.06019296
217	0x3da68fab	0.08132871
218	0x3dabe99c	0.08394167
219	0x3d4ff86d	0.050774027
220	0x3c6b4d0a	0.014361629
221	0x3d5cc4bd	0.05389856
222	0xbce916ef	-0.028453318
223	0x3bb8e446	0.0056424467
224	0x3d1fa6fb	0.038977604
225	0x3d0d383e	0.034477465
226	0xbd1a6a53	-0.037699055
227	0xbd3d7532	-0.046254344
228	0x3d44507a	0.04792831
229	0xbc4f5746	-0.012655085
230	0x3d9ed43f	0.077553265
231	0x3d8b7cb0	0.06810892
232	0x3d20b656	0.03923639
233	0xbd8e4258	-0.06946248
234	0xbd262c57	-0.04056963
235	0xbd3a8634	-0.045538142
236	0x3d1964d2	0.037449665
237	0x3daab873	0.08335962
238	0xbac45e2d	-0.001498168
239	0xbc24fa9c	-0.010069516
240	0xbd86568a	-0.06559475
241	0xbdccee52	-0.100063935
242	0x3d0de2cc	0.03464012
243	0x3d8cc5ac	0.068736404
244	0xbda7933f	-0.08182382
245	0x3d294fa2	0.04133571
246	0xbc1c86a5	-0.009553586
247	0xbb0956e5	-0.0020956334
248	0x3cc66fd6	0.02422325
249	0x3c11b6b5	0.008893658
250	0x3d77d8a5	0.060509343
251	0x3d4f4eab	0.050612133
252	0xbc996901	-0.018726828
253	0xbd5e1a18	-0.054224104
254	0xbcf94d1b	-0.030432275
255	0xbae4b31c	-0.0017448398

feature.6.bias f4 [32]
0	0xbc9e1adf	-0.019299923
1	0x3d016b67	0.031596567
2	0xbd0f4cad	-0.034985233
3	0x3d95df4c	0.07317981
4	0xbc3d449b	-0.011552001
5	0x3d6173e9	0.05504218
6	0x3d82e2dc	0.06390926
7	0xbd017e67	-0.031614687
8	0x3d65bdfd	0.05608939
9	0x3c6233a2	0.0138062555
10	0xbda32662	-0.07966305
11	0xbdadc782	-0.08485319
12	0x3da33c93	0.07970538
13	0xbd66416f	-0.056214746
14	0xbd88d0f0	-0.06680477
15	0x3d28c9fd	0.041208256
16	0x3d587226	0.052843235
17	0xbcb70a82	-0.022343878
18	0x3d61583a	0.05501578
19	0xbd7efb05	-0.06225111
20	0xbd1e8084	-0.03869678
21	0x3c0e434e	0.008683039
22	0xbb64de3b	-0.0034922499
23	0x3d977857	0.07396
24	0x3d2ea2f7	0.042635884
25	0x3d8f7c45	0.070061244
26	0x3bb463a5	0.0055050426
27	0xbd725cb8	-0.059170455
28	0x3d495d60	0.049161315
29	0xbd4eb049	-0.050461087
30	0xbd36076e	-0.04444068
31	0x3da66d4f	0.08126318

feature.8.weight f4 [32]
0	0x3f26634e	0.64995277
1	0x3ec32e84	0.38121426
2	0x3ed53cc0	0.4164791
3	0x3f0927d6	0.5357641
4	0x3f04356c	0.51644015
5	0x3ef714c8	0.48258042
6	0x3f0846af	0.53232855
7	0x3f2761e4	0.65383744
8	0x3f029840	0.51013565
9	0x3efdaeef	0.49547526
10	0x3f21bd68	0.63179636
11	0x3f0ca1b5	0.54934245
12	0x3f072920	0.52797127
13	0x3ef634f3	0.48087272
14	0x3eb37800	0.3505249
15	0x3ef9b9b4	0.48774493
16	0x3f119177	0.56862587
17	0x3ef93c6a	0.48678905
18	0x3efff614	0.4999243
19	0x3f229588	0.63509417
20	0x3f2b034d	0.6680191
21	0x3ee0cd36	0.43906564
22	0x3efcf51c	0.49405754
23	0x3f12c8c0	0.5733757
24	0x3ee1f72a	0.44133884
25	0x3ee81cc7	0.45334455
26	0x3efd1e67	0.49437258
27	0x3f1d102a	0.6135279
28	0x3edd7e1d	0.4326028
29	0x3f0eeb06	0.5582737
30	0x3f2a67fc	0.6656492
31	0x3f024e9a	0.50901186

feature.8.bias f4 [32]
0	0x3c457cf5	0.012053718
1	0x3b823856	0.003974001
2	0x3c991c33	0.018690204
3	0x3c2973d5	0.010342558
4	0x3ca9f9b8	0.020748958
5	0x3b353a13	0.0027653023
6	0x3d340778	0.043952435
7	0xbbb6385f	-0.005560919
8	0x3c73d6a0	0.014882714
9	0x3d0a4ba1	0.03376353
10	0x3c7ed573	0.01555382
11	0xbc0f2b36	-0.00873833
12	0x3c169bf8	0.009192459
13	0xbc4aeb2f	-0.012385174
14	0xbcb442aa	-0.022004444
15	0xbc9e4f71	-0.01932499
16	0xbd300827	-0.042976525
17	0x3c7a4f69	0.015277722
18	0x3c3b8bb4	0.011446882
19	0xbd2af360	-0.041736007
20	0xbce58804	-0.028018959
21	0x3ca330c9	0.019920724
22	0x3c99ec10	0.018789321
23	0x3d582bd8	0.052776188
24	0xbc0acd85	-0.008471851
25	0xba8ea215	-0.0010882044
26	0xbd05f2b4	-0.032702163
27	0xbc64083b	-0.013917978
28	0xbc4521cb	-0.012031983
29	0x3cdeca74	0.027196147
30	0x3b96f8b6	0.0046072854
31	0xbaba4d59	-0.0014213725

feature.8.running_mean f4 [32]
0	0xbe4ba0e8	-0.198856
1	0xbd77c9a7	-0.060495045
2	0x3e540e11	0.20708491
3	0xbd8a579e	-0.06754993
4	0x3e4523fc	0.19252008
5	0x3e6f35b8	0.23360336
6	0x3e92d2f9	0.28676584
7	0xbe3df9dd	-0.18552347
8	0x3e4e8b39	0.20170297
9	0x3e901685	0.2814218
10	0xbdf43957	-0.11924999
11	0xbe559de7	-0.20861016
12	0xbdec847f	-0.11548709
13	0xbdafb924	-0.08580235
14	0xbddf14d5	-0.10892645
15	0x3e8f9efa	0.28050977
16	0x3ea3f712	0.32024437
17	0x3e385a60	0.18003225
18	0x3e498b2c	0.19681996
19	0xbcdb042b	-0.026735386
20	0xbe3b2a16	-0.18277773
21	0x3e0511ac	0.12995023
22	0x3df60e85	0.12014488
23	0x3ea145f2	0.31498677
24	0x3de938e5	0.11387805
25	0xbe0dfae6	-0.13865241
26	0xbe2153fb	-0.15754692
27	0xbe66db33	-0.22544555
28	0xbd6ac028	-0.05731216
29	0x3e632fab	0.22186153
30	0xbe31b558	-0.17354333
31	0xbe19f1c7	-0.15033637

feature.8.running_var f4 [32]
0	0x3e57810f	0.21045326
1	0x3d2a4c5e	0.041576736
2	0x3de6f277	0.11276715
3	0x3dfd87f0	0.12379444
4	0x3e0fde94	0.1404975
5	0x3e03b4df	0.12861966
6	0x3e38e785	0.18057068
7	0x3e3613b7	0.17780958
8	0x3e1792fc	0.14802164
9	0x3e2fa39d	0.17152257
10	0x3db39d75	0.08770267
11	0x3e075cf4	0.13219053
12	0x3dc32fa9	0.09530575
13	0x3d50773e	0.05089497
14	0x3cf2f46e	0.029657569
15	0x3e0fb7ef	0.14035009
16	0x3e407a82	0.18796733
17	0x3e062831	0.1310127
18	0x3e0a9723	0.13534217
19	0x3df57331	0.11984862
20	0x3e27d493	0.16389684
21	0x3d9b830f	0.07593357
22	0x3dda83d1	0.10669673
23	0x3e666429	0.22499146
24	0x3dc7914c	0.0974451
25	0x3d683c95	0.0566984
26	0x3d929ef5	0.07159225
27	0x3e55f7fd	0.20895381
28	0x3d42bb22	0.047541745
29	0x3e17bb80	0.1481762
30	0x3e312d38	0.17302406
31	0x3e0799fc	0.13242334

classify.0.weight f4 [32, 384]
0	0xbbe9c73c	-0.0071343463
1	0x3ca4505a	0.020057846
2	0x3cb27f45	0.021789202
3	0xbd123a80	-0.03570032
4	0xbcf34265	-0.029694745
5	0xbc5810e0	-0.013187617
6	0x3c847333	0.016168213
7	0xbcba1e19	-0.02271943
8	0xbd40228a	-0.04690794
9	0x3c80c98d	0.015721107
10	0x3c6a1f3b	0.0142896725
11	0xbc7d7108	-0.015468843
12	0x3b5e0398	0.0033876654
13	0x3ca44db0	0.020056576
14	0xbd0951d4	-0.033525303
15	0xbca896a6	-0.020579647
16	0xbd0c3f11	-0.034239832
17	0x3c446bd4	0.011988599
18	0xbd127587	-0.035756614
19	0xbc0ef73d	-0.008725938
20	0x3c375400	0.011189461
21	0x3d0bee27	0.034162667
22	0x3d34350d	0.043995906
23	0xbcb51821	-0.022106232
24	0xbc187316	-0.009304782
25	0xbd15064b	-0.036382955
26	0x3bd1e681	0.006405652
27	0xbc5910d3	-0.01324864
28	0xbc67c358	-0.014145695
29	0x3d10ca42	0.035349138
30	0x3bdeed82	0.0068032155
31	0x3cdfe08d	0.027328754
32	0xbcbb2ef9	-0.022849547
33	0x3d23d2c1	0.039995912
34	0x3c9b8029	0.01898201
35	0xbcbdb557	-0.023157759
36	0x3c0a6ef1	0.008449302
37	0xbd054983	-0.03254081
38	0xbc2675f8	-0.010159962
39	0x3bb278c5	0.0054465258
40	0x3cf20734	0.02954445
41	0xbce43178	-0.02785562
42	0x3bcddb2f	0.0062822322
43	0x3cca42a0	0.024689972
44	0x3a4c9b12	0.00078050897
45	0x3c5e19e2	0.013555976
46	0xbd122343	-0.03567816
47	0xbccdf69d	-0.025142008
48	0x3cc98a0c	0.024601959
49	0x3d036329	0.03207699
50	0x3a360e6e	0.0006944899
51	0x3c669607	0.014073855
52	0x3d15bfee	0.03655999
53	0x3d2cf1b0	0.04222268
54	0x3c34ba2f	0.011030718
55	0xbc6c2b93	-0.014414686
56	0x3d4a16ba	0.04933808
57	0xbb57e846	-0.0032944842
58	0xbd1fe025	-0.03903212
59	0x3b9ed2d5	0.0048469105
60	0x3d240ad0	0.040049374
61	0x3d1b8570	0.037969053
62	0xbc423198	-0.011852644
63	0xbb00860f	-0.0019611155
64	0xba94d6a0	-0.0011355467
65	0xbc3cbf83	-0.011520269
66	0x3d40cfe4	0.04707326
67	0xbc48a094	-0.012245316
68	0x3cc29f3d	0.023757571
69	0x3d0d50ec	0.034501
70	0x3d21eb35	0.03953095
71	0x3c8d824f	0.01727405
72	0xbcec04da	-0.028810907
73	0xbbb8faa8	-0.005645115
74	0x3cda49e0	0.026646554
75	0x3d0ff4c4	0.035145536
76	0xbc6b8012	-0.014373796
77	0x3c5966cd	0.0132691385
78	0x3cecfae8	0.028928235
79	0x3d002443	0.031284582
80	0x3b20fa71	0.0024563337
81	0x3cfc11f6	0.030770283
82	0x3cc88743	0.02447856
83	0xbd31c0f3	-0.0433969
84	0x3ceec69f	0.029147444
85	0x3cce1061	0.025154294
86	0x3c05cb45	0.008166139
87	0xbd46d535	-0.048543174
88	0x3c30326b	0.010754208
89	0xbc93c5f1	-0.018038722
90	0x3ca0e441	0.01964009
91	0xbbe85cc3	-0.007091136
92	0x3b52b30c	0.0032150177
93	0xbc8c3ba1	-0.017118277
94	0x3c895ef9	0.01676892
95	0x3c2eb03c	0.010662135
96	0xbca14023	-0.019683903
97	0xbc03b43d	-0.008038578
98	0x3c6368e0	0.013879985
99	0x3d34f52e	0.044179134
100	0x3cb377a1	0.02190763
101	0xbc6e1ce7	-0.014533258
102	0x3c790c9b	0.015200759
103	0x3ba82f68	0.0051326044
104	0xbcc3dbe0	-0.023908556
105	0xbcf9cb0c	-0.030492328
106	0x3c77442e	0.015091939
107	0xbc643b55	-0.0139301615
108	0x3cc778c4	0.024349578
109	0x3cd54333	0.02603302
110	0x3c6e937b	0.014561529
111	0xbd1272db	-0.035754066
112	0x3b95fa99	0.0045769927
113	0xbc21d4d8	-0.009877406
114	0x3d11a706	0.035559677
115	0x3cca57ab	0.024700006
116	0xbc671e87	-0.014106399
117	0xbbc12dd5	-0.005895356
118	0x3c8e1aee	0.017346825
119	0x3d2bff51	0.041991536
120	0xbd07ec92	-0.033184595
121	0xbcb93326	-0.022607397
122	0xbb87d626	-0.0041454015
123	0xbbd1a44b	-0.006397759
124	0x3b9a9aca	0.0047181593
125	0x3ccb1ade	0.024793085
126	0xbaff001a	-0.0019454986
127	0x3c485b0a	0.012228737
128	0x3d084d46	0.03327682
129	0x3ca46a63	0.02007026
130	0x3d5abb27	0.05340114
131	0xbcba461d	-0.02273851
132	0x3ce110d3	0.027473843
133	0x3c66a048	0.0140763
134	0x3ccd7137	0.0250784
135	0x3b7547b9	0.0037426783
136	0xbd01ecd8	-0.031720012
137	0xbd27787a	-0.04088638
138	0xbcff7dc0	-0.031187892
139	0x3ba46db7	0.005017962
140	0xbc821d06	-0.01588298
141	0xbc52ff80	-0.012878299
142	0xbd06bd39	-0.0328953
143	0xbd0a28bf	-0.033730265
144	0xbc6d6cda	-0.014491284
145	0x3cf4cf1b	0.029883912
146	0xbc3b2855	-0.01142319
147	0x3ce7a290	0.028275758
148	0xbc1d2667	-0.009591675
149	0xbcb4449d	-0.022005374
150	0x3ce02a2b	0.027363857
151	0x3d01a43b	0.031650763
152	0xbd01e9e6	-0.031717204
153	0x3942e647	0.00018587067
154	0x3d1be5fa	0.03806112
155	0x3c190460	0.009339422
156	0xbbbd80d4	-0.00578318
157	0x3c90d2d6	0.01767866
158	0xbd026035	-0.03183003
159	0x3d1ba8ce	0.03800278
160	0x3c1b4a54	0.00947817
161	0xbb523ab3	-0.0032078444
162	0xbd1a26ee	-0.037634782
163	0xbd40289b	-0.046913724
164	0xbd214564	-0.039372817
165	0xbc348de7	-0.01102016
166	0xbb48d644	-0.003064529
167	0x3ce6895d	0.028141672
168	0xbc89fab5	-0.01684318
169	0x3cb6ec77	0.022329552
170	0x3d3bda33	0.045862388
171	0xbce71e11	-0.028212579
172	0xbcc46f83	-0.023978954
173	0x3d003940	0.031304598
174	0xbccfbba3	-0.025358027
175	0xbcec53bd	-0.028848523
176	0xbc04dd97	-0.008109472
177	0x3d1e4444	0.038639322
178	0x3c714c7a	0.014727706
179	0x3c655a04	0.013998512
180	0x3bf8bb34	0.0075906757
181	0x3d06a1c7	0.032869127
182	0x3c5169c6	0.012781566
183	0xbcc3889e	-0.023868855
184	0xbbf216de	-0.00738798
185	0x3d166ef3	0.036726903
186	0x3d584314	0.052798346
187	0x3d5185fb	0.051153164
188	0x3cb9263a	0.022601236
189	0xbc8bc35a	-0.017060924
190	0x3ce1db2d	0.027570331
191	0x3d19ac6f	0.03751796
192	0x3ccd1821	0.02503592
193	0xbbacd039	-0.0052738455
194	0x3cc6380f	0.024196653
195	0x3cf6130f	0.030038385
196	0x3c9e0db1	0.019293638
197	0xbd1c0a71	-0.038095895
198	0x3c7dbd98	0.015487097
199	0x3cdad1a7	0.026711298
200	0xbca6ef01	-0.020377638
201	0xbc9aa448	-0.018877164
202	0x3caa9655	0.020823637
203	0xbd051ffc	-0.032501206
204	0xbd0c7fb8	-0.03430149
205	0x3abe7b45	0.0014532587
206	0xbcb4eda2	-0.022085968
207	0x3c944f47	0.018104209
208	0x3b2ee1cf	0.0026684885
209	0x3cf021d8	0.029313013
210	0x3cb3c14e	0.02194276
211	0xbcc986a8	-0.024600342
212	0x3d11abb1	0.03556413
213	0x3d29354f	0.041310605
214	0xbd2c93d3	-0.042133164
215	0xbc5a3cfa	-0.013320202
216	0xbd4d9407	-0.050189998
217	0xbca70e03	-0.020392423
218	0xbcb79eaf	-0.022414533
219	0xbca006c3	-0.019534474
220	0xbc9fba7b	-0.0194981
221	0x3d2eefe6	0.042709254
222	0x3d7ba14f	0.061433133
223	0x3cf83bba	0.030301917
224	0x3d03f59b	0.03221665
225	0x3d2727be	0.040809385
226	0xbbcaa10b	-0.0061837486
227	0xbc024fd2	-0.007953601
228	0x3c21003f	0.009826719
229	0xbc295b6e	-0.01033674
230	0xbc78acb8	-0.015177898
231	0x3bdeae2b	0.006795665
232	0x3beaed8b	0.0071694306
233	0xbbb6ba61	-0.0055764173
234	0xbc07e35f	-0.008293956
235	0xbcccaeec	-0.024985753
236	0x3d100fd5	0.03517135
237	0xbd02a36e	-0.03189414
238	0x3c37331c	0.011181619
239	0xbcaa2eb4	-0.020774223
240	0xbcd63cbb	-0.026152005
241	0xbc07ef98	-0.00829687
242	0x3d047320	0.032336354
243	0x3ca2d56a	0.019877154
244	0xbc5dc97a	-0.013536805
245	0xbc81aaeb	-0.01582857
246	0x3adca4f2	0.0016833826
247	0x3b87d0ec	0.0041447785
248	0x3ada3ba0	0.001664985
249	0x3c9b17a8	0.018932179
250	0xbd125885	-0.03572895
251	0x3ccd9966	0.02509756
252	0xbd489009	-0.048965488
253	0xbd273072	-0.040817685
254	0x3bd23ffd	0.0064163194
255	0x3c5a4f84	0.013324622

classify.0.bias f4 [32]
0	0xbd21f806	-0.039543174
1	0x3ca70733	0.020389175
2	0xbb574205	-0.0032845747
3	0xbd84b58d	-0.064799406
4	0xbc1f80eb	-0.009735326
5	0x3bc2bb8b	0.005942767
6	0xbd0257dd	-0.031822074
7	0xbcbceaa1	-0.023061099
8	0xbda55c6d	-0.080742694
9	0x3bca003c	0.0061645787
10	0x3b5e35d1	0.0033906589
11	0xbce4d0a0	-0.027931511
12	0x3d17a5f5	0.037023503
13	0xbc90e4cf	-0.01768723
14	0xbc61acf9	-0.01377415
15	0x3da3b8ab	0.07994207
16	0xbd961c2c	-0.07329592
17	0xbc3993cf	-0.011326744
18	0x3d25695a	0.040383674
19	0x3cd64b6d	0.026159013
20	0x3cd1db6a	0.02561732
21	0x3ccf0f65	0.025275895
22	0xbd08ea79	-0.033426736
23	0x3bbfbcae	0.00585135
24	0x3cb5a05f	0.022171197
25	0xbd1188bf	-0.0355308
26	0xbc3a8594	-0.011384387
27	0xbd2e4acd	-0.042551804
28	0x3dacf599	0.084452815
29	0x3d1304bf	0.035893198
30	0x3d77366d	0.06035464
31	0x3b9e35ed	0.004828206

classify.3.weight f4 [1, 32]
0	0xbda90d99	-0.08254547
1	0xbd92cf27	-0.071684174
2	0x3d61b769	0.055106554
3	0xbda72f82	-0.08163358
4	0x3d8b7e12	0.068111554
5	0x3d396fa5	0.04527249
6	0xbd9619be	-0.07329129
7	0x3d526ad1	0.0513714
8	0xbdcc2f77	-0.09969991
9	0x3d54b386	0.05192902
10	0x3d5e9478	0.05434081
11	0x3d1c16e0	0.038107753
12	0x3da55fa9	0.08074886
13	0x3d900db2	0.07033862
14	0x3d1e6fd4	0.038680866
15	0x3d5725a3	0.052526128
16	0xbdc7a565	-0.097483434
17	0x3d147146	0.03624084
18	0x3db815e4	0.0898855
19	0xbd8402a4	-0.06445816
20	0xbd9d6db3	-0.07686939
21	0x3d645c16	0.055751882
22	0xbd8b6f86	-0.06808381
23	0x3d96219d	0.0733063
24	0xbd9573d6	-0.072974846
25	0xbdca2e57	-0.0987212
26	0xbd3ab9b3	-0.045587253
27	0xbd6d2e0b	-0.057905238
28	0x3d8c195f	0.06840777
29	0xbdc14420	-0.09436822
30	0x3da6bdae	0.08141647
31	0x3dcd6c73	0.10030451
