Code/CNN/Outputs/Pretrained/best_model.pth (torch, 63778 bytes, 15 tensors)

feature.0.weight f4 [16, 5, 3]
000000 f8 67 06 bd 36 29 c9 bc 0b b1 05 bc a0 01 07 3d
       -0.032813996 -0.024555784 -0.008159886 0.032960534
000010 ce 54 24 3d dc 37 71 3c 13 67 02 3d a7 c5 ef bc
       0.04011994 0.014722791 0.03183658 -0.029269053
000020 cb 78 b2 3d 96 2d 79 3d ac 17 b8 bc f4 da 90 3d
       0.08714446 0.06083449 -0.022472225 0.07073012
000030 56 e9 b7 bd af a0 0e be 23 a1 2e be 37 58 01 bc
       -0.08980052 -0.13928483 -0.17053656 -0.007894567
000040 96 9d cd bb 80 fd 06 bc 34 1a 05 bd 05 5b 7f 3c
       -0.006274889 -0.00823915 -0.032495692 0.015585666
000050 fb 12 58 3d ce 34 b1 3c d4 60 30 bd 9c 08 d7 3c
       0.052752476 0.021631625 -0.043061092 0.026249222
000060 d8 12 57 bd a5 f1 16 bd 7e 56 6c 3d 4b aa e1 bd
       -0.052508205 -0.036851544 0.057699673 -0.11018809
000070 06 f9 ca bc 44 e4 be bd ea d2 e1 b7 3b a8 5c b8
       -0.024776947 -0.09320882 -2.6920305e-05 -5.2608764e-05
000080 2c ca 94 b8 a6 52 7d b8 0a 5f c0 b8 df 44 c5 b8
       -7.0948474e-05 -6.0396873e-05 -9.172976e-05 -9.40652e-05
000090 48 d4 21 b8 bf 30 77 b8 f4 a1 e7 b8 55 72 b8 b8
       -3.8583094e-05 -5.8934787e-05 -0.000110451045 -8.7951e-05
0000a0 73 24 00 b9 b2 cc 0a b9 66 60 ea b8 f1 73 ad b8
       -0.0001222061 -0.0001323696 -0.00011175945 -8.2708786e-05
0000b0 a7 a9 04 b9 87 ed 8c bb 13 90 6f 3d 15 0b f4 3a
       -0.00012651701 -0.0043007764 0.05848701 0.0018619025
0000c0 c3 00 d9 bb d8 0f b9 3c 53 80 ca bc eb ec db 3c
       -0.0066224053 0.022590563 -0.024719393 0.02684637
0000d0 7e 2b 46 bd 4e 8a de 3c cc 9e 19 bc 4d ef 83 bb
       -0.04838132 0.027165558 -0.009376239 -0.0040263296
0000e0 fa a2 1e 3c 4d 48 ea bd 4e 23 e6 bc cd 61 c5 bc
       0.009682411 -0.114395715 -0.028093006 -0.024094487
0000f0 58 bb 79 bd 2e e7 d7 bc 85 67 bc 3c cc 23 b7 3d
       -0.06096968 -0.026355352 0.02299858 0.089423746
000100 5b f1 e5 3c 17 fb 06 bb ca 75 92 bd 3f ae 05 bd
       0.028069189 -0.0020596439 -0.07151373 -0.032636877
000110 9d 1d 80 3d 97 9e 4c 3d b6 89 eb bc 05 77 4b 3d
       0.06255648 0.04995593 -0.02875219 0.049674053
000120 74 db a3 3d 60 a5 28 3e 99 e8 e3 bc 89 5c 47 bd
       0.08000842 0.16469336 -0.027820872 -0.048672233
000130 2d 71 0e 3d cd ff 14 3d db 8c 35 3d c0 e9 ec bd
       0.0347759 0.036376763 0.044323783 -0.11568022
000140 28 58 a7 bd ab bd 9d bc 18 f5 0d 3d f8 60 89 3d
       -0.08171111 -0.01925548 0.034657568 0.067079484
000150 2b f4 75 3d 31 cd 83 3a 5a a2 ac bc 45 a5 da 3b
       0.06004731 0.0010055659 -0.021073509 0.0066725337
000160 34 04 0e 3e 4e ff d5 3d 69 cd 37 3d 03 bf 02 bd
       0.13868791 0.10449086 0.04487363 -0.031920444
000170 91 92 31 3c d4 86 2e bd 91 53 9d 3b 25 81 95 bb
       0.010838167 -0.04260905 0.0048012217 -0.0045625144
000180 18 f3 fd bb 2b 3b f0 3c eb 8f b9 3c 79 c5 17 bd
       -0.0077499263 0.029325088 0.022651633 -0.03705356
000190 c9 f6 0c 3c c1 25 27 3d 11 1d e6 ba ba 90 86 3b
       0.00860376 0.04080749 -0.001755627 0.004106608
0001a0 ea d7 6a be 1b 5f 9d bc e8 5d 7b 3a 53 24 d8 bb
       -0.22933927 -0.019210389 0.0009588883 -0.006596127
0001b0 79 a3 3c 3b 6b 02 f2 bc bd 49 29 3d a3 9a 9f 3b
       0.002878396 -0.029542169 0.041330088 0.004870729
0001c0 4a c4 07 bd d2 10 2b 3d ec ce 6d 3d 1d bb 90 bd
       -0.03314618 0.041764088 0.058058664 -0.07066939
0001d0 c0 03 a5 3b 5c 34 8e bd 01 9a dd bd 35 1c cf 3c
       0.0050358474 -0.069435805 -0.108203895 0.025282005
0001e0 55 4b 0c bd 18 82 49 bb 4c b7 95 bb fb b8 86 3d
       -0.03425153 -0.0030747708 -0.00456897 0.06578251
0001f0 db 59 10 3d 0a 8e 94 bb 40 42 12 bc 2d 91 07 bd
       0.035241943 -0.004533534 -0.008926928 -0.033097435
000200 34 5b 22 3d 76 8e 4f bc 39 be 82 bd 7c fc ac 3d
       0.03963776 -0.012668243 -0.06383938 0.08446595
000210 e2 d2 21 bd bf 9d ef bd e8 2a 3e be f2 61 14 3c
       -0.039507754 -0.117000096 -0.18571055 0.009056555
000220 8c 18 50 bd 67 6c 81 3c a9 41 44 bd ab 7c 53 3d
       -0.05080466 0.01579876 -0.04791418 0.051632565
000230 d1 59 e4 bc 1c 0f 72 3d 55 21 39 bd 0f 26 68 bc
       -0.027874859 0.05909644 -0.045197804 -0.01416923
000240 c5 53 32 bd 21 a6 2a 3d 9a df 65 bd 30 a5 64 be
       -0.04353692 0.04166234 -0.056121446 -0.22328639
000250 51 e2 fa 3d eb d6 12 3d 63 73 45 3c 72 44 1b bd
       0.12250198 0.035849493 0.012051436 -0.03790707
000260 62 06 e4 3c 01 91 81 3b 00 76 0a 3d ae 9b 51 bc
       0.027835075 0.0039540534 0.03380394 -0.012793465
000270 7c 0c 32 bc 8f aa 1a 3c 3b fb 02 3d 1a 5f 6d 3d
       -0.010867234 0.009440078 0.031977873 0.057952024
000280 57 f0 31 bd c6 b3 10 3d 3b 0e b4 bd c7 0a ea bd
       -0.043442097 0.035327695 -0.08791777 -0.11427837
000290 d9 56 02 be 27 44 54 3c 2e 20 36 bd b3 a4 09 bd
       -0.12728442 0.012955702 -0.044464283 -0.033604335
0002a0 ae d0 6a bb 94 ac bf 3b 3f 67 46 3d d5 64 54 3c
       -0.003582995 0.0058494303 0.048438307 0.012963493
0002b0 4d f9 e9 3c 10 0a 94 3c 15 d0 ad 3c ac 71 c5 3c
       0.028561259 0.018071204 0.021217385 0.024102055
0002c0 4b ef d2 bc 56 44 83 3d c0 9d 02 3e e5 2e bd 3d
       -0.02574887 0.064095184 0.1275549 0.0923746
0002d0 92 0b a8 3c 5b 9c 71 b8 f6 b0 94 38 7f 1c a6 3c
       0.02051333 -5.7604495e-05 7.0901515e-05 0.02027726
0002e0 25 ad 07 3c 27 d5 70 bb 27 b1 76 3c 2a 14 02 3c
       0.008281027 -0.0036748142 0.015056885 0.007939378
0002f0 aa 7c 16 bb f2 01 73 bc 0e 8b 81 bc 2e da 42 3c
       -0.002296249 -0.014832007 -0.015813377 0.011892838
000300 8f fa ce bb 82 f3 f2 bc 59 04 8e 3c d8 3a 75 bd
       -0.00631649 -0.02965713 0.017336057 -0.05987057
000310 34 42 0b 3b b9 f0 25 3b a6 ee 64 3c 1e 64 11 3c
       0.0021249177 0.0025320484 0.013972914 0.008873967
000320 5f fd f1 3b 6d 30 54 3d c1 7a 25 bd 39 d7 62 3c
       0.0073849405 0.051803995 -0.04040027 0.013845258
000330 1e 35 ab 3d f9 30 a3 bc b7 7f 29 bc a6 6e 85 bd
       0.08359741 -0.019920813 -0.010345391 -0.06515245
000340 15 bd ae 3d 1e ab 59 3d cd 93 d2 ba 79 7c 7b bc
       0.08532158 0.053141706 -0.0016065777 -0.015349501
000350 1f dd 2d bd 88 34 a5 3c c1 4e 95 bc 79 8f 1c 3d
       -0.042447206 0.02016665 -0.01822603 0.038222764
000360 a4 8c a1 bd c7 5a 0d 3d bc 52 51 3c 23 ca e3 bc
       -0.07888153 0.0345104 0.012776073 -0.027806347
000370 4b 2d 59 bc bf cf 50 3d d6 1d 3e 3d 42 75 c4 3c
       -0.013255428 0.050979372 0.046415173 0.023981694
000380 7b 04 45 be 0b ee 84 bc eb ee 64 bd 21 db f6 3b
       -0.1923999 -0.016226789 -0.055891912 0.0075334464
000390 80 72 2c 3d 94 28 66 3d d4 8b 50 3d c2 e1 c5 bc
       0.042101383 0.056191042 0.0509146 -0.024155501
0003a0 aa dc 4a 3d e8 a6 ca bc 34 e4 ea bc c7 f2 0a 3d
       0.049526848 -0.02473779 -0.028673269 0.033922937
0003b0 e2 46 86 bc 51 4b 7b 3d 12 f2 77 3d f2 e0 11 3e
       -0.016391221 0.061351124 0.06053359 0.14245966

feature.0.bias f4 [16]
000000 23 75 99 3d 7e e7 33 3d 20 8d 8c b9 27 60 52 3d
       0.07493045 0.04392194 -0.00026808027 0.05136123
000010 3e be 0a bc 4e 81 1d be 4c 25 9e 3d 12 cc 84 3c
       -0.008468209 -0.15381357 0.077219576 0.01621059
000020 99 33 8d 3d 01 77 c7 bc ac 46 8c 3d 01 9c 16 bc
       0.06894607 -0.024348738 0.06849417 -0.009192468
000030 5d fd 70 bc 74 76 a3 bd ef c5 89 3d 2c 02 f5 bc
       -0.014708844 -0.079815775 0.06727206 -0.029908262

feature.2.weight f4 [16]
000000 49 bf 8c 3e 5b f0 53 3e 4b 55 d9 3b fa b8 5b 3e
       0.2748969 0.20697157 0.006632482 0.21457282
000010 1f 14 53 3e 96 50 8a 3e fd 51 7e 3e ac 70 5d 3e
       0.20613144 0.27014607 0.24835964 0.21625012
000020 96 f8 85 3e d3 c0 8a 3e 99 28 76 3e 2b 89 5e 3e
       0.2616622 0.27100238 0.24038924 0.21732013
000030 27 65 31 3d e4 7b 18 3e 09 e4 5e 3e 85 8e 3c 3e
       0.043309357 0.1489101 0.21766676 0.18413742

feature.2.bias f4 [16]
000000 66 fc 76 bc 06 b4 bd 3b d5 a6 96 bb 56 c1 d0 bc
       -0.015074825 0.0057892827 -0.0045975246 -0.025482815
000010 53 5f dc bd cc 47 a6 bd 30 d5 3f bd 41 f5 5c 3c
       -0.10760369 -0.08119163 -0.04683417 0.013486207
000020 87 6a a9 bc f8 c3 08 3d 7d ba 43 3c dc 5a bc bd
       -0.020680679 0.033390015 0.011946318 -0.091970176
000030 d5 cb 85 bb 02 28 1c bd 69 a3 83 bc 02 8e c2 bd
       -0.0040831366 -0.038124092 -0.016069131 -0.09499742

feature.2.running_mean f4 [16]
000000 ff bf 0a 3c 53 32 20 bd e1 1e 3f ba 71 18 f2 3b
       0.008468627 -0.039110493 -0.0007290673 0.0073881675
000010 7d 8a c7 3d f5 d3 85 bd e1 56 0e 3c df 1b 1e bd
       0.097432114 -0.06534568 0.008687706 -0.0386008
000020 6d a5 06 bd b1 59 b9 bd 4b 23 4d bc ed 31 f1 3d
       -0.032872606 -0.090503104 -0.0125206215 0.11777101
000030 1a 9c 7c bb e1 fd 09 bd 01 0c fc 3b 9d 61 be 3d
       -0.0038545192 -0.033689383 0.0076918607 0.09295962

feature.2.running_var f4 [16]
000000 d1 b5 65 3c b7 b1 7f 3c e8 73 42 35 54 22 a3 3b
       0.014020399 0.015606335 7.24393e-07 0.0049784575
000010 66 c2 c1 3c fd c2 77 3c c5 e4 48 3c c1 21 ad 3c
       0.023652267 0.015122172 0.012261574 0.02113426
000020 c5 48 8e 3c fb 2c 0c 3d 42 e5 3f 3c 64 3b 01 3d
       0.017368684 0.034222584 0.011712374 0.03155078
000030 1c 82 74 3a c6 20 a0 3b 2d e3 01 3c 65 89 e0 3c
       0.0009327249 0.0048867194 0.007927698 0.027409265

feature.6.weight f4 [32, 16, 3]
000000 1a 68 00 bb 88 db c9 3b 14 f7 a9 3c 5a 08 1c bc
       -0.00195933 0.0061602034 0.020747699 -0.009523476
000010 7e 01 72 bb ea 90 d1 3c fd 4d 1d 38 49 e2 ba 38
       -0.003692716 0.025581796 3.750435e-05 8.91132e-05
000020 e7 36 03 39 5f 08 28 bc 59 e2 db 39 f8 57 9c 3c
       0.00012513586 -0.010255902 0.00041939577 0.019084916
000030 69 8d 7f 3c fd eb b7 3b db 7b 17 3b ed f8 01 3d
       0.01559768 0.005612849 0.0023114595 0.031731535
000040 42 9e 13 3d 67 f8 26 3d 18 16 41 bc 49 ec ba bc
       0.0360396 0.04076424 -0.011785053 -0.022817748
000050 64 4b b3 bc 4a bb 70 bc 3c d7 cb bc 0f 60 7f bc
       -0.021886535 -0.014693091 -0.024882905 -0.015586867
000060 e0 49 48 3d 7f ce c0 3c 0a 72 19 3d 68 b5 02 3d
       0.048898578 0.023535965 0.03746227 0.031911284
000070 ad a8 87 3c ef 05 2d bd 50 07 29 3c 8b 72 02 3c
       0.016559923 -0.042241987 0.010316685 0.0079618795
000080 c4 f8 23 3d 11 c7 24 3b f2 33 a7 bb 85 ab f7 3c
       0.040032163 0.0025143067 -0.005102628 0.030233154
000090 f2 3a c9 39 9e 11 12 bb 4c 3f 35 bc 3e aa ed 3c
       0.00038381625 -0.0022288333 -0.011062454 0.029011842
0000a0 cd 17 3d 3d 93 81 7f 3c f2 6b 13 3c 98 53 b9 bc
       0.046165276 0.015594858 0.008997904 -0.022622868
0000b0 f4 33 d1 bb 57 72 96 3c f8 c1 9b 3c 77 9d 19 bc
       -0.006384367 0.018365068 0.01901339 -0.009375921
0000c0 bf 4e 8f bc 73 d8 3d bc c1 9a 72 3c 4f 6f 9e bb
       -0.017493604 -0.01158725 0.014807404 -0.0048350464
0000d0 9b b1 56 bc 9f b1 dc 3c 65 cf 28 b9 52 2e 6d 38
       -0.013103868 0.026940165 -0.00016098989 5.6548342e-05
0000e0 ca 82 64 b8 b3 15 2e bc be 16 0d bc 51 b9 fd 3c
       -5.4481243e-05 -0.010625291 -0.008611379 0.030972155
0000f0 62 de 31 3c ac e1 dd 3b ea 63 33 bc c1 59 03 3d
       0.010856243 0.006771287 -0.010949114 0.032068018
000100 9c 7b ce 3c d6 0b e6 3b 7c b3 d0 bb 4d f8 9e bc
       0.025205426 0.007020454 -0.0063690525 -0.019405508
000110 e5 49 39 bc 4c 77 e5 bc 0a 42 65 bc 3c b1 6b bb
       -0.011309122 -0.028010987 -0.013992796 -0.0035963794
000120 c7 90 ef 3c 53 18 41 3c ad cf 0f 3d 13 4d d9 bb
       0.02924384 0.0117855845 0.035110164 -0.0066315024
000130 f0 d9 2a 3c 24 39 18 bd ce 7a 5c bb ae 26 94 3b
       0.010427937 -0.03716387 -0.0033642533 0.0045212125
000140 18 43 20 3d 10 ab d8 3c ff 3b 3a bc 74 04 dc b9
       0.039126486 0.026448756 -0.011366843 -0.00041964988
000150 ff a2 00 bc 41 27 27 3b 62 3a 43 bc dc 13 d2 3c
       -0.007851361 0.0025505575 -0.011915775 0.025644235
000160 4b 33 00 3d 2d 9b 11 3c cc 4c 5b bc 4a 2d ca bc
       0.031298917 0.008887094 -0.013385009 -0.024679799
000170 38 57 d1 bc ab 6e df 3c d7 d7 c8 3c 54 17 c3 3b
       -0.025554284 0.02727445 0.024516983 0.0059537087
000180 e8 a2 80 bb 1c 91 81 3c eb 7e e0 3c 8d 73 15 bb
       -0.00392567 0.015816264 0.02740427 -0.002280447
000190 03 39 9f 3c 58 5d 2c 3d 67 a2 a6 37 c5 c1 45 b7
       0.019436365 0.042081207 1.9864367e-05 -1.17872305e-05
0001a0 ea 13 1b 38 b3 f5 14 3c dd 90 e2 3c ee 7d 1b 3d
       3.6973426e-05 0.009091782 0.027656967 0.037961893
0001b0 46 b0 3a bc f5 b7 71 3a 68 b6 71 bb 55 a6 05 bc
       -0.011394566 0.0009220832 -0.0036882404 -0.008157332
0001c0 aa c9 77 3c 3c 43 7a 3c 4c 88 82 3c 14 66 3d 3a
       0.015123764 0.015274819 0.015934132 0.00072249887
0001d0 7d d2 01 3c 31 9f 23 bb 31 7f 38 bb b0 24 07 3d
       0.0079237195 -0.0024966712 -0.0028151984 0.032993972
0001e0 fe 6e 35 bb 23 55 02 3d 64 f8 de 3c ba 74 be 3a
       -0.0027684565 0.031819474 0.027218051 0.0014530637
0001f0 70 7d 45 3c ac 45 6f 3c cd 1c 16 3c 1b cf 06 3c
       0.012053832 0.014604013 0.00916214 0.008228089
000200 ea 5f 22 3d ba bb c3 bb 9e 7b d3 bb e1 e0 e9 3a
       0.039642252 -0.0059733065 -0.0064539453 0.0017843508
000210 3a 06 e4 3b 4f 9d 76 ba cd 13 f6 3a 60 de 22 bc
       0.00695875 -0.0009407596 0.0018774212 -0.009940714
000220 8a 76 02 bc 51 47 82 3c 2c fc 59 3c c7 fe 13 3c
       -0.007962832 0.015903147 0.013304751 0.009032912
000230 91 77 e0 3b f3 e6 dd bb a9 99 e6 ba 92 97 f9 bb
       0.006850191 -0.006771916 -0.0017593402 -0.0076169455
000240 aa 30 7e 3b 52 53 20 bb 5c 85 39 3c 4b 95 83 3b
       0.003878633 -0.0024463725 0.011323299 0.0040156
000250 d6 2b 16 bc 9e cd 77 bb 08 64 42 38 a8 24 7f b8
       -0.009165725 -0.0037811766 4.6346366e-05 -6.0830876e-05
000260 25 b6 be b8 0a 01 1c bc fd 9b dc bb 05 9f e3 bb
       -9.093833e-05 -0.009521732 -0.0067324624 -0.006946447
000270 df d2 a8 3c 6b 83 38 3c 60 42 bf bb f6 7a 88 3c
       0.020608364 0.011261801 -0.00583677 0.016660195
000280 73 84 0a 3d 51 ac 72 bb ae 54 6e bc a2 43 1d bd
       0.03381772 -0.0037028978 -0.014546556 -0.038394578
000290 7f d7 6e bc 24 6b 3f bc 02 97 e1 bc da e8 f1 bc
       -0.014577745 -0.011683259 -0.027537826 -0.029529978
0002a0 66 c2 9e 3c a2 10 16 3c 62 69 03 3d 33 dc 4e bc
       0.019379806 0.009159239 0.032082923 -0.012625742
0002b0 dd 88 39 bc 7f 33 3d bd d9 6d b6 3c 89 50 a4 3b
       -0.011324135 -0.04619169 0.022269176 0.0050144834
0002c0 15 90 cb 3c c6 26 a8 3b 64 bc 86 3c 0e 59 55 bc
       0.024848977 0.0051315753 0.016447254 -0.013021721
0002d0 1c 3d a8 bc 4a 65 b1 bb 48 d9 a6 bc f9 7c cb 3b
       -0.020536952 -0.005413686 -0.02036728 0.0062099663
0002e0 54 f3 f9 3c 84 52 74 3b b3 11 2b bc 4c bb 0f bd
       0.030511536 0.0037280628 -0.010441232 -0.03509073
0002f0 54 67 3e bc 9e b9 29 3c 80 82 92 3c 43 a3 13 bc
       -0.011621315 0.010359196 0.017884493 -0.009011093
000300 79 d1 48 bc 7c 38 68 3b 42 1a 0c 3d a0 e3 04 bc
       -0.012256973 0.0035434058 0.03420473 -0.008110911
000310 e6 ab 80 3c b5 3b 41 3d 44 03 61 b8 36 f8 a0 b8
       0.015706968 0.04717608 -5.364722e-05 -7.6756274e-05
000320 dc e7 95 b8 b7 a9 da bb fe 17 3e 3c a1 35 3f 3d
       -7.148061e-05 -0.0066730636 0.0116024 0.046682004
000330 91 b2 51 3a 77 f4 bf 3b cb bf a7 bc fd 57 22 3c
       0.0007999326 0.005858 -0.020477196 0.009908673
000340 9c aa 5f 3c df 0b 7c bc 98 2f 57 3c 06 0b 15 3c
       0.013651516 -0.01538369 0.013133906 0.0090968665
000350 8b 12 c8 3c 0b 3f 56 bb 25 9f 89 ba 67 cd 0d 3d
       0.024422904 -0.0032691385 -0.0010499699 0.034619715
000360 70 45 ce bb c7 aa 3c bb d5 4d 0b 3d c2 55 13 3b
       -0.0062948987 -0.0028788315 0.034009773 0.0022481536
000370 90 9f ab bc 53 0c e2 39 1b 0e 5a bc ff f7 05 3c
       -0.020950109 0.0004311526 -0.013309027 0.008176803
000380 c9 41 c4 3c 27 c4 3c bb 1c 26 2e bc 09 82 61 bc
       0.02395715 -0.002880344 -0.010629203 -0.013763913
000390 db 4c 0b bc 1f 3b a3 3b 7f bd d1 38 d6 8e 40 3b
       -0.0085022105 0.004981413 0.00010001193 0.0029382012
0003a0 c5 d7 a4 3b 11 27 26 bc bb 46 67 3c f4 1c 28 3c
       0.0050306045 -0.01014115 0.014115985 0.010260809
0003b0 c3 6d c8 3b 92 c0 f4 3b bf c2 17 bc 4a 0f 5a bc
       0.0061166002 0.007469245 -0.00926274 -0.013309309
0003c0 c6 67 ea ba 09 76 a9 3c 17 7e 01 3d 7f 04 88 bc
       -0.001788371 0.020686166 0.03161439 -0.016603706
0003d0 ed 00 c4 3b 47 7e 17 3d 23 bb ec b8 82 f1 86 b8
       0.0059815557 0.03698566 -0.00011288214 -6.434602e-05
0003e0 05 53 e6 b7 72 5e 2e 3b af fa 6b 3c 28 6a 4c 3d
       -2.7456796e-05 0.0026606587 0.014403029 0.049905926
0003f0 7f 5b 10 bb 8b 7e a0 3b fc f3 0e bc 34 61 26 bb
       -0.0022027192 0.0048978976 -0.008725163 -0.0025387527

feature.6.bias f4 [32]
000000 e1 f8 0b bd 47 5b 47 bc 81 bf de bc 19 97 3a 3c
       -0.034172896 -0.012167758 -0.027190926 0.011388564
000010 13 4a 17 bc 9b 67 91 bc 5a 2c 05 3d 2a 81 55 3c
       -0.009233969 -0.017749598 0.032513 0.013031283
000020 a5 38 b0 bc 92 08 a6 bc b4 66 b1 bc 22 a7 b2 3c
       -0.021511385 -0.020267759 -0.021655418 0.02180821
000030 fc b3 ff 3c e8 94 18 bd a5 b6 05 3d a0 7f dd 3c
       0.031213753 -0.037251383 0.032644887 0.027038395
000040 4b 81 8b bc b4 91 d5 bc b0 18 26 3c 64 fc bc 3b
       -0.017029425 -0.026070453 0.010137722 0.005767392
000050 a0 b3 d6 3c a0 77 77 3b a3 ba 88 3c 20 e0 c2 3c
       0.026208699 0.003776051 0.016690558 0.023788512
000060 43 d6 51 bc 68 e3 ff 3c 5e de 08 bd c5 85 85 3c
       -0.012807432 0.031236365 -0.03341519 0.016299138
000070 bc 89 de bc 2b da 9d 3c 7d ac 33 3d 74 9f 1f 3c
       -0.027165286 0.01926907 0.04386567 0.009742606

feature.8.weight f4 [32]
000000 c9 07 63 3e 03 95 4d 3e c4 e9 5a 3e 48 07 4e 3e
       0.22170939 0.20076375 0.21378237 0.20119965
000010 6a a0 6d 3e 70 99 51 3e 96 2b 52 3e 48 84 7a 3e
       0.23205724 0.20468688 0.20524439 0.24464524
000020 90 af 4a 3e b0 36 39 3e 19 6f 67 3e d6 63 68 3e
       0.19793534 0.18087268 0.22600974 0.22694334
000030 38 d4 66 3e cb 1e 4d 3e 9a 47 69 3e 8d d8 4d 3e
       0.22541893 0.20031278 0.2278122 0.20102139
000040 3a 65 3a 3e 22 97 53 3e 06 32 45 3e e2 6e 40 3e
       0.18202677 0.20663121 0.19257364 0.18792298
000050 c9 a8 62 3e 7a a8 37 3e 95 bc 4b 3e 25 c4 6a 3e
       0.22134699 0.17935362 0.19896157 0.22926386
000060 72 f0 1d 3e 6a 12 4f 3e c9 8e 6e 3e 3d 32 56 3e
       0.15423754 0.20221868 0.23296656 0.20917602
000070 0d 95 7b 3e 56 74 57 3e a6 78 53 3e 71 fb 25 3e
       0.24568577 0.21040472 0.20651492 0.16209199

feature.8.bias f4 [32]
000000 2c de 5f 3c b8 ad a7 3c ed 9a 42 3d 1e 1d 76 3c
       0.01366381 0.020468578 0.04751103 0.0150215905
000010 4d f2 40 3d 46 e4 41 3d 7f 62 a4 3c 2d da 6f 3c
       0.047106076 0.04733684 0.020066498 0.0146394195
000020 c3 dc 5c 3d 19 e6 4d 3d a9 da 65 3d fa 72 c9 3c
       0.053921472 0.050268266 0.056116734 0.024590958
000030 18 53 fd 3c 6f ab 3f 3d c8 2a 08 3c 4d 86 68 3c
       0.030923411 0.04679435 0.008310981 0.014192176
000040 b0 8a a9 3c 0b f1 5a 3d 15 dc 99 3c 9e f8 ce 3a
       0.020696014 0.053452533 0.018781701 0.0015790646
000050 23 05 13 3d 5c 6a 0d 3d d9 d3 20 3d 1f 25 43 3c
       0.03589357 0.03452526 0.039264534 0.011910706
000060 f8 7b 20 3d 08 92 ad bb 71 7c 79 3d 90 19 f8 3b
       0.039180726 -0.0052969493 0.060909692 0.0075714067
000070 94 7e 7f bb 44 f8 3e 3b a9 16 02 3c b6 62 84 3b
       -0.0038985359 0.0029139677 0.007939973 0.0040400876

feature.8.running_mean f4 [32]
000000 48 e1 1f bb 6e 4a 08 bc 4b 59 af 3c 15 24 ab bb
       -0.0024395753 -0.008318527 0.021404883 -0.005222807
000010 99 bc 81 3c c9 12 7f 3c 98 8f f3 bc e5 9d 01 bd
       0.015837 0.015568444 -0.029731557 -0.03164472
000020 aa 93 5e 3c 6e fd 8a 3c e2 18 8e 3c 54 93 58 bd
       0.013585011 0.016966548 0.01734585 -0.052874878
000030 6e 45 10 3d 57 7d 56 3b c1 5b bd bc 3a e8 9d bc
       0.035222463 0.0032728517 -0.02311504 -0.019275773
000040 b4 61 64 3c 64 fd 87 3c 72 6e e5 3a 6f 84 8e bc
       0.01393931 0.016600318 0.0017504229 -0.017397134
000050 6e a0 20 3d 44 82 bf 3c 23 89 07 3d e0 f8 86 bc
       0.039215498 0.023377545 0.03308977 -0.016476095
000060 f3 5c 0e 3c bc e1 96 bc f0 c4 32 3c 36 af cd bc
       0.008689153 -0.018418185 0.010911211 -0.025107961
000070 6e 8f d6 bc 0c ad bd bc 1c 21 49 bc 8b e4 1c bc
       -0.02619144 -0.023153804 -0.01227596 -0.009575973

feature.8.running_var f4 [32]
000000 69 9c 40 3a 1b a3 6d 3a 48 b9 0b 3b de 4b 51 3a
       0.00073475257 0.0009065137 0.0021320153 0.00079840224
000010 b9 e2 ec 3a e0 36 dc 3a a5 6f 70 3b 7e 30 46 3b
       0.001807294 0.0016801022 0.003668764 0.0030241306
000020 32 92 9c 3a 96 84 bf 3a 83 94 c3 3a d7 09 b8 3b
       0.0011945425 0.0014611657 0.0014921579 0.0056164074
000030 06 33 28 3b 39 2c be 3a 13 b8 61 3b d3 3b 33 3b
       0.0025665178 0.0014509029 0.0034441992 0.002734889
000040 92 4b a6 3a a9 73 e1 3a 03 40 b2 3a 0e 4c f9 3a
       0.0012687317 0.0017200607 0.0013599399 0.0019019858
000050 bb 9f 44 3b 68 ea ab 3a 95 56 e5 3a 7f fe 2f 3b
       0.0030002433 0.0013116123 0.0017497117 0.0026854572
000060 cf cc 4a 3a 1a 1b 28 3b 7f 98 b4 3a 88 c6 5c 3b
       0.00077362073 0.002565092 0.0013778358 0.003368767
000070 c0 32 37 3b 81 32 44 3b 47 91 0d 3b aa 64 72 3a
       0.0027953833 0.002993733 0.0021601485 0.00092465675

classify.0.weight f4 [32, 384]
000000 f3 8c 0f 3c 92 d2 ff bc af 6d 14 bc 3a a6 81 3b
       0.008761632 -0.031228337 -0.009059354 0.0039565833
000010 52 f4 55 3c 84 4a 26 3c 50 c5 0d bd 50 6b 5b 3c
       0.013058739 0.010149602 -0.034612 0.0133922845
000020 a8 24 e7 bb a3 1d 16 bb 2b 1b 13 3d fa 1f be 3c
       -0.0070539303 -0.0022905848 0.03591458 0.023208607
000030 1c 08 e3 3c 02 47 be 3c f7 1e 3f 3d 92 b2 00 3c
       0.027713828 0.023227219 0.04666039 0.0078550745
000040 1a 1a 4f bc bb 2a 85 bb 84 07 9a bc fc cb f8 bc
       -0.0126405 -0.0040639318 -0.018802412 -0.030370705
000050 7d a8 01 3d 68 fe b9 3c 2b 13 17 bd 22 af 0c bc
       0.031654824 0.022704318 -0.036883514 -0.008586677
000060 c6 3d 43 ba 0a 41 4f bc 54 72 9a 3b 97 7c f4 bc
       -0.00074478646 -0.012649784 0.004713336 -0.029844565
000070 e8 1f 98 bc 72 e5 d3 bb 93 60 30 3d 55 8b 12 bc
       -0.018569902 -0.006466561 0.04306085 -0.008944352
000080 b6 f5 f8 3b d3 5b d1 3c 42 27 d6 3c 3f 2c 0a 3d
       0.0075976504 0.02555648 0.026141766 0.033733603
000090 ca 09 df 3a e3 54 48 3c 2c 87 ca bc fa d0 ad 39
       0.0017016467 0.01222727 -0.024722658 0.0003315283
0000a0 5d 8f e8 ba 9d 37 1b bd 46 da 26 3c cc 18 10 bd
       -0.0017742921 -0.037894834 0.010183876 -0.0351799
0000b0 70 5f 12 bd f0 5b 94 3c ee db 9b bc 13 f5 20 3c
       -0.035735548 0.018110245 -0.01902577 0.009824055
0000c0 2d 66 93 3c cd 6c 0e 3c 3f c4 6c 3c b1 c6 86 bc
       0.017993057 0.008692932 0.014451086 -0.016452165
0000d0 61 16 8f 3c ab c0 cb 3c e8 a0 33 3d 70 92 ea 3b
       0.017466726 0.024872145 0.043854624 0.00715857
0000e0 c2 64 ae bc 0b 01 31 3d 47 05 53 bc 9f 9c 1b bc
       -0.02128828 0.043213885 -0.012879676 -0.009497791
0000f0 04 1a 4a bc f3 51 ac bc 14 d4 0b bc 50 b4 0c bd
       -0.012335304 -0.02103517 -0.00853445 -0.034351647
000100 9b 6b bf 3c d2 2d 12 3d a5 09 b3 3b ce 3a 04 3d
       0.02336674 0.03568823 0.005463796 0.032282643
000110 7d 64 18 3c 63 15 90 3c 93 11 07 bd 70 7b ac 3c
       0.009301302 0.017588323 -0.032975744 0.021054953
000120 25 50 e0 3c a4 ad e4 3c 2a ba 05 3c 76 25 85 3b
       0.027381966 0.02791483 0.008162061 0.0040633036
000130 11 f2 c5 bc 51 6f 95 3b 93 ac b2 3c 8b 3c 32 bb
       -0.024163278 0.004560389 0.021810805 -0.002719673
000140 ce 83 bc bc e7 10 51 3c 56 a5 fb bc 40 31 bc 3c
       -0.023012068 0.0127603775 -0.030718487 0.022972703
000150 51 1e 9c ba 4c af 90 bb 12 81 17 3d f1 d0 f4 38
       -0.001191089 -0.0044154283 0.036988325 0.00011673745
000160 b5 03 b6 3c 4a b2 c2 3c 3e d7 03 3d a8 56 b7 3b
       0.022218565 0.023766655 0.032187693 0.005595047
000170 ae 85 7c bc 8a 49 bf 3a f1 ef 81 bc 38 71 bd bc
       -0.015412731 0.001459406 -0.015861483 -0.023125276
000180 26 f2 0f 3d 69 ff 71 bc 71 ba 07 bb 66 00 b7 3c
       0.03514304 -0.014770367 -0.0020710493 0.022339057
000190 d9 85 81 3c 86 14 97 bb a5 8b 26 3d 46 d4 46 3c
       0.015810894 -0.004610601 0.04066052 0.012135571
0001a0 a5 ac 0b 3b 46 bb 06 3d 1c 70 d3 bc be 5c a1 38
       0.002131262 0.03289344 -0.025810294 7.694353e-05
0001b0 f6 65 f0 3b 50 b0 f2 bb b0 d5 d9 3c c5 99 c9 3c
       0.0073363734 -0.007406272 0.026591152 0.024609456
0001c0 99 52 2f bb 78 3c ba 3c 9b dc 36 bc 20 d0 1a 3d
       -0.0026752113 0.022733912 -0.011160995 0.03779614
0001d0 41 6c f8 3c 94 3c a1 3c 9e ae e2 bc c3 e4 9d bc
       0.030325057 0.019682206 -0.027671155 -0.019274121
0001e0 22 4f 2e bd f8 b2 a2 bc 32 bb 5e bb 1e 88 c7 3b
       -0.042555936 -0.01986073 -0.0033986089 0.0060892245
0001f0 6a 26 b8 3c 1a 2e dd 3c f5 03 30 3c 00 65 5f bc
       0.022479255 0.026999522 0.010743131 -0.01363492
000200 7f 1d 1f 3c f1 e2 51 3d 13 f9 e0 3c 49 de e4 bc
       0.009711622 0.05124182 0.027462518 -0.027938025
000210 d2 d6 d5 bb 45 94 a3 bc 3e 9d 5b 3b 77 f6 3a bb
       -0.0065258527 -0.019968161 0.0033510472 -0.0028528252
000220 e0 0e 2e 3d a1 b4 ab 3c 51 56 05 3b 5d 41 84 3c
       0.042494655 0.020960154 0.0020345638 0.016144449
000230 a7 e0 2c bc 4d 0c bf 3c 91 de 68 bc 6b 65 f4 3c
       -0.010551608 0.023321295 -0.01421322 0.029833516
000240 cc 67 70 bb 9f 5e c4 bb f4 03 ed 3c d8 52 b4 bc
       -0.0036682962 -0.005992725 0.028932549 -0.02201216
000250 70 c1 d3 3b 22 a7 bd 3c ba 82 6a 3c d1 3e 95 3b
       0.0064622685 0.023150984 0.014313394 0.0045546074
000260 0f 8f b6 3c 52 c0 90 bc c4 6d 99 bc 47 56 97 3b
       0.022285013 -0.01766983 -0.018729098 0.0046184394
000270 88 18 94 3c a8 ba 57 3c 5b b6 1b bc 1a 94 fc bc
       0.018078104 0.013167061 -0.009503926 -0.03083234
000280 46 16 ef 3c ac 00 cc bc 0d 6e a7 bc 55 c7 9d 3c
       0.029185425 -0.024902664 -0.020438218 0.019260088
000290 04 3e b1 3c 60 b6 86 bc bd 85 9c bc 4f 79 9e bc
       0.021636017 -0.016444385 -0.01910674 -0.019344954
0002a0 10 0b 97 ba 62 63 14 bc ad a7 e5 ba 2b 89 5f bc
       -0.0011523683 -0.009056898 -0.0017521285 -0.013643543
0002b0 06 da da bc 46 58 0c bd 46 29 e3 bc 42 27 24 bd
       -0.02671529 -0.03426387 -0.027729642 -0.0400765
0002c0 38 56 31 bd a3 c5 2c 3c 6d 65 c8 3c 3d dd 18 3b
       -0.043295115 0.010545167 0.024462426 0.0023325228
0002d0 41 8e 18 bc 34 83 67 3c 8f 63 58 bc 2b 5f b0 bc
       -0.00931126 0.014130402 -0.01320733 -0.021529755
0002e0 2c 96 07 bd 76 d5 e2 bb 11 aa d3 bc e0 b7 bc bc
       -0.0331022 -0.006922419 -0.02583793 -0.023036897
0002f0 b8 58 fd 3c 2a c4 1c bd 90 3c 90 bb 68 f1 80 bc
       0.030926093 -0.038273014 -0.004401751 -0.015740111
000300 b3 da 9e bc 23 d6 b5 3c b2 82 7a 3b 98 4c 2d 3d
       -0.019391393 0.022196835 0.0038224873 0.042309374
000310 6a 2f b5 bc 44 d6 e0 3c c4 90 24 3d 18 3e f3 3b
       -0.022117335 0.02744592 0.04017712 0.0074231736
000320 71 f2 63 bc e9 90 6b 3c 13 7e bc bc a9 7f 9b bc
       -0.013912783 0.014377811 -0.023009336 -0.018981772
000330 51 f7 e6 bc 0d 12 1c bb 7a e1 3a bc 99 5a d9 3b
       -0.028194102 -0.002381447 -0.011406297 0.0066331145
000340 4e 1d 3e 3b 5a 40 90 3c 54 fa 18 3d 92 df 04 3d
       0.0029009166 0.01760881 0.037348107 0.032439776
000350 e8 18 ec 3c 4a 5d 2e bb f1 ec 98 3b 42 fe 5f 3c
       0.02882047 -0.0026605898 0.0046669175 0.01367146
000360 fc be f8 bc 97 3a 7e bb 8e 48 3f bb 89 22 89 3c
       -0.030364506 -0.0038792246 -0.0029187533 0.0167401
000370 2b 0a d8 3c e0 c0 1c 3c b2 3c 33 3d f1 27 9f bc
       0.026372036 0.009567469 0.043759055 -0.019428225
000380 2d 0a 2f 3c ab 47 f2 bb 3c 28 9f 3c d6 39 f5 bc
       0.010683578 -0.0073937974 0.019428365 -0.029934805
000390 13 63 be bb f0 ac d9 3c 7b 2e ab 3c 06 f7 b4 bc
       -0.0058101504 0.02657172 0.020896187 -0.022090446
0003a0 88 97 da 3c d9 ac 15 bd bd 8f 87 bc 6e fa a4 3c
       0.026683584 -0.036541793 -0.016548032 0.020138945
0003b0 0f e5 0d bd bc bb 97 3c fa 88 16 bc 6e 1c b7 3c
       -0.034642275 0.018522136 -0.009187931 0.022352424
0003c0 67 0b d7 ba f7 84 09 3d 94 cd a7 3c 40 cb 35 bc
       -0.0016406596 0.03357407 0.02048377 -0.011095822
0003d0 dc 54 58 bc ef 33 fa bb 50 32 de 3a 80 03 d3 3c
       -0.013203826 -0.0076355855 0.001695225 0.025758505
0003e0 c9 a8 f5 3b 24 bb 2c 3d 36 5a 07 bc ee 8d d9 bc
       0.0074969274 0.04217066 -0.008261254 -0.026556935
0003f0 b3 8f a5 bc 9b dc bc bc 98 83 d2 bc 6d 3b 81 bc
       -0.020210123 -0.023054412 -0.025697514 -0.015775407

classify.0.bias f4 [32]
000000 f3 ef 7a 3b 1c 69 15 3c 61 b7 83 bc 7e 2e ac 3b
       0.0038289994 0.009119298 -0.016078653 0.0052545657
000010 bf 07 30 3b 4f 1f 7a 3c 52 38 05 3d d9 4c f1 3a
       0.0026860086 0.015266254 0.032524414 0.0018409743
000020 13 ae 36 3d 65 2b 57 bb d7 37 64 3c 4d 86 50 3d
       0.044599604 -0.0032832262 0.013929329 0.05090933
000030 09 25 08 3d 1c 23 9c 3c cc 0c 3f 3c 3a 06 b8 3c
       0.033238444 0.01905971 0.011660766 0.022463907
000040 2b 9d 1b 3c 5f c5 81 3c be de 6e 3c de d1 f3 3c
       0.009497921 0.015841184 0.014579473 0.029763158
000050 3e 5a 15 3d ad f0 88 3c 26 e2 82 3b a3 d3 06 3d
       0.036463015 0.016716326 0.003994244 0.032916676
000060 3a f4 b4 3b 9d 4e 83 3c 27 bd 5e 3c 93 94 8d 3c
       0.005522278 0.016028697 0.013594902 0.01728276
000070 f3 dc 2a 3c 54 90 b1 3c c0 ac a8 3a 2c ca ad 3c
       0.010428655 0.021675266 0.0012868866 0.021214567

classify.3.weight f4 [1, 32]
000000 68 17 35 be db 98 29 be e3 57 20 3d fa a2 ff 3d
       -0.1768471 -0.16562216 0.039146315 0.12482257
000010 d7 ee dd 3a 18 47 c1 3d c8 74 20 be a6 7e 12 3d
       0.0016932142 0.09437388 -0.15669549 0.035765313
000020 ca 33 03 3e a2 76 91 3c 77 aa 24 be 78 92 0f 3e
       0.12812725 0.017756764 -0.16080652 0.14020717
000030 d0 e1 28 be ee 1b 1f be c6 92 2d be ce b2 15 be
       -0.1649239 -0.15537998 -0.16950521 -0.1461899
000040 b8 dc 06 3e 9e 50 03 3e a4 73 f2 3c e6 8c f2 3d
       0.13170135 0.12823722 0.029596157 0.118432805
000050 cc da 04 3e 35 70 24 be 03 8c 88 3d e3 dd 26 be
       0.1297409 -0.16058429 0.0666733 -0.1629558
000060 b7 b7 09 3e 21 c7 23 be 04 7b e1 3d 3b 6e 21 be
       0.13448988 -0.1599393 0.110097915 -0.15764706
000070 b9 c0 24 be 44 c5 2a be d0 9b b9 3d 00 f8 1e be
       -0.16089143 -0.16676813 0.09062922 -0.15524292
