Code/LSTM/Outputs/best_model.pth (torch, 177762 bytes, 15 tensors)

feature.0.weight_ih_l0 f4 [256, 15]
-6.6516684e-14 -1.2091265e-13 1.20693394e-14 -1.3560499e-13 -8.238468e-14 -9.8093544e-14 -2.2416656e-14 -6.0014066e-14
-9.7150044e-14 -1.7872395e-17 -9.043276e-14 -8.118942e-14 -6.064133e-14 -9.793663e-14 5.968503e-39 -3.03461e-11
-1.0153381e-10 8.688342e-12 -3.320691e-12 -2.0707151e-12 -4.4270455e-11 -2.7484279e-11 -3.519065e-11 -2.0380607e-11
2.116312e-11 1.905167e-12 1.7165387e-11 -2.5908463e-11 -6.386796e-11 -2.622673e-39 -9.894198e-12 -1.113131e-11
2.261724e-12 -9.804096e-12 -2.8459657e-14 -1.800693e-11 -4.0401575e-12 -5.3921555e-12 -8.315288e-12 -4.0083648e-13
-1.8581732e-11 -1.4497239e-11 -9.267206e-12 -1.8070418e-11 -4.647986e-39 -2.069081e-11 -4.990643e-11 4.968743e-12
-3.825566e-11 -8.696323e-12 -3.8244356e-11 -9.8583e-12 -2.2769122e-11 -3.725037e-11 -1.7483168e-12 -2.6666174e-11
-1.726827e-11 -2.0609047e-11 -4.0607694e-11 2.60826e-40 1.3536555e-10 2.7699787e-11 -2.284544e-12 -8.178003e-11
2.7351557e-10 1.14537296e-10 5.880451e-11 -4.350034e-11 -1.3186931e-10 -4.9625015e-10 -7.989934e-11 5.7129024e-11
8.1009505e-11 9.835642e-11 -5.280198e-39 -5.9260895e-08 -1.6004034e-07 1.44946135e-08 -1.11020384e-07 -1.413545e-07
-5.143432e-08 -2.3880744e-08 -1.7159893e-07 -8.603634e-08 8.038191e-08 -4.400204e-08 -1.4956711e-09 -6.0473276e-08
-6.142745e-08 -5.84984e-39 -4.6841198e-09 -9.3808525e-09 3.2674802e-10 -9.130105e-09 -1.1116352e-08 1.3460244e-09
-7.296576e-09 -1.2131977e-08 3.2683176e-09 -7.2647075e-09 4.473737e-10 -1.0600427e-08 -4.7744733e-09 -2.594034e-10
2.076242e-39 0.0075037763 0.013670584 0.00050251104 0.014251671 0.011782928 0.0069856085 0.0033653916
0.0034458959 0.018286547 0.010278545 0.015068964 0.012592195 0.007001885 0.007567053 -6.156113e-39
-3.297612e-13 -5.7423017e-13 1.4526524e-14 -5.38962e-13 -3.0592727e-13 -3.8264286e-13 -1.4932912e-13 -2.5201087e-13
-3.801816e-13 -1.4903684e-13 -2.8204557e-13 -4.0335503e-13 -2.8023607e-13 -3.8358729e-13 -4.3677e-40 -1.7010965e-13
-4.2412653e-13 4.227635e-14 -4.533894e-13 -2.7961569e-13 -3.176838e-13 -5.861462e-14 -1.9072238e-13 -3.3950135e-13
1.7442617e-14 -2.6944674e-13 -2.6903902e-13 -1.5441851e-13 -3.8646086e-13 -3.871831e-39 2.7690174e-08 -1.3541374e-08
4.7937965e-09 -1.789904e-08 -3.716098e-08 7.3764377e-09 1.3509922e-08 6.935914e-08 4.1820314e-08 6.7689854e-08
5.422221e-08 1.5150711e-08 2.7384104e-08 1.2588534e-08 5.984989e-39 -2.35832e-10 -1.0421254e-09 9.791934e-11
-4.1271825e-10 -1.5051571e-11 -6.511949e-10 -4.181131e-10 -3.0053302e-10 -4.694053e-10 -5.8226135e-10 -8.331562e-10
-2.740828e-10 -3.465402e-10 -7.1075823e-10 -5.200146e-39 -1.4781352e-05 -0.00011658448 -1.4035397e-05 -8.4769184e-05
-6.971995e-05 3.8955164e-05 -6.049436e-05 -2.468976e-05 1.5760872e-05 -2.8000373e-05 1.0217889e-05 -1.42109075e-05
-2.2461856e-05 2.6816766e-05 1.115379e-39 -7.13302e-10 -5.1593363e-10 4.7553395e-11 -3.3836983e-10 -2.6266894e-10
-3.7486875e-10 -7.013778e-11 -8.9588725e-11 -5.6953886e-12 -1.5839963e-10 -6.2941596e-11 1.7991578e-10 -7.207738e-10
-2.68272e-10 5.215186e-39 -6.536849e-08 -1.3928835e-07 1.2954881e-08 -1.1381913e-07 -4.006629e-08 -9.2575696e-08
-1.45009516e-08 -2.7820988e-08 -7.1587976e-08 2.4527935e-11 -8.060746e-08 -4.0597016e-08 -6.251348e-08 -1.237641e-07
-3.377093e-39 0.0033822972 0.0043450487 0.00013352222 0.004901611 0.004807343 0.0028005838 0.00198702
0.0029861396 0.0068693715 0.0050040935 0.0064708367 0.0055411323 0.0032053 0.002802797 -2.679626e-39
5.6496544e-12 1.7894991e-12 2.2137613e-11 1.3524075e-10 -1.221601e-10 -1.40951695e-11 1.8746737e-10 -1.6285925e-10
-6.438147e-11 2.6537023e-11 -6.967282e-11 -3.7256122e-11 2.0417494e-11 9.385409e-12 -1.855e-41 -6.6754753e-09
00000000: 42c8 95a9 b322 08aa 016c 5928 7aad 18aa
00000010: 8983 b9a9 14e3 dca9 4ae9 c9a8 c123 87a9
00000020: 30c3 daa9 00d8 a4a3 f0a2 cba9 84d2 b6a9
00000030: 598d 88a9 a088 dca9 c2fd 4000 ac76 05ae
00000040: 7446 dfae d0d8 182d 40ac 69ac b0b6 11ac
00000050: 1ab4 42ae 18c1 f1ad 26c5 1aae 0c45 b3ad
00000060: 1c27 ba2d 7010 062c 04fd 962d ace4 e3ad
00000070: 7772 8cae f28e 1c80 820f 2ead f7d2 43ad
00000080: 9927 1f2c b979 2cad c02b 00a9 0064 9ead
00000090: 8126 8eac 38b8 bdac ba48 12ad a0a6 e1aa
000000a0: 5772 a3ad c309 7fad c907 23ad f7f2 9ead
000000b0: b29c 3280 90ff b5ad a57d 5bae 75d2 ae2c
000000c0: 0b40 28ae c2fc 18ad 5133 28ae d66d 2dad
000000d0: 8147 c8ad 30d4 23ae c00d f6ab e38e eaad
000000e0: b0e4 97ad 7347 b5ad 3398 32ae 14d7 0200
000000f0: 04d6 142f 60a6 f32d b0c2 20ac 10d6 b3ae
00000100: e55d 962f c4de fb2e ff4f 812e 0751 3fae
00000110: e9fd 10af 8068 08b0 54b3 afae 9041 7b2e
00000120: 4c24 b22e be49 d82e 0b7f 3980 0b86 7eb3
00000130: 8ed7 2bb4 fc03 7932 1a6a eeb3 3bc7 17b4
00000140: a2e8 5cb3 5022 cdb2 c140 38b4 fac2 b8b3
00000150: 6c9e ac33 c1fc 3cb3 4090 cdb0 89dd 81b3
00000160: 19ea 83b3 f9b2 3f80 f4f1 a0b1 6d29 21b2
00000170: b2a1 b32f a0da 1cb2 3cfa 3eb2 06ff b830
00000180: 5cb5 fab1 006d 50b2 da98 6031 0b9d f9b1
00000190: 40f2 f52f 2c1d 36b2 b60c a4b1 c89b 8eaf
000001a0: b89b 1600 3de2 f53b 96fa 5f3c f2ba 033a
000001b0: d77f 693c 2f0d 413c 88e7 e43b e78d 5c3b
000001c0: 8ad4 613b abcd 953c 5867 283c d1e3 763c
000001d0: 7e4f 4e3c 1270 e53b 0bf5 f73b bd08 4380
000001e0: 99a3 b9aa a5a1 21ab e2d7 8228 4eb4 17ab
000001f0: c438 acaa a668 d7aa 3021 28aa 98de 8daa
00000200: f105 d6aa f2cc 27aa 0dc7 9eaa 9611 e3aa
00000210: 46c2 9daa c1f0 d7aa 89c1 0480 c586 3faa
00000220: 13c3 eeaa 5065 3e29 4c3c ffaa de68 9daa
00000230: 10d7 b2aa 07fd 83a9 fcbb 56aa 4d1f bfaa
00000240: f01b 9d28 5eaf 97aa 9c74 97aa 1bdc 2daa
00000250: e18e d9aa 1729 2a80 56db ed32 98a3 68b2
00000260: aeb6 a431 68c0 99b2 ee9a 1fb3 d573 fd31
00000270: 4419 6832 97f2 9433 ec9d 3333 e45c 9133
00000280: f3e1 6833 c424 8232 483a eb32 f544 5832
00000290: b72b 4100 67a6 81af 873a 8fb0 b053 d72e
000002a0: eee4 e2af 2065 84ad c4ff 32b0 30dc e5af
000002b0: 4338 a5af 7607 01b0 000d 20b0 2804 65b0
000002c0: baad 96af 3383 beaf 2a5f 43b0 e49f 3880
000002d0: 6cfd 77b7 d17e f4b8 9279 6bb7 1cc6 b1b8
000002e0: 9d36 92b8 ca63 2338 53bb 7db8 db1c cfb7
000002f0: 3736 8437 58e2 eab7 806d 2b37 626b 6eb7
00000300: 786c bcb7 91f4 e037 3925 0c00 2a12 44b0
00000310: 9ad1 0db0 5d24 512e 5205 baaf 5e67 90af
00000320: 1616 ceaf 0f3c 9aae f801 c5ae 8063 c8ac
00000330: 8829 2eaf f868 8aae cad1 452f f21f 46b0
00000340: ed7b 93af d1c9 3800 b560 8cb3 4a8f 15b4
00000350: 2b90 5e32 ba6c f4b3 5a15 2cb3 07ce c6b3
00000360: dc1f 79b2 00fb eeb2 e8bb 99b3 00c0 d72d
00000370: 6b1a adb3 e45c 2eb3 263f 86b3 04e4 04b4
00000380: f6c5 2480 88a9 5d3b e960 8e3b 1902 0c39
00000390: b19d a03b ea86 9d3b 008a 373b aa38 023b
000003a0: 1cb3 433b 7718 e13b 61f9 a33b 5009 d43b
000003b0: 6392 b53b 0310 523b 21af 373b b52d 1d80
000003c0: 90c7 c62c 80d9 fb2b 79b9 c22d e3b2 142f
000003d0: 0351 06af 00f7 77ad 601f 4e2f ce10 33af
000003e0: 8c93 8dae 106c e92d 5036 99ae aada 23ae
000003f0: 1c98 b32d 201c 252d b633 0080 1a5e e5b1

feature.0.weight_hh_l0 f4 [256, 64]
1.4724406e-19 -1.7397126e-18 -6.918544e-19 -7.804118e-19 1.2327659e-18 -3.4589514e-17 -3.9284677e-18 -2.2724591e-14
7.450014e-20 -1.8995915e-19 2.2964453e-18 4.6531896e-18 3.486146e-15 -1.8694544e-18 5.08991e-17 1.0250696e-14
-1.9114444e-18 -8.01559e-18 -1.9556585e-14 1.9685307e-17 2.6381054e-19 2.9028237e-18 2.9072348e-17 7.259676e-19
-6.019183e-15 -2.6936395e-17 -1.3169107e-15 -3.7605743e-19 4.6682866e-16 -4.0261064e-18 -2.8220243e-18 2.1079377e-19
-2.0456859e-14 4.2276464e-19 4.783069e-15 7.0099855e-19 -8.34049e-18 -4.5486885e-15 8.3301124e-18 -8.515197e-15
7.456229e-18 -2.9701613e-15 1.4374635e-17 6.1969435e-18 9.4435505e-18 1.0126699e-17 -2.678706e-19 4.6068294e-18
-1.8395723e-17 1.9641274e-14 -1.5243926e-17 3.8391387e-16 -1.2993147e-16 1.6367431e-18 -9.751124e-19 3.5131578e-16
1.3784297e-18 1.1782956e-18 -2.75255e-17 -1.8432388e-18 -1.1526263e-14 -3.8400553e-18 -2.0430592e-20 -5.1832476e-19
1.5636559e-18 2.7732346e-16 -3.537154e-16 -6.7709103e-16 2.6197005e-15 -3.2799464e-14 -5.092444e-15 1.6040188e-11
5.1341787e-17 -1.6882009e-17 6.2277335e-15 2.8198468e-15 1.2230956e-12 -3.0279291e-15 2.8452216e-14 -1.9101602e-11
-9.25987e-17 -1.0438417e-14 1.6873251e-11 2.8893863e-14 1.4972142e-16 3.414419e-15 2.0136057e-14 1.2237358e-16
1.7911986e-11 -1.905961e-14 -7.230848e-13 -3.5349276e-16 1.2381769e-11 -4.4909962e-15 -1.9333853e-15 1.877493e-16
-1.07620865e-11 4.627182e-16 2.7835865e-12 5.4525485e-16 -5.7655246e-15 -2.046981e-12 1.0767141e-14 1.7302996e-11
9.3327555e-15 -6.540185e-12 1.8296516e-14 1.845424e-15 1.1953212e-14 2.7738422e-14 -1.5472187e-16 7.5183915e-15
-1.3715842e-14 -1.5409465e-11 -1.8124343e-14 8.724215e-12 -9.152707e-12 1.9412964e-15 -1.0964077e-15 1.8478825e-13
1.5771531e-15 2.7918289e-15 -2.988323e-14 -2.1286925e-15 1.9326162e-11 -1.7500878e-15 -1.512449e-17 -7.7922306e-17
6.3722835e-18 1.222531e-16 -5.9099236e-17 -1.2543348e-16 2.0347238e-16 -9.437675e-15 -1.3816315e-15 -1.2042235e-12
1.0138271e-17 -1.04433935e-17 4.6916926e-15 3.982505e-16 4.069779e-13 -4.2068532e-16 6.5442206e-15 1.6309064e-13
-2.0727893e-16 -2.6284233e-15 -1.1279337e-12 7.343576e-15 1.4754166e-17 8.173783e-16 6.46632e-15 4.9626095e-17
6.1966014e-13 -6.65021e-15 -2.573834e-13 -6.678071e-17 2.6611532e-12 -1.1323017e-15 -2.4011851e-16 3.5533588e-17
1.8553115e-12 1.189017e-16 6.721327e-13 7.701333e-18 -2.3793765e-15 -5.195488e-13 3.0823268e-15 -1.0108623e-12
2.2012264e-15 -2.5099133e-12 4.3115777e-15 3.5927022e-16 2.847162e-15 7.34014e-15 -1.5985917e-17 2.2084862e-15
-3.2818766e-15 1.3603673e-12 -7.129833e-15 2.740892e-12 -2.781618e-12 4.630666e-16 -3.0932735e-16 4.991784e-14
3.900172e-16 6.4374557e-16 -8.24812e-15 -5.113172e-16 -3.968213e-13 -1.3957837e-15 -1.956165e-18 -2.2452873e-17
1.3944091e-17 4.804249e-16 -2.4816805e-16 6.450685e-20 3.8955453e-16 -1.3935964e-14 -2.4938592e-15 -4.1544697e-12
1.7557038e-17 -2.5650057e-17 4.3176446e-15 1.6633777e-15 9.337221e-13 -8.4214244e-16 7.639662e-15 2.0291889e-12
-1.3271302e-16 -5.2920382e-15 -4.149083e-12 1.525816e-14 9.405538e-17 1.6753404e-15 1.3621293e-14 1.4690508e-16
-1.2277755e-12 -1.0332968e-14 -6.7752704e-13 -2.7492545e-17 2.5077187e-13 -2.3648247e-15 -6.686497e-16 2.0135634e-17
2.507881e-11 2.3032943e-16 1.7944398e-12 2.4405192e-16 -7.851549e-15 -1.2498364e-12 4.103794e-15 -3.1622578e-12
5.3476396e-15 -3.999437e-12 8.230697e-15 1.5224358e-15 7.174618e-15 1.32237835e-14 -9.663187e-17 3.5357518e-15
-6.260518e-15 5.1073603e-12 -1.0212798e-14 3.906216e-12 -3.727041e-12 9.197984e-16 -5.590341e-16 1.1776284e-13
7.7297993e-16 3.3795848e-15 -1.2525383e-14 -1.0209305e-15 -2.3389305e-12 -6.1548226e-15 -1.0236159e-17 -9.193219e-19
00000000: c9d5 2d20 3e5e 00a2 0a33 4ca1 4056 66a1
00000010: 94ec b521 1784 1fa4 54ef 90a2 57af cca8
00000020: 92e8 af1f a143 60a0 a072 2922 22ac ab22
00000030: 0b34 7b27 fff0 09a2 0dbb 6a24 fea8 3828
00000040: 2a0a 0da2 8edc 13a3 6a26 b0a8 9e90 b523
00000050: ecb9 9b20 ca30 5622 9212 0624 9044 5621
00000060: 2add d8a7 c471 f8a3 6ec9 bda6 31fc dda0
00000070: e08d 0626 8089 94a2 883a 50a2 82dc 7820
00000080: 4e42 b8a8 638e f920 0654 ac27 f4e5 4e21
00000090: dada 19a3 3fe2 a3a7 d8a9 1923 6a65 19a8
000000a0: 0c8b 0923 ce05 56a7 2695 8423 7aa0 e422
000000b0: e833 2e23 fccd 3a23 761f 9ea0 46f6 a922
000000c0: acab a9a3 b2e9 b028 b499 8ca3 b04f dd25
000000d0: 00cd 15a5 688a f121 b4e6 8fa1 0f85 ca25
000000e0: 9a6b cb21 c0e2 ad21 c0e0 fda3 cc01 08a2
000000f0: 82a3 4fa8 4cac 8da2 24f6 c09e 83fb 18a1
00000100: 40c1 e621 b8dd 9f25 2ee7 cba5 8028 43a6
00000110: f2c4 3c27 35b7 13a9 8179 b7a7 4b17 8d2d
00000120: afc5 6c24 84b5 9ba3 b460 e027 fe30 4b27
00000130: aa22 ac2b 6f2f 5aa7 2c23 0029 fc04 a8ad
00000140: a084 d5a4 b40a 3ca8 2f6b 942d 5b20 0229
00000150: f79d 2c25 ea08 7627 965e b528 4e16 0d25
00000160: 358e 9d2d 78ac aba8 c087 4bab 53c6 cba5
00000170: 88d2 592d 21ce a1a7 aa50 0ba7 d075 5825
00000180: 2154 3dad 945e 0526 a3e0 432c b528 1d26
00000190: 94b9 cfa7 220b 10ac acf6 4128 e232 982d
000001a0: bd1f 2828 c01c e6ac e5cc a428 10fa 0427
000001b0: 7654 5728 72d8 f928 d661 32a5 7670 0728
000001c0: 2815 77a8 088b 87ad e43f a3a8 5f7a 192d
000001d0: 2104 21ad 99e2 0b27 4e02 9ea6 960d 502a
000001e0: ae4a e326 272c 4927 0595 06a9 7263 19a7
000001f0: a6fe a92d d836 fca6 b17f 8ba3 36ad b3a4
00000200: 8418 eb22 bff2 0c25 0846 88a4 6e9d 10a5
00000210: 7296 6a25 9803 2aa8 351d c7a6 b97a a9ab
00000220: a204 3b23 88a5 40a3 3a09 a927 6793 e525
00000230: b21b e52a 3282 f2a5 c8c7 eb27 ad9f 372a
00000240: f1f9 6ea5 da65 3da7 18be 9eab 444a 0428
00000250: 4a15 8823 e097 6b26 46f9 e827 27dc 6424
00000260: 386b 2e2b 5c99 efa7 dbe4 90aa 60fc 99a4
00000270: 1343 3b2c 8f2e a3a6 3d6b 8aa5 a8de 2324
00000280: 528e 022c 9615 0925 4430 3d2b 8410 0e23
00000290: c073 2ba7 703d 12ab e51a 5e27 2744 8eab
000002a0: 769d 1e27 949e 30ac 4957 9b27 ed1a cf25
000002b0: de28 4d27 6c3a 0428 ae71 93a3 6123 1f27
000002c0: f07b 6ca7 6674 bf2b 8d70 00a8 85df 402c
000002d0: 2dbd 43ac 4978 0526 a950 b2a5 5acf 6029
000002e0: 61d4 e025 0a8c 3926 bd95 14a8 8d60 13a6
000002f0: fa63 dfaa 5427 c9a6 ea56 10a2 5917 cfa3
00000300: 8e9c 8023 1a79 0a26 240f 8fa5 0050 981f
00000310: 1a90 e025 4a0c 7ba8 95b3 33a7 232c 92ac
00000320: 62ef a123 7c94 eca3 3e8f 9b27 ceb7 ef26
00000330: e268 832b 25bb 72a6 b99f 0928 9eca 0e2c
00000340: f801 19a5 70aa bea7 9efb 91ac ec6e 8928
00000350: 7fe0 d824 2771 f126 2061 7528 ba5e 2925
00000360: 46cb acab 6724 3aa8 f8b4 3eab f092 fda3
00000370: 092c 8d2a 5167 2aa7 a4b9 40a6 ecb7 b923
00000380: 7698 dc2d a0c6 8425 828b fc2b b5af 8c25
00000390: e170 0da8 1ae6 afab d2da 9327 2c86 5eac
000003a0: 45ab c027 bab7 8cac 6445 1428 f867 db26
000003b0: 163f 0128 f037 6e28 63d1 dea4 1cc7 7e27
000003c0: 168f e1a7 03b3 b32c 38fa 37a8 1170 892c
000003d0: 3322 83ac 928e 8426 7021 21a6 d496 042a
000003e0: dacb 5e26 5686 7327 22a3 61a8 b021 93a6
000003f0: 6d96 24ac 38c0 dda7 e5d2 3ca3 00ab 87a1

feature.0.bias_ih_l0 f4 [256]
-2.3082184e-13 -6.421352e-11 -3.0983466e-11 -9.482009e-11 -6.7044725e-10 -2.836065e-07 -6.034333e-09 0.022170372
-8.3781804e-13 -7.897986e-13 -2.19444e-08 -1.5941988e-09 -3.4835102e-05 -1.0602221e-09 -2.691534e-07 0.0078124716
-1.6012537e-10 -8.2597154e-08 0.02024137 -5.418911e-07 -2.1088615e-12 -3.551945e-09 -1.9476568e-07 -1.9179491e-11
0.0068671852 -9.282143e-08 -4.4221888e-05 -3.1222556e-11 0.004708304 -1.1793908e-08 -8.0325996e-11 -1.0601308e-11
0.34130445 -8.543977e-11 0.00016260886 7.474403e-11 -2.2262153e-08 4.4643217e-05 -2.6750433e-08 0.012960093
-2.6051293e-08 0.0030706327 -7.499954e-08 -8.871753e-10 -4.1423696e-08 -6.664382e-08 -2.7458465e-12 5.242162e-09
-1.0775465e-07 0.03181062 -1.2452213e-07 0.0035957657 0.00370837 -2.1998157e-09 -4.0202908e-10 -5.3732697e-06
-1.4498495e-09 -4.931886e-09 -2.6366286e-07 -2.4569415e-09 0.008501658 -4.767039e-09 -7.907744e-15 -1.6820159e-12
-1.9154291e-13 -9.652254e-11 -4.1351582e-11 -5.907959e-11 1.7766233e-10 -4.3240778e-08 -3.0853102e-09 0.0010263298
-6.878329e-13 -6.146791e-13 -4.260232e-09 -1.6058609e-09 -2.4033687e-05 -7.641447e-10 -1.5978758e-07 0.0034072932
1.5368265e-10 -4.3719e-09 0.001149212 6.909772e-08 -5.30328e-12 -1.8914972e-09 -3.097334e-08 -1.3738302e-11
0.0031084775 -1.7122488e-08 3.7494312e-05 -2.1455468e-11 0.0024896583 -8.4065965e-10 -2.5194657e-10 -7.523518e-12
-0.15490451 -3.7199726e-11 6.020396e-05 1.3917756e-11 -5.0501443e-09 2.7086233e-05 -2.3086704e-09 0.0034092746
-7.705417e-09 0.0017517623 2.2924647e-08 1.5608909e-10 1.1954245e-08 2.1588181e-07 -5.8105877e-12 9.8942e-09
1.7514939e-08 -0.0020051259 -4.009042e-08 0.0020223858 0.0020754717 -9.571267e-10 -7.912151e-11 9.679454e-06
-5.745773e-10 -2.7200437e-09 2.9329566e-08 -1.1874839e-09 0.0034471727 -2.278966e-09 -5.2381866e-14 4.0753113e-12
-8.556789e-09 -1.334907e-06 7.058229e-07 2.985133e-07 -3.4221327e-06 3.3064665e-05 5.9630956e-06 -0.01684052
-4.4225686e-08 7.621352e-09 1.0674198e-06 -4.7648296e-06 -0.005855246 3.3964684e-06 -1.7475459e-05 0.040083632
-1.8986425e-06 1.1837063e-05 -0.02047803 -3.8576898e-05 -2.8925936e-07 -2.8219542e-06 -2.3684672e-05 -1.26529045e-08
-0.038471818 2.3540897e-05 0.0034707824 2.2474175e-07 -0.033969197 4.899284e-06 7.561215e-07 -1.3961036e-07
-0.08889167 -3.9182692e-07 -0.010162753 -1.3286833e-06 4.7359626e-06 0.008368888 -9.308166e-06 -0.036264777
-1.0072269e-05 0.02783789 -2.0627156e-05 5.3765064e-08 -1.4613024e-05 -3.6801568e-05 2.8926902e-07 -9.324582e-06
1.5697911e-05 0.0032683157 2.440541e-05 -0.030000059 0.03043711 -1.7492363e-06 1.0492322e-06 -0.0005631761
-1.5086116e-06 -1.2378119e-05 2.9975665e-05 2.0139007e-06 -0.039834846 2.9111472e-06 2.8976448e-08 -2.3101046e-07
-2.3081791e-13 -6.423322e-11 -3.0991747e-11 -9.481326e-11 -6.709727e-10 -2.8361677e-07 -6.0267897e-09 0.02291354
-8.3796143e-13 -7.898034e-13 -2.1942006e-08 -1.5934868e-09 -3.4686425e-05 -1.0605725e-09 -2.6917488e-07 0.008083378
-1.6040251e-10 -8.2600145e-08 0.02089434 -5.419135e-07 -2.1064313e-12 -3.5518717e-09 -1.9476607e-07 -1.9178836e-11
0.0070827245 -9.2830376e-08 -4.4248045e-05 -3.1223458e-11 0.00481314 -1.1795931e-08 -8.0900786e-11 -1.0601119e-11
0.3532543 -8.5448315e-11 0.00016372222 7.460768e-11 -2.2265052e-08 4.5079403e-05 -2.6750032e-08 0.013456441
-2.6051662e-08 0.0031170798 -7.5013915e-08 -8.871344e-10 -4.1430404e-08 -6.649225e-08 -2.743411e-12 5.244231e-09
-1.0775174e-07 0.032828566 -1.2452206e-07 0.0036581564 0.0037745016 -2.1996025e-09 -4.02014e-10 -5.371268e-06
-1.4497595e-09 -4.926069e-09 -2.636823e-07 -2.4565394e-09 0.0088039255 -4.7662865e-09 -7.942791e-15 -1.6821846e-12
00000000: eff0 81aa 0035 8dae 4844 08ae f782 d0ae
00000010: 884a 38b0 9542 98b4 8e56 cfb1 a49e b53c
00000020: 27d3 6bab fd4e 5eab 3f80 bcb2 e21a dbb0
00000030: e81b 12b8 40b7 91b0 2980 90b4 c3ff ff3b
00000040: 490f 30af 4460 b1b3 3bd1 a53c 7976 11b5
00000050: df65 14ac 7a16 74b1 c820 51b4 60b4 a8ad
00000060: 2006 e13b 1f55 c7b3 e47a 39b8 7951 09ae
00000070: 1e48 9a3b 289e 4ab2 84a3 b0ae 0c80 3aad
00000080: 75bf ae3e 51e2 bbae fc81 2a39 265d a42e
00000090: fe3a bfb2 4a3f 3b38 d3c8 e5b2 9256 543c
000000a0: 66c7 dfb2 ab3c 493b 6f0f a1b3 69dd 73b0
000000b0: d6e9 31b3 d41d 8fb3 c638 41ac 8b1e b431
000000c0: bf66 e7b3 da4b 023d 62b4 05b4 f0a6 6b3b
000000d0: 2008 733b 912b 17b1 9004 ddaf 094c b4b6
000000e0: 0b44 c7b0 5475 a9b1 8c8d 8db4 f9d6 28b1
000000f0: 8a4a 0b3c 52cb a3b1 0874 0ea8 02b9 ecab
00000100: 7ca8 57aa 5c41 d4ae bedd 35ae daea 81ae
00000110: 8057 432f bdb7 39b3 5a05 54b1 ea85 863a
00000120: 959b 41ab 4c04 2dab 6661 92b1 35b5 dcb0
00000130: f39b c9b7 e70b 52b0 1392 2bb4 e54c 5f3b
00000140: d2f9 282f a437 96b1 28a1 963a e062 9433
00000150: b397 baac 92fb 01b1 8c07 05b3 d0af 71ad
00000160: 99b7 4b3b c014 93b2 3643 1d38 6bb9 bcad
00000170: 8929 233b 2a14 67b0 5482 8aaf ea5a 04ad
00000180: 4a9f 1ebe 2b9b 23ae 8383 7c38 00d8 742d
00000190: 8a85 adb1 3e37 e337 8fa6 1eb1 236e 5f3b
000001a0: c860 04b2 649b e53a d5eb c432 2c9f 2b2f
000001b0: 535f 4d32 24cd 6734 1f71 ccac 27fb 2932
000001c0: c273 9632 6e68 03bb e22f 2cb3 018a 043b
000001d0: a304 083b e78b 83b0 73fd adae f064 2237
000001e0: 48f0 1db0 84eb 3ab1 66f0 fb32 e034 a3b0
000001f0: f6e9 613b fe9b 1cb1 2ee8 6ba9 2463 8f2c
00000200: 2801 13b2 0e2b b3b5 c877 3d35 5b43 a034
00000210: cba7 65b6 eaae 0a38 9a16 c836 21f5 89bc
00000220: a8f2 3db3 10ef 0232 4444 8f35 93e1 9fb6
00000230: 5ddd bfbb e2ee 6336 4398 92b7 bc2e 243d
00000240: dcd4 feb5 cc97 4637 8bc1 a7bc a1cd 21b8
00000250: 814b 9bb4 ce60 3db6 72ae c6b7 1060 59b2
00000260: a094 1dbd b179 c537 1176 633b 8b50 7134
00000270: 4923 0bbd 8764 a436 46f8 4a35 cee7 15b4
00000280: d60c b6bd 485c d2b4 ad81 26bc 3655 b2b5
00000290: 9ce9 9e36 a91d 093c 452a 1cb7 608a 14bd
000002a0: 11fc 28b7 490c e43c 7b08 adb7 50eb 6633
000002b0: 762a 75b7 625b 1ab8 d54c 9b34 c670 1cb7
000002c0: 02af 8337 3d31 563b 38ba cc37 afc2 f5bc
000002d0: 3f57 f93c 4dc7 eab5 58d3 8c35 1ca2 13ba
000002e0: 807b cab5 9eab 4fb7 4074 fb37 8d26 0736
000002f0: dd29 23bd 215d 4336 e2e7 f832 ac0b 78b4
00000300: 5ef0 81aa 1740 8dae 9b4d 08ae 1f7f d0ae
00000310: 826f 38b0 fe43 98b4 3414 cfb1 2db5 bb3c
00000320: 7cdd 6bab 554f 5eab fb7a bcb2 d501 dbb0
00000330: 447c 11b8 94c3 91b0 1d83 90b4 2570 043c
00000340: 4b5d 30af e961 b1b3 9b2a ab3c 0378 11b5
00000350: 183a 14ac 3015 74b1 e420 51b4 e6b2 a8ad
00000360: 3316 e83b 0a5a c7b3 fa96 39b8 7d52 09ae
00000370: 8bb7 9d3b 0ea7 4ab2 18e7 b1ae 327f 3aad
00000380: bfdd b43e 20e7 bbae d9ac 2b39 6410 a42e
00000390: 5e41 bfb2 a413 3d38 f1c7 e5b2 6878 5c3c
000003a0: 36c8 dfb2 ec47 4c3b 5617 a1b3 89da 73b0
000003b0: 36f1 31b3 80ca 8eb3 e60c 41ac be30 b431
000003c0: 2565 e7b3 3f77 063d 5db4 05b4 aebd 6f3b
000003d0: a15d 773b d127 17b1 7102 ddaf d73a b4b6
000003e0: e140 c7b0 2942 a9b1 3890 8db4 e6cf 28b1
000003f0: 573e 103c b3c4 a3b1 a815 0fa8 16bf ecab

feature.0.bias_hh_l0 f4 [256]
-2.3082184e-13 -6.421352e-11 -3.0983466e-11 -9.482009e-11 -6.7044725e-10 -2.836065e-07 -6.034333e-09 0.022170372
-8.3781804e-13 -7.897986e-13 -2.19444e-08 -1.5941988e-09 -3.4835102e-05 -1.0602221e-09 -2.691534e-07 0.0078124716
-1.6012537e-10 -8.2597154e-08 0.02024137 -5.418911e-07 -2.1088615e-12 -3.551945e-09 -1.9476568e-07 -1.9179491e-11
0.0068671852 -9.282143e-08 -4.4221888e-05 -3.1222556e-11 0.004708304 -1.1793908e-08 -8.0325996e-11 -1.0601308e-11
0.34130445 -8.543977e-11 0.00016260886 7.474403e-11 -2.2262153e-08 4.4643217e-05 -2.6750433e-08 0.012960093
-2.6051293e-08 0.0030706327 -7.499954e-08 -8.871753e-10 -4.1423696e-08 -6.664382e-08 -2.7458465e-12 5.242162e-09
-1.0775465e-07 0.03181062 -1.2452213e-07 0.0035957657 0.00370837 -2.1998157e-09 -4.0202908e-10 -5.3732697e-06
-1.4498495e-09 -4.931886e-09 -2.6366286e-07 -2.4569415e-09 0.008501658 -4.767039e-09 -7.907744e-15 -1.6820159e-12
-1.9154291e-13 -9.652254e-11 -4.1351582e-11 -5.907959e-11 1.7766233e-10 -4.3240778e-08 -3.0853102e-09 0.0010263298
-6.878329e-13 -6.146791e-13 -4.260232e-09 -1.6058609e-09 -2.4033687e-05 -7.641447e-10 -1.5978758e-07 0.0034072932
1.5368265e-10 -4.3719e-09 0.001149212 6.909772e-08 -5.30328e-12 -1.8914972e-09 -3.097334e-08 -1.3738302e-11
0.0031084775 -1.7122488e-08 3.7494312e-05 -2.1455468e-11 0.0024896583 -8.4065965e-10 -2.5194657e-10 -7.523518e-12
-0.15490451 -3.7199726e-11 6.020396e-05 1.3917756e-11 -5.0501443e-09 2.7086233e-05 -2.3086704e-09 0.0034092746
-7.705417e-09 0.0017517623 2.2924647e-08 1.5608909e-10 1.1954245e-08 2.1588181e-07 -5.8105877e-12 9.8942e-09
1.7514939e-08 -0.0020051259 -4.009042e-08 0.0020223858 0.0020754717 -9.571267e-10 -7.912151e-11 9.679454e-06
-5.745773e-10 -2.7200437e-09 2.9329566e-08 -1.1874839e-09 0.0034471727 -2.278966e-09 -5.2381866e-14 4.0753113e-12
-8.556789e-09 -1.334907e-06 7.058229e-07 2.985133e-07 -3.4221327e-06 3.3064665e-05 5.9630956e-06 -0.016871275
-4.4225686e-08 7.621352e-09 1.0674198e-06 -4.7648296e-06 -0.005855246 3.3964684e-06 -1.7475459e-05 0.04008151
-1.8986425e-06 1.1837063e-05 -0.01723058 -3.8576898e-05 -2.8925936e-07 -2.8219542e-06 -2.3684672e-05 -1.26529045e-08
-0.038469844 2.3540897e-05 0.0034707824 2.2474175e-07 -0.033969197 4.899284e-06 7.561215e-07 -1.3961036e-07
-0.10176636 -3.9182692e-07 -0.010162753 -1.3286833e-06 4.7359626e-06 0.008368888 -9.308166e-06 -0.035994116
-1.0072269e-05 0.02783789 -2.0627156e-05 5.3765064e-08 -1.4613024e-05 -3.6801568e-05 2.8926902e-07 -9.324582e-06
1.5697911e-05 0.002740132 2.440541e-05 -0.030000059 0.03043711 -1.7492363e-06 1.0492322e-06 -0.0005631761
-1.5086116e-06 -1.2378119e-05 2.9975665e-05 2.0139007e-06 -0.03982338 2.9111472e-06 2.8976448e-08 -2.3101046e-07
-2.3081791e-13 -6.423322e-11 -3.0991747e-11 -9.481326e-11 -6.709727e-10 -2.8361677e-07 -6.0267897e-09 0.02291354
-8.3796143e-13 -7.898034e-13 -2.1942006e-08 -1.5934868e-09 -3.4686425e-05 -1.0605725e-09 -2.6917488e-07 0.008083378
-1.6040251e-10 -8.2600145e-08 0.02089434 -5.419135e-07 -2.1064313e-12 -3.5518717e-09 -1.9476607e-07 -1.9178836e-11
0.0070827245 -9.2830376e-08 -4.4248045e-05 -3.1223458e-11 0.00481314 -1.1795931e-08 -8.0900786e-11 -1.0601119e-11
0.3532543 -8.5448315e-11 0.00016372222 7.460768e-11 -2.2265052e-08 4.5079403e-05 -2.6750032e-08 0.013456441
-2.6051662e-08 0.0031170798 -7.5013915e-08 -8.871344e-10 -4.1430404e-08 -6.649225e-08 -2.743411e-12 5.244231e-09
-1.0775174e-07 0.032828566 -1.2452206e-07 0.0036581564 0.0037745016 -2.1996025e-09 -4.02014e-10 -5.371268e-06
-1.4497595e-09 -4.926069e-09 -2.636823e-07 -2.4565394e-09 0.0088039255 -4.7662865e-09 -7.942791e-15 -1.6821846e-12
00000000: eff0 81aa 0035 8dae 4844 08ae f782 d0ae
00000010: 884a 38b0 9542 98b4 8e56 cfb1 a49e b53c
00000020: 27d3 6bab fd4e 5eab 3f80 bcb2 e21a dbb0
00000030: e81b 12b8 40b7 91b0 2980 90b4 c3ff ff3b
00000040: 490f 30af 4460 b1b3 3bd1 a53c 7976 11b5
00000050: df65 14ac 7a16 74b1 c820 51b4 60b4 a8ad
00000060: 2006 e13b 1f55 c7b3 e47a 39b8 7951 09ae
00000070: 1e48 9a3b 289e 4ab2 84a3 b0ae 0c80 3aad
00000080: 75bf ae3e 51e2 bbae fc81 2a39 265d a42e
00000090: fe3a bfb2 4a3f 3b38 d3c8 e5b2 9256 543c
000000a0: 66c7 dfb2 ab3c 493b 6f0f a1b3 69dd 73b0
000000b0: d6e9 31b3 d41d 8fb3 c638 41ac 8b1e b431
000000c0: bf66 e7b3 da4b 023d 62b4 05b4 f0a6 6b3b
000000d0: 2008 733b 912b 17b1 9004 ddaf 094c b4b6
000000e0: 0b44 c7b0 5475 a9b1 8c8d 8db4 f9d6 28b1
000000f0: 8a4a 0b3c 52cb a3b1 0874 0ea8 02b9 ecab
00000100: 7ca8 57aa 5c41 d4ae bedd 35ae daea 81ae
00000110: 8057 432f bdb7 39b3 5a05 54b1 ea85 863a
00000120: 959b 41ab 4c04 2dab 6661 92b1 35b5 dcb0
00000130: f39b c9b7 e70b 52b0 1392 2bb4 e54c 5f3b
00000140: d2f9 282f a437 96b1 28a1 963a e062 9433
00000150: b397 baac 92fb 01b1 8c07 05b3 d0af 71ad
00000160: 99b7 4b3b c014 93b2 3643 1d38 6bb9 bcad
00000170: 8929 233b 2a14 67b0 5482 8aaf ea5a 04ad
00000180: 4a9f 1ebe 2b9b 23ae 8383 7c38 00d8 742d
00000190: 8a85 adb1 3e37 e337 8fa6 1eb1 236e 5f3b
000001a0: c860 04b2 649b e53a d5eb c432 2c9f 2b2f
000001b0: 535f 4d32 24cd 6734 1f71 ccac 27fb 2932
000001c0: c273 9632 6e68 03bb e22f 2cb3 018a 043b
000001d0: a304 083b e78b 83b0 73fd adae f064 2237
000001e0: 48f0 1db0 84eb 3ab1 66f0 fb32 e034 a3b0
000001f0: f6e9 613b fe9b 1cb1 2ee8 6ba9 2463 8f2c
00000200: 2801 13b2 0e2b b3b5 c877 3d35 5b43 a034
00000210: cba7 65b6 eaae 0a38 9a16 c836 a135 8abc
00000220: a8f2 3db3 10ef 0232 4444 8f35 93e1 9fb6
00000230: 5ddd bfbb e2ee 6336 4398 92b7 822c 243d
00000240: dcd4 feb5 cc97 4637 2527 8dbc a1cd 21b8
00000250: 814b 9bb4 ce60 3db6 72ae c6b7 1060 59b2
00000260: 8e92 1dbd b179 c537 1176 633b 8b50 7134
00000270: 4923 0bbd 8764 a436 46f8 4a35 cee7 15b4
00000280: e26a d0bd 485c d2b4 ad81 26bc 3655 b2b5
00000290: 9ce9 9e36 a91d 093c 452a 1cb7 916e 13bd
000002a0: 11fc 28b7 490c e43c 7b08 adb7 50eb 6633
000002b0: 762a 75b7 625b 1ab8 d54c 9b34 c670 1cb7
000002c0: 02af 8337 c993 333b 38ba cc37 afc2 f5bc
000002d0: 3f57 f93c 4dc7 eab5 58d3 8c35 1ca2 13ba
000002e0: 807b cab5 9eab 4fb7 4074 fb37 8d26 0736
000002f0: d71d 23bd 215d 4336 e2e7 f832 ac0b 78b4
00000300: 5ef0 81aa 1740 8dae 9b4d 08ae 1f7f d0ae
00000310: 826f 38b0 fe43 98b4 3414 cfb1 2db5 bb3c
00000320: 7cdd 6bab 554f 5eab fb7a bcb2 d501 dbb0
00000330: 447c 11b8 94c3 91b0 1d83 90b4 2570 043c
00000340: 4b5d 30af e961 b1b3 9b2a ab3c 0378 11b5
00000350: 183a 14ac 3015 74b1 e420 51b4 e6b2 a8ad
00000360: 3316 e83b 0a5a c7b3 fa96 39b8 7d52 09ae
00000370: 8bb7 9d3b 0ea7 4ab2 18e7 b1ae 327f 3aad
00000380: bfdd b43e 20e7 bbae d9ac 2b39 6410 a42e
00000390: 5e41 bfb2 a413 3d38 f1c7 e5b2 6878 5c3c
000003a0: 36c8 dfb2 ec47 4c3b 5617 a1b3 89da 73b0
000003b0: 36f1 31b3 80ca 8eb3 e60c 41ac be30 b431
000003c0: 2565 e7b3 3f77 063d 5db4 05b4 aebd 6f3b
000003d0: a15d 773b d127 17b1 7102 ddaf d73a b4b6
000003e0: e140 c7b0 2942 a9b1 3890 8db4 e6cf 28b1
000003f0: 573e 103c b3c4 a3b1 a815 0fa8 16bf ecab

feature.2.weight_ih_l0 f4 [128, 64]
1.5542863e-19 3.3385047e-18 -1.4858513e-18 -3.4276483e-18 9.599353e-18 -7.21484e-17 -1.2575238e-17 1.4457588e-13
2.1159851e-19 -2.2960427e-19 3.2831262e-17 1.16716806e-17 1.5770602e-15 -1.0180579e-17 1.5785354e-16 -7.49783e-14
5.321534e-19 -2.4300151e-17 1.3575737e-13 7.4767916e-17 6.6606847e-19 1.0047177e-17 4.0237612e-17 1.0060138e-18
6.3449226e-14 -5.0119303e-17 -1.4252786e-15 -1.6198213e-18 4.881682e-14 -1.104095e-17 -1.0373245e-17 8.3430284e-19
-8.9790615e-14 1.4001657e-18 2.5279647e-15 1.3251227e-18 -1.34641644e-17 -2.098591e-15 2.2405517e-17 1.2581657e-13
2.2395564e-17 -1.6228304e-14 4.4993887e-17 1.6457274e-17 3.213359e-17 6.5540445e-17 -6.828868e-19 1.5067244e-17
-2.6061576e-17 -1.5070534e-13 -4.8359943e-17 3.0720042e-14 -3.3390696e-14 5.3912237e-18 -3.182474e-18 5.551695e-16
4.6306563e-18 1.9561108e-17 -6.420637e-17 -6.0387307e-18 8.173142e-14 5.5221916e-19 -8.4790795e-20 5.42434e-20
-2.869154e-24 4.1913588e-22 -1.2681853e-22 -2.6566882e-23 2.8391908e-21 -2.7737127e-21 1.249352e-21 -3.1515259e-18
7.650313e-24 2.7176089e-24 -1.3785443e-20 1.5408444e-21 9.588957e-20 -2.2719168e-21 8.0732035e-22 1.2462477e-18
1.1821715e-21 -2.4104378e-22 -3.0639822e-18 4.059785e-21 8.332669e-23 7.323513e-22 -8.682225e-21 -6.3995805e-24
-7.229e-20 -1.5815112e-21 -4.51028e-21 -3.4878014e-23 8.0029424e-19 2.4096735e-22 2.572433e-22 2.4828911e-23
1.5983669e-18 -1.5778253e-23 -8.21321e-19 7.172682e-22 4.363155e-21 2.5640407e-19 3.2422544e-21 -2.9966814e-18
6.6249574e-23 1.7803425e-18 3.620436e-21 2.1582995e-22 3.0949264e-21 -4.2594502e-21 -8.107748e-23 -2.1218697e-21
1.9552603e-22 3.238509e-18 1.8276491e-21 -1.0424161e-18 8.2879444e-19 1.0599499e-22 2.5345785e-24 -3.3260386e-20
8.3807825e-23 5.432934e-21 -4.298235e-21 -9.892149e-23 -1.6953544e-18 5.5305142e-21 -5.9910957e-24 1.2897907e-22
-9.455005e-17 5.183959e-14 -1.27660105e-14 -5.6938207e-15 3.2598788e-13 -1.7146146e-13 -5.280954e-14 2.6073316e-10
9.892064e-16 2.2805621e-17 -1.4485837e-12 1.5318301e-13 1.4591425e-11 -2.8299536e-13 2.0879956e-13 1.3501034e-10
1.08984816e-13 -5.005912e-13 2.988369e-10 3.2697442e-13 7.141654e-15 1.2114062e-13 -9.986517e-13 3.8699855e-16
-1.8774596e-10 -6.9342074e-14 7.095987e-12 -4.896562e-15 7.09658e-11 -3.2670313e-13 -3.4140144e-13 3.1809522e-15
2.6768676e-10 1.6116714e-14 6.9536855e-11 6.627392e-14 5.795795e-13 -4.8342698e-11 -1.7145722e-14 2.5788735e-10
1.9466308e-13 -1.3423242e-10 1.2093358e-13 3.250082e-14 5.608142e-14 1.1573392e-13 -6.9758576e-15 2.4577149e-14
-5.0143695e-13 -7.1723544e-11 2.7138445e-13 1.8581453e-10 -1.864776e-10 3.257215e-14 1.6432403e-13 -2.3777297e-12
2.6281056e-14 6.7419627e-13 -2.686349e-13 -3.3635492e-14 -7.762742e-11 6.952367e-13 -4.467418e-16 1.4896655e-14
1.1801829e-28 1.5176239e-27 -5.337239e-28 -1.0472641e-27 3.3540763e-27 1.5343471e-26 2.6192324e-27 -5.040963e-24
2.7223862e-29 -9.521812e-29 -2.8046507e-26 4.0021934e-27 2.8542358e-25 -1.9808636e-27 3.8767632e-26 -2.9282537e-24
2.7912071e-27 9.695105e-27 -1.05138064e-23 -1.8038654e-26 -2.5451978e-28 -1.139784e-27 2.5743138e-26 4.203867e-28
-1.2705788e-26 7.248929e-27 -5.6219395e-25 -2.8089939e-28 -4.760446e-24 4.478277e-27 -4.4605246e-27 1.7396184e-28
-7.098697e-24 -8.264181e-29 -2.170863e-24 1.1598865e-27 1.4818404e-26 2.6499759e-24 -8.1910725e-28 -1.1225799e-23
-6.857144e-27 2.0566332e-24 -3.4301976e-27 8.134791e-27 -1.5957601e-27 -3.4871202e-26 2.5772578e-28 -4.470435e-27
1.7201035e-26 1.0703549e-24 -3.9904683e-27 5.7591607e-24 -6.4703918e-24 -8.141399e-28 -4.505093e-28 -1.838511e-25
-6.2540935e-28 1.3086756e-26 1.1676097e-26 8.658808e-28 9.123176e-25 1.5492452e-26 -3.1789965e-29 3.255097e-28
00000000: 6c7f 3720 9256 7622 e045 dba1 72ea 7ca2
00000010: aa13 3123 e65c a6a4 e2f8 67a3 29c7 222a
00000020: bacf 7920 d188 87a0 5068 1724 f44d 5723
00000030: 4047 e326 6dcc 3ba3 24fe 3525 0cd6 a8a9
00000040: 6010 1d21 1c21 e0a3 66d9 182a 3067 ac24
00000050: b696 4421 7456 3923 3090 3924 2076 9421
00000060: fddf 8e29 6e22 67a4 8067 cda6 1e0b efa1
00000070: f6d9 5b29 6aab 4ba3 445a 3fa3 243e 7621
00000080: c430 caa9 c4a0 ce21 b828 3627 b88d c321
00000090: b85e 78a3 2c38 17a7 88a7 ce23 28a8 0d2a
000000a0: 0890 ce23 ec2b 92a8 687f 4f24 a4ca 9723
000000b0: a630 1424 4020 9724 788d 49a1 86f8 8a23
000000c0: 2860 f0a3 dbad 29aa 5805 5fa4 cc59 0a29
000000d0: da60 16a9 abe6 c622 3cd3 6aa2 4704 2026
000000e0: 50d7 aa22 5c6b b423 c00c 94a4 33ca dea2
000000f0: f50a b829 80fc 2221 e434 c89f 2014 801f
00000100: 73fd 5d98 235a fd1b 6f50 199b 3578 009a
00000110: f085 561d 6893 519d f7cb bc1c a48a 68a2
00000120: 84fa 1319 ca43 5218 2833 829e 88d8 e81c
00000130: b069 e21f 43a9 2b9d 63ff 731c e8e9 b721
00000140: 0ba5 b21c b8b3 919b fd14 62a2 d55f 991d
00000150: b978 c91a f056 5d1c aa00 249e 6092 f798
00000160: a0b0 aa9f c0fd ee9c c064 aa9d e4a8 289a
00000170: 8634 6c21 e4a7 911b 797e 9b1b 6821 f019
00000180: 98e0 eb21 1099 9899 4369 72a1 f0c7 581c
00000190: d9d5 a41d b05a 9720 52fa 741d b61d 5da2
000001a0: 802e a01a b85d 0322 b5c6 881d 1176 821b
000001b0: 95d8 691d e0ea a09d 8808 c49a ee52 209d
000001c0: 6060 6c1b b5f5 6e22 e017 0a1d 5ed5 99a1
000001d0: f09d 7421 dc23 001b 801a 4418 5711 1d9f
000001e0: 88a2 ca1a 1d40 cd1d fa61 a29d 702d ef9a
000001f0: ae30 faa1 daef d01d f0c4 e798 17ed 1b1b
00000200: 8004 daa4 fa76 6929 d5f8 65a8 3a24 cda7
00000210: ce83 b72a 670c 41aa 41d5 6da9 ee56 8f2f
00000220: 468f 8e26 4058 d223 bade cbab ff77 2c2a
00000230: f858 802d ee4f 9faa 6016 6b2a 0872 142f
00000240: 7869 f529 66e7 0cab 8e49 a42f fb11 b82a
00000250: 11a7 0028 6864 082a 388c 8cab e816 df25
00000260: ca6d 4eaf fc24 9ca9 f8aa f92c d06a b0a7
00000270: 320e 9c2e e2ea b7aa 2231 c0aa 3636 6527
00000280: 9029 932f 9d2a 9128 c5e9 982e 503c 9529
00000290: 1b23 232b 0a9d 54ae 586f 9aa8 6bc6 8d2f
000002a0: d02b 5b2a 1197 13af bb28 082a e55e 1229
000002b0: 7a91 7c29 084e 022a ee54 fba7 0c5f dd28
000002c0: 5724 0dab c4b8 9dae 9fc6 982a 244e 4c2f
000002d0: c708 4daf 22b1 1229 2d03 392a 5f51 27ac
000002e0: fdb7 ec28 f6c4 3d2b 5e3a 97aa 157b 17a9
000002f0: 5ab4 aaae 15b1 432b bac3 00a6 592d 8628
00000300: 209b 1511 247a f012 d424 2992 14f2 a592
00000310: 60de 8413 52f4 9714 5884 4f13 4803 c398
00000320: 980a 0a10 1868 f190 2ce1 0a95 108b 9e13
00000330: 2cab b016 b0f0 1c93 d0f7 3f15 0a90 6298
00000340: 6824 5d13 0608 4014 d95d 4b99 6ca5 b294
00000350: 3252 a191 229b b492 9cf2 fe14 d239 0512
00000360: 00aa 7b94 7094 0f14 98fd 2d97 880a b291
00000370: 2c29 b898 2067 b113 18b3 b093 d885 5c11
00000380: 0c4f 0999 9a85 d190 5ff6 2798 96ca b712
00000390: 1ec1 9214 2e08 4d18 f0ca 8192 7723 5999
000003a0: dad1 0794 d11f 1f18 56e2 8793 4a20 2114
000003b0: b8db fc92 80ac 2c95 665a a311 9917 b193
000003c0: ce59 aa14 20a1 a517 2814 9e93 f7cb de18
000003d0: a84f fa98 7001 8192 a8c5 0e92 bd98 6396
000003e0: 3c33 4692 de9a 8114 d844 6714 4c34 8912
000003f0: a02c 8d17 086e 9914 bc31 2190 f850 ce11

feature.2.weight_hh_l0 f4 [128, 32]
-8.455259e-21 3.6467295e-22 -7.1803015e-19 -3.0442442e-24 9.87446e-19 -4.9682684e-18 2.6076373e-18 2.832259e-21
-7.381409e-17 -1.7690392e-14 -9.043477e-21 -7.206598e-18 -1.1107477e-21 -6.144992e-23 6.1854736e-19 2.735961e-19
1.2931505e-18 7.726092e-18 1.5483891e-21 1.9256376e-18 2.298113e-16 -6.792956e-18 9.970905e-18 -4.4679075e-20
1.0024225e-17 1.4215262e-21 -6.3407166e-18 -2.27472e-16 -8.053364e-21 -4.9582203e-18 3.3867332e-17 -9.708587e-17
-1.5709173e-24 -1.3161263e-25 -1.6209363e-21 9.844656e-29 -5.1797475e-22 4.436711e-22 9.393944e-22 2.4190375e-25
3.5501958e-21 -1.9255799e-18 4.0360047e-26 7.645835e-22 1.0056052e-24 3.7534205e-26 9.7404745e-23 -1.2382654e-23
-2.027157e-22 -7.4158014e-22 -5.826819e-25 8.1925247e-22 -6.5673908e-21 6.6694234e-22 6.396586e-21 -1.4464258e-25
6.0909315e-21 -5.2640116e-25 -3.0777739e-21 6.787201e-21 -5.85409e-26 -3.6186357e-22 2.716536e-21 3.923116e-21
-2.6544586e-16 -1.2446353e-17 -1.7850229e-13 1.1238757e-20 -5.2509615e-14 7.329221e-14 3.7224838e-14 1.6098659e-17
5.089813e-13 -1.7974958e-11 3.6644333e-18 1.0363439e-13 6.578882e-17 2.8634774e-18 6.7107646e-15 -1.3906815e-15
-1.8643893e-14 -1.1562306e-13 -6.0423056e-17 6.567429e-14 -1.1260385e-12 9.773403e-14 6.165267e-13 -1.2448065e-16
5.8358087e-13 -4.9052604e-17 -2.9343064e-13 1.149464e-12 -9.003332e-19 9.6868565e-14 1.1936002e-13 4.766501e-13
7.17725e-29 1.571888e-31 -2.114367e-27 4.8927576e-33 -2.7739593e-28 -1.876665e-27 5.8756086e-27 -1.5009842e-30
-7.5268455e-27 1.2583892e-23 2.0974647e-30 -2.1326017e-27 6.047423e-31 2.632362e-32 3.6137167e-28 2.5946379e-28
1.301203e-27 2.6687785e-27 8.868427e-31 1.6670226e-27 1.859893e-26 -2.0752392e-27 1.0501347e-26 -3.7021844e-29
9.5556385e-27 4.912483e-31 -5.6077325e-27 -1.9623383e-26 1.753216e-30 -3.895567e-27 -1.3799498e-26 1.7832241e-26
-1.8859564e-16 -7.643004e-19 -1.092434e-14 3.9642e-21 -4.8357585e-15 8.955937e-15 4.13948e-15 2.8909694e-18
4.7419913e-14 1.7804908e-12 1.1974825e-19 1.39788626e-14 -4.2256158e-18 1.3536283e-19 -1.6568769e-16 -6.6796547e-16
-6.298866e-15 -1.8392758e-14 -6.481269e-18 -1.6836457e-15 -1.1123885e-13 1.4797523e-14 6.770664e-14 -1.3223785e-17
6.153945e-14 -3.0704208e-18 -2.3151572e-14 1.1485051e-13 -1.5310679e-19 2.0160712e-14 1.8438086e-14 5.2281672e-14
-4.93793e-16 -8.846093e-19 -1.12999765e-13 1.18746575e-20 -8.6928186e-14 2.3114786e-13 2.9798843e-14 1.3163158e-17
6.143477e-14 -1.9708489e-10 -2.766006e-18 2.4143998e-13 -1.399186e-17 6.970589e-20 -2.7801269e-15 -1.7804008e-15
-1.5839204e-14 -2.5862358e-13 -1.3278652e-17 5.34492e-15 -2.3763793e-13 2.4509634e-13 1.484357e-13 1.8663246e-18
1.4866915e-13 -3.736383e-18 -9.6094004e-14 2.329389e-13 -6.32054e-18 2.127501e-13 1.4210866e-13 5.5080425e-14
-3.8404593e-16 -5.7773106e-18 6.011161e-14 8.391179e-21 2.3547441e-14 7.131635e-14 -6.991079e-14 4.280547e-18
1.1753727e-13 -1.0407708e-09 -6.0139366e-17 1.0162458e-13 -1.6525499e-17 -5.9104283e-19 -2.9481837e-15 -1.3169171e-15
-1.3091924e-14 -1.09637105e-13 -4.4598465e-17 -2.1357688e-14 -6.086624e-13 9.183545e-14 -1.659162e-13 -4.0039663e-16
-1.5752387e-13 -1.5043115e-17 7.699107e-14 6.231617e-13 -4.4569868e-17 1.615371e-13 -1.4342889e-13 1.9407035e-13
-4.7475744e-22 1.6709159e-24 7.971747e-21 -3.5907924e-27 2.8048152e-21 -2.453996e-20 -1.2402064e-19 1.1435176e-23
-6.5370667e-19 7.807403e-16 -1.15839e-22 -4.5927963e-20 -1.7072111e-23 -7.8354457e-25 9.410827e-22 2.717268e-22
-1.1469641e-20 4.49587e-20 5.8917386e-24 -7.323495e-21 2.1344924e-18 -3.7693473e-20 -3.432877e-20 1.5607152e-23
-4.2962856e-20 7.697386e-24 1.735125e-20 -2.1892807e-18 -1.0045991e-22 -1.9743586e-20 3.5922055e-19 -8.511952e-19
00000000: 20b7 1f9e 686e dc1b d3ec 53a1 7889 6b98
00000010: a8b8 9121 f84b b7a2 e068 4022 dbff 551d
00000020: 2634 aaa4 4457 9fa8 92d3 2a9e 32f0 04a3
00000030: f8d9 a79c a893 949a 1e90 3621 ac80 a120
00000040: d8d5 be21 7085 0e23 67fc e91c 4416 0e22
00000050: 297a 8425 a89d faa2 44ee 3723 b0fd 529f
00000060: 10ea 3823 a2d0 d61c 60ee e9a2 f120 83a5
00000070: ae1f 189e 11ed b6a2 7d2f 1c24 62dd dfa4
00000080: 7216 f397 b5ed 2296 f0f2 f49c 7897 f910
00000090: 5b8c 1c9c 6417 061c 10f5 8d1c 2ebb 9516
000000a0: 631f 861d 2d15 0ea2 70da 4715 c814 671c
000000b0: 209c 9b17 42dc 3915 9e82 eb1a ef83 6f99
000000c0: 7811 759b fc20 609c d154 3497 979a 771c
000000d0: e81b f89d 2a92 491c fca7 f11d 100f 3396
000000e0: e01b e61d cce9 2297 ce8c 689d e434 001e
000000f0: b4f0 9095 adbb da9b 7341 4d1d 0d36 941d
00000100: e504 99a5 3e98 65a3 c8f9 48aa 4b4b 541e
00000110: 777b 6ca9 150a a529 51a5 2729 e27b 9423
00000120: f843 0f2b 021c 9ead 9831 8722 295d e929
00000130: ddb2 9724 8f49 5322 e1c7 f127 176b c8a6
00000140: e4ed a7a8 142e 02aa 7a53 8ba4 a7e2 9329
00000150: d079 9eab d513 dc29 6e89 2d2b 3484 0fa5
00000160: 6f43 242b 1837 62a4 d02f a5aa cec5 a12b
00000170: a0dd 84a1 ed20 da29 2f63 062a 422a 062b
00000180: 04f7 b510 f00a 4c0c 7584 2793 b93c cb09
00000190: 10d2 af91 4aaf 1493 c0c1 e813 728c f38d
000001a0: a415 1594 6a68 7319 a32a 2a0e 4df6 2893
000001b0: 0640 440d 18ae 080b e80b e511 6874 a411
000001c0: 102f ce12 4271 5313 01e6 8f0d 3c13 0413
000001d0: e431 b814 da6a 2493 2800 5014 1ab9 3b90
000001e0: d844 3d14 506b 1f0d 2a25 de93 3057 c294
000001f0: df3c 0e0e be51 9a93 e2a9 8894 1a9a b014
00000200: 9c6f 59a5 e894 61a1 a0cb 44a8 64c3 951d
00000210: 003a aea7 f855 2128 f723 9527 de50 5522
00000220: 708f 5529 f194 fa2b b05f 0d20 20d2 7b28
00000230: d0e5 9ba2 e8ce 1f20 6006 3fa5 2787 40a6
00000240: c9f0 e2a7 d0aa a5a8 db1d efa2 90a3 f2a6
00000250: d57c faa9 c448 8528 3876 9829 8fef 73a3
00000260: 1493 8a29 9c8e 62a2 e487 d0a8 684f 012a
00000270: b0c1 34a0 7097 b528 5513 a628 aa74 6b29
00000280: 7e53 0ea6 988b 82a1 ee73 fea9 524e 601e
00000290: b0be c3a9 eb1f 822a ba33 0629 42d1 7223
000002a0: bc56 8a29 77b2 58af 6018 4ca2 2beb 872a
000002b0: 580d 81a3 a096 a41f 4a54 48a7 994a 00a7
000002c0: b8aa 8ea8 9697 91aa a9f2 74a3 3092 c027
000002d0: 3cc7 85aa 1bfa 892a ad1f 272a e0b5 0922
000002e0: f762 272a 24d9 89a2 6c62 d8a9 0922 832a
000002f0: d02f e9a2 0b89 6f2a 0800 202a 680f 7829
00000300: 2d63 dda5 2825 d5a2 fc5b 8729 4081 1e1e
00000310: b418 d428 1497 a029 d46c 9da9 a0ec 9d22
00000320: d055 042a de0a 8fb0 04ac 8aa4 95d6 e429
00000330: bb6b 98a3 ef71 2ea1 6470 54a7 aac9 bda6
00000340: d8d7 6ba8 7de1 f6a9 93ac 4da4 7a5f c0a8
00000350: c052 2bab 88cb ce29 17ce 3aaa 1dd0 e6a5
00000360: 2a5b 31aa 8dbf 8aa3 555e ad29 8867 2f2b
00000370: d08a 4da4 e6df 352a 907c 21aa f880 5a2a
00000380: 947c 0f9c e647 0118 0195 161e f63e 8e93
00000390: 04ed 531d fcc5 e79e f06a 12a0 4030 5d19
000003a0: aef0 40a1 7708 6126 6f0a 0c9b 80e3 589f
000003b0: 801c a599 cc7e 7297 6036 8e1c b03f a41b
000003c0: c8a7 589e bc4f 541f f4ec e318 4056 0a9e
000003d0: 6c7f 1d22 9d00 329f f01c 229f 70f1 9619
000003e0: e8e2 4a9f 9ce3 1419 c0e0 a31e 588a 21a2
000003f0: ace5 f29a 1079 ba9e e00b d420 7e3a 7ba1

feature.2.bias_ih_l0 f4 [128]
-4.605363e-13 2.907614e-17 -1.1633512e-09 4.004182e-23 -1.910001e-10 7.434712e-10 4.955761e-09 -8.543776e-15
7.6987675e-08 0.5124059 -3.5419165e-15 1.3787427e-09 2.6798937e-16 1.4614644e-18 -2.1121667e-11 -5.8074747e-15
-1.4362416e-09 1.069095e-09 1.0998293e-15 -1.1286192e-09 4.4617585e-07 8.310082e-10 9.572599e-09 9.138955e-15
-5.9075154e-09 3.3096465e-16 1.0640393e-09 3.822349e-07 9.684006e-15 4.336048e-09 5.8253283e-07 1.6446849e-07
6.472416e-15 5.9444747e-18 -8.933918e-10 3.6921612e-23 -7.025559e-11 3.0961944e-10 8.166854e-10 8.941597e-16
1.2129318e-07 -0.18704642 -6.939133e-15 9.430147e-10 -6.2036545e-16 2.5833978e-19 -3.7514384e-11 -2.258535e-12
-1.5317323e-09 1.0067633e-09 8.671264e-16 1.3683643e-09 4.7699416e-07 7.3080525e-10 -1.02488595e-08 3.7982897e-15
-1.0875268e-08 3.1356753e-17 -8.7221075e-09 4.241704e-07 -7.23366e-15 1.615715e-09 1.0224989e-06 2.6524486e-07
3.168779e-08 1.499904e-10 -6.404309e-07 2.7716945e-13 -5.0178426e-07 1.5985893e-07 1.649481e-05 -3.4797187e-10
0.00011897899 0.1319409 2.1528075e-08 1.0881379e-06 4.1511164e-10 2.8406007e-11 -1.6296289e-07 -2.8907172e-08
4.79116e-07 -8.8032414e-07 1.5851465e-09 -4.0804053e-07 -0.00037247848 8.7630576e-07 -4.638183e-06 -8.083067e-09
-4.1707194e-06 3.0658295e-10 1.6162558e-06 0.00036323845 1.2771664e-08 -4.1930875e-06 1.2178607e-05 0.00018609402
-4.6056816e-13 2.9075124e-17 -1.1635329e-09 4.0028614e-23 -1.9101244e-10 7.4334683e-10 4.955298e-09 -8.544404e-15
7.698381e-08 0.531068 -3.5413948e-15 1.3785675e-09 2.6796951e-16 1.4615397e-18 -2.1120456e-11 -5.8584322e-15
-1.4362134e-09 1.0689132e-09 1.0999035e-15 -1.1287028e-09 4.4617957e-07 8.3083723e-10 9.572398e-09 9.137251e-15
-5.9063465e-09 3.309522e-16 1.0639156e-09 3.822385e-07 9.68445e-15 4.3359267e-09 5.825193e-07 1.6439469e-07
00000000: 23a1 01ab 0c17 0624 c8e3 9fb0 5fa1 411a
00000010: c001 52af 225d 4c30 5647 aa31 36e9 19a8
00000020: 6c54 a533 082d 033f d438 7fa7 327e bd30
00000030: 407c 9a25 90ac d721 c4c9 b9ad 803c d1a7
00000040: 4265 c5b0 70ef 9230 8a80 9e26 c21d 9bb0
00000050: f189 ef34 016d 6430 bc74 2432 fea1 2428
00000060: 0efb cab1 c3c9 be25 8e3d 9230 f735 cd34
00000070: 9873 2e28 48fc 9431 5a5f 1c35 c198 3034
00000080: 8031 e927 fa4f db22 dc92 75b0 be8a 321a
00000090: 627e 9aae 1037 aa2f 207d 6030 acdc 8026
000000a0: d13c 0234 1989 3fbe 3502 faa7 619b 8130
000000b0: e4ce 32a6 347f 9820 71fd 24ae 26ee 1eac
000000c0: 0a85 d2b0 565e 8a30 a3ee 7926 0a11 bc30
000000d0: ca0a 0035 d9e1 4830 f612 30b2 0ad9 8827
000000e0: efd5 3ab2 859b 1024 3cd8 15b2 89b9 e334
000000f0: 5e4f 02a8 eb0f de30 cb3c 8935 fa66 8e34
00000100: 1819 0833 8bea 242f 14ea 2bb5 5408 9c2a
00000110: 5ab2 06b5 b0a5 2b34 565e 8a37 b04c bfaf
00000120: 5c84 f938 841b 073e bdec b832 220c 9235
00000130: c535 e42f a4dc f92d e6fa 2eb4 8b4f f8b2
00000140: 9a9c 0035 6a4f 6cb5 62dc d930 aa10 dbb4
00000150: 3749 c3b9 463b 6b35 b0a1 9bb6 b4dd 0ab2
00000160: 35f2 8bb6 b78b a82f 20ee d835 0a71 be39
00000170: 5f6a 5b32 59b2 8cb6 b852 4c37 3c22 4339
00000180: 6fa3 01ab d915 0624 2dea 9fb0 0691 411a
00000190: 3905 52af 6254 4c30 4343 aa31 1cec 19a8
000001a0: 4c52 a533 13f4 073f 342f 7fa7 0878 bd30
000001b0: 5279 9a25 69af d721 0ac7 b9ad 8012 d3a7
000001c0: 4464 c5b0 0ae9 9230 4783 9e26 b320 9bb0
000001d0: 748a ef34 f960 6430 da73 2432 229a 2428
000001e0: c6f0 cab1 edc7 be25 3439 9230 7636 cd34
000001f0: a575 2e28 37fb 9431 6c5e 1c35 7884 3034

feature.2.bias_hh_l0 f4 [128]
-4.605363e-13 2.907614e-17 -1.1633512e-09 4.004182e-23 -1.910001e-10 7.434712e-10 4.955761e-09 -8.543776e-15
7.6987675e-08 0.51240575 -3.5419165e-15 1.3787427e-09 2.6798937e-16 1.4614644e-18 -2.1121667e-11 -5.8074747e-15
-1.4362416e-09 1.069095e-09 1.0998293e-15 -1.1286192e-09 4.4617585e-07 8.310082e-10 9.572599e-09 9.138955e-15
-5.9075154e-09 3.3096465e-16 1.0640393e-09 3.822349e-07 9.684006e-15 4.336048e-09 5.8253283e-07 1.6446849e-07
6.472416e-15 5.9444747e-18 -8.933918e-10 3.6921612e-23 -7.025559e-11 3.0961944e-10 8.166854e-10 8.941597e-16
1.2129318e-07 -0.18706706 -6.939133e-15 9.430147e-10 -6.2036545e-16 2.5833978e-19 -3.7514384e-11 -2.258535e-12
-1.5317323e-09 1.0067633e-09 8.671264e-16 1.3683643e-09 4.7699416e-07 7.3080525e-10 -1.02488595e-08 3.7982897e-15
-1.0875268e-08 3.1356753e-17 -8.7221075e-09 4.241704e-07 -7.23366e-15 1.615715e-09 1.0224989e-06 2.6524486e-07
3.168779e-08 1.499904e-10 -6.404309e-07 2.7716945e-13 -5.0178426e-07 1.5985893e-07 1.649481e-05 -3.4797187e-10
0.00011897899 0.016926484 2.1528075e-08 1.0881379e-06 4.1511164e-10 2.8406007e-11 -1.6296289e-07 -2.8907172e-08
4.79116e-07 -8.8032414e-07 1.5851465e-09 -4.0804053e-07 -0.00037247848 8.7630576e-07 -4.638183e-06 -8.083067e-09
-4.1707194e-06 3.0658295e-10 1.6162558e-06 0.00036323845 1.2771664e-08 -4.1930875e-06 1.2178607e-05 0.00023962738
-4.6056816e-13 2.9075124e-17 -1.1635329e-09 4.0028614e-23 -1.9101244e-10 7.4334683e-10 4.955298e-09 -8.544404e-15
7.698381e-08 0.5310681 -3.5413948e-15 1.3785675e-09 2.6796951e-16 1.4615397e-18 -2.1120456e-11 -5.8584322e-15
-1.4362134e-09 1.0689132e-09 1.0999035e-15 -1.1287028e-09 4.4617957e-07 8.3083723e-10 9.572398e-09 9.137251e-15
-5.9063465e-09 3.309522e-16 1.0639156e-09 3.822385e-07 9.68445e-15 4.3359267e-09 5.825193e-07 1.6439469e-07
00000000: 23a1 01ab 0c17 0624 c8e3 9fb0 5fa1 411a
00000010: c001 52af 225d 4c30 5647 aa31 36e9 19a8
00000020: 6c54 a533 062d 033f d438 7fa7 327e bd30
00000030: 407c 9a25 90ac d721 c4c9 b9ad 803c d1a7
00000040: 4265 c5b0 70ef 9230 8a80 9e26 c21d 9bb0
00000050: f189 ef34 016d 6430 bc74 2432 fea1 2428
00000060: 0efb cab1 c3c9 be25 8e3d 9230 f735 cd34
00000070: 9873 2e28 48fc 9431 5a5f 1c35 c198 3034
00000080: 8031 e927 fa4f db22 dc92 75b0 be8a 321a
00000090: 627e 9aae 1037 aa2f 207d 6030 acdc 8026
000000a0: d13c 0234 828e 3fbe 3502 faa7 619b 8130
000000b0: e4ce 32a6 347f 9820 71fd 24ae 26ee 1eac
000000c0: 0a85 d2b0 565e 8a30 a3ee 7926 0a11 bc30
000000d0: ca0a 0035 d9e1 4830 f612 30b2 0ad9 8827
000000e0: efd5 3ab2 859b 1024 3cd8 15b2 89b9 e334
000000f0: 5e4f 02a8 eb0f de30 cb3c 8935 fa66 8e34
00000100: 1819 0833 8bea 242f 14ea 2bb5 5408 9c2a
00000110: 5ab2 06b5 b0a5 2b34 565e 8a37 b04c bfaf
00000120: 5c84 f938 69a9 8a3c bdec b832 220c 9235
00000130: c535 e42f a4dc f92d e6fa 2eb4 8b4f f8b2
00000140: 9a9c 0035 6a4f 6cb5 62dc d930 aa10 dbb4
00000150: 3749 c3b9 463b 6b35 b0a1 9bb6 b4dd 0ab2
00000160: 35f2 8bb6 b78b a82f 20ee d835 0a71 be39
00000170: 5f6a 5b32 59b2 8cb6 b852 4c37 7c44 7b39
00000180: 6fa3 01ab d915 0624 2dea 9fb0 0691 411a
00000190: 3905 52af 6254 4c30 4343 aa31 1cec 19a8
000001a0: 4c52 a533 14f4 073f 342f 7fa7 0878 bd30
000001b0: 5279 9a25 69af d721 0ac7 b9ad 8012 d3a7
000001c0: 4464 c5b0 0ae9 9230 4783 9e26 b320 9bb0
000001d0: 748a ef34 f960 6430 da73 2432 229a 2428
000001e0: c6f0 cab1 edc7 be25 3439 9230 7636 cd34
000001f0: a575 2e28 37fb 9431 6c5e 1c35 7884 3034
