Code/CNNLSTM/CNNLSTMModelOutputs/best_model.pth (torch, 386018 bytes, 27 tensors)

conv1.weight f4 [64, 5, 2]
00000000: bb33 bdbd 9c12 cd3d 5638 8a3e 1659 a8bd
00000010: 0663 aa3d aba1 9cbe 95f8 b53d e91a 673c
00000020: bd56 2dbd add5 8dbe 5909 9abb b4df 143e
00000030: 56eb 78be 706a 04be 383a 08be 5d7f 6fbd
00000040: dc8b 103e 5d93 763c 61e4 373e 66ee aebd
00000050: dd9d 4ebe d550 253e 7aad 47be 7122 633e
00000060: ef28 bebd 133d 753e f97d 073e cb60 68be
00000070: b4c4 aa3d cd6b 2e3d 0296 843e ff31 95be
00000080: 5ba8 e3bd c3bf 73be d4cc 35be 9c37 223e
00000090: f991 113e c01a 953e 54a4 71be 58fc 90be
000000a0: 542a 193e 1f39 d83c 3bdd 9ebd b566 f8bc
000000b0: e811 49be aab0 32be 3e54 2a3e 1146 d7bd
000000c0: 341c c8bd 83e1 bcbc bfe9 2bbd e148 4dbd
000000d0: 8ea1 41be b9a8 89be 9478 e93d 53b0 fa3d
000000e0: 8291 ee3d 9ecb 92be 68dd 803d 0062 7bbe
000000f0: d27c 8bbe 7e02 91be 734a 813e b1d2 1e3e
00000100: 55df 51be 568f 0cbe c691 34be bed4 7fbe
00000110: 5bcd 0d3c 86ad 803c 8a4b c0bb eff4 913e
00000120: 5107 8dbe 6134 71be a131 3f3e 7197 6a3e
00000130: 783f e1bd 31cb a23d fb8e 0d3e 9d05 22be
00000140: 0c9f 173e 1f1e 01bc 7808 22bd 977f 8fbd
00000150: 45e5 41bc e7fb 80be 6599 87be 6c35 e9bd
00000160: 7921 573e 9ca6 d6bc 641b 3e3c c216 2dbe
00000170: c557 85be 0423 9bbe 88ad 973e b727 c33d
00000180: 3146 dbbd 0899 21be 7167 95be bba4 393e
00000190: ecc0 febc 8924 2c3c 1c81 8e3e 347e 19bc
000001a0: 68ab 0e3e 030b ea3c 8326 81bd 500c 1b3e
000001b0: df06 4abd e9b4 cf3d a148 8b3e c369 683e
000001c0: c70f 6abe 332a 983e afd2 82bd f45c 103e
000001d0: 6fc9 b03d 0f16 e2bc 9bc3 27be 74e1 77be
000001e0: ef24 0d3e 6089 753e 973c 4abe 565b 2ebe
000001f0: 6754 393e 6bc3 36be 7130 97be d75e 313e
00000200: 5e51 873e 66ac 1c3c 09f2 be3d 4a40 083e
00000210: 4fd7 083e 624d 63be 9f0b 193e edca 8e3d
00000220: e482 623e cde9 05be 061f 9ebe 220e 223e
00000230: 8a94 b93d d96a 53be 532c 9cbe 6a11 fb3d
00000240: 7464 ea3d 431e 963e 86d1 06be f596 273e
00000250: 4f7e 9bbe 0557 16be fee9 2e3c dada 5d3d
00000260: 2eb5 89be dc30 41bd 2c76 8b3e 71e6 033d
00000270: 83c1 833e cfa9 9f3d cf31 2cbe 8ab2 723e
00000280: ac1c 4cbd f88c 593e d4e4 d73c 6fde 1fbe
00000290: 4dc2 4ebe 93ca 57be f1af a5bd d6d6 243e
000002a0: 5fbd 493e 9531 5fbe b464 8fbe 9506 4bbe
000002b0: a223 07be f10c 303d c85a 3d3e d6c3 edbd
000002c0: c04c 3ebe 78af 2e3d b32a 0abe 15b6 42bd
000002d0: 54ca 983e 2186 8a3e cfd6 543d 4664 d5bd
000002e0: 97fa bd3d 4e06 bf3d 4f7c d03d f450 f43d
000002f0: a354 f9bd 4025 843e c31a a83d 6e2c 8d3e
00000300: 3a40 2dbe 0c7b c1bd 97d2 89be 4cd1 443e
00000310: d03f 4b3e a7e0 87be a7b4 933e 4db9 10be
00000320: 8490 0b3e 5aa7 363e ceb7 333e 1dbd 193e
00000330: aea9 713e de0f 51be 4108 6d3e 4e73 23be
00000340: 87bb 27be 3c2a 0f3d 84d8 613e be36 7ebe
00000350: 8187 c8bd 9b06 0d3d dafa 0c3e 54ad 61be
00000360: e19c 9abe b424 c3bd c4aa 1c3e c174 333c
00000370: 9a12 4dbc 0917 40bd 496a 89be 34c8 943e
00000380: 3efb 5fbe 4861 14be 60ff 443e 08ec 973e
00000390: d330 4ebe a78f 1f3e dc7d 2fbe b274 903e
000003a0: abef 26be cb9e 35bd 2f34 673e 64f5 883e
000003b0: 4135 82be 2536 483e 34f4 34bd e654 903d
000003c0: 44f2 393d 9d50 4abd a8fb 0ebe 425d 6b3e
000003d0: 4e71 2d3e f2ba 78be 88b1 043d 5476 993e
000003e0: cb96 a8bd bceb 313e ca15 a33d 3c17 2b3d
000003f0: d99a b1bc 376e 4c3e bf08 5d3d a583 23be
-0.092383824 0.10013315 0.26996106 -0.08220117 0.083196685 -0.30592093 0.08885304 0.014105537
-0.04231905 -0.27702084 -0.0047008214 0.14538461 -0.24308524 -0.12931228 -0.13303459 -0.058471072
0.14115852 0.015049783 0.17958213 -0.08541565 -0.20177408 0.16144116 -0.1949977 0.22181107
-0.09285151 0.23949079 0.13231649 -0.22693174 0.083382994 0.042583276 0.25895697 -0.29139706
-0.11116096 -0.2380362 -0.17753917 0.15841526 0.1421584 0.2912197 -0.23597842 -0.28317523
0.14957553 0.026394425 -0.0775704 -0.030322412 -0.19635737 -0.17450204 0.16633698 -0.10511411
-0.09771004 -0.023056751 -0.041970965 -0.05011833 -0.18909284 -0.26886538 0.113999516 0.122406624
0.11648847 -0.28670973 0.0629223 -0.24549103 -0.27243668 -0.28322214 0.25252113 0.1551006
-0.2049535 -0.13726553 -0.17633733 -0.24983498 0.008654918 0.015707742 -0.00586838 0.28507182
-0.27544644 -0.23555137 0.18671276 0.22909333 -0.10998434 0.07948912 0.13824074 -0.15822454
0.14806765 -0.007880717 -0.039558858 -0.07006758 -0.011834447 -0.25192186 -0.26484218 -0.113871425
0.21008863 -0.026202492 0.01160321 -0.16903213 -0.26043525 -0.30300152 0.2962458 0.095290594
-0.10706747 -0.15781033 -0.29180482 0.18129246 -0.031097852 0.010506758 0.27832878 -0.009368468
0.13932574 0.028569704 -0.06306174 0.15141416 -0.04932296 0.10141928 0.2720385 0.22696595
-0.22857581 0.29719695 -0.06387841 0.14097959 0.086321704 -0.027598409 -0.16383211 -0.24207097
0.1378362 0.23978186 -0.19749676 -0.1702703 0.18098603 -0.17847984 -0.29529145 0.17321335
0.26429266 0.009562587 0.09323508 0.13305774 0.13363384 -0.22197488 0.1494584 0.06972299
0.22120243 -0.13077469 -0.30883044 0.15825704 0.09061535 -0.20646228 -0.30502567 0.12259181
0.11444941 0.29319963 -0.13165864 0.1636618 -0.30369803 -0.14681633 0.010675905 0.05416379
-0.26896042 -0.047165737 0.27238595 0.032202188 0.25733575 0.0779606 -0.16815875 0.2370092
-0.04983203 0.21245182 0.026354231 -0.15612195 -0.20191307 -0.2107337 -0.08090199 0.16097578
0.19701146 -0.21796258 -0.28006518 -0.1982673 -0.13197187 0.042981092 0.18491662 -0.11609618
-0.18583965 0.04264781 -0.13492851 -0.04753693 0.29841864 0.27055457 0.05196267 -0.10419516
0.09276312 0.093273744 0.1017996 0.11929503 -0.12174346 0.2580967 0.082082294 0.2757296
-0.16919032 -0.094472975 -0.2691848 0.19220465 0.19848561 -0.26538584 0.28848764 -0.14133187
0.13629347 0.17837277 0.17550585 0.15013547 0.23599884 -0.20416209 0.2314768 -0.15961954
-0.1638013 0.034952387 0.2205525 -0.2482557 -0.0979147 0.034430128 0.13767567 -0.22038776
-0.30197814 -0.09528485 0.15299517 0.010953129 -0.012516642 -0.046896968 -0.26838902 0.29058993
-0.21873185 -0.14490235 0.19238043 0.29672265 -0.20135812 0.15582143 -0.17137855 0.2821403
-0.16302364 -0.04434089 0.225785 0.26749718 -0.25431255 0.19551904 -0.044178203 0.07047443
0.045397058 -0.049393285 -0.13963187 0.22984794 0.16937754 -0.24290064 0.03239587 0.2997309
-0.082318865 0.17375082 0.0796314 0.041770205 -0.021680282 0.19963919 0.05396342 -0.15968187

conv1.bias f4 [64]
00000000: 49a7 7abe d0ff 69be 8a5f 923e 3fd0 733d
00000010: eb97 d83d be62 04be 9372 413e 9431 f63d
00000020: dc8c 7a3e 547a b9bd a2c8 d23d 0f04 173e
00000030: 02b3 153d d0a4 12be 6395 0a3d 9bfe 82be
00000040: 2600 983e 8bf1 97be 4522 41bc f4c7 8b3e
00000050: ce0c 963d d2c7 86bd a82e 88be 49f4 94be
00000060: 8293 b03d 301d 94bd 5a22 7b3e 61d2 043d
00000070: 63f2 abbc 0c56 833d 301e d8bb 5d52 02bd
00000080: 589a d3bd 2cb8 713e 8b2d a23d 98a2 3ebe
00000090: 2763 5e3e 201f 6b3a 9164 59be 1ccb 1fbe
000000a0: 07a6 433e 9f32 45be 0222 123e 425f 2abe
000000b0: bfc7 16be 6f45 ccbc 3453 89bd f405 8ebe
000000c0: de0a c73d bd2a 7c3e dcb8 01be 5433 8dbe
000000d0: 7b29 b53d 1f4d e13d 09f9 89be a892 2e3e
000000e0: 6d23 9b3c 83fb 8fbe cb08 453e 39ca e2bd
000000f0: f9c5 a03d 1bb0 5b3d 350b 75be 5230 b0bd
-0.24477877 -0.22851491 0.28588516 0.05952477 0.10575851 -0.12928292 0.18891363 0.12021175
0.24467796 -0.09056535 0.10292174 0.14747642 0.03654767 -0.14320683 0.033833873 -0.25584874
0.29687613 -0.2967647 -0.011787956 0.2730099 0.07326661 -0.065810814 -0.26598096 -0.29092625
0.08621885 -0.072321296 0.24524823 0.032427195 -0.020989602 0.064128965 -0.0065953955 -0.03181683
-0.10332173 0.23605412 0.07918843 -0.18616712 0.21717511 0.00089691766 -0.2122977 -0.15604824
0.19106303 -0.19257592 0.14270785 -0.166379 -0.14724635 -0.024935452 -0.06705323 -0.27738917
0.097188696 0.24625678 -0.12668175 -0.27578223 0.088458024 0.11001038 -0.2694781 0.17048132
0.01893779 -0.28121576 0.19241636 -0.11073727 0.0785026 0.053634744 -0.23930056 -0.08602966

conv2.weight f4 [32, 64, 1]
00000000: 5c1d e13d 0525 a2bd 3f79 023d 72bb 5c3d
00000010: 2f69 40bd fc15 563d a91a 15bd 2444 813d
00000020: 3bcf 13bc 9545 d0bd bbdd 9b3c ee67 02be
00000030: c5ce e33d 2d03 cabd eb26 903d ba63 89b9
00000040: 947c d0bc d549 003e 4a5c 833d 9d40 c03d
00000050: 3d0a 3f3d f06a 8cbd 0721 4f3c 5874 7cbb
00000060: 8fac a9bd e9a9 bd3d 9184 343b d0d4 28bc
00000070: c9e7 653c cf64 e7bd 5d47 713c 515a 24bd
00000080: 3a88 9dbd 6a4d 00bd b1ff b73d 961b 9dbd
00000090: f287 e03d b707 443c 3e5c d33d 1f30 013d
000000a0: 4cc6 1dbd 4683 633d 2969 d0bd 91d1 ec3d
000000b0: d51e 0e3c 0a1b 98bd f474 f0bd f3e7 69bd
000000c0: 13d0 de3d 2a21 d53d 7e88 dc3d 14bf a23d
000000d0: cdbf dfbd 09ec bb3c 3316 9fbd bd26 8f3c
000000e0: 004f 32bd 47cf f13c 4c03 3b3c 1add 48bd
000000f0: a9f7 4f3b 2d9f 993d 5561 e0bb 5536 e5bc
00000100: d36b 9d3d 0206 013c bd3f a93d 6c88 d7b9
00000110: 6924 d73c 299d 47bc 8c73 e13d cd8b 87bb
00000120: 4978 d43d 014e 4f3d 5e38 983d 68e4 2bbd
00000130: 86c9 a93d 8db3 54bd d863 b1bd d180 d1bc
00000140: 74ee 953d 6e8f 3cbc e276 96bd 6550 cc3d
00000150: 6a6c 0b3d 52d6 9cbb dc8e 11bd f7ce 1cbd
00000160: 0f2a b0bd 935a ba3c 4056 543d 305d 4b3d
00000170: cfe1 b93b df01 683d ce23 563d 90e4 4fbd
00000180: e106 2f3a 93ce a83d dcf6 ed3c a82c b539
00000190: 870e cd3d bc89 d43d fd1b b7bd f0a5 c93d
000001a0: 3d26 89bc dfc3 a43d ecdb 6f3d 6c79 a83d
000001b0: 7d2d f8bc ea37 923d 163b cdbd d027 963d
000001c0: 3901 02bd 878e 85bd 224f 6fbd df2a 3fbd
000001d0: 2584 693c 3ede cfbd 3761 cb3d cd7a c83d
000001e0: 9bce 3abd fc75 cc3b 216f e23c 10a9 223d
000001f0: b721 bbbd 32d5 1e3d 7576 80bc e27b 63bb
00000200: 6aa6 9c3d ea34 6e3c c9be 383d d2ed a5bd
00000210: 4e01 c43d 2af2 27bd ff12 b8bc 9f4d 573c
00000220: d677 c8bd 2b01 5ebd 22c0 01bd ff69 8e3d
00000230: ce1c bb3d e204 5b3d 0448 cc3c afd0 b8bd
00000240: f145 003e f70d f8bc 7a2c 80bc 1139 ef3d
00000250: 2723 61bd 9391 be3a 4539 e43d 1bd8 8abd
00000260: 11b5 d23d 29d0 c3bd eafd 83bd 5102 e73d
00000270: bb5d afbd bf79 afbd 93d5 713d e3fd 79bc
00000280: f479 843d 15a2 73bd 8328 48ba f1e9 503b
00000290: cdc4 c7bc 4bd3 213d fb50 bf3d af10 3b3d
000002a0: 6998 8c3d ca7e e0bc daa0 803d 1f82 17bd
000002b0: 5b7c 053d e06c 283d 5cca 1dbd 7861 cc3c
000002c0: 62c8 0cbd fae2 00bd 3426 eebd c6e4 e53d
000002d0: 8ea7 e2bd 961a 9dbd 0894 f23d 34ee 8dbb
000002e0: 8460 b9bd 6fcc e4bd 1857 babd 2378 37bc
000002f0: 2608 9f3d 995f 86bd a50b 51bb 6562 343c
00000300: 109e 8c3d 47ce 8b3d 048a e6bd a7ee d23d
00000310: 5c11 bdbb 2730 823d 761f 8f3b 721f d4bd
00000320: f64e fb3a fd89 72bc 7b0e d73c fc02 9a3d
00000330: ea3d 99bd 3515 82bc 5a3e 0c3c a1e2 fe3c
00000340: 90a5 893d 5d2b 963d 4f5a babd e0b5 cabd
00000350: 68cd eabc 2b29 cb3d e5ac 3dbd 4788 293d
00000360: c6da 61bd 0587 a5bd eb9a b4bb aee3 cf3d
00000370: d2bb f83d 9670 9d3c 06d9 c23d 158f 8f3d
00000380: 16d1 fa3d 3ac8 f4bd 9287 6c3b 9a82 23bc
00000390: cff6 9bbd a5cf b03b 7655 bebd 2d57 05bd
000003a0: a54e 863b 74b5 e0bb c047 21bc b401 1ebd
000003b0: 7b8a 7cbd 9a0f fb3d 81fb a6bd 09d6 533d
000003c0: c136 433d b6b8 4dbd 66df b93d 9385 8e3c
000003d0: 63ba 03ba e606 debd d699 9f3d f01f 7bbd
000003e0: 71d9 0b3d e0bc e3bc 79cb b7bc b3a3 aebd
000003f0: be6a 853d 5348 cdbc 490d c1bd 801a fb3b
0.10991928 -0.07917217 0.03185391 0.0538897 -0.04697531 0.05226706 -0.03640238 0.06311825
-0.009021576 -0.10169522 0.019026628 -0.12734959 0.111234225 -0.09863887 0.07038673 -0.00026204978
-0.025450028 0.12528165 0.06414087 0.09387324 0.046640623 -0.06856334 0.012642152 -0.0038521495
-0.08284866 0.092609234 0.0027544836 -0.010304645 0.014032313 -0.112985246 0.014726487 -0.040125195
-0.07691999 -0.031323828 0.08984316 -0.07671277 0.109634295 0.01196473 0.10320328 0.031540032
-0.03851919 0.055545114 -0.10176308 0.11563409 0.008674343 -0.07427032 -0.11741057 -0.05710597
0.10879531 0.10406716 0.10768221 0.079466015 -0.10925255 0.022939699 -0.07767906 0.017474527
-0.04353237 0.029517783 0.01141436 -0.049038984 0.003173331 0.075010635 -0.0068475404 -0.02798001
0.076865815 0.0078749675 0.0826411 -0.00041109638 0.026262479 -0.012183466 0.11008367 -0.0041365386
0.10374505 0.0506115 0.07432626 -0.041965872 0.08290391 -0.051929045 -0.08661622 -0.02557412
0.07320872 -0.011508806 -0.07346894 0.099762715 0.03403894 -0.004786291 -0.035536632 -0.038283315
-0.08601772 0.022748267 0.051840067 0.049649417 0.0056726704 0.05664241 0.05228024 -0.050755084
0.0006676745 0.08242526 0.029048376 0.00034556282 0.100125365 0.10377833 -0.08940885 0.09846103
-0.016741866 0.08045172 0.058559343 0.082262844 -0.030295128 0.07139571 -0.100210354 0.073318124
-0.031739447 -0.065213256 -0.058425076 -0.046671744 0.014252697 -0.10149811 0.09930652 0.097890474
-0.04560719 0.006239651 0.027640881 0.03971201 -0.0913729 0.038777538 -0.015681485 -0.003471129
0.076489285 0.014538983 0.045103822 -0.08102001 0.09570561 -0.04100243 -0.022469996 0.013141065
-0.09788482 -0.054200333 -0.031677373 0.06953811 0.091363534 0.053471453 0.024936683 -0.09024178
0.1252668 -0.030280096 -0.015646208 0.116808064 -0.054965165 0.0014539234 0.11143736 -0.067795
0.10288442 -0.09561188 -0.06444915 0.11279739 -0.085627995 -0.08568143 0.05904157 -0.015258285
0.06468573 -0.059480745 -0.0007635431 0.0031877721 -0.024385834 0.039508145 0.09341618 0.045670208
0.068650074 -0.027404208 0.0628068 -0.036989328 0.032589298 0.041119456 -0.038523063 0.02494882
-0.034370787 -0.03146646 -0.116283804 0.11225276 -0.11067115 -0.076710865 0.11844641 -0.0043313745
-0.09051612 -0.11171805 -0.09098643 -0.011198076 0.07765226 -0.065612026 -0.003189781 0.011009787
0.068660855 0.06826454 -0.11256793 0.102994256 -0.0057698917 0.063568406 0.004367764 -0.1035756
0.0019173312 -0.014803407 0.026252022 0.075201005 -0.07482512 -0.015879253 0.008559788 0.031113924
0.06721032 0.0733249 -0.09099256 -0.09897971 -0.028662398 0.099199615 -0.046307463 0.04138973
-0.05514028 -0.080823936 -0.0055116317 0.10150848 0.12145199 0.019218724 0.0951405 0.070097126
0.12246911 -0.11952253 0.0036091548 -0.009979868 -0.076154344 0.005395847 -0.09293644 -0.03255384
0.0040987306 -0.0068575684 -0.009843767 -0.038575843 -0.061655503 0.12258835 -0.08153439 0.05171779
0.04765964 -0.050224982 0.09075813 0.017397678 -0.0005025027 -0.108411595 0.07793014 -0.061309755
0.034142915 -0.027800024 -0.02243589 -0.08527317 0.065145 -0.025058901 -0.09426362 0.007663071

conv2.bias f4 [32]
00000000: 3b9d cd3d d1d2 a6bd 0ebc 9834 d197 06bd
00000010: ea69 1ebd cf64 f03c 9dfb 793d fdd5 ea3c
00000020: 382e 9f3d 7fbf 9dbd 4b76 a1bd 32a6 5bbc
00000030: 2fd0 eebc cb25 8fb8 61bc 1bbd eaac 213d
00000040: b68b 0a3d 8a30 dd3d 7e51 363d b805 d43d
00000050: 413f 49bd bb63 15bd 30f7 0e3c 4331 a93d
00000060: be34 92bd d087 7abd eeb4 2c3d 31f7 a03c
00000070: d622 353d bfad b9bd 37ec 033d 2728 1a3d
0.10039755 -0.08145679 2.8449034e-07 -0.032859627 -0.038675226 0.029344944 0.061030973 0.02866649
0.077724874 -0.077025406 -0.07883891 -0.013406323 -0.029152004 -6.825811e-05 -0.03802145 0.039471544
0.033824645 0.10800274 0.04451131 0.10352653 -0.04913259 -0.036472064 0.008725926 0.08261349
-0.07138966 -0.061164677 0.042164735 0.01964912 0.044222675 -0.090663426 0.032207694 0.03763595

batch1.weight f4 [32]
00000000: 7c0d 7c3f 4387 7b3f 6f99 7b3f 9f62 7b3f
00000010: 23b3 7b3f 3789 7b3f 58d7 7b3f e170 7b3f
00000020: c27b 7b3f 6cc8 7b3f 690e 7d3f ee7a 7b3f
00000030: c30c 7c3f edc4 7b3f 4dd3 7b3f 0ba9 7b3f
00000040: 4233 7b3f 8541 7c3f d684 7b3f 2ecb 7b3f
00000050: ed69 7b3f d159 7b3f f5e8 7b3f 7f20 7c3f
00000060: aaa1 7b3f 507e 7b3f fa90 7b3f 58a8 7b3f
00000070: f5c9 7b3f 8348 7b3f 8b24 7c3f 87bb 7b3f
0.98458076 0.9825327 0.98280996 0.9819736 0.98320216 0.9825625 0.98375463 0.98219115
0.98235714 0.98352695 0.98850113 0.9823445 0.9845697 0.9834736 0.98369294 0.98304814
0.9812509 0.98537475 0.98249567 0.983569 0.98208505 0.98183924 0.9840234 0.98487085
0.98293555 0.9823961 0.9826809 0.9830375 0.98355037 0.9815752 0.9849326 0.9833302

batch1.bias f4 [32]
00000000: 74c5 3e3c 98b4 7138 8d92 fab9 47a8 ff3b
00000010: 6bb1 4abb cfc4 af3b 3c03 58bb ae13 21bb
00000020: b841 d03b 33e2 48bc bb41 3d3c 2d14 1a3c
00000030: 5119 0c3c 94d3 bebb a47b 053c 2415 033c
00000040: 0337 c43b 3baf cb3b 06be 93bb 513b 55bc
00000050: d227 ddb9 2532 7dbc 7a79 8fbb 13fd ce3a
00000060: 4e42 583c eb3f 4bbc a912 6c3c 84a5 c6bb
00000070: 2094 a93a 1003 f6bb 2d51 783c 771a b63a
0.011643756 5.762707e-05 -0.00047792905 0.0078020426 -0.0030928503 0.0053640376 -0.0032960912 -0.002457838
0.0063554905 -0.012260961 0.011551316 0.009404224 0.008550958 -0.005823562 0.008147154 0.008000646
0.005988003 0.0062159575 -0.0045087365 -0.01301463 -0.00042182073 -0.01545385 -0.004378495 0.0015791975
0.013199402 -0.012405376 0.014408746 -0.0060622115 0.0012937821 -0.0075076893 0.015156073 0.0013893385

batch1.running_mean f4 [32]
00000000: 7f3e cd3d ff59 ccbd 9595 0ebd 3456 80be
00000010: 47ac bbbd 2abe af3c e617 613d b8d1 3b3e
00000020: 6bab b5bc 5374 67be d3b7 81bd 5220 76bd
00000030: c9da c73c 01ef b3bd a47b 36bd dce7 a43e
00000040: 5cc7 0abe 3a2d 873d b4de 88bd 4115 943e
00000050: 6797 0cbe 76b5 8dbe c342 b9be 3240 c03d
00000060: c192 123e e5b3 e1be 7c75 473e 838b debd
00000070: 8a7e 083e 0566 10bd 190f ac3d 42f2 403e
0.10021686 -0.09978103 -0.03481062 -0.25065768 -0.09163719 0.021452982 0.054954432 0.1834172
-0.022176465 -0.22602968 -0.0633389 -0.060089417 0.024396317 -0.08785821 -0.044551507 0.32208145
-0.13552612 0.06600423 -0.06683102 0.28922465 -0.1372963 -0.27677506 -0.36183748 0.09387244
0.14313795 -0.4408256 0.1947841 -0.108664535 0.13329521 -0.035253543 0.08401317 0.18842414

batch1.running_var f4 [32]
00000000: 0ca8 0b3b 634c cb3c c04a 6b3b f78f 863c
00000010: 9dc2 fd3b 56c5 803b 0ee3 903b 1b7f 063c
00000020: 1765 5c3c 1c96 e93c 0d9e 5c3b e1c3 933c
00000030: a546 5b3b 588e ef3b c59f ef3b 5b08 ab3c
00000040: bea2 053c b083 a73b da90 423d 1a50 8b3c
00000050: 4afd fe3b 8f4f 393d 7292 223d fa20 983b
00000060: 6d0f af3c fbda 3b3d e4cf eb3c 9b84 e73c
00000070: 771f b53c a738 193c 2deb d83b 81c1 383c
0.002130988 0.024816697 0.0035902709 0.01642607 0.007744147 0.0039297743 0.0044215983 0.008209015
0.013451836 0.02851396 0.0033663542 0.018037738 0.0033458855 0.00731067 0.007312747 0.020878008
0.008156477 0.005112134 0.047501422 0.017005969 0.0077816593 0.04524189 0.039690442 0.004642603
0.02136966 0.045863133 0.028785653 0.028261473 0.02210973 0.009351886 0.006619832 0.011276604

conv3.weight f4 [32, 32, 1]
00000000: d905 c8bc 34f8 a5bd 5640 fcbd 2d72 23be
00000010: e869 b03d 9541 3b3d 7e83 01be 41fe c33d
00000020: 4bb8 26be fb09 133e 98de 8d3d a165 0fbe
00000030: dfbe 9abd 70f9 ab3c a330 ddbc 3d3e ddbd
00000040: e1a8 eebc 82e8 173e 32a6 80bd ad6c 6bbd
00000050: 6dcc c93b e271 ec3d 5594 1739 a4d8 abbd
00000060: 273c 8d3d 7330 dfbd 0347 23be efe8 82bd
00000070: ab49 0abe 93cf 0c3e 6bed fdbd a7b3 b93b
00000080: 6cad 79bd 438c d23d ccaf d5bc 1c88 a83d
00000090: 1500 c53c bbea debd 3d8e 87bd 99b7 1dbe
000000a0: 87f8 40bd cc36 e4bd fcc9 293d 2eb8 d43d
000000b0: 4d53 52bd e6c1 df3c da83 413d b9e0 803b
000000c0: 98c5 c83d f75b c13d 37c3 263d 5c28 c4bb
000000d0: d007 1bbd 9ca4 ec3d c260 8bbd ae48 303d
000000e0: c5f4 953d 2d2c 24be 179e 333d 6e15 70bd
000000f0: 497e 41bd dba9 eb3d 64cb 2abe 5f23 293e
00000100: b744 b3b9 ac7b 173e d02b a5bd bcfa a33d
00000110: e7a1 0cbe 7a27 033d a3a9 ad3d cb48 693d
00000120: a288 d23d 8c29 24bd 3222 003d 8c52 b43d
00000130: 1a1e 143e 8113 d4bd 5b3a 203e ac11 f33d
00000140: 77eb e43d bca9 363d d0e4 d0bc 7920 103d
00000150: bc11 393d 2d31 b43d ee33 213e 3b49 9b3d
00000160: 6252 f43d d6c1 94bc 884a 243e 174d 69bd
00000170: ab9f 073e e915 153b 9377 783d c0fa b9bc
00000180: cf12 823d d445 ad3d 1671 9f3d afb6 19bd
00000190: 8060 9a3c cd44 2e3d a590 26be 40ff 73bd
000001a0: a744 f33d cf22 853d 3734 053d 981b a9bb
000001b0: 1dd7 b73d 6583 80bd 830c f03d 5b49 123c
000001c0: 45a0 983d 1a20 ad3d 5809 9fbd 3e59 dbbd
000001d0: 2232 013e 3e1e ddbd 2191 06be c866 d33d
000001e0: 1b5a e2bc 7e30 09bd f03f da3c f946 633d
000001f0: d04e 043d 39d4 e1bd d233 3bbe 2b4c 1bbe
00000200: 12af 0e3e 0018 f93d 5a1e a43c 384f 0ebe
00000210: 2845 dbbd 9307 3a3d 6025 f7bd 6203 aebd
00000220: f3b0 b3bd 4955 93bc 4903 8b3d a589 15be
00000230: d35d bf3d 430c c3bd 6d40 333d b097 a9bd
00000240: 7572 1c3e c0ec b4bd 5584 1b3e f8f7 c83d
00000250: 005c e93d ac14 a6bd 22ba 743d fdd4 0b3e
00000260: e603 39bd 1e66 b1bd f050 103e ec63 19be
00000270: bbce f1bd 3d7a 893c d00d f13d 6fdb d9bd
00000280: 112a 4abd 86bd 61bd eabd bebc 7788 93bd
00000290: 0bc9 143d 94a9 1ebe a0ba e23d 4cd3 04be
000002a0: cd96 f53d ae54 78bc 5b3d 023e 4237 8fbc
000002b0: 60cc 0fbe 4a0a bbbb b5aa ef3b ed07 6bbc
000002c0: ef66 173e a199 e63d 2d8d c1bd 0d0b d1bd
000002d0: ee46 8cbd 0387 09bd 5f89 72bc cb31 09be
000002e0: c7c3 eb3d 77ba 92bd c5ff f53d 261f 803b
000002f0: 2d20 a33c 3248 7fbd 60d7 febd 4d2d a03d
00000300: 7963 1cbd a057 00be 2038 24bd 1325 6f3d
00000310: 8097 8abd cb7a eabd d0a0 01be 0c51 e6bc
00000320: 3d89 c63d 5ac5 96bd bc1e c4bd 96c9 68bd
00000330: b445 d33d 936d 09be 2035 0bbe 5b7d ddbd
00000340: e41d 8d3d f4d5 08be 5ea9 f0bd 047a a33d
00000350: d812 0cbd f57f a73d afec f6bd 1184 703d
00000360: 1d05 083e e07b d6bd a8c6 0ebe b899 07be
00000370: 8314 c33d cfb0 06be f09b abbd d33b 54bd
00000380: 1b3c ef3c a60f a3bc be7c 25be 3ddc d5bd
00000390: ce30 16be 06b9 893d afe1 d0bd 8c65 e1bd
000003a0: f180 04bd ef2f d3bd 45ba 233d c758 083e
000003b0: 011e 06bd d014 c3bc 0d95 d33d cd4b 1d3e
000003c0: 7287 c43d 8800 aabd 173b 32bd c6b3 c9bd
000003d0: a2b4 493d a1a1 dabc 40a4 2f3d ce48 91bd
000003e0: bacf 04be 33be 68bd 1dbe 113e 79ab 01be
000003f0: 4752 093e 33fc fa3d 6c1f c1bd dbbe d1bd
-0.02441685 -0.081039816 -0.123169586 -0.15961523 0.0861395 0.04571684 -0.12647817 0.095699795
-0.1628124 0.14359276 0.06927222 -0.14003612 -0.07555937 0.020992965 -0.02700073 -0.10802887
-0.029133262 0.14834788 -0.06281699 -0.05747669 0.0061584027 0.11545159 0.0001445574 -0.0839093
0.06896239 -0.10897913 -0.15945058 -0.06392085 -0.13504665 0.13751058 -0.123987995 0.005667168
-0.060956404 0.10280659 -0.026084803 0.08229086 0.02404789 -0.10884615 -0.06618927 -0.15402068
-0.047112014 -0.11143264 0.041452393 0.10386692 -0.051348973 0.027314138 0.047244884 0.003933039
0.09803313 0.09441369 0.040713515 -0.0059862565 -0.037849247 0.11554834 -0.068055645 0.043038063
0.07322077 -0.16032477 0.043851938 -0.058614187 -0.047239576 0.11507007 -0.1667915 0.16517399
-0.00034192737 0.14793271 -0.08064997 0.08006808 -0.13733636 0.03202007 0.08479621 0.056954186
0.10279967 -0.040078685 0.03128261 0.08804807 0.14464608 -0.103552826 0.15647261 0.11868605
0.11177724 0.044595465 -0.025499731 0.03518722 0.04518293 0.08798442 0.15742466 0.07582327
0.11929776 -0.018158834 0.16044056 -0.056958284 0.13244502 0.0022748655 0.06066091 -0.022702575
0.06351244 0.08460584 0.07785241 -0.037527736 0.018844843 0.042546082 -0.16266115 -0.059569597
0.11878329 0.0650078 0.0325205 -0.00516076 0.089765765 -0.062750615 0.117211364 0.008928622
0.07452444 0.084533885 -0.07765454 -0.10710381 0.1261678 -0.10796784 -0.131413 0.10322338
-0.027630856 -0.03349351 0.026641816 0.055487607 0.032301724 -0.110268064 -0.18281487 -0.15165775
0.13933972 0.12162781 0.020034004 -0.13897407 -0.1070655 0.04541738 -0.120676756 -0.08496739
-0.08773985 -0.017985003 0.06787736 -0.14603288 0.093440674 -0.09523823 0.043762613 -0.08280885
0.15278037 -0.08834219 0.151872 0.09812921 0.11394501 -0.081094116 0.059747823 0.13655467
-0.045169733 -0.086620554 0.14093375 -0.14979523 -0.11807009 0.01678192 0.11770213 -0.10637557
-0.049356524 -0.055112384 -0.023283917 -0.07203763 0.036324542 -0.15494376 0.11070752 -0.12971228
0.119916536 -0.015156908 0.12718718 -0.017482404 -0.14042807 -0.0057080137 0.007314051 -0.014345151
0.1478536 0.11259771 -0.09450755 -0.10207186 -0.06849466 -0.033576023 -0.01480326 -0.13397901
0.11511951 -0.071644716 0.12011675 0.003909963 0.019912804 -0.06232471 -0.12443423 0.078211404
-0.038180802 -0.12533426 -0.040092587 0.058384966 -0.067671776 -0.11449202 -0.12659001 -0.028114818
0.09694145 -0.073618606 -0.095761746 -0.056832872 0.10316029 -0.13420705 -0.13594484 -0.10814925
0.06890467 -0.13362867 -0.11751054 0.07982257 -0.03419766 0.08178703 -0.120568626 0.0587197
0.132832 -0.10472846 -0.13942969 -0.13242233 0.09525397 -0.13153385 -0.08379352 -0.051814865
0.029203465 -0.019904923 -0.16160867 -0.10442398 -0.14667055 0.067247435 -0.10199296 -0.11005697
-0.03234953 -0.10311877 0.039972562 0.13315116 -0.032743458 -0.023813635 0.103311636 0.15360947
0.09596147 -0.083008826 -0.043513384 -0.09848742 0.04924453 -0.026688399 0.04288125 -0.070939645
-0.12969866 -0.056822013 0.14232679 -0.12663068 0.13410293 0.122551344 -0.09429821 -0.10241481

conv3.bias f4 [32]
00000000: 1ddb b9bd 05df 27bd d59c cc35 0045 34b1
00000010: f22d 0bbe c780 c5bd 9c14 17be 618b 5ebc
00000020: 41bf 11be d67b 973c 19b8 d5bd 3e1d bb3c
00000030: a581 b43d 414d 31bc de93 ef3d ff8d 2ebd
00000040: 18b7 1f3c 99d9 34bc 6134 6cbd 89c6 013d
00000050: 1d3d 15be 652b 0ebe 2eb1 fb3d c463 23be
00000060: b623 203e 4496 1e39 5898 383c e728 c93d
00000070: 74d1 0abd 44e7 e33d 265b adbd c7dd eb3d
-0.09074996 -0.040984172 1.5244829e-06 -2.623267e-09 -0.13591745 -0.09643703 -0.14753956 -0.013583035
-0.14233114 0.018491667 -0.104355045 0.022841092 0.0881379 -0.010821641 0.11698125 -0.042615887
0.009748243 -0.011038207 -0.05766714 0.03168348 -0.14574094 -0.13883741 0.12289654 -0.15956026
0.15638623 0.00015124033 0.01126679 0.09822255 -0.033891156 0.11128095 -0.08464651 0.1151691

batch2.weight f4 [32]
00000000: 694e 7d3f f881 7c3f 3a90 7c3f 97e4 7b3f
00000010: f297 7c3f 9ddc 7c3f 1767 7c3f a71c 7d3f
00000020: 4c5a 7d3f 080a 7c3f b70f 7d3f 6bbe 7c3f
00000030: 003a 7b3f 4a77 7c3f 71d2 7b3f 1ac1 7c3f
00000040: 4f5d 7d3f 7b57 7d3f f50a 7d3f cbbf 7c3f
00000050: 45f3 7c3f a955 7d3f a104 7d3f 3cd9 7c3f
00000060: 584e 7c3f 78a2 7c3f 0c69 7c3f 8201 7c3f
00000070: 54bb 7b3f a7d6 7b3f 80a4 7b3f 76bb 7b3f
0.9894777 0.98635817 0.9865757 0.98395675 0.9866935 0.9877413 0.985948 0.98871845
0.9896591 0.98452806 0.98852104 0.98728055 0.98135376 0.9861952 0.98367983 0.9873215
0.989705 0.9896161 0.98844844 0.9873015 0.988087 0.9895883 0.9883519 0.98768973
0.98557043 0.9868541 0.9859779 0.984398 0.98332715 0.9837441 0.9829788 0.9833292

batch2.bias f4 [32]
00000000: b915 503c 3cf9 d13b 17d2 9cba 751f b8ba
00000010: 0391 023b 7494 a73b 395a b23a 21e1 f43b
00000020: 8744 9b3b da79 9e3a 6a36 853a a25c 09bb
00000030: 680d f0bb 283e 6b3a 6900 8abb 37fd 6c3c
00000040: cab8 d73b e54f 083c 9544 5b3c f20c 273c
00000050: 10e2 643c af0a 9c3c d571 9a3c f845 8e3c
00000060: 4b02 2c3c d459 4e3c d3ee 123c 840c 223c
00000070: 2097 043c 5a70 5f3c 96bd c13b 916f 113c
0.012700492 0.006407885 -0.0011964467 -0.0014047461 0.001992286 0.0051141325 0.0013607211 0.0074731265
0.0047383937 0.0012090758 0.0010163311 -0.0020959754 -0.007325817 0.00089738006 -0.0042114747 0.014464668
0.006583308 0.00831983 0.01338305 0.0101959575 0.013969913 0.019048063 0.018853107 0.017367348
0.010498594 0.012594659 0.008968073 0.009890679 0.008092672 0.013637627 0.005912493 0.008876697

batch2.running_mean f4 [32]
00000000: cd6b bfbd 7a7f 3abd 30b9 44bc eca1 5a3c
00000010: 219b 24be 714e c5bd 1d4d 1fbe 42dc ebbc
00000020: 1c14 11be fbab 2a3c c174 c2bd f806 083d
00000030: 517b c83d ba14 28bc 01dc 013e 470a 61bd
00000040: 5b62 0d3c 0963 d4bc ed10 97bd 4be6 c33c
00000050: 9fa5 1abe f16d 20be d595 ed3d 9481 34be
00000060: 377d 203e f37c 333c c2e2 43bc 2a4d e73d
00000070: 26a6 0ebd 154b c53d 429d a4bd 90cb e23d
-0.09346733 -0.045531727 -0.012007043 0.013344269 -0.16074802 -0.09634102 -0.1555676 -0.02879155
-0.14167827 0.01041698 -0.09494925 0.03320977 0.09789146 -0.010258848 0.12681581 -0.054941442
0.008629407 -0.02592613 -0.07376275 0.023913523 -0.15102242 -0.1566694 0.11600844 -0.17627555
0.15672766 0.010955083 -0.011955919 0.11294015 -0.03482642 0.096334614 -0.08037807 0.11073983

batch2.running_var f4 [32]
00000000: 79a0 bc3d 5dbb 143e 20a5 ff3d 0d8e 013e
00000010: ad2d 8c3e 550b 683e 9537 5c3e 4203 993e
00000020: fdfb 613e 5c55 033f feb0 963d 36ab 8e3e
00000030: 44ae 633f 82a2 763e 54ec 493e 17a0 603f
00000040: ee9b b73d 2cc5 f43d 0b67 a43e aee8 3f3e
00000050: 6935 433e 5097 ce3e d437 773e 4694 893f
00000060: 843b 453e bbb8 ea3e 3e46 7d3e 0bac 3f3e
00000070: 4d81 063f 1e5b 233e d0b1 6a3e 8d4b e23c
0.09210295 0.14524598 0.12482667 0.12651844 0.27378598 0.22660573 0.21505578 0.29885298
0.22068782 0.51302123 0.07357977 0.27865 0.88937783 0.2408543 0.19719058 0.8774428
0.08965288 0.1195167 0.32109866 0.18741104 0.19063343 0.40349817 0.2414239 1.0748374
0.19260985 0.45844063 0.24733827 0.18717973 0.5254105 0.15952727 0.22919393 0.027623916

LSTM.weight_ih_l0 f4 [256, 18]
00000000: 9987 cb3d 2221 5aba 45d2 0c3a 6233 c5bd
00000010: 064c b2bd dc90 b5bd 5360 99bd 9e45 10bc
00000020: 71c3 a93d 8f65 8abd 1455 a7bc 38fa dbbd
00000030: 4be9 dbbd 2ec9 bbbd 6a88 34bd 5716 cdba
00000040: bf96 df3b 9bf3 06ba 4712 84bd 2f76 b6bc
00000050: c4f6 cdbb 8dfd 00bc 4ef8 063c a926 96bd
00000060: 1a84 51bd ff06 d93b 03a7 dc3d 4046 213c
00000070: b0f2 e73c bf05 14bd faaa 973d 776b c9bd
00000080: 9dfb 78bd 3c3c ecbb f2fa 30bc 2c10 a0bd
00000090: e5c5 9f3d ed37 ebbb 824c 9bbd 7b7f 9e3d
000000a0: e944 4fbb 5ae4 be3d ebd6 5ebd 2a13 7b3d
000000b0: a69d 2fbd d91b 8b3d 36a6 b7bd 0d96 ef3c
000000c0: 36c7 633d 9edc f23c 8411 3a3d f2e0 a9bd
000000d0: a1a4 45bc 1c7f c43d ffa0 56bd 69d1 20bd
000000e0: efe3 443d 1a81 b53b 5dd2 6d3d 1d69 343d
000000f0: ad18 c03c d9c7 b53d 6b1e 8ebd 672e dfbd
00000100: 354f 7f3d 1e84 773d 6b43 dd3d 6cc6 c53d
00000110: c9bc 703b 1ab4 b5bc 49d4 d63d 1e1f ce3c
00000120: 161e c3bd 6e42 d8bd 3c0f 4dbc a6a0 8e3d
00000130: f6ef e1bc 06a4 99bd 1275 803b e332 e33d
00000140: 325b d7bd 26ae 77bd e96d 70bd defd 3ebd
00000150: dfe5 a0bd fc33 d23d 3880 8ab8 fefc 043b
00000160: 6c41 9fbd 996f af3c 313e c03a 1387 cb3d
00000170: a8ee 90bd 788f c5bd ad63 20bd 6976 cebd
00000180: b2d4 b23d a873 9dbc f425 9b3d 1c9e 943d
00000190: df91 ca3c 714e 84bc 3772 acbd fbaa b23d
000001a0: 30b3 ec3d 8860 a2bd 6e7e 183d ff2f 42bd
000001b0: 569f 72bd d771 d8bd 49ee 9c3d cf2c d7bd
000001c0: 3226 febc d520 3d3d ca59 9b3d c631 d93d
000001d0: 9c0d 49bd 427e a8bd 9967 dbbc ac6c 943d
000001e0: 25af 1a3c 4b75 9bbd 631d b53d 7502 e73c
000001f0: e247 84bd 9b53 a2b8 e904 d6bd 5543 a7bd
00000200: c744 fb3c bcd0 9f3c 5d63 3cbd 6a05 783d
00000210: 99d2 e4bd c86e 62bd ca10 573c 77b6 1abd
00000220: 1e7a 92bc b81e f4bd bc9a cfbd be12 8f3d
00000230: fd37 c53d 5b78 babd 3b7e 0d3d 34c8 cb3b
00000240: 9299 a7bd ff8b a23d 6003 4e3d fd8d e5bb
00000250: 42bf 3fbc 5c02 c53c d1a0 cc3d 6294 42bd
00000260: 913d 643d 362c d0bc 5ac5 cbbc b90a 7bbd
00000270: 250a aa3d 1cf8 1dbd 68a8 83bc a85d bf3c
00000280: 4b27 22bd 5f3f 853d b0d5 983d 2d8e e8bb
00000290: a6c0 74bd 95cc 82bb 16ef 9cbd 5b56 ed3b
000002a0: d771 8bbd c446 e93c cf1f 68bc 4227 ca3c
000002b0: 620e 92bd 81d2 85bd fc60 1cbd 8232 383c
000002c0: 7ebd efbc 583a 5dbd f00f 383d 943e 823d
000002d0: 2890 b63d 7a87 663c d7a1 893d 85bc a43d
000002e0: e9ef de3c 8c7d e33d b335 da3d 4dde b3bd
000002f0: 875d 583d d561 58bc b187 42bd 8941 4dbd
00000300: 516a df3b af29 c23d c6a3 f23d 01d4 97bd
00000310: 840f bc3d 6ece a43b f75a c13d e62e 0a39
00000320: 1a1c 843c fcec b5bc 4739 19bc 0361 85bd
00000330: 2fee bc3c b1ab cebd c971 963d 4fa0 cd3d
00000340: e593 833c 7717 ef3d 9c91 ee3d b4cb 08bd
00000350: bf1a a33b cc43 12bc 7eb7 40b9 a775 4bbd
00000360: bb7e 66bd a0c4 a0bd 9941 8ebd ea2c ffbc
00000370: b3db a4bd 478f c73d 54aa 56bd b390 acbc
00000380: cba6 db3d 62a8 b53d ac86 a33c 9431 603d
00000390: e736 d8bc a808 c8bd 1b0a 8c3d 87be b3bd
000003a0: 1c17 693d e652 aabd 3e59 c53d 7e25 8ebd
000003b0: 65c4 6ebd 60dc 633d 6d48 93bb 3ab5 4dbd
000003c0: 96c8 bebd 7cfa a3bd 4568 613b 461f 62bc
000003d0: 7401 4fbc de69 b23d cdfa cf3d e468 73bd
000003e0: ccb9 cd3d d1cb b9bc 55dd c73d b999 17bd
000003f0: d006 8f3d 465f 88bd 44b0 dfbd 0e10 abbd
0.099379726 -0.0008320977 0.0005371909 -0.09628941 -0.087059066 -0.0886552 -0.074890755 -0.0088056605
0.082892306 -0.06757652 -0.02042631 -0.10741085 -0.107378565 -0.09169231 -0.044075407 -0.0015646917
0.0068233903 -0.00051479944 -0.064487986 -0.022273151 -0.0062855203 -0.007872951 0.008237911 -0.073315926
-0.051151372 0.0066231485 0.107740425 0.009843409 0.028313965 -0.036138292 0.07405658 -0.098349504
-0.060786832 -0.007209329 -0.0108020175 -0.078155845 0.07801417 -0.0071782977 -0.07582952 0.07739159
-0.0031626767 0.09320898 -0.05440418 0.061297573 -0.042874955 0.06792421 -0.08967249 0.029246354
0.055609904 0.029646214 0.04542686 -0.08294858 -0.012063176 0.09594557 -0.05239963 -0.03926221
0.048068937 0.0055390717 0.058061946 0.044045556 0.023449266 0.088760085 -0.069393955 -0.108975224
0.062331397 0.06042873 0.108038746 0.096569866 0.0036733618 -0.022180606 0.10489709 0.025161322
-0.09527223 -0.105595455 -0.012515839 0.06964235 -0.027580243 -0.07501988 0.003920206 0.1109369
-0.10515441 -0.060468815 -0.05869857 -0.046628825 -0.078563444 0.102638215 -6.6042354e-05 0.0020292397
-0.0777615 0.021415519 0.0014666972 0.09937873 -0.0707677 -0.09646505 -0.03915756 -0.10081179
0.08731975 -0.019220188 0.07575598 0.072567195 0.02472776 -0.016150685 -0.08420222 0.08724018
0.11557615 -0.07928568 0.037229948 -0.047409054 -0.059233986 -0.10568588 0.07662637 -0.105065934
-0.031024072 0.04617389 0.07585485 0.10605197 -0.049085245 -0.08227207 -0.026782798 0.0724729
0.009441172 -0.07590731 0.08843496 0.028199414 -0.06459023 -7.740335e-05 -0.10450155 -0.081671394
0.030672444 0.019508712 -0.045993198 0.06055204 -0.11172981 -0.05528143 0.013126561 -0.03777167
-0.017880496 -0.11919922 -0.10136935 0.06985997 0.096298195 -0.09104987 0.03454421 0.0062189344
-0.08183588 0.079368584 0.050296187 -0.0070054517 -0.011703314 0.024048977 0.09991611 -0.04750479
0.055722777 -0.025411706 -0.024874378 -0.061289523 0.08302716 -0.038566694 -0.016071513 0.023360088
-0.039588254 0.06506228 0.07462633 -0.007097027 -0.059754036 -0.0039916732 -0.076627895 0.0072429604
-0.068088226 0.028476126 -0.01416774 0.024676923 -0.071316496 -0.06534291 -0.03817843 0.011242511
-0.029265162 -0.05401072 0.044937074 0.06359592 0.089142144 0.014070386 0.067203216 0.0804377
0.027214007 0.111079305 0.106547736 -0.08782635 0.05282357 -0.013206919 -0.047492687 -0.050111327
0.006818094 0.09480607 0.118476436 -0.074134834 0.09182647 0.005029491 0.09441178 0.00013178177
0.016126681 -0.02220773 -0.009352035 -0.06512644 0.023062794 -0.10091341 0.073459215 0.10040342
0.016061733 0.116743974 0.116488665 -0.03339739 0.0049775536 -0.008927297 -0.00018378903 -0.04967275
-0.056273203 -0.07850003 -0.069461055 -0.031149346 -0.08049717 0.09744125 -0.05240853 -0.021065092
0.107251726 0.08870007 0.019961677 0.05473478 -0.026393367 -0.09767276 0.06837865 -0.087765746
0.056906804 -0.08316593 0.09636162 -0.06940745 -0.058292765 0.055630088 -0.004494718 -0.05022166
-0.093156025 -0.080067605 0.0034394425 -0.0138014015 -0.012634624 0.08711599 0.10155258 -0.059426203
0.100452036 -0.022680195 0.097590126 -0.037011836 0.06983721 -0.06658797 -0.10922292 -0.083526716

LSTM.weight_hh_l0 f4 [256, 64]
00000000: 54fe d2bb a12f b6bc ff01 583c d389 9a3b
00000010: ca86 d3bc 5c31 813d 270a bc3d 6ae3 d5bd
00000020: a0a7 fcbc 88de 46bc c5b2 973c f5db 993c
00000030: 1c57 44bc 6b23 a93d 276e a53d ff88 a4bc
00000040: f5cf bbbd ee58 883c e9f4 bc3d dc19 b23d
00000050: 8c7c 8e3d c549 943d 6f4d ca3d 058b 70bd
00000060: 6fb1 38bd 9dc5 f03c 36ea 7cbd ca01 1ebd
00000070: f336 8d3c a3e7 92bd ce87 7abd 7952 82ba
00000080: dc84 91bd 0e30 7dbd ccf9 d4bb 99c4 b83d
00000090: cb58 6d3d d2d9 333c c54e c6bd 324f ca3d
000000a0: 7273 66bc a14a 823d cb39 713d dd1c 9b3d
000000b0: 22f1 c13d a8bc dbbd abbc 173d c69c bf3d
000000c0: 15d4 dc3d 1ad3 443c a1be babd 076a 553d
000000d0: ca89 db3b a05c f938 e41b 31bd 8953 fd3c
000000e0: d525 503c 8041 92bd 2be9 913d edb7 55bd
000000f0: f236 d5bd 192d 8b3d 676c d8bc 8526 99bd
00000100: 0796 303c b5e3 ce3d 76ee cdbd ff1e afbd
00000110: 1313 443d 0625 153d 1995 a23d c058 01bd
00000120: 7930 8e3d 0ea1 1ebd 718e 82bd 7986 013c
00000130: 9c80 9b3c 68de abbd 0bb1 e03c c8b5 fa3c
00000140: 8f74 a7bb da62 fd3c 99c1 c8bd 2d97 9c3c
00000150: 657e 1e3d e320 d8bd 3d80 c33c bb96 c3bc
00000160: 50b3 743d 90e8 91bd 4c4d da3d 8738 c43d
00000170: 0418 d43c b6ca c13c ae1a c03d ba8e 343d
00000180: 4144 cdbd 6e5d d9bd 9a0a b93d 9f72 6dbd
00000190: 8e44 0e3d af28 1a3d 5eb9 eabb 5710 c83a
000001a0: c971 2bbd 406a 653d c8d0 c73d b16e 9d3c
000001b0: 2a9e da3d f634 0a3c 1531 9fbd a80d d8ba
000001c0: e562 c2bd 3cea d4bc dfd4 b83d 2c91 ad3d
000001d0: 0503 b0bb 3b12 c3bd e647 d3bd f84c f83c
000001e0: 6173 f3bb 5bf5 11bb 355c 81bd d6a9 0ebd
000001f0: 2aef 92bc 9703 61bb 3eb7 15bc f9c3 b53d
00000200: e375 2bbc f904 4e3c dd5d c43d b59f c7bd
00000210: c481 86bc 642e 963c 4cc1 1ebd 84de 113d
00000220: 78fe 30bc 080b 243c a70d 9b3d 9399 b93d
00000230: 95b9 1cbc 09ea a93c 9f9a a1bc 4975 df3d
00000240: 4edd 3f3b 79a2 8d3d b0a2 ce3b 15a6 59bd
00000250: ea99 c23d 68fc a8bd 04d2 4abc bd2a eabc
00000260: 2a8d 89bc 116d 54bd 1462 773d ec6d 8c3d
00000270: 3e78 513d 96f8 793d e1cb 5e3c 7b01 dc3d
00000280: 9447 bc3d e641 883a df6f 963d 014c a63d
00000290: 9c9c 183d 9bb8 a1bd d9be c3bc 7d48 8c3c
000002a0: ad2e cebc a204 c03b 0322 87bd 570a 72bd
000002b0: c3b4 263d 4fbc 9dbc cf28 103c 57e7 973c
000002c0: ec13 aebc 8c50 a0bc 8902 69bd 429a 303c
000002d0: 1415 5b3a 2de8 333d 3c34 dbbd e243 45bd
000002e0: 6d39 c53b 3a47 aebb 1ff3 023c 6acc 91bd
000002f0: b8d6 9cbd f0f6 77bc 7290 4fbd d98e b0bd
00000300: 0498 be3d 5c4a ad3b b674 fcbc 841c 80ba
00000310: 740c 5d3d 16a7 cbbd 89cf bcbd 51b5 aeba
00000320: ec27 87bd 9bc7 433d d65b 12bb 043e 303d
00000330: 5be9 f23c 90c7 02bc 7a27 dbbd 4619 b43a
00000340: ba8b 6f3d f12d 143b dc34 db3d d8a4 55bd
00000350: c9f3 35bd aae4 92bd 5f23 c6bd 4fdf dc3d
00000360: 85ce 83bc 2c03 f43c 910a 09bd ae6a 853d
00000370: 6cb5 9b3c 83d6 2d3d 4b32 a9bd a669 7f3d
00000380: b90a 0a3b f393 713d eee2 a33d 4f0a b3bc
00000390: 712e c3bd 2f83 e5bc 1514 d0bd 3cf1 0c3d
000003a0: 3038 62bd f476 a33d c0ba bdbd 901e 843c
000003b0: fd57 28bd dcdf 8bbd 6499 98bd 0051 5abb
000003c0: 10f5 b3bd 19a4 3cbb 99c4 733c 92af ae3d
000003d0: 49ba b83d 015f 943d 262d 0a3b 119b 803d
000003e0: dbdc 823c 9087 c3bb 3b0a d33d c926 88bd
000003f0: 0a47 733c 4176 9abc 4893 12bd bf84 333b
-0.0064390097 -0.022239508 0.01318407 0.004716137 -0.025821108 0.06308243 0.09181624 -0.104437664
-0.030841649 -0.0121380165 0.018517861 0.018781641 -0.011983659 0.082587086 0.080776505 -0.020084856
-0.09170524 0.016643967 0.092264004 0.086963385 0.06957349 0.07240633 0.098780505 -0.05872633
-0.04509109 0.029391104 -0.0617468 -0.038575925 0.017238116 -0.071730874 -0.06116467 -0.0009942792
-0.07105419 -0.061813407 -0.0064995047 0.09021873 0.057946008 0.010977225 -0.09682993 0.098783866
-0.01406561 0.063618906 0.058893006 0.075738646 0.094698206 -0.10729343 0.037045162 0.09356074
0.10782639 0.012013221 -0.09118391 0.05210307 0.0066997753 0.00011890498 -0.04323949 0.030923622
0.012704332 -0.071413994 0.071245514 -0.05217736 -0.104108706 0.06795711 -0.026418878 -0.0747805
0.010777957 0.101020254 -0.100552484 -0.08550834 0.047869753 0.03641226 0.07938594 -0.03157878
0.06942839 -0.038727812 -0.06374825 0.007905596 0.018982224 -0.0839203 0.02742817 0.030604258
-0.0051103304 0.030930925 -0.09802551 0.019115055 0.038694758 -0.10553148 0.02386486 -0.023875585
0.05974132 -0.07124436 0.106592745 0.09581094 0.025890358 0.02365623 0.09380089 0.044081427
-0.10022784 -0.106135234 0.09035225 -0.05797064 0.034733348 0.037636455 -0.007163211 0.0015263659
-0.04185656 0.05600953 0.09756619 0.01921782 0.10674699 0.008435478 -0.077730335 -0.0016483562
-0.09491519 -0.025990598 0.09024977 0.08474955 -0.0053714537 -0.095249616 -0.10316448 0.030310139
-0.0074295257 -0.0022271487 -0.06316415 -0.034829937 -0.017936308 -0.0034334415 -0.009137927 0.088752694
-0.010465118 0.012574428 0.095882155 -0.097472586 -0.016419299 0.018332668 -0.03875856 0.035612598
-0.010802858 0.010012396 0.07570963 0.09062495 -0.009565731 0.02074148 -0.01972705 0.10911042
0.0029276195 0.06915755 0.006306015 -0.053136904 0.09502013 -0.08251268 -0.012379173 -0.028584832
-0.016790945 -0.051861826 0.06039627 0.068569034 0.051140063 0.061028086 0.013598413 0.1074247
0.0919334 0.0010395616 0.073455565 0.08119965 0.03725873 -0.07896539 -0.023894714 0.017124409
-0.025168741 0.0058599273 -0.06598284 -0.059091892 0.04069973 -0.019254832 0.008798792 0.018542929
-0.021249734 -0.019569658 -0.056887183 0.010778965 0.0008357328 0.043922592 -0.10703322 -0.04816044
0.0060188086 -0.0053185495 0.007992535 -0.07119067 -0.07658142 -0.015134558 -0.050674863 -0.08620996
0.093063384 0.0052884053 -0.03081737 -0.0009774123 0.053966954 -0.099439785 -0.09219272 -0.0013329183
-0.06599411 0.04779778 -0.002233257 0.043027893 0.029652288 -0.00798215 -0.10700889 0.0013740442
0.058482863 0.002261039 0.107034415 -0.05215916 -0.044421945 -0.071725205 -0.09674715 0.1078478
-0.016089687 0.029786669 -0.033457343 0.06514488 0.019007407 0.042440902 -0.08261546 0.062356614
0.002106352 0.058978986 0.08002268 -0.021855501 -0.09530342 -0.028016655 -0.1016008 0.034409747
-0.055229366 0.07981673 -0.09264135 0.016127855 -0.041099537 -0.06829807 -0.07451132 -0.003331244
-0.08786976 -0.0028784333 0.0148784155 0.08529581 0.09019906 0.07244683 0.002108404 0.062795766
0.015974453 -0.005967088 0.10304686 -0.06648023 0.01484848 -0.018855216 -0.03578499 0.0027392355

LSTM.bias_ih_l0 f4 [256]
00000000: 2bc4 be3c 311e 6f3c c9dc 52bd 22d0 1f3d
00000010: 953a 083d 70fe 773d 00f9 b9bd 8e9a 67bd
00000020: 8d0c 103d 3c79 823d f549 88ba 895c 15bd
00000030: 50e6 8c3d 747f dbbd e651 7abd 7787 3cbd
00000040: 8167 be3d 0744 b9bc ac4e d0bd a921 203b
00000050: eec8 8fbd a725 afbd 218e 9ebc c7a2 a0bb
00000060: b3a8 8c3d 1410 113d c5ef 98bd c874 983d
00000070: 5c71 a4bc f5be 76bd 1f4f 9d3d 050a 823d
00000080: 489f 883d b13b e5bc 107a 58bc 2f54 033d
00000090: 4f89 423d 3781 9c3d f286 0bbd eb4a 553d
000000a0: 1239 d3bd cfba 6a3c 1283 66bd 917b 503d
000000b0: ab37 143c 68db 083d 920c ad3c 5e91 85bd
000000c0: 8626 813d a93f 02bd ea20 cfbd bab8 5abc
000000d0: 11fc c73d b14f 38bd 2152 c7bd 0a86 2d3d
000000e0: d6f8 293d 59ea e8bc 6bd6 8b3d 441f c6bc
000000f0: 0b7b d83d 28d0 90bd beb3 8d3c 1968 313b
00000100: 78b8 5ebd 0591 3e3c ca1d babd e35c c5ba
00000110: def2 7b3c 484b 993c 76b4 e4bd 53f4 a83d
00000120: 5535 d9bd dd28 80bd e8a1 873d 7ad1 913d
00000130: 96ba 853c 2c50 a43c 9f54 d33d 5d3b bc3c
00000140: 2e8d f4bc 1e9f bebd d81a 4fbd d5d9 28bc
00000150: cf1d 173d 5388 c9bc 1ffd b63d 73f6 d03d
00000160: 4d2d 56bd d9ea 26bd 6215 37bd e5ab cfbd
00000170: e398 cf3d 47b2 573d 2beb b63d ed7b 2d3c
00000180: 1ce4 99bc 3c33 4d3d 44f9 e33d 9704 f93d
00000190: 1624 a53d 2607 0a3d d106 80bd 9d89 023c
000001a0: 49ff 5bbd 7a81 95bd c9e4 bc3d 6368 f83c
000001b0: fc19 9fbd fd29 d93d 0684 4e3d 41f0 9e3b
000001c0: 78ba 95bd a729 adbd 679b 723d 2837 59bc
000001d0: e72f 613c 592f 7a3c db01 f93b a4ad d53d
000001e0: 25c8 d93b fcbd 1b3d c459 b73d 66f7 d03d
000001f0: c6d7 043e db1e dbbd bf84 7dbd ccc8 d6bc
00000200: f564 c0bd d157 84bc 0a6b b4bc 5a3d 70bd
00000210: d87c 98bd 0327 e7bd d7ef 783c 7294 c2bd
00000220: ca24 3c3c 6cd0 a2bc b652 d2bd 896d 7fbd
00000230: 8111 82bb ba28 e33d b938 2bbc 87ff db3c
00000240: 20bf 2a3d a523 acbd 6c1a 7fbd f6a9 ab3d
00000250: 43c8 0fbd f7b0 ca3d 7b4b 8f3c 6097 cbbd
00000260: d811 8d3d 5616 93bb b44f 0ebc 89d5 553d
00000270: 2a47 7abd a650 4ebd 3f53 c8bd 5694 d13c
00000280: 8b6d 903d a5dd 383d e1f5 9fbd b99f 523c
00000290: 9247 ebbd bf20 883d 4d57 a9bd 9bc9 a73d
000002a0: a9e1 a73d 161c 9e3c 64a3 72bd 03b6 273b
000002b0: 819a 34bc ae3f 873d e4be 3bbd e63d b23d
000002c0: 5ae7 593c 7d70 b1bd 93b5 aabd c7ef eebd
000002d0: bf6b 43bc 9129 08bd 0396 923d fc81 b6bd
000002e0: c568 cabd 7e3b bc3d 5812 5e3d 963a a53c
000002f0: 8d33 c43a 98c4 a4bd a657 0cbd 148a 85bb
00000300: 86f1 823c aec0 2dbd 447e c73b abf0 8dba
00000310: 0eda 8dbd 7d88 f23c 9459 ae3d 684e 823d
00000320: 5ee8 a03c 25a4 363d 817f aa3b 3c41 c93d
00000330: d922 a7bc 7edd 77bd 3b17 43bd 9b03 763d
00000340: 530f 913d cf2a 22bc 617b 883c 106d 38bc
00000350: 91de ba3c 431a 033d 199f 20bc 147d b73d
00000360: 86a1 a6bc 0103 82bc 0388 af3b d7bd 5a3d
00000370: af5e 26bd bc96 d4bd 8ee5 5ebd e5c2 d3bd
00000380: 99cf a33d 54d8 30bc e6cd 793d 00f9 6cbd
00000390: d876 f73d 1f12 d03d 6029 36bd a68b 843d
000003a0: 979d d13d ee89 b6ba 0978 d1bd 0c91 2abc
000003b0: d83b a7bb ee88 543d 0956 043d 83df c23d
000003c0: 47ca 26bd 2177 943d 1022 ae3d 26ee a43d
000003d0: 2200 893d b8e3 f83c 80cf c1bd 782a 61bd
000003e0: d5fd adbc 7972 af3d a5b9 07bd ddd1 9a3d
000003f0: a78b 053e 670c ce3d e485 da3d d4fc b2bd
0.0232869 0.014594601 -0.05148009 0.03901685 0.033258993 0.060545385 -0.09080696 -0.05654388
0.03516822 0.0637078 -0.0010398017 -0.0364652 0.06879866 -0.10717669 -0.06111326 -0.046027627
0.092970856 -0.022615446 -0.101712555 0.0024434126 -0.07020746 -0.085521035 -0.019354882 -0.004902217
0.06868114 0.035415724 -0.074676074 0.07444149 -0.020073585 -0.060240705 0.07681107 0.06349567
0.066710055 -0.027982565 -0.013212696 0.032062706 0.04749423 0.07641833 -0.03406424 0.0520734
-0.1031362 0.014326765 -0.056277342 0.050899092 0.009046475 0.033412367 0.021124158 -0.06521867
0.06306176 -0.031798992 -0.101137 -0.013349706 0.09764875 -0.044997875 -0.09732462 0.042364158
0.041497074 -0.028432058 0.06828006 -0.02418483 0.105703436 -0.07070953 0.017297622 0.0027070104
-0.05437514 0.011631255 -0.09087713 -0.001505759 0.015377728 0.018712655 -0.11167233 0.08249726
-0.106058754 -0.06257794 0.06622678 0.071200326 0.016324323 0.02005776 0.103188746 0.022977525
-0.029852476 -0.09307693 -0.05056271 -0.010305841 0.036893662 -0.024601137 0.08934998 0.102032565
-0.052289296 -0.040751312 -0.044698127 -0.10140208 0.10136583 0.052660253 0.089315735 0.010588628
-0.018785529 0.05009769 0.11131528 0.121590786 0.080635235 0.033698224 -0.062513 0.00796738
-0.053710256 -0.07300086 0.09223325 0.030323213 -0.07768628 0.10603712 0.050418876 0.004850418
-0.07310957 -0.0845521 0.059230234 -0.013257779 0.013744331 0.015270078 0.007599098 0.1043351
0.0066461735 0.03802298 0.08952668 0.102034375 0.12972936 -0.106992446 -0.061894175 -0.026218794
-0.09394256 -0.016155155 -0.022023696 -0.05865226 -0.07445687 -0.11286738 0.015193901 -0.0950097
0.011483381 -0.019874774 -0.10269682 -0.06236032 -0.003969372 0.11091752 -0.010450535 0.026855243
0.041686177 -0.08405236 -0.062281057 0.08382027 -0.035103094 0.098970346 0.017492047 -0.09940982
0.06888169 -0.0044887466 -0.008685995 0.052205596 -0.061103024 -0.05036988 -0.09781503 0.025583427
0.07052144 0.04513325 -0.078105696 0.012855464 -0.1148826 0.06646871 -0.082686044 0.0819275
0.08197338 0.019300502 -0.059237853 0.0025590665 -0.011023165 0.06603943 -0.045836344 0.087032124
0.013299787 -0.086640336 -0.08335414 -0.11666828 -0.011927544 -0.033242766 0.07157519 -0.08911511
-0.098832645 0.09191035 0.054216713 0.020169538 0.0014968977 -0.0804531 -0.034263276 -0.004075298
0.015984308 -0.04242008 0.00608805 -0.0010829171 -0.06926356 0.029606098 0.085131794 0.06362611
0.019642051 0.044590134 0.005203188 0.098268956 -0.020402359 -0.060513966 -0.047629576 0.060062032
0.07083001 -0.009897902 0.016660394 -0.011256471 0.022811206 0.032007467 -0.009803557 0.08959404
-0.020340692 -0.015870573 0.00535679 0.0534037 -0.04061764 -0.10380313 -0.05441814 -0.103399076
0.079985805 -0.010793764 0.060987376 -0.057854652 0.120832145 0.10159706 -0.044473052 0.06471948
0.10235136 -0.0013926604 -0.10227973 -0.010410558 -0.0051035695 0.0518884 0.032308612 0.09515288
-0.04072025 0.072492845 0.08502591 0.08053236 0.066894785 0.030382022 -0.094634056 -0.054972142
-0.0212392 0.08566756 -0.03313603 0.075595595 0.13041554 0.10060959 0.10670069 -0.087396294
