Code/CNNLSTM/CNNLSTMModelOutputs/newTLbest_model.pth (torch, 426124 bytes, 27 tensors)

conv1.weight f4 [64, 5, 2]
-0.008333403 0.0033292442 0.0057827327 -0.016825203 0.013301658 -0.016729373 -0.0010811207 0.022042809
0.040624343 -0.04141247 -0.020543694 -0.055135075 0.028867207 0.04365332 -0.050966162 -0.024261445
0.044215854 -0.029340733 -0.040317833 0.068976365 -0.032612298 5.4030235e-05 0.02658492 0.009021441
-0.024280824 0.022467576 0.019308576 0.0016268549 -0.015156793 -0.006624896 -0.03680239 0.02000378
-0.010498157 0.06060405 -0.037364792 -1.3222434e-05 -0.034422215 -0.022146996 -0.0011906696 0.03155879
-0.0027585514 0.008840349 -0.005886465 0.006205126 -0.008241426 0.0017811017 -0.009073213 0.005898729
0.01254687 -0.012648278 -0.0604777 -0.020712301 -0.022642605 -0.048214376 0.04062113 -0.029329283
0.0018846862 -0.0125854025 0.022002311 -0.02022182 0.0014447352 -0.0017952938 -0.00044730506 -0.0009106106
0.00013704314 0.00034846153 -0.0022480234 0.0020844336 -0.01055306 0.0045582 0.0019929823 -0.00094435574
0.000118812386 0.008468767 -0.01940016 -0.0008375535 -0.03046756 -0.0050842003 -0.051208835 0.014128545
0.0034694464 4.4665518e-05 0.006063125 -0.002123701 0.00013496894 -0.008865748 0.0035937335 -0.00014866823
-0.014247463 -0.0017366799 -0.03334809 0.044949338 -0.058432315 -0.011375142 -0.050512966 -0.0063534784
0.011817399 -0.039607756 -0.009131812 -0.028521989 -0.002110364 -0.00010583725 -2.3633918e-05 -0.0034785816
0.0020325552 -0.0066820136 0.0048816097 -0.00768995 0.026138145 -0.013889152 0.048272196 -0.049793303
0.02551398 -0.0027433564 0.010214252 0.014466372 0.019663258 -0.0013140681 -0.0099823 -0.006436533
-0.004027781 -0.0033153 0.0033077525 0.00092277245 0.002533617 0.0006837444 0.014302854 0.0028008607
0.028655365 -0.0017490942 0.030546933 0.0056485934 -0.025376704 -0.018546702 -0.010233132 0.008080739
0.005876231 0.0021759262 -0.015504614 -0.0155315865 -0.0034226968 0.008952522 0.012826743 -0.017483361
0.020937767 0.0022992378 -0.017529184 -0.028155813 -0.025412703 0.044707432 -0.0027438723 0.0006713893
8.939478e-06 -0.002986755 0.0011628192 -0.0060725594 0.0043073487 -0.007211382 0.025260972 -0.012315931
-0.0029068817 0.00048950966 0.00022540631 -0.001968372 0.0025848795 -0.0055925217 0.00449554 -0.006241711
0.02432826 -0.013261596 -0.001972186 0.0005833321 0.00050472154 -0.0032180245 0.0026895453 -0.006844056
0.006628559 -0.0070698713 0.028820688 -0.014835731 -0.014573415 0.0075983605 -0.005135218 -0.0010619203
-0.008579667 0.008817632 -0.01141542 0.008337553 0.030045964 -0.01809567 -0.05174896 -0.08082446
-0.03769835 0.052924026 0.04023725 -0.0075612427 -0.070352525 0.032540254 0.06689716 -0.043993287
0.018336449 0.034143932 -0.055233277 0.025946314 -0.021697847 -0.010225247 -0.010744291 0.0074959197
0.026441297 -0.0010593846 0.0009890349 -0.0016063068 -0.00085878297 -0.0011307574 0.0020510743 -0.00031708583
-0.0013576734 0.0013104853 -0.0091711255 0.0036633871 0.020071082 -0.0022495207 -0.016955364 -0.01580406
0.01803017 -0.0090608355 0.001119823 -0.008111349 -0.019847631 0.026005657 -0.066475965 -0.01784449
0.09456709 -0.11614206 0.020787181 0.06962434 0.0440837 0.06805913 0.07644172 0.1514798
-0.0051497314 -0.002519463 0.035561595 0.006990626 -0.018741967 -0.01061344 -0.031845205 0.010323702
0.03667478 -0.029165363 0.00022651163 5.1397175e-05 -0.00028950413 3.9654755e-05 0.00021234957 2.0305088e-06
00000000: d388 08bc 732f 5a3b 147d bd3b 02d5 89bc
00000010: 33ef 593c 0a0c 89bc 64b4 8dba 1f93 b43c
00000020: b665 263d 1fa0 29bd 404b a8bc 51d5 61bd
00000030: ec7a ec3c d3cd 323d e5c1 50bd f0bf c6bc
00000040: af1b 353d fa5b f0bc 5024 25bd 7b43 8d3d
00000050: 7994 05bd 869e 6238 9ec8 d93c abce 133c
00000060: 94e8 c6bc ec0d b83c 052d 9e3c 313c d53a
00000070: 3354 78bc a815 d9bb 1abe 16bd f8de a33c
00000080: 7600 2cbc f43b 783d d30b 19bd ecd5 5db7
00000090: 4ffe 0cbd 9e6d b5bc 3e10 9cba ca43 013d
000000a0: d0c8 34bb 1cd7 103c 3fe3 c0bb 5f54 cb3b
000000b0: 0c07 07bc db73 e93a d0a7 14bc 204a c13b
000000c0: 6391 4d3c b93a 4fbc 77b7 77bd d8ac a9bc
000000d0: fc7c b9bc 707c 45bd 5862 263d f743 f0bc
000000e0: 9307 f73a 0133 4ebc 313e b43c 3ba8 a5bc
000000f0: 455d bd3a 1050 ebba 4584 eab9 0bb6 6eba
00000100: 3db3 0f39 b7b1 b639 9353 13bb fe9a 083b
00000110: bee6 2cbc f45c 953b b29c 023b a48e 77ba
00000120: ea2a f938 95c0 0a3c 16ed 9ebc 448f 5bba
00000130: 1b97 f9bc 5d99 a6bb 5bc0 51bd 6a7b 673c
00000140: a75f 633b 3c57 3b38 2ead c63b ca2d 0bbb
00000150: 7386 0d39 a441 11bc d884 6b3b d3e3 1bb9
00000160: 316e 69bc 4fa1 e3ba 0298 08bd cc1c 383d
00000170: b956 6fbd ce5e 3abc afe6 4ebd d730 d0bb
00000180: c49d 413c be3b 22bd 989d 15bc f2a6 e9bc
00000190: 084e 0abb f1f4 ddb8 7441 c6b7 eaf8 63bb
000001a0: 9e34 053b cbf4 dabb e9f5 9f3b fafb fbbb
000001b0: aa1f d63c 538f 63bc 11b9 453d 10f4 4bbd
000001c0: b202 d13c e2c9 33bb ae59 273c 5d04 6d3c
000001d0: d714 a13c cf3c acba cd8c 23bc 8de9 d2bb
000001e0: 7afb 83bb 8145 59bb e1c6 583b 36e6 713a
000001f0: 0a0b 263b 4f3d 333a 8556 6a3c a58e 373b
00000200: a8be ea3c dd41 e5ba 903d fa3c d617 b93b
00000210: cee2 cfbc 41ef 97bc dea8 27bc 1365 043c
00000220: 668d c03b fc99 0e3b 1107 7ebc 3278 7ebc
00000230: 534f 60bb 99ad 123c 4227 523c 4439 8fbc
00000240: ae85 ab3c cfae 163b 5d99 8fbc 05a7 e6bc
00000250: 4d2e d0bc 241f 373d 8ad2 33bb 2c00 303a
00000260: c4fa 1537 6fbd 43bb bd69 983a 52fc c6bb
00000270: a924 8d3b 754d ecbb 19f0 ce3c c2c8 49bc
00000280: 6281 3ebb 7052 003a 0c5b 6c39 cdff 00bb
00000290: 1567 293b 7941 b7bb 534f 933b 4487 ccbb
000002a0: 0f4c c73c 2a47 59bc ca3f 01bb c1ea 183a
000002b0: 4a4f 043a 7ee5 52bb 1543 303b 1a44 e0bb
000002c0: 6234 d93b 61aa e7bb 5d19 ec3c 9111 73bc
000002d0: 55c5 6ebc abfb f83b 5545 a8bb 2230 8bba
000002e0: bb91 0cbc d477 103c be07 3bbc 3b9a 083c
000002f0: f422 f63c 5f3d 94bc b8f6 53bd 4b87 a5bd
00000300: 9669 1abd ddc6 583d d1cf 243d 4dc4 f7bb
00000310: fc14 90bd ee48 053d 6101 893d 4e32 34bd
00000320: 5236 963c 82da 0b3d 4a3c 62bd 5d8d d43c
00000330: afbf b1bc cb87 27bc d308 30bc 55a0 f53b
00000340: 6b9b d83c 0cdb 8aba 81a2 813a b68a d2ba
00000350: f31f 61ba ec35 94ba 516b 063b 8a3e a6b9
00000360: f6f3 b1ba 97c4 ab3a 7d42 16bc 7015 703b
00000370: 1c6c a43c b26c 13bb fae5 8abc 8477 81bc
00000380: 02b4 933c e673 14bc 06c7 923a 77e5 04bc
00000390: 8097 a2bc d109 d53c 8d24 88bd 9c2e 92bc
000003a0: 64ac c13d e3db edbd e149 aa3c 3597 8e3d
000003b0: 1c91 343d 9662 8b3d 7a8d 9c3d 851d 1b3e
000003c0: 14bf a8bb 931d 25bb 09a9 113d 9f11 e53b
000003d0: c188 99bc fee3 2dbc 1e70 02bd bf24 293c
000003e0: 4b38 163d 33ec eebc c183 6d39 4c93 5738
000003f0: 96c8 97b9 f852 2638 27aa 5e39 e043 0836

conv1.bias f4 [64]
-0.002053002 -0.072585605 0.003022189 -0.05505087 0.009820651 -0.06634938 0.0015575194 0.015905261
0.007263177 0.019190801 -0.0025426522 0.004879145 -0.0077574803 0.015591719 -0.011365444 -0.0023832922
-0.0052857865 -0.0020665848 0.008302041 0.06941549 -0.058067717 0.0012929682 -0.074622124 -0.048151102
0.034061145 0.00029481773 -0.014826877 0.010999894 0.0073241787 -0.004121426 0.012493304 -0.05948051
-0.025304798 -0.05769499 -0.002090264 -0.005330358 0.0016732774 -0.0058309864 -0.06881213 -0.0021695432
-0.0026379665 0.014622382 0.0036361471 0.0266184 0.02878679 0.0022039034 0.002406513 0.009864033
-0.01925358 0.006460888 -0.0050839223 0.0037696452 0.0013153196 0.032729384 0.026800359 -0.023730885
-0.010325521 -0.03663692 -0.020981755 0.000112046895 0.0019992015 0.0403347 0.019116383 -0.012382429
00000000: a88b 06bb c3a7 94bd eb0f 463b 057d 61bd
00000010: cce6 203c 2fe2 87bd ae25 cc3a c04b 823c
00000020: f2ff ed3b 0736 9d3c a0a2 26bb 3ce1 9f3b
00000030: 7632 febb 6974 7f3c 2136 3abc 0231 1cbb
00000040: 6434 adbb 8a6f 07bb 4905 083c b529 8e3d
00000050: 6ad8 6dbd d078 a93a 7cd3 98bd 173a 45bd
00000060: b383 0b3d c491 9a39 6eec 72bc e638 343c
00000070: aaff ef3b 070d 87bb b7b0 4c3c d6a1 73bd
00000080: 024c cfbc 9551 6cbd d0fc 08bb 49aa aebb
00000090: df51 db3a dc11 bfbb 60ed 8cbd e52e 0ebb
000000a0: bce1 2cbb b792 6f3c 6d4c 6e3b d50e da3c
000000b0: 46d2 eb3c 5d6f 103b 97b6 1d3b c19c 213c
000000c0: afb9 9dbc dbb5 d33b 0897 a6bb 270c 773b
000000d0: cd66 ac3a 3f0f 063d 6d8c db3c 4667 c2bc
000000e0: 602c 29bc 9810 16bd eee1 abbc b8fa ea38
000000f0: 0905 033b 0036 253d f699 9c3c acdf 4abc

conv2.weight f4 [32, 64, 1]
0.0055377865 0.0059599928 0.00044429008 -0.0018316347 0.0006948278 0.015480833 -0.00095229613 -0.0010477437
-0.00048054554 -0.004158681 0.0037147256 0.004604214 0.0043148217 -0.002162471 -0.002440054 0.0035086863
0.0033551208 0.0041549862 0.0013176504 -0.001895811 -0.0031467688 -0.0007193746 0.0070349537 0.0060430802
0.0010610613 -2.9145733e-05 0.001745315 -0.00065769284 9.0599686e-05 0.0008705439 -0.0024634744 -0.012713265
0.014960011 -0.0028246883 0.0041295723 0.003212293 -0.0010177734 0.0035570045 -0.00517554 0.0038434663
0.004004187 -0.00020942795 0.00032890847 -0.0020873658 0.0028354349 -0.0008502528 -0.00091746467 -0.0019054773
0.0029657052 -0.0028123637 0.003248867 0.00085823576 -0.0008109609 0.00066760427 -0.002217783 0.0029921536
0.008014683 0.0021606735 -0.013854873 -3.1579325e-06 0.00061432255 -0.0012802584 0.0021659795 0.0015792515
-4.658585e-39 4.13952e-40 3.847387e-39 4.311075e-39 9.33182e-40 4.979374e-39 -6.194857e-39 2.559275e-39
-3.063107e-39 -4.20998e-39 -3.94271e-40 -1.236345e-39 3.597147e-39 -6.122388e-39 5.695543e-39 3.912708e-39
1.3023309e-38 -1.669438e-39 2.104333e-39 3.642946e-39 -2.288521e-39 -3.00702e-38 -1.847217e-39 2.043847e-39
-1.354536e-39 2.028057e-39 3.756054e-39 4.065896e-39 -4.48757e-40 -2.820042e-39 -6.39558e-40 -3.728052e-39
-3.55703e-39 4.94048e-39 -2.404118e-39 -5.160929e-39 -5.176985e-39 -6.865771e-39 -1.281195e-39 -9.58397e-40
-1.784905e-39 4.888018e-39 2.4151172e-38 -4.85299e-39 2.880946e-39 -3.529857e-39 -1.402157e-39 1.69221e-40
7.02177e-40 -4.645002e-39 2.464615e-39 -9.31075e-40 -3.484593e-39 -2.405114e-39 2.795543e-39 -2.29936e-40
-5.954682e-39 4.933168e-39 -8.01418e-40 5.37088e-39 5.55588e-39 2.013901e-39 4.209401e-39 2.138082e-39
2.632052e-39 -3.0886e-39 4.702793e-39 -4.557799e-39 -1.2868184e-37 3.24016e-39 -5.62607e-39 3.082845e-39
3.529717e-39 -2.091766e-39 -1.075693e-39 -6.993116e-39 1.197391e-39 -3.000839e-39 -5.136828e-39 -5.889722e-39
6.4245544e-38 5.5012624e-38 2.409712e-39 -3.939215e-39 5.049758e-39 -1.0504245e-37 3.101043e-39 4.196483e-39
-3.83286e-39 4.036917e-39 -4.258347e-39 -5.033068e-39 3.058875e-39 2.63998e-39 1.738863e-39 1.771683e-39
-2.07421e-39 4.884055e-39 -6.511772e-39 1.09702e-40 -2.659345e-39 -1.3380331e-37 3.482606e-39 4.5578225e-38
3.6938093e-38 3.31e-43 1.3830395e-37 3.3678662e-38 3.499847e-39 6.1813994e-38 -3.1469274e-38 -4.618936e-39
-8.7508e-40 8.88077e-40 4.2887961e-38 1.407124e-39 5.421408e-39 9.05292e-40 -6.945e-41 -2.558034e-39
4.132294e-38 -3.968585e-39 -1.583693e-39 -8.2799453e-38 -2.569491e-39 -2.63712e-39 -5.772353e-39 -3.564277e-39
3.0756677e-33 -4.793825e-34 -5.848339e-34 -5.6271737e-33 7.519392e-34 1.0400549e-32 -8.465927e-35 -5.1383176e-33
-3.6840902e-34 1.4375952e-34 2.6558932e-33 2.6130569e-33 -1.493813e-33 2.0477183e-33 -8.240342e-34 -5.288074e-33
-2.6424459e-34 2.279105e-33 -3.0639572e-34 8.583348e-33 5.9256678e-33 7.014265e-34 -1.8835409e-33 7.78623e-33
4.3832917e-34 -2.5067044e-36 -1.2092468e-33 -1.9954921e-34 -6.581729e-33 -2.8706367e-33 -3.0080166e-34 -1.7859531e-32
7.686609e-33 -5.464319e-33 3.35925e-33 1.9823904e-33 -2.6906423e-35 1.3952448e-33 -8.661525e-33 2.0176563e-33
3.2154663e-33 4.8252702e-34 -7.160353e-34 7.816464e-34 2.359703e-33 -2.0497086e-34 -8.9646304e-35 -1.591857e-33
-4.9256523e-33 -2.5775309e-33 1.9214923e-33 6.2991253e-34 -2.4635338e-34 2.5609917e-33 5.2080064e-33 2.8355587e-34
-1.1295711e-33 5.8019227e-33 2.2387717e-32 1.468733e-36 -7.107978e-35 9.038126e-34 6.289539e-34 1.3294685e-34
00000000: 5276 b53b 0b4c c33b 9bef e839 7613 f0ba
00000010: 1b25 363a 52a3 7d3c 83a3 79ba 7254 89ba
00000020: bbf1 fbb9 8b45 88bb c172 733b f2de 963b
00000030: 5963 8d3b 3eb8 0dbb 50e9 1fbb fdf1 653b
00000040: 96e1 5b3b 8d26 883b 03b5 ac3a dc7c f8ba
00000050: 053a 4ebb 6a94 3cba 7885 e63b 0805 c63b
00000060: 4f13 8b3a fc7d f4b7 0ec3 e43a 0569 2cba
00000070: 5600 be38 3635 643a 3e72 21bb 4c4b 50bc
00000080: d51a 753c 681e 39bb 5d51 873b 5585 523b
00000090: cf66 85ba a21c 693b 9497 a9bb aae2 7b3b
000000a0: 8e35 833b e399 5bb9 5971 ac39 30cc 08bb
000000b0: b4d2 393b 80e3 5eba 0382 70ba 35c1 f9ba
000000c0: 475c 423b a24f 38bb f2ea 543b 3afb 603a
000000d0: aa96 54ba 2a02 2f3a 3958 11bb 0218 443b
000000e0: 0450 033c 169a 0d3b 8dff 62bc deec 53b6
000000f0: 7d0a 213a 58ce a7ba 1bf3 0d3b e3fe ce3a
00000100: 3dba 3280 ee81 0400 f3e4 2900 86f1 2e00
00000110: 5529 0a00 7838 3600 be74 4380 38de 1b00
00000120: b25a 2180 b6d7 2d80 114b 0480 6d76 0d80
00000130: 622b 2700 baaa 4280 db04 3e00 0a9b 2a00
00000140: b0cf 8d00 b72d 1280 06ea 1600 0dab 2700
00000150: 77eb 1880 beb7 2381 4a1d 1480 6a41 1600
00000160: e5bf 0e80 6615 1600 5ae6 2800 1046 2c00
00000170: f4e2 0480 21b5 1e80 d4f6 0680 4b98 2880
00000180: 8dbb 2680 0ccc 3500 b42d 1a80 9232 3880
00000190: 545f 3880 fac2 4a80 73f3 0d80 9f6f 0a80
000001a0: 976f 1380 ce39 3500 d27d 0301 29d8 3480
000001b0: e85e 1f00 ce6f 2680 a544 0f80 b8d7 0100
000001c0: 62a5 0700 6094 3280 58d6 1a00 7523 0a80
000001d0: a1f1 2580 7b30 1a80 d670 1e00 f880 0280
000001e0: 3bd7 4080 aab7 3500 07ba 0880 d47b 3a00
000001f0: 887f 3c00 f0ed 1500 19d6 2d00 1a48 1700
00000200: 17a9 1c00 c3a1 2180 7935 3300 4aa1 3180
00000210: 1427 2f82 3f48 2300 3243 3d80 b891 2100
00000220: 6a6f 2600 fec6 1680 98b6 0b80 f625 4c80
00000230: d709 0d00 1ead 2080 63ef 3780 2622 4080
00000240: 9ce4 ae01 34c2 9501 4c3d 1a00 eee4 2a80
00000250: acfc 3600 f4f9 0e82 72c4 2100 16b2 2d00
00000260: 74bc 2980 48f5 2b00 8a5e 2e80 25ce 3680
00000270: e64e 2100 31bf 1c00 3eef 1200 bb4a 1300
00000280: 0e96 1680 c22e 3500 2ce8 4680 ce31 0100
00000290: 2cf5 1c80 a61f 3682 17ec 2500 c626 7801
000002a0: 301c 4901 ec00 0000 e53f 3c02 345d 3701
000002b0: 261c 2600 1146 a801 c455 2b81 b74b 3280
000002c0: 5e87 0980 99ab 0900 1881 6901 7d52 0f00
000002d0: ae08 3b00 96db 0900 99c1 0080 c2da 1b80
000002e0: c6fb 6001 cd36 2b80 b13e 1180 cc66 e181
000002f0: b2fa 1b80 38b7 1c80 f9da 3e80 c1cf 2680
00000300: 3884 7f09 5a4d 1f88 2a58 4288 60be e989
00000310: eadf 7908 ce02 580a 1d10 e186 f76f d589
00000320: 8cd9 f487 d416 3f07 9aa4 5c09 9315 5909
00000330: c733 f888 271e 2a09 8aea 8888 73a8 db89
00000340: e39e af87 3457 3d09 88a2 cb87 e844 320a
00000350: 8224 f609 c416 6908 7c7a 1c89 b3b6 210a
00000360: eca8 1108 303f 5584 aceb c888 8a9f 8487
00000370: 79b2 088a b17b 6e89 c0ea c787 c776 b98a
00000380: 06a5 1f0a 9bfa e289 ac89 8b09 c8b0 2409
00000390: 200f 0f86 26d3 e708 91e4 338a ce9e 2709
000003a0: b490 8509 dc58 2008 8cf1 6d88 90df 8108
000003b0: 5509 4409 fc39 8887 1d52 ee86 0e3f 0489
000003c0: 859a cc89 0522 5689 9fa1 1f09 0853 5108
000003d0: dbba a387 45c2 5409 0655 d809 8874 bc07
000003e0: a4ae bb88 a000 f109 c37c e80a 58e4 f903
000003f0: 64f6 bc86 f02b 9608 7b01 5108 78b7 3007

conv2.bias f4 [32]
-3.5093062e-06 1.2882008e-37 1.5267068e-38 -1.6203994e-37 -2.1844803e-06 -3.7479992e-38 1.6639547e-37 6.907751e-38
-1.6420245e-08 -4.885066e-15 -5.580217e-16 1.0954032e-05 9.500991e-38 1.7367783e-37 8.837291e-06 6.1391345e-38
-8.662426e-38 -2.3671666e-12 -1.3120879e-16 1.4833026e-07 1.8226658e-05 4.21585e-07 -2.8795016e-06 4.307633e-38
1.0215774e-37 9.3707065e-14 -7.1971386e-05 6.698172e-14 6.051509e-06 8.347038e-22 -4.0968594e-06 1.3734372e-06
00000000: 6c81 6bb6 3f57 2f02 603e a600 ae8e 5c82
00000010: 1699 12b6 7c0f 4c81 5c7c 6202 000c bc01
00000020: 800c 8db2 c800 b0a7 bcd6 20a6 36c7 3737
00000030: 1f52 0102 e465 6c02 e043 1437 861f a701
00000040: 4cd0 eb81 1593 26ac 0046 17a5 b644 1f34
00000050: 73e5 9837 3456 e234 763d 41b6 a487 6a01
00000060: c70c 0b02 7202 d329 58ef 96b8 55d4 9629
00000070: 110e cb36 1446 7c1c c177 89b6 f156 b835

batch1.weight f4 [32]
0.03204676 -5.263348e-39 5.863925e-39 3.1593065e-17 0.027076846 4.636487e-39 5.513885e-39 -1.69131e-39
0.022683656 -7.967688e-05 -4.700455e-05 0.08629351 2.574733e-39 2.35868e-39 0.087203994 1.863929e-39
-2.14469e-40 -0.00041331002 -8.615861e-05 0.007266477 0.21884859 0.0415949 0.03849905 1.427263e-39
-4.292641e-39 0.00017070698 0.24793527 0.00015300729 0.062765405 7.5463363e-10 0.072589256 0.013161059
00000000: 7743 033d 1350 3980 3dda 3f00 82b2 1124
00000010: 43d0 dd3c a47c 3200 780a 3c00 af6a 1280
00000020: 13d3 b93c 3318 a7b8 c026 45b8 a7ba b03d
00000030: 4f09 1c00 0aaf 1900 0298 b23d e04b 1400
00000040: da55 0280 88b1 d8b9 0db0 b4b8 a11b ee3b
00000050: d819 603e 6a5f 2a3d 2eb1 1d3d a18a 0f00
00000060: 23be 2e80 ceff 3239 bee2 7d3e 9570 2039
00000070: 268b 803d 9f6e 4f30 ada9 943d 7ba1 573c

batch1.bias f4 [32]
0.008280417 3.01682e-39 -4.408e-42 9.048662e-19 0.0076047224 -1.209838e-39 3.063772e-39 -2.751883e-39
0.0009069736 6.629369e-07 3.8213307e-07 0.027736472 -3.443531e-39 4.201572e-39 -0.017599367 8.1632e-40
-2.036567e-39 -1.2815214e-05 1.4557706e-06 0.00013898592 0.07493061 0.01601367 0.005760047 -1.858511e-39
2.72906e-39 2.2436689e-06 -0.002120428 1.2996524e-06 0.0059922165 1.5185653e-09 0.007898433 0.003096167
00000000: 96aa 073c abd9 2000 4a0c 0080 e188 8521
00000010: 0931 f93b 892c 0d80 8d5c 2100 21f7 1d80
00000020: f8c1 6d3a adf4 3135 f827 cd34 9937 e33c
00000030: 2a7f 2580 46c0 2d00 8c2c 90bc 91e3 0800
00000040: 1f2d 1680 ed00 57b7 e663 c335 c0bc 1139
00000050: 3875 993d 1a2f 833c c7be bc3b c63c 1480
00000060: 82b7 1d00 f091 1636 e1f6 0abb b76f ae35
00000070: 5b5a c43b c4b5 d030 6e68 013c 10e9 4a3b

batch1.running_mean f4 [32]
0.0017786538 -8.105524e-39 1.164052e-39 -7.2899816e-34 0.0040374096 -9.307204e-39 -9.172325e-39 1.5986244e-38
0.0008469399 1.6957253e-08 9.832433e-10 0.002249576 -1.0977052e-38 -1.2330766e-38 -0.004402597 -6.148152e-39
1.52423e-39 1.6959828e-07 2.2383357e-08 -0.0012833428 0.006736292 0.0025772573 -0.0011108727 3.154494e-39
-8.372642e-39 -1.0643997e-07 -0.010699966 -8.049572e-08 0.00033182462 -6.2609346e-18 0.008730407 0.0027751732
00000000: b821 e93a e742 5880 e7ac 0c00 4e40 7288
00000010: 3f4c 843b b358 6580 b6e0 6380 2513 ae00
00000020: 2d05 5e3a 65a9 9132 cc22 8730 9f6d 133b
00000030: 8e87 7780 2945 8680 a943 90bb 8cf2 4280
00000040: ef98 1000 d21a 3634 8645 c032 d735 a8ba
00000050: 1dbc dc3b 34e7 283b b49a 91ba 7259 2200
00000060: 852b 5b80 fe93 e4b3 e94e 2fbc fddc acb3
00000070: bff8 ad39 dbfc e6a2 fb09 0f3c aedf 353b

batch1.running_var f4 [32]
2.9539144e-05 6e-45 6e-45 6e-45 1.1093733e-05 6e-45 6e-45 6e-45
1.9632364e-05 1.4703605e-16 5.3889075e-19 8.648243e-05 6e-45 6e-45 5.0044357e-05 6e-45
6e-45 1.9813427e-13 2.5343956e-16 1.1248516e-06 0.0004523351 4.4107797e-05 1.6600101e-05 6e-45
6e-45 5.84312e-15 0.0003453179 3.3759944e-15 3.819232e-05 2.663184e-33 3.2023254e-05 1.2513581e-06
00000000: d4ca f737 0400 0000 0400 0000 0400 0000
00000010: 381f 3a37 0400 0000 0400 0000 0400 0000
00000020: 2eb0 a437 6285 2925 6f0d 1f21 e75d b538
00000030: 0400 0000 0400 0000 b8e6 5138 0400 0000
00000040: 0400 0000 5114 5f2a 1419 9225 9bf9 9635
00000050: 6427 ed39 6300 3938 7240 8b37 0400 0000
00000060: 0400 0000 4585 d227 c90b b539 1b44 7327
00000070: b130 2038 a93f 5d09 b550 0638 56f4 a735

conv3.weight f4 [32, 32, 1]
-0.0034088749 8.24712e-40 -1.745775e-39 2.1021884e-20 0.0031454845 1.20806e-40 1.852095e-39 6.816094e-39
-0.00061811996 2.6011655e-09 2.2373665e-09 -0.013922851 2.181478e-39 3.619241e-39 0.0042371927 5.531812e-39
5.780293e-39 8.1402284e-08 5.710855e-09 -0.0014198839 -0.034061402 -0.0048677316 0.0003405247 -1.602934e-39
4.371105e-39 3.9631973e-09 -0.021880811 1.5491544e-09 -0.010019149 2.2912316e-11 0.0024828166 0.002131605
-0.003508967 2.87515e-39 -2.000816e-39 2.0612717e-20 0.0023198738 6.431698e-39 1.581452e-39 -2.110264e-39
-0.000704584 1.1694008e-09 1.4150873e-09 -0.013864621 5.157447e-39 -1.784984e-39 0.0042401296 -4.016222e-39
-2.130863e-39 1.2431296e-07 2.5959437e-09 -0.0015676345 -0.035047296 -0.0045196675 -0.00046941428 2.569588e-39
3.415239e-39 -1.0478047e-09 -0.022173267 -1.4132654e-09 -0.009750057 2.1178517e-11 0.0030094485 0.0019050046
-0.004014864 3.27047e-39 6.978801e-39 2.0533944e-20 0.001324387 3.480744e-39 -4.346211e-39 -2.622592e-39
-0.00091657846 -3.538579e-10 5.414647e-10 -0.013488841 3.357434e-39 -2.347392e-39 0.0038258487 -3.657233e-39
-4.527775e-39 1.6534068e-07 -7.133103e-10 -0.0017159202 -0.03581874 -0.004054415 -0.0015298415 2.595551e-39
-2.857644e-39 -6.068207e-09 -0.02247951 -4.363546e-09 -0.0097662425 1.8495558e-11 0.002628697 0.0017040162
-0.0048395805 9.89949e-40 5.33844e-39 1.0841725e-20 0.0024868345 8.45361e-40 -5.055191e-39 -2.189281e-39
-0.001226519 -4.3837312e-10 2.814986e-10 -0.0119683845 -1.60656e-39 2.211616e-39 0.005348356 -2.818525e-39
-1.30197e-39 1.5604817e-07 -9.791327e-10 -0.0016631043 -0.03725102 -0.003516889 -0.004647676 2.473862e-39
-7.90816e-40 -5.1536633e-09 -0.02159517 -3.5235712e-09 -0.01019249 1.0952385e-11 0.0071804035 0.000987068
-0.004312862 -4.924383e-39 -3.005177e-39 -1.5602439e-20 0.0007203736 2.25682e-39 4.391803e-39 4.020436e-39
-0.001399273 -8.197981e-10 -1.13802356e-10 -0.013730375 2.796452e-39 2.896938e-39 0.005960945 3.005232e-39
5.9573e-39 1.2485015e-07 -1.8399291e-09 -0.0008961971 -0.03865247 -0.0051344517 0.0065931138 -1.350081e-39
-3.33008e-39 -5.535298e-09 -0.022440914 -3.4967231e-09 -0.007976053 4.115109e-12 0.014640553 0.00018235113
-0.004250177 4.570569e-39 -2.04856e-39 -1.01495295e-20 0.001083711 6.149007e-39 3.012579e-39 -2.036629e-39
-0.0015967417 -1.6601576e-09 -6.482451e-10 -0.013028583 4.144061e-39 -4.5041e-39 0.0058542425 -3.932206e-39
1.468437e-39 1.5313162e-07 -3.6571106e-09 -0.0011190629 -0.0383331 -0.0038105962 0.0025470133 1.940012e-39
-3.42051e-40 -7.896857e-09 -0.022250053 -4.918843e-09 -0.008380911 -2.0118972e-12 0.011065803 0.00015265151
-0.0052581336 4.878803e-39 -4.5018e-41 -1.3793802e-20 0.0012648092 2.85255e-39 -1.978395e-39 -5.654046e-39
-0.0022842658 -1.4399822e-09 -4.869517e-10 -0.011706338 -3.304583e-39 1.340143e-39 0.0072506387 -5.930124e-39
-4.493458e-39 1.6165671e-07 -3.209745e-09 -0.0014776292 -0.038273633 -0.0028499549 -0.006719417 3.51645e-39
3.837e-40 -7.267515e-09 -0.021091338 -4.510802e-09 -0.009809032 -2.6010535e-12 0.010241889 7.858435e-05
-0.0054851705 1.3417e-39 -3.045449e-39 -1.3667008e-20 0.0016948454 6.360054e-39 7.21195e-40 -6.459106e-39
-0.0024746514 -1.4072933e-09 -4.866294e-10 -0.011353601 -1.22289e-39 -3.192594e-39 0.006715786 -3.816652e-39
-5.046762e-39 1.570477e-07 -3.1460459e-09 -0.001738407 -0.03728473 -0.002942869 -0.0022985018 4.33986e-39
-1.42071e-39 -7.00243e-09 -0.020667648 -4.3274384e-09 -0.009835938 -2.3600475e-12 0.010936297 -0.00011324816
00000000: 6e67 5fbb f6fa 0800 8302 1380 cc8b c61e
00000010: 7924 4e3b c250 0100 e32a 1400 7f38 4a00
00000020: 5409 22ba 30c0 3231 2bc0 1931 ab1c 64bc
00000030: 13c1 1700 f968 2700 26d8 8a3b 713c 3c00
00000040: 1bf1 3e00 61cf ae33 3639 c431 661b baba
00000050: f883 0bbd 7e81 9fbb 7488 b239 5474 1180
00000060: dd98 2f00 a72c 8831 633f b3bc 06ea d430
00000070: 5b27 24bc f389 c92d c0b6 223b 66b2 0b3b
00000080: b3f6 65bb c04e 1f00 76c9 1580 7eae c21e
00000090: 0609 183b f508 4600 7238 1100 8ffa 1680
000000a0: d5b3 38ba a2b8 a030 f57c c230 6f28 63bc
000000b0: dd28 3800 cf6f 1380 c9f0 8a3b 98bb 2b80
000000c0: fb33 1780 e37a 0534 5364 3231 1679 cdba
000000d0: c18d 0fbd b819 94bb b81b f6b9 f7fa 1b00
000000e0: 4c30 2500 5a02 90b0 b6a4 b5bc db3c c2b0
000000f0: b4be 1fbc c849 ba2d 2b3a 453b 59b1 f93a
00000100: 1f8f 83bb bd9c 2300 0ffe 4b00 08f0 c11e
00000110: 0e97 ad3a e6e6 2500 7853 2f80 b88e 1c80
00000120: 8a46 70ba 1289 c2af 31d6 1430 4d00 5dbc
00000130: 298f 2400 938f 1980 17bb 7a3b e1d2 2780
00000140: 984d 3180 8088 3134 c012 44b0 bae8 e0ba
00000150: acb6 12bd e6da 84bb f684 c8ba 5743 1c00
00000160: f31d 1f80 8380 d0b1 f326 b8bc 28ee 95b1
00000170: 9702 20bc 4bb0 a22d 3846 2c3b 4c59 df3a
00000180: 5895 9ebb 93c7 0a00 6621 3a00 5dcb 4c1e
00000190: 29fa 223b 8634 0900 d10b 3780 d3d6 1780
000001a0: 26c3 a0ba 88ff f0af 68c1 9a2f 0b17 44bc
000001b0: 707e 1180 1615 1800 4341 af3b e7b0 1e80
000001c0: 5d2d 0e80 328e 2734 2b92 86b0 85fc d9ba
000001d0: 8794 18bd 9b7b 66bb 884b 98bb 1ff0 1a00
000001e0: 799c 0880 1a14 b1b1 5be8 b0bc 5223 72b1
000001f0: 67fe 26bc 28ad 402d 9749 eb3b 8260 813a
00000200: e952 8dbb 2d9f 3580 36b9 2080 625c 939e
00000210: 74d7 3c3a 1993 1800 8fd2 2f00 57c7 2b00
00000220: d067 b7ba 2a58 61b0 0841 faae 5ef5 60bc
00000230: 5f73 1e00 7c8b 1f00 0854 c33b 5db9 2000
00000240: 87de 4000 8c0e 0634 c0e0 fcb0 c5ee 6aba
00000250: 0d52 1ebd e73e a8bb 0c0b d83b 7ab3 0e80
00000260: e842 2480 ff30 beb1 02d6 b7bc 014b 70b1
00000270: fead 02bc 9bc9 902c eede 6f3c 8235 3f39
00000280: 1245 8bbb e3c4 3100 8d4e 1680 1db8 3f9e
00000290: 4f0b 8e3a eef4 4200 d8cd 2000 4b2d 1680
000002a0: c349 d1ba 9a2b e4b0 3230 32b0 d675 55bc
000002b0: f51f 2d00 990b 3180 f2d4 bf3b 64d1 2a80
000002c0: 68fd 0f00 806c 2434 9250 7bb1 85ad 92ba
000002d0: 2b03 1dbd 32bb 79bb cbeb 263b f71f 1500
000002e0: 80b9 0380 bfaa 07b2 be45 b6bc 9a02 a9b1
000002f0: 1750 09bc 1e93 0dac 574d 353c 1411 2039
00000300: 6c4c acbb 1e20 3500 7e7d 0080 5e47 829e
00000310: f4c7 a53a c00f 1f00 f68a 1580 2e91 3d80
00000320: 9fb3 15bb dfe8 c5b0 2eda 05b0 f1cb 3fbc
00000330: d5fb 2380 c697 0e00 c496 ed3b c692 4080
00000340: efed 3080 dc93 2d34 6e92 5cb1 02ad c1ba
00000350: d0c4 1cbd 4fc6 3abb 8e2e dcbb 6f4a 2600
00000360: 992d 0400 bdb5 f9b1 bec7 acbc 6ffd 9ab1
00000370: 10b6 20bc 6a08 37ac 99cd 273c a7cd a438
00000380: f2bc b3bb 1d9c 0e00 7929 2180 cc14 819e
00000390: 9325 de3a 3e41 4500 66da 0700 5c55 4680
000003a0: c32d 22bb bb6a c1b0 80c3 05b0 7404 3abc
000003b0: eb50 0d80 a7c3 2280 1910 dc3b 468f 2980
000003c0: 52f4 3680 f1a0 2834 d331 58b1 42db e3ba
000003d0: dfb7 18bd 26dd 40bb 76a2 16bb c441 2f00
000003e0: 5d78 0f80 079a f0b1 334f a9bc 8db0 94b1
000003f0: ea26 21bc d612 26ac 272e 333c a57f edb8

conv3.bias f4 [32]
8.921923e-06 -2.766713e-06 -1.7092027e-06 -2.7810845e-06 1.304101e-05 3.0240788e-06 6.994436e-06 -1.4853609e-05
1.6761473e-06 7.885026e-06 -7.6261904e-06 2.6670673e-06 -6.2646814e-06 7.740406e-06 1.1914403e-06 5.8962787e-06
6.5307927e-06 3.023024e-06 3.9222923e-06 5.557888e-06 1.3181424e-06 3.0902374e-06 4.53908e-07 3.3569852e-06
1.8064965e-06 2.328338e-06 -1.8169305e-07 -5.0715624e-07 1.11667646e-07 -1.2887861e-07 -3.479177e-39 8.148199e-37
00000000: 5eaf 1537 c4ab 39b6 c267 e5b5 aba2 3ab6
00000010: b6ca 5a37 47f1 4a36 bfb1 ea36 c433 79b7
00000020: fcf7 e035 ee49 0437 7ae4 ffb6 defb 3236
00000030: 3435 d2b6 cadc 0137 94e9 9f35 a6d8 c536
00000040: 1523 db36 28df 4a36 3c9c 8336 e57d ba36
00000050: 07eb b035 e061 4f36 a4b0 f334 9148 6136
00000060: bf76 f235 8b40 1c36 6817 43b4 8323 08b5
00000070: f0cd ef33 e261 0ab4 88e2 2580 69a2 8a03

batch2.weight f4 [32]
0.16548155 0.1701357 0.17372862 0.17606959 0.17847027 0.17789869 0.17899063 0.17502242
0.18024126 0.17442395 0.17033309 0.16433671 0.16070656 0.15605524 0.1537092 0.15034409
0.13954741 0.13417514 0.13198641 0.12440214 0.11971178 0.108733155 0.09683243 0.087481424
0.07361153 0.06050149 0.046778556 0.0330913 0.020341191 0.008589935 4.21899e-40 2.0675181e-30
00000000: ff73 293e 0e38 2e3e eae5 313e 964b 343e
00000010: e9c0 363e 132b 363e 5249 373e 1439 333e
00000020: 2a91 383e 319c 323e cc6b 2e3e e247 283e
00000030: 4390 243e f2cc 1f3e f265 1d3e cdf3 193e
00000040: 84e5 0e3e 3565 093e 7227 073e 8dc6 fe3d
00000050: 732b f53d 7daf de3d 1550 c63d 7629 b33d
00000060: a4c1 963d 69d0 773d df9a 3f3d be8a 073d
00000070: 92a2 a63c ccbc 0c3c 1598 0400 acbc 270e

batch2.bias f4 [32]
-0.022232573 -0.024129657 -0.025904953 -0.0277591 -0.027352557 -0.028683623 -0.029707044 -0.029921474
-0.025820611 -0.02751933 -0.02782198 -0.0254874 -0.024602491 -0.025018938 -0.015257821 -0.01828909
-0.013499302 -0.013368237 -0.011819229 -0.0152933765 -0.010978945 -0.010395756 -0.010420789 -0.008920419
-0.008002297 -0.0072860806 -0.006121115 -0.0047385367 -0.0033875066 -0.0019594615 0.00042098726 0.00021408274
00000000: 1621 b6bc 8fab c5bc a036 d4bc 0d67 e3bc
00000010: 7812 e0bc ebf9 eabc 305c f3bc e11d f5bc
00000020: bf85 d3bc 3870 e1bc ecea e3bc f4ca d0bc
00000030: 2a8b c9bc 84f4 ccbc f1fb 79bc 00d3 95bc
00000040: 2d2c 5dbc 7306 5bbc 71a5 41bc 1291 7abc
00000050: 08e1 33bc f652 2abc f5bb 2abc f326 12bc
00000060: 111c 03bc 13c0 eebb a293 c8bb ba45 9bbb
00000070: ee00 5ebb 4f6a 00bb f4b7 dc39 667b 6039

batch2.running_mean f4 [32]
-0.0010159274 -0.0010535942 -0.0010495615 -0.0012058896 -0.0013947737 -0.0013243773 -0.0013702005 -0.0013229045
-0.0015919517 -0.0014754282 -0.0014122787 -0.0011726496 -0.0010415438 -0.0010560296 -0.0007880316 -0.00090608833
-0.00058436184 -0.0005963967 -0.00061914336 -0.0008234747 -0.00064461137 -0.00063126546 -0.0007029072 -0.00062239
-0.0006583498 -0.0006210304 -0.00057829934 -0.00049942866 -0.00039007267 -0.00022974721 1.2089309e-38 2.2356075e-32
00000000: de28 85ba c118 8aba 7191 89ba f10e 9eba
00000010: d7d0 b6ba ba96 adba 4d98 b3ba 4f65 adba
00000020: 09a9 d0ba 2863 c1ba 361c b9ba 97b3 99ba
00000030: 6984 88ba 796a 8aba e893 4eba 8f86 6dba
00000040: dc2f 19ba 8157 1cba 024e 22ba 74de 57ba
00000050: 23fb 28ba 827b 25ba 4e43 38ba e327 23ba
00000060: 1b95 2cba a5cc 22ba 0399 17ba 17ec 02ba
00000070: ab82 ccb9 4ce8 70b9 13a4 8300 a428 e80a

batch2.running_var f4 [32]
8.199929e-05 8.373516e-05 8.476232e-05 8.584186e-05 9.19736e-05 9.027045e-05 8.8032655e-05 8.537919e-05
0.00010713364 9.202873e-05 8.524487e-05 9.52753e-05 9.1968745e-05 7.424236e-05 0.00010699945 8.687766e-05
6.87496e-05 6.389022e-05 6.830316e-05 6.457131e-05 6.1900275e-05 5.482246e-05 4.6750843e-05 4.3028103e-05
3.624801e-05 3.0034455e-05 2.3553102e-05 1.6667338e-05 9.727386e-06 3.1343286e-06 6e-45 6e-45
00000000: 09f7 ab38 f99a af38 6dc2 b138 ff05 b438
00000010: f3e1 c038 944f bd38 2c9e b838 9b0d b338
00000020: efac e038 8cff c038 7ec5 b238 8ace c738
00000030: 58df c038 90b2 9b38 e464 e038 1732 b638
00000040: a92d 9038 cdfc 8538 fb3d 8f38 756a 8738
00000050: 75d0 8138 2bf1 6538 5616 4438 1379 3438
00000060: 0109 1838 80f2 fb37 e793 c537 d6d0 8b37
00000070: ce32 2337 5b57 5236 0400 0000 0400 0000

LSTM.weight_ih_l0 f4 [256, 57]
3.4767988e-06 -1.2457916e-05 -2.0366542e-08 -2.920241e-05 -2.8313323e-05 -2.9015071e-05 -3.120941e-05 -2.2977825e-05
-2.832468e-05 -2.9005694e-05 -4.5555553e-05 -8.518703e-05 -4.623369e-05 -9.3505705e-06 -9.138259e-06 -1.2468081e-05
-2.5906298e-05 6.0212074e-06 2.8499631e-05 -1.992712e-05 -8.171322e-06 4.8149136e-06 2.1285952e-05 -5.9392387e-06
1.4513257e-05 2.869061e-06 3.8246435e-05 3.9385126e-05 3.2263953e-05 3.8793773e-05 4.2963988e-05 4.9471557e-05
1.6408356e-05 -7.2903517e-06 4.1181833e-05 3.7978476e-05 3.9568455e-05 3.777628e-05 4.100206e-05 6.0999946e-06
-1.99969e-06 3.5378514e-05 3.562346e-05 3.5369954e-05 3.5369932e-05 5.268504e-05 1.0310216e-05 -5.072287e-05
2.9452656e-05 3.51276e-05 2.1232395e-06 4.985029e-06 3.4557343e-05 3.599628e-05 3.5779005e-05 -1.7672648e-05
6.0539287e-06 -2.3316732e-05 -9.177503e-05 -0.00018750734 -0.0003414154 -6.2275176e-05 6.234737e-05 5.9724895e-05
6.186395e-05 5.8605252e-05 6.186077e-05 -9.087796e-05 -0.0004378372 -0.0003452675 -0.00029899564 -0.00011625072
6.0862607e-05 -0.0001727809 -0.00023358288 -0.00019477493 -3.0476647e-05 -1.6994054e-05 -3.9477363e-05 -0.000113460206
-0.00016245105 -7.302819e-05 -0.00024849002 6.5322194e-05 -5.7515754e-05 -0.00033940776 6.599204e-05 0.0003979524
0.00012932035 -5.8959053e-05 2.9720171e-05 -5.764378e-05 6.834392e-05 -4.24661e-05 4.3865955e-05 0.00012851352
-5.7992016e-05 5.939837e-05 -5.4038985e-05 6.870378e-05 -4.160677e-05 4.3788823e-05 0.00013280442 -5.8443777e-05
-6.752181e-05 -0.00015738433 -0.00024001683 -5.0770625e-05 -4.1794963e-05 -0.00028195383 -0.0003383335 -0.0003383315
-7.240969e-05 -2.3262572e-05 -5.7061217e-05 -0.0010339904 4.688318e-07 -0.0015341562 -0.0006908622 0.0019883525
0.0019883611 0.0019885995 0.0019884962 0.001991382 -0.00055320456 -0.005086981 -0.0034899823 -0.0015754774
-0.0013117798 -0.002792507 -0.0037652024 -0.00089695404 0.001570403 0.001211155 7.573265e-06 -0.0021623215
-0.0018869153 -0.0028520082 -0.0020858154 -0.0027611793 -0.0014107759 -0.001606057 -0.0031217395 -0.0020190715
-0.00097812 -0.0006194026 -0.0018057879 -0.0013305001 -0.0016057976 -0.0020355312 -0.0015938823 -0.0020124952
-0.0006182184 -0.0019269208 -0.0015043739 -0.0016043955 -0.0020321575 -0.0015933994 -0.0020119497 -0.0006182784
-0.0019263277 -0.0007322041 0.00046407376 -0.002728923 -0.00029708506 0.0007225085 -0.00085222843 -0.0031076237
-0.0030951349 -0.000985621 1.0030927e-05 2.96287e-07 -3.6649267e-06 1.7431696e-06 -4.3294854e-06 -5.947271e-06
-6.8061336e-06 -4.377992e-06 -4.994856e-06 -5.867729e-06 -6.9085972e-06 -8.1454607e-07 7.1951365e-07 8.8554157e-07
4.5867982e-06 1.93892e-06 -4.375938e-06 -9.719885e-06 7.63715e-06 1.601531e-05 9.920785e-08 1.5774392e-06
-3.751615e-07 7.66076e-07 1.5239469e-05 1.6665794e-05 1.2657874e-05 1.2372595e-05 1.1207191e-05 1.9737177e-05
1.2987709e-05 6.6046136e-06 1.5012717e-05 9.427776e-06 3.1624847e-07 8.912348e-06 9.931713e-06 9.088162e-06
1.13087635e-05 1.4107474e-05 6.666968e-06 3.8177612e-07 1.1268851e-05 1.2906001e-05 1.1066759e-05 1.1364652e-05
1.5900645e-05 7.4648133e-06 -1.4054449e-05 7.083723e-06 1.3603391e-05 -3.6673982e-06 3.664892e-07 1.2468483e-05
1.7816235e-05 1.967358e-05 -3.7759642e-06 1.6307424e-06 1.0158086e-05 -1.7426151e-05 3.2293883e-05 -5.30912e-06
-2.60455e-05 -1.7697279e-05 -1.1438706e-05 -9.127779e-06 -6.6233906e-06 -1.5768388e-05 -2.1485104e-05 -3.6994537e-05
-1.2904546e-05 2.8259707e-05 -2.033309e-05 -7.304287e-05 -4.414401e-05 3.306488e-05 7.845041e-05 8.7178796e-07
-1.5960552e-06 -2.4989376e-05 -1.8087328e-05 6.101205e-06 1.5710004e-05 1.4646074e-05 -3.3217918e-06 1.4667058e-06
00000000: f352 6936 5702 51b7 80f2 aeb2 b3f7 f4b7
00000010: 6682 edb7 6465 f3b7 d9e6 02b8 81c0 c0b7
00000020: ca9a edb7 4151 f3b7 e712 3fb8 70a6 b2b8
00000030: 0ceb 41b8 65e0 1cb7 8650 19b7 002e 51b7
00000040: 5a51 d9b7 c709 ca36 7e12 ef37 2a29 a7b7
00000050: 9017 09b7 cb8f a136 3c8f b237 ac49 c7b6
00000060: f77d 7337 188a 4036 cc6a 2038 7531 2538
00000070: 2853 0738 7fb6 2238 3b34 3438 ae7f 4f38
00000080: ada4 8937 a59f f4b6 a8ba 2c38 144b 1f38
00000090: 4ef6 2538 f971 1e38 a0f9 2b38 8eae cc36
000000a0: 6a32 06b6 6463 1438 666a 1538 335a 1438
000000b0: 2d5a 1438 22fa 5c38 0afa 2c37 44bf 54b8
000000c0: 1911 f737 f955 1338 fa7c 0e36 1345 a736
000000d0: aaf1 1038 b6fa 1638 6a11 1638 b93f 94b7
000000e0: da22 cb36 4d98 c3b7 5877 c0b8 9e9d 44b9
000000f0: 0000 b3b9 bb99 82b8 7dc0 8238 1e81 7a38
00000100: f5bc 8138 e9ce 7538 3fbb 8138 bc95 beb8
00000110: 848d e5b9 0505 b5b9 84c2 9cb9 a1cb f3b8
00000120: ba46 7f38 852c 35b9 eded 74b9 7f3c 4cb9
00000130: 1aa8 ffb7 748e 8eb7 7f94 25b8 7cf1 edb8
00000140: 9f57 2ab9 b626 99b8 c447 82b9 96fd 8838
00000150: 123d 71b8 8af2 b1b9 3565 8a38 44a4 d039
00000160: 2b9a 0739 cd4a 77b8 954f f937 8ac6 71b8
00000170: dd53 8f38 a11d 32b8 b6fc 3738 96c1 0639
00000180: 743c 73b8 8422 7938 eba7 62b8 1015 9038
00000190: ee82 2eb8 e4a9 3738 6a41 0b39 8721 75b8
000001a0: 7f9a 8db8 8907 25b9 07ad 7bb9 8bf2 54b8
000001b0: 004d 2fb8 34d3 93b9 5b62 b1b9 1662 b1b9
000001c0: a8da 97b8 fe23 c3b7 0455 6fb8 f686 87ba
000001d0: c0b3 fb34 bd15 c9ba fa1a 35ba 054f 023b
000001e0: 2a4f 023b 2a53 023b 6e51 023b d981 023b
000001f0: ee04 11ba b1b0 a6bb 30b8 64bb 4080 ceba
00000200: 07f0 abba 7e02 37bb 9dc1 76bb 9121 6bba
00000210: fbd5 cd3a 9ebf 9e3a da1d fe36 bcb5 0dbb
00000220: 5f52 f7ba c2e8 3abb 2db2 08bb e7f4 34bb
00000230: c9e9 b8ba 5582 d2ba 1996 4cbb 6652 04bb
00000240: 4334 80ba 685f 22ba 30b0 ecba 2d64 aeba
00000250: a079 d2ba 8c66 05bb d1e9 d0ba 11e4 03bb
00000260: ef0f 22ba bc90 fcba 692e c5ba 944a d2ba
00000270: f22d 05bb 9dd9 d0ba eada 03bb f613 22ba
00000280: d57c fcba 63f1 3fba ed4e f339 bbd7 32bb
00000290: 15c2 9bb9 ba66 3d3a 1568 5fba 46a9 4bbb
000002a0: bfd7 4abb f42f 81ba 814a 2837 6011 9f34
000002b0: f6f2 75b6 daf6 e935 ff45 91b6 ab8e c7b6
000002c0: 3e60 e4b6 aae6 92b6 7d99 a7b6 69e3 c4b6
000002d0: 66d0 e7b6 2ea7 5ab5 9a24 4135 f4b5 6d35
000002e0: 4ce8 9936 641e 0236 05d5 92b6 9712 23b7
000002f0: 4f21 0037 9e58 8637 180c d533 66b8 d335
00000300: ce69 c9b4 58a4 4d35 05ad 7f37 85cd 8b37
00000310: 285d 5437 e493 4f37 8506 3c37 4491 a537
00000320: c9e5 5937 339d dd36 21df 7b37 fd2b 1e37
00000330: dcc8 a934 3e86 1537 62a0 2637 5c79 1837
00000340: c5ba 3d37 24af 6c37 d2b4 df36 e9f6 cc34
00000350: 590f 3d37 da86 5837 5eab 3937 cfaa 3e37
00000360: 6062 8537 427a fa36 66cb 6bb7 b8b0 ed36
00000370: 1f3a 6437 6c1d 76b6 e4c1 c434 ba2f 5137
00000380: 1374 9537 b108 a537 9266 7db6 e2df da35
00000390: a66c 2a37 602e 92b7 4b73 0738 fe24 b2b6
000003a0: 497c dab7 9e74 94b7 dee8 3fb7 8323 19b7
000003b0: 7e3e deb6 5b46 84b7 e93a b4b7 952a 1bb8
000003c0: 9a80 58b7 420f ed37 fa90 aab7 982e 99b8
000003d0: 4527 39b8 25af 0a38 be85 a438 d004 6a35
000003e0: 0a38 d6b5 47a0 d1b7 3eba 97b7 f4b8 cc36
000003f0: fac8 8337 69b8 7537 f3eb 5eb6 a1db c435

LSTM.weight_hh_l0 f4 [256, 64]
-2.9386354e-06 -2.5556647e-06 2.6044168e-05 -1.2248531e-06 3.6650238e-06 2.8459839e-05 2.2400884e-06 -5.926793e-06
1.8662884e-05 4.360516e-06 -3.0960482e-06 -6.7852206e-06 1.8282557e-05 3.9761835e-06 2.1760098e-08 -1.0846924e-05
5.781056e-07 -2.0371346e-05 -1.3475829e-05 -2.4879102e-05 7.839189e-06 6.777017e-07 -6.1342043e-06 -1.578431e-05
1.31243e-05 -1.0911421e-05 -4.748631e-06 -9.35462e-09 9.224186e-07 -9.160212e-06 5.536591e-06 -1.21571875e-05
2.055732e-07 3.347102e-05 1.3273756e-05 -1.5365227e-05 1.3965847e-06 -1.6041724e-09 -3.615687e-05 -6.027599e-06
-9.425618e-06 -5.6715e-07 -2.0231977e-05 2.4759203e-05 1.9475838e-05 -4.3757263e-05 1.9074842e-07 -1.5724328e-05
1.4571807e-05 5.5838455e-06 -8.024687e-08 2.0060702e-09 1.7347482e-05 -1.3202382e-05 1.0423429e-05 -3.2683754e-06
-4.144224e-08 1.9488689e-06 -2.0228888e-05 -1.7200107e-05 -1.5082342e-06 -9.63015e-06 5.5635455e-06 -1.9776542e-05
3.962692e-06 2.1339907e-05 2.514013e-05 1.6274785e-06 7.846111e-09 2.9575433e-05 -1.899695e-06 2.7955954e-05
-1.3194855e-05 -1.269241e-05 1.901506e-05 -1.9805546e-05 6.891962e-07 4.1271447e-05 -2.9472997e-07 -8.191504e-06
-1.957155e-06 -2.7767854e-05 -1.6390039e-05 6.717566e-06 9.383639e-06 -4.59174e-06 4.019158e-05 -1.4866132e-05
9.096693e-07 1.9631301e-05 1.591914e-05 -2.9681425e-07 -6.107939e-07 2.385944e-05 -2.1055981e-05 -1.6088757e-06
-5.0098174e-07 -3.4595898e-05 7.492381e-07 5.324497e-05 -3.2787243e-06 3.8719723e-08 6.224905e-05 2.4177985e-05
-1.6151813e-06 -1.9392587e-08 -4.0228828e-05 2.6861851e-05 -1.5092908e-05 -4.0878844e-05 -5.7696514e-07 -3.2201602e-05
-1.2098093e-05 7.885194e-06 5.3210186e-07 -9.358348e-09 -1.19612505e-05 8.006127e-06 -4.097841e-06 2.2544718e-05
-1.6266333e-07 5.077374e-05 -9.565758e-06 5.451968e-06 1.0101526e-06 6.843833e-05 5.607574e-05 2.7983333e-08
-9.854336e-05 0.00017007483 -1.3879651e-05 -5.2101703e-05 2.4085188e-05 -0.00037197053 7.0581606e-05 0.0003796299
4.0977277e-05 0.00014438541 -0.00016648132 0.00050327816 -0.00014965165 0.00025276723 1.8701996e-06 -1.9094932e-05
3.1475396e-05 -1.2524262e-05 5.1917446e-05 0.0004902427 -1.7244216e-05 0.00012425645 0.00041808584 0.0001689678
0.00032847153 -0.00016135446 -6.621981e-05 1.372748e-06 4.6022382e-05 -0.00010253515 -0.00018354056 -1.0242431e-05
7.252083e-06 -0.00046573786 -0.00020496354 -0.00036343336 6.850405e-05 -1.8195253e-07 0.00078254106 -0.00017156154
5.0393483e-06 -2.3183273e-05 0.00010170264 -3.460519e-05 0.000107075815 0.00039971396 1.3039355e-05 4.272554e-05
-7.4403804e-05 0.00032353014 -6.964028e-06 9.918235e-08 0.00035766768 -1.4287759e-05 0.000272531 0.00022752193
1.8175917e-06 0.00033478113 7.070101e-05 -7.0552844e-05 -0.000118166536 -0.00029646108 -0.00020030633 -6.7683344e-05
-4.1036196e-07 -7.02158e-07 1.1914996e-05 -4.49161e-07 6.4996135e-07 1.7021615e-05 8.681954e-07 -2.419898e-06
8.821675e-06 -1.2430601e-06 -2.9427576e-07 -8.3019194e-07 5.2354203e-06 -1.4098815e-06 5.987164e-09 -4.9212526e-06
2.0468407e-07 -1.0691964e-05 -8.2512554e-07 -7.919857e-06 3.5970936e-06 1.0622472e-08 -1.8061668e-06 -2.9506132e-06
3.2399491e-06 -1.1550477e-06 -3.3371572e-07 -7.8116e-09 2.076632e-07 -1.7441988e-07 1.4717282e-06 -7.2755724e-06
3.043073e-08 7.3331084e-06 6.2838717e-06 2.788779e-06 1.4514646e-07 -4.0527443e-10 -6.670739e-06 -1.4013062e-06
-3.4274078e-06 -2.976094e-07 -3.1731247e-06 1.3584934e-05 7.827642e-06 -1.5629872e-05 7.012274e-08 -1.164015e-05
2.7827832e-07 1.953866e-06 -1.6550729e-08 7.748112e-10 1.8157219e-06 -7.2735284e-06 -1.6527116e-07 -5.8348735e-07
-1.2898461e-08 2.9302663e-07 -6.5061067e-06 -2.2802726e-06 -3.5707313e-07 -2.515852e-06 9.818203e-06 -8.277855e-06
00000000: 5f35 45b6 fc81 2bb6 6d79 da37 a265 a4b5
00000010: a1f4 7536 0abd ee37 6d54 1636 c4de c6b6
00000020: 3d8e 9c37 8c50 9236 b4c5 4fb6 9aac e3b6
00000030: 7e5d 9937 286b 8536 f6ea ba32 2ffb 35b7
00000040: 1d2f 1b35 22e3 aab7 3f16 62b7 77b3 d0b7
00000050: 0f85 0337 4eeb 3535 6ad4 cdb6 8c68 84b7
00000060: 7030 5c37 3210 37b7 6e56 9fb6 0eb6 20b2
00000070: 209c 7735 d0ae 19b7 f4c6 b936 b9f6 4bb7
00000080: 88bb 5c34 3c63 0c38 59b2 5e37 93e4 80b7
00000090: 4972 bb35 cc79 dcb0 25a7 17b8 ae40 cab6
000000a0: b922 1eb7 403e 18b5 d7b7 a9b7 fcb1 cf37
000000b0: 0b60 a337 0188 37b8 87d0 4c34 bde7 83b7
000000c0: 6f79 7437 de5c bb36 2f54 acb3 29db 0931
000000d0: 6f85 9137 cd7f 5db7 49e0 2e37 4356 5bb6
000000e0: 3afe 31b3 50c9 0236 35b1 a9b7 f348 90b7
000000f0: 886e cab5 2e91 21b7 7eae ba36 cde5 a5b7
00000100: 44f7 8436 1a03 b337 05e4 d237 bc6f da35
00000110: 90cb 0632 c218 f837 06f9 feb5 f482 ea37
00000120: 785f 5db7 7cf1 54b7 8882 9f37 1624 a6b7
00000130: 3401 3935 e11a 2d38 613b 9eb4 3e6e 09b7
00000140: ab57 03b6 03ef e8b7 577d 89b7 7467 e136
00000150: 6c6e 1d37 bf12 9ab6 6193 2838 8d69 79b7
00000160: 0030 7435 e6ad a437 188a 8537 d759 9fb4
00000170: 70f5 23b5 c225 c837 60a1 b0b7 8cf0 d7b5
00000180: 347b 06b5 101b 11b8 401f 4935 5a53 5f38
00000190: 0e08 5cb6 c94c 2633 b48b 8238 d4d1 ca37
000001a0: 35c9 d8b5 c094 a6b2 60bb 28b8 6355 e137
000001b0: 8c37 7db7 5375 2bb8 bee0 1ab5 3510 07b8
000001c0: eaf8 4ab7 a64a 0437 c3d5 0e35 73c6 20b2
000001d0: 2ead 48b7 0e52 0637 3080 89b6 6a1e bd37
000001e0: 8ea8 2eb4 e3f5 5438 9e7c 20b7 0cf0 b636
000001f0: 9494 8735 8c86 8f38 de32 6b38 0060 f032
00000200: 10a9 ceb8 1d56 3239 a6dc 68b7 c787 5ab8
00000210: 8c0a ca37 0a05 c3b9 3605 9438 1009 c739
00000220: 04df 2b38 2a66 1739 7d91 2eb9 6dee 033a
00000230: cfeb 1cb9 d885 8439 9203 fb35 0e2e a0b7
00000240: 7304 0438 4c1f 52b7 efc1 5938 a183 003a
00000250: aca7 90b7 d64a 0239 8832 db39 f32c 3139
00000260: b436 ac39 4231 29b9 7ddf 8ab8 433f b835
00000270: 2808 4138 2408 d7b8 cb74 40b9 e8d6 2bb7
00000280: eb56 f336 472e f4b9 7beb 56b9 338b beb9
00000290: d5a9 8f38 bb5e 43b4 7123 4d3a 33e5 33b9
000002a0: ac17 a936 b379 c2b7 3049 d538 0a25 11b8
000002b0: e48d e038 b390 d139 9ac3 5a37 3334 3338
000002c0: 3d09 9cb8 7b9f a939 8cac e9b6 13fe d433
000002d0: 5885 bb39 75b5 6fb7 7ee2 8e39 f492 6e39
000002e0: faf3 f335 9085 af39 5145 9438 c5f5 93b8
000002f0: 2dd0 f7b8 556e 9bb9 5209 52b9 38f1 8db8
00000300: b84f dcb4 ee7b 3cb5 85e6 4737 3824 f1b4
00000310: 0179 2e35 a4c9 8e37 ef0d 6935 8865 22b6
00000320: ce00 1437 38d7 a6b5 f4fc 9db4 5bda 5eb5
00000330: ebab af36 293b bdb5 a7b7 cd31 3d21 a5b6
00000340: 21c7 5b34 a361 33b7 327e 5db5 87df 04b7
00000350: 9965 7136 207e 3632 6b6b f2b5 2603 46b6
00000360: e76d 5936 2307 9bb5 8a29 b3b4 c833 06b2
00000370: 07fa 5e34 2c48 3bb4 3288 c535 b120 f4b6
00000380: f1b2 0233 ec0e f636 0cda d236 dc26 3b36
00000390: 8ed9 1b34 4ecd deaf 36d5 dfb6 8414 bcb5
000003a0: 6b02 66b6 20c7 9fb4 def1 54b6 d9ea 6337
000003b0: 7753 0337 e51c 83b7 6296 9633 104a 43b7
000003c0: 4866 9534 2a1f 0336 702b 8eb2 7efa 5430
000003d0: bbb3 f335 220f f4b6 6475 31b4 f2a0 1cb5
000003e0: 0898 5db2 4651 9d34 084f dab6 c906 19b6
000003f0: c2b3 bfb4 02d6 28b6 dcb8 2437 1ee1 0ab7

LSTM.bias_ih_l0 f4 [256]
0.00014183504 0.0005724101 0.011910084 5.1950783e-06 0.00010648109 0.05682917 5.6327062e-05 0.0041040187
0.021491995 0.012394235 0.00061799673 0.006638885 0.0025061127 0.014288632 -5.429746e-08 0.0018955978
-1.1844189e-05 0.01871979 0.0069841263 0.0055010873 0.0017012188 6.2296414e-05 0.0010542504 0.0062952046
0.0033311239 0.0030895274 0.0019693288 -2.1867837e-08 1.777953e-06 0.0015315021 0.002394417 0.0016244518
-7.989118e-07 0.01868115 0.002047359 0.015038135 4.353384e-05 -3.526197e-10 0.02331457 0.0008267862
0.0007779464 2.4370984e-06 0.0071429247 0.014446163 0.003474733 0.021394106 -1.3173147e-06 0.018847823
0.011838478 0.00476015 -4.304893e-07 1.562701e-11 0.0017704691 0.0009101385 0.0039697415 0.0012935397
-5.056061e-08 0.017664678 0.0046576466 0.0013935447 0.0003569782 0.0049286997 0.0139881475 0.0045931865
0.00012575221 0.0005297832 0.011369617 3.3025628e-06 9.602795e-05 0.06477401 4.864442e-05 0.0037896398
0.021316793 0.011970003 0.0005400617 0.006195222 0.0023029454 0.0139910355 -5.1597134e-08 0.0017440411
-1.1268362e-05 0.018675666 0.0065838876 0.005305858 0.001572106 4.4701388e-05 0.0009343134 0.005888948
0.0030679307 0.0028471716 0.0018082687 -1.8645226e-08 -1.2220041e-06 0.0014062069 0.002187445 0.0014904256
-7.763797e-07 0.0186773 0.0018798338 0.014497301 3.5834724e-05 -2.783537e-10 0.024274688 0.00073833787
0.0007125564 1.7581501e-06 0.0066945823 0.013955769 0.0032011943 0.02122798 -1.1764578e-06 0.018623916
0.011384843 0.004417751 -4.1721205e-07 4.1740115e-11 0.0015642573 0.0008304587 0.0036663008 0.001168997
-4.1214484e-08 0.017517047 0.004296146 0.0012760172 0.0003231073 0.00457156 0.013772778 0.0042496254
-0.0011879009 0.0073845317 0.005076364 -0.0024560022 0.0036314328 -0.0043871985 -0.0009612081 -0.0017180532
0.017657848 0.008735825 -0.0028518075 0.004526 0.009392497 0.008927768 5.7866742e-05 -0.004363252
0.0006699947 0.00096323405 -0.010024898 -0.009388371 0.0050642937 0.004440725 0.011891631 -0.006504253
0.019034779 -0.0044824253 -0.002887234 8.4267274e-05 0.0008165695 -0.0051643546 -0.0032440175 -0.004495596
0.002060115 0.0035805213 0.0060836896 -0.0042686923 0.0026490493 -3.508136e-06 0.001090108 -0.0037992746
-0.0040505943 -0.002065393 -0.0034734705 0.0069386815 0.008137841 0.0020950832 0.0008173401 -0.0048473324
0.0052748057 0.0020674954 -0.0002566017 -2.0553942e-05 -0.010954295 -0.0030723102 0.010445898 0.0018193146
0.00022502895 -0.017362114 -0.005302234 -0.0035367692 -0.0021481395 -0.0020515863 0.004363126 -0.005604902
0.00014110722 0.0005688716 0.01205045 5.98426e-06 0.0001088313 0.057829455 5.77387e-05 0.004346649
0.021910595 0.012580756 0.00061825593 0.0067514726 0.0025287338 0.014772073 -5.5110863e-08 0.0019005721
-1.18822245e-05 0.018850125 0.0070689106 0.005828409 0.0017083255 6.402504e-05 0.0010567784 0.006518921
0.0033524083 0.0031054153 0.0019756162 -2.1821403e-08 2.3467073e-06 0.0015343543 0.002419336 0.001633452
-7.644134e-07 0.02015209 0.0020657536 0.015363504 4.0846757e-05 -2.9312258e-10 0.025958266 0.00082880486
0.00078170764 2.6024e-06 0.00721658 0.01486836 0.0034916713 0.022108559 -1.3463471e-06 0.0192927
0.011983338 0.0047978545 -4.148751e-07 6.1498376e-11 0.0017772728 0.0009125555 0.003989673 0.0013220009
-4.7129177e-08 0.01884398 0.004715129 0.0013972891 0.00035728785 0.0049789874 0.014335225 0.0046199826
00000000: 8eb9 1439 cb0d 163a 8322 433c 6251 ae36
00000010: 9a4e df38 b4c5 683d b940 6c38 017b 863b
00000020: fb0f b03c 3011 4b3c 0f01 223a 018b d93b
00000030: 983d 243b de1a 6a3c b034 69b3 b575 f83a
00000040: 68b6 46b7 3f5a 993c 19db e43b 7742 b43b
00000050: 6efb de3a 22a5 8238 c62e 8a3a 0148 ce3b
00000060: fc4e 5a3b ab79 4a3b db0f 013b e2d7 bbb2
00000070: 00a2 ee35 afbc c83a a7eb 1c3b 8feb d43a
00000080: cd74 56b5 3609 993c fc2c 063b 8362 763c
00000090: 1b98 3638 d0da c1af 32fe be3c afbc 583a
000000a0: 19ef 4b3a 088d 2336 320f ea3b 99af 6c3c
000000b0: 59b8 633b b142 af3c 97ce b0b5 c066 9a3c
000000c0: 2df6 413c 08fb 9b3b 001e e7b4 e674 892d
000000d0: 160f e83a 5c96 6e3a 9b14 823b fd8b a93a
000000e0: fb27 59b3 84b5 903c 2c9f 983b 9aa7 b63a
000000f0: ce28 bb39 ee80 a13b 8b2e 653c 7182 963b
00000100: 5adc 0339 26e1 0a3a a147 3a3c 99a1 5d36
00000110: 9d62 c938 3ca8 843d 8c07 4c38 9b5b 783b
00000120: 8ea0 ae3c d51d 443c ed92 0d3a 4a01 cb3b
00000130: 03ed 163b a83a 653c a69b 5db3 4f98 e43a
00000140: 3f0d 3db7 b6fd 983c a7bd d73b c3dc ad3b
00000150: 200f ce3a c07d 3b38 b6ec 743a 14f8 c03b
00000160: 560f 493b 9d97 3a3b 6e03 ed3a 4929 a0b2
00000170: be03 a4b5 7950 b83a 3d5b 0f3b 625a c33a
00000180: 6868 50b5 2301 993c c164 f63a 1686 6d3c
00000190: 3e4d 1638 cd06 99af b6db c63c 048d 413a
000001a0: daca 3a3a 94f9 eb35 3a5e db3b bda6 643c
000001b0: 21cb 513b 4de6 ad3c c8e6 9db5 2f91 983c
000001c0: 7e87 3a3c c8c2 903b 30fd dfb4 3193 372e
000001d0: c407 cd3a 24b3 593a 5246 703b 0839 993a
000001e0: ce03 31b3 e97f 8f3c afc6 8c3b 0840 a73a
000001f0: ba66 a939 06cd 953b 38a7 613c 7140 8b3b
00000200: 57b3 9bba f1f9 f13b a157 a63b e1f4 20bb
00000210: 55fd 6d3b 7dc2 8fbb 95f9 7bba 4d30 e1ba
00000220: 31a7 903c b520 0f3c 64e5 3abb d74e 943b
00000230: fde2 193c c645 123c f1b5 7238 9cf9 8ebb
00000240: 95a2 2f3a 8b81 7c3a 783f 24bc afd1 19bc
00000250: 60f2 a53b 8083 913b 1ed5 423c a121 d5bb
00000260: d3ee 9b3c 4fe1 92bb c037 3dbb a6b8 b038
00000270: 0d0f 563a bf39 a9bb 9599 54bb cb4f 93bb
00000280: ff02 073b 2ea7 6a3b b059 c73b 63e0 8bbb
00000290: ac9b 2d3b 516d 6bb6 f4e1 8e3a 40fd 78bb
000002a0: d9ba 84bb 8b5b 07bb 2aa3 63bb e15d e33b
000002b0: 9454 053c aa4d 093b c442 563a 5fd6 9ebb
000002c0: 47d8 ac3b d17e 073b 7f88 86b9 416b acb7
000002d0: a579 33bc d058 49bb 4625 2b3c 1176 ee3a
000002e0: c0f5 6b39 fe3a 8ebc 5dbe adbb 24c9 67bb
000002f0: cdc7 0cbb e873 06bb 8ef8 8e3b 53a9 b7bb
00000300: 2ef6 1339 5420 153a 406f 453c 67cc c836
00000310: 5c3c e438 94de 6c3d 752c 7238 566e 8e3b
00000320: d97d b33c 841f 4e3c 7412 223a 753b dd3b
00000330: 1db9 253b 9106 723c 09b3 6cb3 9e1c f93a
00000340: c459 47b7 946b 9a3c 52a2 e73b 3dfc be3b
00000350: e4e9 df3a 2e45 8638 9983 8a3a ac9c d53b
00000360: 14b4 5b3b 3984 4b3b 5779 013b c671 bbb2
00000370: 207c 1d36 631c c93a b98d 1e3b 8e19 d63a
00000380: 1732 4db5 ff15 a53c 9861 073b 35b7 7b3c
00000390: df52 2b38 5625 a1af 6ea6 d43c 2744 593a
000003a0: 83eb 4c3a e4a4 2e36 1079 ec3b 6c9a 733c
000003b0: 86d4 643b 021d b53c 22b4 b4b5 b90b 9e3c
000003c0: c355 443c 5237 9d3b 00bc deb4 823c 872e
000003d0: 61f3 e83a 9038 6f3a cebb 823b fd46 ad3a
000003e0: 146b 4ab3 b15e 9a3c 5e81 9a3b 3e25 b73a
000003f0: 5d52 bb39 c626 a33b 4bde 6a3c 3963 973b
