Code/CNNLSTM/CNNLSTMModelOutputs/newTLbest_model.pth (torch, 426124 bytes, 27 tensors)

conv1.weight f4 [64, 5, 2]
00000000: 8674 7bbd c6eb 883d af87 3d3e 431e 55bd
00000010: 277c 703d 65e5 45be ff8e 783d 42b1 9b3c
00000020: 779c c5bc 1997 15be d1a5 c3ba 75c0 7a3d
00000030: f7ea cbbd a568 55bd 1ba3 89bd a7c0 a1bc
00000040: a4b3 553d 087c 903a eef3 823d 8a56 29bc
00000050: db4d 51bd 88fa 543d 4811 12bd a163 903d
00000060: 1000 7bbc a607 723d fcf4 ba3c bbbd fbbc
00000070: 0145 a03c c5f2 c23a 0ebb 083e c3af 1fbe
00000080: 648a 83bd 4622 00be 4213 cebd e0be b33d
00000090: 4515 a33d a39f 293e 90b5 0dbe 74b0 1abe
000000a0: cfb7 943c ea75 ff3b f939 7dbc 38d5 d4bb
000000b0: 9c17 32bd 3f53 41bd 4a89 183d 6a13 aabc
000000c0: 1d80 9fbc d6eb c9bb e453 0bbd ec79 16bd
000000d0: 93c1 febd c0e3 34be 325b a03d fda5 a03d
000000e0: e567 9c3d add0 26be 0bce 353d 70bd 06be
000000f0: b750 16be ed1e 28be 9e29 153e c069 a83d
00000100: 5eb9 dcbd cb36 63bd 025c b9bd fa5b dfbd
00000110: 4100 8d3b 3803 ecbb 2ce1 253a d437 223d
00000120: 9a0e 38bd 7f25 17bd 3ea4 d63c 814d ff3c
00000130: 07c3 05bc 270f a93b 1cc6 973c d6ff 0ebc
00000140: de04 573d 1738 a4bb e967 4abc 7dab 01bd
00000150: 5cdb 76bb 0696 d2bd 0dc8 bfbd 5fba 1abd
00000160: e148 9c3d f7e6 9dbc 7111 323c eb5a cabd
00000170: 5296 23be 4c36 38be 586b 3c3e 5a0b 443d
00000180: 6609 89bd feea a7bd fb83 43be 0c5c 823d
00000190: 7fc5 6fbb 3a5a af3b 03fc 633d fa1f 9c38
000001a0: 7248 a83c 182d ba3b 86bb 46bc 833f d93c
000001b0: 07b5 fbbb e1b5 6f3c e88f 533e d57d 313e
000001c0: 9de5 30be d294 6f3e 1345 55bd f171 d43d
000001d0: 9a4c 8b3d 9f70 a1bc f904 09be 6a0e 33be
000001e0: 9cb4 443d 73d0 d33d 1466 acbd c01d a4bd
000001f0: f62a 913d 0e16 9bbd ec23 e5bd 7d95 3c3d
00000200: 2f20 d03d 348a fa3b 7df4 1b3c bad3 b63c
00000210: a8ea 8d3c 38a4 7bbd 55db c93c 417f 723c
00000220: 5452 1b3d 5a12 0ebd a0a0 9abd 91ff 0f3d
00000230: 576c 663d 31fc 09be 03f4 43be 8617 a23d
00000240: 13fb 903d 59ce 313e f9e9 9cbd 6640 b03d
00000250: a6e9 48be cea7 aebd 5458 fc3a cbee f73c
00000260: 9299 0abe adfe c7bc 14f9 e73d 479b f93b
00000270: cb87 d03d 1e1c b73c 98a2 a3bd 1c3d a93d
00000280: 9a2e 10bd 6f3e 0f3e ee82 7c3c 0c06 d1bd
00000290: a8c4 f8bd e892 09be 5e42 47bd 63d0 c53d
000002a0: 70c0 ea3d 84cb f2bd 8640 06be 26e1 d3bd
000002b0: f905 87bd 147a d33c 8125 c43d d8c7 42bd
000002c0: 9920 afbd d354 6c3c 8c00 6fbd 8d4a 1b3c
000002d0: 46fc 403e 1c4b 463e 93d0 b83c 7a19 91bd
000002e0: 3d07 6d3d c711 723d ae72 6e3d 454f 6d3d
000002f0: 13b2 a3bd 1cd6 db3d e0b4 713c 283f 973d
00000300: 0538 0abd b54a d5bc 6557 63bd 3693 743d
00000310: 097f 143d 4096 b5bd e520 8a3d e958 3bbd
00000320: f5e9 903d 7ca8 ba3d 28c6 be3d 8159 913d
00000330: 6789 fe3d bc08 b3bd f336 ef3d 6a0e 8fbd
00000340: d0d7 b7bd 0598 15bb 9aeb 8e3d a73a 6dbd
00000350: d402 fbbc ea17 e03b 12a6 163d 7391 7bbd
00000360: 4276 f2bd 4544 13bd 734b 463d 5b47 61bb
00000370: 4b8a babb 08d0 b8bc 8883 0ebe 50e8 153e
00000380: 3079 d6bd b82d 7abd 8157 b33d c5cf 173e
00000390: 2d4b d4bd 27ec cc3d 2639 bfbd 41c8 273e
000003a0: bcf0 b7bd 12c7 cdbc 9265 f13d a731 073e
000003b0: af52 0ebe 99f5 a23d d62b cbbc 5a77 063d
000003c0: c59c 563b 5a9f 82bc 08a3 b1bc 83fc 8a3d
000003d0: 0f27 d73c f350 8bbd 962a 103a 334a 9b3d
000003e0: c28b 80bc 5a56 043d cd3a c33c d24f 733c
000003f0: 79ef 21bc eda6 883d 76f1 893c bd72 40bd
-0.061390422 0.06685595 0.1850879 -0.052030813 0.05871215 -0.19325788 0.060683247 0.019005422
-0.02412246 -0.1460842 -0.0014926736 0.061218698 -0.09956925 -0.05210175 -0.06720563 -0.019745184
0.05217327 0.0011023292 0.06394182 -0.010335574 -0.05109964 0.051996738 -0.035661012 0.07050253
-0.015319839 0.059089325 0.022821896 -0.030730119 0.019564154 0.0014873376 0.13352606 -0.15594392
-0.0642288 -0.12513074 -0.10062267 0.08776641 0.07963041 0.16564803 -0.13838792 -0.15106374
0.018154053 0.007796039 -0.015455716 -0.006495144 -0.043479547 -0.04719853 0.037240304 -0.02076121
-0.019470269 -0.006162147 -0.03401555 -0.036737368 -0.12439265 -0.17665005 0.07829894 0.0784416
0.07637004 -0.16290541 0.04438595 -0.13158202 -0.14679228 -0.16418047 0.14566657 0.08223295
-0.107775435 -0.055472177 -0.09050752 -0.10906215 0.004303009 -0.007202532 0.0006327804 0.039604023
-0.0449358 -0.036900993 0.026201364 0.031164886 -0.008164174 0.005159277 0.018527083 -0.008727988
0.052494876 -0.0050115692 -0.012353876 -0.031657685 -0.003766737 -0.10282521 -0.093643285 -0.037775394
0.07631088 -0.019275172 0.010868416 -0.098806225 -0.15975311 -0.17989463 0.18400323 0.04786239
-0.06691246 -0.08199118 -0.19093315 0.06365213 -0.0036586223 0.005351332 0.05566026 7.444616e-05
0.020542357 0.005681645 -0.01212967 0.026519543 -0.0076814923 0.014630766 0.20660365 0.17333157
-0.1727509 0.23396614 -0.052067827 0.10373295 0.0680172 -0.019707022 -0.13380803 -0.17485967
0.048023805 0.10342493 -0.08417907 -0.08013487 0.07088272 -0.07572566 -0.11188492 0.046041
0.101623885 0.0076458696 0.00951874 0.022317756 0.017323807 -0.061435908 0.024640718 0.0148008475
0.03792031 -0.03468547 -0.07550168 0.035155836 0.056255665 -0.1347511 -0.19136052 0.07914643
0.070791386 0.17363872 -0.07661814 0.08606033 -0.1962038 -0.085281 0.0019252398 0.030265233
-0.13535145 -0.024413431 0.11326805 0.0076173875 0.101821505 0.022352275 -0.07989997 0.08263609
-0.035200693 0.1398866 0.015412075 -0.102062315 -0.12146884 -0.13434947 -0.048647277 0.09658887
0.11462486 -0.11855224 -0.13110551 -0.10345678 -0.06592936 0.025815047 0.09577466 -0.047553867
-0.085511394 0.014424521 -0.05835013 0.0094782235 0.18846235 0.1936459 0.022560393 -0.070849374
0.05786823 0.059098985 0.058214836 0.057936925 -0.07992949 0.107341975 0.014752597 0.07385093
-0.03374483 -0.0260366 -0.055503268 0.059710704 0.036253963 -0.088665485 0.067445554 -0.04573909
0.07075874 0.09114167 0.09315139 0.0709715 0.12428551 -0.087419 0.116804026 -0.06985171
-0.0897671 -0.0022826206 0.06978531 -0.057917263 -0.030640997 0.0068387883 0.03677947 -0.061418008
-0.11838962 -0.03595378 0.048411798 -0.0034374807 -0.0056927553 -0.022560135 -0.13917363 0.14639401
-0.104723334 -0.061078757 0.087569244 0.14825352 -0.10365901 0.1000598 -0.09337072 0.16384985
-0.08981463 -0.025119338 0.11786951 0.13202535 -0.13898729 0.07957 -0.024801176 0.032828666
0.003274725 -0.015945125 -0.021684185 0.06786444 0.026263742 -0.06802549 0.000549951 0.07582512
-0.015691642 0.032308914 0.02383175 0.014850574 -0.009883755 0.066724636 0.01683877 -0.046984423

conv1.bias f4 [64]
00000000: 0679 19be 70c4 61bd 8fd3 7c3d 51db 893c
00000010: 04fb 733c 717b abbd fc0e c53d 3077 413c
00000020: f7d2 a73d 222a 49bd 6ca6 1f3c b9d5 f73d
00000030: 5a33 be3b 4dcb c6bc 1d2c 1a3c ba04 c9bd
00000040: 9b18 143e bc6d 09be 860c b0bc b145 343d
00000050: 58ee f03c 0a13 91ba 1689 abbd 9a4b debd
00000060: 6064 6e3c 3038 dbbc 8090 6d3d a501 a03c
00000070: 4cc0 c5bb 99b0 fc3b 1204 a7bb 197c 78bb
00000080: bccb 3bbc a3ab 283e 3987 013d 2b94 f4bc
00000090: efc3 f43c bd49 9c3c 739e 30bb 19ae c6bc
000000a0: 49ff fd3c 05e2 0dbd 6622 8e3d 1020 bbbc
000000b0: 439f 1ebd fac5 bb3a 2b0b 20bd 844d d2bd
000000c0: 49b3 053d c896 b03d 4063 b4bd cb6e 0dbe
000000d0: c92e cb3c c417 723d 9f03 96bd 5b7b 2b3d
000000e0: d571 a03b 172c 32be 3c6a 963d ef01 14bc
000000f0: 436d 8c3b 1f58 b33c 4784 f5bd 64ce ebbc
-0.14987573 -0.055118978 0.061725195 0.016828211 0.01489139 -0.08373154 0.09621999 0.011808202
0.08194535 -0.049112447 0.009744268 0.12101311 0.0058044614 -0.024266863 0.0094099315 -0.09815355
0.14462511 -0.13420767 -0.021490347 0.044011775 0.029410526 -0.0011068296 -0.083757564 -0.108542636
0.014550298 -0.02676019 0.057999134 0.019532034 -0.0060348865 0.007711482 -0.0050969208 -0.0037915765
-0.011462148 0.16471724 0.0316231 -0.029855808 0.029878585 0.01907813 -0.0026949912 -0.024252938
0.031005519 -0.034639377 0.06940155 -0.022842437 -0.038726103 0.0014325969 -0.03907315 -0.10268691
0.032641683 0.08622509 -0.08807993 -0.13811795 0.024802582 0.059104696 -0.073249094 0.041865688
0.0048963823 -0.17399631 0.07344481 -0.009033664 0.004285486 0.021892605 -0.119881205 -0.028784938

conv2.weight f4 [32, 64, 1]
00000000: 33d7 0c3d 5638 01bd 5f7e ac3c 2312 ac3c
00000010: 7760 8cbb c8b7 5c3c 16b9 c1bc 084a 633c
00000020: 15ac c03b 14f6 8abd a23d a03b 555b aebd
00000030: 74ea f63c b344 ecbc e662 283d e343 933b
00000040: f6a5 45bb 1c1a 963d 376b 293d 475e 113d
00000050: 1356 dc3c a2ab fdbc c6c3 373c 8442 14bb
00000060: dcfd aabb ada1 ba3c 72be 323a 777f 07bc
00000070: 204e c93b d696 51bd d8ee 5b3c 2d81 dbbb
00000080: 32a2 1bbd 0a43 94bc 0667 1b3d c201 4bbd
00000090: 3539 973d bd8d 183b 8430 483d 47e7 893c
000000a0: 8488 09bc d145 9e3c 59cc 54bd 8ae9 8d3d
000000b0: cf9d 823b 658b 5abc 699b 2fbd 083b cdbc
000000c0: 355a 903d ae69 623d ec8c 3d3d 4a08 cf3c
000000d0: 5ece 84bd ca6e 713c d5cf 47bd d6c0 4b3c
000000e0: 922c 61bc 332e 9f3c 2df2 1a3c ba76 ecbc
000000f0: 14b6 66bb b995 553d e842 0b3c 870b 59bc
00000100: aa77 1f3c 0eb2 10bb 5185 b33b 3835 b93b
00000110: b72c c13a 2b6c f039 add3 703c aad7 b2b9
00000120: ad0a 6ebb 52f8 d83b 9808 2a3b 16df 143c
00000130: b944 97bb 5ec7 28bb f91b 55bc 6c07 a2bb
00000140: b54f 6b3b 31fe c6bb c853 2fbc 72f4 903b
00000150: 3766 4a3c 926a 88bb a08b e7bb e10b 3abc
00000160: e047 63b9 0fe4 96ba 57e9 1eba ced2 d73b
00000170: 1939 78bb 3cb0 0e3c 5535 e83b 2e09 e6bb
00000180: eeaa 013a 7341 893c fe1f 9b3a ce75 9b3a
00000190: 56c6 d13c f4b2 173d e115 52bc a8dd 173c
000001a0: 160c 923a 001d a03b 6838 203c 6a22 013b
000001b0: 5c24 853b 7271 08bb f7fe c7bb 24e0 b43b
000001c0: cd3c 06bb 6a84 09bb 60a2 48bc 23a8 25ba
000001d0: 8615 0b3c 3742 c1ba 611e 243c 9d0c a13b
000001e0: e1b0 b0bb db25 bbbb f0b5 9e39 7642 3d3b
000001f0: 70c8 3abb 8fee 883b d1fa 09bc 7119 17bb
00000200: c265 883d ccda 83ba a827 c33c 4203 3cbd
00000210: 730e 213d 413c cebc 6234 86bc 74ff 8d3b
00000220: a3fc 9cbd 6b2d 27bd d654 33bc 9e3c 563d
00000230: 9cd9 a73c 204a c03c 85b5 c23c 2fbc 6dbd
00000240: 3a2f 533d 3ecf 9dbc 192e 93bc 3fa2 283d
00000250: 5e77 1cbd e3ec 3b39 7ef4 af3d 5464 79bd
00000260: 6ba9 2c3d f64e 34bd c382 49bd 5205 723d
00000270: 59f4 25bd f660 6bbd 3650 323d 6977 9dbc
00000280: e0a4 263d eeaf f1bc ceb3 d23b 3528 e53a
00000290: 8f61 76bc d72f ff3c 62c2 6c3d 47f9 053d
000002a0: 1920 1c3d 1a04 83bc dfae 6f3d 87ca 0cbd
000002b0: dc65 db3b 2bfb 413c a5df e0bc 6397 133c
000002c0: 5823 fcbc b8e2 afbc 844f 9abd 07cc ab3d
000002d0: e80e 8fbd f9d9 7abd c5e0 ab3d 0723 71bb
000002e0: b51d 79bd b868 98bd 6708 88bd c0f6 3bbc
000002f0: d592 7a3d 6e44 80bd 1278 28bc cf1b 5e3b
00000300: 1532 703c 5e65 ff3b 6147 afbb 1a75 0a3d
00000310: 6b7a 29bb 3ffa 8c3c 8f1d 0f3a fae8 dcba
00000320: 0dc0 163b aeb7 e1bb 8783 a13b 0df2 ac3c
00000330: f20e deb9 c8b2 d7ba 3119 1a3b 5378 0c3a
00000340: fb70 0a3c 1388 d83c 724e 0abd 7cf9 1fbc
00000350: 44d4 3abc 84ed d83c 98ac 7bbc 8c8c 7d3c
00000360: 8b61 5ebb af29 8538 3ce9 c6bb 1b48 253c
00000370: f91a 813c 2b53 ff3b 9b5b 103d 2372 a53b
00000380: 8989 fd3c 96da 32bd ea4a 953b e0fa 8fbb
00000390: 6f78 babc 5521 673b 623d c6bc 5f0d b4bb
000003a0: f561 2cba abfe 5dbb 8412 00bb c87a 0fbc
000003b0: 08f9 3bbc 0984 6b3c 3c58 45bc 7c04 813c
000003c0: 5bce 7e3c cd99 31bb 92fc 8d3c 33ad 303c
000003d0: 9475 063b 80d5 0ebd b29d 2d3c d596 7abb
000003e0: 7dce de3b da41 a9ba 7171 63bb fa7b b5bc
000003f0: f3ca e43b 37b0 dcba 0c5a aebc 2955 08bb
0.034384917 -0.031547867 0.021056352 0.021004742 -0.0042839604 0.013471551 -0.023647826 0.013872631
0.005879889 -0.06785217 0.0048901597 -0.08513514 0.030141093 -0.028841352 0.041109942 0.0044941767
-0.0030158735 0.07329199 0.041362014 0.0354903 0.026896512 -0.03096563 0.01121611 -0.0022622654
-0.0052182507 0.022782171 0.00068185397 -0.008270136 0.0061433464 -0.05116924 0.013423644 -0.0066987486
-0.03799648 -0.018098373 0.037940048 -0.049562223 0.07383958 0.0023277842 0.048874393 0.016833914
-0.008394364 0.0193204 -0.051952694 0.0692931 0.0039860974 -0.013338898 -0.04287282 -0.025052562
0.070484556 0.055276565 0.04627697 0.025272507 -0.06484674 0.014735887 -0.04878219 0.012436112
-0.013743537 0.01943121 0.009457153 -0.028865207 -0.0035203742 0.05214474 0.008499838 -0.013247377
0.00973312 -0.0022078785 0.005478539 0.005652096 0.0014738058 0.0004585696 0.014698905 -0.00034111488
-0.0036322281 0.006621399 0.0025945064 0.009086391 -0.0046163467 -0.0025753598 -0.0130071575 -0.0049447324
0.0035905663 -0.0060727824 -0.010701127 0.0044236714 0.0123534715 -0.004163095 -0.007066205 -0.011355371
-0.00021675183 -0.0011512059 -0.0006061992 0.006586409 -0.003787583 0.00870901 0.007086436 -0.0070201373
0.000494643 0.016754841 0.0011835096 0.001186067 0.02560727 0.037035897 -0.012822599 0.009269156
0.0011142518 0.0048862696 0.009779073 0.001970435 0.0040631723 -0.0020819572 -0.006103392 0.0055198837
-0.0020483017 -0.0020983466 -0.0122457445 -0.0006319305 0.008489018 -0.0014744465 0.0100170085 0.0049148337
-0.0053921794 -0.0057113 0.00030271662 0.0028878725 -0.0028500818 0.004178829 -0.008421616 -0.0023055936
0.06660034 -0.0010059713 0.02382262 -0.045901544 0.03932042 -0.025175216 -0.0163824 0.004333431
-0.07665374 -0.0408148 -0.010945519 0.052303903 0.020489506 0.023472846 0.023768196 -0.058040794
0.05155871 -0.01926386 -0.017966317 0.041170355 -0.038199775 0.00017921957 0.08591555 -0.060886696
0.042153757 -0.044020616 -0.04919697 0.059087105 -0.04051623 -0.057465516 0.043533526 -0.019221978
0.04068458 -0.029502835 0.006430126 0.0017483296 -0.015037908 0.031150742 0.057802565 0.032708433
0.03811655 -0.015993167 0.05851638 -0.034372833 0.006695492 0.011839668 -0.027450392 0.009008261
-0.030778572 -0.021470413 -0.07534698 0.083885245 -0.06985265 -0.06124303 0.08392481 -0.003679456
-0.060819346 -0.074418485 -0.066422276 -0.011472404 0.061175186 -0.06263052 -0.010282533 0.0033891087
0.014660378 0.0077940663 -0.005349085 0.033803083 -0.002586032 0.01720917 0.00054594217 -0.00168541
0.0023002655 -0.0068883514 0.0049290094 0.021111513 -0.00042354275 -0.0016456479 0.002351355 0.0005358506
0.008449788 0.026432073 -0.033766218 -0.009764072 -0.011403147 0.026480444 -0.015360974 0.0154754035
-0.0033932652 6.3496984e-05 -0.006070284 0.010087992 0.015759932 0.007791897 0.03524361 0.0050490065
0.030949371 -0.04366549 0.0045560496 -0.0043939203 -0.022762505 0.003526767 -0.024199191 -0.005494758
-0.0006575876 -0.0033873718 -0.0019542286 -0.008757301 -0.011472948 0.014374741 -0.0120449625 0.015749209
0.015552129 -0.002709973 0.017332349 0.010783481 0.002051686 -0.03487158 0.0105966795 -0.0038236876
0.0067995177 -0.0012913302 -0.0034705068 -0.022153843 0.0069822012 -0.0016837184 -0.021283172 -0.0020802713

conv2.bias f4 [32]
00000000: 75c7 b2b3 f0f4 82b2 715e f335 c5d3 31b4
00000010: 2629 51b4 9a19 6133 71e9 6cb4 c35a 0ab4
00000020: b278 5533 6621 1d32 673e e9b3 7d30 89b5
00000030: 403c 1030 7087 3134 f4f7 3832 f7be efb1
00000040: 38e4 7bb4 8dd5 9533 c8df 4532 fe82 c433
00000050: 15c0 32b3 d482 7133 63a6 0134 5748 1933
00000060: babe 80b2 c4ad ae33 66c5 89b3 bd81 de33
00000070: 6e4d 6833 a950 d132 6a6c a234 6cf9 10b3
-8.325052e-08 -1.5245377e-08 1.8132397e-06 -1.6561451e-07 -1.9479612e-07 5.241018e-08 -2.2064138e-07 -1.288527e-07
4.97027e-08 9.146197e-09 -1.0861259e-07 -1.0221407e-06 5.2472515e-10 1.6533681e-07 1.0766588e-08 -6.9775257e-09
-2.3459222e-07 6.977198e-08 1.1517791e-08 9.1507886e-08 -4.1618552e-08 5.6231173e-08 1.2074592e-07 3.568888e-08
-1.4987894e-08 8.134114e-08 -6.415466e-08 1.036128e-07 5.408713e-08 2.4367482e-08 3.0253733e-07 -3.375446e-08

batch1.weight f4 [32]
00000000: c598 f13e 0068 f13e 8ce8 f73e e1d8 ef3e
00000010: 684b fc3e 50dd f93e 133c f33e 35b1 f33e
00000020: 0af6 f13e 3461 f63e d2a5 063f afd0 f43e
00000030: 233e ef3e 45f4 f33e 2177 f43e 6224 ef3e
00000040: 0dda fc3e c54c f93e b65e ef3e f12d fc3e
00000050: 5597 f03e 8be0 ed3e f0da f03e 3319 f53e
00000060: fe62 fa3e 7dab fd3e 0a57 f93e acbe f03e
00000070: 592c ef3e d26a f63e 1b07 023f a9a5 ef3e
0.47186866 0.47149658 0.48419607 0.46845153 0.4927628 0.4880166 0.4750677 0.47596136
0.47258025 0.48121035 0.5259677 0.47815463 0.46727094 0.476473 0.47747138 0.46707445
0.4938511 0.48691383 0.46751946 0.492538 0.46990457 0.46460375 0.47042036 0.47870788
0.4890365 0.49544898 0.48699218 0.4702047 0.46713522 0.48128372 0.5079209 0.46806076

batch1.bias f4 [32]
00000000: e380 4f3b abba d43a 25d5 e0bb 5270 bd3a
00000010: ea18 01bb f29e b63b 1c34 8c3b bb64 af3a
00000020: eaf2 5a3a 4a66 cab9 4db8 7d3c 3a50 76bc
00000030: 7eda af3a ba11 ed3b c853 22bb d07a d6b7
00000040: a800 acbb 5e3d 233c 1efb a239 debe 47bb
00000050: 726f 0c3a 3ad8 e4ba 0d8c be38 bf26 17bb
00000060: 3d2b 223b ec5a b6bb c4f5 033b 0932 423a
00000070: 898c 843a f099 65bb abef 333c d6e9 cc39
0.0031662516 0.0016229948 -0.0068613463 0.001445303 -0.0019698688 0.005573147 0.004278673 0.001338146
0.0008352237 -0.00038604654 0.015485835 -0.015033776 0.0013416556 0.007234779 -0.0024769176 -2.5567977e-05
-0.0052491017 0.009963362 0.00031086145 -0.0030478756 0.0005357183 -0.001745946 9.0859925e-05 -0.0023063866
0.002474501 -0.005565038 0.0020135501 0.00074079685 0.0010112684 -0.003503438 0.010982434 0.00039084133

batch1.running_mean f4 [32]
00000000: a20a e13a 1bd3 573b 6480 3c3b 6b99 e8bc
00000010: 5bd3 8fbb 7572 4e3b 37a9 763c 7fb3 353c
00000020: ed8c 8dbc 2568 acbc c636 013c 4355 60bb
00000030: d100 bf3b 58d9 843c 9b33 4b3b 853e 683c
00000040: 1e47 0bbd 34bc aebc cb47 b1bb b5a9 2f3d
00000050: c40e 90bc 2d48 61bc 1a7d ccbc 2e72 133b
00000060: bd64 133d 3af4 aabc 38c1 ac3c 9353 5cba
00000070: 537d 9d3c 18d0 83bc 7db6 f23b 7305 b63b
0.0017169307 0.0032932225 0.002876305 -0.028393468 -0.004389209 0.0031501327 0.015054992 0.0110901585
-0.017279113 -0.021045754 0.007886594 -0.0034230507 0.0058289547 0.016216919 0.00310061 0.014175062
-0.03400337 -0.021329977 -0.0054101697 0.042886455 -0.017585166 -0.013750118 -0.024961997 0.0022498476
0.035984743 -0.02086841 0.021088228 -0.00084047875 0.019224798 -0.016090438 0.007407008 0.005554849

batch1.running_var f4 [32]
00000000: 614a 633a 4be9 5739 2397 753a 4a3c 4a39
00000010: b332 413a d2ab 203a 5982 893a 1663 9c39
00000020: d684 be39 6059 953a aaeb f43a 5029 163a
00000030: b302 ef39 109d 883a ca07 893a f226 1239
00000040: 6ed8 c439 d346 a13a 4216 9a38 5dec e939
00000050: db10 c639 6737 0039 8a33 c039 22b8 423a
00000060: 5d31 b23a 9cf2 5c3a d3d5 213a fab5 2539
00000070: 8d10 8139 7c1c 433a 0569 083b 8796 d738
0.0008670446 0.00020590906 0.00093685294 0.0001928668 0.00073699205 0.0006129119 0.0010491117 0.00029828463
0.00036338595 0.0011394434 0.0018685956 0.0005728202 0.00045587643 0.0010422785 0.0010454592 0.00013938153
0.00037545286 0.0012304432 7.347438e-05 0.00044617328 0.0003777806 0.0001222767 0.00036659493 0.00074279506
0.0013595034 0.00084284856 0.0006173525 0.00015803418 0.0002461713 0.0007442904 0.002081455 0.00010280037

conv3.weight f4 [32, 32, 1]
00000000: 55b5 91bb 81f3 1cbd d6d6 28bd 2410 99bd
00000010: 55bc 423d efe0 863b 2f5c 1dbd 680c 363d
00000020: 7732 b7bd 779c 913d c011 fb3c f6af 84bd
00000030: 24c3 d8bc 8428 143c 180c 1bbc 6d95 50bd
00000040: 78ec 62bc 49d9 703d a7e9 d9bc 0809 ebbc
00000050: ede6 313b e658 513d 95d4 41ba e726 f7bc
00000060: b6f8 123d 9332 5ebd 4dd2 79bd 245d eebc
00000070: 2a4c 7fbd 85f3 813d cee5 4ebd 4335 213b
00000080: 8bf3 cfbc 1a50 183d d486 88bc acfa e53c
00000090: b168 a03c 744e 51bd 9d18 febc b826 8bbd
000000a0: a907 dabc 2e07 6fbd cc4f d03c 811a 303d
000000b0: 0f82 7abc 9015 103c 5751 8e3c 76e6 7b3b
000000c0: baee 4f3d 71a1 2a3d 4306 b53c ba21 c3bb
000000d0: eb45 c3bc e3fa 5f3d 4019 23bd 27bb ac3c
000000e0: 2664 293d 3d2b b1bd 6324 f23c 1a30 e2bc
000000f0: b8b8 b1bc a816 6d3d 7423 95bd 9df1 7e3d
00000100: af6f db3b b08b fb3c 185f edbc 348a 923c
00000110: ff90 7bbd 0061 8cbb afda d43b 46b0 8f3c
00000120: 100e 183d f7c0 a0bc 9b78 393c 9246 933c
00000130: 087f b53c a22a cdbc 930e 113d b239 1e3d
00000140: 1de5 403d 4574 533c c99f 76bb 13c6 623c
00000150: 3db8 8e3c f92f dd3c 2e9e 953d 6a28 f93c
00000160: 86ea 443d fd0f 62bc 48e3 6f3d e8d2 64bc
00000170: 09c1 593d 07c6 513b f5c6 c63b a271 34bc
00000180: 6d20 153d 2918 ff3c cbac 923c 3eeb e1bc
00000190: 3fdb 083c 1579 253a 7c2f 31bd 76cb 9bbc
000001a0: 342f 6c3d 43ef cc3c 4b78 af3c 13e3 4cbc
000001b0: 5803 183d 3c2b 10bd 3f3b 123d 26f8 403c
000001c0: d792 fe3c aca6 223d 3112 c3bc aed2 5fbd
000001d0: 3d1e 8a3d 76c3 80bd e3c6 aabd c39c 593d
000001e0: 5114 0ebc 10c0 cbbc f436 c73c c568 873c
000001f0: 8a9e c43c 478c 59bd 21d5 aabd 06ee 46bd
00000200: c5df 193d e462 e13c cca3 5cbb 7fa2 72bd
00000210: cb90 4cbd 34cb 473a dba2 24bd 208a a4bc
00000220: 4af3 00bd 886c 0ebc 0ecf 073d dc2a 27bd
00000230: 3c18 a03c c8bf f0bc aa59 773c d618 cabc
00000240: 89fe 6b3d 63a7 a0bc 08b8 223d a58d 243d
00000250: 4118 3f3d 635d e8bc 00c0 c93c 3901 623d
00000260: 3c05 88bc 72dc 18bd c6f9 3d3d 82ca 07bd
00000270: 44e6 0dbd 9f2f d53a 20ca e93c 7708 b9bc
00000280: 3494 d3bb 9974 9dbc 1f3f b0bc c376 00bd
00000290: c978 613c 8a3c 4fbd cefb 673c fc87 26bd
000002a0: 13d7 403d d0b7 1cbc 7f5c 4b3d c28a 93bc
000002b0: 20e8 11bd 9b1a 87b9 bba7 6c3b 18f9 3fbb
000002c0: 9673 613d 9a43 313d 00c1 b2bc 5bcc 20bd
000002d0: da94 d7bc 27b9 56bc 479c 03bc 765c 35bd
000002e0: 0f78 433d 3ab4 eebc d1fb 323d 8d91 49bb
000002f0: cd8e 263c 05ee ccbc 08cc 18bd 2169 e73c
00000300: b5a3 173b 1296 f4bc 88a8 d0bc f56e 7a3c
00000310: 74fa cfbc 0666 66bd b977 51bd 82ff a2bb
00000320: b6b2 123d c7a5 cabc 5b32 28bd 6ce9 dfbc
00000330: 8cd9 d33c 0b90 9ebc dc04 04bd 563b b9bc
00000340: 13b5 f13c 9bbf 02bd 8c1f efbc a5eb 993c
00000350: 0f1c 40bc e1a8 a93c f059 0ebd 09eb 873c
00000360: d249 2e3d a9ed ffbc a87f dcbc 047a e1bc
00000370: 364e b63c 3893 53bd e2c2 85bc fcba 2abc
00000380: 6d8e 563c 0fb3 ebbb 91b6 39bd 38de 22bd
00000390: 06a7 77bd c833 de3b 39bf d0bc ec4a ddbc
000003a0: 51a1 58bc cbe8 18bd 55c6 8d3c 755c 8c3c
000003b0: edc3 6ebb 5406 05bc c891 963c 703a 4f3d
000003c0: 555c 0b3d d643 05bc 4d92 fdbb 002e 02bd
000003d0: 1b8a 613c 684f 15bc 327d 783c 421e 93bc
000003e0: a9e0 32bd c95e abbc 99c3 373d 2ecf 01bd
000003f0: 34af fa3c 934d 173d 498e a3bc 5382 8bbc
-0.0044466653 -0.03831816 -0.04122051 -0.07473782 0.04754289 0.0041161696 -0.03841799 0.044445425
-0.08945172 0.071099214 0.030648112 -0.064788744 -0.026460238 0.009042863 -0.009463333 -0.050923754
-0.013850324 0.05880097 -0.026600672 -0.02869083 0.00271457 0.05111017 -0.0007394043 -0.030169917
0.03588172 -0.05424745 -0.060991574 -0.029097147 -0.062328495 0.06345276 -0.050512128 0.0024598397
-0.025384685 0.037185766 -0.016665854 0.028073631 0.01958117 -0.05110021 -0.031017596 -0.067944944
-0.02661498 -0.058356456 0.025428675 0.042994026 -0.015289797 0.008794203 0.01737277 0.0038436926
0.050764777 0.04165787 0.022097712 -0.0059549483 -0.02383705 0.054682624 -0.039819002 0.021085335
0.041355275 -0.08650825 0.029558366 -0.027610827 -0.021694526 0.057882935 -0.07282153 0.06224214
0.0066966633 0.030706257 -0.028976008 0.017888166 -0.061417576 -0.0042840242 0.0064957957 0.017540108
0.037122786 -0.019623263 0.0113202585 0.017977986 0.0221553 -0.025044743 0.03541429 0.03862924
0.0470935 0.012906139 -0.003763186 0.01384117 0.017421836 0.027000414 0.07305561 0.030414779
0.04807522 -0.013797757 0.05856636 -0.0139663 0.05316261 0.0032008903 0.006066198 -0.01101342
0.036407877 0.03113945 0.01790466 -0.027577993 0.008353054 0.0006312293 -0.043258175 -0.019017916
0.057662204 0.025016433 0.021419665 -0.012505311 0.037112564 -0.03519748 0.035701033 0.011777913
0.031075878 0.039709732 -0.023812385 -0.05464428 0.06744049 -0.06287281 -0.08338716 0.053128015
-0.008671836 -0.024871856 0.024318196 0.01652945 0.024001379 -0.053112295 -0.08341432 -0.04856684
0.03756692 0.027512975 -0.0033666966 -0.059237 -0.049942773 0.0007621527 -0.040194374 -0.020085394
-0.03148202 -0.008692868 0.033156447 -0.04081236 0.019542806 -0.029388323 0.015097061 -0.024670046
0.05761579 -0.019611066 0.039726287 0.040174145 0.04665399 -0.028364843 0.024627686 0.055176947
-0.016604058 -0.037319608 0.04638078 -0.03315211 -0.034643427 0.0016264803 0.028538764 -0.022587044
-0.006456876 -0.019220637 -0.021514473 -0.03136326 0.013761708 -0.050594844 0.014159156 -0.04065703
0.04708011 -0.009565309 0.049648758 -0.0180105 -0.035621762 -0.0002576903 0.0036110717 -0.0029292759
0.055041872 0.04327736 -0.021820545 -0.03925739 -0.026316095 -0.013105667 -0.008032865 -0.04427763
0.04772192 -0.029138673 0.043697182 -0.003075692 0.010165882 -0.02501584 -0.037303954 0.028248372
0.0023138348 -0.029856715 -0.025470987 0.015285243 -0.02538798 -0.05624964 -0.051139567 -0.0049743066
0.035814963 -0.024737252 -0.041063648 -0.027332984 0.02586057 -0.019355794 -0.032231197 -0.022611301
0.029505288 -0.03192101 -0.029189847 0.018789122 -0.01172544 0.02071041 -0.03475374 0.016591566
0.04255087 -0.031241255 -0.02691634 -0.027524002 0.02225409 -0.05165407 -0.016328279 -0.010420557
0.01309548 -0.0071929763 -0.045340125 -0.039762706 -0.06046202 0.006781075 -0.025481807 -0.027013265
-0.013222055 -0.037331384 0.017306486 0.01713393 -0.0036432699 -0.0081191845 0.01838006 0.05059284
0.0340236 -0.008133849 -0.0077383877 -0.03178215 0.013765837 -0.00911317 0.015166568 -0.017958764
-0.043671284 -0.02091922 0.04486427 -0.031691723 0.030601121 0.036939215 -0.019965308 -0.017029917

conv3.bias f4 [32]
00000000: 6d40 1832 dcbb b1b2 1c02 6ab4 c881 60b4
00000010: 9fee efb1 4e55 0d32 6b7c 85b1 afd2 9ab3
00000020: dfe6 4030 5eb5 19b3 dd45 8032 f93b e232
00000030: 2b7c c832 5c70 83b1 203e bb31 5ecb dfb2
00000040: a0a3 a7b3 37ae b533 ad87 fd30 9d44 9db3
00000050: e6de 58b2 0bf8 d2b1 2c72 53af 5192 0632
00000060: 249b 07af b801 9cb2 9734 89b3 e4f3 1532
00000070: 0cab 27b1 baca 32b2 add8 bab1 34d4 0231
8.862213e-09 -2.069094e-08 -2.1793716e-07 -2.090884e-07 -6.9829436e-09 8.226676e-09 -3.884954e-09 -7.209507e-08
7.017728e-10 -3.578804e-08 1.4932931e-08 2.6337135e-08 2.333953e-08 -3.8253756e-09 5.449479e-09 -2.6053097e-08
-7.806307e-08 8.460159e-08 1.8446734e-09 -7.323363e-08 -1.2623536e-08 -6.1400036e-09 -1.92309e-10 7.833095e-09
-1.2333295e-10 -1.8161572e-08 -6.389126e-08 8.728396e-09 -2.4398927e-09 -1.0407058e-08 -5.4379456e-09 1.9038113e-09

batch2.weight f4 [32]
00000000: 2e0b 033f fc03 fd3e 27d1 003f 5834 013f
00000010: 270b 013f 4dbf 013f f800 023f 33d3 033f
00000020: d1f5 043f b113 fd3e a6b3 043f fb11 033f
00000030: 4cfa 043f 090d 023f 0baa 033f d3da 023f
00000040: 3851 033f 430e 063f 9b2f 053f e2d0 023f
00000050: 4255 013f c828 033f b9f8 003f 9665 003f
00000060: c679 fc3e 0483 fc3e 6a30 f63e e9fd f33e
00000070: e23b f13e 2a55 ef3e a9c1 ed3e b933 ed3e
0.51188934 0.49417102 0.5031914 0.50470495 0.5040764 0.50682527 0.5078273 0.5149414
0.51937586 0.49429086 0.5183662 0.5119931 0.5194442 0.5080114 0.5143134 0.5111515
0.51295805 0.5236551 0.52025765 0.5109998 0.5052072 0.512341 0.5037952 0.5015501
0.49311656 0.49318707 0.48083812 0.47654656 0.47116 0.46744663 0.46436813 0.46328524

batch2.bias f4 [32]
00000000: 083d d03b a359 1aba efcd 443a 6488 f03b
00000010: 4cc6 fd3b 43df 143c cb49 f93b b754 2e3c
00000020: b6ae 213c 8207 d93b 8d96 1d3c ac31 1c3c
00000030: e7b0 713b 90fc 1b3c 0b9d 183c de8f 2a3c
00000040: 99c6 2a3c b6a4 093c 5af7 213c 61e5 143c
00000050: 0570 123c fec6 f93b b16a 1a3c 85f4 1c3c
00000060: ffd5 bb3b d388 d63b 378f ba3b f828 723b
00000070: 54e3 813b 9d58 253b 8b6c 933a 3e0b fc39
0.0063549317 -0.00058879907 0.0007507493 0.007340478 0.007744586 0.009086433 0.0076076738 0.010640315
0.0098683145 0.0066232095 0.009618414 0.009533327 0.0036879124 0.009520665 0.009314786 0.010410277
0.010423326 0.008401087 0.009885633 0.009087891 0.00893784 0.0076225987 0.009424851 0.009579782
0.0057322974 0.0065470724 0.005693342 0.0036950689 0.003963867 0.002522982 0.0011247558 0.00048073562

batch2.running_mean f4 [32]
00000000: b2cb ae3c 9367 feba 7fbc e9bc dc5d 4239
00000010: 84f6 2bb9 08f9 c73b 874d 9b3c 447e 053c
00000020: fb31 503c d9cd 0bbc b964 a43b f651 01bc
00000030: 8e87 1cbc 741a 4a3c 5c64 cb3b 8234 263b
00000040: 4d37 233c d0a7 433c 8fe4 7f3b e949 04bc
00000050: 5e8e 22ba 9851 a9bb 19ab b53b f07f 743a
00000060: 9211 cbba 1dff f93b 8c48 b4bb fa37 353a
00000070: ba5b e53a dde4 f0ba 0626 df39 42c4 fe39
0.021337364 -0.001940953 -0.028532265 0.00018536247 -0.00016399665 0.006102685 0.018957866 0.00814778
0.012707229 -0.008532965 0.00501689 -0.007893076 -0.009553803 0.0123354085 0.006207032 0.0025360887
0.009961915 0.011941865 0.0039046144 -0.008074262 -0.0006201024 -0.0051671974 0.005544078 0.00093269255
-0.0015492907 0.007629289 -0.0055018123 0.0006912943 0.001749865 -0.0018378753 0.00042562204 0.0004859288

batch2.running_var f4 [32]
00000000: 9c33 973b 5574 be3b 8745 d83b d525 4c3c
00000010: 7745 383c b4cd 823c d31a 2c3c 8bd6 7b3c
00000020: 6828 3c3c dab1 833c 8607 103c 84cc 073c
00000030: 54b0 3e3c 0798 113c 1811 133c e183 0d3c
00000040: fd73 3a3c 6721 973b e6bf 2f3c 88c2 013c
00000050: bec7 563c 75e5 b43b 7030 1c3c 8785 9a3b
00000060: 764d da3b 55c7 9e3b 6604 ba3b acd0 413b
00000070: 967f 0e3b 4bb7 e43a 81c4 733a 2302 c239
0.0046143066 0.0058122077 0.006600085 0.012460192 0.01124703 0.015967228 0.010504442 0.015370975
0.011484243 0.016076017 0.008790856 0.008288506 0.01163872 0.008886344 0.008976243 0.008637399
0.011380193 0.004612136 0.0107269045 0.007919915 0.013109146 0.0055205175 0.009533033 0.0047156247
0.006662066 0.0048455396 0.005676794 0.002957384 0.0021743528 0.0017449645 0.0009298996 0.00037004155

LSTM.weight_ih_l0 f4 [256, 57]
00000000: 09ef f9b8 a145 7eba 63a5 0439 9f11 843a
00000010: 603a 33bb f244 4dbb 1dd1 4cbb 3745 4dbb
00000020: 914a 4dbb 0945 4dbb e3ce 2d3b 67a6 683b
00000030: 0069 ab3a 96a2 803a 9bdd b0ba 9c79 d23a
00000040: 5772 f93a f535 6fb9 7bca abb9 d251 46bb
00000050: c736 d439 04f2 81ba 6080 fa3a 5021 013a
00000060: 7f0e e13a 6a8d 363a a514 8939 4547 ab3a
00000070: 1186 b13a a83e e539 a2e7 4f39 feef 1839
00000080: 43d6 2939 0ff0 3e39 4dda ab3a 77d5 e539
00000090: 787f a93a 206b f739 cfc7 0c39 ec62 a339
000000a0: 7bb7 4439 92c7 ab3a 1b0f e439 47c9 a93a
000000b0: 6fd6 f539 322a 1639 be93 a139 1f09 39bb
000000c0: 73d8 4a3a d5ce 6f3a e495 2bbb c7ac 12bb
000000d0: 41d7 853a b738 af3a 7c27 b13a ee80 7dba
000000e0: 6565 58b9 5000 d5b9 e7f5 27bb 24ad 23b9
000000f0: edf6 093b 1c39 cabb c11c d2bb 68c2 c7bb
00000100: 9f45 d1bb 0f5e eabb 4026 f6bb efcb b53b
00000110: 786f 103c be6e 033b 9229 ce3a 29f4 17bb
00000120: 33ac 813b 206e 7f3b e073 e5ba 51e8 b2ba
00000130: 68f4 d1bb 5b88 723a c99e 0fbb 5a08 7e3b
00000140: 2abf c4ba 34eb 513b 982c 51b9 77e8 3d39
00000150: 4e85 223b d047 5eb9 e865 1e3a 0f23 9b39
00000160: a799 023b 765f 383a 7caa 4f39 cee1 873a
00000170: de56 253a 7069 05b7 e13c 2a3a a4cb 0fbb
00000180: 42b7 7b3a bf69 4439 4fa2 0bba e171 143a
00000190: ec88 7f3b fd21 2f3a e243 2ebb d9f5 7b3a
000001a0: f52f dabb 5b76 35b8 bd1e ae3a e043 cabb
000001b0: d265 b9bb c8c0 fdba 6ab4 a23b 301d ff3a
000001c0: 09f7 27bb c785 e8b9 4394 af35 160e 96b6
000001d0: e0eb 1236 da52 da36 5df4 90b7 1476 bcb7
000001e0: ce4b 85b8 6762 aeb7 21a4 7db7 5952 b2b7
000001f0: ee9e ac37 1c71 8839 1297 5eb7 1241 9635
00000200: 97c9 0d37 7f79 d037 db97 6137 a9c3 f8b7
00000210: 6e1d 04b8 85c3 b2b7 22e1 5e37 be41 a8b6
00000220: 133a 9a37 0ccf 06b7 3632 ee37 a2e2 2ab7
00000230: 40a9 9db7 b897 49b6 f890 34b7 9520 88b7
00000240: 576c b2b7 bfd7 29b9 3685 5237 ed79 65b7
00000250: 5a7a 5438 0a78 86b7 d42a 1638 e88d d2b7
00000260: f3f3 8c38 149e 3b37 bc4d 83b7 7bfc df37
00000270: ed52 86b7 3c72 bdb5 0e02 beb7 4770 64b9
00000280: 4758 3b37 8ff5 93b7 7332 5836 3f93 e737
00000290: 90da bbb7 414a 47b7 b204 7bb7 aa28 5fb7
000002a0: d174 8236 98d1 c4b6 9362 be35 c87e 16b8
000002b0: 007d 52b9 d32d dcb8 b571 4239 4f6d 25ba
000002c0: 5e83 3aba f488 3fba 28f8 3bba 8c24 43ba
000002d0: 2cfc 42ba dde8 283a a79b 4b3a c27d a539
000002e0: 2a7d 6939 3e00 90b9 16aa cb39 64bf db39
000002f0: 516f 1fb8 7667 8fb8 2711 32ba 2d44 0f39
00000300: 5baa a1b9 92cb f039 86cf 3e39 bed0 db39
00000310: b6dc 4339 fc54 0f38 4bf5 ae39 1a53 b439
00000320: b9a4 a438 86cc 5c37 4dcf 9838 177e 2f38
00000330: ec83 aa36 b182 ad39 46bf 9538 8043 ad39
00000340: 9f6d b138 3e26 cb38 1f5f 9238 2441 c036
00000350: fd5c ac39 5f72 a238 c683 a639 71b8 9b38
00000360: 5c97 da38 6841 9eb6 ea36 2bba 195c 8139
00000370: 6be3 5b39 6183 15ba c551 0eba 096a 7039
00000380: f25e b439 c142 bb39 102e abb9 220c 28b8
00000390: 3c8f c0b9 8cbe 8cba 06ad 8839 5d37 cc3a
000003a0: 6a58 80bb 98f0 94bb 8b51 95bb f2f9 94bb
000003b0: 5c69 94bb a6fb 94bb 9e1b 893b da16 b93b
000003c0: 6864 103b 021a e03a 215e ceba 3850 d63a
000003d0: fb67 243b 9316 a639 f574 4039 406f 8dbb
000003e0: f0b4 423a ef46 baba 9ae4 4b3b ca61 103b
000003f0: e371 393b 336e 343b 6554 1d3a 8525 7f3b
-0.00011917769 -0.00096997066 0.00012650112 0.0010076052 -0.0027348027 -0.0031321612 -0.003125257 -0.0031321773
-0.0031324963 -0.0031321666 0.002652102 0.0035499574 0.0013077557 0.0009814079 -0.0013493778 0.0016057971
0.0019031268 -0.00022812917 -0.0003276652 -0.003026117 0.00040476603 -0.0009914045 0.0019111745 0.00049259234
0.0017170458 0.00069638214 0.00026146058 0.0013067505 0.0013543983 0.00043724966 0.00019827348 0.00014585254
0.00016196915 0.00018209241 0.0013111323 0.00043837327 0.0012931665 0.00047191326 0.00013425875 0.00031163485
0.00018760368 0.0013105741 0.00043498803 0.0012953662 0.00046889807 0.00014320834 0.0003081839 -0.0028234196
0.0007737942 0.0009147947 -0.002618187 -0.0022380815 0.0010211245 0.0013368343 0.0013515796 -0.0009670396
-0.00020637138 -0.0004062676 -0.0025628747 -0.00015609391 0.002105172 -0.0061713587 -0.006412119 -0.006096173
-0.0063864733 -0.007152326 -0.007511884 0.0055479924 0.008815639 0.002005502 0.0015728942 -0.0023186302
0.0039572953 0.0038975552 -0.0017505847 -0.0013649558 -0.0064073093 0.0009251886 -0.0021914712 0.0038762302
-0.0015010585 0.003203106 -0.00019948406 0.00018111044 0.0024798694 -0.00021198322 0.0006042407 0.00029590024
0.001992801 0.0007033268 0.00019804569 0.0010366978 0.00063071947 -7.951967e-06 0.0006494057 -0.0021941448
0.00096021977 0.0001873141 -0.0005326615 0.0005662721 0.0038991524 0.0006680785 -0.0026590754 0.00096115243
-0.006658549 -4.326399e-05 0.0013284307 -0.006172642 -0.00565789 -0.0019359821 0.0049653547 0.0019463655
-0.0025629422 -0.0004435016 1.3081666e-06 -4.471988e-06 2.1892993e-06 6.5065515e-06 -1.7279928e-05 -2.246633e-05
-6.356054e-05 -2.0788239e-05 -1.5118189e-05 -2.12576e-05 2.0578005e-05 0.00026024214 -1.3267405e-05 1.1194809e-06
8.451191e-06 2.4852108e-05 1.3446402e-05 -2.9655015e-05 -3.149866e-05 -2.13103e-05 1.3284649e-05 -5.0144436e-06
1.8385274e-05 -8.035229e-06 2.8395192e-05 -1.0185557e-05 -1.8794672e-05 -3.0039646e-06 -1.0762589e-05 -1.6227636e-05
-2.1269703e-05 -0.00016197468 1.2547991e-05 -1.3677852e-05 5.0658688e-05 -1.6029942e-05 3.5802674e-05 -2.5100031e-05
6.721159e-05 1.1182874e-05 -1.5652615e-05 2.6701242e-05 -1.601266e-05 -1.4114844e-06 -2.2650722e-05 -0.00021785601
1.1166622e-05 -1.7638113e-05 3.2215873e-06 2.7605913e-05 -2.2393913e-05 -1.1878613e-05 -1.4961859e-05 -1.3301304e-05
3.887901e-06 -5.865655e-06 1.4184792e-06 -3.588086e-05 -0.00020073727 -0.00010498953 0.00018543641 -0.0006310539
-0.0007114912 -0.00073064794 -0.0007170462 -0.00074441056 -0.0007438089 0.0006443391 0.00077670295 0.0003156495
0.00022267239 -0.00027466 0.000388459 0.00041913532 -3.8012226e-05 -6.8380425e-05 -0.0006792717 0.0001366294
-0.00030835238 0.0004592804 0.0001819712 0.0004192646 0.0001867887 3.4173005e-05 0.00033370624 0.0003439419
7.8508114e-05 1.3160641e-05 7.2865376e-05 4.184068e-05 5.0817525e-06 0.00033094504 7.140501e-05 0.00033047423
8.460436e-05 9.6869175e-05 6.97954e-05 5.7296293e-06 0.00032875678 7.746065e-05 0.00031760166 7.425331e-05
0.00010423243 -4.716381e-06 -0.0006531315 0.00024673415 0.00020970187 -0.0005703476 -0.0005429055 0.00022927685
0.00034403015 0.00035717155 -0.0003264998 -4.006562e-05 -0.00036727812 -0.001073794 0.00026068854 0.0015580464
-0.00391679 -0.0045452826 -0.00455684 -0.0045463974 -0.0045291614 -0.0045466004 0.0041842004 0.005648476
0.0022032503 0.0017097595 -0.0015744605 0.0016350811 0.0025086391 0.00031678806 0.00018354117 -0.0043162405
0.00074274745 -0.0014211814 0.00311116 0.0022030943 0.0028296642 0.0027531504 0.00060016505 0.0038932275

LSTM.weight_hh_l0 f4 [256, 64]
00000000: 464a 9f38 0d58 a2b8 51e6 1739 de5c fab8
00000010: f9cc 1639 1d51 8638 4291 26b8 c6aa e4b7
00000020: 7cb4 34b9 4e58 9d38 e44b 0239 d44e 9e38
00000030: 617c 4b39 49f7 1839 0c07 4fb9 4df1 04b9
00000040: 3cdc b5b7 50b3 11b8 8489 12b8 3f56 8434
00000050: b24e 82b7 e895 2ab9 5512 58b9 b9f7 3d38
00000060: adca 8bb8 985b 10b9 ded3 ff38 b77c b439
00000070: 281e fe38 528d 0ab9 4aed adb5 0b84 c838
00000080: 060d 42b9 f704 52b9 4cbb 5f39 7573 c0b8
00000090: 894e 31b9 ad43 59b9 7a90 63b9 a0db 2bb9
000000a0: a324 2b38 3111 71b9 5167 8bb8 35bd 14b9
000000b0: aee1 19b7 4211 0939 ba27 5039 1beb 41b7
000000c0: f478 0039 2e17 7fb9 98b9 54b9 652a a5b9
000000d0: 03fe 12b9 d6ed 0fb9 5b81 3939 4943 73b9
000000e0: 2cd2 76b9 6249 4ab8 65ca 8837 2534 d838
000000f0: 8052 7d37 25b9 bd37 7e55 d2b8 f72c 3e37
00000100: 8e95 7b38 e6df 7937 0b1a 4c39 4a23 2eb8
00000110: 745b aa39 7894 fdb6 90eb 0db8 4369 98b8
00000120: e86d c4b9 0420 9db7 5199 1a3a 964d 0b39
00000130: 89c3 9539 b697 5539 6a27 97b9 70d6 94b8
00000140: 65a1 90b8 58f6 35b9 ea33 1bb8 2231 9136
00000150: dc9a 5ab8 33f6 c1b9 87e5 a0b9 93cc 1238
00000160: e48a 50b8 dce3 7eb8 5303 1f39 e4ce 503a
00000170: 7a2e de38 a65f 5bb9 58b2 b6b3 0e51 ae38
00000180: a173 97b9 67a2 d8b9 c567 a039 4dfb 2fb9
00000190: 022f d2b9 0302 aab9 c284 a1b9 de5a 8db9
000001a0: 0a8d 1b37 9260 e6b9 f670 48b8 067a 4cb9
000001b0: e046 8438 449c 7d39 a185 7439 9743 84b7
000001c0: 686f e438 ebdc ceb9 5288 f4b9 fffa 27ba
000001d0: 030e 5db9 18d1 9bb7 baa6 0d39 7579 e2b9
000001e0: c08e 98b9 6ae9 33b8 e8ff 9a38 a55b 4c39
000001f0: ce70 b938 ce7c f037 b74c 0fb9 4c8f 32b8
00000200: c7cc e532 259c fbb4 90a1 0735 8428 b734
00000210: 3fd7 dc34 9abd 7b35 b965 a633 acc4 17b3
00000220: 2762 c7b4 c1a4 bf34 4d6f 3836 333a 40b6
00000230: e1a1 5834 9213 a934 a656 29b5 42b3 f134
00000240: a04b 3fb1 b2ee 7db4 7f2e feb3 b107 7cb2
00000250: d644 ca33 51a2 0eb5 225e 2fb5 da19 1fb4
00000260: 2c41 d931 0042 9534 0e85 50b5 762b 0436
00000270: 2a59 8632 26a4 9134 09a2 b431 4764 0db5
00000280: 4210 0634 f1bf cbb5 8c8e a5b4 dc82 1635
00000290: d888 76b5 6bc1 3bb4 c89b d9b4 2fcd fcb4
000002a0: e9f2 6bb2 401a 35b5 3856 a4b3 276a 08b5
000002b0: 59c3 2935 cec2 7534 525b 1e35 abca de33
000002c0: 81bb 0835 402b c6b4 8331 a9b5 1cf0 76b4
000002d0: 2a8c 49b4 467e a8b1 7c08 1034 137f 68b4
000002e0: b35b 94b4 0fcd 73b4 a773 a633 8674 1fb4
000002f0: ebeb b434 df11 0cb4 0d35 8e35 2350 10b5
00000300: 5eb1 8737 9466 19b9 e290 3838 dc04 18b9
00000310: 234c 9938 2505 3238 8c35 39b7 cce9 17b9
00000320: 5479 84b8 8a9e da38 62b7 e438 35a5 aa38
00000330: 02fa b938 8912 3239 02be 33b8 22a4 0bb9
00000340: 21e7 0db8 1f48 0939 aa2b b5b6 ac37 a335
00000350: 5e9b 33b7 e8c3 69b8 644a 4fb8 0016 f236
00000360: 46e8 88b8 2b51 1bb9 4fc8 e838 48b6 e238
00000370: 11b0 b638 567f ebb8 ed2c 06b4 7a0e 0c38
00000380: 0ea6 38b9 4023 c5b8 2b1a 9038 df8c 2ab9
00000390: 78f1 15b8 c5f3 1db9 c92f 53b8 ab17 0fb9
000003a0: 12f3 ca35 e822 94b8 5c63 19b7 551b 10b9
000003b0: 072b 9fb8 c544 3238 4fc5 a038 c2e1 13b9
000003c0: 4ed4 3338 3089 43b9 7164 c438 fb85 a1b8
000003d0: d78d fab7 47d4 b7b6 529c 2539 ad4d a5b8
000003e0: 5d11 2db9 d6a9 31b9 4065 1937 9d72 2138
000003f0: fd20 2239 36e8 6738 7233 feb8 27f8 1c39
7.595545e-05 -7.741163e-05 0.00014486282 -0.00011938227 0.00014381473 6.4047264e-05 -3.9712766e-05 -2.725924e-05
-0.00017233373 7.5027914e-05 0.00012426038 7.54871e-05 0.00019405923 0.0001458797 -0.00019743684 -0.00012678393
-2.1679436e-05 -3.473769e-05 -3.4937184e-05 2.4649668e-07 -1.5533853e-05 -0.00016268308 -0.00020606194 4.529182e-05
-6.665788e-05 -0.00013767031 0.00012198811 0.00034425195 0.00012117281 -0.00013213351 -1.2958565e-06 9.561338e-05
-0.00018506133 -0.0002002901 0.00021336711 -9.176779e-05 -0.00016909292 -0.00020719944 -0.00021702229 -0.00016389647
4.0803698e-05 -0.00022989955 -6.647281e-05 -0.00014184865 -9.172056e-06 0.00013071767 0.00019851225 -1.1558436e-05
0.0001225209 -0.0002432733 -0.00020287035 -0.0003150284 -0.00014018272 -0.00013726144 0.00017691164 -0.00023199352
-0.00023538683 -4.8228896e-05 1.630671e-05 0.00010309395 1.5099184e-05 2.261677e-05 -0.000100295045 1.1335352e-05
5.9982347e-05 1.4893687e-05 0.00019464658 -4.15177e-05 0.00032493065 -7.5572716e-06 -3.3836404e-05 -7.267531e-05
-0.0003746592 -1.8730767e-05 0.000589748 0.00013284976 0.0002856518 0.0002036978 -0.0002883033 -7.097132e-05
-6.896517e-05 -0.00017353275 -3.700323e-05 4.3270566e-06 -5.2119474e-05 -0.0003699526 -0.0003068859 3.4999637e-05
-4.9720416e-05 -6.077053e-05 0.0001516466 0.00079653994 0.00010594442 -0.000209211 -8.507476e-08 8.312064e-05
-0.00028887115 -0.0004131973 0.00030594892 -0.00016782917 -0.00040089345 -0.00032426426 -0.00030807225 -0.00026961317
9.271558e-06 -0.0004394097 -4.778892e-05 -0.00019500413 6.307452e-05 0.00024186174 0.00023319434 -1.57671e-05
0.00010892638 -0.0003945598 -0.00046640873 -0.0006407946 -0.00021081422 -1.8574807e-05 0.00013508918 -0.00043196572
-0.00029098056 -4.289431e-05 7.3909585e-05 0.00019489096 8.842499e-05 2.8668346e-05 -0.00013666121 -4.2571963e-05
2.675223e-08 -4.6866003e-07 5.0526523e-07 3.4115885e-07 4.1134805e-07 9.3780693e-07 7.7484806e-08 -3.53363e-08
-3.7138054e-07 3.5696397e-07 2.7482922e-06 -2.8644106e-06 2.0175459e-07 3.1492942e-07 -6.3083496e-07 4.5020175e-07
-2.7837146e-09 -2.3649298e-07 -1.1836254e-07 -1.4670079e-08 9.418879e-08 -5.3135324e-07 -6.532956e-07 -1.4817434e-07
6.3229404e-09 2.7801434e-07 -7.767966e-07 1.969483e-06 1.56402e-08 2.7127788e-07 5.2571107e-09 -5.2672516e-07
1.2485637e-07 -1.5180541e-06 -3.0837361e-07 5.606978e-07 -9.1841275e-07 -1.7486097e-07 -4.0532746e-07 -4.7087948e-07
-1.3734032e-08 -6.7465953e-07 -7.652528e-08 -5.081842e-07 6.3241674e-07 2.2888273e-07 5.8992475e-07 1.0374546e-07
5.09368e-07 -3.6911842e-07 -1.2605891e-06 -2.2997887e-07 -1.8770575e-07 -4.903799e-09 1.3414132e-07 -2.1652913e-07
-2.7633868e-07 -2.2705738e-07 7.7510144e-08 -1.485042e-07 3.3699266e-07 -1.3045018e-07 1.0595264e-06 -5.3760795e-07
1.6175847e-05 -0.0001462943 4.400395e-05 -0.0001449766 7.30979e-05 4.24433e-05 -1.1039327e-05 -0.00014487578
-6.3168496e-05 0.0001042458 0.00010906045 8.137004e-05 8.868055e-05 0.00016982308 -4.2853884e-05 -0.00013317217
-3.3832275e-05 0.00013092205 -5.3993035e-06 1.2160649e-06 -1.0705406e-05 -5.573398e-05 -4.9421928e-05 7.214723e-06
-6.52825e-05 -0.0001481219 0.000110999325 0.00010810472 8.711231e-05 -0.000112293914 -1.2496066e-07 3.3392083e-05
-0.00017609468 -9.400258e-05 6.871329e-05 -0.00016264942 -3.5749254e-05 -0.00015063498 -5.0350824e-05 -0.0001364636
1.5120916e-06 -7.063692e-05 -9.142645e-06 -0.00013743092 -7.589725e-05 4.2502554e-05 7.666146e-05 -0.00014103114
4.287465e-05 -0.00018647755 9.364717e-05 -7.702034e-05 -2.9868372e-05 -5.4785373e-06 0.0001579386 -7.882281e-05
-0.00016505034 -0.00016943304 9.143085e-06 3.8492133e-05 0.00015461813 5.5290955e-05 -0.00012121246 0.00014969763

LSTM.bias_ih_l0 f4 [256]
00000000: 09a1 883b beaf 0a3c 3f00 d237 d239 7e3a
00000010: 57dc cc3b f597 0f3d c2db 653b 690a 893a
00000020: b5b6 1d3c 3dfb 6b3c 0214 0b3d 2b26 fe3b
00000030: 68b4 2639 5837 6a3b e7a9 7c3b 3cc5 5c3a
00000040: d22c 2a3c fab7 173c 6017 9c3a 441b 0536
00000050: 624a 6338 b5c4 f93b 139f 483b 3bc2 ae3b
00000060: 4398 5839 5435 473c 8179 863b 1344 d03b
00000070: 3115 b739 3b51 f43b c887 2734 31f1 213b
00000080: d9a8 513b 6e4f 403c 1cf5 de3b 48e6 013c
00000090: 0390 c63a 37ee a93a 46b4 253b 063f bb3b
000000a0: 05c8 d736 8844 3f3c c0d0 0c3b 7f35 4a3c
000000b0: 3ea4 423c 18a7 663a 74a6 eb3b 0833 c33a
000000c0: 04f2 053c 26ea 183b 8af8 e63b db5f f93b
000000d0: a5dc 3e3b 2ea3 a839 f5c3 0c3b 2459 a53b
000000e0: 526e d03b 48ba ba3a 9cd8 513a 943e 9a3b
000000f0: 4b89 7f3c 1c6d b638 8393 103c 3134 8d3a
00000100: 63d3 843b 5ef1 0c3c 9985 b337 2582 743a
00000110: 2019 d03b 8fb4 0b3d ea1b 5e3b dca6 803a
00000120: 4124 253c aa8c 183c b1e3 6f3d c7dc 1c3c
00000130: 6f8a 1d39 52d5 643b 8dbe 863b ee66 553a
00000140: 0113 303c 8438 0c3c 5601 983a b6fc 0936
00000150: 5851 8738 352c 013c 3997 7b3b 0e83 ab3b
00000160: fd0f 5939 1d87 093c bd2f 813b 4f66 d33b
00000170: d5c1 a039 9fa6 f63b 5c32 1434 6ab0 1b3b
00000180: 9202 493b 7c90 693c 6a3b 1e3c b5d0 053c
00000190: 4f4d be3a ad96 a23a 4c52 1e3b 4f29 b83b
000001a0: 3b24 fa36 a0a6 2a3c 553f 053b 6814 5b3c
000001b0: 06a9 473c 1e70 5e3a 03a2 ee3b 05c4 bc3a
000001c0: 8d67 a33b aaae 103b 08c9 fd3b 9518 013c
000001d0: f284 383b b8ec b139 744b 713c 97b0 a53b
000001e0: 5096 c83b 7b62 b23a e764 443a aac0 993b
000001f0: 2133 8b3c e2f0 a238 b2a4 0c3c 246a 893a
00000200: 0e97 6dbc 56e5 d2bb de8d 1bbb 92a2 b43a
00000210: 1bab d4bc d64c adbd 5a84 b83b 84ec 753a
00000220: 7d39 d13b 809f 24bc 067a a9bd aa02 25bd
00000230: 8969 8c39 87f8 393c b8e7 e738 d21d de3a
00000240: f703 c53c 302f 4cbd b27f c63a b015 6f39
00000250: e8a9 fc39 ac0a 5a3d 8ee1 c43b 652e 99bc
00000260: 0874 0c3b 69cd a8bb 1f4a 33bb 0239 9f3c
00000270: 498e 9dba bcd4 81bc 7219 b1b6 3bb4 f23a
00000280: 390d 803c 68ea eb3c 3845 c5bc ebdb 0f3c
00000290: 9d59 47bd e938 6f3c 9d15 aebc 9a68 bd3c
000002a0: 168f 7cb9 8d40 7d3c 980a 96bc 270d 173b
000002b0: 90d5 00bc 6917 be3b 472e 6bbc a8ab c53b
000002c0: c85d 653b b1e0 4abc 985e 0cbd 4f2c 3abd
000002d0: 8ee8 793a 98e3 853a 9b4d 173d 0153 2dbd
000002e0: 6a65 bbbc b77b 333c 6651 243c 2223 1d3c
000002f0: 72cb 5f3b a886 2abc ddb6 92bc fc54 08bb
00000300: 323a 903b f163 0f3c a235 ee37 9c98 803a
00000310: f575 d83b 9be6 223d fc56 713b 7bcb 893a
00000320: e57a 2e3c 97e1 963c 49e6 373d eeb9 273c
00000330: 9794 2339 f3c3 753b cbad 873b a7e4 5a3a
00000340: bf9f 3c3c 12dc 293c b3b8 a03a 0ad8 1436
00000350: 482f 9238 704b 083c 17eb 513b 2ebf b93b
00000360: 0143 6e39 9a1f 323c 321f 933b 330d e03b
00000370: d80a ab39 8f11 053c 4996 3c34 a7c9 253b
00000380: 1181 5d3b f1de 5c3c f7dd 213c 73f1 0c3c
00000390: fd62 d63a a273 af3a b0bf 343b de84 cc3b
000003a0: 6dc6 d636 00b2 623c 8c87 0d3b ce44 5c3c
000003b0: d2cd 623c fecb 6c3a 2cee 0a3c dbb3 c53a
000003c0: eeb2 ca3b 80a4 293b 3770 1c3c 4361 193c
000003d0: 377d 473b 168f af39 52c4 463b 1994 ae3b
000003e0: fefe c83b 77b7 bb3a 29a8 583a 9007 a23b
000003f0: 4271 8c3c a08a aa38 f8c7 2b3c 5a3f 8c3a
0.0041695875 0.008464752 2.5034065e-05 0.0009697947 0.0062518525 0.035057027 0.0035073613 0.0010455373
0.00962608 0.014403162 0.033954628 0.007756015 0.000158982 0.0035738554 0.0038553418 0.0008421724
0.010386663 0.009260172 0.0011908822 1.9834415e-06 5.4190292e-05 0.0076223263 0.0030612394 0.0053332127
0.00020656087 0.0121587105 0.00410384 0.0063557713 0.0003492027 0.0074559725 1.5602484e-07 0.0024710412
0.003199151 0.0117376875 0.0068041217 0.0079284385 0.001514912 0.001296467 0.0025284453 0.0057143
6.4307847e-06 0.011674054 0.002148673 0.012341856 0.011879979 0.00087987026 0.0071914736 0.0014892528
0.008175377 0.0023332923 0.007048671 0.007610304 0.0029123214 0.00032165035 0.0021479104 0.005046027
0.0063608075 0.001424619 0.00080049946 0.004707167 0.015596698 8.6987595e-05 0.008824232 0.0010773
0.0040535196 0.008602468 2.1400674e-05 0.00093272544 0.0063506514 0.03410774 0.003389115 0.0009815353
0.010079444 0.009310881 0.058566753 0.009574122 0.00015024257 0.0034917188 0.004112071 0.0008140643
0.010746718 0.008558396 0.0011597078 2.0561688e-06 6.452453e-05 0.007884075 0.0038389696 0.005234129
0.00020700689 0.00839403 0.0039424584 0.006451405 0.00030661994 0.007527187 1.3801895e-07 0.0023756274
0.0030671698 0.014255639 0.00965772 0.008167435 0.0014518889 0.0012404524 0.002415794 0.0056201587
7.4547984e-06 0.010415703 0.0020331938 0.013371564 0.012186294 0.00084853347 0.007282497 0.001440168
0.0049867094 0.0022076764 0.007744912 0.007879396 0.0028155413 0.0003393644 0.014727462 0.0050564515
0.0061214343 0.0013609672 0.0007491842 0.004692157 0.016992154 7.76963e-05 0.008584188 0.0010483903
-0.014501346 -0.0064360304 -0.0023735682 0.001378136 -0.025960496 -0.08461921 0.005631012 0.0009381252
0.006385027 -0.010047793 -0.08275227 -0.040285744 0.0002678151 0.011350757 0.00011058099 0.0016946143
0.024049742 -0.04984969 0.0015144257 0.00022800895 0.00048191776 0.053232834 0.0060083335 -0.01869888
0.0021431465 -0.00515144 -0.0027357412 0.019436363 -0.0012020554 -0.01584851 -5.2779733e-06 0.0018516848
0.015631305 0.028798297 -0.024080858 0.00878046 -0.048669446 0.014600971 -0.02125054 0.023121167
-0.00024085896 0.015457285 -0.018315598 0.002304861 -0.007863417 0.0058011306 -0.014354295 0.006032426
0.0034998525 -0.012382672 -0.0342699 -0.045452412 0.00095332495 0.0010214923 0.036939245 -0.042315487
-0.022875506 0.010954789 0.0100291725 0.009590896 0.0034148362 -0.010408081 -0.017909462 -0.0020802608
0.0044014687 0.008751855 2.8396786e-05 0.0009811106 0.0066058584 0.039770704 0.0036825528 0.0010512912
0.0106494175 0.018418116 0.04489735 0.0102372 0.00015600245 0.0037500828 0.004140591 0.0008350112
0.011512696 0.01036741 0.0012262076 2.217947e-06 6.970629e-05 0.008318767 0.0032030994 0.0056685423
0.0002272241 0.010871792 0.0044898028 0.006837511 0.0003262374 0.008121862 1.7563538e-07 0.0025297196
0.0033798853 0.013480888 0.009879581 0.008602488 0.0016356405 0.0013385902 0.0027580075 0.006241425
6.400797e-06 0.013836384 0.0021595685 0.013444139 0.013843017 0.0009033083 0.008479636 0.0015083508
0.006185881 0.0025885403 0.0095482385 0.009361568 0.0030439624 0.00033485208 0.0030329418 0.005327713
0.006133913 0.0014321645 0.0008264804 0.004944749 0.01714385 8.1320526e-05 0.010484688 0.0010700033
