Code/CNNLSTM/CNNLSTMModelOutputs/oldTLbest_model.pth (torch, 426124 bytes, 27 tensors)

conv1.weight f4 [64, 5, 2]
-0.04936948 -0.100709215 0.13473515 0.0768781 0.13699451 -0.12273376 0.036371354 0.09727643
0.013810954 0.022401901 -0.025401255 0.0074059544 0.03594451 -0.10628213 0.056657627 -0.111368544
-0.051946897 0.027325248 -0.05955954 -0.00331842 0.043901652 -0.0767658 0.045314424 -0.01256152
0.03341021 0.076816276 0.02266485 -0.03649108 0.012872437 0.06659168 -0.11307165 -0.036798887
-0.0027723953 -0.055145256 0.10856738 3.273804e-05 -0.13621344 -0.104855835 0.0271689 0.112473086
0.05940592 -0.08710998 0.07445995 -0.1452041 0.100801505 0.034839317 -0.090750195 -0.09159415
0.14684477 -0.17622744 0.111597136 -0.0012551135 -0.02357379 -0.077938735 -0.040692523 0.014879992
0.06354854 0.046650615 0.07268076 -0.009285376 -0.12879905 0.08490196 0.1495992 -0.026257955
0.069000006 -0.078836896 -0.0482429 -0.09696126 -0.013760733 -0.013578228 0.10889264 -0.012706816
0.03336824 0.18108952 -0.15541038 0.05592508 -0.05280904 -0.073129304 -0.13954298 -0.17043132
-0.03538109 -0.13548395 -0.042596217 0.034836505 0.1090365 -0.07215444 -0.030218055 0.15327264
0.035785753 -0.04767732 -0.09943234 0.09919881 0.11416991 -0.11521554 -0.061183706 0.0564672
0.005574498 0.034637444 -0.04742423 0.11749989 -0.11901735 0.1277431 -0.059874028 -0.0048052585
-0.059843007 0.015234545 -0.023326142 0.06564097 0.09577851 0.020602757 -0.07407647 0.050838906
-0.08347865 -0.11617974 0.032097906 -0.013090125 -0.027059386 -0.09399034 -0.036180012 -0.09530404
-0.013373244 0.016934589 0.1605797 -0.050050046 0.060136225 -0.014382278 0.096391164 -0.06228619
-0.05797576 -0.106905214 -0.024251327 -0.023623692 0.082158245 0.0946579 0.014018395 -0.016482288
0.035605263 -0.0645398 0.005553718 0.10035615 0.00060396985 -0.034785975 0.07103724 0.07702833
-0.009038912 -0.032130912 0.049292143 -0.14579253 0.034527242 0.07813885 -0.14105624 0.06741671
0.1354211 0.049921133 -0.061760753 0.06326397 0.06901489 -0.10484241 -0.050017674 -0.020231338
0.07271272 -0.030151889 -0.037061293 -0.104683094 -0.0029535652 0.09502747 0.052933726 0.067089744
-0.028443325 -0.06890005 0.0050209733 0.055393375 0.015431403 -0.14512607 0.025472565 -0.050047915
0.052933916 0.04206953 0.10998098 -0.06824156 0.1181275 0.11572466 -0.02979739 0.10701287
-0.010497691 -0.12560846 -0.11163301 -0.012541357 0.17092706 -0.07191288 -0.20248723 -0.16537976
0.113958985 0.16355696 0.087639235 0.065883674 0.010488227 0.15859206 -0.029245205 0.16106354
-0.010321074 0.0024749583 -0.03159931 0.08105091 0.05925338 0.0050176424 -0.0661803 -0.027078206
-0.080263786 -0.0015271996 0.15694922 -0.019217685 0.0938841 -0.12676404 -0.09626705 0.040441167
-0.08391319 0.04460292 0.13275075 -0.03032987 -0.18760183 -0.10317049 -0.20393024 0.10378313
-0.07718389 -0.006183199 0.008562654 -0.14502545 0.16021292 0.11550367 0.09366815 -0.061007116
0.033763867 0.05300829 0.062059216 0.17707498 0.0041829348 0.04679355 0.02257829 0.08512752
0.0943625 -0.10843515 0.103343844 0.05966555 -0.06591664 -0.17091823 0.111388616 0.0132985655
0.08131656 -0.016031899 0.040218 -0.16103995 -0.00059246813 0.11981366 -0.030399356 0.057869118
00000000: a737 4abd a240 cebd 03f8 093e 4472 9d3d
00000010: 4a48 0c3e d65b fbbd 21fa 143d dd38 c73d
00000020: 5747 623c 3184 b73c 4b16 d0bc a6ad f23b
00000030: 8d3a 133d 72aa d9bd d411 683d 3115 e4bd
00000040: 45c6 54bd 33d9 df3c b4f4 73bd d979 59bb
00000050: 38d2 333d 6337 9dbd 9e9b 393d d5ce 4dbc
00000060: 25d9 083d da51 9d3d a3ab b93c ac77 15bd
00000070: eae6 523c 3861 883d 1c92 e7bd 6eba 16bd
00000080: 13b1 35bb fedf 61bd 9358 de3d 3450 0938
00000090: 897b 0bbe a8be d6bd 5091 de3c 4a58 e63d
000000a0: 9f53 733d b866 b2bd 757e 983d 62b0 14be
000000b0: 0571 ce3d acb3 0e3d 3ddb b9bd b795 bbbd
000000c0: 7a5e 163e f774 34be 0a8d e43d 9f82 a4ba
000000d0: d21d c1bc 589e 9fbd 34ad 26bd 36cb 733c
000000e0: bd25 823d b714 3f3d a6d9 943d b121 18bc
000000f0: e6e3 03be 14e1 ad3d 8830 193e ec1a d7bc
00000100: e04f 8d3d 3d75 a1bd 599a 45bd a093 c6bd
00000110: b374 61bc 3777 5ebc 1b03 df3d 4030 50bc
00000120: 23ad 083d 886f 393e e623 1fbe b211 653d
00000130: 4b4e 58bd d1c4 95bd 5be4 0ebe 8c85 2ebe
00000140: c3eb 10bd 4ebc 0abe 5f79 2ebd b9b0 0e3d
00000150: 874e df3d b5c5 93bd db8b f7bc 81f3 1c3e
00000160: 1594 123d 4b49 43bd 2fa3 cbbd bf28 cb3d
00000170: ead1 e93d 20f6 ebbd c49b 7abd 274a 673d
00000180: 47aa b63b fedf 0d3d e93f 42bd c8a3 f03d
00000190: 5ebf f3bd 16cf 023e 783e 75bd 6e75 9dbb
000001a0: f11d 75bd 509a 793c 7716 bfbc c66e 863d
000001b0: 8627 c43d 1dc7 a83c 68b5 97bd 753c 503d
000001c0: dbf6 aabd a5ef edbd 1879 033d f777 56bc
000001d0: a5ab ddbc 027e c0bd 7e31 14bd c42e c3bd
000001e0: 731b 5bbc 68ba 8a3c 016f 243e 4701 4dbd
000001f0: 6751 763d a5a3 6bbc bb68 c53d ce1f 7fbd
00000200: fe77 6dbd 1ff1 dabd b8aa c6bc 7986 c1bc
00000210: 9542 a83d 00dc c13d 69ad 653c dd05 87bc
00000220: d3d6 113d 712d 84bd f7fb b53b 8687 cd3d
00000230: bb53 1e3a bd7b 0ebd f97b 913d 07c1 9d3d
00000240: f217 14bc b49b 03bd 8fe6 493d a34a 15be
00000250: 706c 0d3d 4307 a03d 0c71 10be c611 8a3d
00000260: d4ab 0a3e 1a7a 4c3d d8f8 7cbd 8a90 813d
00000270: ae57 8d3d 9eb7 d6bd 55df 4cbd 31bc a5bc
00000280: 68ea 943d 1801 f7bc 95cd 17bd 1764 d6bd
00000290: 9a90 41bb c39d c23d 09d1 583d 5966 893d
000002a0: fa01 e9bc 781b 8dbd fa86 a43b 2ae4 623d
000002b0: ffd3 7c3c ee9b 14be d7ab d03c 0bff 4cbd
000002c0: 3cd1 583d 1951 2c3d b53d e13d 3bc2 8bbd
000002d0: d5ec f13d 0d01 ed3d a819 f4bc 9029 db3d
000002e0: 82fe 2bbc 819f 00be d99f e4bd 447a 4dbc
000002f0: 8107 2f3e 0f47 93bd d058 4fbe 5059 29be
00000300: 5463 e93d 7a7b 273e 337c b33d 05ee 863d
00000310: d0d6 2b3c f565 223e a493 efbc d7ed 243e
00000320: b919 29bc e932 223b 476e 01bd 05fe a53d
00000330: acb3 723d 096b a43b 8a89 87bd 1dd3 ddbc
00000340: 5761 a4bd 512c c8ba 4cb7 203e 686e 9dbc
00000350: 4f46 c03d 6fce 01be a927 c5bd a3a5 253d
00000360: aeda abbd 8db1 363d d0ef 073e 5976 f8bc
00000370: b21a 40be 0d4b d3bd 17d3 50be 408c d43d
00000380: 9612 9ebd 6f9c cabb 604a 0c3c 8d81 14be
00000390: db0e 243e 308d ec3d 16d5 bf3d 99e2 79bd
000003a0: fb4b 0a3d 381f 593d ce31 7e3d 2553 353e
000003b0: 0011 893b 98aa 3f3d 1bf6 b83c 5657 ae3d
000003c0: 2041 c13d 3f13 debd f0a5 d33d dd63 743d
000003d0: 4eff 86bd 3005 2fbe b71f e43d 3ae2 593c
000003e0: 4c89 a63d 5455 83bc a1bb 243d a8e7 24be
000003f0: dd4f 1bba dd60 f53d 1208 f9bc 2b08 6d3d

conv1.bias f4 [64]
0.0424953 -0.01794492 0.0028105206 -0.0567052 0.05822125 -0.003546635 -0.0064183436 0.007787294
0.047581945 -0.01242711 -0.037640456 -0.016586361 -0.029814878 -0.04143683 -0.032177024 -0.00754059
-0.011554484 -0.018069508 -0.07338012 -0.012518576 0.0062171253 -0.009660793 -0.022409692 0.00031012067
-0.0820774 0.04399784 -0.033694297 0.0778932 0.006894606 -0.061118692 -0.01867969 -0.01351959
-0.023483222 -0.004549292 0.0061214226 0.011762063 0.060719896 -0.0016916267 0.017713418 0.0265362
0.010430216 0.02795336 0.009237446 0.032866742 -0.012463197 -0.02649822 0.0828448 -0.008173244
-0.14619742 -0.008327859 -0.0037227066 -0.02344264 0.00042281646 0.11691927 -0.039026164 -0.1001942
0.008509022 -0.100040756 0.008231716 0.008305405 -0.023677832 0.0006771066 -0.036775984 -0.037328545
00000000: 8d0f 2e3d 3a01 93bc b630 383b b643 68bd
00000010: 6879 6e3d a96e 68bb f850 d2bb 8f2c ff3b
00000020: 49e5 423d 149b 4bbc e12c 1abd 1fe0 87bc
00000030: 553e f4bc aab9 29bd 0ecc 03bd 0e17 f7bb
00000040: 054f 3dbc 8106 94bc 5148 96bd b71a 4dbc
00000050: 07b9 cb3b 4d48 1ebc 8894 b7bc b197 a239
00000060: 3218 a8bd 1437 343d 0803 0abd 7886 9f3d
00000070: 26ec e13b 9857 7abd 2606 99bc 4581 5dbc
00000080: e35f c0bc 3a12 95bb 3796 c83b abb5 403c
00000090: 6db5 783d 93b9 ddba bb1b 913c 7262 d93c
000000a0: 7fe3 2a3c 72fe e43c a858 173c 479f 063d
000000b0: 7032 4cbc cc12 d9bc 89aa a93d 12e9 05bc
000000c0: c7b4 15be 9371 08bc a7f8 73bb c80a c0bc
000000d0: 77ad dd39 5f73 ef3d e6d9 1fbd 9e32 cdbd
000000e0: 6d69 0b3c 2be2 ccbd 52de 063c 6513 083c
000000f0: 03f8 c1bc db7f 313a 6aa2 16bd d1e5 18bd

conv2.weight f4 [32, 64, 1]
-0.0015001002 -0.004342606 -0.00088406634 -0.0005380107 0.03536755 -0.004635459 0.011063849 -0.00037448772
0.0025411316 0.007408728 -0.006151493 0.017880192 -0.021713316 -0.0051710857 -0.0065925885 -0.00883405
0.0024813905 -0.021581268 -0.011193216 0.014369763 0.010916617 -0.0040120604 0.0042637456 -0.0040601124
0.008023421 0.0011120337 -0.014338365 0.0015078628 -0.019404186 -0.00010888833 -0.005757356 0.012581991
-0.0025577229 0.0031987992 -0.007366843 -0.0097427135 0.0033885897 -0.008142643 0.0030716015 -0.0013969367
-0.015327746 -0.003490955 -0.0025806453 0.0027836224 9.359371e-05 -0.0024161083 -0.033986412 -0.010221783
-0.00034490554 -0.010847145 -0.025921209 0.0040654787 -0.008744109 0.037176047 0.00701974 -0.005902173
0.0050532785 0.0030722874 0.003046198 0.004191536 0.013374592 -0.018255979 0.013501251 0.0021171411
0.032031525 -0.03892165 -0.05275853 -0.03266306 -0.08405157 0.030913325 0.03262677 -0.0279599
-0.016633874 -0.025559073 0.0018825901 0.0500503 0.08574262 0.03010106 0.073710606 0.024519973
-0.006808415 -0.040188517 -0.06766483 0.07505553 -0.025816789 -0.01670254 -0.036148842 -0.078061655
-0.06396853 0.0700558 -0.06443681 0.00586333 0.06681862 -0.005436065 -0.0061054504 0.048204716
0.064983286 0.012662408 0.05270029 0.027936593 -0.0071643596 0.06787056 -0.04695075 0.02435397
-0.019226184 -0.012455176 -0.001727722 0.0114507 0.06167112 -0.027002992 -0.10151626 -0.03975351
-0.04660541 0.014453337 -0.00663266 0.021602826 -0.06702819 0.094275124 0.004105294 -0.062316053
0.024415692 0.029759225 0.027937973 0.058277417 -0.033091217 0.04006269 0.02498429 0.029892005
0.0030406653 -0.017777162 0.0093464935 0.0019354416 0.0074842307 0.001140849 -0.0018522375 0.0026123861
0.0016592286 -0.0064362367 0.030611996 -0.005019669 0.04364889 0.009461842 0.00028871297 -0.005929562
-0.008809427 -0.009205141 0.023135012 0.015438635 -0.00869317 0.024574453 -0.036358114 0.00014016393
-0.022077389 -0.0021696948 0.0022579413 -0.0026517892 -0.031953946 -0.016072173 -0.004850403 -0.01267415
-0.019462923 -0.006331263 -0.017442679 0.01032238 -0.005385131 0.010946372 0.00062375754 0.005033958
-0.0022004112 0.003970561 0.012353877 -0.008887924 0.018355152 0.003587472 -0.046511117 0.006906477
-0.013129207 0.0018819841 -0.00039356016 -0.011761259 0.016872944 0.018964855 -0.014123513 0.0011826444
0.009436642 0.025031751 -0.0059064804 -0.00463415 -0.0029850684 -0.0039998507 0.016781008 0.0019269331
0.009536854 0.01808041 -0.020634951 0.015507582 -0.0014492045 -0.00054911285 0.0089406 0.021348791
0.010301048 -0.006568469 -0.018330213 -0.031739432 1.8118111e-05 0.01503382 -0.018963192 0.0018122406
-0.011908031 -0.011656944 -0.017316474 0.0040857764 0.019167315 -0.007889048 0.061087754 0.0101567255
-0.02768238 0.0009875585 0.047495235 -0.0112284245 -0.019807527 -0.03303135 0.015079946 0.022564607
0.009826741 -0.03191409 0.009882151 -0.015285403 0.014443659 0.003203636 -0.021117192 0.007571204
-0.0047215633 -0.01648781 -0.02052646 -0.0016148388 -0.023761248 -0.020953896 -0.010993522 0.0015937696
0.052318323 0.0015416602 -0.023091018 0.0068255053 -0.0018457551 -0.02289004 0.009806148 -0.030510042
-0.002471581 0.018563889 0.014507931 -0.023447754 0.0406906 0.0406802 -0.04705696 -0.0030905174
00000000: 039f c4ba 6b4c 8ebb b0c0 67ba 4909 0dba
00000010: 90dd 103d 0ce5 97bb 2545 353c e456 c4b9
00000020: 1d89 263b eac4 f23b 7792 c9bb 7b79 923c
00000030: 20e0 b1bc 3672 a9bb a406 d8bb b1bc 10bc
00000040: d39e 223b 33cb b0bc c063 37bc 286f 6b3c
00000050: 9cdb 323c 9a77 83bb e4b6 8b3b b10a 85bb
00000060: ab74 033c a9c1 913a 76eb 6abc 7ba3 c53a
00000070: 87f5 9ebc fa5a e4b8 34a8 bcbb b224 4e3c
00000080: 789f 27bb f2a2 513b 8f65 f1bb e79f 1fbc
00000090: 1a13 5e3b b868 05bc ec4c 493b 6b19 b7ba
000000a0: 3a21 7bbc 82c8 64bb 0b20 29bb 6f6d 363b
000000b0: be47 c438 9257 1ebb 5635 0bbd 4479 27bc
000000c0: 70d4 b4b9 39b8 31bc b758 d4bc b537 853b
000000d0: 7443 0fbc e945 183d d905 e63b 0467 c1bb
000000e0: f995 a53b 6e58 493b b9a2 473b 2759 893b
000000f0: 1b21 5b3c 908d 95bc 5a34 5d3c bcbf 0a3b
00000100: 7d33 033d 4f6c 1fbd 5419 58bd b3c9 05bd
00000110: 3b23 acbd f13d fd3c a6a3 053d 290c e5bc
00000120: c343 88bc 4361 d1bc 3ec1 f63a 8b01 4d3d
00000130: d499 af3d 8096 f63c 96f5 963d 1cde c83c
00000140: 2019 dfbb b79c 24bd dc93 8abd b7b6 993d
00000150: bb7d d3bc c4d3 88bc cf10 14bd cade 9fbd
00000160: ef01 83bd 6a79 8f3d 72f7 83bd 2d21 c03b
00000170: 33d8 883d 0521 b2bb 3b10 c8bb 4f72 453d
00000180: f515 853d fd75 4f3c 42dc 573d 48db e43c
00000190: 01c3 eabb b8ff 8a3d 6e4f 40bd fa81 c73c
000001a0: 3b80 9dbc cb10 4cbc bb74 e2ba b89b 3b3c
000001b0: db9a 7c3d 6135 ddbc c2e7 cfbd 94d4 22bd
000001c0: 50e5 3ebd b0cd 6c3c c956 d9bb 69f8 b03c
000001d0: 1346 89bd 5113 c13d b485 863b 1e3f 7fbd
000001e0: 6b03 c83c 9ec9 f33c 2dde e43c 4db4 6e3d
000001f0: a88a 07bd c618 243d dbab cc3c 14e0 f43c
00000200: e645 473b 69a1 91bc 0922 193c a5ae fd3a
00000210: 473e f53b 8a88 953a c7c6 f2ba 9134 2b3b
00000220: 797a d93a 11e7 d2bb 02c6 fa3c 097c a4bb
00000230: 2ec9 323d d705 1b3c 665e 9739 c54c c2bb
00000240: 6a55 10bc 29d1 16bc a385 bd3c 54f2 7c3c
00000250: cc6d 0ebc 5d50 c93c 3fec 14bd f8f8 1239
00000260: a4db b4bc 7031 0ebb f8f9 133b a4c9 2dbb
00000270: 24e2 02bd caa9 83bc 21f0 9ebb 3da7 4fbc
00000280: b570 9fbc 7c76 cfbb f3e3 8ebc 331f 293c
00000290: c175 b0bb 6958 333c a983 233a e6f3 a43b
000002a0: c634 10bb 7b1b 823b ea67 4a3c a89e 11bc
000002b0: 8b5d 963c cb1b 6b3b 7182 3ebd ba4f e23b
000002c0: e31b 57bc e8ac f63a c056 ceb9 4cb2 40bc
000002d0: 2139 8a3c 2f5c 9b3c 4f66 67bc f602 9b3a
000002e0: 259c 1a3c 630f cd3c 268b c1bb 11da 97bb
000002f0: 23a1 43bb 2e11 83bb 5378 893c 2591 fc3a
00000300: 7740 1c3c 5e1d 943c a10a a9bc 8313 7e3c
00000310: 3cf3 bdba 57f2 0fba 987b 123c a9e3 ae3c
00000320: bac5 283c 503c d7bb 3e29 96bc 3501 02bd
00000330: 59fc 9737 6950 763c b258 9bbc b488 ed3a
00000340: e719 43bc c4fc 3ebc 47db 8dbc fae1 853b
00000350: c604 9d3c 1141 01bc 2737 7a3d 6568 263c
00000360: 29c6 e2bc f770 813a 5d8a 423d 6df7 37bc
00000370: 6543 a2bc e14b 07bd e111 773c 69d9 b83c
00000380: 5700 213c 59b8 02bd bfe8 213c a06f 7abc
00000390: 19a5 6c3c 18f4 513b f6fd acbc dd17 f83b
000003a0: 58b7 9abb 7211 87bc 1b27 a8bc 00a9 d3ba
000003b0: f3a6 c2bc 81a7 abbc 2c1e 34bc 09e6 d03a
000003c0: bd4b 563d 8811 ca3a 6029 bdbc 7da8 df3b
000003d0: 44ed f1ba e583 bbbc f7a9 203c 32f0 f9bc
000003e0: 40fa 21bb 4c13 983c acb2 6d3c 8115 c0bc
000003f0: 30ab 263d 48a0 263d cdbe 40bd 478a 4abb

conv2.bias f4 [32]
-3.297582e-08 -3.7684163e-08 3.5814922e-09 5.1914995e-08 3.2228993e-08 -2.72164e-08 5.037062e-08 2.339486e-09
-3.9246242e-08 2.8975563e-07 -2.9316345e-08 1.431875e-08 -8.659317e-08 2.6562141e-08 2.1050998e-07 2.746109e-08
-1.48464725e-08 3.5569996e-09 2.7104126e-09 -9.960059e-08 6.945991e-09 -2.098501e-08 -4.1943938e-08 2.7429541e-08
6.436448e-08 5.0207206e-07 7.956237e-09 -4.1448023e-10 3.1186214e-08 1.0308929e-07 2.5884459e-08 -3.2346733e-08
00000000: 4ca1 0db3 2dda 21b3 471e 7631 24f9 5e33
00000010: 276c 0a33 7fc9 e9b2 1557 5833 acc4 2031
00000020: b38f 28b3 b68f 9b34 53d3 fbb2 87fe 7532
00000030: 19f5 b9b3 c42a e432 8b08 6234 93e3 eb32
00000040: 7a0f 7fb2 666f 7431 1542 3a31 01e4 d5b3
00000050: 95a9 ee31 8642 b4b2 d925 34b3 339e eb32
00000060: bf38 8a33 21c6 0635 e6af 0832 e8dc e3af
00000070: 9bf1 0533 f061 dd33 8758 de32 9ced 0ab3

batch1.weight f4 [32]
0.5102136 0.51468676 0.5107188 0.556631 0.51654476 0.5242873 0.5130296 0.5211305
0.52033067 0.5309527 0.51807946 0.5422585 0.5956212 0.5111208 0.5250546 0.5245412
0.5207539 0.51367897 0.5093322 0.6235382 0.50978994 0.52392644 0.5171918 0.522228
0.5300395 0.53423893 0.50780636 0.51489013 0.50710225 0.53960955 0.5121419 0.51193017
00000000: 5c9d 023f 83c2 033f 78be 023f 5f7f 0e3f
00000010: 473c 043f b137 063f e855 033f cf68 053f
00000020: 6434 053f 84ec 073f dba0 043f 74d1 0a3f
00000030: a27a 183f d0d8 023f fa69 063f 5548 063f
00000040: 2150 053f 7780 033f 9863 023f 33a0 1f3f
00000050: 9881 023f 0b20 063f af66 043f bcb0 053f
00000060: abb0 073f e2c3 083f 99ff 013f d7cf 033f
00000070: 74d1 013f da23 0a3f bb1b 033f db0d 033f

batch1.bias f4 [32]
0.0006758303 -0.0041194484 0.00074060936 -0.0007337262 0.0006576646 0.0021655515 0.00034755736 -0.0013250189
0.0035124246 0.003811567 -0.0009790887 -0.0016446208 -0.0041061845 0.0010500925 0.0022789503 0.006958028
-0.002077943 0.0020752803 -0.00087560085 -0.0033670147 0.0019574994 -0.00015017633 0.005137464 -0.00018777236
-0.001283366 -3.789214e-05 -0.0004758469 -4.567836e-05 0.00048340185 -0.0014680818 0.0007908366 -0.0004514016
00000000: 342a 313a 70fc 86bb 7425 423a 8857 40ba
00000010: 2067 2c3a edeb 0d3b 5c38 b639 42ac adba
00000020: b530 663b 7ccb 793b c454 80ba 5190 d7ba
00000030: 2c8d 86bb 42a3 893a 715a 153b 2b00 e43b
00000040: 192e 08bb 6d01 083b 9488 65ba 22a9 5cbb
00000050: 6449 003b a778 1db9 2c58 a83b c2e4 44b9
00000060: 9e36 a8ba 60ee 1eb8 177b f9b9 c496 3fb8
00000070: 1971 fd39 a76c c0ba 2550 4f3a 19aa ecb9

batch1.running_mean f4 [32]
-0.0075284694 0.0013508593 0.024705932 0.0032210175 0.017445179 0.0063571054 -0.010076678 -0.034988407
0.035080366 0.018368293 0.005567002 -0.0031550284 -0.017047673 -0.015398211 0.015157201 0.030177262
-0.035030797 0.030162826 -0.0096949795 -0.010235223 -0.037467875 0.0013878016 0.03961719 -0.024323815
0.024381455 -0.041233853 -0.008783976 0.037634548 0.00981387 -0.0063092215 -0.0049157464 0.041177314
00000000: 61b1 f6bb 510f b13a 1864 ca3c b517 533b
00000010: 31e9 8e3c 444f d03b a718 25bc 0150 0fbd
00000020: 6eb0 0f3d 1a79 963c 666b b63b 98c4 4ebb
00000030: 90a7 8bbc c748 7cbc e955 783c 4e36 f73c
00000040: 747c 0fbd 0818 f73c b1d7 1ebc a3b1 27bc
00000050: ea77 19bd e5e6 b53a a245 223d bd42 c7bc
00000060: 9ebb c73c d4e4 28bd aaea 0fbc af26 1a3d
00000070: 5bca 203c 96bd cebb 4514 a1bb 8ba9 283d

batch1.running_var f4 [32]
0.00019445969 0.0009818921 0.0006095339 0.0011178287 0.00062433135 0.0006951683 0.00049548555 0.001648427
0.00091753586 0.0013982765 0.00013770671 0.00046264983 0.0025823512 0.0005474013 0.00075687526 0.0015600151
0.0018099791 0.00048448844 0.00049626874 0.0011517715 0.000893786 0.0012704752 0.0017827679 0.0016434493
0.0018097156 0.0018779191 0.00024398493 0.0009116252 0.0020774337 0.00096329127 0.00040538792 0.0007036865
00000000: e0e7 4b39 d5b2 803a 21c9 1f3a 1b84 923a
00000010: 2baa 233a f43b 363a 79e3 013a 0810 d83a
00000020: ca86 703a 6046 b73a 5d65 1039 cf8f f239
00000030: aa3c 293b 7b7f 0f3a 0a69 463a 6c79 cc3a
00000040: d23c ed3a f002 fe39 0818 023a 0af7 963a
00000050: f74c 6a3a 1386 a63a c4ab e93a 0269 d73a
00000060: fb33 ed3a 8224 f63a 35d6 7f39 22fa 6e3a
00000070: 8e25 083b 6285 7c3a 3f8a d439 9a77 383a

conv3.weight f4 [32, 32, 1]
-0.03254657 0.0028353713 -0.043082844 -0.0052374173 0.005431904 -0.009616985 0.008490686 0.03135054
-0.00035053267 -0.008029172 -0.009133445 0.009763672 0.07496287 -0.033795327 0.029287064 0.058771916
-0.06855244 0.038279768 0.010885358 0.07067825 0.02237084 0.027154725 0.032120746 -0.0040232684
-0.068756625 -0.017218478 -0.05249794 0.011575662 -0.0044142874 0.037802193 0.064588845 -0.0616119
0.027318547 -0.021877637 0.0318956 0.005144696 0.04069415 -0.016071742 0.004659835 -0.005052072
0.03392749 -0.00830569 -0.052620303 0.008905941 -0.05321654 0.0049776626 0.03510765 -0.022433113
-0.011352851 0.006784345 -0.0047786087 0.056550328 0.011767482 0.008160216 0.011220739 0.023680942
-0.03166734 0.015014223 0.00025867834 0.03574123 -0.00036922286 -0.014493854 0.028263226 0.041765194
0.015331112 0.03791996 -0.016942522 0.01956145 0.07208514 0.0069846148 0.01772064 -0.02266153
-0.0035102349 -0.030712223 -0.042501718 0.027541302 0.06429863 -0.0018192782 -0.056579236 0.062772386
0.01547012 -0.01587311 -0.009193035 -0.041426264 -0.01674409 0.028433511 0.007848731 -0.035850473
-0.05436516 -0.009186555 0.054576088 0.010110759 0.0082700625 -0.04530533 -0.022059789 0.02168215
-0.03466419 -0.07153072 0.017988276 -0.024486553 -0.0066968855 0.04585488 -0.015081001 -0.033334818
-0.008406566 -0.021574171 0.062285192 -0.060779292 0.044508185 0.01174942 0.05461225 -0.028917618
-0.014436248 0.03168937 0.022440933 0.03048455 -0.013889845 -0.05031153 -0.025259253 0.044926036
-0.030255223 -0.013202414 -0.08224055 -0.037962195 0.02276228 -0.055607963 -0.060480077 0.031740144
-0.015283021 -0.06152426 0.01654846 -0.051337227 0.04119714 0.0019116907 -0.027386298 0.019638317
0.021203397 -0.010396741 -0.025233746 -0.0055401744 -0.02117898 0.025632836 -0.0064616557 -0.003601441
0.0059096925 0.009436343 0.022487974 0.014802625 0.021423921 0.004964465 -0.0017573142 -0.041258767
-0.034145627 -0.001165408 -0.048285693 0.033808563 -0.025550215 0.040777437 -0.025523366 0.027387228
0.0189165 -0.0046989927 -0.024232637 -0.054357987 0.022909595 -0.058995716 -0.021247212 -0.036362674
0.07616114 0.007081791 0.041567545 0.01883631 0.013200722 -0.022887858 0.048949942 0.0068893125
-0.024093239 -0.04833449 0.037767485 0.07269655 0.022874244 0.03351483 0.026948536 0.008367744
-0.07155671 -0.045635976 -0.031258255 -0.012457659 0.05024326 0.028693626 -0.06545046 0.039892573
0.009172789 0.0040720613 -0.057961233 0.06284373 0.005903213 -0.044924226 -0.035595592 -0.04475254
0.016252715 -0.051021088 -0.06449665 -0.009695688 0.00024906048 -0.03466534 -0.024635037 0.04134702
-0.049384 -0.03210571 -0.020537158 0.027994175 -0.0014949604 0.054359194 0.026902499 0.016901908
0.028618176 0.03150855 0.0040711462 0.055805705 -0.007243658 0.041438043 0.04528031 -0.017960299
-0.042718995 -0.0234378 0.049094338 0.07934597 0.0023901379 -0.0060313838 -0.0051629543 0.035415962
0.08622772 -0.034868266 0.049587194 -0.04610071 0.0052069165 -0.017932355 0.0016544014 0.037561554
-0.043113872 -0.034866303 -0.012513773 -0.015272155 -0.026752984 -0.058210425 0.036499407 0.063257314
-0.06549572 0.009463679 0.03638595 -0.012587748 0.03614748 -0.0055702794 -0.010387788 -0.06051952
00000000: 8d4f 05bd a3d1 393b a377 30bd a49e abbb
00000010: 1dfe b13b 8f90 1dbc 851c 0b3c 6d69 003d
00000020: b3c7 b7b9 ca8c 03bc 72a4 15bc cff7 1f3c
00000030: 2286 993d f86c 0abd 6deb ef3c d2ba 703d
00000040: 3965 8cbd 3fcb 1c3d 8058 323c c2bf 903d
00000050: 0d43 b73c 9673 de3c 0b91 033d 9fd5 83bb
00000060: 46d0 8cbd c40d 8dbc 1408 57bd d8a7 3d3c
00000070: baa5 90bb 79d6 1a3d 2847 843d c25c 7cbd
00000080: 25cb df3c bb38 b3bc f6a4 023d d794 a83b
00000090: e9ae 263d e3a8 83bc 87b1 983b da8b a5bb
000000a0: 8df7 0a3d 9714 08bc 6388 57bd 39ea 113c
000000b0: 96f9 59bd a91b a33b 0acd 0f3d a6c5 b7bc
000000c0: 4f01 3abc 364f de3b e095 9cbb 51a1 673d
000000d0: 66cc 403c 6db2 053c 31d7 373c 89fe c13c
000000e0: 9db5 01bd 37fe 753c 389f 8739 6565 123d
000000f0: 4194 c1b9 a177 6dbc 4888 e73c fb11 2b3d
00000100: 582f 7b3c f651 1b3d 0bcb 8abc 563f a03c
00000110: 60a1 933d 32df e43b e02a 913c aca4 b9bc
00000120: f80b 66bb 3398 fbbc 4816 2ebd 4c9e e13c
00000130: 00af 833d d974 eeba a1bf 67bd cf8e 803d
00000140: 6376 7d3c 5308 82bc 629e 16bc 96ae 29bd
00000150: e72a 89bc 65ed e83c f797 003c f2d7 12bd
00000160: 01ae 5ebd 3483 16bc 2d8b 5f3d 99a7 253c
00000170: 287f 073c 1592 39bd bbb6 b4bc c49e b13c
00000180: 0afc 0dbd b37e 92bd 265c 933c 0698 c8bc
00000190: 8c71 dbbb 54d2 3b3d 4e16 77bc 178a 08bd
000001a0: b2bb 09bc 51bc b0bc c21e 7f3d b5f3 78bd
000001b0: 374e 363d a480 403c 18b1 5f3d a4e4 ecbc
000001c0: 0386 6cbc b6cc 013d 0cd6 b73c bcba f93c
000001d0: 3c92 63bc 7613 4ebd 7eec cebc 5d04 383d
000001e0: cdd9 f7bc f04e 58bc bc6d a8bd 3f7e 1bbd
000001f0: f677 ba3c 2dc5 63bd f5b9 77bd f401 023d
00000200: a365 7abc dd00 7cbd a390 873c fc46 52bd
00000210: 55be 283d b291 fa3a 3b59 e0bc 89e0 a03c
00000220: bfb2 ad3c 1857 2abc 00b7 cebc 5a8a b5bb
00000230: 8a7f adbc f4fb d13c 4cbc d3bb 2706 6cbb
00000240: 18a6 c13b e49a 1a3c b338 b83c b686 723c
00000250: 3881 af3c f3ac a23b ae55 e6ba f4fe 28bd
00000260: 49dc 0bbd 9ac0 98ba 38c7 45bd d97a 0a3d
00000270: af4e d1bc 3e06 273d 6116 d1bc 2e5b e03c
00000280: c7f6 9a3c 02fa 99bb 8683 c6bc 7ba6 5ebd
00000290: e7ac bb3c 7ea5 71bd a20e aebc 07f1 14bd
000002a0: 5ffa 9b3d 5e0e e83b bb42 2a3d 9b4e 9a3c
000002b0: d747 583c 517f bbbc bc7f 483d bebf e13b
000002c0: 2f5f c5bc 63fa 45bd 14b2 1a3d eee1 943d
000002d0: c462 bb3c d946 093d 2dc3 dc3c dd18 093c
000002e0: 538c 92bd caec 3abd a808 00bd 351b 4cbc
000002f0: e0cb 4d3d e50e eb3c e40a 86bd 6566 233d
00000300: 7749 163c ed6e 853b c268 6dbd 37b4 803d
00000310: bd6f c13b 7702 38bd afcc 11bd 704e 37bd
00000320: 6a24 853c 7dfb 50bd d216 84bd aada 1ebc
00000330: 5594 8239 3efd 0dbd 6bcf c9bc 7e5b 293d
00000340: e146 4abd 4781 03bd 8b3d a8bc 0a54 e53c
00000350: 8cf2 c3ba bfa7 5e3d a162 dc3c df75 8a3c
00000360: aa70 ea3c 1c0f 013d 4067 853b 8694 643d
00000370: 355c edbb f0ba 293d d977 393d 7a21 93bc
00000380: 1dfa 2ebd a100 c0bc 2517 493d 2480 a23d
00000390: dca3 1c3b eaa2 c5bb 002e a9bb 5410 113d
000003a0: 2998 b03d 07d2 0ebd f11b 4b3d 19d4 3cbd
000003b0: c89e aa3b e0e6 92bc 80d8 d83a 25da 193d
000003c0: 2c98 30bd f8cf 0ebd 9106 4dbc 1038 7abc
000003d0: 1329 dbbc 0e6e 6ebd 6780 153d 0d8d 813d
000003e0: 9f22 86bd 8c0d 1b3c 6f09 153d d73c 4ebc
000003f0: 610f 143d e486 b6bb 8a31 2abc 51e3 77bd

conv3.bias f4 [32]
-1.0005231e-08 3.4064325e-09 3.5686685e-09 5.2548295e-09 -3.7284376e-09 -1.2036793e-08 6.2264407e-09 1.0688684e-08
-1.4991989e-09 -1.4001079e-08 4.758615e-09 1.18433325e-08 1.4791325e-09 9.199894e-09 -1.1494784e-07 -1.6968333e-08
3.1878344e-08 -2.58757e-09 -6.474478e-09 -2.9916475e-08 5.6176748e-09 9.772618e-09 -7.391629e-09 -9.018173e-09
3.9249604e-09 -6.8718777e-09 -2.3852257e-08 -1.325827e-09 4.800892e-09 -4.543087e-09 -2.6535554e-09 -6.9686856e-10
00000000: 79e3 2bb2 9816 6a31 ae3c 7531 f88d b431
00000010: af1b 80b1 60ca 4eb2 5af0 d531 54a1 3732
00000020: 5f0c ceb0 6689 70b2 3881 a331 8777 4b32
00000030: 594a cb30 900d 1e32 3ed9 f6b3 c2c1 91b2
00000040: 9cea 0833 03d1 31b1 1c76 deb1 837d 00b3
00000050: 9705 c131 6ee4 2732 75f9 fdb1 58ee 1ab2
00000060: 51dc 8631 ad1d ecb1 abe3 ccb2 6438 b6b0
00000070: 18f5 a431 6a19 9cb1 d759 36b1 c48d 3fb0

batch2.weight f4 [32]
0.51548976 0.51884997 0.5303146 0.5287224 0.5369909 0.5194341 0.52561265 0.51913613
0.5407197 0.5420718 0.55393136 0.52681285 0.5477789 0.55129695 0.54348767 0.5512958
0.5514904 0.52540797 0.54443884 0.531011 0.5392619 0.5443118 0.5387989 0.5387443
0.5245962 0.5275795 0.5132904 0.5182137 0.5121203 0.5078754 0.5066117 0.50476056
00000000: 23f7 033f 5ad3 043f b3c2 073f 5a5a 073f
00000010: 3c78 093f a2f9 043f 8d8e 063f 1be6 043f
00000020: 9b6c 0a3f 38c5 0a3f 72ce 0d3f 35dd 063f
00000030: 3d3b 0c3f cc21 0d3f 0222 0b3f b921 0d3f
00000040: 7a2e 0d3f 2381 063f 5860 0b3f 56f0 073f
00000050: 110d 0a3f 0558 0b3f baee 093f 25eb 093f
00000060: f04b 063f 730f 073f 0067 033f a7a9 043f
00000070: 511a 033f 1f04 023f 4eb1 013f fd37 013f

batch2.bias f4 [32]
0.0009824119 0.0061209146 0.00497725 -0.001955358 0.008563631 -0.0005375057 0.006544998 -0.0021341587
0.008442395 0.008669026 0.008110569 0.0055401684 0.0073535964 0.0064538936 0.009621005 0.008565802
0.008256824 0.009609459 0.009838367 0.004243208 0.009259318 0.007685949 0.005616586 0.006809212
0.0061828247 0.0061282916 0.0013250833 0.0038089976 0.0027563884 0.0023745517 0.0014542255 0.000576759
00000000: 46c4 803a f491 c83b 3318 a33b 7725 00bb
00000010: 794e 0c3c 66e7 0cba 6c77 d63b 3edd 0bbb
00000020: f951 0a3c 8808 0e3c 31e2 043c 4d8a b53b
00000030: 70f6 f03b 2f7b d33b 6ba1 1d3c 9457 0c3c
00000040: a147 073c fe70 1d3c 1a31 213c 9c0a 8b3b
00000050: 65b4 173c 6ada fb3b 570b b83b cf1f df3b
00000060: 4b99 ca3b d6cf c83b 6bae ad3a 60a0 793b
00000070: 86a4 343b 5e9e 1b3b b69b be3a a431 173a

batch2.running_mean f4 [32]
-0.0070015164 -0.014103036 -0.0053551863 0.011969876 0.0023864277 -0.005041858 -0.0013091447 -0.002568001
-0.013722317 0.0020004127 0.011635971 -0.0040276316 -0.0070846393 0.0036704235 -0.0030232675 -0.0015712027
0.02807658 0.0061402125 -0.004977723 0.0023584452 -0.007091685 0.0007842137 -0.013812922 0.019028932
0.010458821 0.003141045 -0.003603175 0.0018618149 0.0013032228 -0.0009672171 -0.00047762282 0.00022985559
00000000: fa6c e5bb 6c10 67bc 8f7a afbb 4c1d 443c
00000010: 9d65 1c3b 2c36 a5bb 9b97 abba e84b 28bb
00000020: 92d3 60bc 5b19 033b cda4 3e3c 39fa 83bb
00000030: 4326 e8bb 7d8b 703b 0322 46bb d0f0 cdba
00000040: db00 e63c d633 c93b 2b1c a3bb 2590 1a3b
00000050: 5e61 e8bb b193 4d3a 984f 62bc 90e2 9b3c
00000060: 7a5b 2b3c fed9 4d3b 3f23 6cbb 2408 f43a
00000070: e7d0 aa3a d78c 7dba 7369 fab9 6405 7139

batch2.running_var f4 [32]
0.010084338 0.017870093 0.017915815 0.013238634 0.022524873 0.013732566 0.015122812 0.0071571823
0.012989414 0.022201054 0.015478061 0.025351482 0.022777019 0.025068874 0.022348637 0.01918864
0.024199016 0.029425774 0.014759222 0.014819982 0.015137804 0.02135999 0.014314702 0.014716648
0.012469013 0.008362512 0.0095586 0.00866623 0.008413756 0.0032221486 0.0010475103 0.00054257736
00000000: c738 253c 4d64 923c 30c4 923c dbe6 583c
00000010: 1586 b83c 8efe 603c acc5 773c cc86 ea3b
00000020: 8dd1 543c fcde b53c b197 7d3c e9ad cf3c
00000030: df96 ba3c 3d5d cd3c 7d14 b73c 7f31 9d3c
00000040: 043d c63c 520e f13c aad0 713c 83cf 723c
00000050: 8d04 783c 25fb ae3c 3688 6a3c 181e 713c
00000060: d54a 4c3c eb02 093c ad9b 1c3c cefc 0d3c
00000070: dad9 093c af2a 533b 9d4c 893a c03b 0e3a

LSTM.weight_ih_l0 f4 [256, 57]
-2.4562756e-05 -0.0032207752 -0.0025910577 0.0013605936 0.0011771492 -0.0049077794 -0.004997017 -0.0049655377
-0.0049675927 -0.004991013 -0.004504729 0.004921992 0.0052731354 0.0012824326 0.0015201551 -0.0005069182
0.0025318188 0.002026192 -0.0008225746 -0.0008803197 -0.004708227 0.0017457189 -0.0009830595 0.0035693038
0.00076007994 0.0027303812 0.00039114038 0.0009009895 0.0020249633 0.00170886 0.00016293931 0.0006608511
0.0012999567 0.0006402395 0.00090140995 0.0020877274 0.0009016735 0.0011828688 0.00065892085 0.00024213755
0.0008692498 0.00089991937 0.0011834763 0.0009019243 0.0018192217 0.00065898796 0.0010488306 0.00045591802
-0.0046913987 0.0016647592 0.0008608989 -0.004522618 -0.0016533012 0.0019443061 0.0018148982 -0.0032218697
-3.7448703e-05 -2.2817925e-05 -0.008320152 -0.0052449713 0.0033300351 0.005162787 -0.01361128 -0.013552528
-0.014036582 -0.014319606 -0.01411794 -0.011579312 0.017776502 0.020653754 0.0054731276 0.0063767214
-0.0027227106 0.008486722 0.008352336 -0.0018802524 -0.0021363 -0.0136856185 0.0054301145 -0.0027025377
0.013275917 0.0070559275 0.010825984 0.006463578 -0.00034835003 0.013972929 0.012002109 -0.003315345
-0.0009702069 0.005503146 0.00021262528 -0.00021153412 0.013369829 -0.000981137 0.008205905 -0.0011870079
0.0044735433 0.000923821 8.1725295e-05 0.009163543 -0.000493344 0.009211145 -0.0013740006 0.006842936
5.3109285e-05 -0.011897754 0.014386691 0.0055732788 -0.012745112 -0.001560425 0.011911276 0.01138103
-0.008513672 -1.8895938e-05 -1.3894676e-06 -0.005228785 -0.0035360781 0.0032568544 0.0035946595 -0.010213719
-0.009214611 -0.009812599 -0.009862516 -0.010781806 -0.008697111 0.011226197 0.012729115 0.0031023414
0.0034848012 0.0008954755 0.006019314 0.00547645 -0.0029798353 -0.0033044259 -0.009364527 0.0051012626
-0.001331154 0.0110592395 -6.220624e-05 0.009397878 0.004621486 -0.0018552833 0.009160329 0.009965446
-0.0040524863 -0.0028112016 0.004025209 0.0020756628 -0.0018955818 0.0062781395 -0.0022441412 0.010442784
-0.0026951162 0.0040602824 0.0025527636 -0.001921808 0.0062845955 -0.0021745672 0.006182724 -0.0027033628
-0.00051987305 0.0019906422 -0.008231208 0.007332076 0.0036807072 -0.008789851 -0.0014495081 0.00842915
0.0065916507 -0.0056255464 1.6521248e-05 2.9340557e-09 -2.6978802e-07 -9.375495e-08 4.0060345e-07 8.614169e-08
-8.203138e-07 -7.942984e-07 1.0659553e-06 -7.925233e-07 1.0719974e-06 7.038858e-08 1.1037611e-06 1.172416e-06
3.0129203e-07 5.717067e-07 -6.553426e-08 8.886999e-07 3.1744213e-07 -6.99054e-07 -9.782683e-08 -5.747913e-07
1.762189e-07 7.2312383e-07 6.1361595e-07 -1.1302088e-06 5.146266e-07 2.716277e-08 2.2509661e-07 -2.2458038e-07
-1.3663262e-07 5.4461452e-08 -1.2146248e-06 -5.2646214e-07 5.8854437e-07 1.8216666e-07 2.0786618e-07 2.1680272e-07
1.5242465e-07 -9.2537766e-07 -3.5456387e-07 5.8110703e-07 1.7609659e-07 -5.2726244e-07 -8.472511e-07 -6.500726e-07
-1.3270014e-06 -1.0884343e-06 1.3780389e-06 -6.888288e-07 1.6324367e-07 1.232337e-07 -5.649161e-07 -3.1693838e-07
2.1503986e-07 -4.962664e-07 -2.4353315e-07 9.1198066e-10 -1.16138335e-05 -0.0011689496 -0.00096550625 0.00063650386
0.00046214764 -0.001977098 -0.00197706 -0.001977083 -0.001977063 -0.0019768975 -0.0016536115 0.0021090473
0.0020843293 0.000778955 0.0008311739 -0.00042458015 0.001195934 0.0010326655 -6.092485e-05 -0.00011849369
-0.0018323621 0.00060697267 -0.00033353252 0.0015025069 0.0005501034 0.0012161097 0.0003330489 0.00049806974
00000000: 1e0c ceb7 a413 53bb bcce 29bb f255 b23a
00000010: 934a 9a3a 70d1 a0bb 04be a3bb f3b5 a2bb
00000020: 30c7 a2bb a78b a3bb 689c 93bb a948 a13b
00000030: 44ca ac3b 4c17 a83a f13f c73a b4e2 04ba
00000040: dfec 253b dcc9 043b 0ca2 57ba 41c5 66ba
00000050: 7847 9abb 9bd0 e43a 01da 80ba fbea 693b
00000060: 1a40 473a 32f0 323b f911 cd39 6230 6c3a
00000070: 3fb5 043b d4fb df3a b0da 2a39 f73c 2d3a
00000080: 4f63 aa3a bfd5 273a 994c 6c3a 41d2 083b
00000090: 495e 6c3a 7e0a 9b3a 6ebb 2c3a 4ee6 7d39
000000a0: 5ede 633a 91e8 6b3a e01e 9b3a 1d6f 6c3a
000000b0: f372 ee3a efbf 2c3a ea78 893a 4808 ef39
000000c0: 4eba 99bb 0d34 da3a f2ad 613a 7832 94bb
000000d0: 95b3 d8ba 16d8 fe3a e1e1 ed3a 0126 53bb
000000e0: 3d12 1db8 1f69 bfb7 3f51 08bc 02de abbb
000000f0: b83c 5a3b 992c a93b d901 5fbc 6c0b 5ebc
00000100: b1f9 65bc c89c 6abc ef4e 67bc 28b7 3dbc
00000110: 07a0 913c 1032 a93c ec57 b33b d1f3 d03b
00000120: 816f 32bb e40b 0b3c 3cd8 083c cd72 f6ba
00000130: 2b01 0cbb a539 60bc 1aef b13b 0f1d 31bb
00000140: 3b83 593c 6935 e73b 785f 313c 6ccc d33b
00000150: c0a2 b6b9 b6ee 643c 7ea4 443c 4246 59bb
00000160: 7c55 7eba bc53 b43b 2af4 5e39 42cf 5db9
00000170: 210d 5b3c 7f99 80ba 0f72 063c 6095 9bba
00000180: cd96 923b 942c 723a ef63 ab38 af22 163c
00000190: c153 01ba 58ea 163c cf17 b4ba b53a e03b
000001a0: a9c1 5e38 ccee 42bc 28b6 6b3c 0da0 b63b
000001b0: e0d0 50bc 2d87 ccba 8327 433c 8077 3a3c
000001c0: ee7c 0bbc b882 9eb7 be7d bab5 3a56 abbb
000001d0: 8cbd 67bb f370 553b 6194 6b3b 7157 27bc
000001e0: e1f8 16bc 06c5 20bc 6496 21bc 2ca6 30bc
000001f0: 547e 0ebc 15ee 373c c78d 503c a750 4b3b
00000200: 4361 643b 58be 6a3a aa3d c53b cb73 b33b
00000210: 5749 43bb 118f 58bb ac6d 19bc 7e28 a73b
00000220: 1e7a aeba d031 353c b974 82b8 8ff9 193c
00000230: d66f 973b fa2c f3ba 3415 163c 1c46 233c
00000240: b8ca 84bb 233c 38bb e7e5 833b d807 083b
00000250: 2c75 f8ba dab8 cd3b 7112 13bb 3618 2b3c
00000260: 8ca0 30bb 1e0c 853b 444c 273b 2de5 fbba
00000270: 02ef cd3b 2f83 0ebb 7398 ca3b e72a 31bb
00000280: 1748 08ba 6f75 023b 30dc 06bc e941 f03b
00000290: 0538 713b 4f03 10bc 6cfd bdba 6b1a 0a3c
000002a0: c6fe d73b 8156 b8bb 1c97 8a37 74a0 4931
000002b0: 62d7 90b4 5456 c9b3 8512 d734 e5fc b833
000002c0: 8933 5cb5 c537 55b5 f211 8f35 c9bd 54b5
000002d0: 8de1 8f35 8828 9733 f124 9435 e85b 9d35
000002e0: 43c1 a134 6377 1935 d7bb 8cb3 fe8e 6e35
000002f0: ea6c aa34 a0a6 3bb5 de14 d2b3 5b4b 1ab5
00000300: af36 3d34 b11c 4235 5eb7 2435 aeb1 97b5
00000310: df24 0a35 9053 e932 16b2 7134 2f24 71b4
00000320: 4ab5 12b4 00e9 6933 3106 a3b5 3452 0db5
00000330: 76fc 1d35 9799 4334 d231 5f34 47ca 6834
00000340: 2baa 2334 7867 78b5 e35a beb4 5ffd 1b35
00000350: 1015 3d34 3389 0db5 a76e 63b5 a680 2eb5
00000360: 6c1b b2b5 5116 92b5 0ef5 b835 f4e7 38b5
00000370: 1448 2f34 3952 0434 bda4 17b5 ae27 aab4
00000380: b5e5 6634 2b37 05b5 f1be 82b4 efae 7a30
00000390: 09d9 42b7 7137 99ba 071a 7dba 0ddb 263a
000003a0: 684c f239 3392 01bb 9091 01bb f391 01bb
000003b0: 9d91 01bb d68e 01bb ffbd d8ba f137 0a3b
000003c0: 3e99 083b c932 4c3a 23e3 593a 2f9a deb9
000003d0: e3c0 9c3a 815a 873a 8f89 7fb8 d17f f8b8
000003e0: df2b f0ba 3f1d 1f3a fadd aeb9 c4ef c43a
000003f0: d034 103a df65 9f3a 119d ae39 e590 023a

LSTM.weight_hh_l0 f4 [256, 64]
-0.0002299731 0.00039106363 -2.2676846e-05 -2.4697823e-05 -0.00017177066 -0.00016082665 -0.00033150424 0.00017287814
-0.00013172392 0.00027692548 0.00027104 -8.466755e-05 -0.0002991022 -6.457397e-05 0.0002887395 -7.054622e-05
3.7606922e-05 -0.00040906135 3.5740595e-05 -7.055985e-05 0.0001248581 2.2729348e-05 0.00027065692 8.866541e-05
1.7646396e-07 -0.0001222754 -2.8813924e-08 0.00018928091 8.257342e-05 -0.00011010056 -0.00037537358 0.000163393
0.0003412367 -0.0001091258 -0.00016588492 -5.2404755e-07 0.00011112015 0.00011754786 0.0001832301 -0.00020604272
4.833075e-05 -5.301332e-07 0.000280172 0.00012520165 1.8042007e-06 -0.0002473763 -7.859377e-05 0.00020487783
0.00031442387 0.00010890998 -5.5577424e-05 9.4891795e-05 -0.00012515266 6.0840517e-05 -0.00046914487 0.00019959614
0.00026303917 0.00026609772 -0.00037122154 0.00016255905 -0.00029055963 -0.00027361547 -0.00023478549 -8.047368e-05
-0.00043895224 -0.0006051096 -0.0014358584 -8.837779e-06 -0.00025327515 0.00043887785 0.0003046439 0.00045588813
-0.00027324472 -0.0002499576 0.00030483576 0.00019646117 -0.00069725374 -0.000115801246 0.0004727291 -0.00012235585
-0.0003212381 -0.00024876054 -0.00021519566 0.00019787603 0.00024235022 -0.00016031312 0.00010294452 0.00049333274
1.0984984e-06 -1.2295053e-05 -4.6287232e-07 0.000145695 9.85592e-05 -0.0001322659 -0.0003778689 0.00022648898
0.00084575877 -0.00015321316 0.00026052873 -1.4004785e-06 -0.00039463068 0.0001190153 2.1245036e-05 0.0002350159
4.880906e-05 1.5494429e-07 0.0004457039 0.0005261955 2.9155508e-06 -0.00011438507 -0.00014095087 -0.00014764862
-8.712406e-05 0.00013198938 -4.863377e-05 -7.362736e-05 -0.00018073735 0.0001322533 -0.0002567589 0.00045322534
0.00042326108 -1.2269288e-05 -5.846321e-05 5.088869e-05 -0.00062349724 -0.0006503552 -0.0005126319 -0.00067759823
-3.2317064e-05 -0.00096374826 -0.0014565376 -5.546696e-06 -1.8215542e-05 0.0005539943 0.00069561123 0.00023936042
-7.949404e-05 -0.0004475946 8.055525e-05 0.00033379206 -0.00018111242 -2.6669612e-05 -2.9601477e-05 -1.4553104e-05
-0.00035247434 0.00017810332 -0.00046140375 0.00031868473 -8.358259e-05 -0.00025776876 -0.0004113775 0.0005754316
1.4740241e-06 0.00041998186 -1.3943311e-07 -0.00020700338 -3.7269265e-06 1.7255796e-05 -5.0260685e-05 -7.3134515e-06
0.00032108408 5.5006974e-05 0.00051272754 1.7866722e-06 -0.0006307988 -4.5318546e-05 -0.00018806514 0.00040848367
-2.4763936e-05 -7.739449e-08 0.00020643459 2.251169e-05 1.8756562e-06 0.00042408344 -4.8913025e-05 -0.000513451
-0.0006852048 1.680587e-08 3.119225e-05 -0.00026449282 4.6657788e-05 -2.7577269e-05 0.00041960843 0.00013766866
-7.2472554e-05 -0.00037754784 0.00030601106 -0.00029848883 -0.00022100763 -0.0002451099 -0.00017273778 -0.00078851153
7.164672e-09 2.3835666e-07 -1.248759e-07 -2.4127367e-09 -5.9762444e-09 1.3007465e-07 2.1357838e-08 1.9032099e-08
-6.156302e-09 1.288788e-07 2.0970749e-08 2.276392e-07 3.039848e-07 -3.3574465e-10 3.4993852e-10 9.06096e-09
-8.0047634e-08 -1.9782211e-08 -1.0088274e-07 5.350969e-08 -3.425159e-08 -1.3571996e-07 -5.2838434e-08 2.2225077e-08
2.3568308e-10 7.078857e-08 -2.30139e-11 -4.3382798e-07 -8.796474e-08 4.942501e-09 -1.9354069e-07 2.499572e-09
4.4880624e-09 1.2528288e-08 4.8031393e-07 -2.1398994e-11 -5.1203827e-08 -4.5426063e-09 6.053166e-08 3.6831506e-07
-7.033467e-08 -4.016321e-10 2.5892831e-08 1.3085444e-08 2.4201116e-10 3.5737557e-08 -5.775895e-09 -3.857704e-08
-1.1241246e-08 3.9867434e-09 4.3834474e-09 5.5421374e-08 2.7141581e-07 -8.6510454e-08 1.8539996e-08 -1.6581045e-07
-5.351997e-08 -7.153862e-08 1.3220915e-07 -2.418154e-07 -1.6983975e-08 3.1077388e-08 3.3889583e-07 -9.031877e-08
00000000: ef24 71b9 ac07 cd39 283a beb7 2c2e cfb7
00000010: 561d 34b9 93a3 28b9 bfcd adb9 9f46 3539
00000020: 5f1f 0ab9 4f30 9139 5f1a 8e39 8b8f b1b8
00000030: d1d0 9cb9 e36b 87b8 f661 9739 37f2 93b8
00000040: 20bc 1d38 4977 d6b9 2ce8 1538 88f9 93b8
00000050: 57ec 0239 e7aa be37 f5e6 8d39 e1f1 b938
00000060: 0b7a 3d34 0e37 00b9 7d82 f7b2 b579 4639
00000070: 442b ad38 cae5 e6b8 cacd c4b9 7954 2b39
00000080: 04e8 b239 78da e4b8 65f1 2db9 46ac 0cb5
00000090: 2d09 e938 0784 f638 7521 4039 2c0d 58b9
000000a0: bfb6 4a38 7a4e 0eb5 0de4 9239 9048 0339
000000b0: dd27 f235 49b2 81b9 b5d2 a4b8 79d4 5639
000000c0: 42d9 a439 9a66 e438 ce1b 69b8 a500 c738
000000d0: 693b 03b9 022f 7f38 8ff7 f5b9 ae4a 5139
000000e0: 85e8 8939 0883 8b39 83a0 c2b9 9d74 2a39
000000f0: 4156 98b9 0c74 8fb9 c030 76b9 fac3 a8b8
00000100: 2c23 e6b9 38a0 1eba 6a33 bcba f945 14b7
00000110: 04ca 84b9 3019 e639 9db8 9f39 4504 ef39
00000120: 4942 8fb9 be0c 83b9 5dd2 9f39 2501 4e39
00000130: e8c7 36ba 52da f2b8 a0d8 f739 a64c 00b9
00000140: d96b a8b9 136c 82b9 25a6 61b9 f17c 4f39
00000150: 641f 7e39 ba19 28b9 ebe3 d738 0053 013a
00000160: 1e70 9335 da46 4eb7 b080 f8b4 b4c5 1839
00000170: 91b1 ce38 dbb0 0ab9 b51c c6b9 ac7d 6d39
00000180: e9b5 5d3a d8a7 20b9 9397 8839 13f8 bbb5
00000190: 6fe6 ceb9 da97 f938 5e37 b237 9a6e 7639
000001a0: 54b8 4c38 c35e 2634 5dad e939 62f0 093a
000001b0: c8a8 4336 04e2 efb8 36cc 13b9 20d2 1ab9
000001c0: 60b6 b6b8 a166 0a39 1dfc 4bb8 6368 9ab8
000001d0: 5084 3db9 7aad 0a39 999d 86b9 e09e ed39
000001e0: 24e9 dd39 31d8 4db7 6536 75b8 5171 5538
000001f0: 3172 23ba 997c 2aba 2562 06ba d9a0 31ba
00000200: 2f8c 07b8 0da4 7cba 4be9 beba c11d bab6
00000210: 94cd 98b7 ee39 113a ae59 363a d3fc 7a39
00000220: 0ab6 a6b8 21ab eab9 c5ef a838 d000 af39
00000230: ffe8 3db9 8eb8 dfb7 b050 f8b7 1b29 74b7
00000240: 4ecc b8b9 3fc1 3a39 90e8 f1b9 2415 a739
00000250: 1049 afb8 2325 87b9 27ae d7b9 90d8 163a
00000260: 15d7 c535 0331 dc39 15b7 15b4 0c0f 59b9
00000270: 1c1c 7ab6 8ac0 9037 00cf 52b8 1266 f5b6
00000280: 2d57 a839 4ab7 6638 9068 063a 97cd ef35
00000290: 315c 25ba 6b14 3eb8 5a33 45b9 c029 d639
000002a0: 26bc cfb7 1234 a6b3 5d76 5839 7cd7 bc37
000002b0: 0ebf fb35 8457 de39 f627 4db8 1d99 06ba
000002c0: 519f 33ba 805c 9032 6cd4 0238 a0ab 8ab9
000002d0: 6bb2 4338 bc55 e7b7 e4fe db39 265b 1039
000002e0: 68fc 97b8 9df1 c5b9 1c70 a039 7e7e 9cb9
000002f0: 49be 67b9 1882 80b9 f220 35b9 1db4 4eba
00000300: 1f2d f631 fbee 7f34 a015 06b4 50cd 25b1
00000310: 9a57 cdb1 a6aa 0b34 6276 b732 077c a332
00000320: 6887 d3b1 ef61 0a34 2a23 b432 fd6c 7434
00000330: 5a33 a334 dc93 b8af 7861 c02f 86aa 1b32
00000340: a7e6 abb3 8bed a9b2 dfa4 d8b3 87d2 6533
00000350: 051c 13b3 6bba 11b4 79f0 62b3 76e9 be32
00000360: 7291 812f 6e04 9833 b26e caad dde8 e8b4
00000370: 21e7 bcb3 b3d2 a931 0fd0 4fb4 f0c4 2b31
00000380: 6a35 9a31 fe3b 5732 ecee 0035 403a bcad
00000390: 34eb 5bb3 3015 9cb1 a2fd 8133 d6bc c534
000003a0: e50a 97b3 b1cc dcaf f06a de32 64ce 6032
000003b0: 0b0c 852f dc7d 1933 4f75 c6b1 e7af 25b3
000003c0: 861f 41b2 c4fb 8831 369d 9631 7208 6e33
000003d0: 1bb7 9134 a0c7 b9b3 e241 9f32 a109 32b4
000003e0: d4dd 65b3 c6a0 99b3 60f5 0d34 dbd2 81b4
000003f0: 28e4 91b2 f379 0533 7df1 b534 45f5 c1b3

LSTM.bias_ih_l0 f4 [256]
0.006150306 0.020191206 0.014816805 5.5372004e-07 0.0025920558 0.00662178 0.017570607 0.0009197329
0.0011620824 0.009501113 0.00351625 0.0039880797 0.0072307093 0.00039554306 0.009063161 0.0005259223
0.0019145532 0.012224069 0.0067031924 0.002802222 0.004955699 0.001867285 0.009894605 0.0030135242
-5.9971503e-09 0.012303996 -1.1645713e-09 0.0078261355 0.0009448162 0.0015020302 0.007715963 0.002647853
0.0062313415 0.0020435466 0.0108974585 4.3377838e-07 0.010919335 0.0020056514 0.0047439085 0.00715004
0.0004530603 3.3745973e-09 0.0024139537 0.0050022774 -2.6513877e-08 0.017000204 0.00048809516 0.012604727
0.018571809 0.0010723473 0.00063334726 0.0039353524 0.0026374033 0.0011787118 0.015741147 0.0027059189
0.011024185 0.012452009 0.011992152 0.008226058 0.004346951 0.0038312157 0.0032860858 0.0074676266
0.0062596668 0.023508905 0.017751362 4.0745553e-07 0.0025009017 0.0067012925 0.01747988 0.0008724187
0.0011066608 0.009990282 0.0034540668 0.0038838761 0.006104041 0.00037938723 0.009137473 0.00049504277
0.0018358803 0.013612541 0.006684799 0.0027026378 0.004860158 0.0017858467 0.024832357 0.0028979531
1.1370314e-07 0.012665146 6.534939e-10 0.008083089 0.00089527515 0.0014347949 0.00777337 0.0025515945
0.004867098 0.0019559886 0.011553342 3.1417358e-07 0.011612158 0.0019300373 0.0046856753 0.0073243496
0.00040915573 2.791529e-09 0.0023414332 0.005053097 5.1934354e-08 0.019595202 0.00046678 0.0124768475
0.020309892 0.0010192851 0.0006003738 0.0038408402 0.0025401718 0.0011224063 0.012502634 0.002612466
0.013280902 0.013273353 0.013722076 0.008230629 0.0042523667 0.0037542074 0.0031961882 0.0075450456
0.008581575 -0.0026456686 -0.027911315 -0.00013069286 -0.004673913 0.047114816 0.016658833 0.010833186
-0.005782634 0.0038447236 0.018298402 0.015490918 -0.029770257 0.0016962589 0.019999012 0.0023094104
0.017106403 -0.05908092 -0.02111358 0.018114634 -0.010522244 -1.2081839e-05 -0.06650073 0.045778446
0.00010050731 -0.035276376 -1.9009498e-06 0.009436537 0.008387744 -0.00023447193 -0.010383789 0.007811989
0.0021664605 0.0063230256 0.022534562 4.8653033e-05 -0.0051231273 -0.021530066 0.009960579 0.02765037
-0.0013336358 -6.695353e-06 -0.022009103 0.011806793 4.161343e-05 0.031298324 0.0010517999 -0.03530451
0.03881595 0.0007393973 0.001605698 -0.018759815 0.0078119133 -0.013800623 0.07070476 -0.013767606
-0.058873724 -0.031857304 0.051094312 0.036295097 -0.015635064 0.007926538 -0.01974833 -0.017108379
0.005972986 0.020027054 0.018135268 1.2133506e-06 0.0026942606 0.0071243504 0.022443652 0.00094217923
0.0011826691 0.010335114 0.003666446 0.0042105583 0.007837539 0.00040477965 0.011292553 0.0005325127
0.001978077 0.012863293 0.0075445906 0.002901849 0.0053322855 0.0019284982 0.022279877 0.0033536907
1.06330866e-07 0.0132524315 6.6885314e-10 0.0088535715 0.0009631174 0.0015355129 0.008311022 0.0027467902
0.00536039 0.0021145707 0.012240779 6.745704e-07 0.0123417 0.0020646064 0.0050105453 0.0076873377
0.00045367918 3.2650636e-09 0.0024965052 0.009170763 2.0185222e-07 0.016912377 0.00049730577 0.012935682
0.020377843 0.0010888702 0.0006403522 0.00413299 0.0027450912 0.0012072669 0.020780325 0.002809441
0.014241754 0.015495387 0.012255035 0.009586169 0.004673276 0.0041207313 0.003454258 0.008323346
00000000: 8288 c93b 0768 a53c 2fc2 723c 5aa3 1435
00000010: 7bdf 293b 84fb d83b 3cf0 8f3c 3b1a 713a
00000020: 0451 983a 8eaa 1b3c e370 663b 70ae 823b
00000030: 96ef ec3b e460 cf39 a77d 143c 0cde 093a
00000040: bff1 fa3a 7647 483c 74a6 db3b 7ca5 373b
00000050: 6b63 a23b b0bf f43a fb1c 223c 8c7e 453b
00000060: 7e0f ceb1 b396 493c b60e a0b0 3139 003c
00000070: 8bad 773a c5df c43a 30d6 fc3b 9a87 2d3b
00000080: 4830 cc3b 06ed 053b 418b 323c 0ce2 e834
00000090: 03e7 323c 3f71 033b ca72 9b3b e24a ea3b
000000a0: b988 ed39 8be6 6731 6c33 1e3b 25ea a33b
000000b0: a2c0 e3b2 0344 8b3c 06e7 ff39 0f84 4e3c
000000c0: e823 983c 018e 8c3a 3707 263a 21f4 803b
000000d0: 49d8 2c3b 017f 9a3a 94f3 803c c955 313b
000000e0: c99e 343c 8303 4c3c bb7a 443c 97c6 063c
000000f0: de70 8e3b 2215 7b3b 5f5b 573b feb2 f43b
00000100: e41d cd3b bf95 c03c 4e6b 913c 43c0 da34
00000110: 2be6 233b 8496 db3b f731 8f3c 07b3 643a
00000120: 600d 913a 48ae 233c a05d 623b a188 7e3b
00000130: 6804 c83b 7ee8 c639 57b5 153c c2c5 013a
00000140: eca1 f03a 2307 5f3c 290c db3b bd1e 313b
00000150: f641 9f3b 1213 ea3a 3a6d cb3c 96eb 3d3b
00000160: f62c f433 7981 4f3c 8ca1 3330 ef6e 043c
00000170: e6b0 6a3a ba0f bc3a c1b7 fe3b a738 273b
00000180: 2d7c 9f3b 0b30 003b 3b4a 3d3c b0ab a834
00000190: ec40 3e3c 4ef9 fc3a 4b8a 993b 1901 f03b
000001a0: f483 d639 19d5 3f31 bb72 193b 7394 a53b
000001b0: 6d0e 5f33 1e86 a03c 27ba f439 b16b 4c3c
000001c0: ee60 a63c 8899 853a 6762 1d3a 9bb6 7b3b
000001d0: 0379 263b b51d 933a d9d7 4c3c e835 2b3b
000001e0: 2498 593c 7a78 593c 8fd2 603c c3d9 063c
000001f0: 7057 8b3b 2609 763b 2477 513b 6e3c f73b
00000200: bc99 0c3c f462 2dbb 45a6 e4bc 990a 09b9
00000210: a027 99bb 77fb 403d 1b78 883c ad7d 313c
00000220: 407c bdbb c2f7 7b3b 88e6 953c 9fcd 7d3c
00000230: c1e0 f3bc 0155 de3a f8d4 a33c 7a59 173b
00000240: ba22 8c3c d6fe 71bd 63f6 acbc 2465 943c
00000250: 7d65 2cbc 1ab3 4ab7 8931 88bd 2e82 3b3d
00000260: 74c7 d238 f67d 10bd 2324 ffb5 b49b 1a3c
00000270: c06c 093c 94dc 75b9 c520 2abc b7fb ff3b
00000280: 2dfb 0d3b 6231 cf3b 679a b83c cc10 4c38
00000290: e8df a7bb d25f b0bc b231 233c 0783 e23c
000002a0: 64cd aeba a5a8 e0b6 6f4c b4bc 4771 413c
000002b0: 158a 2e38 ac32 003d 8cdc 893a 769b 10bd
000002c0: 79fd 1e3d 1dd4 413a 4976 d23a 2fae 99bc
000002d0: 14fb ff3b 021c 62bc a8cd 903d 8691 61bc
000002e0: 9325 71bd ce7c 02bd 4548 513d 2baa 143d
000002f0: 1b15 80bc 4fde 013c 40c7 a1bc df26 8cbc
00000300: 0ab9 c33b c70f a43c 6a90 943c 69da a235
00000310: 3192 303b 6273 e93b c0db b73c 94fc 763a
00000320: ca03 9b3a 9c54 293c c248 703b b9f8 893b
00000330: 0569 003c 9b38 d439 6604 393c 5398 0b3a
00000340: a0a2 013b 90c0 523c 9d38 f73b f32c 3e3b
00000350: 74ba ae3b a9c5 fc3a 4a84 b63c 98c9 5b3b
00000360: 0358 e433 ba20 593c 5bda 3730 920e 113c
00000370: b779 7c3a 4343 c93a f42a 083c 7e03 343b
00000380: 36a6 af3b 9c94 0a3b 8c8d 483c 2014 3535
00000390: d734 4a3c 594e 073b 802f a43b 10e6 fb3b
000003a0: cadb ed39 9b5f 6031 689c 233b f840 163c
000003b0: b7bc 5834 d38b 8a3c a05d 023a 2ff0 533c
000003c0: 6fef a63c 6cb8 8e3a 4fdd 273a 086e 873b
000003d0: fde6 333b 283d 9e3a 803b aa3c 991e 383b
000003e0: 3f56 693c 5de0 7d3c 58c9 483c 4f0f 1d3c
000003f0: 4822 993b 3307 873b d560 623b a55e 083c
