Code/CNNLSTM/CNNLSTMModelOutputs/oldTLbest_model.pth (torch, 426124 bytes, 27 tensors)

conv1.weight f4 [64, 5, 2]
0.06035936 0.051513553 0.12490631 -0.12094956 -0.0005088319 0.066082284 0.07198928 0.028037716
0.043811645 -0.062334076 0.03987372 0.14363694 -0.112834096 -0.065496005 0.0893068 -0.03258412
0.061171215 0.07790312 -0.0015983729 0.024181766 0.16124998 -0.0022388534 0.17043366 -0.005766125
-0.15507403 -0.17519915 0.053642932 0.14772123 0.06859971 -0.053310614 0.09395407 0.18323354
-0.08665199 -0.19648795 -0.0214441 0.08922219 -0.12841389 0.10708545 0.006001609 -0.050495148
0.07575014 -0.11645549 0.042625878 -0.16057277 -0.11184284 0.021872003 -0.029606031 0.06263825
-0.08733508 0.088156536 0.028580645 -0.13038889 0.027516438 -0.005867211 -0.023960922 -0.071709216
0.006285894 -0.106964044 0.06573805 -0.09076722 0.06226488 -0.1711906 0.17259476 0.17931262
0.13979374 0.09321494 -0.017131336 -0.1380452 -0.019261025 0.14275904 0.11503249 0.0724136
0.17200164 -0.13458508 -0.0339191 -0.23111977 0.17071085 -0.1606858 -0.16396482 -0.11954511
0.01182929 0.06020651 -0.092825525 -0.05627136 0.047982812 -0.10470477 -0.09147922 0.1023929
0.06311419 -0.12597716 0.15048686 0.08052372 0.075604394 -0.09344111 -0.1780717 -0.08787332
-0.059273787 0.00038541414 -0.032566126 0.10863521 -0.10013371 -0.0072059473 -0.03240953 -0.0888278
-0.0002954159 0.064703755 0.096536495 -0.11668525 -0.062223364 0.014486139 0.12619972 -0.03811699
-0.0322893 0.00075102074 -0.042650614 -0.026804594 -0.10343259 -0.09138263 0.06533223 -0.0045597875
-0.075100645 0.007814786 0.00040695368 0.037879914 -0.03582723 -0.08435798 0.008171608 0.019703904
0.07261887 -0.09291059 0.04022129 -0.035238516 0.029943459 -0.17963433 -0.088374116 -0.20123374
0.107675575 0.10522161 0.09406741 -0.071647905 0.12763874 0.014203438 0.08576305 -0.16564932
0.09886937 -0.058213685 0.04869652 -0.10534556 -0.0150073 0.017251756 0.06948947 0.122974664
-0.188335 0.0957153 -0.03541907 0.09147508 -0.051516794 -0.09600355 0.15554081 0.17246777
-0.00777405 -0.032001242 0.04981623 -0.010235137 0.06893831 0.04867535 0.031174464 -0.13586068
0.02980078 -0.16891421 -0.07019079 -0.049385954 -0.062445313 0.17582355 0.09441521 -0.14525057
0.10332684 0.048734117 -0.050678354 -0.0190733 0.13585734 -0.12971616 0.11757785 0.08548857
0.11543457 -0.08484728 0.11699506 -0.04300516 -0.048432127 -0.09923039 0.06003753 0.10827511
-0.016862819 0.018968286 0.12658507 -0.056747098 -0.10212385 0.09713502 0.05633055 -0.09521147
0.04085041 0.053134993 0.024546642 -0.15014139 0.113448314 0.12737817 0.048536208 -0.13677485
0.0061380104 -0.036746074 -0.122643635 0.055750992 0.0865282 -0.061369695 -0.021418378 -0.09365332
-0.08398199 -0.086668536 0.10423869 -0.015098945 -0.06371177 -0.1462462 -0.023809116 -0.092514314
0.011240815 0.065649986 0.01139265 0.045426436 -0.024476077 -0.05815412 0.033398435 -0.032787405
-0.018611629 0.07259632 0.12365043 0.030169899 0.12042483 0.0009981662 -0.014455822 0.07947756
0.033583004 -0.12482134 0.05991055 0.017580807 0.057600375 0.097436875 0.026688386 0.027581949
0.017666671 -0.016271085 -0.06148112 0.120588 -0.063664876 -0.088606365 -0.085708484 0.10046257
00000000: 603b 773d e0ff 523d e1ce ff3d 67b4 f7bd
00000010: 2163 05ba 2656 873d 1e6f 933d 5aaf e53c
00000020: d773 333d 0452 7fbd a052 233d 9015 133e
00000030: 9015 e7bd c522 86bd 7ce6 b63d ed76 05bd
00000040: ab8e 7a3d ac8b 9f3d 7f80 d1ba d718 c63c
00000050: b71e 253e bab9 12bb 2986 2e3e c3f1 bcbb
00000060: bacb 1ebe 6867 33be b1b8 5b3d 3c44 173e
00000070: 017e 8c3d 3b5c 5abd fe6a c03d 93a1 3b3e
00000080: 9976 b1bd 2334 49be 8aab afbc 20ba b63d
00000090: ee7e 03be 9e4f db3d 25a9 c43b 00d4 4ebd
000000a0: e422 9b3d 3780 eebd 7998 2e3d 306d 24be
000000b0: dc0d e5bd ea2c b33c 5988 f2bc 7c48 803d
000000c0: bcdc b2bd 6a8b b43d f521 ea3c aa84 05be
000000d0: 276a e13c bc41 c0bb b249 c4bc 48dc 92bd
000000e0: e7f9 cd3b f70f dbbd aca1 863d 2ae4 b9bd
000000f0: 7509 7f3d 974c 2fbe aebc 303e ba9d 373e
00000100: 1726 0f3e 79e7 be3d 0457 8cbc b95b 0dbe
00000110: 4cc9 9dbc 6d2f 123e 2796 eb3d 954d 943d
00000120: 3321 303e acd0 09be c1ee 0abd a9aa 6cbe
00000130: d3ce 2e3e d18a 24be 65e6 27be 11d4 f4bd
00000140: a3cf 413c 1a9b 763d 4f1b bebd cc7c 66bd
00000150: a089 443d 746f d6bd 7559 bbbd 5eb3 d13d
00000160: 0342 813d 2800 01be 3a19 1a3e 9fe9 a43d
00000170: 7ad6 9a3d 0d5e bfbd 6d58 36be edf6 b3bd
00000180: 12c9 72bd 6911 ca39 0f64 05bd 237c de3d
00000190: e712 cdbd de1f ecbb dbbf 04bd 59eb b5bd
000001a0: 0de2 9ab9 6783 843d edb4 c53d adf8 eebd
000001b0: eddd 7ebd 4557 6d3c 803a 013e 9020 1cbd
000001c0: c941 04bd 26e0 443a 69b2 2ebd 4f95 dbbc
000001d0: 77d4 d3bd d126 bbbd e7cc 853d 456a 95bb
000001e0: 5ece 99bd 9709 003c 665c d539 f827 1b3d
000001f0: 93bf 12bd e0c3 acbd 35e2 053c 156a a13c
00000200: 34b9 943d e847 bebd 14bf 243d 4356 10bd
00000210: fc4b f53c 10f2 37be 7dfd b4bd 3810 4ebe
00000220: 0385 dc3d 6d7e d73d 6aa6 c03d 23bc 92bd
00000230: bbb3 023e 89b5 683c 8aa4 af3d fa9f 29be
00000240: 067c ca3d 7971 6ebd 0176 473d 6abf d7bd
00000250: 2ee1 75bc 8e53 8d3c 7f50 8e3d 24da fb3d
00000260: e4da 40be 6206 c43d 9613 11bd 4957 bb3d
00000270: 4603 53bd 829d c4bd 1746 1f3e 649b 303e
00000280: 75bd febb bc13 03bd 1a0c 4c3d 47b1 27bc
00000290: 872f 8d3d ce5f 473d 9761 ff3c 101f 0bbe
000002a0: c420 f43c d9f7 2cbe 30c0 8fbd ed48 4abd
000002b0: a8c6 7fbd 170b 343e c35c c13d 91bc 14be
000002c0: 069d d33d 6d9d 473d 1b94 4fbd 9c3f 9cbc
000002d0: 301e 0b3e 50d4 04be a8cc f03d a214 af3d
000002e0: f668 ec3d 69c4 adbd 1b9b ef3d 2e26 30bd
000002f0: c460 46bd 4d39 cbbd eae9 753d 57bf dd3d
00000300: e523 8abc 6163 9b3c 849f 013e a56f 68bd
00000310: 4f26 d1bd baee c63d ddba 663d 3bfe c2bd
00000320: c252 273d 14a4 593d 0a16 c93c aabe 19be
00000330: 9757 e83d 6c6f 023e e7cd 463d b50e 0cbe
00000340: 5d21 c93b 0d83 16bd 962c fbbd 275b 643d
00000350: b235 b13d ca5e 7bbd 9875 afbc 50cd bfbd
00000360: c0fe abbd 467f b1bd 187b d53d 9161 77bc
00000370: 517b 82bd 90c1 15be 560b c3bc 2578 bdbd
00000380: 652b 383c 8073 863d 3da8 3a3c 1211 3a3d
00000390: 0e82 c8bc 0433 6ebd cccc 083d 164c 06bd
000003a0: 6a77 98bc 61ad 943d 703c fd3d dd26 f73c
000003b0: 4ba1 f63d e6d4 823a 1dd8 6cbc 22c5 a23d
000003c0: 558e 093d 55a2 ffbd c464 753d a005 903c
000003d0: 5fee 6b3d fc8c c73d 9aa1 da3c 8af3 e13c
000003e0: b2b9 903c f04a 85bc a0d3 7bbd d7f6 f63d
000003f0: bb62 82bd 4177 b5bd ee87 afbd 52bf cd3d

conv1.bias f4 [64]
-0.09339413 -0.0041944874 0.019357365 -0.026629657 0.0009919959 0.08183138 0.014818411 -0.098224275
0.03067369 -0.009608134 0.01295049 -0.040236965 0.030421626 -0.04529769 0.081165895 -0.14611097
0.018689921 -0.061950494 0.068211876 -0.002022475 0.011557176 -0.07224982 -0.016341904 -0.00059445633
-0.019030118 0.06975797 -0.0022024035 0.0017622823 0.020927986 0.07619943 -0.036240693 0.003333701
0.024773968 -0.12191601 -0.003975791 -0.20136599 -0.12514144 0.02207566 -0.028861811 -0.10014387
-0.04623545 0.005304892 -0.0062004463 0.0309026 -0.0002897637 0.055972114 -0.023982897 -0.011241979
0.028651025 -0.11001072 0.017236874 0.032001324 -0.017517444 0.029744647 0.0009785038 -0.008933757
0.08705472 -0.0017842961 -0.003000491 0.03042697 -0.15147077 0.052711204 -0.0030969393 0.034363
00000000: 6c45 bfbd e971 89bb 5693 9e3c 7026 dabc
00000010: dc05 823a 3697 a73d ecc8 723c cf29 c9bd
00000020: 6447 fb3c 6f6b 1dbc 4b2e 543c 84cf 24bd
00000030: c636 f93c 128a 39bd 4e3a a63d 1d9e 15be
00000040: 9b1b 993c cdbf 7dbd abb2 8b3d 808b 04bb
00000050: 4f5a 3d3c b7f7 93bd 75df 85bc 4ad5 1bba
00000060: 0de5 9bbc 44dd 8e3d 3356 10bb 62fc e63a
00000070: 2b71 ab3c 720e 9c3d 1f71 14bd 397a 5a3b
00000080: c7f2 ca3c 1aaf f9bd 5a47 82bb e332 4ebe
00000090: 1425 00be 04d8 b43c 9b6f ecbc 3b18 cdbd
000000a0: 6261 3dbd a9d4 ad3b 1d2d cbbb 7327 fd3c
000000b0: 6deb 97b9 0443 653d c877 c4bc 4730 38bc
000000c0: 8eb5 ea3c 4d4d e1bd 5834 8d3c d213 033d
000000d0: be80 8fbc 0cab f33c 2441 803a e55e 12bc
000000e0: bf49 b23d 0bdf e9ba e3a3 44bb fb41 f93c
000000f0: 271b 1bbe b4e7 573d 05f6 4abb 38c0 0c3d

conv2.weight f4 [32, 64, 1]
0.025686141 -0.0019855916 0.009540825 -9.33545e-06 0.023229303 0.008135401 0.0112507455 0.008679149
0.011371822 0.008929884 0.009045275 -0.00097012846 0.0045523313 -0.0031854312 -0.002432295 -0.015577585
0.019054338 0.003977952 0.007161579 -0.006967241 -0.022410415 0.0057352907 0.0031653387 -0.015693614
-0.02774981 -0.0035313214 0.017538965 0.003588751 0.002124175 -0.0069708945 -0.0020273277 -0.009961315
-0.0033191077 0.0031314192 -0.007699171 0.010617217 -0.011248573 -0.019082293 -0.01152257 0.004559264
0.002216336 -2.9273564e-05 0.008325674 -0.010887306 0.01216933 0.028846536 0.00096595776 0.013917987
-0.0001909295 0.026503451 -0.01443452 -0.012794741 0.011243073 -0.013755144 0.017667562 -0.032952305
-0.006580027 -0.01575205 0.0018097052 -0.0007603659 -0.013954052 -0.004169479 0.0013096102 0.0008454505
-0.039557006 0.012261492 -0.022739522 -0.028531132 0.0060825734 -0.0060264426 -0.021538982 -0.03086405
-0.023819756 -0.02364415 -0.023492351 0.022242235 0.009002552 -0.024339875 -0.012782992 0.038326155
0.026769543 -0.011441077 0.039240625 0.0020665312 0.022899274 -0.004653543 -0.018021807 0.0225739
-0.019590912 -0.009580118 -0.032061238 0.026832895 0.026011383 -0.0018954859 0.02345513 -0.0068244655
0.005657444 0.014000213 -0.019332185 0.052360713 0.016798101 -0.028999668 -1.3687841e-05 0.04359539
0.008212274 0.011711605 0.028665962 0.039562877 0.000111043606 -0.025895266 -0.04251712 0.022946276
0.007300839 -0.047823597 -0.00055464264 -0.017997654 0.014336786 0.045420587 -0.028850406 0.038012043
-0.022494977 0.02920849 -0.035262905 0.005432104 0.028474107 -0.012447585 -0.03112223 -0.04093084
-0.007941333 -0.007164332 -0.006655376 0.0146993175 -0.013626005 0.0011925653 0.009481757 -0.0019208251
-0.009834665 0.00634211 -0.0053278957 -0.004768458 -0.012820555 -0.0030378008 0.008697465 -0.00035088387
-0.017066274 0.00041468482 -0.0046397476 -0.0029352885 -0.0002456925 0.006857711 0.012344787 -0.019063659
-0.0055987504 -0.0013828314 0.015765095 0.0065336553 0.0021889661 -0.0024732992 0.017082136 -0.010513951
0.016660739 -0.008659245 -0.012509505 0.010995065 0.013993928 -0.020861289 0.0003763016 -0.0133091975
-0.009046821 0.0044511915 0.010295564 -0.016160598 -0.007281363 0.006754123 0.00903941 0.013938842
0.0007696859 -0.01979973 0.002596434 0.009338892 0.00094791467 0.00039589315 -0.0039383885 -0.0063197147
-0.020769011 0.01741042 0.0034301048 0.015458708 0.0066998885 0.017619465 0.015966007 -0.00474701
-0.05971899 -0.037613478 -0.06297935 0.056334287 0.07162657 -0.051570784 0.041074913 0.067131504
0.04426817 -0.025884092 0.04250682 0.049125157 0.032361887 -0.062042985 -0.026048852 0.017855126
0.043217395 0.008822889 -0.017583283 -0.026832484 0.005114511 0.044055484 0.037857477 -0.012435678
-0.026423521 0.029156514 0.050807036 0.010334072 -0.05889753 0.05711381 0.025430404 -0.02426514
-0.03862408 0.012532074 0.055580653 0.05359498 0.043479983 0.03973606 0.016128462 0.033204902
0.057668876 -0.057705082 -0.057178088 -0.05368134 0.021204358 -0.01702814 0.043257497 -0.030142015
-0.04616312 0.04498791 0.018654343 0.03601841 0.004995949 -0.018372694 0.05416681 -0.0021982987
0.060970027 -0.053861205 -0.05093241 -0.037918128 -0.030371256 0.02786882 -0.0038189208 0.03672792
00000000: be6b d23c b320 02bb 1f51 1c3c 749f 1cb7
00000010: 614b be3c 584a 053c 0c55 383c fd32 0e3c
00000020: e150 3a3c a64e 123c a232 143c 3850 7eba
00000030: b92b 953b abc2 50bb 2367 1fbb 2139 7fbc
00000040: d817 9c3c 7b59 823b aeab ea3b 744d e4bb
00000050: 0c96 b7bc 1bef bb3b 9271 4f3b e58f 80bc
00000060: 9253 e3bc be6d 67bb e0ad 8f3c 4031 6b3b
00000070: be35 0b3b 1a6c e4bb eadc 04bb c934 23bc
00000080: 6385 59bb 7f38 4d3b 5449 fcbb d6f3 2d3c
00000090: ef4b 38bc 7852 9cbc 29c9 3cbc e165 953b
000000a0: f33f 113b 8090 f5b7 6868 083c ac60 32bc
000000b0: df61 473c 924f ec3c 5438 7d3a 4508 643c
000000c0: 3f34 48b9 c41d d93c c47e 6cbc 09a1 51bc
000000d0: de34 383c 415d 61bc 90bb 903c fff8 06bd
000000e0: 449d d7bb 710a 81bc a133 ed3a 4b53 47ba
000000f0: 899f 64bc 20a0 88bb 3aa7 ab3a 39a1 5d3a
00000100: 8706 22bd 6de4 483c 3c48 babc 1fba e9bc
00000110: 5350 c73b 7779 c5bb 8572 b0bc 9bd6 fcbc
00000120: a621 c3bc 60b1 c1bc 0873 c0bc 5935 b63c
00000130: 717f 133c 6b64 c7bc c16f 51bc e3fb 1c3d
00000140: cd4b db3c 5b73 3bbc c7ba 203d a46e 073b
00000150: 4297 bb3c bf7c 98bb 78a2 93bc e6ec b83c
00000160: 1f7d a0bc edf5 1cbc a552 03bd a9d0 db3c
00000170: d315 d53c f471 f8ba f924 c03c c49f dfbb
00000180: 1462 b93b 2661 653c 885e 9ebc 3078 563d
00000190: 2c9c 893c b690 edbc d4a4 65b7 1491 323d
000001a0: c68c 063c 08e2 3f3c e1d4 ea3c af0c 223d
000001b0: 15e0 e838 4f22 d4bc 6e26 2ebd d4f9 bb3c
000001c0: e03b ef3b ade2 43bd 7065 11ba d16f 93bc
000001d0: d7e4 6a3c f00a 3a3d b057 ecbc 84b2 1b3d
000001e0: 6347 b8bc a546 ef3c d66f 10bd cbff b13b
000001f0: 8842 e93c f5f0 4bbc 0cf4 febc 19a7 27bd
00000200: 5d1c 02bc c6c2 eabb 5715 dabb 68d5 703c
00000210: 9b3f 5fbc da4f 9c3a 5f59 1b3c 32c4 fbba
00000220: 9321 21bc 7ad1 cf3b a195 aebb ba40 9cbb
00000230: 4e0d 52bc d715 47bb d07f 0e3c d6f6 b7b9
00000240: 92ce 8bbc 0e6a d939 0609 98bb f85d 40bb
00000250: 4ad0 80b9 a6b6 e03b ca41 4a3c 642b 9cbc
00000260: b975 b7bb 1f40 b5ba cd25 813c 4618 d63b
00000270: c274 0f3b 1317 22bb d6ef 8b3c b542 2cbc
00000280: 1a7c 883c 82df 0dbc abf4 4cbc a524 343c
00000290: ca46 653c 4be5 aabc 594a c539 d20e 5abc
000002a0: 1e39 14bc 4ddb 913b baae 283c 3b63 84bc
000002b0: 8098 eebb b151 dd3b 091a 143c be5f 643c
000002c0: bfc4 493a 0b33 a2bc ef28 2a3b 2702 193c
000002d0: 7a7d 783a e18f cf39 990d 81bb 9c15 cfbb
000002e0: c623 aabc 4ca0 8e3c 9ccb 603b 8546 7d3c
000002f0: bd8a db3b b256 903c 25cb 823c ce8c 9bbb
00000300: e69b 74bd 9710 1abd 51fb 80bd c8be 663d
00000310: f3b0 923d e33b 53bd 2b3e 283d 3e7c 893d
00000320: 8a52 353d e00a d4bc a21b 2e3d 7637 493d
00000330: e68d 043d c920 7ebd 6764 d5bc ea44 923c
00000340: b904 313d e18d 103c d10a 90bc cccf dbbc
00000350: a197 a73b 8673 343d 7110 1b3d 04bf 4bbc
00000360: 2476 d8bc a4d9 ee3c 0a1b 503d 3d50 293c
00000370: 893e 71bd 2cf0 693d 6c53 d03c b0c7 c6bc
00000380: 4934 1ebd 5453 4d3c 8aa8 633d 6986 5b3d
00000390: 1118 323d 47c2 223d d61f 843c dd01 083d
000003a0: 3336 6c3d 2a5c 6cbd 9233 6abd f7e0 5bbd
000003b0: c3b4 ad3c 997e 8bbc c62e 313d 63ec f6bc
000003c0: 8a15 3dbd 3e45 383d fed0 983c 0a88 133d
000003d0: 0fb5 a33b 5582 96bc 04de 5d3d 5511 10bb
000003e0: b5bb 793d 919d 5cbd 819e 50bd 0a50 1bbd
000003f0: 24cd f8bc 274d e43c dc46 7abb 0470 163d

conv2.bias f4 [32]
-5.925304e-09 3.1729098e-08 -2.0366882e-07 -1.8410937e-08 -7.833571e-09 1.2739685e-09 9.8658425e-08 -4.59929e-09
4.376016e-08 -2.3236942e-07 -7.450214e-08 2.125954e-09 4.034043e-08 -1.12382885e-07 -5.7822877e-08 3.2213613e-08
2.4586653e-08 5.391934e-09 -1.698987e-08 5.98469e-08 -1.8537301e-08 -2.5829497e-08 -7.560611e-08 -1.9644892e-07
5.9072068e-08 3.9902694e-09 1.0577874e-08 -1.6332632e-06 2.3149926e-09 -6.310212e-08 3.3868668e-07 -3.953182e-08
00000000: 8697 cbb1 8346 0833 0fb0 5ab4 1426 9eb2
00000010: 6994 06b2 c817 af30 0bde d333 c807 9eb1
00000020: cef2 3b33 3881 79b4 fcfd 9fb3 2e18 1231
00000030: c642 2d33 2557 f1b3 ed58 78b3 3e5b 0a33
00000040: 9f32 d332 f443 b931 1ff1 91b2 2e85 8033
00000050: f53b 9fb2 aadf ddb2 e65c a2b3 78ef 52b4
00000060: 6db6 7d33 c81a 8931 fbb9 3532 7f36 dbb5
00000070: c815 1f31 c282 87b3 bed4 b534 b2c9 29b3

batch1.weight f4 [32]
0.63446784 0.6570865 0.6363914 0.63347083 0.64710075 0.6551495 0.66089433 0.6952747
0.658271 0.63662523 0.64092314 0.6387427 0.63656956 0.6365474 0.6358756 0.66770667
0.6778579 0.63341576 0.63648 0.6493826 0.64236933 0.6447381 0.6338349 0.64147544
0.6363796 0.6456884 0.6429982 0.65811163 0.6411083 0.6344336 0.64629954 0.64320815
00000000: 7c6c 223f d236 283f 8cea 223f 252b 223f
00000010: 65a8 253f e1b7 273f 5f30 293f 86fd 313f
00000020: 7384 283f dff9 223f 8a13 243f a484 233f
00000030: 39f6 223f c5f4 223f bec8 223f d3ee 2a3f
00000040: 1888 2d3f 8927 223f 5af0 223f f03d 263f
00000050: 5172 243f 8e0d 253f 0143 223f bc37 243f
00000060: c6e9 223f d64b 253f 889b 243f 017a 283f
00000070: ac1f 243f 3e6a 223f e373 253f 4aa9 243f

batch1.bias f4 [32]
0.00055882806 0.0044746674 0.00012699475 -0.0041317306 0.0012405824 -0.002984369 -0.010350919 -0.0049237404
0.0015798844 0.009366771 -0.0011843788 0.0028474936 0.0012069267 -7.2366805e-05 0.003837706 -0.009517632
0.0051634307 -0.0010255672 7.716152e-06 0.007223382 -0.0007809621 -0.0063228277 0.0073637054 -0.007722965
-0.00016761305 -0.0026767133 -0.0079463 0.0083794 -0.0022156655 0.001317298 -0.00058464054 0.002404564
00000000: 517e 123a 3ba0 923b e529 0539 7863 87bb
00000010: 0a9b a23a 6795 43bb e796 29bc 5457 a1bb
00000020: 2014 cf3a 1677 193c 283d 9bba 049d 3a3b
00000030: bd31 9e3a a2c3 97b8 0682 7b3b d8ef 1bbc
00000040: ff31 a93b 536c 86ba 9f74 0137 1fb2 ec3b
00000050: 7bb9 4cba b92f cfbb 3d4b f13b ed10 fdbb
00000060: 49c1 2fb9 cc6b 2fbb 3331 02bc c049 093c
00000070: b334 11bb 30a9 ac3a 9042 19ba e495 1d3b

batch1.running_mean f4 [32]
-0.017501675 -0.0010651511 -0.0019389008 -0.09537487 -0.01048664 -0.034578864 0.010890077 -0.08066116
0.01768224 0.02654791 -0.027061464 0.02776284 -0.053426016 0.015772056 0.008251536 -0.0026303283
0.028540509 -0.04182765 -0.0020919777 0.0020137592 -0.013229624 -0.023826495 -0.012697146 0.018572358
0.039310403 0.015028236 -0.012132911 0.03475215 -0.033211965 0.017743636 -0.039012708 0.0018127024
00000000: ac5f 8fbc 8a9c 8bba b722 feba e653 c3bd
00000010: 28d0 2bbc 91a2 0dbd 4b6c 323c ae31 a5bd
00000020: 58da 903c 017b d93c 01b0 ddbc e56e e33c
00000030: 3dd5 5abd 6634 813c 7331 073c 9661 2cbb
00000040: c9cd e93c 7853 2bbd 9019 09bb 46f9 033b
00000050: 11c1 58bc c82f c3bc b107 50bc 0f25 983c
00000060: f203 213d fe38 763c 1ec9 46bc 4558 0e3d
00000070: 4509 08bd 1a5b 913c cacb 1fbd 3398 ed3a

batch1.running_var f4 [32]
0.00069946185 0.003567995 0.0005641123 0.0022101325 0.0020441215 0.0025821612 0.0026100543 0.0035881123
0.0017135894 0.0009046111 0.0007345895 0.00085153704 0.00319591 0.00077365583 0.0011040614 0.0027845178
0.0025746704 0.00061565713 0.0017705926 0.0025548975 0.00096997264 0.0017646635 0.0006985574 0.00067981705
0.0006747603 0.002338374 0.0026365488 0.0015449862 0.0019543152 0.0037953928 0.0005772212 0.001540215
00000000: 175c 373a 06d5 693b f0e0 133a dfd7 103b
00000010: abf6 053b 7a39 293b 720d 2b3b 8926 6b3b
00000020: 859a e03a 6c23 6d3a 7891 403a af39 5f3a
00000030: 7972 513b 2acf 4a3a 27b6 903a 757c 363b
00000040: cdbb 283b 0d64 213a 3b13 e83a 1170 273b
00000050: c345 7e3a 484c e73a 651f 373a c035 323a
00000060: 66e2 303a 683f 193b f3c9 2c3b 2281 ca3a
00000070: f813 003b 20bc 783b a950 173a 0ae1 c93a

conv3.weight f4 [32, 32, 1]
0.053486828 -0.04407142 0.040533323 -0.00060097815 -0.09686353 0.032607846 0.024153987 -0.057708655
-0.027553238 -0.021581924 0.00518101 0.0091678295 -0.06556359 -0.13240813 0.027151238 -0.09475106
0.071596906 -0.056548666 0.053759657 0.047477175 -0.08806273 -0.046484128 0.02914873 -0.04015795
-0.018541796 -0.022081029 0.041563023 -0.026386244 0.02060439 0.084727384 0.043456044 -0.08380086
-0.047431387 0.048892476 0.02548118 -0.049408216 -0.007382418 -0.095570646 -0.008020088 -0.06791912
0.05258576 -0.011129008 0.10607438 0.0080236755 0.048541952 -0.06332857 -0.036643714 -0.038278364
-0.07968354 0.04499254 -0.07257197 -0.023426572 0.087210685 -0.054089572 0.042219557 0.015086761
0.025424484 -0.022016011 0.00659753 0.088452056 0.054396182 0.004179162 -0.11808138 0.027754983
-0.051364504 0.028913943 0.047390647 -0.03577353 -0.011771032 0.02724021 0.07328076 0.008236581
0.09610308 0.036312185 0.059331633 -0.08884678 -0.019116966 0.10263969 -0.009116819 -0.07000425
0.00895689 0.014928903 0.03452393 -0.021569122 -0.008287061 -0.024056708 0.07302812 0.005456731
0.010686845 -0.043803085 -0.0554024 0.019080693 -0.05072948 -0.019535746 0.0531825 -0.0024957217
0.026686687 0.021667708 0.016762558 -0.06713552 0.05650814 -0.025319515 0.025247518 -0.06415863
0.08085387 -0.0035210717 0.0564059 -0.046612963 -0.022156794 -0.07608503 0.017497951 -0.07035909
-0.06016358 0.018152548 0.046416383 -0.08221119 -0.0018505522 -0.017619235 0.015450498 -0.036526933
0.05969333 0.120590955 -0.020021796 -0.0048350897 0.0031375282 0.017016215 0.010251639 0.08531402
-0.04656488 -0.102239475 0.03484228 -0.026327172 -0.057010543 -0.03590161 -0.0083244685 -0.017171443
0.016689971 0.01994971 -0.012166841 0.05474711 -0.027047047 -0.025299396 0.038378764 -0.09245019
0.050720036 0.016482633 -0.0050190855 0.03647573 0.016784279 0.0002998572 0.0025950347 -0.034786228
0.05077629 -0.020394906 0.039939865 0.021601439 0.034162216 -0.01220524 -0.033358365 0.008242182
-0.08739394 0.032331463 -0.029233614 -0.045225266 0.05467176 0.0872664 -0.045029625 0.07029755
0.06025173 0.02682868 -0.019583762 -0.052094493 -0.011152205 0.03880899 0.025442723 0.040817294
0.10969719 -0.08064503 0.09131047 0.05320958 -0.035508662 -0.05457161 0.035994105 -0.03940575
-0.01324541 -0.01426002 -0.011732673 -0.02648682 0.033133566 0.037175335 -0.066990815 -0.04891109
0.0034124672 0.053652003 -0.041109994 0.05266077 -0.06526689 0.04152271 -0.10981172 0.05506034
-0.042674124 0.025655063 -0.07733017 0.062023815 0.039120894 0.036367424 0.00534859 -0.09384465
0.062644735 -0.062343076 0.037397094 0.020759743 -0.017552605 -0.01618855 0.012447297 0.028263632
0.065545134 0.0040914156 0.06529954 0.058725007 -0.013464369 0.09482974 0.06806379 -0.026017077
-0.024796069 -0.053434163 0.009227168 -0.005890684 -0.036546078 0.0072828038 0.05707125 -0.09994845
0.014990054 -0.055538904 -0.049501102 -0.03946308 -0.0682679 -0.071537346 0.043795258 0.0035961957
0.021556536 -0.035081126 -0.037623998 0.026511513 -0.055099376 -0.057976753 -0.041708637 -0.064944245
-0.021004459 0.010251483 -0.02935502 0.05793753 0.040087603 0.09129208 0.0185985 -0.07698147
00000000: 0115 5b3d 3c84 34bd 4506 263d f68a 1dba
00000010: 6360 c6bd ce8f 053d 95de c53c e95f 6cbd
00000020: 54b7 e1bc 93cc b0bc 76c5 a93b aa34 163c
00000030: 3446 86bd ff95 07be 466c de3c d80c c2bd
00000040: 66a1 923d 939f 67bd 1633 5c3d 6d77 423d
00000050: 3c5a b4bd 2466 3ebd 51c9 ee3c aa7c 24bd
00000060: f7e4 97bc 46e3 b4bc fd3d 2a3d f727 d8bc
00000070: 8aca a83c 8d85 ad3d f7fe 313d c99f abbd
00000080: 6a47 42bd 7a43 483d e8bd d03c 4560 4abd
00000090: 36e8 f1bb 8bba c3bd b066 03bc 2e19 8bbd
000000a0: 2a64 573d 7156 36bc 863d d93d bc75 033c
000000b0: edd3 463d 69b2 81bd b817 16bd c6c9 1cbd
000000c0: 2031 a3bd 194a 383d 9da0 94bd 15e9 bfbc
000000d0: 849b b23d 078d 5dbd 6aee 2c3d 762e 773c
000000e0: 0247 d03c ec5a b4bc 1830 d83b 5a26 b53d
000000f0: 88ce 5e3d 5af1 883b a7d4 f1bd 6b5e e33c
00000100: 9663 52bd efdc ec3c b21c 423d 4487 12bd
00000110: 49db 40bc dc26 df3c 3914 963d baf2 063c
00000120: b1d1 c43d 16bc 143d ba05 733d 4df5 b5bd
00000130: 2f9b 9cbc c234 d23d b65e 15bc 635e 8fbd
00000140: ebbf 123c 5c98 743c f768 0d3d bab1 b0bc
00000150: 74c6 07bc 9312 c5bc c48f 953d 61ce b23b
00000160: e017 2f3c dd6a 33bd a1ed 62bd 1d4f 9c3c
00000170: b7c9 4fbd 6e09 a0bc e5d5 593d 438f 23bb
00000180: 0a9e da3c 7a80 b13c a251 893c 597e 89bd
00000190: 1475 673d df6a cfbc e2d3 ce3c 9a65 83bd
000001a0: b796 a53d c8c1 66bb df09 673d 3ced 3ebd
000001b0: 2a82 b5bc 78d2 9bbd dd57 8f3c 6d18 90bd
000001c0: 166e 76bd a7b4 943c 1b1f 3e3d 575e a8bd
000001d0: 3a8e f2ba 3756 90bc 1624 7d3c 449d 15bd
000001e0: fe80 743d 64f8 f63d c004 a4bc ac6f 9ebb
000001f0: fd9e 4d3b 9765 8b3c 7ef6 273c 1eb9 ae3d
00000200: d1ba 3ebd ee62 d1bd c7b6 0e3d 15ac d7bc
00000210: e383 69bd 910d 13bd 5a63 08bc 20ab 8cbc
00000220: 68b9 883c 936d a33c 6e57 47bc 813e 603d
00000230: c591 ddbc ae40 cfbc 0d33 1d3d 8656 bdbd
00000240: d0bf 4f3d 9606 873c 2477 a4bb 9367 153d
00000250: 2f7f 893c 2736 9d39 7511 2a3b 017c 0ebd
00000260: cdfa 4f3d 3813 a7bc fc97 233d 80f5 b03c
00000270: aeed 0b3d 7df8 47bc c8a2 08bd 380a 073c
00000280: 98fb b2bd ff6d 043d 557b efbc 213e 39bd
00000290: 7fef 5f3d bab8 b23d fc70 38bd 29f8 8f3d
000002a0: 85ca 763d d2c7 db3c 206e a0bc 0961 55bd
000002b0: bdb7 36bc 2df6 1e3d 426d d03c 0930 273d
000002c0: eca8 e03d 3929 a5bd fc00 bb3d 4af2 593d
000002d0: 8871 11bd 7b86 5fbd 8e6e 133d ec67 21bd
000002e0: 4703 59bc dca2 69bc 663a 40bc e3fa d8bc
000002f0: 10b7 073d 2a45 183d 7b32 89bd ff56 48bd
00000300: b3a3 5f3b 34c2 5b3d f462 28bd d2b2 573d
00000310: a6aa 85bd b813 2a3d f8e4 e0bd f386 613d
00000320: 10cb 2ebd 912a d23c 485f 9ebd af0c 7e3d
00000330: 3b3d 203d 02f6 143d 3a43 af3b a031 c0bd
00000340: e24b 803d 745b 7fbd b22d 193d 5610 aa3c
00000350: 7bca 8fbc da9d 84bc bfef 4b3c 2289 e73c
00000360: 873c 863d 4811 863b c4bb 853d a289 703d
00000370: a899 5cbc 1836 c23d 0765 8b3d c421 d5bc
00000380: 2021 cbbc c8dd 5abd 8c2d 173c a406 c1bb
00000390: 57b1 15bd 96a4 ee3b 8bc3 693d c6b1 ccbd
000003a0: d898 753c c37c 63bd abc1 4abd 0aa4 21bd
000003b0: 0ad0 8bbd 2c82 92bd a862 333d 27ae 6b3b
000003c0: 5597 b03c 3ab1 0fbd 9f1b 1abd ac2e d93c
000003d0: e2af 61bd 0879 6dbd add6 2abd 7d01 85bd
000003e0: 8b11 acbc d6f5 273c f079 f0bc e74f 6d3d
000003f0: e632 243d 58f7 ba3d e25b 983c 76a8 9dbd

conv3.bias f4 [32]
5.3441664e-09 -4.6067976e-06 6.644926e-06 3.5007528e-09 -1.5932704e-08 -6.03851e-06 5.607898e-06 -1.890237e-08
-7.73409e-05 -1.780052e-08 1.7235765e-05 -1.2281158e-05 2.9972884e-09 -0.00015538857 1.2389436e-05 -1.7646376e-05
7.16709e-06 -3.0094384e-07 -1.9372766e-09 0.000161683 -1.1692582e-07 1.0258947e-08 8.117961e-09 -1.2066077e-09
1.3071343e-07 1.939539e-08 1.093227e-06 -0.00024487867 4.771042e-05 1.2122348e-08 -8.162908e-09 -7.812551e-07
00000000: c99f b731 1794 9ab6 7bf7 de36 e591 7031
00000010: 63dc 88b2 689e cab6 7a2b bc36 c05e a2b2
00000020: 1432 a2b8 c2e7 98b2 8695 9037 2c0b 4eb7
00000030: dbf8 4d31 cdef 22b9 39dc 4f37 4e07 94b7
00000040: d67c f036 6891 a1b4 ee20 05b1 7389 2939
00000050: a618 fbb3 533f 3032 2c77 0b32 bcd5 a5b0
00000060: 3c5a 0c34 ea9a a632 feba 9235 0f63 80b9
00000070: ac1c 4838 a642 5032 d93c 0cb2 71b7 51b5

batch2.weight f4 [32]
0.6537034 0.65063596 0.6539143 0.64455104 0.64807504 0.66370904 0.64372873 0.6453201
0.6456727 0.6483017 0.6492856 0.64916766 0.6545986 0.6463143 0.64449584 0.6440516
0.6442418 0.64331603 0.6368306 0.64135957 0.63683766 0.64007485 0.64023143 0.6386763
0.63714164 0.63474965 0.63335645 0.63382196 0.6344581 0.6354439 0.6320225 0.633163
00000000: 1b59 273f 1490 263f ed66 273f 4c01 253f
00000010: 3fe8 253f d6e8 293f 68cb 243f b333 253f
00000020: ce4a 253f 1af7 253f 9537 263f da2f 263f
00000030: c693 273f db74 253f aefd 243f 91e0 243f
00000040: 08ed 243f 5cb0 243f 5507 233f 2430 243f
00000050: cb07 233f f2db 233f 35e6 233f 4a80 233f
00000060: b71b 233f f47e 223f a623 223f 2842 223f
00000070: d96b 223f 74ac 223f 3acc 213f f816 223f

batch2.bias f4 [32]
0.0065585766 0.0076331357 0.009697545 0.010475489 0.008412067 0.012689953 0.0054699723 0.008029248
0.009055767 0.011700252 0.014490205 0.01260777 0.010503743 0.0089849215 0.008551267 0.0066981004
0.0061562993 0.014263885 0.004989594 0.0058057075 0.005716361 0.0057747653 0.009472638 0.0055146567
0.0050337836 0.0043963306 0.0021245203 0.0022296954 0.0024542748 0.0022373355 0.00023745089 0.0003506278
00000000: 54e9 d63b 621f fa3b 74e2 1e3c 63a1 2b3c
00000010: c4d2 093c 85e9 4f3c 743d b33b 1b8d 033c
00000020: a45e 143c 6ab2 3f3c 5368 6d3c d290 4e3c
00000030: e417 2c3c 7e35 133c 9d1a 0c3c bd7b db3b
00000040: c8ba c93b 12b3 693c c07f a33b ce3d be3b
00000050: 5050 bb3b 3e3a bd3b 2033 1b3c 4bb4 b43b
00000060: 70f2 a43b 180f 903b 893b 0b3b 1520 123b
00000070: e6d7 203b 43a0 123b 3dfc 7839 77d4 b739

batch2.running_mean f4 [32]
0.019972064 0.0024380793 -0.012242768 -0.0049918923 0.0034212796 -0.011033831 -0.016958605 0.02218126
-0.000430195 0.0058109895 0.01487333 -0.0175266 0.0061169546 -0.018052554 0.0061867074 -0.0026501343
-9.651705e-05 -0.013248639 0.0024124624 -0.016945936 0.00057445647 -0.0050347713 -0.0022413288 0.00203916
0.009462367 -0.017947396 -0.018102054 0.00087062514 0.0030225958 -0.0069004255 -0.0013616693 0.00066858425
00000000: 749c a33c 2fc8 1f3b e495 48bc 0793 a3bb
00000010: 8c37 603b 3ec7 34bc c6ec 8abc 79b5 b53c
00000020: cc8b e1b9 1d6a be3b 44af 733c f293 8fbc
00000030: bc70 c83b f3e2 93bc ddb9 ca3b e0ad 2dbb
00000040: 3269 cab8 d210 59bc 671a 1e3b 34d2 8abc
00000050: 1f97 163a b9fa a4bb 42e3 12bb 6ea3 053b
00000060: 0b08 1b3c 6b06 93bc c24a 94bc aa3a 643a
00000070: be16 463b f71c e2bb 0a7a b2ba ee43 2f3a

batch2.running_var f4 [32]
0.014107937 0.047747962 0.011452476 0.012493944 0.038977955 0.036213573 0.028298918 0.035423014
0.030087242 0.0261571 0.019704161 0.035283197 0.030166218 0.020768065 0.05277719 0.04331324
0.015875822 0.016201308 0.024341755 0.022264335 0.03179212 0.023051195 0.022338664 0.031570412
0.021912549 0.009552758 0.007739065 0.0050274474 0.00349007 0.004880759 0.0035383925 0.00088177255
00000000: fa24 673c 5e93 433d 2aa3 3b3c 66b3 4c3c
00000010: 59a7 1f3d af54 143d 22d3 e73c b917 113d
00000020: 8579 f63c 6a47 d63c 9f6a a13c 1d85 103d
00000030: 251f f73c ca21 aa3c e52c 583d 3969 313d
00000040: 030e 823c 9bb8 843c 5c68 c73c b263 b63c
00000050: 7438 023d dcd5 bc3c 93ff b63c fa4f 013d
00000060: f281 b33c 2c83 1c3c fc97 fd3b 49bd a43b
00000070: a9b9 643b c6ee 9f3b 60e4 673b c126 673a

LSTM.weight_ih_l0 f4 [256, 57]
-0.00013142115 -0.0070417263 0.0024085864 0.00073409645 -0.008160115 -0.0059706816 -0.0058615333 -0.0053239265
-0.005980857 -0.0059723784 0.0068897093 0.0051484564 -0.0013982403 0.00035943332 -0.001822085 0.0034131042
0.0026372494 -0.0028128582 -0.0017512118 -0.007502577 0.0025580777 -0.004679439 0.0048229815 0.0023028273
0.0031582634 0.0012093883 -0.00061291375 0.0053010946 0.0034644275 -0.0007205392 -0.00075328664 0.0037724841
-0.0039531784 -8.227723e-05 0.006274515 -0.00091811223 0.0029714173 -0.00077025144 0.0036674927 -0.0032915461
-0.0009830216 0.0048042242 -0.0008455219 0.0028093932 -0.000579507 0.005631112 -0.004713369 -0.008268739
0.0065356996 0.0010887191 -0.008486442 -0.0033537913 0.006007141 0.003383091 0.003174758 -0.0064653447
-6.1785504e-05 -1.998255e-05 -0.0012711701 0.00048377173 -2.674519e-05 -0.0014060902 -0.0011543209 -0.001155195
-0.0011613064 -0.0011531266 -0.0011536771 0.0015944641 0.0005906853 -0.00011235794 6.93743e-05 -0.00029418792
0.0005689474 0.0003653506 -0.00033396395 -0.00021614041 -0.0013647644 6.233522e-05 -0.0009169191 0.000801826
-0.00045031222 0.00044399983 -0.00048645935 0.00022014696 -9.379216e-05 -9.6101154e-05 0.00026590272 2.2910866e-05
-0.00044058802 -1.971818e-05 -0.00010678811 -9.1227215e-05 0.0002690685 -7.097122e-05 0.0002534479 -0.00010432703
1.1778544e-05 -9.147498e-05 -9.702372e-05 0.00026090862 -0.00010195926 0.00029285977 -0.00015866655 1.1716251e-05
-0.0015721265 0.0004441875 -0.00012311256 -0.0012625536 -0.0012268856 0.0001700072 -9.2925846e-05 -0.00013275696
-0.0012721901 -2.2118034e-05 7.715926e-08 -5.0525496e-06 5.76331e-06 6.0212875e-07 -1.1207112e-05 -4.04511e-06
-3.7666719e-06 -3.9249144e-06 -3.9702145e-06 -3.985946e-06 9.571738e-06 5.94589e-06 -3.3983786e-06 1.0735846e-08
4.700843e-07 2.6521227e-06 2.1840465e-06 -4.645084e-06 -3.1310562e-06 -7.944967e-06 4.1472067e-06 -3.1022912e-06
6.434018e-06 -3.1254515e-06 4.670095e-06 4.085075e-07 -2.8674372e-06 2.2252395e-06 1.1959743e-06 -3.1743816e-06
-3.502107e-06 -1.0403201e-06 7.884105e-06 -5.03409e-06 2.5933405e-06 -3.1866832e-06 2.713909e-06 -2.8611116e-06
-1.1187186e-06 2.3552545e-06 -5.0332355e-06 2.8414374e-06 -3.1200698e-06 8.503383e-07 -6.193015e-06 -6.0907237e-06
1.5944823e-05 -6.60621e-06 3.2576645e-06 -4.2830828e-07 -4.813396e-06 -1.5986061e-06 6.424506e-06 1.1542325e-06
1.2562998e-06 -4.5435595e-06 -5.264143e-08 -2.227733e-05 -0.0029917816 0.0014277257 0.00034486613 -0.003407299
-0.0025358454 -0.0025353918 -0.0025342223 -0.002553362 -0.0025521168 0.004141882 0.0024065233 -0.00074738933
0.00028949164 -0.0009932865 0.0018098351 0.0013219467 -0.0014251382 -0.0009636317 -0.0030558796 0.0012220887
-0.0020536168 0.0030056874 -0.00090790115 0.0018056752 -0.00051055924 -0.00026842355 0.0008460384 0.00049773615
-0.00025262305 -0.00081982755 -0.0001748306 0.00022045201 -0.0010520666 0.0009153297 -0.00026946788 0.0008447359
-0.00019782048 -0.0001909646 0.00035825226 -0.0011994877 0.0008514483 -0.00023440135 0.00084495347 -0.0002443685
-0.0001834146 0.00041515633 -0.0037500595 0.00201271 -2.8371618e-05 -0.0030096706 -0.001932099 0.0013676252
0.00047664382 0.0004901817 -0.0029912037 -3.4226782e-06 -1.6936388e-05 -0.019445354 0.0049043316 0.007016196
-0.017717626 -0.009297756 -0.008602431 -0.0071736933 -0.01398767 -0.014994048 0.03698918 0.023985611
-0.0066893273 -0.0013914685 0.0073609794 0.00092822115 0.004897661 -0.0062339907 -0.007281245 -0.004829654
0.014341178 -0.010255061 0.000937225 -0.0047580125 0.014587034 -0.0007479346 -0.007814784 0.009707691
00000000: 19ce 09b9 48be e6bb 60d9 1d3b 6170 403a
00000010: 01b2 05bc b5a5 c3bb 1b12 c0bb 5574 aebb
00000020: 11fb c3bb f1b3 c3bb 12c3 e13b 62b4 a83b
00000030: 2945 b7ba 5372 bc39 07d3 eeba 63ae 5f3b
00000040: b4d5 2c3b ee57 38bb eb88 e5ba 2dd8 f5bb
00000050: 6ca5 273b fb55 99bb 1a0a 9e3b 08eb 163b
00000060: defa 4e3b 5684 9e3a f2ab 20ba ceb4 ad3b
00000070: 730b 633b 91e2 3cba 3678 45ba c83b 773b
00000080: aa89 81bb 408c acb8 729a cd3b 78ad 70ba
00000090: 1cbc 423b b3ea 49ba 515a 703b fbb6 57bb
000000a0: bbd8 80ba c16c 9d3b 04a6 5dba cc1d 383b
000000b0: 0eea 17ba 3185 b83b 9b72 9abb 9b79 07bc
000000c0: 6c29 d63b 5ab3 8e3a b80a 0bbc 48cb 5bbb
000000d0: 8dd7 c43b d9b6 5d3b 9a0f 503b 3edb d3bb
000000e0: d792 81b8 33a0 a7b7 649d a6ba bea2 fd39
000000f0: dc5a e0b7 8f4c b8ba 954c 97ba e969 97ba
00000100: fa36 98ba 8224 97ba fb36 97ba 56fd d03a
00000110: 38d8 1a3a b6a1 ebb8 0b7d 9138 3c3d 9ab9
00000120: 6a25 153a 878c bf39 e217 afb9 c0a3 62b9
00000130: e5e1 b2ba f7b9 8238 665d 70ba a231 523a
00000140: e217 ecb9 a6c8 e839 780b ffb9 40d7 6639
00000150: 48b2 c4b8 ea89 c9b8 dc68 8b39 b630 c037
00000160: b9fe e6b9 7868 a5b7 6ef3 dfb8 3d51 bfb8
00000170: c311 8d39 62d6 94b8 34e1 8439 26ca dab8
00000180: 769c 4537 42d6 bfb8 3779 cbb8 90ca 8839
00000190: f6d2 d5b8 f98a 9939 ba5f 26b9 ea90 4437
000001a0: d00f ceba d6e1 e839 c717 01b9 457c a5ba
000001b0: 73cf a0ba f643 3239 2fe1 c2b8 ad34 0bb9
000001c0: 9ebf a6ba 1e8a b9b7 c0b2 a533 1289 a9b6
000001d0: 7562 c136 f9a1 2135 2e06 3cb7 3bbb 87b6
000001e0: eec6 7cb6 c2b2 83b6 e237 85b6 04bf 85b6
000001f0: 4d96 2037 ce82 c736 b30f 64b6 c070 3832
00000200: e55f fc34 1ffb 3136 a291 1236 f8dc 9bb6
00000210: 231f 52b6 604b 05b7 3c28 8b36 f530 50b6
00000220: cbe3 d736 d9be 51b6 d0b3 9c36 d850 db34
00000230: 326e 40b6 5355 1536 5d85 a035 7607 55b6
00000240: bd05 6bb6 20a1 8bb5 f945 0437 81ea a8b6
00000250: 4009 2e36 cdda 55b6 9a20 3636 8601 40b6
00000260: e126 96b5 f70e 1e36 2ae3 a8b6 86af 3e36
00000270: 6462 51b6 ce42 6435 98cd cfb6 eb5e ccb6
00000280: 3fc1 8537 e9aa ddb6 409e 5a36 3ef2 e5b4
00000290: c282 a1b6 b08f d6b5 1692 d736 20eb 9a35
000002a0: 229e a835 e174 98b6 dd17 62b3 34e0 bab7
000002b0: c411 44bb 8622 bb3a 26cf b439 fe4c 5fbb
000002c0: 6d30 26bb d128 26bb 3215 26bb 4e56 27bb
000002d0: 6a41 27bb a0b8 873b c3b6 1d3b 73ec 43ba
000002e0: e9c6 9739 2a31 82ba fd37 ed3a 2c45 ad3a
000002f0: b4cb baba 3b9c 7cba 2745 48bb 7e2e a03a
00000300: f995 06bb 11fb 443b 3700 6eba 68ac ec3a
00000310: 0dd7 05ba 33bb 8cb9 adc8 5d3a 827a 023a
00000320: 7e72 84b9 b2e9 56ba bb52 37b9 2329 6739
00000330: 7fe5 89ba bdf2 6f3a 5e47 8db9 4471 5d3a
00000340: 086e 4fb9 ab3d 48b9 ced3 bb39 2138 9dba
00000350: ba33 5f3a a2c9 75b9 de7f 5d3a 961e 80b9
00000360: fb52 40b9 57a9 d939 8fc3 75bb ace7 033b
00000370: 96ff edb7 e53d 45bb 7c3e fdba e341 b33a
00000380: 0de6 f939 897f 003a 1208 44bb 2ab1 65b6
00000390: 9e12 8eb7 dd4b 9fbc 84b4 a03b 1ee8 e53b
000003a0: 8e24 91bc 9d55 18bc 36f1 0cbc 4d11 ebbb
000003b0: 8a2c 65bc 98a9 75bc f781 173d 797d c43c
000003c0: 2532 dbbb ef61 b6ba 5f34 f13b de53 733a
000003d0: 8f7c a03b 8146 ccbb 8397 eebb 1342 9ebb
000003e0: 43f7 6a3c d804 28bc 1bb0 753a 1ae9 9bbb
000003f0: 74fe 6e3c 0b11 44ba 9409 00bc 020d 1f3c

LSTM.weight_hh_l0 f4 [256, 64]
-0.00040431897 0.0002168067 -2.3903645e-05 -1.790305e-05 0.00055233476 -0.00024544884 0.00030356637 9.084083e-05
0.00038663315 -0.000100415265 0.0008647406 6.47354e-06 -0.00022238106 -0.00048867357 0.00061266765 -6.927522e-05
0.00022931992 -0.00011314883 -0.00072899665 0.00082451326 -0.00045338518 0.000114006776 2.2271115e-06 0.00058312045
-1.50116275e-05 0.0003503957 0.00028521693 -0.0007393765 -0.000198909 0.00017688872 0.00019609027 0.00019172954
-0.0019872775 -1.0113974e-05 0.00045594096 -6.5746462e-06 0.00021942642 -0.00023528269 -0.00049271836 -3.6746005e-05
-0.00023788853 -9.109179e-05 0.00072021555 -1.1580232e-07 -9.696695e-05 0.00032944683 -0.00066323724 -2.1157946e-05
-0.00028188343 8.903182e-05 -0.0011047296 0.00016250403 -0.00013661312 0.00023716825 9.875707e-05 0.00045800416
-1.0708309e-05 0.0003942709 5.6271565e-05 -0.0001739677 -6.7423425e-06 0.00016388699 -0.0007212666 8.942015e-05
-0.00017880219 4.2457563e-05 4.4130607e-06 -5.687529e-06 1.9111932e-05 -2.1779966e-05 2.2608298e-05 1.4053082e-05
0.00018579676 0.00013418577 0.0001383717 2.529407e-06 -9.8693825e-05 -0.00017606196 0.0001670982 -1.0666195e-06
-1.795521e-05 -1.8218967e-05 -0.00010745231 0.00012932412 -9.019987e-05 -6.1133964e-05 -1.6939719e-05 0.000100643905
-5.6390207e-05 -3.7235957e-05 7.1557944e-05 -0.00011351048 -4.2962653e-05 -2.6500973e-05 4.4119002e-05 5.3336316e-05
-0.00041085374 -5.0851668e-05 2.2429553e-05 -2.1895792e-06 1.583558e-05 -0.00010296256 -0.00010013015 -1.1582638e-05
-4.1696294e-05 -1.657486e-05 0.0001453083 -2.5920399e-05 -2.1670436e-05 3.796372e-05 -1.106961e-05 0.00010180814
-1.2730181e-05 0.00010027959 -0.00020485076 6.5397544e-05 0.00015189098 9.9874764e-05 2.4759356e-05 5.173894e-05
3.2041182e-05 8.680757e-05 1.316269e-06 -0.00011324565 -3.892026e-05 -8.1765036e-05 -9.684504e-05 -1.1529985e-05
5.6421715e-07 -1.2935799e-07 -2.5389713e-08 -1.6321283e-06 1.6509448e-06 -7.936573e-07 2.881853e-06 -1.4101754e-06
6.5137726e-08 -9.2417633e-07 1.8660347e-07 1.9183192e-08 -8.622177e-07 2.0575675e-07 5.069012e-07 -1.6450664e-07
8.28458e-07 3.6202513e-07 -1.2527685e-06 -2.2161576e-06 2.7566495e-07 8.287557e-07 6.098308e-08 6.542789e-07
-6.760314e-08 1.0152432e-06 -1.5507777e-06 4.3530412e-07 -5.921424e-07 1.1991185e-06 1.0034313e-07 6.315911e-07
-2.5152208e-06 -6.1438726e-08 8.0739454e-07 4.3293788e-08 2.602522e-07 4.423059e-07 5.8360723e-07 -1.492e-07
-8.673204e-07 3.114237e-07 9.3538813e-07 -3.3521664e-07 -3.5990148e-08 -9.3229765e-08 -1.3185794e-06 2.3515175e-07
-2.1389365e-06 -1.5784407e-07 -1.195891e-06 8.4702407e-07 -4.0977062e-07 4.2969282e-07 2.9309606e-07 -6.1197696e-08
-6.523999e-07 -2.4981109e-08 -8.907195e-08 2.1526147e-07 3.3664344e-07 2.3962536e-06 -6.307898e-08 5.500563e-07
-0.00011948448 3.165658e-05 -1.3274807e-05 9.888107e-05 0.0006266467 -0.00018268125 0.0003349976 -2.2472937e-05
0.00020483426 -0.00015468583 0.00022851105 -1.6201311e-06 0.00022410875 -0.00018014917 0.00034144236 8.421746e-05
0.00019633459 -1.2107519e-05 -0.00042278384 0.00016867474 -7.251801e-05 0.00017942862 1.2761756e-05 0.00029808987
2.04446e-05 0.00027511737 3.720935e-05 -6.231118e-05 6.535881e-05 0.0003078834 8.307895e-05 0.00021836684
-0.0008799193 0.00010449685 0.0002699273 2.2901595e-05 8.2001985e-05 -3.665133e-05 4.8977454e-06 -8.5593165e-05
-0.00022954775 0.00030246348 0.00041218565 5.9719547e-05 -3.527629e-05 0.00045285723 -0.00035373043 -4.2832064e-05
-0.0004351873 -0.00013308309 -0.0005879768 -4.0359708e-05 -0.00027422456 -0.00015551118 8.205791e-05 0.00010526834
-1.7375196e-05 3.2588134e-05 -1.5217356e-05 -1.1730959e-05 0.00013901351 0.00013067696 -0.00017429619 3.074266e-05
00000000: c6fa d3b9 9b56 6339 b084 c8b7 822e 96b7
00000010: 8fca 103a 96af 80b9 fd27 9f39 cd81 be38
00000020: 06b5 ca39 0996 d2b8 c2af 623a 4937 d936
00000030: f62e 69b9 541a 00ba 6e9b 203a da47 91b8
00000040: 9975 7039 514a edb8 231a 3fba 2624 583a
00000050: 54b4 edb9 ec16 ef38 7c75 1536 8ddc 183a
00000060: 73da 7bb7 51b5 b739 2b89 9539 b8d2 41ba
00000070: 3a92 50b9 347b 3939 959d 4d39 020b 4939
00000080: fc3c 02bb 30af 29b7 5c0b ef39 c89b dcb6
00000090: d515 6639 37b6 76b9 c529 01ba b91f 1ab8
000000a0: b771 79b9 8808 bfb8 d9cc 3c3a 00af f8b3
000000b0: bc5a cbb8 9bb9 ac39 19dd 2dba 587c b1b7
000000c0: c1c9 93b9 98b6 ba38 93cc 90ba d865 2a39
000000d0: ce3f 0fb9 5eb0 7839 cc1b cf38 4720 f039
000000e0: d6a7 33b7 25b6 ce39 2205 6c38 196b 36b9
000000f0: 483c e2b6 14d9 2b39 6213 3dba 1487 bb38
00000100: d97c 3bb9 7614 3238 e713 9436 81d7 beb6
00000110: 9052 a037 1fb4 b6b7 f3a6 bd37 87c5 6b37
00000120: 70d2 4239 38b4 0c39 df17 1139 e2be 2936
00000130: d8f9 ceb8 469d 38b9 1537 2f39 c428 8fb5
00000140: 859e 96b7 efd4 98b7 0558 e1b8 2e9b 0739
00000150: b029 bdb8 0c35 80b8 c519 8eb7 c910 d338
00000160: 8684 6cb8 ce2d 1cb8 6111 9638 7a0c eeb8
00000170: cc32 34b8 684e deb7 6b0c 3938 6fb5 5f38
00000180: db67 d7b9 9049 55b8 1927 bc37 aff0 12b6
00000190: a6d6 8437 9aed d7b8 f7fc d1b8 0d53 42b7
000001a0: 0ee3 2eb8 3e0a 8bb7 e65d 1839 a26f d9b7
000001b0: e8c8 b5b7 3c3b 1f38 9db7 39b7 d481 d538
000001c0: b693 55b7 324d d238 35cd 56b9 0a26 8938
000001d0: ed44 1f39 db73 d138 50b2 cf37 4402 5938
000001e0: f563 0638 760c b638 a9aa b035 4c7e edb8
000001f0: 503e 23b8 4579 abb8 4919 cbb8 e970 41b7
00000200: b574 1735 a7e5 0ab4 9218 dab2 800f dbb5
00000210: 0896 dd35 b70b 55b5 dc65 4136 4245 bdb5
00000220: d8e1 8b33 ea14 78b5 2c5d 4834 49c8 a432
00000230: 2673 67b5 fced 5c34 fc11 0835 3ea3 30b4
00000240: 3363 5e35 5b5c c234 cc24 a8b5 4cb9 14b6
00000250: 1aff 9334 a877 5e35 cef5 8233 b4a1 2f35
00000260: 382d 91b3 7e43 8835 5124 d0b5 beb3 e934
00000270: b7f3 1eb5 66f1 a035 387c d733 9c8a 2935
00000280: 2acb 28b6 4cf0 83b3 bbbb 5835 06f2 3933
00000290: cab8 8b34 0f76 ed34 2fa9 1c35 c933 20b4
000002a0: ced1 68b5 bf31 a734 6217 7b35 d3f7 b3b4
000002b0: 9693 1ab3 9b35 c8b3 0bfa b0b5 057e 7c34
000002c0: a68a 0fb6 d97b 29b4 8082 a0b5 0d5f 6335
000002d0: 72fe dbb4 88b0 e634 d15a 9d34 ca6b 83b3
000002e0: 9420 2fb5 0a96 d6b2 d347 bfb3 9f22 6734
000002f0: ecbb b434 53cf 2036 0976 87b3 95a7 1335
00000300: be93 fab8 fec6 0438 ddb6 5eb7 5f5e cf38
00000310: 8c45 243a 208e 3fb9 9ea2 af39 4484 bcb7
00000320: c7c8 5639 2933 22b9 789c 6f39 4873 d9b5
00000330: bcfe 6a39 6de6 3cb9 9e03 b339 e89d b038
00000340: 2adf 4d39 6621 4bb7 16a9 ddb9 48de 3039
00000350: cf14 98b8 0125 3c39 531b 5637 f248 9c39
00000360: 7280 ab37 a13d 9039 3c11 1c38 0fad 82b8
00000370: 3e11 8938 696b a139 ac3a ae38 67f9 6439
00000380: 62aa 66ba 5225 db38 0785 8d39 cd1c c037
00000390: 7bf8 ab38 11ba 19b8 5057 a436 7b80 b3b8
000003a0: c1b2 70b9 f693 9e39 9f1a d839 607b 7a38
000003b0: a1f5 13b8 786d ed39 e574 b9b9 94a6 33b8
000003c0: da29 e4b9 388c 0bb9 7522 1aba e847 29b8
000003d0: ccc5 8fb9 b710 23b9 8116 ac38 82c3 dc38
000003e0: f3c0 91b7 3eaf 0838 0c4e 7fb7 16d0 44b7
000003f0: 28c4 1139 5406 0939 47c3 36b9 aef1 0038

LSTM.bias_ih_l0 f4 [256]
0.00809871 0.001406926 8.896216e-06 0.0039990535 0.009056412 0.005486876 0.007876289 0.00069697347
0.002636611 0.008141146 0.007981612 2.6114615e-06 0.02459894 0.010818856 0.001924027 0.0014399143
0.0052734744 0.0023061426 0.0047952314 0.004844984 0.004516793 0.0075112707 0.00012138294 0.0004930723
0.00014675799 0.0068421117 0.0050296974 0.012298071 0.0068860385 0.012284263 0.00034837917 0.0014294808
0.008218967 0.004077491 0.0022365937 2.7961352e-05 8.739798e-05 0.005640413 0.0076042283 0.00012801384
0.004226994 0.009457409 0.0009519751 0.0011582291 4.3915865e-05 0.015935732 0.0043506026 0.0049809534
0.010978075 0.008696927 -0.00057244906 0.005774738 0.011969009 0.011534897 0.00039621588 0.00095252134
6.950595e-05 0.00724376 0.00011129232 0.0019556484 0.00847958 0.012323955 0.0056280755 -1.846305e-05
0.014222653 0.0013748212 8.25573e-06 0.0038286615 0.029226378 0.0057558417 0.010326145 0.000718866
0.0025760767 0.008838312 0.0140571315 2.344576e-06 0.023983974 0.00559747 0.0014729329 0.0012855334
0.0062466296 0.002210954 0.008157858 0.007819876 0.006921031 0.008122936 0.00010790626 0.0004749107
8.7535154e-05 0.005181488 0.004977355 0.024961436 0.007374077 0.007068304 0.00032333095 0.0013570341
0.01412295 0.0039332462 0.0021425844 2.5895468e-05 8.544147e-05 0.0056165466 0.014695636 0.000120581084
0.00409437 0.024747418 0.0009613816 0.0011263088 4.1456362e-05 0.021162216 0.0038845148 0.0048433263
0.017922552 0.008859455 0.000823193 0.005701613 0.012704922 0.016969552 0.00035012813 0.0013402279
2.6297677e-05 0.011626944 0.00010516578 0.0018348909 0.0076745925 0.012758686 0.003934516 -0.00017958271
-0.042823028 -0.012773597 -0.00060390175 0.019675856 -0.08083821 -0.024512907 -0.061809536 0.01226929
0.0108415615 -0.07877608 -0.05854745 0.0003402723 -0.051492788 -0.01748254 0.023252565 0.020476002
-0.0355983 -0.029632278 -0.019445881 -0.0006467457 -0.027738959 -0.0045762197 -8.540002e-05 0.0353873
0.0023610408 -0.05086665 0.006180614 -0.059076272 -0.046552237 0.020865792 -0.022547826 0.034219563
-0.07105755 0.012744939 0.0016158595 -0.0014073221 0.035175353 0.030533029 0.053147264 -0.0027546876
0.020248817 -0.03697775 0.05903097 0.00329105 -0.012667759 -0.060395718 -0.0588054 0.017742394
0.026490016 0.06396721 -0.05065165 0.03156931 -0.043378543 -0.077223726 0.014264217 0.021503907
-0.000652761 0.027811382 -0.0001601742 -0.012202633 0.05166805 -0.059345413 -0.030306172 -0.016880665
0.0055556498 0.0014910519 8.379998e-06 0.0043705082 0.02938652 0.0064002937 0.009075401 0.0007667125
0.0027499143 0.010095193 0.008274012 -2.637158e-06 0.032475237 0.00959425 0.004843336 0.001378143
0.006867785 0.002373727 0.0077031474 0.008177086 0.0037543084 0.0082443915 0.00010527152 0.000543312
9.109247e-05 0.007489732 0.005510626 0.030922014 0.0068576587 0.019769838 0.00032564846 0.0014670133
0.016881255 0.0043365424 0.0021683672 4.439506e-05 9.457825e-05 0.006138573 0.001581051 0.00013050188
0.0047475896 0.016246853 0.0012022041 0.0012246729 4.4134413e-05 0.018673632 0.006460251 0.005482959
0.01599352 0.00933203 0.0028545063 0.006246459 0.01435984 0.03289819 0.0003915543 0.0018068379
2.9350473e-05 0.008130599 0.0001178125 0.0020105739 0.009541579 0.0127210105 0.0036629601 -1.3836185e-05
00000000: 74b0 043c 9a68 b83a f540 1537 7e0a 833b
00000010: 5861 143c 40cb b33b 8d0b 013c 19b5 363a
00000020: feca 2c3b 7162 053c 4fc5 023c 9140 2f36
00000030: b783 c93c 9241 313c a22f fc3a 82bb bc3a
00000040: 1ccd ac3b a722 173b 5121 9d3b acc2 9e3b
00000050: 9b01 943b 1b21 f63b f88e fe38 8641 013a
00000060: 0ce3 1939 cb33 e03b 29d0 a43b d97d 493c
00000070: 47a4 e13b ef43 493c a9a6 b639 6b5d bb3a
00000080: d9a8 063c 799c 853b d193 123b 8c8e ea37
00000090: 6f49 b738 37d3 b83b e42c f93b 743b 0639
000000a0: 9882 8a3b 40f3 1a3c f88d 793a b8cf 973a
000000b0: 4d32 3838 a78b 823c 808f 8e3b 4437 a33b
000000c0: 62dd 333c 8e7d 0e3c 6810 16ba 033a bd3b
000000d0: aa19 443c ddfc 3c3c 32bb cf39 a0b2 793a
000000e0: b9c3 9138 105d ed3b 9c65 e938 562a 003b
000000f0: f0ed 0a3c 6aea 493c b86b b83b 19e1 9ab7
00000100: 2106 693c 5833 b43a 1782 0a37 48ea 7a3b
00000110: 286c ef3c 809b bc3b fe2e 293c 4872 3c3a
00000120: 65d3 283b 91ce 103c e24f 663c 8257 1d36
00000130: 0a7a c43c fb6a b73b 6d0f c13a 587f a83a
00000140: 87b0 cc3b a7e5 103b 89a8 053c f01e 003c
00000150: d1c9 e23b 1016 053c bb4b e238 6ffd f839
00000160: 1493 b738 79c9 a93b 1419 a33b ed7b cc3c
00000170: 3ea2 f13b 3b9d e73b bf84 a939 82de b13a
00000180: f263 673c 76e2 803b 9a6a 0c3b 183a d937
00000190: 0a2f b338 020b b83b f7c5 703c 7ae0 fc38
000001a0: 112a 863b 19bb ca3c 3a05 7c3a a7a0 933a
000001b0: 6ee1 2d38 625c ad3c 5893 7e3b c4b4 9e3b
000001c0: 51d2 923c 3f27 113c 8ccb 573a 99d4 ba3b
000001d0: 4e28 503c bb03 8b3c 6791 b739 96aa af3a
000001e0: d599 dc37 f07e 3e3c 738c dc38 b980 f03a
000001f0: 267b fb3b cf09 513c 1ded 803b 5e4e 3cb9
00000200: 3367 2fbd 5948 51bc 294f 1eba 432f a13c
00000210: 818e a5bd 4bcf c8bc ff2b 7dbd 2205 493c
00000220: cea0 313c 5a55 a1bd 73cf 6fbd 9366 b239
00000230: 1aea 52bd 8b37 8fbc 2a7c be3c 4abd a73c
00000240: 86cf 11bd 64bf f2bc f84c 9fbc 5f8a 29ba
00000250: d03c e3bc 1df4 95bb c918 b3b8 46f2 103d
00000260: b1bb 1a3b 8c59 50bd bf86 ca3b f6f9 71bd
00000270: 8fad 3ebd bdee aa3c 38b6 b8bc d029 0c3d
00000280: 9f86 91bd 26d0 503c 3fcb d33a e575 b8ba
00000290: 0814 103d 6720 fa3c f2b0 593d fd87 34bb
000002a0: d9e0 a53c fb75 17bd 75ca 713d a8ae 573b
000002b0: 6f8c 4fbc 8061 77bd eedd 70bd 7f58 913c
000002c0: 9701 d93c 3e01 833d 1b78 4fbd d24e 013d
000002d0: b3ad 31bd 7927 9ebd 76b4 693c f628 b03c
000002e0: 0d1e 2bba b2d4 e33c 6ff4 27b9 8ded 47bc
000002f0: e1a1 533d 2d14 73bd a644 f8bc 5249 8abc
00000300: 2b0c b63b 666f c33a d197 0c37 7b36 8f3b
00000310: 00bc f03c 8eb9 d13b feb0 143c 34fd 483a
00000320: e837 343b 4f66 253c b98f 073c 08fa 30b6
00000330: c104 053d 3331 1d3c d9b4 9e3b cea2 b43a
00000340: 280b e13b 8890 1b3b af6a fc3b 2ff9 053c
00000350: d80a 763b 7c13 073c 38c5 dc38 0d6d 0e3a
00000360: e608 bf38 6d6c f53b 7b92 b43b 2a50 fd3c
00000370: 36b6 e03b 5bf4 a13c ccbb aa39 cc48 c03a
00000380: 8f4a 8a3c 8e19 8e3b 2a1b 0e3b d534 3a38
00000390: 5058 c638 1526 c93b 453b cf3a 55d7 0839
000003a0: ab91 9b3b 1f18 853c 4793 9d3a 3485 a03a
000003b0: f71c 3938 72f9 983c 83b0 d33b 65aa b33b
000003c0: d804 833c 5fe5 183c ab12 3b3b 19af cc3b
000003d0: 8945 6b3c 41c0 063d 8749 cd39 6bd3 ec3a
000003e0: a935 f637 3436 053c 1b12 f738 d5c3 033b
000003f0: 4854 1c3c c96b 503c 460e 703b f621 68b7
