Code/LSTM/LSTMModelOutputs/best_model.pth (torch, 177762 bytes, 15 tensors)

feature.0.weight_ih_l0 f4 [256, 15]
00000000: 3f48 33a9 56a3 c0a9 5c13 a726 8373 97a9
00000010: e400 0aaa 246d 8227 7a03 4728 22ff 9028
00000020: 7671 4ba9 6864 2229 7e1a e5a8 e17d 35a9
00000030: c437 12a9 d49a d328 6ab2 0500 da5b 1c2d
00000040: d0da aa2c b9d2 502a 48a3 042d 8584 fd2c
00000050: de8f 332d 8bdd e0ac ee30 072d 6ef4 4e2d
00000060: 78cb 1f2d 2925 822d 1adc 602d 1ae3 122d
00000070: 5b2a 1f2d e342 2400 6165 9b2c 09ca 252d
00000080: 8c2c bc2a 71f0 f82c 9395 0e2d 57e0 a82c
00000090: b5c9 2a2c 9fec 512c 6d4b 612c c193 2d2c
000000a0: 2e81 792c 19b1 582c abcd 8a2c 056e 9c2c
000000b0: e325 0980 d8b5 8f38 dd87 bc38 a045 24b4
000000c0: 8581 ce38 6bb7 ce38 f11d 3d38 dd4b b3b7
000000d0: 6b69 fe38 7715 0839 8c7f 9f38 bf61 0e39
000000e0: af4b f838 0870 8c38 20b4 4038 700b 2d80
000000f0: 91fb 003b ce00 023b c6b1 8837 5ea4 263b
00000100: d0b2 1b3b a861 9d3a 260d 093a d5d1 103b
00000110: 3d8b 553b 55c0 2c3b 2d68 703b 9b87 6c3b
00000120: 0bfc fe3a e245 aa3a b8d9 3d00 9af9 a42e
00000130: 2dbb 9bb0 c4ba 2d2b 04c8 0f2e 9627 1a30
00000140: 8037 002e 4af1 b6af 7da4 f92f 9cf0 f9ae
00000150: b484 2d30 c6e3 ee2f 8812 0330 3ea5 522f
00000160: 1e9f 0130 dfdc 2580 d2e2 7338 000b 8338
00000170: a8d6 ab34 a413 9038 7e2d 9a38 427c 4038
00000180: bbf7 3bb7 b405 d538 539d ce38 1608 6b38
00000190: b5a2 d038 005b b238 038e 6c38 afd5 4c38
000001a0: 28f4 1d00 fd19 972b a009 202c f0bd b529
000001b0: cca7 ef2b ca4a 032c f4bf aa2b 9776 212b
000001c0: 0c76 552b 2212 6a2b 6640 1f2b 787d 792b
000001d0: 1e6c 3f2b 0e5d 862b 962e 992b ef94 2200
000001e0: d096 9fab 5eec b8ac 825e 1f2a c931 6d2b
000001f0: 5c76 402c ac84 8b2b 820b ddab e57c 872c
00000200: 6853 d9ab ee31 9d2c 80dc 562c 28f6 562c
00000210: e971 22ab 75ec b22c c868 0e00 5472 683a
00000220: f9e7 5e3a 1317 01b8 fc56 933a 8d96 8b3a
00000230: 8e96 0b3a ec0f 6e39 8885 6b3a fd30 b23a
00000240: 0ea4 973a 418b ce3a 4884 cc3a 7d4e 653a
00000250: 2d0a 1b3a b8bf 2b00 f3d2 e22c 0959 692d
00000260: f5aa 062b c56f 2e2d f1c7 542d 380b f12c
00000270: 48bf 6e2c 84a0 9c2c d149 a52c ce4f 6f2c
00000280: fdf1 b82c b84f a72c e8ec cb2c 351f dc2c
00000290: 69ae 0780 dd6c 7839 c68f 8239 de49 17b7
000002a0: 1e5d 9e39 1813 9539 b669 fa38 08bf 5938
000002b0: a91d 7039 ebe1 c039 720f 9739 b988 d339
000002c0: 9c62 c539 4cb6 7239 5e2a 1739 7aa9 1800
000002d0: 1d38 d3af 81ce 14b0 b12a 8f2c 47a2 99af
000002e0: dd7d 4db0 c022 792c 98a9 05ae eb46 b22f
000002f0: 75a3 ceaf f2be c52f 38f7 25ae 9850 c82e
00000300: 51c8 baaf e4ae bb2f 5217 1c80 7563 f030
00000310: a6f8 1d31 8e88 3c2f a497 7e31 06cb da30
00000320: 0d62 9e31 3abb b730 96e8 3631 6677 9230
00000330: 0d35 9431 9c47 4331 debd 8a31 13d8 e730
00000340: 50c3 c631 c1a8 3900 8cda 032c 34e5 7f2c
00000350: a6d9 052a 46bd 452c c886 6f2c 8eea 0e2c
00000360: 806b 6f2b 231c b52b ef41 be2b e4f3 872b
00000370: 7435 dc2b 509e c22b 0401 ee2b 3f7d 012c
00000380: 86a9 4100 e86a 003b e546 013b f2db 8637
00000390: 0fc3 253b 02ea 1a3b a674 9c3a 8b35 083a
000003a0: 8451 103b 3057 543b 80ef 2b3b 5c50 6f3b
000003b0: 8c84 6b3b f1ed fd3a 0f3c a93a 1f99 3700
000003c0: c429 d2a6 f066 ce24 90f3 9ba3 ba97 25a6
000003d0: 78a5 8c26 016c 0da6 aced b5a4 de4f 93a6
000003e0: 1c5a 21a6 4294 5fa6 2338 afa6 0632 f4a5
000003f0: 58b7 d4a6 72c3 7ca6 7381 1480 5041 aa39
-3.9808648e-14 -8.554847e-14 1.15932e-15 -6.725785e-14 -1.2257171e-13 3.620058e-15 1.1047473e-14 1.6097858e-14
-4.5173466e-14 3.6058315e-14 -2.5435596e-14 -4.0299256e-14 -3.246688e-14 2.3492852e-14 5.2318e-40 8.8879685e-12
4.8559837e-12 1.854722e-13 7.539587e-12 7.205405e-12 1.0206917e-11 -6.391059e-12 7.684726e-12 1.1764019e-11
9.083283e-12 1.4795791e-11 1.2781798e-11 8.349566e-12 9.047508e-12 3.330072e-39 4.4166203e-12 9.424025e-12
3.342642e-13 7.0752783e-12 8.104978e-12 4.799754e-12 2.4270423e-12 2.9832037e-12 3.2016293e-12 2.4666799e-12
3.5456737e-12 3.0793755e-12 3.9450296e-12 4.4460013e-12 -8.4011e-40 6.8526424e-05 8.989845e-05 -1.529902e-07
9.84697e-05 9.85701e-05 4.5088997e-05 -2.137379e-05 0.000121312994 0.00012977967 7.605468e-05 0.00013578589
0.00011839659 6.696588e-05 4.594412e-05 -4.1367e-39 0.0019681195 0.0019836905 1.6295246e-05 0.002542756
0.0023757704 0.0012007253 0.00052280945 0.0022097726 0.0032584213 0.0026359756 0.0036683187 0.003609157
0.0019453777 0.0012990797 5.680068e-39 7.502195e-11 -1.1330933e-09 6.1721136e-13 3.2692085e-11 5.608113e-10
2.9153124e-11 -3.3277053e-10 4.5409712e-10 -1.136595e-10 6.3125616e-10 4.345379e-10 4.7683857e-10 1.9158095e-10
4.7156046e-10 -3.477147e-39 5.8146958e-05 6.248616e-05 3.2007415e-07 6.8701134e-05 7.351766e-05 4.589209e-05
-1.1203748e-05 0.00010157694 9.8521494e-05 5.6035897e-05 9.9485194e-05 8.5046515e-05 5.6399043e-05 4.88364e-05
2.750816e-39 1.0736409e-12 2.274271e-12 8.0709636e-14 1.7028544e-12 1.8657736e-12 1.2132504e-12 5.7363267e-13
7.5836624e-13 8.3158664e-13 5.657752e-13 8.8636693e-13 6.8006874e-13 9.5471e-13 1.0884234e-12 3.175834e-39
-1.1339488e-12 -5.2558366e-12 1.4154826e-13 8.4268405e-13 2.7350544e-12 9.913368e-13 -1.5706189e-12 3.850797e-12
-1.5441927e-12 4.4677517e-12 3.0533631e-12 3.0547873e-12 -5.7712044e-13 5.0853163e-12 1.323285e-39 0.0008867134
0.00085031945 -3.0777486e-05 0.0011241133 0.0010649726 0.00053248636 0.0002270338 0.0008984436 0.0013594922
0.0011569278 0.0015758054 0.0015603388 0.00087473524 0.0005914297 4.017702e-39 6.4467264e-12 1.3264286e-11
4.7843614e-13 9.915573e-12 1.2095201e-11 6.8508775e-12 3.3928017e-12 4.4516075e-12 4.6977773e-12 3.4008243e-12
5.2564606e-12 4.755276e-12 5.795909e-12 6.2562408e-12 -7.05415e-40 0.00023691678 0.00024902652 -9.0175e-06
0.00030205486 0.0002843372 0.00011940619 5.1914743e-05 0.00022899233 0.00036789416 0.00028812472 0.00040346922
0.00037648238 0.0002314683 0.00014416265 2.264849e-39 -3.8420547e-10 -5.4135546e-10 4.069044e-12 -2.7945843e-10
-7.475743e-10 3.5404318e-12 -3.039133e-11 3.2428402e-10 -3.7587325e-10 3.5969766e-10 -3.773623e-11 9.109263e-11
-3.3975536e-10 3.413937e-10 -2.57976e-39 1.7490566e-09 2.2987847e-09 1.7147014e-10 3.7048062e-09 1.591929e-09
4.6095523e-09 1.3368215e-09 2.6616696e-09 1.0656833e-09 4.313398e-09 2.841694e-09 4.037914e-09 1.6868874e-09
5.784763e-09 5.295161e-39 1.8737538e-12 3.6364913e-12 1.1888285e-13 2.8100452e-12 3.4038761e-12 2.0309618e-12
8.5059043e-13 1.2868633e-12 1.3518612e-12 9.66002e-13 1.5646776e-12 1.382847e-12 1.6911199e-12 1.8401528e-12
6.030121e-39 0.001959497 0.0019726094 1.6076465e-05 0.0025293266 0.0023638015 0.0011936619 0.0005195967
0.0022021243 0.00324006 0.0026235282 0.0036516404 0.0035937158 0.001937328 0.0012911576 5.105882e-39
-1.4582998e-15 8.951264e-17 -1.6908286e-17 -5.74515e-16 9.759302e-16 -4.9065575e-16 -7.889887e-17 -1.0221822e-15
-5.5980217e-16 -7.7569594e-16 -1.215828e-15 -4.236115e-16 -1.476015e-15 -8.769494e-16 -1.883148e-39 0.00032473588

feature.0.weight_hh_l0 f4 [256, 64]
00000000: 9a93 3e9f d150 d09f 788e 1520 3ea7 20a6
00000010: def7 1c27 12b7 cca2 7afc 0da6 e4c9 a79f
00000020: d57a 1c21 94b0 e326 7ef3 5620 94f1 8326
00000030: 0870 9b22 7c6f ffa2 bdca f09f 2fa1 1ca7
00000040: 5535 079c 96ea 9626 baa9 ea1d e24c 019d
00000050: f972 ae23 460d 6526 1500 ad9e 66cf a8a2
00000060: e318 eda2 4494 a626 88d1 eca6 b3dd 3627
00000070: eb1c 9627 f6ab 051f 688a 769e 588d 5d9e
00000080: e619 411e f7c6 c622 9f3b e6a6 2029 fd9e
00000090: 2078 c29f 2468 4c22 5e0f d21e 2cb9 87a2
000000a0: a490 68a0 f9d7 859d d35f d623 3e41 2927
000000b0: 108a 8f20 0a91 e4a6 3117 dd26 bb1c 97a2
000000c0: 3a25 141f d4ca 3b9e a7c4 2e1e c9bc 2523
000000d0: 4cfa 141e 4276 969f 5f2e 0ea7 d242 6f20
000000e0: 90f4 3aa6 6caa 8b1f 4ca2 021e 2e46 4e28
000000f0: 8eeb bf26 6b13 73a3 8de0 da22 ba7a 1c20
00000100: a2e6 a223 438b 25a6 87a0 6623 fd2d aa2a
00000110: 771c f0ab 12c0 6a26 0330 922a 50c9 41a3
00000120: 17dd f9a4 7d88 a4ab f47e 8c23 56e1 1eab
00000130: b34f 57a6 4b93 2628 1c69 88a3 809d ef2b
00000140: 431a 8e22 e360 3dab 4a26 6fa3 2a25 50a0
00000150: 5070 1fa7 c885 04ab ce0c 8da2 328a 0e25
00000160: 0343 1728 80fa 57ab 6132 ad2b 514f 0aac
00000170: 970b 44ac 0741 9da3 bf78 ca23 213a 2da5
00000180: 404c a5a3 62cf 32a8 03f4 a62b 8d18 58a6
00000190: 24b7 3324 8767 1ea6 3fdc 7da3 3cec cc27
000001a0: 466a 9aa3 a4a1 9623 487b 3ea7 e61c 01ac
000001b0: 775f 0a23 415d a52b 483f 9eab e625 3a26
000001c0: e1ae 5ca4 cc1b cc23 947c 24a4 0601 c9a6
000001d0: 03ac 82a3 c26d 22a2 6234 d82b 90c8 a526
000001e0: 0456 cd2a ca41 fba4 4958 bba3 c64b daac
000001f0: b9c0 82ab b42d 0f27 6d31 08a8 293b 4b23
00000200: bee6 f521 9a88 c5a3 6e6e 0ca3 703a 282a
00000210: d646 7cab 69cc a625 4b30 102a bfe6 8022
00000220: 6bfe e6a3 37c8 28ab a862 27a3 cfbb 9eaa
00000230: c104 61a5 337c 2026 3d08 9a22 ecb5 7b2b
00000240: 1f1d 8020 530a beaa 4335 76a1 b837 431f
00000250: 5450 7aa6 45ea 83aa bc8a 2121 8882 a425
00000260: 0070 1626 eb99 d9aa 4b2c 322b eba1 92ab
00000270: 67bb d2ab 754e a1a1 6d3a cd21 14ef f2a2
00000280: 1556 a9a1 9abc 37a6 5466 2b2b 6929 17a4
00000290: 38f0 7122 31c2 13a5 37e1 80a1 047d 6724
000002a0: 6a4f 3423 7ac6 8e21 5f33 9ba6 f74e 88ab
000002b0: 0c8d 84a3 58ae 292b 7000 22ab f3d3 6325
000002c0: 8b78 2aa2 52c5 cf21 0262 13a2 e656 eea5
000002d0: 0189 86a1 b61d 8922 1989 612b 41ed 8e24
000002e0: 128b 4b2a 0bcf e0a2 aa1e baa1 601e 65aa
000002f0: b0ac 04ab c071 3226 6564 b4a5 5828 06a3
00000300: eab6 2f2e 9111 3aae a8bd c9af 762b 4236
00000310: 0715 0fb8 276a e431 f1a6 2536 5a51 462f
00000320: d8ea 2ab0 2ade 8cb7 5807 c8af acc6 e5b6
00000330: 917d a5b1 3674 cf31 b216 532f 1b9a 0e38
00000340: 0720 402b a577 0bb7 70d5 02ad 3ae8 ea2b
00000350: c22d b7b2 a968 b5b6 2f5e fc2d 976c 2c32
00000360: 3e50 bb31 8bb3 1fb7 c4fe 9a37 4aed 2fb8
00000370: 2298 66b8 ac49 d9ad d1b8 672d 2469 4b2d
00000380: bac7 3dad 2c79 c0b1 baaf 9037 8a43 41af
00000390: c34e bb2e 005b 56b1 8208 a5ad 4231 9331
000003a0: e40e d82f 278f ce2c 06d0 e7b2 5731 20b8
000003b0: 782e 1bb0 a22a 8e37 1271 83b7 6f2d a131
000003c0: 92f9 8bad e103 552d a8fc d7ac d0d2 31b2
000003d0: 4c83 16ad 1a37 202f bff9 ed37 4ada de2f
000003e0: 2879 7836 059c 11ae d52e 29ad 0458 94b8
000003f0: 9caa 45b7 2999 8532 3490 a9b1 3aab c7af
-4.0356158e-20 -8.8225126e-20 1.266793e-19 -5.5737807e-16 2.1783718e-15 -5.5488144e-18 -4.926137e-16 -7.106125e-20
5.3017423e-19 1.5799151e-15 1.820707e-19 9.155431e-16 4.213145e-18 -6.9235927e-18 -1.01979356e-19 -2.1736727e-15
-4.4736683e-22 1.0471926e-15 6.2114777e-21 -1.7112755e-21 1.891381e-17 7.9468324e-16 -1.8317121e-20 -4.5756083e-18
-6.426533e-18 1.1558751e-15 -1.6432583e-15 2.5377757e-15 4.1664716e-15 2.8306088e-20 -1.3051753e-20 -1.1728872e-20
1.0222691e-20 5.387867e-18 -1.5975616e-15 -2.6804426e-20 -8.2360926e-20 2.7702287e-18 2.224097e-20 -3.678788e-18
-1.9699022e-19 -3.5428117e-21 2.324251e-17 2.348883e-15 2.4316504e-19 -1.5859991e-15 1.5341242e-15 -4.095905e-18
3.1371012e-20 -9.9416414e-21 9.25215e-21 8.984645e-18 7.886815e-21 -6.372311e-20 -1.9731597e-15 2.0266196e-19
-6.4863157e-16 5.915073e-20 6.915705e-21 1.1450515e-14 1.3317135e-15 -1.3177168e-17 5.932677e-18 1.3254321e-19
1.7661752e-17 -5.743461e-16 1.2502318e-17 3.0229977e-13 -1.7060926e-12 8.144536e-16 2.5968125e-13 -1.05051805e-17
-1.0836108e-16 -1.1690784e-12 1.5232597e-17 -5.644559e-13 -7.470112e-16 9.24679e-15 -1.4789665e-17 1.7025686e-12
3.8516983e-18 -6.7280746e-13 -1.2964324e-17 -1.7630582e-19 -2.2126567e-15 -4.708148e-13 -3.8231684e-18 1.2363359e-16
8.396715e-15 -7.673098e-13 1.2306372e-12 -1.965501e-12 -2.7859709e-12 -1.7049514e-17 2.1952022e-17 -1.5025053e-16
-1.7921629e-17 -9.925954e-15 1.1862736e-12 -7.4973327e-16 3.8969564e-17 -5.495757e-16 -1.3761796e-17 5.68775e-15
-1.6741722e-17 1.633149e-17 -2.6434628e-15 -1.8348044e-12 7.5012105e-18 1.1749838e-12 -1.1244139e-12 6.4583075e-16
-4.7853024e-17 2.2129497e-17 -3.5667353e-17 -1.3947454e-15 -1.4167478e-17 -2.20132e-18 1.5362262e-12 1.1503538e-15
3.6475e-13 -1.0896535e-16 -2.0311971e-17 -6.204345e-12 -9.290547e-13 1.9870012e-15 -7.560234e-15 1.101718e-17
1.6662923e-18 -2.1416636e-17 -7.6128e-18 1.4941672e-13 -8.962669e-13 2.8934923e-16 1.2806524e-13 3.493878e-18
-2.50444e-17 -5.9963444e-13 -9.0739794e-18 -2.8196756e-13 -1.951725e-16 5.567947e-16 4.1750506e-18 8.942558e-13
2.1703314e-19 -3.3757944e-13 -8.3418533e-19 4.1338946e-20 -8.684504e-16 -2.3432832e-13 5.4732535e-19 2.8537916e-16
5.219349e-16 -3.8653745e-13 6.329977e-13 -1.0418865e-12 -1.4973412e-12 -1.0930552e-18 1.3906806e-18 -6.5847365e-18
-1.1474671e-18 -6.374648e-16 6.089341e-13 -3.277798e-17 3.2788761e-18 -1.2816012e-16 -8.733231e-19 5.0196033e-17
9.774636e-18 9.674831e-19 -1.076921e-15 -9.685298e-13 -1.4371204e-17 6.028281e-13 -5.755457e-13 1.9760923e-16
-2.3103111e-18 1.4079096e-18 -1.99741e-18 -4.1345303e-16 -9.116458e-19 3.7165382e-18 8.012632e-13 6.198461e-17
1.8078272e-13 -6.0934537e-18 -1.2611967e-18 -2.0349824e-13 -4.713547e-13 6.1910316e-16 -3.1293053e-16 -7.272698e-18
3.9952854e-11 -4.2307106e-11 -3.6696446e-10 2.893355e-06 -3.411344e-05 6.6477415e-09 2.4684089e-06 1.8036897e-10
-6.217937e-10 -1.6792754e-05 -3.6385006e-10 -6.8478603e-06 -4.8164073e-09 6.0377046e-09 1.9198401e-10 3.399896e-05
6.825655e-13 -8.3129025e-06 -7.437037e-12 1.6691156e-12 -2.1324812e-08 -5.4064044e-06 2.8690909e-11 1.0036408e-08
5.4515388e-09 -9.518942e-06 1.8476865e-05 -4.1944244e-05 -5.4977958e-05 -2.470276e-11 1.3171867e-11 1.156256e-11
-1.0787754e-11 -5.601711e-09 1.7247967e-05 -1.7577242e-10 8.5177664e-11 -3.1192826e-09 -1.8762106e-11 4.283863e-09
3.9300752e-10 5.8707652e-12 -2.6986537e-08 -3.8192924e-05 -5.645471e-10 1.6947572e-05 -1.566907e-05 4.690882e-09
-1.5913302e-11 1.21085095e-11 -6.138718e-12 -1.0350689e-08 -8.555667e-12 1.4571491e-10 2.8368899e-05 4.0536668e-10
3.7025402e-06 -3.3107756e-11 -9.616937e-12 -7.073584e-05 -1.1781838e-05 1.5552887e-08 -4.9349413e-09 -3.6319553e-10

feature.0.bias_ih_l0 f4 [256]
00000000: 0172 0aaa cb31 6a2d 186c 6b2d 7e22 3139
00000010: f475 8b3b ff11 0db1 fac8 0139 0603 652c
00000020: 9876 2bad 697e f23a daaf a72d 6587 f239
00000030: 9a7e e5af 0acd a431 f0c2 b92c 2eca 8a3b
00000040: ce09 1c27 233b 243a 93d4 d728 7cfa 0626
00000050: 4779 0fb3 3a68 b439 e17e f429 b59a 8f32
00000060: 385b e130 1ecf 503a d348 073b a2bf c03b
00000070: 1458 5a3c 356c e6a9 5b28 0529 e8f4 6dac
00000080: 2fc9 0329 9c61 29b1 5a22 fa3a ecde d42d
00000090: e64d 1dab b5a1 45af e0b7 91a9 70f6 23b1
000000a0: a7cc c32d 864c 0929 1048 86b3 3a98 a43b
000000b0: 04c3 412e 121c f53a 6a59 df3a 9165 19b0
000000c0: ae3b 7baa be52 7529 dd1b 0aaa 818f 45b1
000000d0: 30f6 c928 97e9 4f2c bb2b 5c3b 309b 7b2d
000000e0: 9761 7139 40c7 9eaa 909b 6129 0b62 b33e
000000f0: 481a 973a 9939 27b2 f09a 8031 aef4 912d
00000100: 1b7f 18aa a806 c22d 54f4 3f2d 1cfc b538
00000110: 0c91 373b b614 2ab1 5553 5e38 4e6e 362c
00000120: ee5c 5fad 4569 a93a 1ab4 8a2d fd32 b639
00000130: 1047 93b0 ca58 7631 561d 9e2c 81cf 363b
00000140: e86c 17a5 75e0 f639 a286 8727 7651 0d26
00000150: f7b7 11b3 df4e 8339 8c8f a329 aa0a 6932
00000160: f29b d630 4c0a 1b3a 477f bb3a f0ae 763b
00000170: 8875 ee3b 9213 bda9 6c1a 7ba8 ba22 94ab
00000180: 9281 90a7 ce92 91b1 ba58 ae3a afc7 d62d
00000190: 5004 0aab 77be c9af b8ff 6ba9 1418 e7b0
000001a0: f819 a22d b44e 0ca8 ca23 9fb3 f0c2 553b
000001b0: 4819 1e2e f619 ab3a 23ff 9c3a d404 71b0
000001c0: 50db 98a8 6ce7 38a7 9456 f6a8 bdf1 8eb1
000001d0: e0e5 1126 f3b4 292c 1468 133b 7969 962e
000001e0: 115a 1b39 2456 9e2a 1022 8da7 6172 24be
000001f0: c6b2 5a3a 8ab2 3bb2 4824 4231 24f1 742d
00000200: 35d9 5d33 fb00 91b5 32fb 3ab5 6bca c73b
00000210: 6dc2 0fbd 024b 0837 fc47 ab3b e5a1 b434
00000220: e4ac 50b5 cadb c4bc 4a47 51b5 a4d2 3bbc
00000230: c36c b4b6 8ff8 aa37 a4f6 ce34 9b7b 0f3d
00000240: e569 e231 496b 60bc 3a6d 03b3 96d2 7031
00000250: cacf 7bb7 0654 1cbc 62d3 7733 9c2f c137
00000260: b60d 9e37 3b3c 80bc d664 cf3c cb5d 24bd
00000270: 34b1 59bd 3022 0cb3 2f5c 5b33 a8e8 1bb4
00000280: 1514 35b3 1edb c2b7 8bcd c73c 861e d2b5
00000290: 4906 e533 fed8 7eb6 fe5c dab2 b954 6436
000002a0: 6cb9 6135 a4e7 0a33 3522 89b7 a825 1abd
000002b0: 005b a1b5 2cde c53c e835 bdbc 09ab a736
000002c0: 39da a1b3 43ea 5a33 3188 81b3 9ec2 28b7
000002d0: f135 10b3 b8a8 a634 79ab 013d 0001 2036
000002e0: f591 f13b abcd 51b4 f1fe 3eb3 d861 163e
000002f0: 47ca 9bbc 82a7 6a37 1a26 42b7 9400 35b5
00000300: 1a72 0aaa 2629 6a2d fe6b 6b2d 0741 3139
00000310: 694e 8f3b 9d14 0db1 8ddd 0139 cb03 652c
00000320: ee78 2bad f289 f53a b6af a72d ca20 f339
00000330: 207d e5af cecb a431 dbc2 b92c b09a 8e3b
00000340: 311b 1c27 27d6 243a 11e2 d728 84f8 0626
00000350: 9179 0fb3 98b3 b439 7e84 f429 b79a 8f32
00000360: 0845 e130 a3d8 513a 032e 093b 7ece c73b
00000370: 592c 693c d46c e6a9 7e3f 0529 5ef7 6dac
00000380: d0d7 0329 d455 29b1 f45f fd3a 5cdf d42d
00000390: dc4e 1dab 78a2 45af 66b8 91a9 b4fa 23b1
000003a0: 7ecc c32d b95e 0929 0b48 86b3 40d9 a93b
000003b0: f9c2 412e 7538 f83a baed e13a df66 19b0
000003c0: 1440 7baa 206d 7529 ee1c 0aaa 7990 45b1
000003d0: d205 ca28 8be9 4f2c 4113 613b e88f 7b2d
000003e0: fe99 7139 6acb 9eaa 0cb5 6129 14a4 ba3e
000003f0: de40 983a 083a 27b2 8c9a 8031 abf4 912d
-1.2296415e-13 1.3312416e-11 1.3382205e-11 0.00016892885 0.0042560045 -2.052843e-09 0.00012377268 3.2544536e-12
-9.746558e-12 0.0018500808 1.9063796e-11 0.00046258714 -4.1744813e-10 4.7963384e-09 5.2796587e-12 0.0042355275
2.1654664e-15 0.00062649156 2.3961984e-14 4.683006e-16 -3.3405083e-08 0.0003440993 1.0857787e-13 1.6717744e-08
1.6396831e-09 0.0007965433 0.0020642772 0.0058822194 0.0133266635 -1.0232823e-13 2.9566935e-14 -3.3815676e-12
2.9262342e-14 -2.4648221e-09 0.0019083724 2.4200607e-11 -5.588571e-13 -1.7974496e-10 -6.471191e-14 -2.3859705e-09
2.2259817e-11 3.0486484e-14 -6.252969e-08 0.0050230296 4.4056328e-11 0.0018700382 0.0017040197 -5.580541e-10
-2.2313984e-13 5.4472696e-14 -1.2266529e-13 -2.8748846e-09 2.242225e-14 2.9546138e-12 0.0033595401 1.4302157e-11
0.00023019906 -2.8204696e-13 5.0094965e-14 0.35035738 0.0011528218 -9.733776e-09 3.7429047e-09 1.6593251e-11
-1.354441e-13 2.2058202e-11 1.0911345e-11 8.6777116e-05 0.0028010039 -2.4750029e-09 5.3006534e-05 2.5924987e-12
-1.2696717e-11 0.001292505 1.5768765e-11 0.00034751734 -1.0715855e-09 3.5848182e-09 4.493887e-12 0.0027894678
-1.3134061e-16 0.0004708801 3.7615996e-15 4.90296e-16 -3.392776e-08 0.0002504503 7.2635555e-14 1.356481e-08
1.5614872e-09 0.0005914315 0.0014304899 0.0037640892 0.0072771944 -8.396681e-14 -1.3939028e-14 -1.0525671e-12
-4.010851e-15 -4.236745e-09 0.0013301589 2.441766e-11 -4.9033434e-13 -3.669702e-10 -5.2402283e-14 -1.6814306e-09
1.84288e-11 -7.788627e-15 -7.4105245e-08 0.0032617413 3.5947495e-11 0.0013054002 0.0011977892 -8.768215e-10
-1.6970502e-14 -2.5660584e-15 -2.7349034e-14 -4.1602264e-09 5.061852e-16 2.4116791e-12 0.0022492455 6.839946e-11
0.00014815504 2.812621e-13 -3.9172292e-15 -0.16059257 0.00083426794 -1.0925428e-08 2.825134e-09 1.3923338e-11
5.165312e-08 -1.0803627e-06 -6.9655937e-07 0.006097128 -0.03509753 8.123696e-06 0.005227087 3.3645406e-07
-7.773763e-07 -0.024030585 -7.7962306e-07 -0.011463795 -5.3770796e-06 2.0381323e-05 3.8549945e-07 0.03502999
6.5895045e-09 -0.013697454 -3.0600155e-08 3.50443e-09 -1.50091455e-05 -0.009541517 5.770142e-08 2.3029563e-05
1.8841452e-05 -0.01565372 0.025316637 -0.04012851 -0.05314751 -3.2627383e-08 5.107375e-08 -1.452014e-07
-4.216061e-08 -2.3228637e-05 0.024390003 -1.5655103e-06 1.0664787e-07 -3.7975256e-06 -2.5420828e-08 3.4023963e-06
8.4088856e-07 3.2341305e-08 -1.6347602e-05 -0.037633568 -1.2021919e-06 0.024153791 -0.023096994 4.996899e-06
-7.536841e-08 5.097014e-08 -6.031804e-08 -1.0058893e-05 -3.3576672e-08 3.1042669e-07 0.03165767 2.384244e-06
0.0073721358 -1.9539463e-07 -4.446969e-08 0.14685762 -0.019017352 1.3986488e-05 -1.1572172e-05 -6.7428596e-07
-1.2296449e-13 1.3310497e-11 1.33821825e-11 0.0001690426 0.004373361 -2.0529918e-09 0.00012384933 3.2544963e-12
-9.747076e-12 0.0018733128 1.9063733e-11 0.00046373002 -4.1743764e-10 4.796198e-09 5.2796495e-12 0.0043519363
2.166409e-15 0.00062880147 2.3967836e-14 4.682739e-16 -3.3405346e-08 0.00034466083 1.08587605e-13 1.6717747e-08
1.6390524e-09 0.00080049987 0.0020931966 0.006097614 0.014231765 -1.02329305e-13 2.9587003e-14 -3.3817042e-12
2.927503e-14 -2.4641524e-09 0.0019330964 2.4200801e-11 -5.5887044e-13 -1.7974766e-10 -6.4712816e-14 -2.386213e-09
2.2259746e-11 3.050227e-14 -6.252966e-08 0.005183369 4.405629e-11 0.0018937724 0.0017236986 -5.5807264e-10
-2.231551e-13 5.449558e-14 -1.2266899e-13 -2.8749396e-09 2.242903e-14 2.9546112e-12 0.0034343752 1.4299652e-11
0.00023040918 -2.8207585e-13 5.011707e-14 0.36453307 0.0011616012 -9.733874e-09 3.7428602e-09 1.6593246e-11

feature.0.bias_hh_l0 f4 [256]
00000000: 0172 0aaa cb31 6a2d 186c 6b2d 7e22 3139
00000010: f475 8b3b ff11 0db1 fac8 0139 0603 652c
00000020: 9876 2bad 697e f23a daaf a72d 6587 f239
00000030: 9a7e e5af 0acd a431 f0c2 b92c 2eca 8a3b
00000040: ce09 1c27 233b 243a 93d4 d728 7cfa 0626
00000050: 4779 0fb3 3a68 b439 e17e f429 b59a 8f32
00000060: 385b e130 1ecf 503a d348 073b a2bf c03b
00000070: 1458 5a3c 356c e6a9 5b28 0529 e8f4 6dac
00000080: 2fc9 0329 9c61 29b1 5a22 fa3a ecde d42d
00000090: e64d 1dab b5a1 45af e0b7 91a9 70f6 23b1
000000a0: a7cc c32d 864c 0929 1048 86b3 3a98 a43b
000000b0: 04c3 412e 121c f53a 6a59 df3a 9165 19b0
000000c0: ae3b 7baa be52 7529 dd1b 0aaa 818f 45b1
000000d0: 30f6 c928 97e9 4f2c bb2b 5c3b 309b 7b2d
000000e0: 9761 7139 40c7 9eaa 909b 6129 0b62 b33e
000000f0: 481a 973a 9939 27b2 f09a 8031 aef4 912d
00000100: 1b7f 18aa a806 c22d 54f4 3f2d 1cfc b538
00000110: 0c91 373b b614 2ab1 5553 5e38 4e6e 362c
00000120: ee5c 5fad 4569 a93a 1ab4 8a2d fd32 b639
00000130: 1047 93b0 ca58 7631 561d 9e2c 81cf 363b
00000140: e86c 17a5 75e0 f639 a286 8727 7651 0d26
00000150: f7b7 11b3 df4e 8339 8c8f a329 aa0a 6932
00000160: f29b d630 4c0a 1b3a 477f bb3a f0ae 763b
00000170: 8875 ee3b 9213 bda9 6c1a 7ba8 ba22 94ab
00000180: 9281 90a7 ce92 91b1 ba58 ae3a afc7 d62d
00000190: 5004 0aab 77be c9af b8ff 6ba9 1418 e7b0
000001a0: f819 a22d b44e 0ca8 ca23 9fb3 f0c2 553b
000001b0: 4819 1e2e f619 ab3a 23ff 9c3a d404 71b0
000001c0: 50db 98a8 6ce7 38a7 9456 f6a8 bdf1 8eb1
000001d0: e0e5 1126 f3b4 292c 1468 133b 7969 962e
000001e0: 115a 1b39 2456 9e2a 1022 8da7 6172 24be
000001f0: c6b2 5a3a 8ab2 3bb2 4824 4231 24f1 742d
00000200: 35d9 5d33 fb00 91b5 32fb 3ab5 6bca c73b
00000210: 6dc2 0fbd 024b 0837 fc47 ab3b e5a1 b434
00000220: e4ac 50b5 cadb c4bc 4a47 51b5 a4d2 3bbc
00000230: c36c b4b6 8ff8 aa37 a4f6 ce34 9b7b 0f3d
00000240: e569 e231 496b 60bc 3a6d 03b3 96d2 7031
00000250: cacf 7bb7 0654 1cbc 62d3 7733 9c2f c137
00000260: b60d 9e37 3b3c 80bc d664 cf3c cb5d 24bd
00000270: 34b1 59bd 3022 0cb3 2f5c 5b33 a8e8 1bb4
00000280: 1514 35b3 1edb c2b7 8bcd c73c 861e d2b5
00000290: 4906 e533 fed8 7eb6 fe5c dab2 b954 6436
000002a0: 6cb9 6135 a4e7 0a33 3522 89b7 a825 1abd
000002b0: 005b a1b5 2cde c53c e835 bdbc 09ab a736
000002c0: 39da a1b3 43ea 5a33 3188 81b3 9ec2 28b7
000002d0: f135 10b3 b8a8 a634 79ab 013d 0001 2036
000002e0: f591 f13b abcd 51b4 f1fe 3eb3 d885 0a3e
000002f0: 47ca 9bbc 82a7 6a37 1a26 42b7 9400 35b5
00000300: 1a72 0aaa 2629 6a2d fe6b 6b2d 0741 3139
00000310: 694e 8f3b 9d14 0db1 8ddd 0139 cb03 652c
00000320: ee78 2bad f289 f53a b6af a72d ca20 f339
00000330: 207d e5af cecb a431 dbc2 b92c b09a 8e3b
00000340: 311b 1c27 27d6 243a 11e2 d728 84f8 0626
00000350: 9179 0fb3 98b3 b439 7e84 f429 b79a 8f32
00000360: 0845 e130 a3d8 513a 032e 093b 7ece c73b
00000370: 592c 693c d46c e6a9 7e3f 0529 5ef7 6dac
00000380: d0d7 0329 d455 29b1 f45f fd3a 5cdf d42d
00000390: dc4e 1dab 78a2 45af 66b8 91a9 b4fa 23b1
000003a0: 7ecc c32d b95e 0929 0b48 86b3 40d9 a93b
000003b0: f9c2 412e 7538 f83a baed e13a df66 19b0
000003c0: 1440 7baa 206d 7529 ee1c 0aaa 7990 45b1
000003d0: d205 ca28 8be9 4f2c 4113 613b e88f 7b2d
000003e0: fe99 7139 6acb 9eaa 0cb5 6129 14a4 ba3e
000003f0: de40 983a 083a 27b2 8c9a 8031 abf4 912d
-1.2296415e-13 1.3312416e-11 1.3382205e-11 0.00016892885 0.0042560045 -2.052843e-09 0.00012377268 3.2544536e-12
-9.746558e-12 0.0018500808 1.9063796e-11 0.00046258714 -4.1744813e-10 4.7963384e-09 5.2796587e-12 0.0042355275
2.1654664e-15 0.00062649156 2.3961984e-14 4.683006e-16 -3.3405083e-08 0.0003440993 1.0857787e-13 1.6717744e-08
1.6396831e-09 0.0007965433 0.0020642772 0.0058822194 0.0133266635 -1.0232823e-13 2.9566935e-14 -3.3815676e-12
2.9262342e-14 -2.4648221e-09 0.0019083724 2.4200607e-11 -5.588571e-13 -1.7974496e-10 -6.471191e-14 -2.3859705e-09
2.2259817e-11 3.0486484e-14 -6.252969e-08 0.0050230296 4.4056328e-11 0.0018700382 0.0017040197 -5.580541e-10
-2.2313984e-13 5.4472696e-14 -1.2266529e-13 -2.8748846e-09 2.242225e-14 2.9546138e-12 0.0033595401 1.4302157e-11
0.00023019906 -2.8204696e-13 5.0094965e-14 0.35035738 0.0011528218 -9.733776e-09 3.7429047e-09 1.6593251e-11
-1.354441e-13 2.2058202e-11 1.0911345e-11 8.6777116e-05 0.0028010039 -2.4750029e-09 5.3006534e-05 2.5924987e-12
-1.2696717e-11 0.001292505 1.5768765e-11 0.00034751734 -1.0715855e-09 3.5848182e-09 4.493887e-12 0.0027894678
-1.3134061e-16 0.0004708801 3.7615996e-15 4.90296e-16 -3.392776e-08 0.0002504503 7.2635555e-14 1.356481e-08
1.5614872e-09 0.0005914315 0.0014304899 0.0037640892 0.0072771944 -8.396681e-14 -1.3939028e-14 -1.0525671e-12
-4.010851e-15 -4.236745e-09 0.0013301589 2.441766e-11 -4.9033434e-13 -3.669702e-10 -5.2402283e-14 -1.6814306e-09
1.84288e-11 -7.788627e-15 -7.4105245e-08 0.0032617413 3.5947495e-11 0.0013054002 0.0011977892 -8.768215e-10
-1.6970502e-14 -2.5660584e-15 -2.7349034e-14 -4.1602264e-09 5.061852e-16 2.4116791e-12 0.0022492455 6.839946e-11
0.00014815504 2.812621e-13 -3.9172292e-15 -0.16059257 0.00083426794 -1.0925428e-08 2.825134e-09 1.3923338e-11
5.165312e-08 -1.0803627e-06 -6.9655937e-07 0.006097128 -0.03509753 8.123696e-06 0.005227087 3.3645406e-07
-7.773763e-07 -0.024030585 -7.7962306e-07 -0.011463795 -5.3770796e-06 2.0381323e-05 3.8549945e-07 0.03502999
6.5895045e-09 -0.013697454 -3.0600155e-08 3.50443e-09 -1.50091455e-05 -0.009541517 5.770142e-08 2.3029563e-05
1.8841452e-05 -0.01565372 0.025316637 -0.04012851 -0.05314751 -3.2627383e-08 5.107375e-08 -1.452014e-07
-4.216061e-08 -2.3228637e-05 0.024390003 -1.5655103e-06 1.0664787e-07 -3.7975256e-06 -2.5420828e-08 3.4023963e-06
8.4088856e-07 3.2341305e-08 -1.6347602e-05 -0.037633568 -1.2021919e-06 0.024153791 -0.023096994 4.996899e-06
-7.536841e-08 5.097014e-08 -6.031804e-08 -1.0058893e-05 -3.3576672e-08 3.1042669e-07 0.03165767 2.384244e-06
0.0073721358 -1.9539463e-07 -4.446969e-08 0.1352762 -0.019017352 1.3986488e-05 -1.1572172e-05 -6.7428596e-07
-1.2296449e-13 1.3310497e-11 1.33821825e-11 0.0001690426 0.004373361 -2.0529918e-09 0.00012384933 3.2544963e-12
-9.747076e-12 0.0018733128 1.9063733e-11 0.00046373002 -4.1743764e-10 4.796198e-09 5.2796495e-12 0.0043519363
2.166409e-15 0.00062880147 2.3967836e-14 4.682739e-16 -3.3405346e-08 0.00034466083 1.08587605e-13 1.6717747e-08
1.6390524e-09 0.00080049987 0.0020931966 0.006097614 0.014231765 -1.02329305e-13 2.9587003e-14 -3.3817042e-12
2.927503e-14 -2.4641524e-09 0.0019330964 2.4200801e-11 -5.5887044e-13 -1.7974766e-10 -6.4712816e-14 -2.386213e-09
2.2259746e-11 3.050227e-14 -6.252966e-08 0.005183369 4.405629e-11 0.0018937724 0.0017236986 -5.5807264e-10
-2.231551e-13 5.449558e-14 -1.2266899e-13 -2.8749396e-09 2.242903e-14 2.9546112e-12 0.0034343752 1.4299652e-11
0.00023040918 -2.8207585e-13 5.011707e-14 0.36453307 0.0011616012 -9.733874e-09 3.7428602e-09 1.6593246e-11

feature.2.weight_ih_l0 f4 [128, 64]
00000000: 5ae8 1622 0632 22a5 b56f 50a3 5427 932a
00000010: c526 bdab 8fa0 9025 603d 7d2a e7e8 d722
00000020: d652 e8a3 f817 87ab 7f88 64a3 3973 07ab
00000030: 6675 2ca5 6a1d e526 4cf7 f622 75cf bc2b
00000040: 8c98 f720 8672 20ab d0ba 0ba2 fb8f 3620
00000050: a079 afa4 9129 e3aa cc3e d321 fcf0 b925
00000060: 2aa4 ca26 5cf8 35ab a797 8d2b d3db d4ab
00000070: aaf0 0aac c681 e4a1 8a3a 8722 af94 05a4
00000080: 760c 52a2 981c dca6 7bea 882b 46f7 4aa5
00000090: 342c c522 e0f0 0da5 ea19 9ea1 f614 5e26
000000a0: e2b3 7723 bf62 2d22 408d 51a5 3720 c9ab
000000b0: 8082 a0a3 8bb8 872b 5055 82ab a288 3b25
000000c0: c2c4 d7a2 9ce5 7d22 7adf 8ba2 78a8 3fa5
000000d0: c61e 20a2 a130 a622 ddb9 ac2b 0a4b 7925
000000e0: 8b03 b12a 0a60 6fa3 3dac 60a2 242d bdac
000000f0: 8328 5aab 5476 8025 2a52 a5a6 d02f 74a3
00000100: b861 a8a2 fef5 6aa3 e0c3 53a2 1111 cd2a
00000110: b08b 10ac ecf2 ae24 f7dc af2a e4ea c221
00000120: 58b9 8623 ab29 c7ab f6a2 84a2 a70d 40ab
00000130: 4a46 0825 5b2e 27a6 8612 d221 4d40 102c
00000140: a424 cda0 cb0d 65ab 6c2e 8621 00ef 4f1e
00000150: 88e4 fe25 7418 20ab ed13 1421 9c4c 5124
00000160: e685 17a6 95ab 82ab 059a d12b 8972 25ac
00000170: 5a6a 62ac 05f6 a822 12c9 c8a1 a616 27a1
00000180: 07ee b021 1de7 1426 9814 ca2b b7d3 5ba3
00000190: a4c0 3ca3 74ca bb24 32af 8522 5dec baa6
000001a0: 56da 8e22 42c5 7ba1 402c 7425 a902 1bac
000001b0: befd 92a2 702a c82b 6c93 bfab 2072 4b23
000001c0: 0a05 2023 c09f b6a1 16f0 9822 9c56 9025
000001d0: c094 9521 4cb5 9d21 af7f 022c d400 1f24
000001e0: 4dc7 f72a b65e 8923 4763 9f21 fa94 6dac
000001f0: 1b4b 9eab c887 32a5 40dd 9526 5482 a8a1
00000200: a867 6b12 a48d b795 603c ef14 8bb6 061b
00000210: e11c 5d9c d865 ac15 dae7 e41a 6588 8194
00000220: 308e f093 2209 119c 8aba 0615 ee50 839b
00000230: 8032 2195 8e5e 9d17 7fe3 9f94 eb91 5c1c
00000240: a031 6512 999e 9e9b b660 1893 f0fc 8791
00000250: 00d8 e514 1c46 589b 95a8 6a93 3c7d 5997
00000260: dc18 9517 2bdb b69b 3887 191c d553 819c
00000270: ec3d bc9c 2c60 4392 b788 6a13 88ed 1695
00000280: 92f3 4393 7c4a e397 7866 131c 9c87 f795
00000290: 4c09 be12 800d 1995 72be 2a92 ac21 e095
000002a0: d5f4 1195 f31a 6713 687c 4116 b8c1 6f9c
000002b0: 9ef6 3c15 5cd9 111c 23eb 0a9c 1098 da14
000002c0: b813 bf93 28e9 8613 e02c ef93 d033 2595
000002d0: ce0c 1c93 7a2b 4494 8f9f 441c add1 8b16
000002e0: 52ab 241b eeea 8f94 be76 8593 14a9 ed1c
000002f0: 2c3b e19b 00de a412 bc30 0097 0e3d 0615
00000300: cc6d 99a1 b523 8d23 349c 74a2 796a 022a
00000310: 0afa 2dab cc1c bb24 2ee5 df29 2381 f821
00000320: d01b f3a0 a56e f6aa 7ebd 8ba2 f3ce 72aa
00000330: e027 26a2 4c98 f6a4 07b3 0d22 75a8 2d2b
00000340: d3e5 ef9f 105b 90aa 5a86 9f20 c70b bf1e
00000350: 6451 a6a4 6be0 4aaa 03c4 df20 87b8 c624
00000360: 8e3c eda4 fa37 a4aa 3c50 012b 9bff 43ab
00000370: e73a 7cab 1140 9421 75a0 f6a0 222d 1b21
00000380: d878 d720 8612 a524 afd9 f92a 5a63 9e23
00000390: 04c0 2da2 782a b2a2 f118 5b21 d616 f1a5
000003a0: e9f8 9622 d6c9 92a0 e0af 39a5 d924 39ab
000003b0: 75e3 bea2 be9b f72a 6282 edaa 9484 6824
000003c0: 86db 4722 0760 d0a0 6201 af21 d83d 88a3
000003d0: 71ae b720 cc65 c721 0e93 1e2b 0cbf 3ca2
000003e0: 735e 1d2a cf3f 9722 40de b420 ce4b 90ab
000003f0: f9cd c5aa 7c2c c624 9b5b 9f25 107c 4da2
2.0451797e-18 -1.4068209e-16 -1.12993575e-17 2.6139735e-13 -1.3440018e-12 2.5088817e-16 2.2492208e-13 5.852246e-18
-2.5188573e-17 -9.59898e-13 -1.2388809e-17 -4.812154e-13 -1.4958398e-16 1.589804e-15 6.694027e-18 1.3415784e-12
4.1944375e-19 -5.700235e-13 -1.893691e-18 1.5463639e-19 -7.610019e-17 -4.0352143e-13 1.4314538e-18 3.2255682e-16
1.4061062e-15 -6.4648785e-13 1.0060745e-12 -1.512452e-12 -1.9744575e-12 -1.5484232e-18 3.6653804e-18 -2.8965718e-17
-2.8466904e-18 -1.5273317e-15 9.728463e-13 -1.7604487e-16 5.344376e-18 -1.2311412e-16 -1.0713356e-18 7.705013e-16
1.34279885e-17 2.3498148e-18 -1.8175718e-16 -1.429085e-12 -1.7402504e-17 9.643548e-13 -9.260735e-13 1.6265957e-16
-5.8484192e-18 3.4409448e-18 -3.791264e-18 -1.6623689e-16 -2.1700335e-18 4.504588e-18 1.2272922e-12 2.1622731e-16
3.1443974e-13 -1.2976553e-17 -3.0448843e-18 -5.3767147e-12 -7.750538e-13 2.2284643e-16 -1.1471446e-15 -1.3237391e-17
-4.5639955e-18 -1.2737256e-17 -2.8699528e-18 3.6427157e-13 -2.0541173e-12 7.5872e-17 3.123957e-13 1.3208126e-18
1.4606805e-17 -1.4151366e-12 -3.5951213e-18 -6.823105e-13 1.1819934e-16 -5.800259e-16 1.4235057e-18 2.0499325e-12
-3.4752598e-19 -8.1376285e-13 9.092481e-19 1.1007913e-20 4.4216835e-16 -5.6877354e-13 5.017072e-19 4.538454e-17
-5.2570115e-16 -9.284679e-13 1.4893092e-12 -2.351149e-12 -3.2175569e-12 4.5796975e-18 -1.360575e-18 -5.6611776e-19
1.1989229e-18 5.166103e-16 1.4358679e-12 -1.1916846e-17 -1.0232294e-17 8.144129e-17 3.6235217e-18 -1.2970409e-15
3.872035e-18 -8.5303176e-19 2.1178619e-16 -2.2028301e-12 -3.984204e-18 1.4222633e-12 -1.3612284e-12 1.1028819e-17
8.6746844e-18 -1.2375085e-18 4.1453883e-18 2.5038707e-16 1.0136007e-18 1.0686723e-18 1.854499e-12 3.447833e-17
4.4014307e-13 1.4893681e-17 1.0800538e-18 -3.3762424e-12 -1.1247421e-12 -1.5485043e-16 1.0398922e-15 -1.141862e-18
7.428069e-28 -7.413658e-26 2.4156647e-26 1.1143203e-22 -7.316009e-22 6.963093e-26 9.4673166e-23 -1.307947e-26
-6.0724725e-27 -4.798828e-22 2.7208238e-26 -2.1724432e-22 -3.255353e-26 1.0169756e-24 -1.6144629e-26 7.298049e-22
7.2320826e-28 -2.6241399e-22 -1.923278e-27 -2.145513e-28 2.3208288e-26 -1.7889755e-22 -2.961807e-27 -7.027455e-25
9.635175e-25 -3.0251008e-22 5.079822e-22 -8.558174e-22 -1.2456803e-21 -6.164969e-28 2.9602358e-27 -3.0479638e-26
-2.473255e-27 -1.4688334e-24 4.877066e-22 -9.997646e-26 1.1992978e-27 -3.0908754e-26 -5.3877284e-28 -9.0526004e-26
-2.9475655e-26 2.9169586e-27 1.5629672e-25 -7.932884e-22 3.8160844e-26 4.8257406e-22 -4.5964277e-22 2.2072353e-26
-4.8234623e-27 3.4056265e-27 -6.0376332e-27 -3.3362357e-26 -1.9696281e-27 -9.9040454e-27 6.5057185e-22 2.2588985e-25
1.3621119e-22 -1.4531973e-26 -3.369101e-27 1.572705e-21 -3.7261366e-22 1.0404582e-27 -4.142054e-25 2.7109248e-26
-1.0396746e-18 1.5302373e-17 -3.315086e-18 1.158326e-13 -6.1808946e-13 8.1147106e-17 9.942946e-14 1.6839316e-18
-4.1184206e-19 -4.3775153e-13 -3.787666e-18 -2.1565718e-13 -2.2518305e-18 -1.06943495e-16 1.920384e-18 6.169573e-13
-1.0160065e-19 -2.5642726e-13 2.7024554e-19 2.0227783e-20 -7.2128905e-17 -1.8019065e-13 3.790738e-19 8.6181414e-17
-1.0288495e-16 -2.9171094e-13 4.5941354e-13 -6.963264e-13 -8.961013e-13 1.0045828e-18 -4.1780203e-19 5.2575776e-19
3.6502384e-19 7.158872e-17 4.4382334e-13 1.7172471e-17 -2.3547524e-18 -4.8291962e-18 7.4233096e-19 -4.182231e-16
4.0921125e-18 -2.4866926e-19 -1.6105781e-16 -6.577634e-13 -5.1740433e-18 4.3984082e-13 -4.2190128e-13 5.041928e-17
2.7085744e-18 -3.5300116e-19 1.1858827e-18 -1.4771341e-17 3.1116842e-19 1.351171e-18 5.6336955e-13 -2.557989e-18
1.397717e-13 4.099619e-18 3.064026e-19 -1.0252855e-12 -3.5137152e-13 8.594417e-17 2.7644178e-16 -2.7848359e-18

feature.2.weight_hh_l0 f4 [128, 32]
00000000: 21ea 1b24 2a31 d123 34e0 9a1b 5aac 7da3
00000010: e294 e9a3 fa24 c323 605a ca1f a0bc 9122
00000020: 734f 6297 d078 7c2c 47ab 7926 0197 5215
00000030: 2dbe 219f 14e0 869e 201d 4122 e1df b5a5
00000040: 19ca 1a94 b647 8f99 9716 f119 9e0e 6a9b
00000050: dc4d b894 2453 c2a1 6367 8498 1057 ab99
00000060: 45eb 2314 0c91 9497 d86e f79e 30ab b399
00000070: ea6e 09a4 9bbd 7a24 78f9 899f 54e3 579c
00000080: 6e06 bc23 781e 84a3 f94d e91b ec7a 0923
00000090: 20d3 d721 504a 7ca3 4374 8321 af0d a9a4
000000a0: 8130 a597 e2c2 7e2c f2db fa26 4e0c 3495
000000b0: de9f 3c1e 64ff 1c1f fece 08a3 0b36 60a5
000000c0: 2371 b193 4a1f 229a fab8 071a 3a47 7c9b
000000d0: b64b 0715 4e79 33a2 a68d e998 e5db 059b
000000e0: fa5a ba13 f23b d897 58ee b01f 4fba a298
000000f0: 888b 27a4 1211 2a23 a80d f5a0 5a40 6d9c
00000100: 3610 5f94 2149 af94 6a79 9b0d aae2 5314
00000110: eba6 9114 d631 a994 0481 5811 14b3 6e95
00000120: 3ac8 f807 fa95 469d 1b00 0e98 2042 be87
00000130: 6bee d711 30f4 ab0f 7edf 9993 0c96 dd15
00000140: 16b9 2a04 c5fd b58b 2641 100a 17da 1d0c
00000150: ba54 8007 5cb2 be12 1e20 f48b 3142 c98c
00000160: 7111 5b84 005b 2808 0e93 1910 a7a7 c409
00000170: 03e8 b013 d2aa aa94 cd8a a390 f84c fc0a
00000180: e23a a322 7c87 dba2 4f5f be1a e4ff 5722
00000190: 1019 f421 0ad2 dda2 742d 5220 e0ca cba3
000001a0: 7686 d396 837c a22b 5a27 e325 d0cb 0395
000001b0: eed5 681e 9146 6b1e 80b2 cd1f 24c8 bca4
000001c0: 0a47 4293 0ae8 5699 59b3 0919 9a10 7c9a
000001d0: c8ec 9114 3605 75a1 800d c097 b8e4 269a
000001e0: cc0b 5913 f385 0a97 6dca c51e 3339 c017
000001f0: caed 42a2 06df d7a2 0ee2 a99f b8e7 639b
00000200: 84bf a023 283a 42a3 b684 891b 3451 b922
00000210: 8095 eb20 1c4c 3ca3 220e 4d21 224a 8fa4
00000220: 9552 9f97 dc7f 3c2c ac74 c226 9f25 0915
00000230: ea34 2d9f a2af d41e 9cd9 d9a2 2478 85a5
00000240: eae8 dd93 5341 b699 01a9 031a 949b 8b9b
00000250: b0d3 4694 d479 25a2 00a6 fd17 64af 659a
00000260: 05cb e813 98f1 cf97 626e 6b1f 3b34 1799
00000270: 8e56 20a4 f582 ba23 c220 bfa0 5c99 719c
00000280: 15f1 ca23 728a 12a3 8aca ee1b ec14 9622
00000290: 70ec 5da2 3253 08a3 ee14 5e21 8c7a 80a4
000002a0: 5eb3 8e97 bc1b 572c f666 e426 e4aa 5a95
000002b0: dd2a ba1e 0ca0 f41e 289d dca2 df9b 50a5
000002c0: 109c a093 e6f4 1f9a 903d f519 762a 579b
000002d0: 1617 1c15 d670 19a2 0714 1f99 1cd1 049b
000002e0: ba9d a813 5720 bb97 6b5c 8e1f 3739 c898
000002f0: 3655 15a4 6cd1 6b23 40e5 d0a0 397e 529c
00000300: 0b7f 029f 9621 0d9f 98e9 2515 2ea6 851e
00000310: d6b4 1d1f 5e25 f59e 263c e01c 886a 341f
00000320: 7e0e ec91 9e38 9da7 e482 0322 8c1a 6111
00000330: 00ea 4619 ac86 f419 485f 439f f089 209e
00000340: 0066 400a 03db ff14 e938 3314 1b52 2a96
00000350: 4024 5a90 922a 6d9c 5e67 3095 889b 7195
00000360: c0d6 ad8b ee2c 1292 0acc 021b 3de4 6213
00000370: 547a 7e9d 6d87 d09d 4734 5d9c ec85 f196
00000380: 521a 9b25 8216 1326 6c04 5a1e 183f a8a5
00000390: 7b91 c4a5 d0df 1526 8e6c 0b23 4076 3427
000003a0: 0eed 0519 4c9a fdad 6ce0 de28 2696 1298
000003b0: 1858 4122 d547 cea0 d6c4 b9a5 8ab4 0aa6
000003c0: 6d86 f314 b6d6 139c 0073 9097 1961 231d
000003d0: ce86 e617 4650 9c23 24ad 7f9c 242a 579d
000003e0: 19c4 0195 f973 2919 c0ee e51f 9418 1b9b
000003f0: 5ecc a425 7762 0526 2f85 a9a2 8684 291d
3.3808582e-17 2.2680647e-17 2.562205e-22 -1.3751654e-17 -2.5324965e-17 2.1157603e-17 8.569984e-20 3.9502043e-18
-7.3124817e-25 3.5878418e-12 8.6621353e-16 4.2528283e-26 -3.4250386e-20 -1.4280478e-20 2.6171796e-18 -3.15502e-16
-7.81487e-27 -1.4814817e-23 2.492794e-23 -1.936075e-22 -1.8609962e-26 -1.3167958e-18 -3.4225594e-24 -1.771615e-23
8.275796e-27 -9.600891e-25 -2.6197986e-20 -1.8577308e-23 -2.9801087e-17 5.437071e-17 -5.843447e-20 -7.1431347e-22
2.0385724e-17 -1.4324373e-17 3.8597005e-22 7.452815e-18 1.4624851e-18 -1.3676684e-17 8.90768e-19 -7.331525e-17
-1.0675119e-24 3.6203753e-12 1.7406851e-15 -3.6360417e-26 9.985697e-21 3.324554e-20 -7.416407e-18 -1.9447213e-16
-4.4792643e-27 -3.352609e-23 2.806677e-23 -2.0867966e-22 2.7322758e-26 -2.4323242e-18 -6.0372117e-24 -1.1072554e-22
4.704271e-27 -1.3973805e-24 7.4933206e-20 -4.2064142e-24 -3.633054e-17 9.219333e-18 -4.1513651e-19 -7.8499895e-22
-1.126182e-26 -1.7699329e-26 9.581842e-31 1.0697479e-26 1.4707096e-26 -1.7084296e-26 1.7079152e-28 -4.8204985e-26
3.7432575e-34 -2.6282618e-21 -1.8353123e-24 -2.8626887e-34 3.4067955e-28 1.695596e-29 -3.884301e-27 8.949792e-26
2.0068391e-36 -7.0100494e-32 6.945601e-33 1.2160469e-31 1.9309097e-34 1.2034655e-27 -9.4033706e-32 -3.100879e-31
-2.5751335e-36 5.066263e-34 3.0287216e-29 4.7342943e-33 4.4657427e-27 -1.723299e-26 -6.450602e-29 2.429567e-32
4.4243583e-18 -5.950352e-18 7.873614e-23 2.92734e-18 1.6540717e-18 -6.0124558e-18 1.7802731e-19 -2.2095225e-17
-3.4173745e-25 1.1545351e-12 3.9404889e-16 -2.661602e-26 1.2326217e-20 1.2455389e-20 8.711618e-20 -8.1871055e-17
-2.4521267e-27 -1.1110401e-23 7.118953e-24 -5.212579e-23 1.4734652e-26 -8.3016125e-19 -1.2411117e-24 -3.4512753e-23
2.7395067e-27 -4.4759273e-25 2.0941908e-20 1.2422148e-24 -2.6417787e-18 -5.8512e-18 -7.194826e-20 -1.8851872e-22
1.7428345e-17 -1.0529076e-17 2.275051e-22 5.0230328e-18 3.990948e-19 -1.0207617e-17 6.9475406e-19 -6.214195e-17
-1.0295981e-24 2.6787383e-12 1.3493078e-15 2.7696607e-26 -3.6677944e-20 2.2519013e-20 -5.904837e-18 -2.3153233e-16
-5.6017914e-27 -1.8844743e-23 2.7226685e-23 -2.309616e-22 -1.00381934e-26 -2.2426165e-18 1.6391646e-24 -4.749777e-23
5.8765226e-27 -1.3438048e-24 4.9854492e-20 -7.817065e-24 -3.4767784e-17 2.0221623e-17 -3.2378336e-19 -7.9938423e-22
2.2002986e-17 -7.943993e-18 3.9504685e-22 4.0679733e-18 -3.0076254e-18 -7.390192e-18 7.5244226e-19 -5.5718754e-17
-9.221814e-25 3.0568733e-12 1.5848586e-15 -4.4159558e-26 1.9711244e-20 2.5900699e-20 -5.9797515e-18 -1.8093935e-16
-4.0543568e-27 -3.3078257e-23 2.5357271e-23 -1.7798103e-22 3.152216e-26 -2.0795101e-18 -8.224152e-24 -1.0986351e-22
4.2564693e-27 -1.2092755e-24 6.029223e-20 -5.175656e-24 -3.23814e-17 1.2783722e-17 -3.5388276e-19 -6.964631e-22
-2.7633658e-20 -2.9885693e-20 3.3505758e-26 1.4150653e-20 3.3395627e-20 -2.5955839e-20 1.4838625e-21 3.8204603e-20
-3.7243166e-28 -4.363764e-15 1.7823103e-18 1.7757551e-28 1.0283616e-23 2.5283402e-23 -4.137167e-20 -8.498854e-21
9.263648e-33 2.5834805e-26 9.048414e-27 -1.3758399e-25 -4.3020845e-29 -7.8471743e-22 -3.562446e-26 -4.8792255e-26
-6.6960296e-32 -4.6124857e-28 1.0819277e-22 2.863774e-27 -3.3679862e-21 -5.519717e-21 -7.3190333e-22 -3.9020167e-25
2.690605e-16 5.1031374e-16 1.1541738e-20 -2.9186108e-16 -3.4099162e-16 5.199808e-16 7.5581924e-18 2.5044122e-15
6.923812e-24 -2.8831292e-11 2.4744279e-14 -1.8945863e-24 2.6203014e-18 -3.4945292e-19 -3.2225766e-16 -4.8123044e-16
2.4589751e-26 -4.8915727e-22 -9.334812e-25 2.1623069e-21 1.4897431e-24 1.6947551e-17 -8.45962e-22 -2.84768e-21
-2.6206036e-26 8.760516e-24 9.738025e-20 -1.2829241e-22 2.858795e-16 4.627709e-16 -4.5948555e-18 2.2435477e-21

feature.2.bias_ih_l0 f4 [128]
00000000: 863d 122d 6063 8fad feea bf1e ef9a 0a2d
00000010: f605 eeac e73e 97ad 5ecc 31a8 1d29 a0af
00000020: 6322 c714 7bf0 003f 418f 6fb3 4081 5b13
00000030: a250 9e27 8cbd e0a2 66c5 2dac 5406 0530
00000040: 248d c00c 52c0 351b 7491 ad17 5268 0f1b
00000050: ac22 fa12 afee 702a e2c5 c31b 2112 e01d
00000060: 4bac c90c 3750 2614 d0dd 5622 984e d196
00000070: 3601 252b 539d 43ad b904 9b25 9b9d 8b9c
00000080: d2bd faac b623 68ad 0f2a 8c1e caeb b22c
00000090: 9851 4cad 18ec 4bad 11ff d5a8 bda8 94af
000000a0: 7685 ad14 6b39 38be 1c9a 23b3 16ca 2813
000000b0: 93b5 6127 8eeb 6da2 010a 10ad 67e8 dd2f
000000c0: fe56 d00c 0b92 091b 7061 0217 59b6 681b
000000d0: 855f b212 8238 3a2a 63fa 891b 3ba7 941d
000000e0: 545a ef0c a4db 9814 161b bea4 1710 0a97
000000f0: 3116 5aab b5a5 0dad 45e1 89a7 e01a 7b1a
00000100: bef4 3cb4 a564 26b5 9338 062c 163f f934
00000110: 6201 c134 7853 30b5 b03c edb1 7c6d 44b6
00000120: 24ea a6a8 ee25 85bd 3ae0 f8b6 a4e5 23a8
00000130: 8c0c 1532 18b6 4230 fbcb ce34 a423 f8b5
00000140: c4e6 5aa4 7f88 eaab 40ec 7da5 ea2d c12b
00000150: 1780 bf27 3f16 8cb3 381d 03ac b4b5 3dad
00000160: 5fca 8524 c0c9 e1a8 09f8 a02f be31 0a2a
00000170: 582e a9b2 ec06 0ab5 b10f b331 362d a32c
00000180: b73d 122d 3b63 8fad 00eb bf1e 079b 0a2d
00000190: df05 eeac e43e 97ad 23cc 31a8 1629 a0af
000001a0: 5c22 c714 cee4 053f 6a8f 6fb3 3581 5b13
000001b0: a450 9e27 82bd e0a2 eec5 2dac 3d06 0530
000001c0: 068d c00c 52c0 351b 6c91 ad17 0668 0f1b
000001d0: b922 fa12 acee 702a f0c5 c31b 3e12 e01d
000001e0: 0bac c90c f84e 2614 40e5 5622 424d d196
000001f0: 7900 252b 559d 43ad 5408 9b25 1c9e 8b9c
8.3128e-12 -1.630135e-11 2.0320102e-20 7.878794e-12 -6.7650286e-12 -1.7194647e-11 -9.869789e-15 -2.9133043e-10
2.0107428e-26 0.50366944 -5.5776813e-08 2.7705411e-27 4.394123e-15 -6.0916012e-18 -2.4694357e-12 4.839411e-10
2.966723e-31 1.5034111e-22 1.12165805e-24 1.186239e-22 1.5785765e-27 2.1399092e-13 3.2387923e-22 5.931105e-21
3.1072649e-31 8.396678e-27 2.9119835e-18 -3.381537e-25 5.8621456e-13 -1.11194e-11 2.6891414e-16 -9.238988e-22
-7.1265016e-12 -1.3195603e-11 1.4840472e-20 5.085242e-12 -1.1614175e-11 -1.1591637e-11 -2.3758368e-14 -2.704094e-10
1.7521177e-26 -0.17990653 -3.8091557e-08 2.1304217e-27 3.1323454e-15 -3.224419e-18 -8.187674e-12 4.0364798e-10
3.209983e-31 1.1379563e-22 4.212825e-25 1.924951e-22 1.1256927e-27 1.6539724e-13 2.2826557e-22 3.9348186e-21
3.6878145e-31 1.543471e-26 -8.244525e-17 -4.4610513e-25 -7.7479955e-13 -8.051716e-12 -3.8269376e-15 5.1927293e-23
-1.7597901e-07 -6.1986276e-07 1.907395e-12 4.6425765e-07 3.5950058e-07 -6.568657e-07 -6.904507e-09 -2.9270004e-06
-1.8531245e-14 -0.06501375 -7.4170794e-06 -9.098113e-15 8.675794e-09 7.083556e-10 3.8518905e-07 -1.8487813e-06
-4.746668e-17 -1.6664585e-12 -2.2024297e-16 1.3726219e-12 5.3152025e-15 -6.5233046e-08 -1.863244e-12 -1.0783752e-11
5.8022386e-17 -2.5067513e-14 2.928007e-10 1.227412e-13 -1.9695264e-08 -5.141908e-07 5.2113696e-09 4.637758e-12
8.312843e-12 -1.6301285e-11 2.0320105e-20 7.878815e-12 -6.7650187e-12 -1.7194642e-11 -9.869739e-15 -2.9133024e-10
2.0107417e-26 0.52302253 -5.5776958e-08 2.770539e-27 4.394124e-15 -6.091597e-18 -2.4694652e-12 4.8393983e-10
2.966716e-31 1.5034111e-22 1.1216573e-24 1.1862295e-22 1.5785778e-27 2.1399088e-13 3.2387958e-22 5.931117e-21
3.1072498e-31 8.396432e-27 2.9123772e-18 -3.3814528e-25 5.862043e-13 -1.1119401e-11 2.6893857e-16 -9.239119e-22

feature.2.bias_hh_l0 f4 [128]
00000000: 863d 122d 6063 8fad feea bf1e ef9a 0a2d
00000010: f605 eeac e73e 97ad 5ecc 31a8 1d29 a0af
00000020: 6322 c714 7bf0 003f 418f 6fb3 4081 5b13
00000030: a250 9e27 8cbd e0a2 66c5 2dac 5406 0530
00000040: 248d c00c 52c0 351b 7491 ad17 5268 0f1b
00000050: ac22 fa12 afee 702a e2c5 c31b 2112 e01d
00000060: 4bac c90c 3750 2614 d0dd 5622 984e d196
00000070: 3601 252b 539d 43ad b904 9b25 9b9d 8b9c
00000080: d2bd faac b623 68ad 0f2a 8c1e caeb b22c
00000090: 9851 4cad 18ec 4bad 11ff d5a8 bda8 94af
000000a0: 7685 ad14 6a39 38be 1c9a 23b3 16ca 2813
000000b0: 93b5 6127 8eeb 6da2 010a 10ad 67e8 dd2f
000000c0: fe56 d00c 0b92 091b 7061 0217 59b6 681b
000000d0: 855f b212 8238 3a2a 63fa 891b 3ba7 941d
000000e0: 545a ef0c a4db 9814 161b bea4 1710 0a97
000000f0: 3116 5aab b5a5 0dad 45e1 89a7 e01a 7b1a
00000100: bef4 3cb4 a564 26b5 9338 062c 163f f934
00000110: 6201 c134 7853 30b5 b03c edb1 7c6d 44b6
00000120: 24ea a6a8 292d 64bc 3ae0 f8b6 a4e5 23a8
00000130: 8c0c 1532 18b6 4230 fbcb ce34 a423 f8b5
00000140: c4e6 5aa4 7f88 eaab 40ec 7da5 ea2d c12b
00000150: 1780 bf27 3f16 8cb3 381d 03ac b4b5 3dad
00000160: 5fca 8524 c0c9 e1a8 09f8 a02f be31 0a2a
00000170: 582e a9b2 ec06 0ab5 b10f b331 362d a32c
00000180: b73d 122d 3b63 8fad 00eb bf1e 079b 0a2d
00000190: df05 eeac e43e 97ad 23cc 31a8 1629 a0af
000001a0: 5c22 c714 cee4 053f 6a8f 6fb3 3581 5b13
000001b0: a450 9e27 82bd e0a2 eec5 2dac 3d06 0530
000001c0: 068d c00c 52c0 351b 6c91 ad17 0668 0f1b
000001d0: b922 fa12 acee 702a f0c5 c31b 3e12 e01d
000001e0: 0bac c90c f84e 2614 40e5 5622 424d d196
000001f0: 7900 252b 559d 43ad 5408 9b25 1c9e 8b9c
8.3128e-12 -1.630135e-11 2.0320102e-20 7.878794e-12 -6.7650286e-12 -1.7194647e-11 -9.869789e-15 -2.9133043e-10
2.0107428e-26 0.50366944 -5.5776813e-08 2.7705411e-27 4.394123e-15 -6.0916012e-18 -2.4694357e-12 4.839411e-10
2.966723e-31 1.5034111e-22 1.12165805e-24 1.186239e-22 1.5785765e-27 2.1399092e-13 3.2387923e-22 5.931105e-21
3.1072649e-31 8.396678e-27 2.9119835e-18 -3.381537e-25 5.8621456e-13 -1.11194e-11 2.6891414e-16 -9.238988e-22
-7.1265016e-12 -1.3195603e-11 1.4840472e-20 5.085242e-12 -1.1614175e-11 -1.1591637e-11 -2.3758368e-14 -2.704094e-10
1.7521177e-26 -0.17990652 -3.8091557e-08 2.1304217e-27 3.1323454e-15 -3.224419e-18 -8.187674e-12 4.0364798e-10
3.209983e-31 1.1379563e-22 4.212825e-25 1.924951e-22 1.1256927e-27 1.6539724e-13 2.2826557e-22 3.9348186e-21
3.6878145e-31 1.543471e-26 -8.244525e-17 -4.4610513e-25 -7.7479955e-13 -8.051716e-12 -3.8269376e-15 5.1927293e-23
-1.7597901e-07 -6.1986276e-07 1.907395e-12 4.6425765e-07 3.5950058e-07 -6.568657e-07 -6.904507e-09 -2.9270004e-06
-1.8531245e-14 -0.013926783 -7.4170794e-06 -9.098113e-15 8.675794e-09 7.083556e-10 3.8518905e-07 -1.8487813e-06
-4.746668e-17 -1.6664585e-12 -2.2024297e-16 1.3726219e-12 5.3152025e-15 -6.5233046e-08 -1.863244e-12 -1.0783752e-11
5.8022386e-17 -2.5067513e-14 2.928007e-10 1.227412e-13 -1.9695264e-08 -5.141908e-07 5.2113696e-09 4.637758e-12
8.312843e-12 -1.6301285e-11 2.0320105e-20 7.878815e-12 -6.7650187e-12 -1.7194642e-11 -9.869739e-15 -2.9133024e-10
2.0107417e-26 0.52302253 -5.5776958e-08 2.770539e-27 4.394124e-15 -6.091597e-18 -2.4694652e-12 4.8393983e-10
2.966716e-31 1.5034111e-22 1.1216573e-24 1.1862295e-22 1.5785778e-27 2.1399088e-13 3.2387958e-22 5.931117e-21
3.1072498e-31 8.396432e-27 2.9123772e-18 -3.3814528e-25 5.862043e-13 -1.1119401e-11 2.6893857e-16 -9.239119e-22
