Code/LSTM/LSTMModelOutputs/best_model.pth (torch, 177762 bytes, 15 tensors)

feature.0.weight_ih_l0 f4 [256, 15]
-2.156008e-08 1.07760144e-07 8.269936e-09 4.294925e-08 1.8412859e-08 6.8196684e-08 6.777327e-09 2.1950697e-08
1.652225e-08 1.357229e-08 -2.0523569e-08 -4.629148e-08 -6.632604e-09 5.6780316e-08 6.879456e-39 1.28782975e-08
8.243337e-09 6.2860067e-10 -1.712765e-09 1.05703e-09 2.1550846e-09 2.2449318e-09 -1.8493967e-09 2.305431e-09
1.1638287e-08 -8.665707e-09 -2.2130571e-08 1.46199275e-08 1.9452493e-09 -2.867942e-39 -9.94895e-09 -1.7651077e-08
-3.8444498e-10 -1.592086e-08 1.5304651e-09 3.0931875e-09 -2.0889992e-09 -1.6516517e-09 -5.9834933e-09 -9.494072e-10
-4.722892e-09 -2.4976061e-09 -9.249561e-09 2.723079e-09 -4.795222e-39 0.0006372993 0.0009089524 -4.7888693e-06
0.0009707886 0.0010975832 0.000523146 0.00024294485 0.0006896652 0.0011138641 0.001008259 0.0012220776
0.0012468288 0.000613162 0.0005749614 1.95405e-39 0.00010777604 0.0001248606 -7.1563218e-06 0.00014862325
0.00010103974 9.777309e-05 1.4172583e-06 8.322345e-05 0.00014468098 7.5430755e-05 0.0001174112 9.323389e-05
0.00010279105 8.4815016e-05 -1.743624e-39 0.00060840504 0.0008713708 -3.2889125e-06 0.0009301741 0.0010516556
0.00049891375 0.00023032095 0.00066212355 0.0010643837 0.000966146 0.0011678084 0.0011918023 0.00058538996
0.0005483312 2.475034e-39 -1.8354559e-08 3.333365e-08 4.80187e-10 -3.472109e-08 -2.547072e-08 -1.5011732e-08
-1.0365236e-08 -2.2544873e-09 -5.2784976e-09 1.2730572e-08 7.025065e-09 -4.81049e-09 -1.3195675e-08 -1.4229958e-08
-4.526281e-39 -4.5903374e-08 -5.8547563e-08 8.804948e-10 -6.897908e-08 -1.4109643e-08 1.7516529e-08 1.9970969e-08
2.0108768e-08 4.9683116e-08 -2.9545912e-08 -4.1766288e-08 -1.3149201e-08 -4.444164e-08 3.6031267e-10 8.98071e-40
-5.107567e-09 3.7022843e-08 4.492825e-10 -3.2637665e-08 -3.1535663e-10 -1.1303319e-08 -1.4632997e-09 -4.82258e-09
-4.9949156e-09 2.2989468e-08 1.6838344e-09 -2.767294e-08 -3.254863e-10 -1.2048364e-08 -3.943178e-39 8.472747e-08
-1.2621847e-07 5.8903256e-09 -1.6868547e-07 -1.4318934e-07 5.3554427e-08 1.032189e-07 1.01707414e-07 4.1011546e-08
6.171069e-08 -3.5843826e-08 -1.8445925e-07 9.943231e-08 2.9421916e-08 6.43318e-40 -2.8917936e-08 2.816098e-08
6.666439e-10 -1.291672e-08 -2.032765e-09 -1.7239012e-08 -1.556776e-09 -1.1669542e-08 -5.9944583e-09 -9.345842e-09
1.803105e-08 3.332019e-09 -2.5623438e-08 -4.796658e-09 4.920983e-39 -4.2197026e-10 -3.846045e-09 2.6152372e-10
3.3831231e-09 7.761887e-09 -5.606072e-10 4.293671e-09 9.1553176e-10 1.6708028e-09 -2.714739e-10 7.393932e-10
-1.7378485e-09 -8.4800417e-10 1.0462547e-09 4.269954e-39 7.724037e-12 -8.625209e-11 -8.256786e-13 -1.3385133e-11
-1.2461275e-11 8.149072e-12 -2.1270721e-11 -1.1761345e-11 -2.5383782e-11 3.2858778e-11 1.4197723e-11 2.270787e-11
1.4347596e-11 -1.71098e-11 2.345489e-39 3.117881e-08 3.846121e-08 -1.01306186e-10 4.129405e-08 2.0986361e-08
1.51712e-08 4.409121e-08 4.894839e-08 6.584104e-08 7.2696416e-08 5.6037354e-08 1.1523056e-08 2.8283765e-08
2.0997146e-09 -3.845822e-39 0.00058175926 0.0008363243 -2.050681e-06 0.000892388 0.0010088339 0.00047641064
0.00021832279 0.00063676323 0.0010184804 0.00092685665 0.0011173944 0.0011405247 0.00055979285 0.0005235326
2.036171e-39 0.00019680843 0.00028379605 4.067402e-06 0.0002847324 0.00029198892 0.00011128133 9.172982e-06
0.00022202289 0.00033699622 0.00027254905 0.00033673234 0.0003141827 0.00019459624 0.00010369266 1.91874e-40
2.9847705e-10 2.0597501e-10 -3.037872e-12 2.732074e-10 2.3573668e-10 9.370337e-11 2.0612588e-10 1.9174555e-10
4.337953e-10 2.5400185e-10 4.79023e-10 4.2959342e-10 2.8742458e-10 7.507992e-11 -4.723619e-39 1.1660015e-10
00000000: 1e33 b9b2 c469 e733 9013 0e32 3377 3833
00000010: 4e2a 9e32 8673 9233 00de e831 188e bc32
00000020: d0ec 8d32 902b 6932 ce4b b0b2 05d2 46b3
00000030: 00e5 e3b1 9ede 7333 20e9 4a00 5a3f 5d32
00000040: 949e 0d32 d7c9 2c30 9066 ebb0 f046 9130
00000050: a618 1431 4245 1a31 dd2d feb0 926d 1e31
00000060: baf1 4732 2fe0 14b2 a419 beb2 1f2b 7b32
00000070: 30ad 0531 a83a 1f80 f2eb 2ab2 219f 97b2
00000080: d259 d3af 57c2 88b2 7458 d230 ee8f 5431
00000090: 108e 0fb1 5400 e3b0 5d97 cdb1 4c7c 82b0
000000a0: ff46 a2b1 5aa2 2bb1 00e8 1eb2 ea20 3b31
000000b0: 2137 3480 6f10 273a c346 6e3a 13b0 a0b6
000000c0: 857c 7e3a c8dc 8f3a bc23 093a 03bf 7e39
000000d0: a6ca 343a 14ff 913a 8f27 843a 1f2e a03a
000000e0: a26c a33a 9bbc 203a 02b9 163a 1947 1500
000000f0: d205 e238 03ed 0239 5620 f0b6 c0d7 1b39
00000100: 4ce5 d338 870b cd38 a038 be35 4088 ae38
00000110: 81b5 1739 9430 9e38 a83a f638 9086 c338
00000120: 8691 d738 b7de b138 84fc 1280 5f7d 1f3a
00000130: b46c 643a 16b7 5cb6 edd6 733a b5d7 893a
00000140: 89c9 023a 4f82 7139 5c92 2d3a ca82 8b3a
00000150: f644 7d3a 2611 993a 4036 9c3a db74 193a
00000160: e2bd 0f3a 63f3 1a00 1aaa 9db2 bc2a 0f33
00000170: 28fe 0330 3e20 15b3 b5ca dab2 26f3 80b2
00000180: ca12 32b2 5ced 1ab1 285e b5b1 a6b5 5a32
00000190: 2061 f131 8449 a5b1 31b3 62b2 0478 74b2
000001a0: 6e49 3180 4b27 45b3 ba75 7bb3 5007 7230
000001b0: a621 94b3 de66 72b2 4177 9632 a08c ab32
000001c0: a6bb ac32 2a63 5533 26cc fdb2 8562 33b3
000001d0: cce6 61b2 1ae0 3eb3 8015 c62f 75c7 0900
000001e0: a27e afb1 0c03 1f33 e4fe f62f 7e2d 0cb3
000001f0: 805e adaf 8630 42b2 481d c9b0 ddb3 a5b1
00000200: be9f abb1 607a c532 a86c e730 70b5 edb2
00000210: 20f0 b2af 44fd 4eb2 faef 2a80 6bf3 b533
00000220: ab86 07b4 da63 ca31 e91f 35b4 96bf 19b4
00000230: b703 6633 31a9 dd33 3e6a da33 ac24 3033
00000240: d085 8433 b4f2 19b3 c60f 46b4 7e87 d533
00000250: 7abb fc32 4f01 0700 3767 f8b2 a6e6 f132
00000260: e53e 3730 56e8 5db2 c8b0 0bb1 fd14 94b2
00000270: 30f6 d5b0 307b 48b2 d0f7 cdb1 738f 20b2
00000280: b3e2 9a32 80f9 6431 891a dcb2 dacf a4b1
00000290: b395 3500 09fb e7af 2b26 84b1 31c6 8f2f
000002a0: 887c 6831 2459 0532 3a19 1ab0 8887 9331
000002b0: d2a8 7b30 26a2 e530 8e3e 95af 2c3e 4b30
000002c0: 1cd9 eeb0 fd18 69b0 d1cb 8f30 e57e 2e00
000002d0: f8e1 072d 9cab bdae 6a68 68ab 4879 6bad
000002e0: 9838 5bad 285c 0f2d 6819 bbad 64e8 4ead
000002f0: 3247 dfad b283 102e dcc4 792d 94bd c72d
00000300: d467 7c2d d87f 96ad 458a 1900 77e9 0533
00000310: 8c30 2533 50c6 deae 4a5b 3133 7f45 b432
00000320: d251 8232 cc5e 3d33 533b 5233 7f64 8d33
00000330: 471d 9c33 b9ad 7033 f0f6 4532 a8f4 f232
00000340: 924a 1031 96e0 2980 3481 183a c63c 5b3a
00000350: 6e9e 09b6 25ef 693a d93a 843a c1c6 f939
00000360: 94ed 6439 75ec 263a 887e 853a 4cf8 723a
00000370: 8975 923a a97d 953a 10bf 123a ae3d 093a
00000380: 042c 1600 5c5e 4e39 76ca 9439 b87a 8836
00000390: 2348 9539 1716 9939 b65f e938 a8e5 1937
000003a0: d1ce 6839 deae b039 eae4 8e39 738b b039
000003b0: e3b8 a439 880c 4c39 9375 d938 de16 0200
000003c0: e916 a42f d078 622f 70c5 55ac 8632 962f
000003d0: fd98 812f 4f0e ce2e 47a3 622f 93d3 522f
000003e0: 437b ee2f 95a3 8b2f 3fac 0330 e62b ec2f
000003f0: 6a03 9e2f 3d1a a52e 876f 3380 0634 002f

feature.0.weight_hh_l0 f4 [256, 64]
6.195239e-11 4.0656194e-12 -1.1251772e-11 2.1358215e-08 -6.7439823e-09 2.0267777e-08 3.4136825e-12 -3.7008122e-11
8.0034417e-13 -4.6829894e-11 9.753139e-12 -6.0386925e-12 6.8322854e-13 7.13552e-11 1.9295515e-08 -1.01777164e-08
2.5931564e-12 -8.285977e-13 -1.3301499e-12 -1.0122091e-08 -9.345227e-09 3.232219e-08 -1.738476e-08 3.8043506e-08
-5.624081e-11 1.5226466e-12 -6.45992e-11 2.217379e-12 3.7754383e-11 2.2542315e-08 3.432517e-08 -1.8692239e-11
-1.1151626e-11 -1.2238637e-08 -1.1940353e-10 -5.188857e-12 1.2228293e-11 -1.2417761e-11 1.568308e-11 -3.060659e-12
7.849281e-11 3.7874724e-11 2.1195542e-11 2.449603e-11 -2.1581272e-08 2.8717142e-11 -2.3658983e-10 -2.1645022e-08
-3.1720603e-08 3.1462747e-08 -9.047452e-12 -2.3678848e-13 1.8756627e-13 3.0785888e-12 -1.6312628e-11 -4.757144e-08
-4.8697532e-11 -4.429989e-13 -6.322043e-11 -1.012233e-11 2.6112776e-08 1.0975362e-11 4.7513486e-12 -5.2450466e-12
9.1459175e-12 3.9935937e-11 -4.298802e-12 -1.3675796e-09 -1.907179e-10 -1.3474588e-09 4.119821e-11 2.4785268e-11
3.7607136e-11 -8.219571e-13 -3.7642937e-11 -1.6860242e-11 2.0930463e-13 1.6328361e-12 -1.3219621e-09 1.1780016e-10
1.8753946e-14 -9.585036e-14 -6.451455e-14 1.0605353e-10 -3.3761882e-11 -1.1979335e-09 -3.3599776e-09 -6.8392814e-10
-8.2004905e-13 1.9118747e-12 4.984142e-13 2.4039332e-12 -1.7547373e-13 -1.3805036e-09 -1.0820104e-09 -2.6247688e-11
-4.5313467e-12 6.2609823e-10 -4.4071302e-11 -6.437155e-13 4.623533e-12 -3.7169486e-14 2.0588243e-11 -4.2425655e-12
1.7790139e-12 1.943866e-11 -4.235265e-13 5.3628e-12 4.7502366e-09 2.1389343e-11 -5.0283645e-11 4.498211e-09
1.225915e-09 1.9051378e-09 -4.234274e-11 -5.986435e-14 1.0142392e-13 1.5158763e-12 -1.7568228e-11 5.719689e-09
-6.9465093e-12 -1.5327784e-13 -1.315468e-11 2.3764463e-12 2.5597224e-09 -2.1251607e-13 1.7659238e-12 -1.0632097e-12
-9.595931e-13 1.3928802e-12 1.3900797e-12 -1.2881118e-10 -1.624606e-10 -1.0982082e-10 1.420447e-12 8.845164e-13
1.208682e-12 2.7140803e-12 -1.1655656e-12 -6.4794264e-13 1.6938595e-13 3.4689716e-12 -9.2304386e-11 -1.4954316e-10
1.6204879e-13 -6.8676876e-14 -9.065509e-14 -1.5071006e-10 -1.6324453e-10 -3.1796688e-10 1.2506872e-09 -4.7112614e-10
6.115307e-12 5.4050135e-14 -3.4715798e-12 -2.3487234e-13 2.089321e-12 -1.4875956e-10 -3.6058567e-10 1.8655314e-13
-2.1118003e-12 -8.532475e-11 -4.620481e-12 -3.4114416e-13 -1.2328674e-13 -8.113832e-13 5.520594e-13 3.2655373e-13
3.7106715e-12 -6.1696286e-13 1.1352317e-12 3.1062826e-12 -1.8553321e-09 -1.7970592e-12 -8.534657e-12 -9.625419e-10
3.0618053e-10 -9.618061e-10 -1.4067352e-12 -3.5536237e-14 2.8759025e-14 3.591447e-15 -3.5168502e-13 -1.6236049e-09
1.5721584e-12 -8.275702e-14 -2.5823354e-13 -1.9940104e-13 -1.0872544e-09 8.4921653e-13 2.1461131e-14 -7.0241106e-13
-5.396847e-07 6.217128e-08 -1.3576702e-07 8.0175196e-05 -3.1666517e-05 7.824961e-05 7.493231e-09 -4.5196072e-07
-5.6813278e-08 7.9671725e-07 2.1090045e-07 -1.1937423e-07 -2.7203061e-08 7.776202e-07 7.631325e-05 -2.0741689e-05
5.8796434e-08 -2.8593613e-08 -3.7041836e-08 -2.0451796e-05 -1.9525813e-05 9.29956e-05 -0.00011043112 9.870434e-05
-2.105022e-06 9.773753e-08 -1.1450953e-06 1.8642034e-08 4.903451e-07 8.204829e-05 9.485255e-05 -1.1517342e-07
3.0921086e-07 -4.226115e-05 -4.295822e-07 -2.0775397e-07 1.6852614e-07 -2.922781e-07 6.080676e-08 -4.824021e-08
7.9920403e-07 1.2380437e-07 3.592071e-07 -3.858362e-07 0.000117592856 1.665411e-07 -1.3176958e-06 -0.000102541904
-9.244733e-05 0.00010745361 -6.833999e-08 4.534858e-09 1.1793891e-08 1.1961848e-08 -6.915033e-08 -1.5572086e-05
6.6888015e-07 1.2100469e-08 3.3904354e-07 -3.4297324e-07 0.000108730615 3.9177144e-07 1.8169771e-08 9.234583e-08
00000000: 183c 882e d80b 8f2c 7af1 45ad 3677 b732
00000010: b2b8 e7b1 5019 ae32 7037 702c 71c3 22ae
00000020: e046 612b c6f5 4dae 3c94 2b2d b577 d4ac
00000030: ce4f 402b 68e9 9c2e 49bf a532 12da 2eb2
00000040: 277a 362c c23a 69ab b333 bbab 6de5 2db2
00000050: be8c 20b2 a0d2 0a33 7e55 95b2 4765 2333
00000060: 8659 77ae 204b d62b 1e0e 8eae c008 1c2c
00000070: a80b 262e 13a3 c132 ec6c 1333 2e6b a4ad
00000080: 752e 44ad 1842 52b2 1b49 03af 1291 b6ac
00000090: 561f 572d a074 5aad 28f3 892d ee5f 57ac
000000a0: 869b ac2e 2693 262e 1e70 ba2d 2878 d72d
000000b0: b861 b9b2 4199 fc2d 0f11 82af e8ed b9b2
000000c0: 2c3d 08b3 a821 0733 1a2a 1fad d14c 85aa
000000d0: 4c2e 532a eda2 582c c67c 8fad 5a51 4cb3
000000e0: 8c2c 56ae df62 f9aa f005 8bae ec12 32ad
000000f0: 9a4e e032 a314 412d 582c a72c 2e8b b8ac
00000100: 8de5 202d dea3 2f2e 2b40 97ac 6ef5 bbb0
00000110: 51b2 51af 7e31 b9b0 1031 352e 7603 da2d
00000120: df65 252e 405c 67ab 2e8e 25ae e44d 94ad
00000130: f4a7 6b2a 1fcd e52b 68b0 b5b0 cc85 012f
00000140: a8eb a828 f8d5 d7a9 1b46 91a9 d436 e92e
00000150: 807c 14ae 8aa4 a4b0 5ae5 66b1 2aff 3bb0
00000160: c3d2 66ab 4689 062c 874a 0c2b 6929 292c
00000170: dc90 45aa 27bc bdb0 dbb5 94b0 8ae0 e6ad
00000180: be6e 9fac bf19 2c30 e0d3 41ae 9730 35ab
00000190: 15ad a22c 8065 27a9 9a18 b52d a245 95ac
000001a0: bb5f fa2b f9fb aa2d 9a6c eeaa cfaf bc2c
000001b0: 8637 a331 8524 bc2d 5a26 5dae af8e 9a31
000001c0: 0d7d a830 8aeb 0231 b039 3aae 73cd 86a9
000001d0: e962 e429 3357 d52b 2288 9aad eb86 c431
000001e0: 9868 f4ac 5493 2caa 696b 67ad 403a 272c
000001f0: 1de7 2f31 9645 6faa 1c88 f82b 2ba2 95ab
00000200: fc0c 87ab cc07 c42b e6a2 c32b 20a1 0daf
00000210: 98a0 32af a07f f1ae ffe8 c72b 20f8 782b
00000220: 5c1b aa2b 86fc 3e2c ed09 a4ab 3061 36ab
00000230: 2db6 3e2a 701b 742c c0fa caae a86c 24af
00000240: 6273 362a 86a5 9aa9 1a23 cca9 1cb5 25af
00000250: 407d 33af dccd aeaf a5e4 ab30 8e80 01b0
00000260: ca29 d72c 906b 7329 6c4a 74ac ac38 84aa
00000270: dc05 132c 1890 23af ec3b c6af 480a 522a
00000280: d09a 14ac 90a1 bbae 9891 a2ac 0e0c c0aa
00000290: fcce 0aaa 5262 64ab 1264 1b2b 5ad5 b72a
000002a0: c28e 822c dca8 2dab 08c5 9f2b d095 5a2c
000002b0: b2fe feb0 e2e9 fcab ae24 16ad 6f4a 84b0
000002c0: 1453 a82f 8b30 84b0 fafa c5ab 7e0a 20a9
000002d0: e684 0129 4065 8127 27fb c5aa 8525 dfb0
000002e0: fa42 dd2b 2d5a baa9 605f 91aa 7081 60aa
000002f0: 5d6e 95b0 8008 6f2b 004e c128 0db6 45ab
00000300: dade 10b5 0683 8533 5bc7 11b4 bb23 a838
00000310: aad1 04b8 f119 a438 94bb 0032 02a5 f2b4
00000320: dc02 74b3 fedd 5535 e073 6234 572d 00b4
00000330: 2aac e9b2 a7bd 5035 5d0a a038 70fe adb7
00000340: 5d87 7c33 059e f5b2 ee17 1fb3 e68f abb7
00000350: 5dcb a3b7 a206 c338 4297 e7b8 7dff ce38
00000360: 0144 0db6 c6e3 d133 2db1 99b5 4422 a032
00000370: 42a0 0335 5711 ac38 93eb c638 4255 f7b3
00000380: 9e01 a634 9041 31b8 54a1 e6b4 fa12 5fb4
00000390: 1df4 3434 65ea 9cb4 df94 8233 ac30 4fb3
000003a0: e288 5635 16ef 0434 0cd9 c034 ec24 cfb4
000003b0: 2f9c f638 78d2 3234 afdb b0b5 c40b d7b8
000003c0: 48e0 c1b8 b858 e138 4fc2 92b3 08d1 9b31
000003d0: 159e 4a32 c480 4d32 cc7f 94b3 cda0 82b7
000003e0: 188d 3335 6de2 4f32 ca05 b634 e221 b8b4
000003f0: 4e06 e438 a854 d234 c013 9c32 a84f c633

feature.0.bias_ih_l0 f4 [256]
1.9326885e-07 6.6651307e-09 -3.4664502e-08 0.0017501286 0.00017225303 0.001680843 7.86513e-09 6.647254e-08
-2.847509e-09 2.5711909e-08 1.2521766e-08 -4.8227145e-11 -1.8481228e-10 8.228453e-08 0.0016160305 0.0005086617
-3.1071695e-10 6.541661e-11 2.6209201e-11 0.0004998399 0.00038854158 0.0024089068 0.0053972797 0.0029193324
8.856788e-07 1.7212265e-09 3.9324192e-08 6.223824e-11 1.3461751e-08 0.0018225681 0.0025521035 1.0409382e-08
-9.156002e-09 0.00087797455 -1.2591266e-07 4.900902e-09 -4.5244342e-10 -6.034275e-09 -6.7551316e-09 -5.4099164e-10
1.051032e-07 -8.043133e-09 1.9069217e-09 -9.870448e-09 0.0073317634 -5.8632967e-08 6.8696977e-06 0.29348287
0.0023694942 0.004494166 5.798024e-09 -9.33853e-12 1.5582757e-11 -1.8477135e-10 -8.416793e-09 0.19368376
3.289821e-08 -2.1330675e-11 4.8525135e-07 -1.9646889e-08 0.004878709 1.3824002e-08 -2.854087e-10 -1.8688093e-09
3.0096558e-07 1.9811178e-08 -2.801732e-08 0.0010401733 0.00011783862 0.0009939218 -1.664566e-08 1.7413058e-08
7.376034e-09 -2.254641e-07 -1.4775884e-08 3.716932e-09 -1.2385404e-10 4.360043e-09 0.0009506351 0.00027435613
-5.4572402e-11 2.1266553e-11 2.7960474e-11 0.0002696244 0.00020883739 0.0014730814 0.0030763363 0.0017900672
1.1650495e-06 -1.4131813e-09 -1.4053433e-07 -6.145954e-10 -8.911717e-08 0.0010885858 0.0015643319 -1.3290676e-08
3.7666705e-09 0.00047782357 5.8021676e-09 1.4985309e-09 -1.0645181e-08 -1.1674066e-08 2.8587566e-09 -2.1498883e-09
2.3873946e-08 -5.0008456e-08 -4.983394e-08 -4.1048125e-09 0.0038814906 -8.820698e-08 1.9555562e-06 -0.12911297
0.0014474193 0.002648069 -2.2529646e-08 -6.049168e-12 8.4527845e-12 -9.661806e-11 -8.0876306e-11 -0.08194666
4.5634536e-08 -9.066659e-12 4.245401e-07 -3.0558134e-09 0.00282365 6.079992e-11 -5.1160964e-11 -1.398371e-09
7.5254444e-05 1.851412e-06 -1.9673826e-06 0.022608887 -0.0077394475 0.02218026 8.672803e-06 -5.4946755e-05
5.2671417e-06 -2.6664633e-05 3.0220522e-06 -3.5719725e-06 -1.358771e-06 8.8095636e-05 0.021771736 -0.01292364
3.0656208e-06 7.6588776e-08 -8.5574277e-07 -0.012822859 -0.011441421 0.026339022 -0.038508877 0.028876277
-0.00016896808 3.091449e-06 -6.1605555e-05 4.804718e-07 3.8109276e-05 0.023049498 0.0270789 -8.689916e-07
1.4210913e-05 -0.01645474 -0.0001766071 -6.0241546e-06 9.541267e-06 -1.4017938e-05 -2.6969321e-06 -1.3386033e-06
9.779743e-05 1.4808597e-06 2.1499607e-05 -2.0169768e-05 0.04424854 2.8101415e-06 -0.0003303495 -0.11812842
-0.026130624 0.03537646 -1.3458438e-05 2.482409e-07 -7.7327536e-07 5.7929768e-08 1.8704771e-06 -0.089591995
-5.0171115e-05 5.3097676e-07 -8.269794e-05 -1.4642e-05 0.036744498 1.0338507e-05 1.2662112e-07 4.493035e-06
1.9327629e-07 6.6673898e-09 -3.466506e-08 0.0017662649 0.00017239254 0.0016958101 7.865511e-09 6.647758e-08
-2.845673e-09 2.5820135e-08 1.2524189e-08 -4.7326427e-11 -1.8479276e-10 8.228532e-08 0.0016299422 0.0005102444
-3.1072944e-10 6.5377946e-11 2.614138e-11 0.00050136814 0.00038945585 0.0024382188 0.0055244593 0.0029611983
8.8520005e-07 1.7213371e-09 3.9332342e-08 6.1978894e-11 1.3469148e-08 0.0018399665 0.002584761 1.0409684e-08
-9.1565635e-09 0.00088248536 -1.2580216e-07 4.900574e-09 -4.4823167e-10 -6.0327965e-09 -6.7543415e-09 -5.407831e-10
1.0510368e-07 -8.040366e-09 1.9166728e-09 -9.865385e-09 0.007553078 -5.863282e-08 6.869838e-06 0.30206886
0.0023978916 0.0045857485 5.79808e-09 -9.338459e-12 1.5576658e-11 -1.8478113e-10 -8.416613e-09 0.20016277
3.2929112e-08 -2.1331348e-11 4.852159e-07 -1.9647914e-08 0.0049841222 1.3822305e-08 -2.8543223e-10 -1.8689001e-09
00000000: 5685 4f34 1c03 e531 06e2 14b3 9264 e53a
00000010: d29e 3439 bb4f dc3a 351f 0732 aabf 8e33
00000020: e8ad 43b1 16dd dc32 4f1f 5732 f01a 54ae
00000030: 0834 4baf 66b4 b033 fcd0 d33a b557 053a
00000040: 86d1 aaaf 47da 8f2e e089 e62d b007 033a
00000050: 2bb5 cb39 c0de 1d3b aadb b03b 4552 3f3b
00000060: 62bf 6d35 4690 ec30 68e5 2833 04dd 882e
00000070: 6845 6732 3de3 ee3a 3141 273b f2d4 3232
00000080: 864c 1db2 e027 663a 9c32 07b4 ca64 a831
00000090: c0bb f8af 0b56 cfb1 c41a e8b1 e7b4 14b0
000000a0: 18b5 e133 132e 0ab2 ec0a 0331 b092 29b2
000000b0: 4a3f f03b a1d3 7bb3 4182 e636 6343 963e
000000c0: 8449 1b3b cc43 933b f537 c731 0049 24ad
000000d0: 4011 892d 8328 4baf 7299 10b2 0955 463e
000000e0: f74b 0d33 69a0 bbad 3842 0235 f7c3 a8b2
000000f0: 94dd 9f3b 9b7e 6d32 b4e7 9caf 716c 00b1
00000100: 6594 a134 3e2d aa32 bdaa f0b2 6d56 883a
00000110: 2120 f738 7b46 823a 32fc 8eb2 b893 9532
00000120: 4870 fd31 1a17 72b4 06d9 7db2 f66c 7f31
00000130: d02d 08af 58cf 9531 0b34 793a 75d7 8f39
00000140: 1003 70ae 0510 bb2d 64f1 f52d 605c 8d39
00000150: 5cfb 5a39 6914 c13a 5c9c 493b b0a0 ea3a
00000160: cc5e 9c35 e639 c2b0 c8e5 16b4 4ef0 28b0
00000170: af60 bfb3 e1ae 8e3a 450a cd3a 0355 64b2
00000180: fc6b 8131 6584 fa39 685c c731 def4 cd30
00000190: 00e2 36b2 168f 48b2 c773 4431 3cbd 13b1
000001a0: 5d13 cd32 e1c8 56b3 ff08 56b3 500a 8db1
000001b0: 9b60 7e3b 4d6c bdb3 333c 0336 3136 04be
000001c0: 55b7 bd3a 3a8b 2d3b 3787 c1b2 10d6 d4ac
000001d0: f5b3 142d 2277 d4ae 50d9 b1ae a7d3 a7bd
000001e0: b4ff 4333 9a80 1fad 59ec e334 70fe 51b1
000001f0: fc0c 393b 50b3 852e 2002 61ae ce30 c0b0
00000200: ecd1 9d38 087e f835 6007 04b6 4636 b93c
00000210: 319b fdbb 60b3 b53c 6881 1137 a176 66b8
00000220: 67bc b036 ddad dfb7 76ce 4a36 05b6 6fb6
00000230: 045f b6b5 fcbf b838 a45a b23c adbd 53bc
00000240: f7ba 4d36 2079 a433 32b6 65b5 f816 52bc
00000250: cc74 3bbc efc4 d73c 7cbb 1dbd f18d ec3c
00000260: 062d 31b9 b076 4f36 3b32 81b8 c5f9 0035
00000270: 86d7 1f38 4dd2 bc3c 92d4 dd3c a644 69b5
00000280: 686b 6e37 17cc 86bc 9b2f 39b9 1823 cab6
00000290: 6e13 2037 962e 6bb7 f1fc 34b6 0faa b3b5
000002a0: 9818 cd38 f4c1 c635 0e5a b437 3f32 a9b7
000002b0: f53d 353d dd95 3c36 c232 adb9 50ed f1bd
000002c0: e40f d6bc e8e6 103d 8dcb 61b7 f845 8534
000002d0: 1493 4fb5 74ce 7833 1b0d fb35 027c b7bd
000002e0: d36e 52b8 7288 0e35 1e6e adb8 e9a6 75b7
000002f0: 6681 163d 8d73 2d37 59f5 0734 e0c2 9636
00000300: 6287 4f34 fb16 e531 a3e2 14b3 0482 e73a
00000310: 45c4 3439 f245 de3a e220 0732 70c2 8e33
00000320: 9c8d 43b1 14cb dd32 f729 5732 d224 50ae
00000330: 8a2e 4baf d5b4 b033 c9a3 d53a ecc1 053a
00000340: 48d3 aaaf 83c4 8f2e 28f1 e52d 3f6e 033a
00000350: e12f cc39 86ca 1f3b 8606 b53b aa10 423b
00000360: 7c9e 6d35 2a94 ec30 5eee 2833 044b 882e
00000370: f065 6732 082b f13a 1865 293b 46d6 3232
00000380: fe4e 1db2 9756 673a 3c14 07b4 e861 a831
00000390: 006b f6af 0a49 cfb1 d113 e8b1 3aa6 14b0
000003a0: 5cb5 e133 e721 0ab2 77b6 0331 6c7c 29b2
000003b0: cf7f f73b 78d3 7bb3 7683 e636 c5a8 9a3e
000003c0: f225 1d3b 0c44 963b 7338 c731 ae48 24ad
000003d0: 8403 892d 442b 4baf a898 10b2 78f7 4c3e
000003e0: f16d 0d33 eda1 bbad c83f 0235 38c6 a8b2
000003f0: d951 a33b 2477 6d32 04eb 9caf 0a6e 00b1

feature.0.bias_hh_l0 f4 [256]
1.9326885e-07 6.6651307e-09 -3.4664502e-08 0.0017501286 0.00017225303 0.001680843 7.86513e-09 6.647254e-08
-2.847509e-09 2.5711909e-08 1.2521766e-08 -4.8227145e-11 -1.8481228e-10 8.228453e-08 0.0016160305 0.0005086617
-3.1071695e-10 6.541661e-11 2.6209201e-11 0.0004998399 0.00038854158 0.0024089068 0.0053972797 0.0029193324
8.856788e-07 1.7212265e-09 3.9324192e-08 6.223824e-11 1.3461751e-08 0.0018225681 0.0025521035 1.0409382e-08
-9.156002e-09 0.00087797455 -1.2591266e-07 4.900902e-09 -4.5244342e-10 -6.034275e-09 -6.7551316e-09 -5.4099164e-10
1.051032e-07 -8.043133e-09 1.9069217e-09 -9.870448e-09 0.0073317634 -5.8632967e-08 6.8696977e-06 0.29348287
0.0023694942 0.004494166 5.798024e-09 -9.33853e-12 1.5582757e-11 -1.8477135e-10 -8.416793e-09 0.19368376
3.289821e-08 -2.1330675e-11 4.8525135e-07 -1.9646889e-08 0.004878709 1.3824002e-08 -2.854087e-10 -1.8688093e-09
3.0096558e-07 1.9811178e-08 -2.801732e-08 0.0010401733 0.00011783862 0.0009939218 -1.664566e-08 1.7413058e-08
7.376034e-09 -2.254641e-07 -1.4775884e-08 3.716932e-09 -1.2385404e-10 4.360043e-09 0.0009506351 0.00027435613
-5.4572402e-11 2.1266553e-11 2.7960474e-11 0.0002696244 0.00020883739 0.0014730814 0.0030763363 0.0017900672
1.1650495e-06 -1.4131813e-09 -1.4053433e-07 -6.145954e-10 -8.911717e-08 0.0010885858 0.0015643319 -1.3290676e-08
3.7666705e-09 0.00047782357 5.8021676e-09 1.4985309e-09 -1.0645181e-08 -1.1674066e-08 2.8587566e-09 -2.1498883e-09
2.3873946e-08 -5.0008456e-08 -4.983394e-08 -4.1048125e-09 0.0038814906 -8.820698e-08 1.9555562e-06 -0.12911297
0.0014474193 0.002648069 -2.2529646e-08 -6.049168e-12 8.4527845e-12 -9.661806e-11 -8.0876306e-11 -0.08194666
4.5634536e-08 -9.066659e-12 4.245401e-07 -3.0558134e-09 0.00282365 6.079992e-11 -5.1160964e-11 -1.398371e-09
7.5254444e-05 1.851412e-06 -1.9673826e-06 0.022608887 -0.0077394475 0.02218026 8.672803e-06 -5.4946755e-05
5.2671417e-06 -2.6664633e-05 3.0220522e-06 -3.5719725e-06 -1.358771e-06 8.8095636e-05 0.021771736 -0.01292364
3.0656208e-06 7.6588776e-08 -8.5574277e-07 -0.012822859 -0.011441421 0.026339022 -0.038508877 0.028876277
-0.00016896808 3.091449e-06 -6.1605555e-05 4.804718e-07 3.8109276e-05 0.023049498 0.0270789 -8.689916e-07
1.4210913e-05 -0.01645474 -0.0001766071 -6.0241546e-06 9.541267e-06 -1.4017938e-05 -2.6969321e-06 -1.3386033e-06
9.779743e-05 1.4808597e-06 2.1499607e-05 -2.0169768e-05 0.044248417 2.8101415e-06 -0.0003303495 -0.07341464
-0.026130624 0.03537646 -1.3458438e-05 2.482409e-07 -7.7327536e-07 5.7929768e-08 1.8704771e-06 -0.08852942
-5.0171115e-05 5.3097676e-07 -8.269794e-05 -1.4642e-05 0.036744498 1.0338507e-05 1.2662112e-07 4.493035e-06
1.9327629e-07 6.6673898e-09 -3.466506e-08 0.0017662649 0.00017239254 0.0016958101 7.865511e-09 6.647758e-08
-2.845673e-09 2.5820135e-08 1.2524189e-08 -4.7326427e-11 -1.8479276e-10 8.228532e-08 0.0016299422 0.0005102444
-3.1072944e-10 6.5377946e-11 2.614138e-11 0.00050136814 0.00038945585 0.0024382188 0.0055244593 0.0029611983
8.8520005e-07 1.7213371e-09 3.9332342e-08 6.1978894e-11 1.3469148e-08 0.0018399665 0.002584761 1.0409684e-08
-9.1565635e-09 0.00088248536 -1.2580216e-07 4.900574e-09 -4.4823167e-10 -6.0327965e-09 -6.7543415e-09 -5.407831e-10
1.0510368e-07 -8.040366e-09 1.9166728e-09 -9.865385e-09 0.007553078 -5.863282e-08 6.869838e-06 0.30206886
0.0023978916 0.0045857485 5.79808e-09 -9.338459e-12 1.5576658e-11 -1.8478113e-10 -8.416613e-09 0.20016277
3.2929112e-08 -2.1331348e-11 4.852159e-07 -1.9647914e-08 0.0049841222 1.3822305e-08 -2.8543223e-10 -1.8689001e-09
00000000: 5685 4f34 1c03 e531 06e2 14b3 9264 e53a
00000010: d29e 3439 bb4f dc3a 351f 0732 aabf 8e33
00000020: e8ad 43b1 16dd dc32 4f1f 5732 f01a 54ae
00000030: 0834 4baf 66b4 b033 fcd0 d33a b557 053a
00000040: 86d1 aaaf 47da 8f2e e089 e62d b007 033a
00000050: 2bb5 cb39 c0de 1d3b aadb b03b 4552 3f3b
00000060: 62bf 6d35 4690 ec30 68e5 2833 04dd 882e
00000070: 6845 6732 3de3 ee3a 3141 273b f2d4 3232
00000080: 864c 1db2 e027 663a 9c32 07b4 ca64 a831
00000090: c0bb f8af 0b56 cfb1 c41a e8b1 e7b4 14b0
000000a0: 18b5 e133 132e 0ab2 ec0a 0331 b092 29b2
000000b0: 4a3f f03b a1d3 7bb3 4182 e636 6343 963e
000000c0: 8449 1b3b cc43 933b f537 c731 0049 24ad
000000d0: 4011 892d 8328 4baf 7299 10b2 0955 463e
000000e0: f74b 0d33 69a0 bbad 3842 0235 f7c3 a8b2
000000f0: 94dd 9f3b 9b7e 6d32 b4e7 9caf 716c 00b1
00000100: 6594 a134 3e2d aa32 bdaa f0b2 6d56 883a
00000110: 2120 f738 7b46 823a 32fc 8eb2 b893 9532
00000120: 4870 fd31 1a17 72b4 06d9 7db2 f66c 7f31
00000130: d02d 08af 58cf 9531 0b34 793a 75d7 8f39
00000140: 1003 70ae 0510 bb2d 64f1 f52d 605c 8d39
00000150: 5cfb 5a39 6914 c13a 5c9c 493b b0a0 ea3a
00000160: cc5e 9c35 e639 c2b0 c8e5 16b4 4ef0 28b0
00000170: af60 bfb3 e1ae 8e3a 450a cd3a 0355 64b2
00000180: fc6b 8131 6584 fa39 685c c731 def4 cd30
00000190: 00e2 36b2 168f 48b2 c773 4431 3cbd 13b1
000001a0: 5d13 cd32 e1c8 56b3 ff08 56b3 500a 8db1
000001b0: 9b60 7e3b 4d6c bdb3 333c 0336 3136 04be
000001c0: 55b7 bd3a 3a8b 2d3b 3787 c1b2 10d6 d4ac
000001d0: f5b3 142d 2277 d4ae 50d9 b1ae a7d3 a7bd
000001e0: b4ff 4333 9a80 1fad 59ec e334 70fe 51b1
000001f0: fc0c 393b 50b3 852e 2002 61ae ce30 c0b0
00000200: ecd1 9d38 087e f835 6007 04b6 4636 b93c
00000210: 319b fdbb 60b3 b53c 6881 1137 a176 66b8
00000220: 67bc b036 ddad dfb7 76ce 4a36 05b6 6fb6
00000230: 045f b6b5 fcbf b838 a45a b23c adbd 53bc
00000240: f7ba 4d36 2079 a433 32b6 65b5 f816 52bc
00000250: cc74 3bbc efc4 d73c 7cbb 1dbd f18d ec3c
00000260: 062d 31b9 b076 4f36 3b32 81b8 c5f9 0035
00000270: 86d7 1f38 4dd2 bc3c 92d4 dd3c a644 69b5
00000280: 686b 6e37 17cc 86bc 9b2f 39b9 1823 cab6
00000290: 6e13 2037 962e 6bb7 f1fc 34b6 0faa b3b5
000002a0: 9818 cd38 f4c1 c635 0e5a b437 3f32 a9b7
000002b0: d43d 353d dd95 3c36 c232 adb9 6a5a 96bd
000002c0: e40f d6bc e8e6 103d 8dcb 61b7 f845 8534
000002d0: 1493 4fb5 74ce 7833 1b0d fb35 ea4e b5bd
000002e0: d36e 52b8 7288 0e35 1e6e adb8 e9a6 75b7
000002f0: 6681 163d 8d73 2d37 59f5 0734 e0c2 9636
00000300: 6287 4f34 fb16 e531 a3e2 14b3 0482 e73a
00000310: 45c4 3439 f245 de3a e220 0732 70c2 8e33
00000320: 9c8d 43b1 14cb dd32 f729 5732 d224 50ae
00000330: 8a2e 4baf d5b4 b033 c9a3 d53a ecc1 053a
00000340: 48d3 aaaf 83c4 8f2e 28f1 e52d 3f6e 033a
00000350: e12f cc39 86ca 1f3b 8606 b53b aa10 423b
00000360: 7c9e 6d35 2a94 ec30 5eee 2833 044b 882e
00000370: f065 6732 082b f13a 1865 293b 46d6 3232
00000380: fe4e 1db2 9756 673a 3c14 07b4 e861 a831
00000390: 006b f6af 0a49 cfb1 d113 e8b1 3aa6 14b0
000003a0: 5cb5 e133 e721 0ab2 77b6 0331 6c7c 29b2
000003b0: cf7f f73b 78d3 7bb3 7683 e636 c5a8 9a3e
000003c0: f225 1d3b 0c44 963b 7338 c731 ae48 24ad
000003d0: 8403 892d 442b 4baf a898 10b2 78f7 4c3e
000003e0: f16d 0d33 eda1 bbad c83f 0235 38c6 a8b2
000003f0: d951 a33b 2477 6d32 04eb 9caf 0a6e 00b1

feature.2.weight_ih_l0 f4 [128, 64]
-5.439295e-13 -2.8208607e-12 1.1203833e-11 5.8934146e-10 -1.6331603e-11 5.128997e-10 -6.790901e-12 1.6311636e-11
-6.220923e-12 -6.584261e-12 5.578345e-12 3.9133904e-12 7.7748436e-13 1.3272421e-12 4.4517545e-10 1.03129505e-10
-1.2383345e-13 3.0107278e-13 2.7454541e-13 1.0220669e-10 8.066925e-11 1.4683252e-09 -6.6030945e-09 2.2774331e-09
2.0808556e-11 -4.0738662e-12 1.4387935e-12 -2.3460298e-12 -5.9178357e-13 6.712484e-10 1.688989e-09 -6.1317123e-12
-1.4672206e-11 5.936962e-11 1.3625087e-11 3.2663163e-12 -9.312533e-12 2.6871214e-13 1.3087677e-11 3.39522e-12
1.7414195e-12 1.0336749e-11 -1.3465093e-12 2.4218525e-11 9.583079e-09 2.2383467e-12 9.64713e-12 1.3464684e-08
-1.4063852e-09 5.0270175e-09 8.039293e-12 -1.7109601e-13 -1.9619717e-13 5.3531723e-13 -1.2413565e-11 1.48382355e-08
6.2693253e-13 -4.8991974e-13 3.152669e-12 9.743719e-12 5.6997487e-09 -2.104311e-12 5.1395043e-13 -3.1531145e-12
7.222239e-16 6.252931e-16 1.8629539e-15 2.6894277e-12 -1.1213915e-12 2.6524997e-12 2.977126e-16 -5.9659377e-15
-6.058049e-16 5.4270477e-15 2.0292775e-15 -1.3411528e-15 2.7445985e-16 1.4155106e-14 2.6168577e-12 -1.7431768e-12
6.664167e-16 -2.852721e-16 -3.9520456e-16 -1.7319332e-12 -1.5747644e-12 2.9954977e-12 -3.7804564e-12 3.1879772e-12
2.9803718e-15 7.2220565e-16 -1.507094e-14 -2.1685955e-16 8.9564595e-15 2.72734e-12 3.0528301e-12 -8.1720955e-16
-3.4304678e-15 -2.1170567e-12 -1.7789794e-14 -1.7836701e-15 1.9462752e-15 -3.2168035e-15 1.3681934e-15 1.2657793e-16
1.5238257e-14 7.45389e-20 5.237569e-15 5.5662787e-15 4.0454758e-12 -1.4729319e-15 -3.6983515e-14 7.883586e-13
-2.9794103e-12 3.6135457e-12 -9.93297e-16 -5.993034e-17 1.0201294e-16 7.38694e-17 -1.3072288e-15 2.3136423e-12
1.9284873e-15 -1.3194995e-16 -3.934373e-15 -3.3089927e-15 3.6858116e-12 3.6576124e-15 1.4339905e-16 -1.1391892e-15
9.297964e-12 2.918154e-11 -2.3321917e-12 -1.5317145e-10 -2.0437907e-10 -1.14638965e-10 3.1079615e-11 2.202467e-11
2.9011817e-11 -3.1515e-12 -2.9629067e-11 -1.2178969e-11 1.581024e-13 2.5971217e-13 -7.881218e-11 -3.2878347e-10
-6.190233e-14 -3.5481912e-14 5.418612e-15 -3.2851902e-10 -3.1454664e-10 -4.9923143e-10 5.1895177e-10 -7.046321e-10
-2.166887e-13 1.1179896e-12 2.1656273e-12 1.4047882e-12 -1.127761e-12 -1.9307468e-10 -5.6426513e-10 -1.8132735e-11
-3.2672335e-12 -2.6650743e-10 -3.4435843e-11 -9.8929545e-14 2.6501726e-12 2.9558647e-13 1.5086819e-11 -2.7837199e-12
4.4127636e-13 1.2328684e-11 -1.0550588e-12 4.1382757e-12 7.57841e-10 1.3589609e-11 -3.8762736e-11 6.4100547e-10
4.800079e-10 -8.158607e-10 -3.1429664e-11 -4.1439837e-14 6.7738865e-14 1.0126638e-12 -1.29718675e-11 1.957361e-09
-7.598214e-12 -1.0130994e-13 -1.2420635e-11 3.0406597e-12 -7.1975903e-10 -6.9587473e-13 1.1509565e-12 -6.46407e-13
1.40028065e-14 1.3700639e-15 7.7305665e-15 7.436647e-12 -2.7318083e-12 7.304065e-12 8.6738715e-16 -9.835344e-15
-6.5394925e-16 -8.945608e-16 2.7601297e-15 -1.7493771e-15 1.0029455e-15 3.176652e-14 7.1775745e-12 -4.4151965e-12
1.3751461e-15 -4.911298e-16 -7.3938734e-16 -4.3830894e-12 -3.941223e-12 8.595771e-12 -1.2471637e-11 9.391395e-12
2.5900546e-14 4.0629846e-16 -3.1343556e-14 -1.2132887e-15 1.8620818e-14 7.57376e-12 8.826735e-12 -3.0056655e-15
-1.31183686e-14 -5.5272484e-12 -4.7276338e-14 -2.8930184e-15 1.4164526e-15 -6.687634e-15 6.270642e-15 1.3282237e-15
3.4348047e-14 2.676498e-15 1.05379284e-14 2.063949e-14 1.4387632e-11 -3.086655e-15 -9.6465126e-14 1.0003389e-11
-8.531424e-12 1.14601635e-11 -1.942532e-15 -2.0595029e-16 1.3971566e-16 3.0399716e-16 -6.0091126e-15 1.4709959e-11
-7.546367e-15 -4.9078153e-16 -1.9663985e-14 -4.369064e-15 1.189868e-11 6.8986044e-15 4.557804e-16 -4.011933e-15
00000000: 401a 19ab 1c80 46ac 9419 452d 38ff 2130
00000010: 80a7 8fad 1cfc 0c30 00ef eeac 8a7a 8f2d
00000020: 18e1 daac c0a9 e7ac 4445 c42c b0b0 892c
00000030: a7d7 5a2b f0ca ba2b e0bc f42f c0c8 e22e
00000040: 906c 0baa 297d a92a 2a8e 9a2a 40c1 e02e
00000050: c064 b12e 1ace c930 6fe1 e2b1 0781 1c31
00000060: b408 b72d 2056 8fac 007e ca2b 5116 25ac
00000070: 8092 26ab e882 3830 0422 e830 8ebd d7ac
00000080: df0e 81ad 208e 822e f0b1 6f2d b9d8 652c
00000090: ecd3 23ad 8045 972a a83d 662d d9ea 6e2c
000000a0: 4015 f52b 94d8 352d 1c81 bdab 4507 d52d
000000b0: d4a2 2432 7882 1d2c d0b6 292d 4e52 6732
000000c0: c84a c1b0 1dba ac31 c26d 0d2d 11a3 40aa
000000d0: fce5 5caa acad 162b ba61 5aad 40eb 7e32
000000e0: 4077 302b 70e6 09ab 70d9 5d2c cf69 2b2d
000000f0: 85d7 c331 e613 14ac 08aa 102b 76e1 5dac
00000100: b82a 5026 7d3a 3426 6f3d 0627 6c40 3d2c
00000110: 63d2 9dab 30a7 3a2c a09e ab25 10f2 d6a7
00000120: 839c 2ea6 ae87 c327 9039 1227 ce47 c1a6
00000130: 2037 9e25 e8fe 7e28 1e25 382c 9054 f5ab
00000140: e014 4026 bb72 a4a5 e6d1 e3a5 78bf f3ab
00000150: dea0 ddab 17ca 522c 5303 85ac 7e55 602c
00000160: 28c2 5627 5f29 5026 39bf 87a8 a405 7aa5
00000170: 6158 2128 64eb 3f2c e6d2 562c 6c8b 6ba6
00000180: f630 77a7 81f9 14ac 793c a0a8 e886 00a7
00000190: 713e 0c27 8dcb 67a7 6d2d c526 36ef 1125
000001a0: 0741 8928 0000 b01f 0cb4 bc27 dc8b c827
000001b0: 6856 8e2c 9845 d4a6 178f 26a9 39e7 5d2b
000001c0: 49a8 51ac da47 7e2c 3126 8fa6 a130 8aa4
000001d0: d039 eb24 cc54 aa24 3b64 bca6 e0ce 222c
000001e0: 50f6 0a27 c020 18a5 30c0 8da7 2470 6ea7
000001f0: d7ae 812c 85c7 8327 ee53 2525 aa2c a4a6
00000200: 4f92 232d 7e57 002e 081d 24ac ee69 28af
00000210: 98b7 60af 0018 fcae 89b0 082e 26bb c12d
00000220: ce30 ff2d 60c4 5dac 5d4f 02ae 3341 56ad
00000230: ea01 322a 7834 922a 504f adae 29c0 b4af
00000240: 4464 8ba9 dccb 1fa9 e039 c327 f19a b4af
00000250: 81ec acaf 4a3a 09b0 fca5 0e30 13b0 41b0
00000260: 44f8 73aa d257 9d2b 7964 182c d4b4 c52b
00000270: dfb7 9eab b149 54af a11a 1bb0 4a7f 9fad
00000280: 3fe9 65ac 9683 92af 5073 17ae 00c5 dea9
00000290: 447d 3a2c 8066 a62a 7fb4 842d 0ae3 43ac
000002a0: a06a f82a 75e3 582d 807c 94ab 469a 912c
000002b0: 5250 5030 2812 6f2d f67a 2aae c032 3030
000002c0: 8ef1 0330 1843 60b0 a83a 0aae e1a0 3aa9
000002d0: cc88 9829 0f85 8e2b 1934 64ad 4282 0631
000002e0: 50ab 05ad 3421 e4a9 9181 5aad a8f7 552c
000002f0: 8ad8 45b0 0fdf 43ab 94fb a12b 88f2 35ab
00000300: 8c40 7c28 7072 c526 f242 0b28 aed3 022d
00000310: e23b 40ac 967e 002d e001 7a26 852d 31a8
00000320: f07c 3ca6 78eb 80a6 68e3 4627 a01c fca6
00000330: 288a 9026 4e10 0f29 d889 fc2c 8e58 9bac
00000340: f02d c626 fc8e 0da6 281d 55a6 5c37 9aac
00000350: 62ab 8aac e937 172d 4267 5bad 1537 252d
00000360: 984a e928 1237 ea25 a928 0da9 74da aea6
00000370: afb8 a728 2f3d 052d 1548 1b2d be94 58a7
00000380: cc51 6ca8 0779 c2ac e8e9 54a9 c576 50a7
00000390: e121 cc26 89f2 f0a7 77ec e127 ce6a bf26
000003a0: 9ab0 1a29 acdc 4027 9ed5 3d28 6ce7 b928
000003b0: 221c 7d2d bc6a 5ea7 5c38 d9a9 42fb 2f2d
000003c0: 1e16 16ad fd9b 492d 64f9 0ba7 cc71 6da5
000003d0: c914 2125 103e af25 4880 d8a7 e263 812d
000003e0: 7af1 07a8 4975 0da6 101e b1a8 8169 9da7
000003f0: e452 512d 658c f827 a85e 0326 8d8b 90a7

feature.2.weight_hh_l0 f4 [128, 32]
-3.2252534e-11 3.3787057e-13 5.9441705e-12 -2.635e-13 -8.941956e-14 -6.315558e-19 -5.2079333e-19 3.9771103e-11
1.0266922e-14 1.6721749e-13 9.566219e-13 -5.3161056e-13 -1.1258022e-11 4.6139875e-15 1.8144455e-13 -1.3675248e-13
-9.803808e-20 -9.451278e-13 -9.493303e-18 1.1707725e-11 2.0117497e-08 -3.8529618e-13 -1.3182888e-11 -3.2236155e-11
-3.263129e-14 7.201171e-14 1.2873857e-12 -7.9851804e-13 8.0438464e-14 8.438095e-15 1.7363931e-12 5.189005e-12
-4.692883e-15 9.3733334e-17 -5.0185156e-16 -9.2432894e-17 1.1766442e-16 -8.254277e-23 -1.3767848e-22 8.3677e-15
2.833173e-18 4.7864727e-17 -4.7689014e-18 -3.4250484e-15 -1.7083587e-15 -4.7808285e-18 3.5121056e-17 6.364705e-18
-3.4424094e-23 1.029487e-16 -1.0583058e-21 -1.9718984e-15 3.731243e-12 1.8499515e-16 2.039326e-16 -1.0918185e-14
-9.610039e-18 -2.934525e-17 7.022141e-18 -2.1798507e-16 1.6209206e-17 -1.0278753e-17 4.541964e-16 1.5744983e-15
-3.3938022e-12 5.6014377e-14 -1.105294e-11 5.330175e-15 2.679504e-16 -2.708262e-21 -3.3563648e-20 4.9096716e-12
2.590092e-16 2.0421991e-14 6.53693e-13 1.00623485e-11 -2.8098244e-12 -1.6174346e-17 1.3942769e-15 3.2493028e-14
-3.895222e-22 -5.264705e-13 -4.4772056e-18 4.3285245e-12 2.0606117e-09 -7.62133e-13 -2.9886328e-12 -3.4302715e-13
-5.6910246e-15 7.623885e-15 7.525133e-13 -3.1478135e-13 2.8959392e-14 3.829175e-14 5.439758e-13 5.0065003e-13
-2.1465982e-14 3.3712398e-16 1.2282592e-16 -2.6600744e-16 2.0372573e-16 -6.834637e-22 -5.113763e-22 3.302871e-14
1.27392796e-17 1.7150525e-16 2.0240153e-16 -6.61821e-15 -8.370146e-15 -9.131826e-19 2.0686753e-16 -4.894459e-17
-1.345221e-22 9.540066e-18 -7.230969e-21 -1.9262004e-15 9.885551e-12 4.811899e-17 -2.632806e-15 -4.0315085e-14
-3.6042238e-17 -1.2623268e-17 3.1483635e-16 -8.602407e-16 6.777439e-17 -1.253035e-17 1.7727218e-15 5.500408e-15
1.3328392e-15 -1.3974847e-16 2.1494418e-15 -2.4606768e-16 -3.300072e-17 -6.5631516e-22 7.1436454e-23 2.1885468e-15
3.7656114e-17 -5.5657734e-17 2.838366e-16 5.941604e-15 4.131062e-15 -1.0213298e-18 1.3584709e-16 -1.023414e-17
-1.00188364e-23 -4.399811e-16 3.96545e-21 6.8694287e-15 -8.939594e-12 7.400255e-16 -4.798694e-15 -8.0641806e-15
3.1384996e-17 6.9313633e-18 4.0321818e-16 1.535465e-15 -4.006432e-17 -1.2755591e-17 -2.2852924e-15 -2.0121124e-15
3.4575613e-26 -5.377999e-27 -5.236802e-26 5.3747817e-27 1.6062724e-26 1.2966047e-31 2.2536554e-32 -8.025943e-25
1.0402386e-28 -3.6738292e-27 -2.8436471e-27 -4.357715e-25 6.2648344e-26 -5.1555627e-27 -3.262756e-26 7.473764e-29
1.23125826e-32 1.1879183e-26 2.7603158e-32 -2.291172e-25 1.8687638e-22 4.9196937e-27 4.5169325e-26 3.17816e-24
3.622032e-28 -3.550107e-27 -3.2496894e-27 -8.964346e-28 -5.2554285e-28 -2.7432383e-28 -8.351511e-27 -1.2434659e-25
-8.598849e-27 2.9173945e-29 -2.0742699e-27 -5.208514e-29 7.1955603e-28 3.6938257e-33 3.818222e-34 -6.2815515e-27
7.812312e-30 -1.1542372e-29 -1.256931e-28 -2.1081359e-26 -1.3790003e-27 -1.6258766e-28 -8.981954e-28 1.45228e-29
2.9667524e-34 6.0491264e-28 -7.6076103e-34 -1.1309161e-26 9.9781785e-24 6.2960922e-28 1.9263388e-27 7.159291e-26
-7.5005334e-30 -1.6300417e-28 -1.1852758e-28 -3.941341e-28 1.4618994e-29 -3.3116865e-29 5.699366e-28 -4.6846686e-28
-6.0105095e-11 9.3371e-13 -2.0683399e-12 -2.1328785e-12 1.3203298e-12 8.86021e-19 -1.1299625e-18 1.2430365e-10
3.6978355e-14 4.9554105e-13 8.641423e-13 -2.8561318e-11 -9.0821135e-12 -1.3612592e-13 -7.094206e-14 2.5328825e-13
-2.4174064e-19 -2.9845484e-14 6.1611985e-18 -9.517288e-12 6.284179e-08 6.7341167e-12 -9.001418e-12 -8.304364e-11
-3.9416973e-14 -2.1710968e-13 1.1851862e-12 1.424939e-12 1.1088086e-13 -2.8599226e-13 -3.2389607e-13 1.5737522e-11
00000000: 20d9 0dae 4834 be2a 5424 d12c 5a56 94aa
00000010: de5a c9a9 0267 3aa1 08b6 19a1 48ea 2e2e
00000020: d2f3 3828 2945 3c2a f0a1 862b 94a2 15ab
00000030: a00d 46ad 863c a627 d549 4c2a 38f8 19aa
00000040: 627c e79f d103 85ab db1e 2fa3 e8f6 4d2d
00000050: d8ce ac32 08e7 d8aa 73ea 67ad afc6 0dae
00000060: 51f5 12a9 ed27 a229 f52e b52b 4ac3 60ab
00000070: 9e21 b529 d801 1828 2860 f42b 6792 b62c
00000080: 3514 a9a7 6522 d824 1ca6 10a6 c022 d5a4
00000090: 68a8 0725 8093 c79a 6d71 269b 35bd 1628
000000a0: 200d 5122 b2bc 5c24 00f1 afa2 fecc 76a7
000000b0: 5033 f6a6 a661 b0a2 a0f7 2124 f0d0 ea22
000000c0: f776 269a 3062 ed24 39ed 9f9c 1b17 0ea7
000000d0: 0d48 832c ee48 5525 481e 6b25 3eaf 44a8
000000e0: 2046 31a3 c254 07a4 2089 0123 d651 7ba5
000000f0: e880 9523 0a9c 3da3 c7e9 0226 bce8 e226
00000100: 4ed1 6eac 2e44 7c29 0472 42ad 300a c027
00000110: 8076 9a25 68a1 4c9d f67f 1e9f 64be ac2c
00000120: 034f 9525 e8f1 b728 8bff 372b ca04 312d
00000130: 4cb9 45ac 982e 95a3 bdef c826 e955 1229
00000140: a473 eb9b 3330 14ab 032e a5a2 e24b 982c
00000150: aa9a 0d31 7885 56ab 6c4e 52ac 6c1b c1aa
00000160: 700a cda7 f756 0928 4cd0 532b c634 b1aa
00000170: e86b 0229 6273 2c29 961d 192b a3eb 0c2b
00000180: 2f59 c1a8 b856 c225 d09b 0d25 c557 99a5
00000190: 39e1 6a25 7190 4e9c d38d 1a9c 83bf 1429
000001a0: 8cff 6a23 6abb 4525 635a 6925 3772 eea7
000001b0: 7cc8 16a8 10c3 86a1 8580 6e25 93b7 61a4
000001c0: 93a0 229b b0fb 2f23 d296 089e 20cc 0aa7
000001d0: 90e8 2d2d e0e8 5d24 b3b6 3da7 2190 35a9
000001e0: 2a37 26a4 b3db 68a3 a57d b525 8ff2 77a6
000001f0: f046 9c24 e824 67a3 e479 ff26 4f2c c627
00000200: 1615 c026 781e 21a5 34e2 1a27 2ed9 8da5
00000210: 6030 18a4 ed5b 469c 06b9 ac1a 90b3 1d27
00000220: 7ea8 2d24 8756 80a4 e49e a325 a011 d627
00000230: 52d6 9427 c0b8 96a1 fc9e 1c25 5cc9 3ca3
00000240: e0ca 4199 c0a1 fda5 7bcf 951d 4c7f f727
00000250: 5a44 1dad 3e4c 5526 24e4 aca7 7845 11a8
00000260: ddbc 1024 e0b8 ff22 8070 e825 a948 dd26
00000270: 9ac3 38a4 934c 6ba3 34ac 24a7 ecfc 10a7
00000280: cc35 2b15 640b d593 2da8 8195 c3ea d413
00000290: d813 9f14 154f 280c 7008 ea0a 1264 7897
000002a0: acdd 0311 0e89 9193 044c 6193 60dd 0697
000002b0: 1b1c 9b15 9e3b cc93 5990 2195 807b bd10
000002c0: ebb8 7f0a 9d4a 6b14 e452 0f0b 12d1 8d96
000002d0: 70eb 611b 9fe3 c213 ecaa 5f15 f2e5 7518
000002e0: d492 e511 5da2 8c93 c4bb 8093 b50b 8e92
000002f0: 1a8d 2692 96df ad91 316b 2594 02ef 1996
00000300: 5851 2a94 f2ed 1310 3157 2493 300d 8490
00000310: 5209 6412 7e6f 9909 aec3 fd07 80d6 f893
00000320: d873 1e0f 6c1b 6a8f be55 1f91 98c7 d094
00000330: e682 da92 b61a 4e91 2253 8e92 5847 930f
00000340: ad2c c507 58b4 3f12 64ce 7c88 4200 6094
00000350: 8c01 4119 f887 4712 cb9e 1813 6641 b115
00000360: ff20 188f e1a1 4e91 6640 1691 eacf f991
00000370: 1441 940f 26ec 2790 c09e 3412 8c76 1492
00000380: 292c 84ae 7368 832b e68b 11ac 8616 16ac
00000390: e5d1 b92b edc0 8221 c7c0 a6a1 5eac 082f
000003a0: 2489 2629 7f7b 0b2b 043c 732b 5f3a fbad
000003b0: 34c6 1fad a043 19aa 50bf 9fa9 af96 8e2a
000003c0: d0b2 8ea0 8069 06a9 e04e e322 0e6e 27ad
000003d0: a4f3 8633 88ef ec2c c85a 1ead 6a9d b6ae
000003e0: ad84 31a9 9b71 74aa d5cc a62b d78a c82b
000003f0: 77ae f929 d4ff a0aa 5856 b6aa c06d 8a2d

feature.2.bias_ih_l0 f4 [128]
-1.14385635e-07 -3.0397334e-11 -1.7312765e-08 -5.606922e-11 -6.3073824e-11 8.288721e-21 1.6995337e-22 -5.9156946e-09
5.920168e-12 2.98871e-12 -1.5825051e-10 6.063073e-08 5.0410938e-09 1.5382647e-11 5.323773e-10 -4.605293e-12
6.858498e-23 -2.5758062e-10 2.4452874e-20 -3.5304033e-08 0.51678085 -1.6672809e-10 2.3024507e-08 5.464883e-06
-8.073567e-14 3.7614602e-11 -3.6455622e-10 5.9645944e-10 -1.3516606e-12 -3.7555857e-12 9.717724e-10 -8.7997165e-10
-4.5562118e-08 -1.8217698e-11 1.29592985e-08 -2.7677763e-11 -1.4939328e-11 6.5666658e-21 1.4419994e-22 -3.2195146e-08
3.104251e-12 2.8719449e-12 1.7703915e-11 1.4221943e-08 -1.7298566e-08 1.219175e-11 4.2725126e-10 -4.306114e-12
5.5271804e-23 -1.9105348e-10 -1.0775484e-20 2.3412445e-09 -0.19635855 -9.3047786e-10 1.6219916e-08 4.2739302e-06
-1.9975452e-13 6.8497924e-12 -1.4638422e-10 1.0457657e-10 -7.4609313e-13 -2.7983327e-12 -7.3809786e-10 1.1311885e-09
-1.972272e-06 -6.878781e-07 -6.0360103e-06 7.2067667e-07 1.3040092e-06 2.0908287e-11 3.5091526e-12 -0.00010570092
1.3047685e-07 -4.940029e-07 -4.0267523e-09 -4.56614e-05 5.441295e-06 -9.741631e-07 -5.274813e-06 -2.0100172e-08
1.9590976e-12 9.0413636e-07 2.9927389e-12 -2.1960706e-05 -0.08884791 5.21234e-07 1.6889104e-06 0.00048018416
4.39057e-08 -1.2656034e-07 9.495249e-08 -2.830941e-07 -5.0018855e-08 -3.9590294e-08 -7.796243e-07 -1.6915106e-05
-1.14403925e-07 -3.0397653e-11 -1.7312425e-08 -5.6070204e-11 -6.309196e-11 8.2887e-21 1.6995046e-22 -5.918764e-09
5.9204967e-12 2.9886926e-12 -1.582525e-10 6.06301e-08 5.0414375e-09 1.53827e-11 5.323771e-10 -4.6048894e-12
6.858482e-23 -2.5757704e-10 2.4453213e-20 -3.5304723e-08 0.53616244 -1.6671942e-10 2.3024352e-08 5.464911e-06
-8.07312e-14 3.761418e-11 -3.645509e-10 5.9645516e-10 -1.351647e-12 -3.755581e-12 9.717909e-10 -8.8001784e-10
00000000: 2ba4 f5b3 5bb0 05ae 2cb7 94b2 5498 76ae
00000010: 68b3 8aae cc91 1c1e 0576 4d1b 0043 cbb1
00000020: 224c d02c d04f 522c 8fff 2daf 1934 8233
00000030: ee35 ad31 a44e 872d b956 1230 cb08 a2ac
00000040: 0cd4 a51a 409b 8daf 6cf3 e61e 32a1 17b3
00000050: c04b 043f c951 37af 6dc7 c532 fd5e b736
00000060: f2cc b5a9 476e 252e ba6a c8af 1af4 2330
00000070: b53a beab 4f23 84ac 348f 8530 80e2 71b0
00000080: 14b0 43b3 9c3e a0ad 99a3 5e32 c874 f3ad
00000090: 6068 83ad e514 f81d b853 2e1b f046 0ab3
000000a0: 3771 5a2c 5c18 4a2c acb9 9b2d c454 7432
000000b0: f397 94b2 c37a 562d 45e2 ea2f 0782 97ac
000000c0: 97a3 851a c610 52af 0b8b 4b9e 9ce3 2031
000000d0: 3712 49be 8fc4 7fb0 f953 8b32 c868 8f36
000000e0: 52e7 60aa 7201 f12c 7ff3 20af 60f7 e52e
000000f0: ad01 52ab 48ea 44ac 05e3 4ab0 2878 9b30
00000100: 605b 04b6 a0a6 38b5 ef88 cab6 8674 4135
00000110: 6a05 af35 47e9 b72d 46ef 762c c0ab ddb8
00000120: 3419 0c34 9f9b 04b5 b05b 8ab1 8e84 3fb8
00000130: 5e94 b636 fdbf 82b5 4cfe b0b6 bfa8 acb2
00000140: f7db 092c c7b3 7235 6498 522c 4238 b8b7
00000150: e5f5 b5bd eeea 0b35 85ae e235 3ac1 fb39
00000160: d492 3c33 a4e4 07b4 afe8 cb33 28fc 97b4
00000170: 50d4 56b3 fd09 2ab3 6047 51b5 eae4 8db7
00000180: 39ae f5b3 b7b0 05ae 6db6 94b2 7099 76ae
00000190: 9ebd 8aae b291 1c1e 1f75 4d1b 005e cbb1
000001a0: 184f d02c 804f 522c 1e00 2eaf c033 8233
000001b0: f438 ad31 c34e 872d b556 1230 2805 a2ac
000001c0: f3d3 a51a bf9a 8daf 3ef4 e61e f4a1 17b3
000001d0: f141 093f 584f 37af 16c7 c532 3a5f b736
000001e0: 5eca b5a9 cd6d 252e fa69 c8af cdf3 2330
000001f0: 373a beab 4423 84ac da8f 8530 c0e5 71b0

feature.2.bias_hh_l0 f4 [128]
-1.14385635e-07 -3.0397334e-11 -1.7312765e-08 -5.606922e-11 -6.3073824e-11 8.288721e-21 1.6995337e-22 -5.9156946e-09
5.920168e-12 2.98871e-12 -1.5825051e-10 6.063073e-08 5.0410938e-09 1.5382647e-11 5.323773e-10 -4.605293e-12
6.858498e-23 -2.5758062e-10 2.4452874e-20 -3.5304033e-08 0.5167807 -1.6672809e-10 2.3024507e-08 5.464883e-06
-8.073567e-14 3.7614602e-11 -3.6455622e-10 5.9645944e-10 -1.3516606e-12 -3.7555857e-12 9.717724e-10 -8.7997165e-10
-4.5562118e-08 -1.8217698e-11 1.29592985e-08 -2.7677763e-11 -1.4939328e-11 6.5666658e-21 1.4419994e-22 -3.2195146e-08
3.104251e-12 2.8719449e-12 1.7703915e-11 1.4221943e-08 -1.7298566e-08 1.219175e-11 4.2725126e-10 -4.306114e-12
5.5271804e-23 -1.9105348e-10 -1.0775484e-20 2.3412445e-09 -0.19634324 -9.3047786e-10 1.6219916e-08 4.2739302e-06
-1.9975452e-13 6.8497924e-12 -1.4638422e-10 1.0457657e-10 -7.4609313e-13 -2.7983327e-12 -7.3809786e-10 1.1311885e-09
-1.972272e-06 -6.878781e-07 -6.0360103e-06 7.2067667e-07 1.3040092e-06 2.0908287e-11 3.5091526e-12 -0.00010570092
1.3047685e-07 -4.940029e-07 -4.0267523e-09 -4.56614e-05 5.441295e-06 -9.741631e-07 -5.274813e-06 -2.0100172e-08
1.9590976e-12 9.0413636e-07 2.9927389e-12 -2.1960706e-05 -0.04335195 5.21234e-07 1.6889104e-06 0.00048018416
4.39057e-08 -1.2656034e-07 9.495249e-08 -2.830941e-07 -5.0018855e-08 -3.9590294e-08 -7.796243e-07 -1.6915106e-05
-1.14403925e-07 -3.0397653e-11 -1.7312425e-08 -5.6070204e-11 -6.309196e-11 8.2887e-21 1.6995046e-22 -5.918764e-09
5.9204967e-12 2.9886926e-12 -1.582525e-10 6.06301e-08 5.0414375e-09 1.53827e-11 5.323771e-10 -4.6048894e-12
6.858482e-23 -2.5757704e-10 2.4453213e-20 -3.5304723e-08 0.536161 -1.6671942e-10 2.3024352e-08 5.464911e-06
-8.07312e-14 3.761418e-11 -3.645509e-10 5.9645516e-10 -1.351647e-12 -3.755581e-12 9.717909e-10 -8.8001784e-10
00000000: 2ba4 f5b3 5bb0 05ae 2cb7 94b2 5498 76ae
00000010: 68b3 8aae cc91 1c1e 0576 4d1b 0043 cbb1
00000020: 224c d02c d04f 522c 8fff 2daf 1934 8233
00000030: ee35 ad31 a44e 872d b956 1230 cb08 a2ac
00000040: 0cd4 a51a 409b 8daf 6cf3 e61e 32a1 17b3
00000050: bd4b 043f c951 37af 6dc7 c532 fd5e b736
00000060: f2cc b5a9 476e 252e ba6a c8af 1af4 2330
00000070: b53a beab 4f23 84ac 348f 8530 80e2 71b0
00000080: 14b0 43b3 9c3e a0ad 99a3 5e32 c874 f3ad
00000090: 6068 83ad e514 f81d b853 2e1b f046 0ab3
000000a0: 3771 5a2c 5c18 4a2c acb9 9b2d c454 7432
000000b0: f397 94b2 c37a 562d 45e2 ea2f 0782 97ac
000000c0: 97a3 851a c610 52af 0b8b 4b9e 9ce3 2031
000000d0: 340e 49be 8fc4 7fb0 f953 8b32 c868 8f36
000000e0: 52e7 60aa 7201 f12c 7ff3 20af 60f7 e52e
000000f0: ad01 52ab 48ea 44ac 05e3 4ab0 2878 9b30
00000100: 605b 04b6 a0a6 38b5 ef88 cab6 8674 4135
00000110: 6a05 af35 47e9 b72d 46ef 762c c0ab ddb8
00000120: 3419 0c34 9f9b 04b5 b05b 8ab1 8e84 3fb8
00000130: 5e94 b636 fdbf 82b5 4cfe b0b6 bfa8 acb2
00000140: f7db 092c c7b3 7235 6498 522c 4238 b8b7
00000150: d091 31bd eeea 0b35 85ae e235 3ac1 fb39
00000160: d492 3c33 a4e4 07b4 afe8 cb33 28fc 97b4
00000170: 50d4 56b3 fd09 2ab3 6047 51b5 eae4 8db7
00000180: 39ae f5b3 b7b0 05ae 6db6 94b2 7099 76ae
00000190: 9ebd 8aae b291 1c1e 1f75 4d1b 005e cbb1
000001a0: 184f d02c 804f 522c 1e00 2eaf c033 8233
000001b0: f438 ad31 c34e 872d b556 1230 2805 a2ac
000001c0: f3d3 a51a bf9a 8daf 3ef4 e61e f4a1 17b3
000001d0: d941 093f 584f 37af 16c7 c532 3a5f b736
000001e0: 5eca b5a9 cd6d 252e fa69 c8af cdf3 2330
000001f0: 373a beab 4423 84ac da8f 8530 c0e5 71b0
