Code/LSTM/LSTMModelOutputs/best_model.pth (torch, 177762 bytes, 15 tensors)

feature.0.weight_ih_l0 f4 [256, 15]
0	0x3d4dfb7c	0.050288662
1	0x3dc54007	0.09631353
2	0xbd452dab	-0.048139255
3	0xbc4ebd06	-0.012618309
4	0x3d9b4871	0.075821765
5	0x3dcc25d6	0.09968154
6	0xbd325947	-0.043542173
7	0xbd5a265e	-0.053259246
8	0x3c1e19d0	0.009649709
9	0x3cecf3c9	0.02892484
10	0x3cc07e88	0.023497835
11	0xbd80d8ff	-0.06291389
12	0x3c1ede03	0.009696486
13	0x3caea4df	0.021318851
14	0x3d6c7e43	0.0577376
15	0x3b16cc4b	0.0023009952
16	0x3d07c8c4	0.03315045
17	0x3db18366	0.086676404
18	0xbce64426	-0.028108668
19	0xbd47c590	-0.048772395
20	0xbb4a98f2	-0.0030913916
21	0xbd13916c	-0.036027357
22	0x3cc591fa	0.024117459
23	0x3b45c568	0.0030177478
24	0xbd4e8f7b	-0.050429802
25	0xbcd9c872	-0.026584838
26	0x3d7442a5	0.05963387
27	0x3da174e4	0.07883623
28	0xba075581	-0.00051625824
29	0x3d2991cb	0.041398805
30	0xbc37f268	-0.011227228
31	0x3cc7682a	0.024341661
32	0xbd245f73	-0.04013009
33	0xbc24b6a6	-0.010053312
34	0x3d1f8103	0.038941395
35	0xbdce484a	-0.10072382
36	0x3d7abf5c	0.06121765
37	0x3dbb02b0	0.09131372
38	0xbd8f15fc	-0.06986615
39	0x3d57b7ad	0.0526654
40	0xba438eca	-0.0007459937
41	0x3d92e311	0.07172216
42	0xbcaec382	-0.02133346
43	0x3d9bf105	0.0761433
44	0xbd33989c	-0.04384671
45	0x3d8c6e6f	0.06857001
46	0x3dbb65d6	0.09150283
47	0x3a648606	0.0008717481
48	0x3b9b2e2e	0.0047357297
49	0xbc4df87a	-0.012571448
50	0xbd604a15	-0.05475815
51	0xbca361b5	-0.019944051
52	0xbdc0f627	-0.0942195
53	0x3c662317	0.014046452
54	0xbdb7f443	-0.08982136
55	0x3c34a692	0.011026042
56	0xbda3dfac	-0.080016464
57	0x3c05048b	0.008118759
58	0xbdc66137	-0.09686511
59	0xbdab3d94	-0.083613545
60	0xbd357488	-0.044300586
61	0x3d8b4bb4	0.068015486
62	0xb2b3e350	-2.0941712e-08
63	0xbd385334	-0.045001224
64	0xbcbf60c2	-0.023361567
65	0xbbcaa36d	-0.0061840327
66	0x3d2fa287	0.042879608
67	0xbd95fc08	-0.07323462
68	0x3cd12c16	0.025533717
69	0xbdc3818e	-0.09546195
70	0x3d543da7	0.05181661
71	0x3d0b95b2	0.034078307
72	0x3de8affe	0.11361693
73	0x3da308ad	0.07960639
74	0x3c25cd15	0.010119696
75	0x3d420f05	0.047377605
76	0xbd71446a	-0.058903135
77	0xbaf74acc	-0.0018866896
78	0xbd42f858	-0.04760012
79	0x3d2f10cb	0.042740624
80	0x3baccd31	0.005273484
81	0x3df23852	0.118271485
82	0x3dd24f01	0.10268975
83	0xbd8f0ce3	-0.0698488
84	0xbd9104dc	-0.07081005
85	0xbd47e388	-0.048800975
86	0xbcac32ec	-0.021020375
87	0x3dd0ddb1	0.10198534
88	0x3d9f42ae	0.0777639
89	0xbc211118	-0.009830736
90	0xbdd0eb12	-0.10201086
91	0x3d80790d	0.062730886
92	0xbb263a9f	-0.002536453
93	0xbc7f69d9	-0.015589201
94	0x3d2bad17	0.04191312
95	0x3d1324d3	0.03592379
96	0x3c6e877e	0.014558671
97	0x3d315fca	0.043304242
98	0x3d0356e2	0.03206528
99	0xbd7f5587	-0.062337425
100	0x3d56fa2e	0.052484684
101	0x3d432fb4	0.047652915
102	0x3dd0295c	0.10164139
103	0xbdce7fc8	-0.10082966
104	0x3d1b775b	0.037955623
105	0x3d915810	0.07096875
106	0x3da14a79	0.07875533
107	0x35029e80	4.865942e-07
108	0xbd28557f	-0.04109716
109	0x3c261255	0.010136207
110	0x3ce2996b	0.027661046
111	0x3dbcd3cd	0.09220085
112	0x3cff1507	0.031137956
113	0xbcf47b3a	-0.029843915
114	0x3d31fae2	0.04345215
115	0x3c43b562	0.0119451005
116	0x3dde71dd	0.108615614
117	0x3db0f17f	0.08639812
118	0xbdb99250	-0.0906111
119	0x3d3366ea	0.04379932
120	0x3dd0f7d6	0.10203521
121	0xbcf414c8	-0.029795066
122	0x3dd15680	0.10221577
123	0xbd42a47b	-0.047520142
124	0xbb46edc8	-0.003035413
125	0x3dd962fa	0.106145814
126	0x3ca0793f	0.019589065
127	0xbc0d6c56	-0.008631786
128	0x3dbff1a7	0.093722634
129	0xbc6e3a34	-0.014540244
130	0xbd989d5e	-0.074518904
131	0xbdbf64b5	-0.0934538
132	0xbb4c7dfa	-0.0031203018
133	0xba6a2116	-0.0008931322
134	0x3daaac7f	0.08333682
135	0xbd61465f	-0.05499875
136	0x3d8f5a78	0.069996774
137	0xbd66ebd0	-0.056377232
138	0xbd45c53c	-0.0482838
139	0x3c6364df	0.01387903
140	0x3b4cdc0d	0.003125909
141	0xbc86cfa3	-0.01645643
142	0xbafb690c	-0.0019181087
143	0x3dcbc84a	0.099503115
144	0xbdc114f5	-0.09427825
145	0x3da64b66	0.0811985
146	0x3d28f4e3	0.041249167
147	0x3d85080c	0.064956754
148	0xbaade2dc	-0.0013266462
149	0x3dadad85	0.08480362
150	0x3d10cd8b	0.03535227
151	0xbd1332b5	-0.03593703
152	0xbd4daa9d	-0.050211538
153	0xbd909766	-0.07060127
154	0xbd35917b	-0.044328194
155	0x3d2aa548	0.04166153
156	0xbcae4b20	-0.021276057
157	0x3d690d4c	0.056897447
158	0xbd0dcaf8	-0.034617394
159	0x3de8fe90	0.11376679
160	0x3dd44266	0.10364227
161	0x3d40c6e5	0.04706468
162	0x3d36a3c8	0.044589788
163	0xbd86d21c	-0.06583044
164	0x383dade0	4.5223045e-05
165	0x3d8a72f3	0.06760206
166	0x3d4cb135	0.049973685
167	0xb58db00c	-1.0556555e-06
168	0x3dda9bd2	0.106742516
169	0xbd2f2bd6	-0.042766415
170	0x3d110c83	0.035412323
171	0xbbdc88e6	-0.0067301868
172	0xbd1d7148	-0.03843811
173	0xbd5526ba	-0.052038886
174	0xbc1d0f77	-0.009586207
175	0x3db006c8	0.085950434
176	0x3dd6ddf4	0.10491553
177	0xbdc76be2	-0.09737374
178	0x3c056aa9	0.008143106
179	0xbd74ef7a	-0.059798695
180	0x3c5427a4	0.012948904
181	0x3d698383	0.057010185
182	0x3d7808ab	0.06055514
183	0xb98a65d7	-0.00026397288
184	0x3dbf3222	0.09335734
185	0x3d1b59c2	0.037927397
186	0xbdc6503d	-0.09683273
187	0xbd7e9ddc	-0.062162265
188	0xbb4137b8	-0.0029482674
189	0x3d11fc93	0.035641264
190	0xbd97ab43	-0.074057125
191	0x3daa5a53	0.08318009
192	0xbc3d0434	-0.011536647
193	0x3bf2c4d9	0.00740872
194	0xbca15e3e	-0.019698258
195	0x3d2a63c3	0.041599046
196	0xbda533c9	-0.08066518
197	0x3d7c2c92	0.061565943
198	0x3c86d2a7	0.016457869
199	0x3d5819ae	0.052758865
200	0xbca838c9	-0.02053489
201	0xbd8be529	-0.06830818
202	0x3dcd2b68	0.10018045
203	0x3d283ea8	0.04107538
204	0xbd69b07d	-0.057053078
205	0x3c8725be	0.016497489
206	0xbc9cb1ed	-0.01912781
207	0x3d4b3bb8	0.0496175
208	0x3da46f1d	0.08029006
209	0x3dc92273	0.09821024
210	0xba414161	-0.0007372108
211	0x3acb6db1	0.0015520361
212	0x3da13eb2	0.07873286
213	0x3bbd7a3e	0.0057823947
214	0xbb9c89a4	-0.00477715
215	0xbd59671d	-0.053076852
216	0x3dba0708	0.09083372
217	0x3db054b9	0.086099096
218	0x3ca7eade	0.020497736
219	0x3c38e971	0.0112861255
220	0x3dda26d2	0.10651936
221	0x3da17da5	0.07885293
222	0x3da201b2	0.079104796
223	0xbd7ffdc1	-0.062497858
224	0xbd6f3319	-0.05839834
225	0x3cb233c1	0.021753194
226	0x3d845cea	0.064630345
227	0xbd5396a1	-0.051657323
228	0xbd9f3a9b	-0.0777485
229	0xbdafbe56	-0.085812256
230	0x3d287244	0.041124597
231	0xbd35d960	-0.044396758
232	0x3be47659	0.006972116
233	0x3d97e081	0.074158676
234	0x3dc6ca05	0.09706501
235	0x3cb5d5c7	0.022196664
236	0xbcaf397e	-0.02138972
237	0xbd90a2a8	-0.07062274
238	0x3dc60ca9	0.096703835
239	0x3d280b63	0.041026484
240	0xbd493eec	-0.049132273
241	0xbdd8b859	-0.105820365
242	0x3c82eed4	0.015983023
243	0xbdd32a42	-0.103107944
244	0xbd974930	-0.07387006
245	0x3da48091	0.080323346
246	0xbc8101cf	-0.015747933
247	0xbbe5a7ac	-0.0070085134
248	0x3c98d6ef	0.018657176
249	0xbc81eab2	-0.015858982
250	0x3c2eb6a6	0.010663664
251	0x3c446f1a	0.011989379
252	0xbd7de9fa	-0.061990716
253	0xbd03a540	-0.032140017
254	0x3d109688	0.035299808
255	0xbce07b03	-0.027402407

feature.0.weight_hh_l0 f4 [256, 64]
0	0x3cc48f74	0.023994185
1	0x3a166211	0.0005736659
2	0xbdb2b9c8	-0.08726841
3	0xbdc58c60	-0.09645915
4	0xbb89a92c	-0.004201075
5	0xbd96df1e	-0.07366775
6	0x3ce210e1	0.02759594
7	0x3c481ee4	0.012214396
8	0xbd299398	-0.041400522
9	0x3a1bca88	0.000594296
10	0xbd2d9e97	-0.04238757
11	0x3ca8da54	0.02061192
12	0xbd9d3f25	-0.076780595
13	0xbc89f446	-0.016840111
14	0x3cf18512	0.029482398
15	0x3c839a6a	0.016064841
16	0xbcead2bb	-0.028664937
17	0xbcc9b293	-0.024621284
18	0xbb02befa	-0.0019950257
19	0xbd9ed673	-0.07755747
20	0xbbb72f65	-0.0055903667
21	0x3d4b78ad	0.049675632
22	0x3d50d595	0.050984938
23	0xbdc74069	-0.09729082
24	0x3dc4bd3b	0.09606405
25	0x3d51c907	0.051217105
26	0x3a176ff4	0.0005776875
27	0xbdd4b4b2	-0.103860274
28	0xbd139cd8	-0.03603825
29	0x3b3fb6de	0.0029253284
30	0xbd7450e3	-0.059647452
31	0xbd854c09	-0.06508643
32	0xbd96b2aa	-0.07358296
33	0xbdbeed2c	-0.09322581
34	0x3dc29376	0.09500782
35	0x3dd1419e	0.102175936
36	0x3c700e3b	0.01465183
37	0x3cf2385d	0.029567892
38	0xbb3c6ee2	-0.0028752615
39	0xbdbf8451	-0.09351409
40	0xbd7ce4aa	-0.06174151
41	0x3ceb2fbf	0.02870929
42	0x3cf1669f	0.029467879
43	0xbdc7efaf	-0.09762513
44	0x3bd61904	0.006533744
45	0x3af59025	0.0018734975
46	0xbd4e63a4	-0.050387993
47	0x3cfbdbdd	0.030744487
48	0xbd84992d	-0.064745285
49	0x3cc44cf5	0.023962477
50	0xbd6182af	-0.05505627
51	0x3d4228ac	0.04740207
52	0xbcf5443c	-0.029939763
53	0xbd8c8519	-0.06861324
54	0xbd8a6926	-0.06758337
55	0xbdd08537	-0.10181659
56	0x3d894f88	0.067046225
57	0x3d29440e	0.041324668
58	0xbdcddf6e	-0.100523815
59	0x3ce1f71d	0.027583653
60	0xbdd32c60	-0.10311198
61	0xbd424543	-0.047429334
62	0xbd9cc620	-0.07654977
63	0xba57519c	-0.000821376
64	0xbd93ef9f	-0.072234385
65	0xb8aa3408	-8.115923e-05
66	0xbc5a159b	-0.013310815
67	0x3dceeb34	0.10103455
68	0x3cc3fcc6	0.023924243
69	0xbae46ddf	-0.0017427764
70	0x3dcf9e21	0.101375826
71	0xba30886d	-0.0006734196
72	0x3d1ba0a5	0.037995
73	0x3be79dce	0.0070683723
74	0xba454626	-0.00075254065
75	0x3901bd28	0.00012372865
76	0xbd48d2ad	-0.04902904
77	0xbd01b430	-0.03166598
78	0xbad835a9	-0.0016495484
79	0xbbf244c9	-0.0073934537
80	0x3dc7e865	0.097611226
81	0xbc8400fb	-0.016113749
82	0x3db46f08	0.0881024
83	0xbca43bc1	-0.020048024
84	0xbc4e0e04	-0.012576584
85	0x3d592078	0.05300948
86	0xb95658b0	-0.00020441669
87	0x3a866d1f	0.0010255909
88	0x3c031f38	0.008003049
89	0xbd0a8bad	-0.03382461
90	0x3d5beaee	0.053690843
91	0x3dbaa517	0.0911352
92	0x3db09874	0.08622828
93	0xbb9abee5	-0.0047224634
94	0x3ddb9c12	0.107231274
95	0xbd76d15b	-0.06025825
96	0xbdd7c6e6	-0.10535984
97	0xbd2af593	-0.041738104
98	0xbca9b235	-0.020714859
99	0x369c74f8	4.6627792e-06
100	0x3c8aa694	0.016925134
101	0xbdbf6e85	-0.09347252
102	0x3d6dc0d1	0.058045212
103	0xbd902620	-0.07038522
104	0xbcf5bafa	-0.029996384
105	0xbd9c0131	-0.07617415
106	0x3c3f15cc	0.011662912
107	0x3cc6ac2b	0.024252018
108	0x3cce252c	0.02516421
109	0xbd447849	-0.047966275
110	0xbd91044f	-0.070809
111	0xbd678f21	-0.056532983
112	0xbd0c6f0a	-0.034285583
113	0x3db23017	0.08700579
114	0xbd189109	-0.03724769
115	0x3dc673df	0.096900694
116	0xbd965772	-0.073408976
117	0xbda9a15f	-0.08282732
118	0xbd8b9154	-0.068148285
119	0x3db30e27	0.08742934
120	0x3d54eff0	0.051986635
121	0x3db63ddf	0.0889852
122	0x3d3ef944	0.046624437
123	0xbcfb8a9f	-0.030705748
124	0xbd90cf3f	-0.07070779
125	0x3cfb8b2f	0.030706016
126	0x3d55b3a4	0.05217327
127	0xb8daed6f	-0.000104392755
128	0x3b6db106	0.0036268844
129	0x3dbe0e3f	0.09280061
130	0xbdd73c19	-0.105095096
131	0xbd4d449c	-0.05011426
132	0x3dcab6d5	0.09898154
133	0x3d194194	0.037416056
134	0xbc62dabf	-0.013846098
135	0xbcaf29b6	-0.021382194
136	0x3d4bce0b	0.049757045
137	0xbd49bc30	-0.049251735
138	0xbdcde119	-0.100526996
139	0x3d813b5b	0.06310149
140	0x3b9d0c1d	0.004792704
141	0x3dbab097	0.09115713
142	0x397719e1	0.00023565396
143	0xbd0715dc	-0.03297983
144	0xbc5f4e47	-0.013629503
145	0xbdb75f3d	-0.08953712
146	0xbd8ad1b5	-0.0677828
147	0xbdcaf16d	-0.099093296
148	0x3ad0b7bf	0.0015923901
149	0xbb0a3ae0	-0.002109222
150	0x3cfef5f1	0.031123133
151	0xbdc9162b	-0.09818681
152	0x3d604dc5	0.054761667
153	0x3d8d7e9a	0.06908913
154	0xbdaed33e	-0.08536385
155	0x3b5a756e	0.0033334154
156	0xbd9c9686	-0.076458976
157	0x3bb09055	0.0053882995
158	0x3d783652	0.06059868
159	0x3cd4e489	0.02598788
160	0xbdaaa939	-0.08333058
161	0x3cb35b10	0.021894008
162	0x3d5dc545	0.05414321
163	0x3da915da	0.08256121
164	0x3dd3a5cd	0.10334358
165	0x3dc07773	0.09397783
166	0x3dc784e2	0.09742142
167	0xbd0195f7	-0.03163716
168	0x3da728c0	0.08162069
169	0x3db15e2a	0.086605385
170	0x3d0d1fbb	0.03445409
171	0xbcf14fb8	-0.029456958
172	0xbdd3719c	-0.10324404
173	0xbdbc17d0	-0.091842294
174	0xbd1965f5	-0.03745075
175	0x3dab7131	0.08371199
176	0x3c4a1ff4	0.01233672
177	0xbc7c9ba3	-0.015417966
178	0x3dcbe0f3	0.09955015
179	0x3cfe75b7	0.03106199
180	0x3aa69d93	0.0012711756
181	0xbc1f0082	-0.009704711
182	0x3d986763	0.074415945
183	0x3bfadcda	0.007655722
184	0x3d01b18e	0.03166347
185	0x3a08ed65	0.0005223363
186	0x3cbed230	0.023293585
187	0xbc76b8b6	-0.015058687
188	0xbdda9f0d	-0.10674868
189	0x3bd48194	0.0064851735
190	0xbd9dd94d	-0.077074625
191	0x39ab4356	0.0003266583
192	0xbcaff154	-0.021477379
193	0x3daab215	0.08334748
194	0x3ce15f85	0.027511368
195	0xbcf27823	-0.029598301
196	0xbc401f9b	-0.011726285
197	0xbd8b03ca	-0.06787832
198	0xbd289081	-0.041153435
199	0xbbe643cf	-0.0070271264
200	0x3db3a587	0.08771806
201	0xbccceb37	-0.025014503
202	0xbd4c82eb	-0.04992954
203	0x3d9968e1	0.07490707
204	0xbdb7a54c	-0.08967075
205	0x3d0708e3	0.03296746
206	0xba5bd753	-0.0008386273
207	0x3d7c77ea	0.061637796
208	0xbccb6e74	-0.024832942
209	0x3adf1293	0.0017019085
210	0x3ae896e0	0.001774516
211	0xbc1003b1	-0.008789943
212	0x3d32ca41	0.043649916
213	0xbd98ff12	-0.07470526
214	0x39709c4d	0.0002294641
215	0x3dc45c69	0.09587938
216	0xbd8306c5	-0.063977756
217	0x3d6a4da2	0.057202943
218	0x3d39f639	0.04540083
219	0x3b03d687	0.0020116882
220	0x3d9fcac0	0.07802343
221	0x3dc9a42c	0.098457664
222	0xbd6e23f8	-0.05813977
223	0xbc95c8e6	-0.018284272
224	0xbb9e0244	-0.0048220474
225	0xb94a6318	-0.00019301136
226	0xbd997c87	-0.07494455
227	0xbd7f8fa6	-0.062392853
228	0x3ac69f66	0.0015153706
229	0xbb2eb616	-0.0026658825
230	0xbd292042	-0.04129053
231	0xbd183b81	-0.037166122
232	0x3bbddace	0.005793906
233	0xbd47c388	-0.048770458
234	0x3b1bbe9a	0.002376473
235	0xbdd76603	-0.10517504
236	0xbcee712a	-0.029106695
237	0xbc302bb4	-0.010752607
238	0xbd7d33a3	-0.061816823
239	0x3d574005	0.05255129
240	0x3d297485	0.041370887
241	0xbd6baa5e	-0.05753552
242	0xbc488b51	-0.012240247
243	0x3c32c106	0.010910278
244	0xbc90d05e	-0.017677482
245	0xba851e62	-0.001015615
246	0xbdaf33b1	-0.08554781
247	0xbd9be359	-0.076117225
248	0xb9422891	-0.00018516394
249	0xbbd0733f	-0.0063613947
250	0x3b8d1be7	0.0043063047
251	0x3b355e17	0.002767449
252	0x3dd4c463	0.1038902
253	0xbdc87a9b	-0.0978901
254	0xbd651398	-0.05592689
255	0xba4c4ce8	-0.00077934423

feature.0.bias_ih_l0 f4 [256]
0	0x3b741004	0.0037240991
1	0xbd2b45e9	-0.04181472
2	0xbb78bbac	-0.0037953658
3	0xbd916fe6	-0.07101421
4	0x3d034542	0.03204847
5	0x3d990b44	0.07472852
6	0x3bc37c49	0.0059657437
7	0x3cd87e91	0.026427539
8	0x3dabc48e	0.08387099
9	0xbc2e4f1a	-0.0106389765
10	0xbd29324e	-0.04130774
11	0x3d9b914d	0.07596073
12	0x3d6e8004	0.058227554
13	0x3ddc8e76	0.1076936
14	0xbd71d7b3	-0.059043597
15	0x3da0350b	0.07822617
16	0xbaeab46f	-0.0017906557
17	0xbce5d64a	-0.028056283
18	0x3cf30983	0.029667621
19	0xbd615d59	-0.055020664
20	0x3b4c5d25	0.0031183448
21	0x3b9ed985	0.0048477077
22	0x3dbbd205	0.091709174
23	0x3ccaa0aa	0.024734814
24	0x3dc1069b	0.09425088
25	0x3d0cee49	0.034406934
26	0xbdd86b31	-0.1056732
27	0x3dcf6b73	0.10127916
28	0x3da22072	0.07916345
29	0x3d303e47	0.043028142
30	0x3d31a6ef	0.04337209
31	0x3d499700	0.04921627
32	0x3d7607fa	0.0600662
33	0x3db3f3a1	0.08786703
34	0xbda4db28	-0.08049613
35	0xbbe1378a	-0.006873076
36	0xbda4c35a	-0.08045073
37	0x3c956d61	0.018240632
38	0x3c1183a5	0.008881484
39	0xb9b2b150	-0.00034082914
40	0x3d8da519	0.069162555
41	0x3c9fbbc2	0.01949871
42	0x3d375000	0.04475403
43	0xbac1a817	-0.0014774826
44	0x3d436547	0.047704007
45	0x3d41c3ee	0.047305994
46	0x3db4a7e1	0.08821083
47	0x3dceef2e	0.10104214
48	0x3d4eb611	0.0504666
49	0x3d539455	0.051655132
50	0x3d83349d	0.064065196
51	0xbb52a707	-0.0032143013
52	0x3cf66d4a	0.03008141
53	0x3dccdcf2	0.100030795
54	0x3d1cc066	0.038269423
55	0xbd14c937	-0.036324706
56	0xbcfc02c5	-0.03076304
57	0x3dd2e155	0.10296885
58	0xbdb8464d	-0.08997784
59	0x3dc84bdb	0.09780093
60	0x3c2aae58	0.010417543
61	0x3d781a52	0.060571976
62	0x3cdce291	0.026963504
63	0x3db4cf19	0.08828563
64	0xbd92f13f	-0.0717492
65	0x379585f4	1.7824561e-05
66	0xbcfa2c8a	-0.030538816
67	0xbc41ee22	-0.01183656
68	0x3c692bd1	0.014231638
69	0x3d11039e	0.03540384
70	0xbcaeceb1	-0.021338793
71	0xbd43cd61	-0.047803286
72	0xbd266d7c	-0.040631756
73	0xbdd25416	-0.10269944
74	0x3b47a9af	0.003046613
75	0xbbed4dde	-0.0072419485
76	0x3dda2eff	0.10653495
77	0x3d5262d8	0.051363796
78	0xbdb46e83	-0.08810141
79	0xbd83de04	-0.064388305
80	0x3d6fac78	0.05851409
81	0x3db95bcc	0.09050712
82	0xbd09c4e9	-0.033635054
83	0xbca5d9a0	-0.020245373
84	0xbd03d09b	-0.032181364
85	0x3d514991	0.05109555
86	0xbc22ec22	-0.009943994
87	0x3d8a1c52	0.06743683
88	0x3d722c83	0.05912448
89	0x3db26e7b	0.08712479
90	0x3c1269e9	0.008936384
91	0x3c7da809	0.015481957
92	0x3cfdcb2f	0.030980675
93	0x3c44e8a2	0.012018355
94	0x3cd639cf	0.026150612
95	0xbcc5f302	-0.024163727
96	0xbdb633be	-0.08896588
97	0xbcce0afa	-0.025151718
98	0xbcc3924b	-0.023873469
99	0xbbb8e891	-0.0056429585
100	0x3a44c070	0.0007505482
101	0x3cf83ecb	0.03030338
102	0x3da7b2d2	0.08188404
103	0xbcb8ac46	-0.022543084
104	0xbcf621ca	-0.030045409
105	0x3c5f1355	0.013615449
106	0x3cf10718	0.029422328
107	0x3d70c509	0.058781657
108	0x3dd62409	0.10456092
109	0xbdad6c1f	-0.08467888
110	0x3c7d1073	0.015445816
111	0x3d6ad452	0.05733139
112	0x3ddf7df5	0.10912696
113	0xba9e7a07	-0.001209081
114	0x3d5914a3	0.052998196
115	0xbdb9b4eb	-0.090677105
116	0x3dcd9050	0.10037291
117	0xbcd3813a	-0.025818456
118	0xbd173549	-0.03691605
119	0xbcf03ab3	-0.029324865
120	0x3b644df9	0.0034836514
121	0x3dc68d17	0.096948795
122	0x3dae58b8	0.085130155
123	0x3d86a528	0.0657447
124	0xbc93d2cd	-0.018044854
125	0xbc45f66b	-0.012082676
126	0xbdc70edc	-0.09719631
127	0x3d0ff759	0.035148
128	0xbd69f2be	-0.057116263
129	0x3d8934aa	0.06699498
130	0x3d3bf35a	0.045886375
131	0x3da008b0	0.07814157
132	0xbe0a054b	-0.13478582
133	0xbdbbae50	-0.09164107
134	0x3dd9498f	0.10609733
135	0x3d191697	0.03737506
136	0x3dbba28f	0.09161865
137	0x3e084b5b	0.13309996
138	0x3c194a61	0.009356112
139	0x3daa40c6	0.08313136
140	0x3bb2e332	0.0054592127
141	0xbd317ec7	-0.043333795
142	0x3d9cf99b	0.07664796
143	0x3d2fe48d	0.042942572
144	0xbdeb6cb6	-0.11495344
145	0x3db7db37	0.08977359
146	0xbcd0cc84	-0.025488146
147	0x3dab0d05	0.08352093
148	0xbdb199f0	-0.086719394
149	0x3de8d264	0.11368254
150	0x3d8c1921	0.068407305
151	0x3d75a0a7	0.059967663
152	0xbd44cbf4	-0.048046067
153	0x3ddc0f16	0.10745065
154	0x3dcecb68	0.100973904
155	0x3ddd6e11	0.10812009
156	0x3daad5a1	0.08341528
157	0x3d40db17	0.04708394
158	0xbdee89b7	-0.11647361
159	0xbd8e35ff	-0.06943893
160	0xbdf4ed23	-0.11959293
161	0xbd36cb7b	-0.044627648
162	0x3db86c63	0.09005048
163	0xbdf326d9	-0.11872644
164	0xbda605c1	-0.08106566
165	0xbdd3f50a	-0.10349472
166	0xbd7149d3	-0.058908295
167	0xbce319d1	-0.027722271
168	0x3bfdffa5	0.0077514225
169	0xbbcfee61	-0.0063455557
170	0x3e0a35e9	0.13497128
171	0x3d90769b	0.07053872
172	0xbdac733f	-0.08420419
173	0x3e0932be	0.13398263
174	0x3d83f3e7	0.06443005
175	0x3d504daa	0.050855316
176	0x3e0c199a	0.13681641
177	0xbc51fc0e	-0.012816442
178	0xbda8af60	-0.08236575
179	0x3d51b76e	0.051200323
180	0x3d6aa00a	0.05728153
181	0xbddb087b	-0.10694977
182	0xbd62dd4d	-0.05538683
183	0x3cbca4f6	0.023027878
184	0x3dff7f5d	0.124754645
185	0x3c37869b	0.011201526
186	0xbdef1047	-0.116730265
187	0x3d858234	0.06518975
188	0xbd7ab42a	-0.061206974
189	0x3dae20cc	0.08502349
190	0xbdd4fe1f	-0.10400032
191	0x3d2e9e52	0.042631455
192	0x3d5029bc	0.05082105
193	0xbb0d044c	-0.0021517454
194	0x3c9eef0b	0.019401094
195	0x3d8ebb66	0.06969337
196	0x3dd356fb	0.103193246
197	0x3d8f3f1e	0.069944605
198	0x3c8b31ec	0.016991578
199	0x3cf6054b	0.03003182
200	0xbcc5a011	-0.024124177
201	0x3d87d460	0.06632304
202	0x3db7f0bb	0.089814626
203	0x3cdfefda	0.02733605
204	0x3d76deea	0.06027118
205	0x3d04ff6f	0.032470163
206	0x3dc30520	0.09522462
207	0x3db4df21	0.08831621
208	0xbd8e6bee	-0.0695418
209	0xbdaa1522	-0.08304812
210	0xbd8dc7e6	-0.06922893
211	0xbcccb802	-0.024990086
212	0x3dcb55f6	0.09928505
213	0x3d8548b6	0.06508009
214	0x3da37753	0.07981744
215	0x3d0ad4b9	0.033894274
216	0xbd393a7f	-0.0452218
217	0xbcd407df	-0.02588266
218	0xbc1f1cf2	-0.009711491
219	0xbd6bbed3	-0.05755503
220	0x3bfc65b0	0.007702552
221	0x3dbe4e2b	0.09292253
222	0xbcf88a57	-0.030339403
223	0xbc04fff8	-0.008117668
224	0xbb9fe05d	-0.004879041
225	0x3dbc16a4	0.09184006
226	0x3de335cf	0.110942475
227	0x3dbd0a88	0.09230524
228	0xbd169aee	-0.036768846
229	0xbdaad9aa	-0.083422974
230	0x3d7e2bbc	0.062053427
231	0xbd4a15ee	-0.04933732
232	0xbd5fb8a4	-0.054619446
233	0xbd1d61a3	-0.03842319
234	0x3d82e252	0.063908234
235	0x3d88ff5e	0.066893324
236	0xbcc99ed2	-0.024611864
237	0x3ccbc659	0.024874853
238	0x3d642941	0.055703405
239	0xbca754b1	-0.020426126
240	0xbc839c65	-0.016065786
241	0xbcee4a56	-0.02908818
242	0xbaf1d64c	-0.0018450706
243	0xbd9407f0	-0.072280765
244	0x3c8f89ed	0.017521823
245	0xbd90998b	-0.07060536
246	0x3db29979	0.08720679
247	0xbcd4fc56	-0.02599923
248	0x3d8099bc	0.062793225
249	0x3c7461a2	0.014915856
250	0x3cd8ebf7	0.026479704
251	0x3cc4402b	0.023956379
252	0xbd0cfa39	-0.03441832
253	0xbc4ba203	-0.012428763
254	0x3d6de25c	0.0580772
255	0xbb73a2e0	-0.0037175938

feature.0.bias_hh_l0 f4 [256]
0	0x3c139969	0.009008744
1	0x3d4d91d6	0.050187908
2	0xbd9d6521	-0.076853044
3	0xbd990d72	-0.074732676
4	0x3cdaac20	0.026693404
5	0xbcd887da	-0.026431967
6	0x3da3a133	0.07989731
7	0xbd71bab2	-0.059015937
8	0x3d8f4c6d	0.06996999
9	0xbd6578a5	-0.05602326
10	0x3dd620bb	0.104554616
11	0x3b55446f	0.003254201
12	0x3db451b6	0.088046476
13	0xbd7ec5cb	-0.06220035
14	0x3ddde471	0.10834587
15	0x3d58f6cf	0.05296975
16	0x3d8bb358	0.068213165
17	0xbb643aab	-0.0034825008
18	0xbbb14db3	-0.005410874
19	0x3c85fe5a	0.016356636
20	0x3b32f413	0.0027306124
21	0x3d65a889	0.05606893
22	0x3c9682fc	0.018373005
23	0x3c98c652	0.018649254
24	0xbdd0a83b	-0.101883374
25	0x3de313d8	0.11087769
26	0x3cbc0004	0.022949226
27	0x3dccac15	0.099937595
28	0xbdceda21	-0.101001985
29	0x3cc608fd	0.024174208
30	0x3dbb5b60	0.09148288
31	0x3b27cda2	0.0025604744
32	0xbd13b81d	-0.036064256
33	0xbd934a95	-0.0719196
34	0x3d9ab82c	0.07554659
35	0xbd0dbf9b	-0.034606557
36	0x3d1fdbd8	0.03902802
37	0xbd718479	-0.058964226
38	0x3dca0e98	0.09866065
39	0xbdcede1b	-0.10100957
40	0xbcb7c33d	-0.022431964
41	0x3cb5f573	0.022211766
42	0x3ca6afa5	0.020347426
43	0xbda84359	-0.082159705
44	0xbd99f4ce	-0.07517396
45	0x3dcbc587	0.09949785
46	0x3b93bdb0	0.0045086965
47	0x3d9390c6	0.07205348
48	0xbd48c0c3	-0.049011957
49	0xbc2e60aa	-0.010643164
50	0x3d2760d2	0.04086382
51	0x3b5f58f5	0.0034080122
52	0xbd2993ec	-0.041400835
53	0x3d4bb51f	0.049733277
54	0x3dc4d814	0.09611526
55	0xbd826f3f	-0.06368875
56	0x3d0bc0d3	0.03411944
57	0x3da3c4f5	0.07996551
58	0xbdaeaa08	-0.08528525
59	0x3deced31	0.11568678
60	0xbc48b992	-0.012251275
61	0x3da879ef	0.08226382
62	0xbd95a7f1	-0.07307423
63	0x3d564bcd	0.052318383
64	0x3bf8d5a3	0.007593827
65	0x3c0ae444	0.008477274
66	0xbdc8e959	-0.098101325
67	0x3c104f2e	0.00880794
68	0x3d92f0dc	0.071748465
69	0x3da8fccd	0.08251343
70	0xbdcbb162	-0.099459425
71	0x3c5eb763	0.0135935275
72	0xbdc84e85	-0.097806014
73	0xbda68a23	-0.08131816
74	0xbdb0e049	-0.08636529
75	0xbd5e01f2	-0.054201074
76	0x3d95c29e	0.07312511
77	0xbd7afa1e	-0.061273687
78	0xbcec7111	-0.028862508
79	0xbd9ad2a1	-0.075597055
80	0x3d3dea1d	0.046365846
81	0xbdd8b53d	-0.105814435
82	0xbd879013	-0.06619277
83	0x3db2f163	0.08737447
84	0x398bdef4	0.0002667826
85	0x3c92cbf1	0.017919512
86	0x3b680891	0.0035405497
87	0x3cb5d3a4	0.022195645
88	0xbda6c036	-0.0814213
89	0x3d6a9f68	0.057280928
90	0x3d8e6da3	0.06954505
91	0x3d00d901	0.03145695
92	0x3d8319d0	0.06401408
93	0xbbf4c1a3	-0.0074693724
94	0x3dbb31a4	0.091403276
95	0x3ccfaf44	0.025352128
96	0x3b24e16d	0.0025158778
97	0x3c71c57a	0.014756555
98	0xbd458135	-0.048218925
99	0xbcc9e7aa	-0.024646599
100	0xbb965548	-0.004587803
101	0x3d342c56	0.043987595
102	0xbc1ebbd2	-0.009688335
103	0x3da58b74	0.08083239
104	0x3c182a6f	0.009287461
105	0xbd8f2219	-0.069889255
106	0xbdc6eacb	-0.09712752
107	0xbda1526f	-0.07877051
108	0x3c05d13c	0.008167561
109	0xbdd5f136	-0.10446398
110	0x3d4fd518	0.05074033
111	0xbcb36d6e	-0.021902766
112	0xbd8c3a4b	-0.06847056
113	0x3d9edb4f	0.077566735
114	0x3daecd64	0.08535269
115	0xbdac6b55	-0.084189095
116	0x3bd0e932	0.0063754553
117	0xbc842da7	-0.01613505
118	0x3d1d7e38	0.03845045
119	0x3a0038c1	0.00048912695
120	0xbd403644	-0.04692675
121	0x3d9baedb	0.076017104
122	0x3ccbcdfe	0.024878498
123	0x3d9867f6	0.07441704
124	0x3dc79935	0.09746019
125	0x3ca52742	0.020160321
126	0x3d5c6f45	0.053817052
127	0x3ca7b564	0.020472236
128	0x3c0487c2	0.008089008
129	0xbd68c306	-0.056826614
130	0xbc824db1	-0.015906187
131	0x3ba233c2	0.0049500177
132	0x3d32a75b	0.043616634
133	0x3cd28347	0.025697364
134	0xbe07215a	-0.13196316
135	0x3ca7624d	0.020432616
136	0x3d207367	0.039172556
137	0xbdd34d56	-0.10317485
138	0xbded1571	-0.11576355
139	0x3ce956b6	0.02848373
140	0xbd47a537	-0.048741546
141	0x3e0a15b1	0.13484837
142	0x3d17e4d6	0.03708347
143	0xbdbbbf94	-0.091674
144	0xbd104e6d	-0.035231043
145	0x3ddf6f46	0.109098956
146	0xbd11be54	-0.0355819
147	0xbd955b4a	-0.07292803
148	0xbdc015d4	-0.093791634
149	0xbd34b633	-0.04411907
150	0x3d918657	0.071057014
151	0x3b951eff	0.004550814
152	0xbd0154d3	-0.031575035
153	0x3d636daa	0.055524506
154	0xbd6ee6e3	-0.05832566
155	0x3d1e2716	0.038611494
156	0x3dc09e2e	0.094051704
157	0xbd4dc6df	-0.050238486
158	0xbdc56580	-0.096385
159	0x3da4fb4d	0.08055744
160	0x3d8b4b91	0.068015225
161	0xbc7e27bf	-0.015512406
162	0xbd5680d0	-0.05236894
163	0xbdf9446a	-0.12171252
164	0x3df30197	0.118655376
165	0xbde33be0	-0.110954046
166	0x3c23e336	0.010002902
167	0xbc56dda5	-0.013114368
168	0xbdba0213	-0.09082427
169	0xbceaa7a7	-0.028644396
170	0x3e0a0ace	0.13480684
171	0xbb5b1cad	-0.003343384
172	0x3c8623a4	0.016374417
173	0x3df15443	0.1178365
174	0x3d6f4d22	0.05842317
175	0x3b5f72e4	0.003409558
176	0x3d887120	0.06662202
177	0x3d48fd97	0.049069967
178	0x3d900d52	0.07033791
179	0x3d116e50	0.035505593
180	0xbdb9eb42	-0.09078075
181	0xbdca4942	-0.09877254
182	0x3d59c12a	0.05316273
183	0xbde5b416	-0.11215989
184	0x3c9de19d	0.01927262
185	0xbd88a412	-0.06671919
186	0x3daa2e38	0.08309597
187	0x3d8cd89b	0.06877252
188	0x3d140180	0.036134243
189	0x3d02eba6	0.031963013
190	0xbe0cb4bd	-0.13740821
191	0x3cda7ff6	0.026672345
192	0x3ce2a5f9	0.027667033
193	0xbd92a243	-0.07159855
194	0x3d5a8f3c	0.053359255
195	0xbd524867	-0.05133858
196	0xbdd5151d	-0.10404418
197	0x3c8f4e37	0.01749335
198	0xbd223cde	-0.03960883
199	0xbccb59b2	-0.024823043
200	0x3d50652f	0.050877746
201	0x3d1e595b	0.038659435
202	0x3d568693	0.052374434
203	0xbdbdaf62	-0.09261967
204	0x3cadff8e	0.021240022
205	0xbda20927	-0.07911902
206	0xbcd04982	-0.025425676
207	0xbd93e16a	-0.07220729
208	0x3d9d86a9	0.076917
209	0x3d878631	0.06617392
210	0x3d4d48c0	0.050118208
211	0x3d752b05	0.05985548
212	0xbc9bc607	-0.019015325
213	0x3dab4f75	0.083647646
214	0xbd522c86	-0.051311992
215	0x3c0a6143	0.008446041
216	0x3da7469a	0.08167763
217	0xbc5524e8	-0.013009287
218	0xbbfe7c6f	-0.0077662985
219	0x3d68f55e	0.056874625
220	0x3cc2d3f5	0.02378271
221	0xbdbdedef	-0.09273898
222	0x3db8f3cf	0.09030878
223	0xbdb8815a	-0.09009047
224	0xbdce4eb5	-0.10073606
225	0xbd9a7cb4	-0.075433165
226	0x3dba1131	0.0908531
227	0x3df5eb22	0.12007739
228	0x3d289c40	0.041164637
229	0x3d69a2e2	0.057040103
230	0x3dbeb5d6	0.09312026
231	0xbd985316	-0.074377224
232	0xbc3971f8	-0.011318676
233	0xbd78bedb	-0.06072889
234	0x3ca48958	0.020085022
235	0x3db38ec3	0.08767464
236	0x3d8090b4	0.062776
237	0xbd86fea0	-0.065915346
238	0x3d72118e	0.059098773
239	0xbd9bc028	-0.0760501
240	0x3dcd39ca	0.10020788
241	0xbcecd9b4	-0.028912403
242	0xbd91fa7f	-0.071278565
243	0x3c806d15	0.015677014
244	0xbd291fa0	-0.041289926
245	0xbdcb6905	-0.0993214
246	0x3c92d806	0.017925274
247	0x3dbdee00	0.092739105
248	0xbaee1d6f	-0.0018166731
249	0xbdca73b9	-0.098853536
250	0xbdb1b24c	-0.086765856
251	0x3dc5275f	0.0962665
252	0xbd77fb45	-0.060542364
253	0x3dc3cf01	0.09560967
254	0xbd2611c3	-0.040544283
255	0xbdc4e0fb	-0.09613224

feature.2.weight_ih_l0 f4 [128, 64]
0	0xbdc26dfc	-0.09493634
1	0xbdd03178	-0.101656854
2	0xbd125318	-0.035723776
3	0xbb3fd0cd	-0.0029268742
4	0xbda302cf	-0.0795952
5	0x3dcee452	0.101021424
6	0xbd47786a	-0.04869882
7	0x3dac5a0d	0.08415613
8	0xbda17905	-0.07884411
9	0x3a23e8e2	0.0006252659
10	0xbd957c90	-0.07299149
11	0x3d391a57	0.045191135
12	0xbafd64c2	-0.0019332396
13	0x3e1c12c2	0.1524153
14	0x3cfa6a56	0.030568283
15	0x3cc22f78	0.023704275
16	0x3d9efe48	0.07763344
17	0xbd9f9b8c	-0.0779334
18	0x3de70adf	0.1128137
19	0xbc01f9aa	-0.00793306
20	0x3e10f68f	0.14156555
21	0x3e1c986d	0.15292521
22	0x3e013658	0.12618387
23	0x3e0d5007	0.1380006
24	0xbe0d70c8	-0.13812554
25	0x3d3f6323	0.046725404
26	0xbe1e6408	-0.15467846
27	0x3d867375	0.065649904
28	0x3cf599e6	0.029980611
29	0xbacd7df9	-0.0015677802
30	0xbc3e55b1	-0.01161711
31	0x3cbe14d6	0.023203295
32	0x3db12fb3	0.08651676
33	0xbb0c9365	-0.0021450159
34	0x3c166b64	0.009180877
35	0x3ddf5e62	0.10906674
36	0xbdf970d8	-0.12179726
37	0x3bca3117	0.0061704027
38	0x3d974b26	0.0738738
39	0xbda5abfa	-0.080894426
40	0xbe226db4	-0.15862161
41	0x3d195e8c	0.037443683
42	0x3da59bc5	0.08086351
43	0xbd2a0a36	-0.041513644
44	0x3cc477cc	0.023982905
45	0xbd31d57c	-0.043416485
46	0xbde47a08	-0.11156088
47	0x3cbb413f	0.02285826
48	0xbd45e7b7	-0.048316684
49	0xbdfb59d1	-0.122729905
50	0x39b161e4	0.00033833005
51	0xbddd8287	-0.10815912
52	0x3db69f15	0.08917061
53	0x3d3f2236	0.046663485
54	0x3e1469e6	0.14493522
55	0x3cbefa5a	0.023312736
56	0x3d7290b8	0.059220046
57	0xbd5b92ae	-0.05360668
58	0x3e0cc0bb	0.13745396
59	0xbdeea333	-0.116522215
60	0xbde98d6f	-0.114039294
61	0x3d2963e5	0.041355032
62	0xbd997900	-0.07493782
63	0x3d0632c4	0.032763258
64	0x3c03a0a3	0.008033904
65	0xbd43b348	-0.047778398
66	0xbc8f3483	-0.017481094
67	0xbdd67b62	-0.10472752
68	0x3d3985a8	0.04529348
69	0xbe005f9a	-0.12536469
70	0x3e1486b5	0.14504512
71	0x3cdfb40d	0.027307535
72	0x3d98a309	0.074529715
73	0xbe1b402c	-0.15161198
74	0xbde6b1fd	-0.11264417
75	0x3e2020f9	0.15637578
76	0x3da43532	0.08017959
77	0xbcabb01c	-0.020957999
78	0xbdd9c6bd	-0.106336094
79	0x3d7dfad5	0.06200679
80	0xbdbfcb3e	-0.09364937
81	0xbc694cbd	-0.014239487
82	0xbd4a5d6f	-0.04940551
83	0x3e2211e7	0.15827142
84	0xbd228afc	-0.039683327
85	0x3c964257	0.01834218
86	0xbd94f725	-0.072737016
87	0xbdea1b40	-0.11430979
88	0xbc414814	-0.01179697
89	0x3d80d28b	0.06290158
90	0x3d982166	0.07428245
91	0x3e1944ac	0.14967602
92	0x3cdd50a8	0.027015999
93	0x3dcc178e	0.0996543
94	0xbe0c1ac2	-0.13682082
95	0x3c9f393e	0.019436475
96	0x3ddfdb04	0.10930446
97	0x3bff605c	0.0077934694
98	0xbbe19263	-0.0068839057
99	0x3d9f5a80	0.077809334
100	0xbe15a534	-0.14613801
101	0xbd6a36b5	-0.05718108
102	0xbd38721c	-0.0450307
103	0xbdcd2992	-0.100176945
104	0x3d70bf17	0.058775987
105	0x3d7f9ac2	0.062403448
106	0xbdc0d58b	-0.0941573
107	0xbdeccc6a	-0.115624264
108	0xbe1cb8d5	-0.15304883
109	0xbd6eef81	-0.058333877
110	0x3e2526c2	0.16128066
111	0xbdf0de44	-0.11761144
112	0x3e00d1a1	0.12579967
113	0x3e1f76ac	0.15572613
114	0x3c904e99	0.017615603
115	0xbddfbf46	-0.109251544
116	0x3d86cd21	0.06582094
117	0xbe1175af	-0.14205049
118	0xbe1380fc	-0.14404672
119	0x3e0bf3a3	0.13667159
120	0xbe209186	-0.15680513
121	0xbdfd801e	-0.12377952
122	0xbdade6d4	-0.084912926
123	0x3d0a004f	0.0336917
124	0xbd5bd6fb	-0.05367182
125	0xbd899629	-0.06718094
126	0x3ce969c1	0.02849281
127	0xbb242f04	-0.0025052438
128	0xbceec139	-0.02914487
129	0x3d5b60e9	0.053559218
130	0x3dabd0ec	0.08389458
131	0x3e1fa89d	0.15591665
132	0xbd669a10	-0.05629927
133	0xbd7bbbad	-0.06145828
134	0xbe00b52a	-0.12569109
135	0x3dcdbc07	0.10045629
136	0x3db205ee	0.08692537
137	0xbe0ab6a4	-0.13546234
138	0xbdbf2db9	-0.09334893
139	0x3dbb2d26	0.09139471
140	0x3c3f5a26	0.011679208
141	0x3d894497	0.067025356
142	0x3dc02c11	0.09383405
143	0x3e196233	0.14978866
144	0xbc828468	-0.015932277
145	0x3dc813a0	0.09769368
146	0xbdb465d1	-0.088084824
147	0xbd142f01	-0.03617764
148	0x3e1e3f64	0.15453869
149	0x3bd30f0e	0.0064410036
150	0x3da1ef8b	0.07907017
151	0x3d278854	0.040901497
152	0x3ad4070a	0.0016176414
153	0x3c8c8c71	0.017156811
154	0xbe1d85a7	-0.15383016
155	0xbdc5315e	-0.09628557
156	0xbcbe2f26	-0.023215842
157	0xbdd37bdd	-0.103263594
158	0xbd199071	-0.037491266
159	0xba97ef3e	-0.0011591685
160	0x3d66f8ef	0.056389745
161	0x3e0326d2	0.12807778
162	0xbe0387c6	-0.12844762
163	0x3d92b4ac	0.07163367
164	0x3da68bf2	0.08132161
165	0xbda10f71	-0.07864273
166	0xbc8d26fa	-0.0172305
167	0xbe094960	-0.13406897
168	0x3c181574	0.009282459
169	0xbd016af8	-0.031596154
170	0x3d84af92	0.064788
171	0xbe01f9ca	-0.12692943
172	0x3d879a44	0.06621221
173	0xbd343ad7	-0.044001427
174	0xbd8d9344	-0.06912854
175	0xbda039fc	-0.0782356
176	0xbc2136bc	-0.00983971
177	0xbd13209c	-0.03591977
178	0x3ba1b60d	0.004935032
179	0x3df98611	0.12183774
180	0x3da1b73b	0.078962766
181	0xbbcacb76	-0.006188805
182	0x3d9d7168	0.07687646
183	0xbe09ffc8	-0.13476479
184	0x3e13a790	0.14419389
185	0x3d49c005	0.04925539
186	0xbcfc0320	-0.030763209
187	0x3d6429cb	0.05570392
188	0x3ca52566	0.020159435
189	0xbd8248cf	-0.063615434
190	0xbb976f8c	-0.0046214517
191	0x3e0a8929	0.13528885
192	0x3d331f7c	0.043731198
193	0xbd5a3127	-0.05326953
194	0x3d17cbd6	0.037059627
195	0x3dc3cb10	0.095602155
196	0x3dd444f8	0.10364717
197	0xbd1f4355	-0.038882572
198	0xbe002567	-0.12514268
199	0xbbd47aa0	-0.0064843446
200	0x3d94e4b6	0.07270186
201	0xbe227119	-0.15863456
202	0x3d03ece5	0.032208342
203	0xbdc3bb64	-0.09557226
204	0xbd8a8ad2	-0.06764759
205	0xbde5f9e8	-0.112293065
206	0xbcbf6990	-0.023365766
207	0x3e11f7b1	0.14254643
208	0x3db89966	0.090136334
209	0x3c99b434	0.018762685
210	0xbd660cbb	-0.056164484
211	0x3de41071	0.111359484
212	0x3db4f267	0.08835297
213	0xbd698a02	-0.05701638
214	0x3dac8041	0.084229
215	0xbc26231d	-0.010140208
216	0x3cb3c9b1	0.02194676
217	0xbd977ac9	-0.07396466
218	0x3db406eb	0.08790382
219	0xbe1f70c2	-0.15570357
220	0x3d1e71e7	0.038682844
221	0x3d56407e	0.0523076
222	0xbddd4fa0	-0.10806203
223	0xbcb2ae92	-0.021811757
224	0x3cfd4c5f	0.030920206
225	0x3d1fb278	0.03898856
226	0x3d30667e	0.043066494
227	0xbda38a66	-0.07985382
228	0xbdd7628b	-0.105168425
229	0x3e122d44	0.1427508
230	0xbdd5def8	-0.104429185
231	0xbd83963a	-0.06425138
232	0xbdbd11a9	-0.09231884
233	0x3e06ce0c	0.13164538
234	0xbd3bfcc8	-0.045895368
235	0xbe182c6f	-0.148607
236	0xbd961a45	-0.07329229
237	0x3d9f3c25	0.077751435
238	0xbd43a0d9	-0.04776082
239	0xbad065f4	-0.0015899525
240	0xbd35590d	-0.04427438
241	0xbd335527	-0.04378238
242	0xbe11ef9e	-0.14251563
243	0xbde50337	-0.11182254
244	0xbc9bc997	-0.019017024
245	0xbdc472af	-0.09592187
246	0x3e20fe87	0.15722094
247	0x3d438104	0.04773046
248	0xbd87e0ec	-0.06634697
249	0x3d82f04f	0.063934915
250	0x3cd5e86b	0.026111802
251	0x3e13e5c4	0.14443117
252	0x3c619d2e	0.013770385
253	0xbe052a71	-0.13004471
254	0xbc1f15b7	-0.009709767
255	0x3dab5db0	0.08367479

feature.2.weight_hh_l0 f4 [128, 32]
0	0xbcc6b5b9	-0.024256574
1	0xbda92906	-0.08259778
2	0x3dca83d3	0.09888425
3	0x3d876896	0.06611745
4	0xbb1cee5a	-0.002394578
5	0x3dcb022d	0.09912524
6	0x3dc64d2e	0.096826896
7	0x3d8fecb3	0.07027569
8	0xbbe8b918	-0.007102143
9	0x3c090abc	0.008364376
10	0xbd2a63e6	-0.041599177
11	0x3e0b40ce	0.1359894
12	0xbdfc4851	-0.12318481
13	0x3d97fc98	0.07421225
14	0x3cd2751b	0.025690606
15	0xbdd40b45	-0.10353712
16	0xbd839b6b	-0.06426128
17	0x3cedae6e	0.029013839
18	0x3db805c8	0.08985478
19	0x3ce016c2	0.027354602
20	0xbdab9924	-0.08378819
21	0xbe0b1183	-0.13580899
22	0xbd011883	-0.031517517
23	0x3d8d1e45	0.06890539
24	0xbd514eb7	-0.05110046
25	0xbdf4430a	-0.11926849
26	0x3e0c8880	0.13723946
27	0xbbb697fe	-0.005572318
28	0x3ded4c37	0.115868025
29	0x3bf8d1f8	0.0075933896
30	0xbbae26e2	-0.005314694
31	0xbbebfee0	-0.0072020143
32	0xbd3d392d	-0.046197105
33	0x3d909497	0.07059591
34	0x3e0998d4	0.13437206
35	0x3e01d255	0.12677892
36	0xbc1e2a90	-0.009653702
37	0xbddfe6e6	-0.10932712
38	0x3e0b6a30	0.13614726
39	0x3c734265	0.014847373
40	0x3de5d3b4	0.1122202
41	0xbcf0b4b0	-0.029383034
42	0xbe1205ef	-0.14260076
43	0xbcfdb722	-0.030971114
44	0xbdc71f85	-0.09722809
45	0x3d0c47a5	0.034248013
46	0xbe1c3002	-0.15252689
47	0x3d8e5029	0.06948883
48	0x3da93581	0.08262158
49	0x3e076481	0.13221933
50	0xbdc24262	-0.09485318
51	0xbd0e5bb3	-0.03475542
52	0x3dc920a6	0.0982068
53	0xbd7cedbd	-0.061750162
54	0x3c99f90c	0.018795513
55	0x3dbd1cee	0.092340335
56	0x3db982e2	0.09058167
57	0xbe221abf	-0.15830515
58	0xbc56f7b4	-0.01312058
59	0xbdf83215	-0.121189274
60	0xbe19bc0e	-0.15013143
61	0xbd3a2184	-0.04544212
62	0x3de6941e	0.1125872
63	0x3def9e62	0.11700131
64	0x3e19853b	0.1499223
65	0xbd89a124	-0.06720188
66	0xbe0cea85	-0.13761337
67	0x3b52feb5	0.0032195274
68	0x3d13ff59	0.03613219
69	0xbcd065c1	-0.025439145
70	0x3abd130a	0.001442523
71	0x3e1d3e2a	0.15355745
72	0xbb624334	-0.003452492
73	0xbe03dd31	-0.12877347
74	0x3b66ce59	0.0035218208
75	0xbd0b5b61	-0.034022693
76	0x3d5a70d4	0.053330258
77	0x3cb0714a	0.021538395
78	0xbde3ed34	-0.11129227
79	0xbd10a2a1	-0.035311345
80	0x3db5b450	0.088722825
81	0xbb3f9ea0	-0.0029238835
82	0xbdfeba93	-0.1243793
83	0xbde154a6	-0.110024735
84	0xbdb0b93b	-0.0862908
85	0xbdf045ec	-0.117320865
86	0xbe16984a	-0.14706531
87	0xbe1e569e	-0.1546273
88	0xbd394c93	-0.045239042
89	0xbcbe13b7	-0.02320276
90	0xbc4de2e0	-0.012566298
91	0x3e0a7c56	0.13523993
92	0xbb0f507f	-0.0021868048
93	0xbb16d35a	-0.002301416
94	0x3df7ec8f	0.12105667
95	0x3d532a61	0.051554088
96	0xbd974276	-0.07385723
97	0x3cb2d95c	0.02183216
98	0x3d914a9b	0.07094308
99	0x3d60c28c	0.054873034
100	0xbb929160	-0.0044728965
101	0x3e16de91	0.1473334
102	0x3ce9a347	0.02852024
103	0xbda27964	-0.0793331
104	0xbd31d215	-0.04341324
105	0xbdca54b4	-0.09879437
106	0xbd8f556e	-0.06998716
107	0x3df59975	0.1199216
108	0x3d3f98f5	0.04677673
109	0x3ceaacc5	0.028646836
110	0x3d35ed4e	0.044415765
111	0xbcd54337	-0.026033027
112	0x3d236a87	0.039896514
113	0xbd9093d4	-0.07059446
114	0xbe10657a	-0.1410121
115	0x3d8db53c	0.06919333
116	0xbdc70372	-0.09717454
117	0x3df224d7	0.11823433
118	0x3da364d8	0.07978219
119	0xbd2cba4d	-0.042169858
120	0xbdff77c2	-0.12474014
121	0xbc6478df	-0.013944834
122	0xbda6609a	-0.08123894
123	0x3e0e4ddb	0.13896887
124	0x3c1c35d8	0.009534322
125	0x3d951676	0.07279675
126	0x3e09c2d8	0.13453233
127	0xbd49a46e	-0.049229078
128	0x3e00ac11	0.12565638
129	0x3bcd0f99	0.006257963
130	0x3d38abf9	0.04508588
131	0x3c4f8145	0.012665098
132	0x3c0abc36	0.008467725
133	0xbe2136c0	-0.15743542
134	0xba6e3414	-0.000908674
135	0x3dfe171d	0.12406752
136	0xbd0c0cae	-0.03419178
137	0xbd8062b4	-0.06268826
138	0xbdf57445	-0.11985067
139	0xbc8c7a40	-0.017148137
140	0xbd35919a	-0.04432831
141	0x3d184f6f	0.03718513
142	0x3d0db287	0.034594085
143	0xbd753ed4	-0.05987437
144	0x3d824df9	0.06362528
145	0xbe120c3b	-0.14262478
146	0xba4c5edf	-0.00077961193
147	0x3e04a0f3	0.12952022
148	0x3b8aad6f	0.0042321007
149	0x3d58b363	0.05290545
150	0x3d9e633a	0.0773377
151	0x3e17bf06	0.14818963
152	0x3dc9d440	0.098549366
153	0xbde98980	-0.11403179
154	0xbcf46a60	-0.02983588
155	0xbc26bdc7	-0.010177082
156	0xbce74057	-0.028228922
157	0x3e14db06	0.14536676
158	0x3df6932f	0.12039792
159	0xbe15e111	-0.14636637
160	0x3df44ccb	0.119287096
161	0x3d5bc626	0.053655766
162	0xbe0b45e1	-0.13600875
163	0xbcc90817	-0.02453999
164	0xbbbe2c6d	-0.005803636
165	0x3d9d1d40	0.076715946
166	0x3d564d3c	0.05231975
167	0x3e1568e9	0.14590801
168	0x3d9d4eb9	0.07681031
169	0xb8f77183	-0.00011799021
170	0xbbb49c3a	-0.0055117877
171	0x3e1f5a95	0.15561898
172	0x3de0ae95	0.10970799
173	0x3d10f1af	0.035386737
174	0x3d17df48	0.037078172
175	0xbe00635f	-0.12537907
176	0xbbb32b98	-0.0054678433
177	0x3b4ac382	0.0030939286
178	0xbc217f19	-0.009856963
179	0xbdd6a1ac	-0.10480055
180	0xbcef7329	-0.029229717
181	0x3bdcaffb	0.0067348457
182	0xbde99776	-0.11405842
183	0xbe06aa15	-0.13150819
184	0x3bfd6900	0.0077334642
185	0x3d925aa3	0.07146194
186	0x3dd1d41a	0.10245533
187	0x3d39e011	0.045379702
188	0x3e1d9373	0.15388279
189	0x3e070241	0.13184454
190	0xbc261c2d	-0.010138554
191	0x3d915ad1	0.070974
192	0xbc00b49b	-0.00785556
193	0xbe18c200	-0.14917755
194	0x3df085e8	0.117442906
195	0x3dc901a5	0.09814767
196	0xba32d2fa	-0.0006821599
197	0xbd884e22	-0.06655528
198	0x3a7bc643	0.00096044334
199	0xbc324b6d	-0.010882241
200	0xbdc27d61	-0.094965704
201	0x3c319212	0.0108380485
202	0xbdd18ff9	-0.10232539
203	0x3e1a4d8e	0.15068647
204	0x3dcba7a9	0.09944088
205	0x3b30a6e8	0.0026954953
206	0xbdc95cf5	-0.09832183
207	0x3e01f4d5	0.12691052
208	0xbd1daddb	-0.03849588
209	0xbd757cf8	-0.059933633
210	0xba1d10e7	-0.00059915934
211	0xbd6b692d	-0.05747335
212	0x3d95a81d	0.07307456
213	0xb9ec082a	-0.0004501951
214	0xbdf7ebb0	-0.12105501
215	0x3dbadd4c	0.0912424
216	0xbddc02f9	-0.107427545
217	0x3e171deb	0.14757507
218	0x3e154ab4	0.14579278
219	0x3d43c52a	0.047795452
220	0x3df06351	0.11737693
221	0xbded0267	-0.11572724
222	0xbdfe7727	-0.1242507
223	0x3d5b6558	0.053563446
224	0x3df5a95c	0.11995193
225	0xbdca805c	-0.09887764
226	0x3dfc0da9	0.12307293
227	0xbdc06f62	-0.093962446
228	0x3db7e344	0.08978894
229	0x3dca198c	0.09868154
230	0xbd9274a2	-0.07151152
231	0x3d6b7edb	0.057494026
232	0x3de6538c	0.11246404
233	0xbc3eec53	-0.011653024
234	0x3a2b54de	0.00065357785
235	0xbdf52bfe	-0.119712815
236	0xbbe07121	-0.0068494235
237	0xbd8a21b5	-0.0674471
238	0xbaebeb0a	-0.0017999124
239	0xbd6472c5	-0.055773515
240	0x3b81660a	0.0039489316
241	0xbd61c04c	-0.05511503
242	0xbab4d507	-0.0013796397
243	0x3de0d972	0.109789744
244	0x3d9556d5	0.072919525
245	0x3de15494	0.1100246
246	0xbb8b2145	-0.0042459094
247	0x3d6bd544	0.057576433
248	0xbde71854	-0.11283937
249	0x3d26b825	0.040702958
250	0xbe11be1c	-0.14232677
251	0x3d950adc	0.07277462
252	0xbdd29e46	-0.102840945
253	0x3d4e6148	0.050385743
254	0x3de92adb	0.11385127
255	0xbd95e3dc	-0.07318851

feature.2.bias_ih_l0 f4 [128]
0	0x3d17d8d5	0.03707202
1	0xbd16a215	-0.036775667
2	0xbde5b7f7	-0.11216729
3	0xbca3d442	-0.019998673
4	0xbda3f319	-0.080053516
5	0x3d870120	0.065920115
6	0x3d9318fd	0.071825005
7	0x3d3fcbe8	0.04682532
8	0x3e1f3b5b	0.15549986
9	0xbdf6ae0c	-0.120449156
10	0x3b2b147d	0.0026104741
11	0xbe184f62	-0.14874032
12	0x3e23cd55	0.15996297
13	0x3df23073	0.11825647
14	0xbcd5256f	-0.026018826
15	0xbdf8c24a	-0.12146433
16	0x3dd883e9	0.10572035
17	0x3c33cdf5	0.010974397
18	0x3e1a3b6c	0.1506173
19	0xbca51eda	-0.020156313
20	0xbe02a934	-0.12759858
21	0x3dda8b64	0.10671118
22	0xbd83ae47	-0.06429725
23	0x3ca8e434	0.020616628
24	0xbdd1b61a	-0.10239811
25	0xbdaded7f	-0.084925644
26	0xbca262ea	-0.019822557
27	0xbceac401	-0.028657915
28	0xbdddacb9	-0.1082396
29	0x3dc0dc44	0.09417012
30	0x3e1430e7	0.1447178
31	0xbd146b25	-0.036234993
32	0x3e17e2d2	0.14832619
33	0xbd1b0e2f	-0.037855323
34	0x3e173a86	0.14768419
35	0x3cef9b69	0.02924891
36	0x3de05741	0.10954142
37	0x3cee9cf2	0.029127572
38	0x3e218552	0.15773514
39	0xbb819bb4	-0.003955329
40	0x3da18e1c	0.07888433
41	0xbe15ac39	-0.14616479
42	0x3c801808	0.015636459
43	0xbd3af0c9	-0.045639787
44	0x3e0cb6de	0.13741633
45	0xbe155763	-0.14584117
46	0xb89fa126	-7.611727e-05
47	0xbd5c2991	-0.05375058
48	0x3d2e9a55	0.04262765
49	0x3e0ff3fd	0.14057918
50	0x3d9cd1fc	0.07657239
51	0x3dc4cba9	0.096091576
52	0x3be77656	0.0070636673
53	0xbd823c83	-0.06359198
54	0x3cde6e28	0.027152136
55	0x3e11473e	0.14187333
56	0x3e105fe4	0.1409908
57	0x3c60eeae	0.013728781
58	0xbdce9bc4	-0.10088304
59	0x3dcf4d60	0.1012218
60	0xbe0bc836	-0.13650593
61	0x3dc84b6b	0.0978001
62	0xbd161bbc	-0.036647543
63	0xbe18b4f9	-0.14912786
64	0x3b8ae752	0.0042390013
65	0xbd85343d	-0.06504104
66	0xbd09566b	-0.03352968
67	0x3ce34d4e	0.027746823
68	0xbc8c8b17	-0.017156167
69	0xbe229c43	-0.15879922
70	0xbbb40602	-0.0054938802
71	0x3d36b1a9	0.044603024
72	0xbd19fd5d	-0.03759514
73	0x3d3dd3bb	0.0463445
74	0xbe1e6845	-0.15469463
75	0xbcde67bf	-0.02714908
76	0xbdf37678	-0.118878305
77	0x3d931522	0.07181765
78	0x3cbcab75	0.023030976
79	0x3da80c06	0.08205418
80	0xbd7de1f4	-0.061983064
81	0xbe20fdd6	-0.1572183
82	0x3d55b3a6	0.05217328
83	0xbd3d3849	-0.046196256
84	0x3d210d90	0.039319575
85	0xbdbe4d1f	-0.092920534
86	0xbe2cc64a	-0.16872516
87	0x3deaa7bc	0.11457774
88	0x3d5bfa63	0.053705584
89	0xbd34aea8	-0.044111878
90	0xbdc9c54f	-0.09852087
91	0xbd9b954f	-0.07596838
92	0xbde13df4	-0.10998145
93	0x3e2e9f2f	0.17052911
94	0xbe09f653	-0.13472871
95	0x3c0644a3	0.008195075
96	0x3d5850c3	0.052811395
97	0xbdbc0954	-0.09181467
98	0xbc9a862e	-0.01886281
99	0xbd810365	-0.062994756
100	0x3d09a20d	0.03360181
101	0xbe027baa	-0.12742487
102	0xbe008b22	-0.12553075
103	0xbbe33ce0	-0.006934747
104	0x3e29c4fa	0.16579047
105	0x3dd57229	0.10422165
106	0x3d3eb8e7	0.046563055
107	0x3dd4f912	0.10399069
108	0x3e17ef80	0.14837456
109	0x3e2de75d	0.1698279
110	0xbe22c521	-0.15895511
111	0x3e09c52a	0.13454118
112	0x3bbc34a7	0.0057435813
113	0x3d8c26dc	0.06843349
114	0xbbeb7bb7	-0.007186379
115	0x3c77e1c9	0.015129515
116	0xbd84a212	-0.06476225
117	0xbe1edabd	-0.1551313
118	0xbddc0359	-0.10742826
119	0x3e00f4f6	0.12593445
120	0x3d86662f	0.06562459
121	0xbe1904bb	-0.14943211
122	0x3e20bef8	0.15697849
123	0xbdaa32e0	-0.08310485
124	0x3d841261	0.06448818
125	0x3e066f4a	0.13128391
126	0xbe2237cc	-0.15841597
127	0x3e019cbf	0.1265745

feature.2.bias_hh_l0 f4 [128]
0	0x3d826343	0.06366589
1	0x3e06df0f	0.13171028
2	0xbd81e693	-0.06342807
3	0xbdfb423e	-0.12268494
4	0xbd1366cb	-0.035986703
5	0x3da56232	0.0807537
6	0x3ddff9b9	0.10936303
7	0xbbd387c0	-0.0064553916
8	0x3dd11ddf	0.102107756
9	0x3e0b490e	0.13602087
10	0x3da3ce67	0.079983525
11	0x3c49ff7c	0.012328979
12	0x3ddd30ec	0.10800347
13	0xbd3a6500	-0.045506477
14	0x3c127f23	0.008941445
15	0xbdc06832	-0.09394874
16	0xbd967e27	-0.073482804
17	0x3c24c37f	0.0100563755
18	0x3baf3a13	0.005347499
19	0xbe01e42e	-0.126847
20	0xbd301643	-0.04298998
21	0xbd900824	-0.07032803
22	0x3d84251e	0.06452392
23	0x3c5a74d8	0.013333522
24	0x3d1d37e5	0.038383383
25	0x3d6f1836	0.0583727
26	0x3d779d7c	0.060452923
27	0x3e0aca09	0.13553633
28	0xbdaf4281	-0.085576065
29	0xbda7aeab	-0.08187612
30	0xbdd6960b	-0.10477837
31	0x3c899740	0.016795754
32	0xbd93788e	-0.07200728
33	0xbe0b23cf	-0.13587879
34	0xbda843f5	-0.08216087
35	0xbe089dd3	-0.13341455
36	0x3d5c29d0	0.053750813
37	0xbe211000	-0.1572876
38	0xbe18aa39	-0.14908685
39	0x3d14b63c	0.036306605
40	0xbd95234d	-0.07282124
41	0x3cd915cc	0.026499651
42	0x3dde6304	0.108587295
43	0x3c915bf4	0.017744042
44	0x3da78016	0.08178727
45	0xbd17cc48	-0.037060052
46	0x3dc416c9	0.095746584
47	0xbdf51c4b	-0.11968287
48	0x3dcd91fb	0.10037609
49	0xbd22b724	-0.039725438
50	0x3c89d2e6	0.016824197
51	0xbd6f3d30	-0.058407962
52	0xbdf0d044	-0.117584735
53	0xbc51997a	-0.012792939
54	0x3de3af64	0.111174375
55	0xbe230d3a	-0.15923014
56	0xbd88bdfe	-0.06676863
57	0xbdf7c927	-0.12098914
58	0x3da02125	0.07818822
59	0x3d946854	0.072464615
60	0x3d24b48d	0.04021125
61	0xbd871c51	-0.06597198
62	0x3dd7bc28	0.10533935
63	0xbbef9b33	-0.0073122024
64	0x3e2b9aae	0.16758224
65	0x3d98b517	0.07456415
66	0xbe27aa1d	-0.16373487
67	0x3dccb82f	0.09996068
68	0x3d9a1783	0.07524016
69	0xbd43dd5e	-0.047818534
70	0x3d2b574b	0.041831296
71	0x3d7e33f3	0.06206126
72	0xbdf5272e	-0.119703636
73	0xbd11f75f	-0.035636302
74	0x3d42cbe4	0.047557727
75	0x3cd1ac23	0.025594776
76	0xb93ea35f	-0.00018180672
77	0x3db53690	0.088482976
78	0x3d2cefa9	0.042220745
79	0xbd8c8364	-0.06860998
80	0x3e325261	0.17414238
81	0x3d87e4c3	0.0663543
82	0x3d33e803	0.043922435
83	0x3e304743	0.17214684
84	0x3e24d058	0.16095102
85	0x3cd9e88a	0.026600141
86	0x3dcb6a6f	0.0993241
87	0x3dae50eb	0.08511528
88	0xbdd26f77	-0.102751665
89	0xbd8078b9	-0.06273026
90	0x3d9fc3a8	0.0780099
91	0xbdd9a3d7	-0.10626953
92	0x3dac2ea8	0.084073365
93	0x3caf87dc	0.021427087
94	0xbd046076	-0.032318555
95	0xbe0658c3	-0.13119797
96	0x3d9d3c0d	0.076774694
97	0x3e39d458	0.18147409
98	0xbb2e6c39	-0.0026614799
99	0x3e11373b	0.14181225
100	0xbe1752ba	-0.14777651
101	0x3e0f1cda	0.1397585
102	0xbddabc83	-0.10680487
103	0x3d6087c0	0.05481696
104	0xbd9adb7a	-0.07561393
105	0x3c825bbb	0.015912881
106	0xbe143b2d	-0.14475699
107	0x3d5f967d	0.054586876
108	0x3e19cb9c	0.15019077
109	0xbdcb7a31	-0.099354155
110	0xbd4f94d9	-0.05067906
111	0x3e061593	0.13094167
112	0x3d22a236	0.039705478
113	0x3da9cc52	0.08290924
114	0x3e1095cb	0.14119641
115	0x3e0b139c	0.13581699
116	0xbd42b521	-0.04753602
117	0x3dff0641	0.12452365
118	0xbc78bb16	-0.0151813235
119	0x3cb8232b	0.022477707
120	0xbe1772bc	-0.14789861
121	0x3b9fee9a	0.0048807384
122	0xbd2a3834	-0.041557506
123	0xbe220b9d	-0.15824743
124	0x3cfd20a3	0.030899351
125	0xba8984ba	-0.0010491826
126	0x3c6ffae6	0.014647221
127	0xbd9d8b4b	-0.07692584
