Code/LSTM/LSTMModelOutputs/newTLbest_model.pth (torch, 217798 bytes, 15 tensors)

feature.0.weight_ih_l0 f4 [256, 54]
00000000: d86a c53a dbdc 673b 1d7e 813b 738c 0180
00000010: a995 1800 cf0e 0c80 1b32 1500 651b 2a80
00000020: 468f 1300 f32c fe3b 6834 fe3b c757 643b
00000030: 8ce2 6c3b 7248 333a 3418 763b 29d2 8b3b
00000040: 1259 573b 36c0 563b cf09 0d80 ae2a 9a3b
00000050: c878 8a3a f9b7 d33b b278 f63b 191b c63b
00000060: 9185 b13b 1c60 a53b f971 ee3b 269b ec3b
00000070: 7143 a53b 041a a53b 7a54 f83b 415b f93a
00000080: 7751 a53b 7b66 ee3b 0870 a53b 302a ec3b
00000090: 171e a53b 854c f83b 31be e73a 0459 a53b
000000a0: b96a ee3b 9276 a53b 2c3c ec3b 6f10 a53b
000000b0: ce43 f83b f364 e73a 54a9 3580 690c ef3b
000000c0: 3e40 c03b 2841 b43a 2cb5 0f3b dac1 ec3b
000000d0: b181 eb3b 0228 ec3b fdf2 483c 1b7e db3c
000000e0: 74a4 f23c a7a1 0b00 b4c2 1880 5409 0780
000000f0: 8a8f 0300 a1b3 2900 e4f6 4680 39aa 603d
00000100: 7941 603d 82ec d93c 3631 e13c a35d 2c3c
00000110: bbf7 ee3c 8830 023d 301e af3c 28b5 ae3c
00000120: 6f99 1300 fe0b 013d 651c 1e3c fe2d 3e3d
00000130: 303b 5b3d ab7c 2e3d 2ef0 233d 71f4 a03c
00000140: 5ffc 573d bda4 563d d41f 9f3c a7d1 a03c
00000150: 420e 5b3d 2af9 7e3c 4502 a13c 1b04 583d
00000160: 57ce 9e3c f22d 563d 6e80 a03c 6b00 5b3d
00000170: 9450 7c3c 0999 a03c 32ee 573d b1d3 9e3c
00000180: c727 563d 1f80 a03c e349 5b3d 8b50 7c3c
00000190: faf3 0480 1eb4 583d bf06 273d d8ed 993b
000001a0: b1b6 8a3c 84b8 563d 78b8 553d 9425 553d
000001b0: a00d 5d3b b4de fb3b 6a29 0c3c 8191 0100
000001c0: cc01 3700 4423 3b00 2c78 9a00 30e8 1c80
000001d0: 88a3 1f80 684c 883c 354c 883c 62b1 003c
000001e0: 477d 053c 71e6 363b 59ad 0f3c 1e74 1d3c
000001f0: d563 df3b b6cb de3b a50c 2100 030a 233c
00000200: 9fbb 403b 8713 5e3c 0de0 843c 7969 543c
00000210: e764 473c 7c28 1a3c 2785 853c 188e 843c
00000220: 83b7 193c 68ff 193c 352b 853c ecf0 873b
00000230: 4423 1a3c 057f 853c 95c8 193c c64b 843c
00000240: cbe9 193c 602a 853c 76ac 813b 7517 1a3c
00000250: ee82 853c 91c8 193c ea4c 843c 3eec 193c
00000260: bc29 853c 37ad 813b efdf 4b00 6ce0 853c
00000270: 51f0 523c 008a 243b 3511 a53b b8a1 843c
00000280: e3e7 833c 2445 843c eabc 923a 3369 293b
00000290: 1514 383b 8f6f 0800 728f 1880 8a54 0980
000002a0: 0a78 3100 dfd2 4880 e543 0280 9c63 ba3b
000002b0: 2201 ba3b b65f 2c3b ab3e 333b dc68 323a
000002c0: eac5 373b 2fb8 543b eef5 363b ce6c 363b
000002d0: 196a e301 db09 813b 9823 863a 9ed8 963b
000002e0: 10f6 bc3b 9c0b a33b c35d 883b 77d9 b53b
000002f0: b9e4 b63b da3a b53b b7d7 b63b c093 b53b
00000300: 629c c33b deb8 b83a 80d8 b53b bc89 b63b
00000310: ba46 b73b 00ab b53b a5a4 b53b 3269 c33b
00000320: 55c2 9d3a 4908 b63b 991e b63b 5e44 b73b
00000330: c332 b53b fca3 b53b 8977 c43b 2fc6 9d3a
00000340: 430f 1380 84ae b63b 3cb9 9e3b 9cdf e23a
00000350: 6197 de3a 4690 b53b 51c0 b33b 0976 b53b
00000360: f285 b03a 3ef3 413b 8e5f 533b 9e2c 4200
00000370: 9c41 0080 a8a8 0d80 057c 0f80 b50a 1a00
00000380: 84b7 3800 4bfd d63b 7b3f d73b 2488 3a3b
00000390: 3d49 413b fa34 3e39 afa6 463b 5876 6a3b
000003a0: 14e7 3d3b 8c5f 3d3b 3e0f 1b80 f79c 8c3b
000003b0: a589 533a 6163 b53b bb29 cf3b 2ccf b03b
000003c0: a82a 953b 4956 ad3b d4b7 c83b 3736 c73b
000003d0: 4fe8 ad3b 9e08 ad3b 1dac d43b bd7e dc3a
000003e0: 6348 ad3b afc3 c83b cf38 ae3b b1b3 c63b
000003f0: 8a0c ad3b a276 d33b 8c58 c63a 6174 ad3b
0.0015061749 0.0035379443 0.0039518015 -1.42219e-40 2.25774e-39 -1.107338e-39 1.94652e-39 -3.866918e-39
1.796271e-39 0.007756823 0.007757712 0.0034842358 0.0036145775 0.00068391033 0.0037551047 0.0042669964
0.0032859487 0.0032768375 -1.19738e-39 0.004704795 0.001056456 0.0064611402 0.007521712 0.0060457108
0.0054175337 0.0050468575 0.00727677 0.0072206436 0.00504344 0.0050385017 0.0075784298 0.0019024388
0.0050451118 0.0072754 0.0050487556 0.0072071776 0.0050389874 0.007577481 0.0017680583 0.005046012
0.007275906 0.005049535 0.0072093215 0.0050373594 0.0075764423 0.0017653987 -4.928025e-39 0.0072951806
0.0058670333 0.0013752328 0.0021928055 0.0072252573 0.0071870913 0.0072069177 0.012264964 0.02679353
0.029619433 1.06818e-39 -2.273898e-39 -6.46195e-40 3.26999e-40 3.829694e-39 -6.517052e-39 0.054849837
0.05474994 0.026602034 0.027489286 0.010520372 0.029170861 0.031784564 0.0213767 0.021326616
1.799916e-39 0.031505577 0.0096503245 0.04643058 0.053523242 0.04259936 0.040023975 0.019647809
0.052730914 0.0524032 0.019424357 0.01963122 0.053480394 0.015562335 0.019654403 0.05273829
0.0193855 0.05228991 0.01959249 0.053467195 0.015400071 0.019604223 0.052717395 0.019388052
0.05228403 0.019592343 0.05353726 0.015400062 -4.54864e-40 0.052906148 0.040777918 0.0046975426
0.016932817 0.05242206 0.052177876 0.05203779 0.0033730045 0.0076864604 0.008554796 1.44032e-40
5.051597e-39 5.430945e-39 1.4185776e-38 -2.654687e-39 -2.905564e-39 0.016637996 0.0166379 0.007854791
0.008147544 0.002790835 0.008769357 0.009610204 0.006817321 0.0067991866 3.035107e-39 0.009951117
0.0029408706 0.01355446 0.016220117 0.0129646 0.012170053 0.009409066 0.016298844 0.016181037
0.0093821315 0.0093992725 0.016255954 0.004148593 0.009407822 0.01629592 0.009386201 0.016149413
0.0093941195 0.016255558 0.0039573265 0.009405007 0.016297784 0.009386198 0.016149957 0.009394703
0.016255252 0.0039574164 6.967994e-39 0.016342364 0.012874679 0.0025106668 0.0050374516 0.016190395
0.016101783 0.01614625 0.0011195217 0.0025850057 0.0028088142 7.74704e-40 -2.25551e-39 -8.56846e-40
4.543001e-39 -6.687802e-39 -2.08027e-40 0.005688144 0.0056764046 0.0026302165 0.0027350585 0.00068057864
0.002804155 0.0032458415 0.0027917582 0.0027835849 8.3538873e-38 0.0039379424 0.0010233996 0.0046034595
0.0057666376 0.004975749 0.004161568 0.0055496055 0.005581465 0.0055306973 0.0055799144 0.005541295
0.00596957 0.0014093181 0.0055494905 0.0055706184 0.005593148 0.0055440664 0.005543309 0.005963468
0.0012036065 0.005555187 0.0055578467 0.005592867 0.005529733 0.00554323 0.005995695 0.0012037213
-1.75035e-39 0.005575003 0.004843859 0.0017309072 0.001698237 0.0055408804 0.0054855724 0.0055377525
0.0013467653 0.0029594447 0.0032253 6.077148e-39 -2.3536e-41 -1.254364e-39 -1.422022e-39 2.391564e-39
5.208621e-39 0.0065609566 0.0065688468 0.0028462494 0.0029493116 0.00018139547 0.0030311754 0.0035776105
0.0028976845 0.0028896062 -2.485026e-39 0.0042911726 0.0008069522 0.0055355285 0.0063221133 0.0053957906
0.004552204 0.005289827 0.0061254296 0.006079461 0.0053072344 0.0052805683 0.006490244 0.0016822439
0.00528817 0.006126843 0.0053168307 0.0060639014 0.005281036 0.006453351 0.001513259 0.0052934145

feature.0.weight_hh_l0 f4 [256, 64]
00000000: d74d d9b8 b8b0 f3b7 2b1f 9438 11aa 04ba
00000010: fa6e a1b9 a7ad 87b9 7e93 ebb9 980f 4339
00000020: 6283 0939 ebb5 cbb8 7277 6db9 7c5e e439
00000030: cc5e 0b3a cc9c f638 e0c4 ddb8 1154 bf39
00000040: 8067 c839 68dc 8536 9a49 e9b7 5cce 67b9
00000050: de13 0c3a f537 41b5 39ba a939 43f1 2235
00000060: 5331 c0b9 5edb 2e3a a5ff 9839 a34f c239
00000070: 8fe0 9039 1436 8a38 59cc 64ba d2f5 e839
00000080: 859c afb9 532c d239 fadb 2e38 1ea6 16ba
00000090: f1ab 8e39 f73e 2bba 1a20 1939 fcb1 feb8
000000a0: 4f6f 2c39 fbd5 6839 d48d 42b7 36e5 01ba
000000b0: 0694 96b9 2050 cd39 35c3 8bb9 155f 8e38
000000c0: 097b 0ab8 8114 02ba 4717 0b3a 2b42 2c3a
000000d0: b71d c9b8 ac22 d136 21ba 83b8 c768 f0b9
000000e0: 7d1f cd39 19fc 1239 d260 d2b9 83d0 283a
000000f0: ad45 5db9 4efe d138 561b 09ba a5d3 a539
00000100: 874f 43bb b1de 013b 8f1d 653b 9602 d9bb
00000110: 04ce 95bb 5f00 7dbb 6078 cfbb 8553 523b
00000120: dd8c 913b 22e0 d7ba 739c 69bb 122e 653b
00000130: 563d dc3b 0baa 2d3b 211b 85ba 51bb bc3b
00000140: 0225 be3b 5718 d738 f319 09ba 9ace 86bb
00000150: aecd db3b 2e32 d2b6 f484 953b 99b7 8a37
00000160: f1d4 a4bb 82ad a73b b0d5 893b c132 9d3b
00000170: f140 dbba e965 133a 6d21 b5bb 61c6 be3b
00000180: 969d 9abb 257c b73b 154e e53a 869e e8bb
00000190: 7696 8d3b 6c0f 02bc 4304 573b 2b78 7bbb
000001a0: 6cea 3a3b bb55 b53b 5e46 11b9 a14f c5bb
000001b0: 9b96 bebb 965f ac3b 0431 90bb ca56 893a
000001c0: 69cd 073b c563 cebb d110 dd3b 465a 043c
000001d0: 74cf eeba 152b c73a 568a acba 3b7b bbbb
000001e0: e213 b63b b739 2d3b dda5 bfbb b7d9 043c
000001f0: e33b 94bb 1963 3a3b e981 d0bb 2b74 983b
00000200: d075 f7b9 1afe e438 8264 013a 2634 c5ba
00000210: 27a0 82ba 6075 56ba 6e81 b5ba 4207 1d3a
00000220: 64b2 353a ef23 9bb9 e35b 40ba 1be9 663a
00000230: b3c3 c93a 43fd b339 158a ddb8 68ff 9d3a
00000240: cba3 a53a 07fa d637 9c87 bfb8 c3ce 4fba
00000250: a8d8 cb3a c03b 9733 d9fd 803a 370d fa35
00000260: 1125 8fba 7bf5 a93a 1d1c 733a 3268 7a3a
00000270: 6621 1b39 dbc7 0239 f998 d3ba 500b ad3a
00000280: 490d 88ba 3eea 9f3a e0ad 2b39 0876 cfba
00000290: 0bb6 703a fa1f f3ba 5853 213a c373 1cba
000002a0: b3aa 133a 39a4 7e3a 837b 1db8 0d65 b7ba
000002b0: dab5 8eba 5384 9b3a 496b 72ba cf5e 5039
000002c0: 3403 0039 00c1 bdba f17c cb3a a9a9 f83a
000002d0: 2062 92b9 f301 a538 fa54 14b9 d251 acba
000002e0: abd9 9e3a 903a f039 b837 a3ba e244 f03a
000002f0: 2473 5aba 694a d839 dc28 c2ba 7b29 843a
00000300: 71cf 4f38 77a7 6db9 ed49 06b9 1686 aab9
00000310: 1e83 32b9 b127 40b9 7b95 8ab9 df87 1f38
00000320: ac7a c7b8 f218 9cb8 29cd eeb8 e8ea 8b39
00000330: 7ca9 b939 5515 f3b8 bcd5 9738 e1a3 4439
00000340: c177 7039 d01f 5337 ce05 8cb7 caa7 94b8
00000350: 8285 c139 3417 92b5 b2e0 5539 4af7 bcb5
00000360: 5940 75b9 e8a0 c639 bee6 5f39 1b0d f738
00000370: f678 e139 10f4 0038 7e4f 2eba f99f 9e39
00000380: 71ac 6db9 048e 7939 3da3 07b9 a502 adb9
00000390: fb07 3539 8349 e5b9 a05f c534 e33b b538
000003a0: ed44 e638 3805 93b7 ccf9 9bb7 fbcd b7b9
000003b0: 7a17 46b8 039a 9039 8aad 38b9 c754 4b38
000003c0: 4ed4 69b9 fb6d b4b9 ee56 b939 9804 e539
000003d0: f9fe ceb7 9936 42b9 8c18 8e38 d4af a8b9
000003e0: f7da 7e39 c0f8 ec37 3a51 5eb9 6e31 cf39
000003f0: e37e f3b7 c4ff cab8 2a41 c0b9 f0ca 5f39
-0.00010361865 -2.9050148e-05 7.0629954e-05 -0.0005060742 -0.00030790997 -0.00025878588 -0.00044932583 0.00018602458
0.00013114282 -9.713679e-05 -0.00022646578 0.00043557945 0.0005316555 0.000117594 -0.00010574772 0.00036492993
0.00038224086 3.9893675e-06 -2.7810038e-05 -0.00022106752 0.00053435366 -7.197953e-07 0.0003237294 6.0700785e-07
-0.00036657843 0.00066702615 0.0002918217 0.00037061897 0.0002763313 6.5904256e-05 -0.000872796 0.0004443364
-0.00033495217 0.00040087345 4.1689702e-05 -0.0005746799 0.00027212457 -0.0006532515 0.00014603176 -0.00012144816
0.00016444664 0.00022204958 -1.1596323e-05 -0.00049551146 -0.00028720516 0.00039160345 -0.00026657587 6.788798e-05
-3.301635e-05 -0.0004962162 0.0005305898 0.0006571139 -9.589962e-05 6.2327217e-06 -6.281236e-05 -0.00045854432
0.00039124108 0.00014017559 -0.00040126458 0.0006439762 -0.00021102159 0.000100132645 -0.00052302086 0.0003162894
-0.002980204 0.0019816572 0.0034960245 -0.0066226227 -0.004571678 -0.0038604958 -0.0063314885 0.0032093239
0.004441841 -0.0016469995 -0.003564623 0.0034970087 0.006721179 0.0026499059 -0.001015518 0.0057596345
0.0058027515 0.000102565326 -0.0005230002 -0.0041139843 0.0067078685 -6.2643294e-06 0.0045629684 1.6536376e-05
-0.0050302674 0.0051171193 0.0042063817 0.00479731 -0.0016727728 0.0005622791 -0.0055276663 0.0058219885
-0.0047184927 0.005599516 0.0017494584 -0.0070989756 0.004320915 -0.007938247 0.0032808937 -0.0038371186
0.0028521074 0.0055339015 -0.00013854491 -0.0060214554 -0.0058162934 0.005260418 -0.0044003744 0.0010478136
0.00207218 -0.0062985145 0.0067463894 0.0080781635 -0.0018219785 0.0015195335 -0.0013163786 -0.0057214773
0.0055565694 0.0026432106 -0.00584863 0.008108548 -0.0045237406 0.0028440414 -0.0063631427 0.00465252
-0.00047199288 0.00010919217 0.00049359363 -0.0015045449 -0.0009965942 -0.00081809424 -0.0013847777 0.0005990156
0.00069311843 -0.00029590676 -0.0007337911 0.0008808539 0.0015393406 0.00034330235 -0.00010563821 0.0012054266
0.0012637315 2.5627216e-05 -9.132849e-05 -0.0007927233 0.001555224 7.042354e-08 0.0009841277 1.8630298e-06
-0.0010921081 0.0012966836 0.00092739036 0.00095522695 0.00014794394 0.00012472218 -0.0016143612 0.0013202224
-0.0010379936 0.0012200547 0.00016372604 -0.0015828023 0.00091824 -0.0018548958 0.0006154082 -0.00059681776
0.0005633041 0.0009713802 -3.7546746e-05 -0.0013991907 -0.0010887936 0.0011864997 -0.0009247554 0.00019871745
0.00012208225 -0.0014477074 0.0015524906 0.0018971461 -0.000279204 7.868176e-05 -0.00014146036 -0.0013146943
0.0012119313 0.0004582 -0.0012452519 0.0018331076 -0.00083331973 0.0004125417 -0.0014813202 0.0010083163
4.954584e-05 -0.00022664467 -0.00012806775 -0.0003252483 -0.00017024248 -0.00018325333 -0.00026432783 3.8035094e-05
-9.511909e-05 -7.443306e-05 -0.000113869384 0.00026687165 0.00035412225 -0.00011591116 7.240052e-05 0.00018753066
0.00022932795 1.2583987e-05 -1.6692004e-05 -7.088443e-05 0.000369113 -1.0884601e-06 0.00020396968 -1.4079062e-06
-0.00023388992 0.00037885387 0.00021352895 0.00011780319 0.00043005467 3.074488e-05 -0.00066494185 0.00030255297
-0.00022666321 0.00023799395 -0.00012935414 -0.00032999102 0.00017264478 -0.00043733054 3.6763686e-07 8.641907e-05
0.00010980093 -1.7526196e-05 -1.859376e-05 -0.00035057947 -4.7228743e-05 0.00027580568 -0.00017612256 4.8477927e-05
-0.00022299701 -0.00034414217 0.00035350717 0.00043681706 -2.4675845e-05 -0.00018521621 6.77566e-05 -0.0003217446
0.00024304898 2.8249226e-05 -0.00021201829 0.00039518945 -2.9026944e-05 -9.679751e-05 -0.00036669645 0.00021342537

feature.0.bias_ih_l0 f4 [256]
00000000: 3b68 fc3b 4ddf 603d fe12 883c 62e1 b63b
00000010: ed42 d43b 6469 7a3a 10ef a93b c519 343c
00000020: e1aa 8b3c 2318 8639 7f37 b03b 2f0f e33c
00000030: 82cc 773b 6957 393d 626f c23b 7eaa b83b
00000040: 0cdb 7d3b 5214 4337 7ec2 d039 d9ac a13b
00000050: 6afd 613b 5a72 3634 0876 693b 880c 9635
00000060: 5c57 033b aab3 563d 3fd9 a63a 9372 ca3c
00000070: 320a 303d 2819 0f39 d075 193d 033b 323b
00000080: b88a f93a c873 a73b cdad ba3c b690 023c
00000090: 7536 043b f18f aa3b 13a9 a83c 9d05 993c
000000a0: 8e6d 6e3a d60d 703c 86fc 3237 2a56 173b
000000b0: 4016 4c3c bdd0 ea3a fa05 e83a 92a1 fe38
000000c0: faeb 303d 99d6 333b 8317 833b 9e1c 003c
000000d0: ddb8 c43a ff0b 963c 2312 943b dd69 093b
000000e0: af71 6c3b 687d 993b 69ca ac3b 4bf1 fc3b
000000f0: 208d 923c 18af 0b3d 3722 2b3b a6ce 043b
00000100: 2e49 8fba 1912 97bc 6064 68bb bd25 333a
00000110: 62d8 2eba 2c0b 8139 409b e739 7294 f8ba
00000120: 5afe 68bb 1543 1739 511e 21ba 1855 25bb
00000130: 3404 9b3a 0493 80bc 921e e2ba 1931 623a
00000140: 02f6 513b 184c 3735 75a8 85b8 0476 08b9
00000150: 3b3c ea3a 892c 3933 6f69 77b9 6f5a 3fb3
00000160: d1a7 043a 2db6 6abc fb66 103a 74aa 09bc
00000170: a661 45bc 1ebe 31b8 e167 7a3a 0d82 8f3a
00000180: 027d 263a 6bea f0b8 c298 d2bb c55e 1dbb
00000190: c08c 0a3a 73c3 e33a 18ce 73bb 8a1d 96bb
000001a0: d590 ba39 d0a3 76b9 5c29 cd36 5904 8b3a
000001b0: b1d5 2eba fef8 e539 07bd d13a e5df 9038
000001c0: 62fc 81bc 4166 523a 0137 bf3a a6a5 313a
000001d0: f313 0cb9 a36b a0bb d15a 84ba ee3a 9f3a
000001e0: 36dc 8c39 ed95 47ba 2606 0c3a 9ad5 80b8
000001f0: 7ab7 99bb a253 1cbc 87d9 923a 35c5 2e3a
00000200: 92e6 99bc 3e0b ee3c 1f15 b13a ad86 423c
00000210: 99c3 88bd 7c05 08bc 6ee1 a03c d6b7 523c
00000220: 7cba 8d3c bb72 2a3b aaae 223c 6f37 4c3d
00000230: 202e fe3b e0a3 1cbd 617a 0b3d 117a 8c3b
00000240: ae76 05bd 97ac ea38 f10d 1dbb 9b42 9d3c
00000250: 9f5b ef3b 5fa3 8637 2de7 b13c 9c13 d839
00000260: 018d 05bc 6710 a63d 8885 db3b fe62 503d
00000270: be05 6e3d 4b12 963b 36b7 a6bd 10c4 ef3b
00000280: 4c07 d0bb b1df aabb 70b1 4c3d 80b0 38bd
00000290: 02a4 9d3b 7096 2bbc 06ab 1dbd f0a4 aa39
000002a0: af53 783b b8b1 8dbb 096c 903a 9bad 18bc
000002b0: f6f6 e5bb 532d 383c 9065 823c 8701 dc3a
000002c0: 6b54 b53d 30c1 ecbb b44a f93b 11cd c83b
000002d0: c9c0 283c bbf9 50bd f8d4 aebc c02b 0dbc
000002e0: 2277 9a3c 3ab2 e9b9 1c3a 95bc c255 a23c
000002f0: 1df7 87bc 9212 1b3d 26b2 0fbc 3316 c73b
00000300: 8cc6 013c a75a 633d da33 8d3c a411 c63b
00000310: d7ef dd3b 3649 803a e0a4 b53b b6c1 383c
00000320: 62bb 913c 0582 8639 c2f6 b53b 93d6 e03c
00000330: 1bfb 843b 82fa 3a3d 48fa c33b 3ec1 c43b
00000340: 3131 8d3b 0984 4637 e4eb d139 2457 a83b
00000350: 3e1e 763b 18fe f733 6cb9 733b 4d85 8b35
00000360: ecf4 083b 8edc 543d 0549 ac3a b5a5 c53c
00000370: 6b8a 343d aca2 1139 ceba 133d 0aec 3c3b
00000380: 88b0 013b a5b8 b13b 1ef2 be3c 8282 183c
00000390: 8ded 083b 661b bc3b 2466 ae3c 9d8f 9e3c
000003a0: e690 723a e426 7f3c 3fde 3337 fa0d 203b
000003b0: e656 593c e9ce f43a f096 f73a 29b0 fd38
000003c0: 4ed3 343d e111 3f3b 071d 8d3b 93c0 083c
000003d0: 5611 c73a aee4 983c 5afd 953b e613 123b
000003e0: 0a28 793b 1670 9d3b 1d42 b83b 45da 073c
000003f0: 1772 953c 45e5 0d3d 3c1f 363b 2f2e 0a3b
0.007702855 0.054900456 0.016610619 0.005581067 0.0064777047 0.00095524476 0.005185969 0.010992472
0.017049255 0.00025576455 0.0053777094 0.027717201 0.0037811105 0.045249376 0.005933688 0.0056355586
0.0038735298 1.1627637e-05 0.0003981776 0.004933935 0.0034483322 1.6991672e-07 0.003562333 1.1179518e-06
0.0020041084 0.052417435 0.0012729539 0.024712836 0.042978473 0.00013646914 0.03746587 0.0027195818
0.0019038534 0.0051102377 0.022787953 0.007969072 0.002017406 0.0052051474 0.020588433 0.018679434
0.00090953044 0.014651736 1.0668422e-05 0.002309213 0.012456477 0.0017914992 0.0017701976 0.000121417586
0.043193795 0.0027441143 0.0040006055 0.007819323 0.0015008707 0.018316267 0.0045187636 0.002096764
0.0036078503 0.004684139 0.0052731526 0.007719194 0.01788956 0.03410253 0.0026112923 0.0020264774
-0.0010931843 -0.018441247 -0.0035460219 0.00068339315 -0.0006669817 0.0002461312 0.00044175424 -0.0018965139
-0.0035551996 0.00014425472 -0.000614618 -0.0025227722 0.0011826814 -0.015695103 -0.0017251542 0.0008628532
0.0032037501 6.8283543e-07 -6.373312e-05 -0.00013013935 0.0017870733 4.3114174e-08 -0.00023595033 -4.4552902e-08
0.0005060407 -0.014325661 0.00055085093 -0.008402456 -0.012047207 -4.237715e-05 0.00095522223 0.0010948792
0.0006351025 -0.000114877555 -0.0064269016 -0.0024012786 0.00052852556 0.0017376974 -0.00372017 -0.004581158
0.00035584593 -0.00023521413 6.114291e-06 0.0010606154 -0.0006669416 0.00043863797 0.0016001769 6.908159e-05
-0.015867416 0.0008026101 0.0014588536 0.00067766977 -0.00013358872 -0.004895644 -0.0010097866 0.00121483
0.0002686695 -0.0007613588 0.00053414924 -6.143302e-05 -0.0046910616 -0.009541424 0.0011203744 0.00066669594
-0.018786702 0.029058095 0.0013510323 0.0118729295 -0.06677932 -0.008302089 0.019638743 0.012861213
0.017300837 0.0026008326 0.0099293385 0.049857553 0.0077569634 -0.03824222 0.034052256 0.0042870124
-0.032583885 0.00011190137 -0.0023964609 0.019196799 0.0073046233 1.605012e-05 0.021716679 0.0004121334
-0.008151294 0.08108597 0.006699268 0.050875656 0.058110945 0.0045798174 -0.081404135 0.0073170736
-0.006348526 -0.0052146544 0.049973905 -0.0450902 0.004810811 -0.010472879 -0.03849318 0.00032547815
0.0037891676 -0.0043241642 0.0011018525 -0.0093187345 -0.0070179654 0.011241275 0.01591757 0.0016785123
0.08853992 -0.007225178 0.0076077823 0.0061279614 0.01029987 -0.05101941 -0.021341786 -0.008616388
0.018855635 -0.00044574012 -0.018216185 0.019816283 -0.016597325 0.037859507 -0.008770501 0.0060756444
0.007920872 0.055506375 0.017236639 0.0060445834 0.006772976 0.0009787444 0.0055433363 0.011276653
0.017789546 0.00025655344 0.0055530975 0.027446067 0.0040582544 0.04564906 0.0059807636 0.0060044816
0.0043088426 1.18324615e-05 0.0004003934 0.005137341 0.0037554647 1.1548053e-07 0.0037189377 1.0395103e-06
0.0020897938 0.05196815 0.001314432 0.024126867 0.04407732 0.00013888878 0.036066823 0.0028827214
0.0019789059 0.0054236227 0.02330881 0.009308459 0.0020893544 0.005740571 0.021288939 0.01935559
0.0009253159 0.015573237 1.0720977e-05 0.0024422393 0.013265347 0.0018677387 0.0018889587 0.000120967925
0.04414683 0.0029154944 0.004306439 0.0083466945 0.0015187662 0.01866373 0.004577321 0.0022289692
0.003801825 0.0048046215 0.0056231157 0.008291786 0.018242879 0.034642477 0.0027789613 0.0021084656

feature.0.bias_hh_l0 f4 [256]
00000000: 1c68 fc3b 6b63 613d 6113 883c c2d8 b63b
00000010: 3e3c d43b 7a55 7a3a fcfe a93b 631b 343c
00000020: eca4 8b3c deea 8539 e151 b03b ad0c e33c
00000030: e3cf 773b 5e8b 383d 388a c23b 54a8 b83b
00000040: 23e4 7e3b e131 4337 07b6 d039 c3a8 a13b
00000050: 6efd 613b edab 0134 3653 693b 27bc 9a35
00000060: 4056 033b 085d 573d 6e1a a73a 285b ca3c
00000070: c168 2f3d c5e0 0e39 a6bf 1a3d 543d 323b
00000080: 6f94 f93a 2957 a73b 36bb ba3c 85e9 fb3b
00000090: dc43 043b a791 aa3b aa04 a93c bd87 983c
000000a0: 2e56 6e3a df0d 703c 8d78 3237 2649 173b
000000b0: ae14 4c3c deeb ea3a 3ae0 e63a e88b fa38
000000c0: d01a 303d 0ed4 333b 0119 833b 6b3e 003c
000000d0: 61b8 c43a abfc 953c ae25 943b 1d69 093b
000000e0: 7276 6c3b f774 993b e3c8 ac3b 23b1 fe3b
000000f0: a3ff 913c f8b3 0b3d 1627 2b3b 4ee6 043b
00000100: 1f45 8fba da09 97bc 5a6f 68bb e535 333a
00000110: 4e98 2eba 2c60 8139 ee20 e739 8b93 f8ba
00000120: 2c6d 69bb d3a0 1739 ec29 21ba c759 25bb
00000130: 34f6 9a3a fb1b 82bc 8023 e2ba 7c32 623a
00000140: 29f4 513b f0f6 3db2 65cf 84b8 686a 08b9
00000150: 083c ea3a a61f 8332 6f69 77b9 b05a 15b4
00000160: 6dad 043a 3e27 70bc 0cca 0f3a 72cb 08bc
00000170: 9748 45bc 56be 31b8 72dc c73a 4782 8f3a
00000180: 0b1f 263a 34e4 f0b8 f89a d2bb 5948 20bb
00000190: d08c 0a3a 6fc7 e33a a822 75bb 80d0 95bb
000001a0: 478c ba39 6bcb 76b9 f1f2 8e36 b23a 8b3a
000001b0: abe5 2eba 3719 e639 6dbf d13a 9bc0 a638
000001c0: 4481 88bc f672 523a 7749 bf3a a639 343a
000001d0: b97a 0fb9 9c67 a0bb a65d 84ba df3a 9f3a
000001e0: b7d9 8c39 ec99 47ba f40b 0c3a e7d3 45b8
000001f0: c81e 93bb c753 1cbc 85b5 923a 71bf 2e3a
00000200: 0dd6 fc3b f6f6 56bd 0afa 7cbc 6dec be3a
00000210: e7fa c33c 254f 40bb f3e4 e0bc 0190 863b
00000220: 9bd7 4d39 797e dcbb e109 26bd 45f1 5a3c
00000230: 39b3 f23b 3e92 b33d 2b25 8e3c 46ae 043b
00000240: 15b2 b7bb 04e8 6339 a489 82bb 138a 72bc
00000250: 4008 e73b 0be5 7437 0519 b93c 06ed aeb8
00000260: 524e e9bb 611d 223d eb73 d53b 8015 cf3b
00000270: f304 823d bf12 c0bb b320 87bd 79eb 0b3c
00000280: 086d c9bb 2e46 b4ba 3931 10bd ea6e 3ebd
00000290: df30 b33b ec9b 30bc 3926 59bc e705 db3b
000002a0: 3573 5f3b 0e7b e6bb 26fe 8f3a 2c1b 1ebc
000002b0: 4db4 e43b 360b 2b3c 63d2 613c cded db3a
000002c0: f0a2 193d b1a7 83bb c459 0d3c 0ed9 1d3b
000002d0: fa1b 6bbc c3c9 40bd b10f cd3c cc11 26bc
000002e0: 6d8f 443b 952c b1bc e27f 463c defa ab3c
000002f0: 5b3a 153d 6749 d93b 4d42 10bc d450 c63b
00000300: efc5 013c 83e7 613d 2c34 8d3c 10eb c43b
00000310: 2ce1 dc3b a83f 803a d6a1 b53b 0ec2 383c
00000320: 9dcb 913c e0d4 8639 bee7 b53b f4c7 e03c
00000330: 17fa 843b 780d 3a3d 00e4 c33b 5bc1 c43b
00000340: 71e3 8d3b a1b6 4337 f493 d139 3258 a83b
00000350: 6812 763b 2a51 fe33 1b9f 733b f07e 9e35
00000360: 59f9 083b 420b 553d f248 ac3a 7821 cd3c
00000370: 7b95 343d 0453 1139 7282 163d f3d9 3c3b
00000380: d69d 013b a576 b13b beea be3c e697 1d3c
00000390: adee 083b 7e60 bc3b fd8f ae3c 366d 9e3c
000003a0: f98b 723a c827 7f3c b38e 3237 af06 203b
000003b0: 7b5a 593c 79d8 f43a 95a0 f73a 18fb fa38
000003c0: 41f3 353d db11 3f3b 351b 8d3b 5655 0d3c
000003d0: 7712 c73a 5eca 983c b0ef 953b 3513 123b
000003e0: 7416 793b 6882 9d3b be4a b83b 7461 0b3c
000003f0: a894 943c 37f6 0d3d 141f 363b 7307 0a3b
0.0077028405 0.055026453 0.016610803 0.0055800388 0.006476908 0.000954948 0.005187867 0.010992858
0.017046414 0.00025542727 0.0053808545 0.027716005 0.003781312 0.045054786 0.005936887 0.0056353007
0.0038893304 1.1634519e-05 0.00039808473 0.004933448 0.0034483331 1.2076607e-07 0.0035602576 1.1528654e-06
0.0020040423 0.052578956 0.0012748966 0.02470167 0.04282451 0.00013625908 0.037780426 0.00271972
0.0019041429 0.005106826 0.022794347 0.00768775 0.002018205 0.0052053514 0.020632107 0.018619413
0.0009091821 0.014651745 1.0637695e-05 0.0023084371 0.012456102 0.0017923077 0.0017614432 0.000119469885
0.04299432 0.0027439627 0.0040007834 0.007827382 0.0015008562 0.018308958 0.0045210933 0.0020967193
0.003608134 0.0046831327 0.005272971 0.007772581 0.017822092 0.03410718 0.0026115826 0.0020278874
-0.0010930634 -0.018437315 -0.0035466761 0.0006836339 -0.00066602684 0.0002467645 0.00044084288 -0.001896487
-0.003561805 0.00014460394 -0.00061479094 -0.0025230513 0.0011822642 -0.015882483 -0.0017253011 0.00086287386
0.00320364 -1.1057395e-08 -6.332881e-05 -0.0001300961 0.0017870674 1.52648e-08 -0.00023595033 -1.3909698e-07
0.0005061243 -0.014657794 0.00054851244 -0.008349286 -0.012041233 -4.2377353e-05 0.0015248193 0.001094886
0.0006337023 -0.00011486598 -0.006427165 -0.0024457185 0.0005285265 0.0017378161 -0.003740469 -0.0045719743
0.000355812 -0.00023536167 4.260212e-06 0.0010622351 -0.00066717964 0.00043887805 0.0016002484 7.9513724e-05
-0.016663201 0.0008027995 0.0014594038 0.00068750454 -0.0001368326 -0.0048951637 -0.001009871 0.0012148282
0.0002686509 -0.00076141837 0.00053423573 -4.716581e-05 -0.0044897534 -0.009541458 0.0011193013 0.00066661
0.0077159465 -0.052481614 -0.015440473 0.001456631 0.02392335 -0.0029344049 -0.027452921 0.004106522
0.00019630643 -0.006728944 -0.040536765 0.013363187 0.007406619 0.08768128 0.017351707 0.0020245477
-0.005605946 0.0002173484 -0.003983693 -0.014803427 0.007050544 1.4596862e-05 0.022594938 -8.3411156e-05
-0.007119932 0.0395788 0.0065140626 0.0063197017 0.063486 -0.0058616097 -0.06598034 0.008540028
-0.0061470307 -0.0013753825 -0.035203192 -0.046492495 0.0054684724 -0.010779362 -0.013253742 0.006684053
0.0034095768 -0.007033712 0.0010985776 -0.009650033 0.0069795013 0.010439685 0.01378307 0.0016779244
0.037508905 -0.004017793 0.008627359 0.0024085674 -0.014349932 -0.047067415 0.025031896 -0.010136079
0.0029992715 -0.021627704 0.012115451 0.020993646 0.036432605 0.0066310647 -0.00880487 0.006052116
0.007920726 0.055152427 0.017236792 0.006009467 0.0067407098 0.0009784596 0.005542974 0.011276735
0.017797286 0.00025717076 0.0055513075 0.027439095 0.0040581333 0.045423 0.0059781075 0.006004495
0.0043300916 1.1665427e-05 0.0003997382 0.005137467 0.0037547592 1.184256e-07 0.0037173692 1.1808861e-06
0.0020900576 0.05201269 0.0013144298 0.025040373 0.04408787 0.00013859203 0.036745496 0.0028816431
0.0019777915 0.005415755 0.023305293 0.009618735 0.0020894215 0.0057488075 0.021308893 0.019339185
0.0009252425 0.015573449 1.06428515e-05 0.0024418046 0.013266201 0.0018680237 0.0018892462 0.00011967699
0.044421438 0.002915493 0.004306222 0.008626303 0.0015187998 0.018651184 0.004575692 0.002228928
0.0038007768 0.0048068054 0.0056241443 0.008507121 0.018137291 0.034658637 0.002778952 0.002106157

feature.2.weight_ih_l0 f4 [128, 64]
00000000: 9c51 97bb 167f 5b3c 9615 db3b f9e5 d3bb
00000010: 628f b0bb 96a6 53bb 9cf6 c4bb 0bd8 b23b
00000020: 77f8 ed3b e9c6 c2ba 2cf0 92bb 40df fc3b
00000030: cf25 c23b cfdd 3c3c ffde 33bb f3e9 b93b
00000040: fead aa3b 8310 2e39 6b6f 49ba caaa 96bb
00000050: 9660 c13b e68e 78b7 a76d 953b 664d e537
00000060: e0d0 8bbb f7b7 623c cce5 6a3b 3c88 0f3c
00000070: 2e42 34bc 5402 4b3a 265f 30bc d5df a53b
00000080: 9241 87bb a797 b83b 0824 e13b a5ed e9bb
00000090: efc9 7b3b db8d eabb c80b fa3b 4e7b f2bb
000000a0: de9a 283b 3753 f13b 1802 5bb9 a35d a6bb
000000b0: cf37 ebbb 9fb8 903b fdbf 63bb 4624 803a
000000c0: 934a 313c 6c79 b0bb ec69 c43b dfd9 023c
000000d0: cbb1 11bb 338b bc3b dacd 3abb b8f5 9ebb
000000e0: 5720 a83b 0de3 743b 65e7 bbbb 4734 fb3b
000000f0: ba45 f4bb 7d07 1d3c b41f b4bb 362c 863b
00000100: 30c1 22bc 9a02 a73c 2473 5d3c d73d 86bc
00000110: 52ef 4abc cdbe 0dbc 0a70 75bc f3a0 363c
00000120: a155 7f3c d79d 84bb 6b36 25bc 26e1 533c
00000130: 7128 7e3c 5094 923c 77e8 a7bb 0253 5f3c
00000140: 31a7 643c d958 f039 6247 f6ba 6393 30bc
00000150: aae9 7c3c d07c 19b8 ea25 343c 838e 8138
00000160: f438 36bc eb50 b13c 4fdb 1b3c 12bf 8c3c
00000170: c7f7 90bc 428e 003b 386f 93bc 3337 583c
00000180: ffdc 30bc 9b26 643c 57d3 3f3c c6ca 8ebc
00000190: bd2a 203c 8bfc 99bc 498f 6f3c edb4 74bc
000001a0: 9f73 da3b 0d06 873c 035a 20ba 1a85 60bc
000001b0: 29ff 88bc 9028 413c 2920 1ebc ef4a 303b
000001c0: 4fee 883c 14fa 65bc 150b 7e3c c832 a13c
000001d0: 8d1f afbb 12c9 223c 5967 bcbb 1201 51bc
000001e0: 23a0 523c c21d 073c 8421 67bc 2f98 9f3c
000001f0: 5d9f 7dbc 4156 843c d129 77bc ef1e 2d3c
00000200: f248 e4ba 8b29 c63b bc7e 2e3b 0ca3 15bb
00000210: 7865 01bb b052 8bba 3fd3 0abb 1a7b 0a3b
00000220: aeff 393b d512 f7b9 883b d8ba 12ae 543b
00000230: 7251 053b 9f4d a73b 05d1 8eba b719 063b
00000240: dfea e43a 994f 8538 d21f 98b9 cd72 d9ba
00000250: 97f2 033b c14f 0eb7 dbc0 d33a 270a 9237
00000260: 4575 bdba 6e77 c53b 878c 9c3a 4770 6a3b
00000270: 0a63 a1bb f983 8a39 7f9e 94bb ff86 e13a
00000280: 5746 b6ba 487d 033b 23d9 3f3b 7c81 27bb
00000290: 2ea0 ab3a c90c 21bb 1157 493b ceac 40bb
000002a0: 6d63 5c3a ba2a 393b 19cd 93b8 7986 deba
000002b0: 1748 30bb b613 c23a e8a6 91ba 349e a039
000002c0: 6154 9f3b 4d26 efba e153 073b ac05 383b
000002d0: 33e4 49ba 357d 1d3b 7510 8cba ac82 d5ba
000002e0: 1eec eb3a edf4 b43a a691 05bb 6ed3 313b
000002f0: 6448 3fbb 889b 863b 265f eeba 79d1 b63a
00000300: 1277 94bb f713 483c bc66 d33b d1f1 d3bb
00000310: d6c8 aebb 11d4 57bb a65a c6bb 4c00 ac3b
00000320: 6862 e73b afcf c8ba 4355 90bb 5bb1 e93b
00000330: 2d19 c43b df1f 2d3c 11e3 2abb a1b7 bb3b
00000340: 2e54 ae3b eff8 3139 345f 4aba 739c 96bb
00000350: 670c c33b d1f8 88b7 733a 953b a020 1e38
00000360: fd5b 8ebb f53d 4e3c 7718 6e3b 5efb 073c
00000370: e2c3 26bc 63f1 4a3a d0d3 21bc bef4 a73b
00000380: ae11 89bb f69a b83b 9aa6 d13b 2262 e8bb
00000390: 6820 803b f799 ebbb 16a4 ec3b 601e e8bb
000003a0: 515b 2b3b 17e5 ee3b 88da 5bb9 455f a8bb
000003b0: d019 e9bb 0606 933b 132e 6cbb 4ae5 813a
000003c0: c0dc 223c 329d b2bb cd66 c63b ae5d 023c
000003d0: b04e 12bb 7d83 b03b 650e 34bb e20c a1bb
000003e0: 62e8 a93b 82eb 6f3b 861c bdbb f3f5 fb3b
000003f0: 5125 ebbb 8c91 113c d3ea b4bb e92f 883b
-0.004617883 0.013396999 0.006685923 -0.006466624 -0.0053881863 -0.0032295338 -0.0060108434 0.0054578832
0.0072622853 -0.0014860305 -0.004484197 0.007717043 0.0059249173 0.011527493 -0.0027446148 0.005673641
0.0052087298 0.00016600084 -0.0007684144 -0.0045979964 0.0059014065 -1.4815223e-05 0.0045601907 2.7334969e-05
-0.004266843 0.013837806 0.0035842536 0.008760508 -0.011002107 0.00077441824 -0.010764873 0.0050620832
-0.0041276896 0.0056333127 0.0068707503 -0.007138925 0.0038419922 -0.007158024 0.007630799 -0.007399953
0.0025727074 0.0073646563 -0.00020886248 -0.0050770803 -0.0071782838 0.00441654 -0.0034751885 0.0009776435
0.010821003 -0.0053855684 0.005994072 0.007986515 -0.0022231217 0.0057538985 -0.0028504045 -0.0048510693
0.0051308083 0.0037366778 -0.0057343715 0.007666144 -0.007454601 0.009584305 -0.0054969434 0.004094626
-0.009933755 0.020386983 0.013516221 -0.01638691 -0.01238616 -0.0086514475 -0.0149803255 0.011146772
0.01558438 -0.0040471363 -0.010083775 0.012932098 0.015512572 0.017892987 -0.0051241475 0.01363063
0.013955877 0.00045842564 -0.0018789584 -0.010777327 0.015436569 -3.6594283e-05 0.010995368 6.177744e-05
-0.011121977 0.02164503 0.009512736 0.017180953 -0.017696274 0.0019616042 -0.01799737 0.013196754
-0.010794877 0.01392522 0.011708102 -0.017430674 0.009775815 -0.01879718 0.014621564 -0.014935714
0.006666615 0.016482377 -0.00061169284 -0.013703609 -0.016723232 0.011789456 -0.009651222 0.0026900133
0.016715197 -0.014036674 0.015505572 0.019677535 -0.0053443373 0.009935634 -0.0057496247 -0.012756603
0.012855562 0.008246841 -0.014107112 0.019481746 -0.01547989 0.01615441 -0.015085653 0.010566457
-0.0017416759 0.006047433 0.0026625833 -0.002283278 -0.0019744318 -0.0010629501 -0.0021183041 0.0021130503
0.0028381157 -0.00047125542 -0.0016497234 0.0032452387 0.0020342735 0.0051056887 -0.0010896033 0.0020462105
0.0017465017 6.3567604e-05 -0.00029015407 -0.001659 0.0020133608 -8.482429e-06 0.0016155498 1.7409284e-05
-0.0014454505 0.0060262 0.0011943736 0.003577249 -0.0049251365 0.00026419738 -0.004535496 0.001720637
-0.0013906461 0.0020063687 0.002927371 -0.0025559356 0.0013094002 -0.002457427 0.0030722062 -0.0029399875
0.00084071496 0.0028254227 -7.047709e-05 -0.0016977332 -0.0026898438 0.00148069 -0.0011112364 0.0003063545
0.0048623537 -0.0018245667 0.002064936 0.0028079553 -0.0007701546 0.0024030928 -0.0010686057 -0.0016289554
0.0017999446 0.0013805904 -0.0020381003 0.0027134079 -0.0029187435 0.0041078962 -0.0018186315 0.0013947926
-0.004530796 0.012211791 0.006451456 -0.0064680357 -0.005334 -0.0032932798 -0.0060532866 0.005249059
0.0070612915 -0.0015320684 -0.0044046952 0.007131738 0.0059844465 0.010566681 -0.0026075284 0.0057286774
0.0053200936 0.0001697277 -0.0007719875 -0.004596287 0.005952406 -1.6328328e-05 0.004554087 3.770052e-05
-0.004344462 0.012588014 0.00363305 0.008299677 -0.010178538 0.0007741658 -0.00987716 0.005125611
-0.004183016 0.005633707 0.0063980343 -0.0070917765 0.003910113 -0.007189985 0.007221709 -0.007083699
0.0026146958 0.007290493 -0.00020966877 -0.00513831 -0.007113673 0.004486802 -0.0036038205 0.0009910252
0.009940326 -0.005450868 0.0060547353 0.007956905 -0.0022324733 0.0053867684 -0.00274744 -0.004914866
0.005185173 0.003660888 -0.0057712225 0.0076892315 -0.0071760793 0.008884799 -0.0055211573 0.004156102

feature.2.weight_hh_l0 f4 [128, 32]
00000000: 040a 1c3b 9a45 993a e5e3 0bbb b82b eb3a
00000010: 2d9b 50b9 c253 36bb e514 0038 53c8 503a
00000020: d5df 46ba b5f1 a2b9 b304 b6ba 67e5 3fba
00000030: fd59 aeba 48c8 1a3b bda6 c938 8007 0bb9
00000040: 465e db3a 9316 8bba 5bfa 683a 2bae 933a
00000050: 227d dbb7 c767 4039 c237 d0ba d39f b43a
00000060: e647 2339 b689 32b9 4cc5 7cb9 44a0 1dba
00000070: bf86 66ba 9e3e 183b 08fb 7dba 09c3 05bb
00000080: f512 023c 43a9 ad3b b30d e4bb 514e d13b
00000090: 191b f8ba fba9 14bc 7a21 ba38 2fef 2d3b
000000a0: 1581 78b9 d05c 0dbb ab0b abbb 0ac9 6fbb
000000b0: 4ffa 7bbb d0d7 053c 983d 97ba ad78 d7ba
000000c0: 1322 ca3b b5f9 7fbb e405 5d3b 6bba 863b
000000d0: f1f1 65b9 b887 213b 0675 c8bb 22f6 123b
000000e0: 4b9f 063b 49ff d03a 8a46 ddba bd74 08bb
000000f0: d291 7ebb ca75 003c 8a1e c0ba f6d2 ebbb
00000100: 78a3 313a 82e6 8039 f6be 1cba 2a9a ef39
00000110: 22fd 7d38 cb44 51ba a091 5a37 83ca 6639
00000120: 2380 d7b9 eb2f 7436 b77e a7b9 7be8 b3b8
00000130: c7c5 c8b9 eaba 2a3a daca 1439 31a8 9738
00000140: ecfd da39 8043 79b9 f6ec 5439 1e26 8b39
00000150: fb83 bfb7 8425 b7b8 8856 d4b9 19ba 0b3a
00000160: 0e08 dab8 8e9a 67b9 50db c634 7b21 27b9
00000170: cb7e 15b9 2a9a 283a 5bd1 b5b9 1ad0 0eba
00000180: beaa 2b3b 3420 c03a 2747 17bb 6822 043b
00000190: 5df1 afb9 8877 46bb f8cf bb37 8221 5e3a
000001a0: 395b 1bba 64a3 ecb9 51d6 cfba 4bfe 75ba
000001b0: adf1 b3ba 0e38 2c3b 8232 1ab8 3783 85b9
000001c0: a297 fb3a b6b1 9bba 3a9f 843a 5c5b a53a
000001d0: 1aa8 4ab8 bb40 dd39 2c99 f2ba 3b47 a83a
000001e0: 70e8 b039 eab7 9238 59f5 aeb9 c28a 2bba
000001f0: f940 8bba 1408 283b 879e 5fba 35d1 16bb
00000200: c75f b73a 33fd 743a af50 98ba 1e6f 8e3a
00000210: 3d07 87b9 6b7e d2ba da33 d137 a578 cf39
00000220: d2f3 09b9 7927 a1b9 961d 64ba 347d 17ba
00000230: 0d0a 16ba 7180 bb3a bba8 10b9 6178 6cb9
00000240: 41aa 8c3a 7f5f 25ba 4056 063a c54a 2e3a
00000250: 76b9 b9b8 0e4c c739 4857 8bba 7c1c e539
00000260: c0a7 9439 1792 7439 afa5 8ab9 1553 94b9
00000270: 731a 21ba 0270 b53a 74ca 5bb9 6093 a8ba
00000280: 2cc9 013b 39c5 8e3a 41c6 e2ba 97b2 c43a
00000290: 71d7 45b9 0571 16bb 71f4 a937 7dbb 253a
000002a0: ebad 07ba 17ad 8fb9 e915 98ba 06e8 2fba
000002b0: e1bb 87ba 9ec3 013b 7501 3338 b21b 12b9
000002c0: 9a8e bb3a 0357 5fba 07f0 393a 766f 6f3a
000002d0: 40e0 29b8 2fc6 8e39 d337 b5ba 5cf4 853a
000002e0: e96e 4639 b406 cd36 0687 48b9 7456 f5b9
000002f0: 1c3c 49ba 5014 fe3a 7699 3fba 8dae e2ba
00000300: 1d5b a0b5 8b2e 0835 5a4d 99b4 b160 cd34
00000310: 9c05 9834 9809 ebb4 8a5c 0e33 18d5 b7b4
00000320: ba43 cf34 391a c434 9804 b6b4 7f23 beb4
00000330: 95c9 3db3 2ad2 a6b5 12eb 85b4 bc56 67b4
00000340: dc59 ab34 ae44 81b4 967a 8a34 76fb 8c34
00000350: cd7e c0b2 95ef 96b5 1b05 f8b4 dd24 92b4
00000360: 0dd7 b734 fd31 de34 09e8 2fb4 d657 d5b3
00000370: 04ce b3b4 e342 df34 0926 1834 6de2 15b5
00000380: c67a 9c38 a0c6 ba38 00c6 66b8 ade4 9b38
00000390: 4307 38b8 886b a8b8 9dc7 1834 9c89 cf37
000003a0: 1e7c 4138 0fcf 88b8 a89a b7b8 9028 79b8
000003b0: 98eb e6b7 ba94 bd38 a3d7 82b8 ed7d 69b8
000003c0: df7b df38 3b31 6ab8 b07c 6538 c14b 3138
000003d0: 69f1 b8b6 22e1 8f38 c1d6 d2b8 dbd0 44b8
000003e0: 622d 5438 7c09 d338 f372 d7b7 ffc1 99b7
000003f0: d72c 77b8 01f8 c038 dc04 9537 4de3 bfb8
0.002380968 0.0011693717 -0.0021345553 0.0017942106 -0.00019894233 -0.002782092 3.0537038e-05 0.0007964421
-0.0007586454 -0.00031079134 -0.0013886899 -0.00073202554 -0.0013301965 0.0023617912 9.615484e-05 -0.00013258867
0.001673647 -0.0010611586 0.00088874035 0.0011267116 -2.6165104e-05 0.00018349207 -0.0015885758 0.0013780541
0.00015571676 -0.00017026704 -0.00024106092 -0.0006012956 -0.00087938824 0.0023230682 -0.00096885907 -0.002041044
0.00793909 0.0052997186 -0.006959641 0.00638751 -0.0018928974 -0.00907373 8.875407e-05 0.002654027
-0.0002369921 -0.0021570213 -0.005219897 -0.0036588334 -0.0038448756 0.0081691295 -0.0011538742 -0.0016439162
0.0061686127 -0.003905875 0.0033725435 0.004111578 -0.00021929272 0.0024647545 -0.006117466 0.0022424539
0.0020541723 0.0015945222 -0.0016881984 -0.0020821535 -0.003884424 0.007840583 -0.0014657539 -0.0071967794
0.0006776373 0.00024585804 -0.0005979383 0.00045700494 6.055565e-05 -0.0007982968 1.30277185e-05 0.00022009951
-0.00041103465 3.6386725e-06 -0.00031947132 -8.578688e-05 -0.00038294328 0.0006512838 0.00014189948 7.231569e-05
0.00041769387 -0.00023771636 0.0002030617 0.00026540546 -2.2830432e-05 -8.733108e-05 -0.00040500262 0.000533016
-0.0001039655 -0.00022087453 3.7039945e-07 -0.00015938834 -0.00014256981 0.00064316636 -0.00034678992 -0.00054478797
0.00261943 0.0014658035 -0.0023083182 0.002016211 -0.0003355843 -0.0030283649 2.238898e-05 0.0008473621
-0.0005926374 -0.00045135163 -0.0015856718 -0.0009383901 -0.0013728641 0.0026278528 -3.67635e-05 -0.000254655
0.001919497 -0.0011878524 0.0010118254 0.0012615728 -4.831711e-05 0.00042200633 -0.0018508784 0.0012838611
0.00033742515 6.996079e-05 -0.00033370664 -0.0006543809 -0.0010624222 0.002563958 -0.00085303973 -0.002301288
0.0013990336 0.0009345591 -0.0011620725 0.0010866856 -0.000257546 -0.0016059404 2.4938887e-05 0.00039572004
-0.00013156168 -0.00030737722 -0.00087019184 -0.00057788496 -0.00057235436 0.0014305246 -0.00013795767 -0.00022551559
0.0010731892 -0.00063084805 0.00051245466 0.0006648715 -8.856032e-05 0.00038012903 -0.001063087 0.00043699506
0.00028353743 0.00023324076 -0.00026444855 -0.0002829066 -0.0006145604 0.0013842585 -0.00020960887 -0.0012861304
0.0019803746 0.0010892517 -0.0017301516 0.0015006837 -0.00018867642 -0.0022955548 2.0260197e-05 0.00063221884
-0.0005175757 -0.00027404047 -0.001160321 -0.00067102944 -0.0010355675 0.0019800435 4.2678283e-05 -0.00013933962
0.0014309466 -0.00085197407 0.0007092957 0.00091337354 -4.050159e-05 0.0002723201 -0.0013825841 0.001021992
0.00018924069 6.1102564e-06 -0.00019123786 -0.00046794454 -0.00076764985 0.0019384716 -0.0007308939 -0.0017294452
-1.1947446e-06 5.0731677e-07 -2.8554751e-07 3.8254578e-07 2.8316288e-07 -4.377914e-07 3.3146115e-08 -3.4241452e-07
3.8606032e-07 3.6526924e-07 -3.3903484e-07 -3.5416085e-07 -4.418833e-08 -1.242913e-06 -2.4944217e-07 -2.1545105e-07
3.1916613e-07 -2.4078093e-07 2.5793696e-07 2.6259994e-07 -2.2409404e-08 -1.1245598e-06 -4.6197314e-07 -2.722144e-07
3.4242876e-07 4.1387094e-07 -1.6382559e-07 -9.934563e-08 -3.3491244e-07 4.1585653e-07 1.416994e-07 -5.583632e-07
7.461528e-05 8.906168e-05 -5.5020675e-05 7.43357e-05 -4.387578e-05 -8.0308935e-05 1.4228722e-07 2.4740402e-05
4.613038e-05 -6.523553e-05 -8.754927e-05 -5.9404003e-05 -2.7527843e-05 9.039925e-05 -6.2390485e-05 -5.5668806e-05
0.000106565414 -5.5835797e-05 5.471398e-05 4.227064e-05 -5.511731e-06 6.8607056e-05 -0.00010053581 -4.6924553e-05
5.0587005e-05 0.00010063031 -2.5683525e-05 -1.8329358e-05 -5.893115e-05 9.201468e-05 1.7764447e-05 -9.149928e-05

feature.2.bias_ih_l0 f4 [128]
00000000: f945 103d c233 893d ea4f 483c 1d0b 0d3d
00000010: 0d68 9e3c 89e8 0a3d 8c5f ff35 bb25 3a3a
00000020: 8f2b 633d 046c 983c ac08 ed3c 9cd4 383d
00000030: 1c90 943a 9610 533d 068f b43c 1e33 8f3c
00000040: 8482 573d b013 083c 7a33 d53b 8d8a 2e3c
00000050: 4e4f c138 8fb5 ac3d 6d50 323d 3906 0a3d
00000060: c35b 2d3d a408 ae3d 744f 163c 8f87 f139
00000070: 2101 083d 5203 203d 186d 833c ff81 3e3d
00000080: 1a0b 85ba 64b3 cfbc 013a 5f39 6df8 d8bb
00000090: b1dc 43bb 3974 d9ba 1a0c 23b6 33b9 aa39
000000a0: 40a0 42bc cef2 66bb 0458 aabb 1233 18bc
000000b0: 1004 033a 1544 56bc f5ab 8abb 7704 6abb
000000c0: 6f75 2ebc 13ef 8eba e1f7 3bba 8985 07bb
000000d0: e05e 32b5 984a a3bc 9b78 4cbc f53d e9bb
000000e0: 3526 0cbc cd29 abbc 8314 ecba 641c 2939
000000f0: 371e d4bb bd71 94bb 1547 69bb aa41 7dbc
00000100: 0327 9dbb 2249 8dbd cda6 d6bc 726e 2d3c
00000110: 55c7 77bc 934c d0bd f53b 7838 3a86 c33c
00000120: e931 c1bc e597 ea3c 664c b3bd edef 55bc
00000130: 6172 70bd bd61 2d3d ef9a 373c bcee 493d
00000140: 0ea0 68bd f2be 94bd 1c19 cf3c f5f8 f2bc
00000150: 8cc8 05bb 7007 afbd cab2 01be 805f 9d3d
00000160: 5162 0e3d f1b3 30bd 0077 5abd dbaa 95bc
00000170: 627b a7bd 71fb cf3d 7b22 6ebd 112a 7e3c
00000180: 6ee6 1a3d 3329 693d cf0b 573c e0e2 0d3d
00000190: 9bf5 a13c 1777 a43c dec8 4536 26ae 3b3a
000001a0: 0099 693d 085f 9c3c 9f57 f93c 4642 4c3d
000001b0: 7478 953a 74fe 7f3d efb7 b63c 3b27 923c
000001c0: d85d 563d bc94 0a3c e25a d83b e10f 323c
000001d0: e5fe ad38 554d 7a3d 6053 153d 87c3 0d3d
000001e0: 2d14 363d ed3a a43d b9b1 173c 050e f539
000001f0: 5280 133d a79d 313d e589 843c ced0 6d3d
0.03522298 0.06699325 0.012226084 0.034434427 0.019336725 0.03391317 1.9026788e-06 0.0007100959
0.055461463 0.018606193 0.0289348 0.045124635 0.0011334452 0.05152949 0.022040855 0.01748043
0.052614704 0.008305475 0.0065063806 0.01065315 9.217729e-05 0.08433067 0.04353373 0.03369734
0.04232384 0.08497742 0.009174217 0.000460681 0.0332042 0.039065666 0.01604323 0.046510693
-0.0010150403 -0.025354095 0.00021288545 -0.0066214115 -0.002988618 -0.0016590423 -2.4295937e-06 0.0003256291
-0.011879027 -0.0035239938 -0.0051984806 -0.00928952 0.0004997859 -0.013077755 -0.0042319247 -0.0035708228
-0.010648116 -0.001090499 -0.0007170421 -0.0020678958 -6.644823e-07 -0.01993303 -0.012479926 -0.0071179816
-0.008554031 -0.020893956 -0.0018011484 0.00016127672 -0.0064733285 -0.00453016 -0.0035595347 -0.01545755
-0.0047959103 -0.068987146 -0.026202584 0.010585414 -0.015123208 -0.101708554 5.9183647e-05 0.023867715
-0.02358337 0.028636882 -0.08754806 -0.013057691 -0.05870283 0.04232954 0.011206373 0.04929994
-0.056793265 -0.072629824 0.025280528 -0.029659728 -0.0020413725 -0.085463405 -0.12665859 0.07684231
0.03476173 -0.043140355 -0.053336143 -0.018269947 -0.0817783 0.101553805 -0.058138352 0.015512959
0.03781741 0.056924056 0.013125374 0.034640193 0.019770434 0.020076318 2.9472208e-06 0.0007159434
0.057030678 0.019088283 0.030437289 0.04986789 0.0011403696 0.062498525 0.022304503 0.017840972
0.05233559 0.008458313 0.006602631 0.010868044 8.296761e-05 0.061108906 0.036456466 0.034610298
0.044452835 0.08019052 0.009258681 0.00046740487 0.036011048 0.04336324 0.016179034 0.05806046

feature.2.bias_hh_l0 f4 [128]
00000000: 3418 173d 0495 d03d a6b8 4b3c e4ab 003d
00000010: f787 9e3c 38fa 0e3d 261a 2436 6ace 393a
00000020: 32d9 613d a40e 9a3c b436 f23c 9188 453d
00000030: d428 943a b66b 0a3d 508f b43c 316e 8f3c
00000040: af48 4a3d 9013 083c f701 d53b d811 2b3c
00000050: a15c b038 eb80 913d 946c 7a3d 09fe 093d
00000060: ac3d 313d 7f4c bc3d 4250 163c d220 f839
00000070: dad6 093d 942a f53c e669 833c d581 4a3d
00000080: 5f6e 07bc ced2 14bd 1c8e 6fb8 8547 0bbc
00000090: a80c 44bb f894 0abc 7512 23b6 b1f9 aa39
000000a0: a69e 44bc 3adc 65bb f3d6 9dbb c201 18bc
000000b0: fe5b 023a 43d3 debb 4da8 8abb 202f 6abb
000000c0: 7f8e 22bc 6b95 8fba 6504 3cba 3fdf 08bb
000000d0: b5ef 14b8 2156 98bc e450 c3bb 5bd8 fdbb
000000e0: 2c0c 11bc fff8 c3bc 731f ecba a035 2639
000000f0: 5d70 c7bb 6bdb 0ebc a73d 69bb 8fb9 22bc
00000100: e37e e33d 0933 493d 15f0 b0bd 9b1a 753d
00000110: 7bac ea3c 6c94 edbc 750a 363b 867f ce3c
00000120: 4f93 9cbd 2e17 c8bc 83f5 173d 864c c13c
00000130: ead0 e4bc d690 5b3d 1eeb a83c af91 10bd
00000140: 32be f23d 15ea 8b3c 96b9 b93c edc6 b33d
00000150: 844a f6ba 2cc0 4a3c 5736 ba3d 2af8 673d
00000160: f769 9fbd c87e 6dbd 548f 2f3d 2ffd 9dbc
00000170: 5514 773d 5f2d 923a 4c12 80bc bacd bbbd
00000180: 60e5 213d f3f8 eb3d ccb2 573c 4b37 253d
00000190: b3c3 a03c a920 333d 5475 3836 d327 3c3a
000001a0: 1b21 663d 38ff 9b3c 7eb4 e13c 4664 4a3d
000001b0: 9a7d 953a e380 e33c 4087 b73c b41e 923c
000001c0: afcb 573d 0f9c 0a3c d284 d83b 461f 353c
000001d0: 19e9 af38 6145 b93d 1c2c 563d cdfd 0c3d
000001e0: c4d4 2c3d 1cb3 bf3d 97a2 173c aa16 fd39
000001f0: 6123 123d bdcb 113d 1c8a 843c 1437 373d
0.036888316 0.101846725 0.01243416 0.031413928 0.019351942 0.034906596 2.4453125e-06 0.0007087948
0.055138774 0.01880581 0.0295671 0.048225943 0.0011303672 0.033794127 0.022040993 0.017508598
0.049385723 0.008305445 0.0065004784 0.010441266 8.4095875e-05 0.07104667 0.061138704 0.033689532
0.043271706 0.09194278 0.009174408 0.000473267 0.033652164 0.02992753 0.016041707 0.049440224
-0.008266061 -0.03633385 -5.711439e-05 -0.008500938 -0.002991477 -0.0084583685 -2.4299636e-06 0.0003261096
-0.012000715 -0.0035073892 -0.0048168837 -0.009277763 0.00049728143 -0.0068000867 -0.004231489 -0.0035733655
-0.009921669 -0.0010954564 -0.00071722857 -0.0020885018 -3.5509194e-05 -0.018595757 -0.0059605706 -0.007746739
-0.008853 -0.023922442 -0.0018014744 0.0001585097 -0.006086393 -0.0087193055 -0.0035589726 -0.009931936
0.11108186 0.049120937 -0.08639542 0.059839826 0.028646698 -0.029001437 0.002777723 0.025207292
-0.076452844 -0.024425115 0.037099373 0.02359606 -0.02793165 0.053604923 0.020619925 -0.035295185
0.11852683 0.017079392 0.022671502 0.087781765 -0.0018790518 0.012374919 0.09092396 0.056633152
-0.07783883 -0.057982236 0.042861298 -0.019285766 0.060322125 0.0011152438 -0.015633725 -0.091700986
0.03952539 0.11522093 0.013165187 0.040335935 0.019624567 0.04373232 2.748643e-06 0.0007177565
0.056183916 0.019042596 0.027551886 0.049412034 0.001140523 0.027771419 0.02240336 0.017836906
0.052684482 0.008460059 0.0066076303 0.011054819 8.388068e-05 0.09046436 0.05228816 0.03442173
0.042195097 0.09360334 0.009255073 0.00048272806 0.03567827 0.03559469 0.016179137 0.04473026
