Code/LSTM/LSTMModelOutputs/newTLbest_model.pth (torch, 217798 bytes, 15 tensors)

feature.0.weight_ih_l0 f4 [256, 54]
000000 79 88 93 39 91 08 2c 3a 38 bb 6c 3a f1 4e 04 00
       0.00028139705 0.0006562556 0.00090305833 3.95661e-40
000010 ea 5f 18 00 cd f2 11 00 e2 0b 12 80 51 2b 09 00
       2.23846e-39 1.648304e-39 -1.657302e-39 8.42058e-40
000020 36 38 00 00 91 9a dc 3a 6b 9c dc 3a 74 f2 55 3a
       2.0165e-41 0.0016830732 0.0016831284 0.00081614335
000030 eb 56 59 3a e3 9e d2 39 b7 60 49 3a 33 80 72 3a
       0.0008290845 0.000401727 0.0007681953 0.00092506706
000040 e6 78 3e 3a 08 26 3e 3a 97 99 2f 80 1f 78 36 3a
       0.000726594 0.0007253592 -4.371366e-39 0.00069606485
000050 64 61 09 39 d2 50 cc 3a 9c e5 62 3a 5a 69 b9 3a
       0.00013101619 0.0015588051 0.000865543 0.0014145777
000060 cb 00 14 3a b4 ef 10 3a 8e c8 42 3a 53 df 42 3a
       0.000564587 0.00055288826 0.00074303977 0.00074337906
000070 45 c4 0f 3a 70 24 11 3a 09 b1 62 3a 64 3d 56 3a
       0.00054842635 0.00055367406 0.0008647596 0.00081726
000080 11 e3 10 3a 21 c7 42 3a 9d 8e 0f 3a b4 62 42 3a
       0.00055269996 0.0007430185 0.0005476268 0.00074152206
000090 b1 29 11 3a 58 b0 62 3a 20 d1 55 3a 05 d4 10 3a
       0.00055375235 0.0008647493 0.0008156467 0.00055247574
0000a0 a6 c7 42 3a 04 84 0f 3a d2 61 42 3a d8 24 11 3a
       0.00074302626 0.0005474689 0.0007415089 0.0005536801
0000b0 21 b0 62 3a f6 d0 55 3a 92 10 36 00 2a 42 43 3a
       0.0008647461 0.0008156443 4.965061e-39 0.0007448519
0000c0 2c 4e 3c 3a 20 4f 3f 39 4a 5c 76 39 4f d9 42 3a
       0.00071832794 0.00018244656 0.00023494769 0.0007432894
0000d0 6b f0 41 3a 92 9a 42 3a 77 87 b5 39 18 d7 85 3a
       0.0007398191 0.00074235455 0.0003462394 0.0010211198
0000e0 25 07 7a 3a 4f 09 2c 00 95 28 25 80 c2 98 08 00
       0.0009537808 4.044101e-39 -3.412471e-39 7.89483e-40
0000f0 b8 16 21 80 51 95 26 00 e4 43 14 00 7d 85 05 3b
       -3.038721e-39 3.543313e-39 1.861064e-39 0.0020373755
000100 79 85 05 3b 50 8c ba 3a 1f 17 c5 3a 28 d3 91 3a
       0.0020373745 0.001423249 0.0015036798 0.0011125552
000110 16 7f b8 3a 72 05 bd 3a 67 0e b4 3a e8 9a b3 3a
       0.001407596 0.0014421178 0.0013737202 0.0013702782
000120 9f d5 20 80 79 54 c2 3a e4 d6 19 3a df 4e f1 3a
       -3.015369e-39 0.00148262 0.0005868508 0.0018410346
000130 c3 73 ed 3a b9 80 ff 3a 29 a5 99 3a 46 ff 89 3a
       0.0018116165 0.0019493318 0.0011722195 0.0010528348
000140 16 73 ce 3a 2e b0 ce 3a 15 11 89 3a ad c4 89 3a
       0.0015750851 0.0015769058 0.0010457361 0.0010510884
000150 b3 79 ef 3a c8 e0 10 3a a1 fe 89 3a f5 72 ce 3a
       0.0018270522 0.0005526659 0.0010528156 0.0015750813
000160 81 14 89 3a 8f 1a ce 3a ff df 89 3a ed 79 ef 3a
       0.0010458381 0.0015724468 0.0010519027 0.001827059
000170 98 6d 08 3a 67 e2 89 3a bd 72 ce 3a 38 14 89 3a
       0.0005204319 0.0010519744 0.0015750747 0.0010458296
000180 8b 1a ce 3a 00 e0 89 3a c5 79 ef 3a 02 6e 08 3a
       0.0015724463 0.0010519028 0.0018270543 0.0005204381
000190 57 d4 38 00 bb 23 cf 3a 02 41 d6 3a 24 34 8b 3a
       5.218961e-39 0.0015803495 0.0016346278 0.0010620398
0001a0 ff 1f 10 3a 66 a3 ce 3a 20 a0 cd 3a cb 56 ce 3a
       0.0005497932 0.0015765249 0.001568798 0.0015742419
0001b0 2b 90 a2 39 6e e5 6f 3a 1a 3e 66 3a 5f 54 03 00
       0.0003100646 0.0009151314 0.00087830576 3.05773e-40
0001c0 c4 67 05 80 de 2f 07 80 62 e1 04 00 70 5f 04 80
       -4.96402e-40 -6.6002e-40 4.48194e-40 -4.01579e-40
0001d0 dd 53 1a 00 a1 c7 f2 3a 93 c7 f2 3a 71 3c a6 3a
       2.417807e-39 0.0018522629 0.0018522613 0.0012682808
0001e0 91 c1 af 3a 01 87 80 3a d6 56 a6 3a c5 21 aa 3a
       0.0013409128 0.0009805859 0.0012690674 0.0012980035
0001f0 12 9b 9f 3a 3e 37 9f 3a b4 30 05 80 f3 7f ad 3a
       0.0012176952 0.0012147201 -4.76649e-40 0.0013236984
000200 ac b8 09 3a 6b df d9 3a 04 12 dc 3a de 03 e7 3a
       0.00052536535 0.001662237 0.0016790037 0.0017625054
000210 7b 4a 90 3a 08 6a 74 3a bb 8c c1 3a 5e a4 c1 3a
       0.0011008525 0.0009323661 0.0014766672 0.0014773717
000220 e5 93 72 3a 53 f5 73 3a 30 b6 dd 3a f6 96 fb 39
       0.00092536054 0.00093062705 0.0016915258 0.00047986925
000230 c2 69 74 3a 31 8c c1 3a 4b 93 72 3a 63 1b c1 3a
       0.00093236205 0.0014766512 0.0009253516 0.0014732893
000240 5f 1b 74 3a 35 b6 dd 3a 93 ca eb 39 4d 33 74 3a
       0.000931194 0.0016915264 0.00044973622 0.0009315506
000250 67 8c c1 3a 8c 90 72 3a 0d 1b c1 3a 5e 1c 74 3a
       0.0014766575 0.00092531065 0.0014732793 0.00093120884
000260 ed b5 dd 3a 7c cb eb 39 38 36 23 80 b6 30 c2 3a
       0.001691518 0.000449743 -3.233692e-39 0.0014815542
000270 f6 4d c4 3a 9a 1d 70 3a 08 3c 05 3a fd 9a c1 3a
       0.0014976847 0.00091596844 0.0005082493 0.0014770922
000280 e5 a7 c0 3a 9d 4f c1 3a 1a 0f 07 3a 99 f0 c9 3a
       0.0014698474 0.0014748458 0.00051520916 0.0015406787
000290 75 c1 ac 3a 46 aa 3e 80 b7 b6 08 00 43 34 02 00
       0.0013180213 -5.754883e-39 8.0023e-40 2.02419e-40
0002a0 68 e4 0d 80 b0 e8 0d 00 34 4f 05 80 2a 4e 3d 3b
       -1.275798e-39 1.277334e-39 -4.8759e-40 0.00288857
0002b0 99 4d 3d 3b 8b 7e 00 3b bd 53 07 3b eb b0 b1 3a
       0.0028885363 0.0019606675 0.0020649277 0.0013556754
0002c0 d0 56 fc 3a 79 e5 03 3b 95 0b f9 3a eb 69 f8 3a
       0.0019251946 0.002012579 0.0019000644 0.0018952464
0002d0 9c f2 09 80 8b 84 05 3b 89 0d 50 3a ae 09 25 3b
       -9.13551e-40 0.0020373191 0.0007936587 0.0025182771
0002e0 67 e9 31 3b 13 10 32 3b 47 09 ec 3a b9 4a e2 3a
       0.0027147175 0.0027170226 0.0018008136 0.0017264701
0002f0 40 02 1e 3b 04 ec 1d 3b 4d 71 e1 3a 6e f6 e1 3a
       0.0024110228 0.0024096975 0.0017199904 0.001723958
000300 85 d3 33 3b 28 3b 41 3a 0d 4a e2 3a b3 01 1e 3b
       0.0027439308 0.00073711807 0.00172645 0.00241099
000310 9e 8d e1 3a 6b 85 1d 3b 3d 18 e2 3a 77 d3 33 3b
       0.0017208343 0.0024035822 0.0017249655 0.0027439275
000320 ad 20 35 3a d6 2f e2 3a 6b 01 1e 3b 93 8d e1 3a
       0.0006909471 0.0017256688 0.0024109732 0.001720833
000330 36 85 1d 3b bd 18 e2 3a 65 d3 33 3b fc 20 35 3a
       0.0024035699 0.0017249804 0.0027439233 0.0006909517
000340 c5 5f 1f 00 fe 7f 1e 3b 40 49 1d 3b 1c 52 be 3a
       2.881256e-39 0.0024185176 0.002399996 0.001452032
000350 f1 aa 58 3a 82 ea 1d 3b 3a 21 1d 3b 5c a5 1d 3b
       0.00082652183 0.0024096076 0.0023976103 0.002405486
000360 81 79 74 3a 3b 90 4f 3b a6 31 ee 3a 22 d7 03 00
       0.0009325967 0.0031671661 0.0018172755 3.52682e-40
000370 42 fc 15 00 36 79 16 82 d9 f8 17 00 80 ac 12 00
       2.019038e-39 -1.1055045e-37 2.201486e-39 1.71492e-39
000380 26 d6 02 80 af 28 94 3b da 28 94 3b aa 11 26 3b
       -2.60493e-40 0.0045214514 0.0045214714 0.0025340118
000390 40 6b 2c 3b aa c9 ec 39 86 13 20 3b 5c 5c 3a 3b
       0.0026309043 0.0004516368 0.00244257 0.0028436398
0003a0 25 b7 26 3b cb 45 26 3b ae c9 3a 00 47 87 2c 3b
       0.0025438752 0.002537119 5.398808e-39 0.0026325749
0003b0 bd f1 7b 3a 09 37 5a 3b 02 f3 9f 3b 4a eb 7c 3b
       0.0009610912 0.0033296964 0.0048812637 0.0038592392
0003c0 26 c2 69 3b 45 04 8e 3b 1d 09 98 3b b1 33 97 3b
       0.00356687 0.004334005 0.0046397583 0.0046143164
0003d0 5b 9a 8e 3b 33 da 8d 3b 0e 6f a3 3b d2 16 8c 3a
       0.0043518967 0.00432899 0.004987604 0.0010687953
0003e0 4c 04 8e 3b 78 08 98 3b e0 d6 8e 3b 11 fd 96 3b
       0.0043340083 0.0046396814 0.004359111 0.0046078046
0003f0 87 de 8d 3b 21 6f a3 3b f1 17 80 3a b5 19 8e 3b
       0.004329506 0.004987613 0.000977276 0.0043365606

feature.0.weight_hh_l0 f4 [256, 64]
000000 d5 e0 11 38 49 c8 43 39 a4 50 3a b9 b9 11 6b 39
       3.4780085e-05 0.00018671261 -0.00017768383 0.00022417949
000010 4a 78 80 b9 10 1e 1a b8 22 14 24 39 a4 49 c0 b8
       -0.00024503685 -3.674446e-05 0.00015647759 -9.16899e-05
000020 8a b9 12 37 19 ab 48 b8 a3 7e 50 b9 b4 a9 74 b9
       8.745477e-06 -4.7843063e-05 -0.00019883602 -0.00023332873
000030 9d 23 4d b9 24 d1 b1 36 54 cb 44 39 f3 32 87 39
       -0.0001956359 5.2993582e-06 0.00018767762 0.00025787167
000040 d6 4c 41 b9 7c 49 86 b9 8e 1b 50 b9 98 25 43 b9
       -0.00018434538 -0.00025613222 -0.0001984669 -0.00018610654
000050 23 f1 35 b9 30 51 89 b9 68 fe 0a b8 6b f4 40 b8
       -0.00017351336 -0.00026191166 -3.31387e-05 -4.6004e-05
000060 e7 c0 49 b9 e0 66 8a b9 6e 01 90 39 98 26 b0 b9
       -0.00019240715 -0.0002639806 0.00027466886 -0.0003359809
000070 c4 27 88 b9 0d 92 31 39 b6 5f 51 39 e4 07 fa 38
       -0.0002596957 0.00016934444 0.00019967448 0.00011922399
000080 9c 75 c1 38 0f 38 37 b9 5b b0 20 39 a8 91 47 39
       9.2248636e-05 -0.00017473123 0.00015324487 0.0001903238
000090 74 19 42 b9 dc d0 38 b9 50 c5 cf b7 31 f0 2a 39
       -0.00018510764 -0.00017625414 -2.4768204e-05 0.00016301942
0000a0 d4 c6 40 39 97 cf 2f 39 a9 15 56 b9 e2 c7 b9 b9
       0.00018384616 0.00016766634 -0.000204167 -0.00035434874
0000b0 7c 57 4d b9 93 2b 97 39 57 05 8a b9 a8 03 0c 39
       -0.00019582914 0.0002883343 -0.0002632539 0.00013352802
0000c0 66 44 55 b9 cf e0 dd b7 50 72 45 b9 12 6c 1b b9
       -0.00020338743 -2.6449938e-05 -0.00018829969 -0.00014822211
0000d0 46 5f af 38 7d 77 58 39 bf 19 8b 39 74 43 3a b9
       8.362396e-05 0.00020643878 0.00026531328 -0.0001776347
0000e0 50 9b 44 38 56 5d 38 b9 71 29 42 39 cd e3 96 b9
       4.6874688e-05 -0.00017582378 0.0001851672 -0.00028779954
0000f0 b0 c7 4b b9 32 a6 54 b9 aa 92 55 b9 9b 14 44 39
       -0.00019433978 -0.00020279808 -0.000203679 0.00018699693
000100 8a af de 37 b4 15 54 39 78 92 48 b9 68 a4 87 39
       2.6546204e-05 0.0002022598 -0.0001912805 0.000258717
000110 14 56 a8 b9 40 44 b7 b4 90 c1 1b 39 5b f0 b2 b8
       -0.0003210759 -3.4136065e-07 0.0001485406 -8.532471e-05
000120 ca 15 48 37 cd a9 8b b8 77 65 65 b9 ca 25 90 b9
       1.1926002e-05 -6.659664e-05 -0.0002187694 -0.00027493975
000130 04 45 61 b9 32 6e 6c 37 ce 5d 56 39 cf 6b 93 39
       -0.00021483382 1.4092353e-05 0.00020443575 0.0002811835
000140 af 5a 52 b9 80 5b 9e b9 97 89 5a b9 a1 b8 4d b9
       -0.00020060943 -0.0003020428 -0.00020841356 -0.00019619103
000150 97 15 3d b9 9d a2 a7 b9 20 96 61 36 79 56 aa b8
       -0.00018032487 -0.00031973879 3.3614997e-06 -8.1223385e-05
000160 2f 53 5c b9 55 1c aa b9 7d 82 a0 39 4d d3 f7 b9
       -0.00021011823 -0.00032446036 0.000306148 -0.00047268943
000170 83 80 de b9 32 89 3b 39 71 b8 67 39 43 dd f5 38
       -0.00042438888 0.00017884819 0.00022098586 0.000117237236
000180 74 3a a0 38 6a 28 47 b9 a4 2f 67 39 21 24 5e 39
       7.640282e-05 -0.00018993174 0.00022047624 0.00021185029
000190 fa c6 54 b9 4c 22 4b b9 0f b6 55 b8 77 3a 2c 39
       -0.0002029202 -0.00019372365 -5.0952713e-05 0.00016424978
0001a0 59 8a 50 39 a4 83 3a 39 54 cd 6f b9 1b ad f5 b9
       0.00019887964 0.00017787382 -0.00022869307 -0.00046859015
0001b0 6a 9e 5e b9 57 5f d0 39 80 66 b2 b9 5d 0e 0c 39
       -0.00021230584 0.00039743885 -0.00034027174 0.00013356791
0001c0 dd 0e 6a b9 4c 6d 77 b8 2a e7 50 b9 d8 28 1b b9
       -0.00022321516 -5.899118e-05 -0.00019922541 -0.00014797167
0001d0 94 73 d6 38 11 b2 73 39 5d c9 b8 39 3b 9d 42 b9
       0.00010225843 0.00023240621 0.00035245242 -0.00018559855
0001e0 c8 91 da 37 0a e2 44 b9 9f 03 4f 39 0e 69 40 ba
       2.605551e-05 -0.00018776223 0.00019742407 -0.0007339873
0001f0 7e 61 8e b9 6a 02 60 b9 9d 9f 6f b9 29 40 57 39
       -0.00027156988 -0.00021363204 -0.00022852277 0.000205279
000200 48 e3 ca 37 e3 60 3b 39 53 3c 31 b9 94 c0 70 39
       2.4186113e-05 0.00017869803 -0.00016902508 0.00022959925
000210 a9 78 94 b9 24 71 6d 36 b4 94 08 39 8a 46 99 b8
       -0.0002831866 3.5381609e-06 0.00013025367 -7.3087474e-05
000220 a6 44 a6 37 f2 91 54 b8 91 40 4b b9 78 9c 7f b9
       1.9820709e-05 -5.068066e-05 -0.00019383641 -0.00024376984
000230 6d 65 47 b9 86 e5 ca 36 49 45 3d 39 b1 e0 81 39
       -0.00019015903 6.046789e-06 0.00018050255 0.00024772206
000240 64 10 3a b9 83 8b 8c b9 10 26 41 b9 db eb 35 b9
       -0.00017744448 -0.00026806825 -0.00018420094 -0.00017349368
000250 af 08 27 b9 1d e9 94 b9 de 94 e6 36 b9 d5 85 b8
       -0.00015929596 -0.00028402443 6.8718646e-06 -6.381743e-05
000260 fd 1c 43 b9 7a 5d 97 b9 4a 78 8d 39 65 c2 db b9
       -0.00018607448 -0.0002887061 0.00026983238 -0.0004191577
000270 f1 90 bf b9 9c c1 25 39 52 1a 4d 39 09 60 d5 38
       -0.0003653835 0.00015807751 0.00019560129 0.000101745194
000280 7e 00 8a 38 a0 df 2f b9 8e 7c 48 39 bc 1f 44 39
       6.5804445e-05 -0.00016772607 0.00019119887 0.00018703839
000290 19 56 3b b9 e6 f5 32 b9 88 47 14 b8 e2 38 18 39
       -0.00017865784 -0.00017067007 -3.535257e-05 0.0001451704
0002a0 a4 73 38 39 6f b1 24 39 34 33 54 b9 25 b5 db b9
       0.00017590687 0.00015706358 -0.0002023697 -0.00041905898
0002b0 42 10 45 b9 b7 1a b8 39 57 12 9e b9 b4 d3 f4 38
       -0.0001879344 0.0003511512 -0.00030149773 0.000116742594
0002c0 fa 2a 4f b9 15 9b 35 b8 47 c3 38 b9 04 ab 08 b9
       -0.00019757068 -4.3298194e-05 -0.00017620354 -0.00013033679
0002d0 e2 12 b5 38 5f b7 57 39 93 73 a3 39 3a f7 2b b9
       8.63427e-05 0.00020572309 0.00031175892 -0.0001639993
0002e0 9c c4 5f 37 2c fc 2d b9 2c d2 36 39 f0 5b 23 ba
       1.33376125e-05 -0.00016592507 0.00017435168 -0.00062316563
0002f0 b7 3b 79 b9 1c e0 46 b9 56 c3 53 b9 f6 50 3e 39
       -0.00023768736 -0.00018966239 -0.00020195296 0.00018149972
000300 f4 df 03 38 af 0e 9f 39 ab 84 97 b9 98 95 c8 39
       3.1441406e-05 0.00030337783 -0.0002889981 0.0003825843
000310 c6 04 f4 b9 3a 51 74 b7 ce 7b 70 39 20 a5 12 b9
       -0.00046542863 -1.4562445e-05 0.00022934304 -0.00013985159
000320 bf a8 0d b7 e2 09 f1 b8 65 8b ab b9 6c 05 d4 b9
       -8.443544e-06 -0.00011493616 -0.0003271952 -0.0004043983
000330 d7 d6 a8 b9 0a 4b fb 37 ff f1 a0 39 76 88 d7 39
       -0.00032203525 2.9956474e-05 0.0003069788 0.00041109667
000340 21 4d 9e b9 1f 5e e7 b9 a1 d0 a3 b9 bc cd 9a b9
       -0.00030193574 -0.0004412988 -0.00031245223 -0.00029526453
000350 e4 89 8f b9 15 8a f4 b9 9d 7f 8e b7 1c 7e 07 b9
       -0.00027377822 -0.00046642186 -1.6987144e-05 -0.00012921583
000360 46 12 a5 b9 fa fb f7 b9 34 c2 e4 39 f1 1b 2f ba
       -0.00031484867 -0.00047299248 0.0004363224 -0.0006679884
000370 83 8d 18 ba fc 74 8e 39 af 34 ad 39 66 05 41 39
       -0.0005819427 0.0002717151 0.00033036384 0.00018407925
000380 ac 0b 06 39 97 52 96 b9 fb a6 aa 39 31 75 a6 39
       0.00012783584 -0.00028671764 0.00032549337 0.00031749302
000390 79 c5 9f b9 1a 09 99 b9 ba d8 bd b8 bb 12 84 39
       -0.00030473972 -0.00029189215 -9.052591e-05 0.00025190957
0003a0 b7 19 9d 39 70 85 8d 39 22 8b b2 b9 85 ac 2f ba
       0.00029964533 0.00026993034 -0.00034054468 -0.00067014276
0003b0 10 98 a6 b9 fc d0 14 3a 3c 1f 01 ba 66 69 5a 39
       -0.00031775283 0.0005676893 -0.0004925614 0.00020829364
0003c0 f2 5c ae b9 cd 23 c1 b8 31 35 9d b9 b1 c3 6e b9
       -0.00033257116 -9.2096256e-05 -0.00029985004 -0.0002277035
0003d0 76 73 18 39 49 08 b5 39 d6 38 05 3a 72 10 93 b9
       0.00014538862 0.00034529183 0.00050820166 -0.00028050278
0003e0 c2 45 81 38 42 d4 94 b9 2c a7 9b 39 c8 8c 79 ba
       6.164193e-05 -0.00028386904 0.00029688457 -0.0009519574
0003f0 94 b8 ce b9 97 a8 a7 b9 11 94 b2 b9 40 b8 a1 39
       -0.00039428903 -0.0003197833 -0.00034061124 0.0003084559

feature.0.bias_ih_l0 f4 [256]
000000 cf 78 dc 3a 3f 88 05 3b 88 c7 f2 3a 3c 60 3d 3b
       0.0016820672 0.0020375398 0.00185226 0.0028896471
000010 26 66 94 3b 1f 48 ee 39 e9 08 e1 3a e1 71 2d 3a
       0.0045287786 0.00045448632 0.0017168793 0.00066163955
000020 6c 00 d7 3a f3 2b 8d 3a 72 41 13 3b bb fb 53 3b
       0.0016403324 0.0010770544 0.0022469428 0.0032346088
000030 37 24 11 3b 1c d7 2f 3b b6 4e 0a 3b fb d1 96 3b
       0.002214683 0.0026831096 0.0021104044 0.0046026683
000040 d2 2c 01 3b 5e 31 7d 3b 82 f2 1b 3b 99 a8 03 3b
       0.0019710553 0.0038634161 0.002379567 0.0020089506
000050 9c f5 e5 3a e2 36 87 3b 35 79 b9 39 0e ac ac 3b
       0.0017544511 0.0041264156 0.00035376256 0.005269534
000060 b6 9b 09 3b 39 4b 87 3b 26 29 b1 3b fa 2a 0d 3c
       0.0020997352 0.0041288403 0.0054065166 0.008616203
000070 93 33 82 3c 3f 1a d9 3a 0e 3f 17 3b 69 bc 91 3a
       0.015893733 0.0016563608 0.0023078355 0.0011118773
000080 68 c7 2c 3a 16 31 ed 3a f6 f4 81 3b 33 c5 10 3b
       0.0006590993 0.0018096294 0.003965969 0.0022090196
000090 98 8e 0f 3b 14 ee fe 3a 7c 0c f5 3a 07 86 c9 3a
       0.002190506 0.0019449615 0.0018695737 0.0015375026
0000a0 f5 39 00 3b f5 26 d7 3a 65 cb 1f 3b 3c 8d 05 3c
       0.0019565795 0.0016414808 0.0024382707 0.008151349
0000b0 dc 53 0f 3b b7 c6 d4 3b 78 fb 93 3b 4a 12 a0 3a
       0.0021870052 0.006493415 0.0045160614 0.0012212482
0000c0 17 bd 1b 3b 79 c3 4e 3b 7a b0 06 3b 68 4a b1 3a
       0.002376383 0.0031549616 0.0020551966 0.0013526203
0000d0 a4 83 09 3c 70 45 22 3b 17 4c a3 3b 43 f9 f2 3a
       0.008393202 0.0024760626 0.004983436 0.001853742
0000e0 55 8f 8e 39 35 ae eb 3a 6f d8 04 3b e0 e5 0d 3e
       0.0002719114 0.0017980995 0.0020270606 0.13857222
0000f0 be f2 8a 3b 1a 47 15 3b 74 80 23 3b 93 7b 06 3b
       0.004240363 0.0022777976 0.002494839 0.0020520433
000100 91 12 ce b8 fd 52 e3 3a 49 49 cd 3a d1 10 1e 3b
       -9.826304e-05 0.0017343458 0.00156621 0.002411891
000110 ad f2 25 3b 76 3c 0c 39 ea a0 ba 3a 7d 29 14 3a
       0.0025321648 0.00013373964 0.001423863 0.0005651934
000120 28 51 ef b8 3c 11 d0 39 9d 86 f7 3a 3e 6e 2b 3b
       -0.000114115246 0.00039685692 0.0018884722 0.0026158239
000130 8f 41 f3 3a 67 df 02 ba f9 7c eb 3a d1 cd 73 3b
       0.0018558967 -0.0004992396 0.0017966322 0.0037201534
000140 53 b9 d7 3a 7f 73 51 3b 35 a3 05 3b 90 42 e4 3a
       0.0016458429 0.003195971 0.0020391468 0.0017414857
000150 8e 37 c4 3a df 64 56 3b 34 84 83 b7 44 13 a0 ba
       0.001497017 0.0032713932 -1.5677979e-05 -0.0012212773
000160 9d 79 e8 3a 53 d3 5c 3b 65 89 96 3b 14 70 b1 3b
       0.0017736439 0.0033695295 0.0045940154 0.005414972
000170 db 4a 51 3a 51 4a b8 3a 1b 59 fb 3a 6e c7 80 3a
       0.00079838716 0.0014060234 0.0019176336 0.000982506
000180 aa d7 00 3a 28 98 c8 3a da 17 91 3a f0 9e eb 3a
       0.0004914949 0.0015304135 0.001106973 0.0017976444
000190 2d 75 ec 3a c7 0e d5 3a 44 20 3a 38 b6 b0 ac 3a
       0.0018040292 0.0016255014 4.4375905e-05 0.0013175223
0001a0 85 e0 d7 3a d7 de b7 3a 30 51 06 3b 1f 7a df 3b
       0.001647011 0.0014028203 0.002049517 0.006819978
0001b0 f2 9b f2 3a 19 ec 5b 3b 83 17 47 3b 3b ba 89 3a
       0.001850961 0.0033557473 0.0030379004 0.0010507772
0001c0 4c fe 03 3b 97 40 c4 b9 38 aa e9 3a 96 d1 9a 3a
       0.0020140586 -0.00037432156 0.0017827218 0.0011811729
0001d0 78 db 2c bb 0c 4e 07 3b 9a 69 41 3b 2c b8 d3 3a
       -0.002637593 0.0020645885 0.0029512406 0.001615291
0001e0 19 de 2d 39 f2 62 c6 3a b1 28 e2 3a 67 a3 ef bd
       0.00016581303 0.0015135689 0.0017254559 -0.117010884
0001f0 5a 0b d0 3a 58 a4 01 3b 47 fc 03 3b f6 b4 e0 3a
       0.0015872524 0.0019781794 0.0020139383 0.0017143774
000200 b0 ad 17 3c 9c b0 77 3c 9b 1f 70 bc 7e 42 8f 3c
       0.009257719 0.015117791 -0.014655973 0.01748776
000210 02 b3 3b bc cc 18 20 bc 34 ed 74 3c 5d 5c 31 bc
       -0.011456253 -0.009771537 0.014949132 -0.010825244
000220 61 75 c2 3b cc 24 31 bb a4 e2 7f bc 88 cf 8e bc
       0.005934403 -0.002702999 -0.015618 -0.017432943
000230 0a dd 7c bc 36 38 1d bc d7 59 80 3c 28 f1 e9 3c
       -0.015433559 -0.009595921 0.015667839 0.028557375
000240 5d bd 6e bc 59 fa a2 bc 5c c9 8b bc 9a 4e 7d bc
       -0.014571515 -0.019894766 -0.01706379 -0.015460635
000250 9e 89 68 bc da e8 9a bc c8 ee 21 bc 34 6b 45 3c
       -0.014192967 -0.01890986 -0.00988359 0.012049485
000260 73 74 78 bc 9a ec a0 bc 5f ee e5 3c e7 a4 99 bc
       -0.015164482 -0.01964407 0.028067766 -0.01875539
000270 3d 8f 0e bc e3 bf 62 3c 60 23 7f 3c dc e8 68 3c
       -0.008701143 0.013839695 0.015572399 0.014215674
000280 79 1e 29 3c 89 6b 67 bc f3 d9 bf 3b ed db 72 3c
       0.010322207 -0.0141247595 0.005854839 0.014822942
000290 cf eb 7c bc ae 55 71 bc a9 c1 88 3b 07 db 5a 3c
       -0.0154370805 -0.0147299 0.0041734767 0.013357884
0002a0 c1 24 73 3c 06 e2 63 3c 6c 7f 85 bc 4c fe 06 bd
       0.014840306 0.013908869 -0.016296111 -0.03295736
0002b0 9a 81 7b bc d8 a8 46 3c d1 db 74 bc b4 ef 50 3c
       -0.015350724 0.012125216 -0.014944986 0.012752462
0002c0 3c b7 86 bc fa 67 09 3c 16 4b 80 bc b0 b9 54 bc
       -0.016444795 0.008386606 -0.015660804 -0.0129837245
0002d0 7f 4c 4e bc 50 83 83 3c 3a 92 53 3c 0a 5a 7f bc
       -0.01259148 0.016053826 0.012913281 -0.015585432
0002e0 44 de 97 3b c1 78 64 bc e3 18 79 3c b5 6e 32 3e
       0.0046346504 -0.013944806 0.015203687 0.17425044
0002f0 82 f9 f4 bb fa 89 8a bc e5 34 7c bc 6e 9b 71 3c
       -0.0074760327 -0.016911495 -0.01539347 0.01474653
000300 f8 a8 de 3a 67 84 0d 3b a2 14 00 3b 5e 3c 4e 3b
       0.0016987612 0.002159381 0.0019543548 0.0031469087
000310 83 ec a2 3b 85 41 f0 39 39 93 ea 3a 93 07 30 3a
       0.004972042 0.00045825183 0.0017896659 0.0006714996
000320 99 7e d8 3a b7 5c 8f 3a d5 25 1d 3b 3d 1b 69 3b
       0.0016517221 0.0010937665 0.0023978848 0.0035569214
000330 c2 cf 1a 3b 1a 54 32 3b 44 04 13 3b 5d b1 a7 3b
       0.0023622368 0.0027210773 0.0022432962 0.005117579
000340 54 d4 08 3b 8a 44 8d 3b d0 f8 25 3b 6a 04 0b 3b
       0.002087851 0.004311149 0.0025325306 0.0021212348
000350 08 5b f1 3a ef 4a 98 3b 8b 4b ba 39 9f 5e af 3b
       0.001841397 0.0046476047 0.00035532968 0.005351856
000360 fa 30 12 3b 21 b3 98 3b b2 bd c6 3b df d9 28 3c
       0.0022307024 0.0046600257 0.006065094 0.010305851
000370 e4 16 8f 3c be 9e e3 3a 2e c8 21 3b e3 c0 95 3a
       0.01746697 0.0017366034 0.0024685967 0.0011425283
000380 c6 f0 2e 3a 58 26 fa 3a 20 c0 88 3b b7 80 1a 3b
       0.0006673451 0.0019084914 0.0041732937 0.0023575255
000390 92 f7 18 3b 23 00 07 3b 50 95 f7 3a 70 d9 d1 3a
       0.0023340923 0.0020599447 0.0018889103 0.0016010236
0003a0 94 b3 07 3b dd 7a e1 3a 21 a0 2b 3b 52 d2 26 3c
       0.0020706402 0.0017202754 0.0026187974 0.01018198
0003b0 5f 7f 18 3b f0 1b f0 3b 7c 3c a5 3b 3a 7a a5 3a
       0.0023269278 0.007327549 0.0050426107 0.0012624927
0003c0 b3 9a 26 3b 28 d8 51 3b 66 66 0e 3b 2d 3f b7 3a
       0.0025421798 0.0032019708 0.0021728515 0.001398062
0003d0 f4 97 0d 3c db 75 2e 3b 50 a0 b5 3b b5 65 ff 3a
       0.0086421855 0.002662054 0.0055427924 0.0019485267
0003e0 bf 92 91 39 bc 37 f8 3a 10 9a 0c 3b f0 bf 13 3e
       0.0002776589 0.0018937509 0.0021454133 0.14428687
0003f0 38 14 94 3b 85 31 1e 3b 56 d9 2f 3b ac d4 0e 3b
       0.004519012 0.0024138403 0.0026832423 0.0021794243

feature.0.bias_hh_l0 f4 [256]
000000 cf 78 dc 3a 3f 88 05 3b 88 c7 f2 3a 3c 60 3d 3b
       0.0016820672 0.0020375398 0.00185226 0.0028896471
000010 26 66 94 3b 1f 48 ee 39 e9 08 e1 3a e1 71 2d 3a
       0.0045287786 0.00045448632 0.0017168793 0.00066163955
000020 6c 00 d7 3a f3 2b 8d 3a 72 41 13 3b bb fb 53 3b
       0.0016403324 0.0010770544 0.0022469428 0.0032346088
000030 37 24 11 3b 1c d7 2f 3b b6 4e 0a 3b fb d1 96 3b
       0.002214683 0.0026831096 0.0021104044 0.0046026683
000040 d2 2c 01 3b 5e 31 7d 3b 82 f2 1b 3b 99 a8 03 3b
       0.0019710553 0.0038634161 0.002379567 0.0020089506
000050 9c f5 e5 3a e2 36 87 3b 35 79 b9 39 0e ac ac 3b
       0.0017544511 0.0041264156 0.00035376256 0.005269534
000060 b6 9b 09 3b 39 4b 87 3b 26 29 b1 3b fa 2a 0d 3c
       0.0020997352 0.0041288403 0.0054065166 0.008616203
000070 93 33 82 3c 3f 1a d9 3a 0e 3f 17 3b 69 bc 91 3a
       0.015893733 0.0016563608 0.0023078355 0.0011118773
000080 68 c7 2c 3a 16 31 ed 3a f6 f4 81 3b 33 c5 10 3b
       0.0006590993 0.0018096294 0.003965969 0.0022090196
000090 98 8e 0f 3b 14 ee fe 3a 7c 0c f5 3a 07 86 c9 3a
       0.002190506 0.0019449615 0.0018695737 0.0015375026
0000a0 f5 39 00 3b f5 26 d7 3a 65 cb 1f 3b 3c 8d 05 3c
       0.0019565795 0.0016414808 0.0024382707 0.008151349
0000b0 dc 53 0f 3b b7 c6 d4 3b 78 fb 93 3b 4a 12 a0 3a
       0.0021870052 0.006493415 0.0045160614 0.0012212482
0000c0 17 bd 1b 3b 79 c3 4e 3b 7a b0 06 3b 68 4a b1 3a
       0.002376383 0.0031549616 0.0020551966 0.0013526203
0000d0 a4 83 09 3c 70 45 22 3b 17 4c a3 3b 43 f9 f2 3a
       0.008393202 0.0024760626 0.004983436 0.001853742
0000e0 55 8f 8e 39 35 ae eb 3a 6f d8 04 3b e0 e5 0d 3e
       0.0002719114 0.0017980995 0.0020270606 0.13857222
0000f0 be f2 8a 3b 1a 47 15 3b 74 80 23 3b 93 7b 06 3b
       0.004240363 0.0022777976 0.002494839 0.0020520433
000100 91 12 ce b8 fd 52 e3 3a 49 49 cd 3a d1 10 1e 3b
       -9.826304e-05 0.0017343458 0.00156621 0.002411891
000110 ad f2 25 3b 76 3c 0c 39 ea a0 ba 3a 7d 29 14 3a
       0.0025321648 0.00013373964 0.001423863 0.0005651934
000120 28 51 ef b8 3c 11 d0 39 9d 86 f7 3a 3e 6e 2b 3b
       -0.000114115246 0.00039685692 0.0018884722 0.0026158239
000130 8f 41 f3 3a 67 df 02 ba f9 7c eb 3a d1 cd 73 3b
       0.0018558967 -0.0004992396 0.0017966322 0.0037201534
000140 53 b9 d7 3a 7f 73 51 3b 35 a3 05 3b 90 42 e4 3a
       0.0016458429 0.003195971 0.0020391468 0.0017414857
000150 8e 37 c4 3a df 64 56 3b 34 84 83 b7 44 13 a0 ba
       0.001497017 0.0032713932 -1.5677979e-05 -0.0012212773
000160 9d 79 e8 3a 53 d3 5c 3b 65 89 96 3b 14 70 b1 3b
       0.0017736439 0.0033695295 0.0045940154 0.005414972
000170 db 4a 51 3a 51 4a b8 3a 1b 59 fb 3a 6e c7 80 3a
       0.00079838716 0.0014060234 0.0019176336 0.000982506
000180 aa d7 00 3a 28 98 c8 3a da 17 91 3a f0 9e eb 3a
       0.0004914949 0.0015304135 0.001106973 0.0017976444
000190 2d 75 ec 3a c7 0e d5 3a 44 20 3a 38 b6 b0 ac 3a
       0.0018040292 0.0016255014 4.4375905e-05 0.0013175223
0001a0 85 e0 d7 3a d7 de b7 3a 30 51 06 3b 1f 7a df 3b
       0.001647011 0.0014028203 0.002049517 0.006819978
0001b0 f2 9b f2 3a 19 ec 5b 3b 83 17 47 3b 3b ba 89 3a
       0.001850961 0.0033557473 0.0030379004 0.0010507772
0001c0 4c fe 03 3b 97 40 c4 b9 38 aa e9 3a 96 d1 9a 3a
       0.0020140586 -0.00037432156 0.0017827218 0.0011811729
0001d0 78 db 2c bb 0c 4e 07 3b 9a 69 41 3b 2c b8 d3 3a
       -0.002637593 0.0020645885 0.0029512406 0.001615291
0001e0 19 de 2d 39 f2 62 c6 3a b1 28 e2 3a 67 a3 ef bd
       0.00016581303 0.0015135689 0.0017254559 -0.117010884
0001f0 5a 0b d0 3a 58 a4 01 3b 47 fc 03 3b f6 b4 e0 3a
       0.0015872524 0.0019781794 0.0020139383 0.0017143774
000200 b0 ad 17 3c 9c b0 77 3c 9b 1f 70 bc 7e 42 8f 3c
       0.009257719 0.015117791 -0.014655973 0.01748776
000210 02 b3 3b bc cc 18 20 bc 34 ed 74 3c 5d 5c 31 bc
       -0.011456253 -0.009771537 0.014949132 -0.010825244
000220 61 75 c2 3b cc 24 31 bb a4 e2 7f bc 88 cf 8e bc
       0.005934403 -0.002702999 -0.015618 -0.017432943
000230 0a dd 7c bc 36 38 1d bc d7 59 80 3c 28 f1 e9 3c
       -0.015433559 -0.009595921 0.015667839 0.028557375
000240 5d bd 6e bc 59 fa a2 bc 5c c9 8b bc 9a 4e 7d bc
       -0.014571515 -0.019894766 -0.01706379 -0.015460635
000250 9e 89 68 bc da e8 9a bc c8 ee 21 bc 34 6b 45 3c
       -0.014192967 -0.01890986 -0.00988359 0.012049485
000260 73 74 78 bc 9a ec a0 bc 5f ee e5 3c e7 a4 99 bc
       -0.015164482 -0.01964407 0.028067766 -0.01875539
000270 3d 8f 0e bc e3 bf 62 3c 60 23 7f 3c dc e8 68 3c
       -0.008701143 0.013839695 0.015572399 0.014215674
000280 79 1e 29 3c 89 6b 67 bc f3 d9 bf 3b ed db 72 3c
       0.010322207 -0.0141247595 0.005854839 0.014822942
000290 cf eb 7c bc ae 55 71 bc a9 c1 88 3b 07 db 5a 3c
       -0.0154370805 -0.0147299 0.0041734767 0.013357884
0002a0 c1 24 73 3c 06 e2 63 3c 6c 7f 85 bc 4c fe 06 bd
       0.014840306 0.013908869 -0.016296111 -0.03295736
0002b0 9a 81 7b bc d8 a8 46 3c d1 db 74 bc b4 ef 50 3c
       -0.015350724 0.012125216 -0.014944986 0.012752462
0002c0 3c b7 86 bc fa 67 09 3c 16 4b 80 bc b0 b9 54 bc
       -0.016444795 0.008386606 -0.015660804 -0.0129837245
0002d0 7f 4c 4e bc 50 83 83 3c 3a 92 53 3c 0a 5a 7f bc
       -0.01259148 0.016053826 0.012913281 -0.015585432
0002e0 44 de 97 3b c1 78 64 bc e3 18 79 3c 4c 3a 27 3e
       0.0046346504 -0.013944806 0.015203687 0.16330832
0002f0 82 f9 f4 bb fa 89 8a bc e5 34 7c bc 6e 9b 71 3c
       -0.0074760327 -0.016911495 -0.01539347 0.01474653
000300 f8 a8 de 3a 67 84 0d 3b a2 14 00 3b 5e 3c 4e 3b
       0.0016987612 0.002159381 0.0019543548 0.0031469087
000310 83 ec a2 3b 85 41 f0 39 39 93 ea 3a 93 07 30 3a
       0.004972042 0.00045825183 0.0017896659 0.0006714996
000320 99 7e d8 3a b7 5c 8f 3a d5 25 1d 3b 3d 1b 69 3b
       0.0016517221 0.0010937665 0.0023978848 0.0035569214
000330 c2 cf 1a 3b 1a 54 32 3b 44 04 13 3b 5d b1 a7 3b
       0.0023622368 0.0027210773 0.0022432962 0.005117579
000340 54 d4 08 3b 8a 44 8d 3b d0 f8 25 3b 6a 04 0b 3b
       0.002087851 0.004311149 0.0025325306 0.0021212348
000350 08 5b f1 3a ef 4a 98 3b 8b 4b ba 39 9f 5e af 3b
       0.001841397 0.0046476047 0.00035532968 0.005351856
000360 fa 30 12 3b 21 b3 98 3b b2 bd c6 3b df d9 28 3c
       0.0022307024 0.0046600257 0.006065094 0.010305851
000370 e4 16 8f 3c be 9e e3 3a 2e c8 21 3b e3 c0 95 3a
       0.01746697 0.0017366034 0.0024685967 0.0011425283
000380 c6 f0 2e 3a 58 26 fa 3a 20 c0 88 3b b7 80 1a 3b
       0.0006673451 0.0019084914 0.0041732937 0.0023575255
000390 92 f7 18 3b 23 00 07 3b 50 95 f7 3a 70 d9 d1 3a
       0.0023340923 0.0020599447 0.0018889103 0.0016010236
0003a0 94 b3 07 3b dd 7a e1 3a 21 a0 2b 3b 52 d2 26 3c
       0.0020706402 0.0017202754 0.0026187974 0.01018198
0003b0 5f 7f 18 3b f0 1b f0 3b 7c 3c a5 3b 3a 7a a5 3a
       0.0023269278 0.007327549 0.0050426107 0.0012624927
0003c0 b3 9a 26 3b 28 d8 51 3b 66 66 0e 3b 2d 3f b7 3a
       0.0025421798 0.0032019708 0.0021728515 0.001398062
0003d0 f4 97 0d 3c db 75 2e 3b 50 a0 b5 3b b5 65 ff 3a
       0.0086421855 0.002662054 0.0055427924 0.0019485267
0003e0 bf 92 91 39 bc 37 f8 3a 10 9a 0c 3b f0 bf 13 3e
       0.0002776589 0.0018937509 0.0021454133 0.14428687
0003f0 38 14 94 3b 85 31 1e 3b 56 d9 2f 3b ac d4 0e 3b
       0.004519012 0.0024138403 0.0026832423 0.0021794243

feature.2.weight_ih_l0 f4 [128, 64]
000000 dc 43 c3 b0 31 04 38 b4 84 d0 25 34 ea 4e 22 b4
       -1.4207404e-09 -1.713786e-07 1.544268e-07 -1.5116134e-07
000010 65 8f 9a 34 eb cc 47 33 9a 2c 30 b4 98 06 fb 33
       2.8789069e-07 4.651967e-08 -1.6407503e-07 1.1689298e-07
000020 3e b1 85 33 a3 4b d9 33 02 62 07 34 fd d7 0c 34
       6.225535e-08 1.0118608e-07 1.260851e-07 1.3117092e-07
000030 f3 5e 1f 34 ee cf 38 b3 3a 0d 44 b4 c3 63 8f b4
       1.4842571e-07 -4.302995e-08 -1.8258734e-07 -2.6708412e-07
000040 aa 94 eb 33 4a 9f 5a 34 4c 9c 47 34 75 9b 4b 34
       1.0970082e-07 2.0360781e-07 1.859018e-07 1.8962403e-07
000050 cf 41 0f 34 5e d7 99 34 61 17 62 33 28 93 07 34
       1.3341854e-07 2.865517e-07 5.264099e-08 1.262639e-07
000060 3c 20 09 34 08 49 32 34 df e2 8e b4 af 87 c0 34
       1.2770846e-07 1.660411e-07 -2.6614632e-07 3.586151e-07
000070 02 f8 90 34 aa 5c 12 b4 55 de 5a b4 f6 b1 1b b4
       2.700254e-07 -1.363102e-07 -2.0383716e-07 -1.4500242e-07
000080 76 5d ca b3 a8 85 15 34 95 22 74 b4 f9 fd 5e b4
       -9.4233584e-08 1.392533e-07 -2.2736852e-07 -2.0767756e-07
000090 30 35 62 34 b2 c1 25 34 63 4e fe 33 8e 75 0e b4
       2.106724e-07 1.5437288e-07 1.1842055e-07 -1.3267547e-07
0000a0 57 fe 21 b4 f0 5e 35 b4 5d 46 56 34 fd 30 8f 34
       -1.5086822e-07 -1.6891477e-07 1.9955901e-07 2.667147e-07
0000b0 6c 68 09 34 2e db b3 b4 6e 84 a1 34 eb 44 23 b4
       1.2797108e-07 -3.3500822e-07 3.0084942e-07 -1.520563e-07
0000c0 5c de 2f 34 1b e5 b5 33 54 cd 53 34 7c 4c 18 34
       1.6379039e-07 8.470143e-08 1.9725604e-07 1.4183928e-07
0000d0 00 e4 af b3 b4 26 27 b4 6c 9e a2 b4 a2 79 3c 34
       -8.1905455e-08 -1.5567167e-07 -3.0290119e-07 1.7553114e-07
0000e0 9c 7c ae b3 0f 48 b7 33 3e 03 13 b4 0a cf a6 33
       -8.125173e-08 8.534709e-08 -1.3691621e-07 7.7676376e-08
0000f0 2e 86 8a 34 eb 43 42 34 6e 2a 77 34 3d 09 32 b4
       2.5802132e-07 1.8092366e-07 2.3019103e-07 -1.6580903e-07
000100 98 35 0c b1 af 6a 4f b4 d3 2d 3a 34 82 8e 35 b4
       -2.0403146e-09 -1.9317189e-07 1.733927e-07 -1.6908783e-07
000110 8e b4 b2 34 a0 14 63 33 b0 0a 49 b4 0f ae 0f 34
       3.3286454e-07 5.2871314e-08 -1.8723472e-07 1.3381235e-07
000120 7d 81 98 33 90 ca f5 33 22 07 17 34 c7 ac 1c 34
       7.101605e-08 1.14455474e-07 1.4065566e-07 1.4591488e-07
000130 bb 47 32 34 5a 4e 53 b3 8d 98 5d b4 31 eb a4 b4
       1.6603637e-07 -4.9198526e-08 -2.0637727e-07 -3.0718505e-07
000140 63 02 03 34 29 d1 75 34 c0 eb 61 34 58 9b 67 34
       1.2201194e-07 2.2893495e-07 2.1040523e-07 2.1570065e-07
000150 02 1a 20 34 cd 7f b0 34 ae 35 82 33 8c a5 1b 34
       1.4910623e-07 3.2875542e-07 6.063361e-08 1.4495726e-07
000160 1d 05 19 34 92 5b 47 34 4f 0e a5 b4 45 47 db 34
       1.4251096e-07 1.8566632e-07 -3.0744056e-07 4.0843784e-07
000170 1a c4 a3 34 14 d4 23 b4 87 b0 78 b4 34 0a 34 b4
       3.05038e-07 -1.5257712e-07 -2.316102e-07 -1.6767518e-07
000180 ca 7b e3 b3 8e 36 27 34 f3 e4 8a b4 0c 65 7e b4
       -1.0593028e-07 1.5572934e-07 -2.5871086e-07 -2.3692354e-07
000190 09 28 82 34 b2 e1 39 34 87 dd 0f 34 1a 53 1f b4
       2.4243516e-07 1.7311575e-07 1.3398504e-07 -1.4838261e-07
0001a0 8f a3 35 b4 16 58 4d b4 52 b9 72 34 2c fa a1 34
       -1.6916441e-07 -1.9124158e-07 2.2605425e-07 3.017061e-07
0001b0 53 47 19 34 e1 c8 cf b4 75 3f b9 34 e4 23 3a b4
       1.4275183e-07 -3.8702913e-07 3.4505106e-07 -1.7335657e-07
0001c0 2e 7b 45 34 37 45 ce 33 8e a9 71 34 3a 76 2b 34
       1.8391867e-07 9.6052126e-08 2.2506558e-07 1.5968627e-07
0001d0 8d 04 ca b3 c9 04 3b b4 b6 f8 b9 b4 5c ae 55 34
       -9.407186e-08 -1.7417473e-07 -3.4639896e-07 1.9900602e-07
0001e0 65 50 d9 b3 b4 16 cb 33 f8 5d 24 b4 22 49 bc 33
       -1.01194736e-07 9.457054e-08 -1.5307876e-07 8.767735e-08
0001f0 57 0d 9e 34 b6 69 5b 34 42 e8 8e 34 8c 0c 48 b4
       2.94395e-07 2.0434422e-07 2.661855e-07 -1.8631016e-07
000200 79 15 99 b1 67 b9 8f b4 ef 26 80 34 35 47 77 b4
       -4.455327e-09 -2.6770724e-07 2.3870186e-07 -2.3029573e-07
000210 00 b6 04 35 ef 06 a0 33 54 51 8f b4 6f d5 4e 34
       4.9438677e-07 7.451842e-08 -2.6695e-07 1.9262892e-07
000220 6b ca dc 33 6d b0 2c 34 76 f4 4c 34 c3 8f 53 34
       1.0281368e-07 1.6082932e-07 1.9087915e-07 1.9703207e-07
000230 ba 7f 73 34 29 59 98 b3 e6 84 9a b4 f5 8c f3 b4
       2.2677605e-07 -7.09427e-08 -2.8781432e-07 -4.5364837e-07
000240 54 2a 31 34 13 c5 a8 34 7e b2 9d 34 4a bf a3 34
       1.6499808e-07 3.143583e-07 2.93734e-07 3.0500297e-07
000250 74 88 5a 34 8c 34 fe 34 ed 6a c1 33 e5 52 60 34
       2.0352473e-07 4.734942e-07 9.0067125e-08 2.0891783e-07
000260 4c f0 4f 34 8e 67 87 34 f3 78 f3 b4 7a 25 1b 35
       1.9365797e-07 2.5221055e-07 -4.535028e-07 5.7796535e-07
000270 14 59 e5 34 49 40 60 b4 86 32 af b4 de 46 85 b4
       4.2719387e-07 -2.0885012e-07 -3.263305e-07 -2.4824743e-07
000280 73 6f 1d b4 4b a4 64 34 f3 5a c9 b4 f1 3b b5 b4
       -1.466231e-07 2.1293924e-07 -3.7505342e-07 -3.375749e-07
000290 07 ad bd 34 59 83 7f 34 b4 d9 4a 34 ca 07 5a b4
       3.5329887e-07 2.379651e-07 1.8891916e-07 -2.0305666e-07
0002a0 e7 49 79 b4 b0 c8 8f b4 30 bc a9 34 60 4f de 34
       -2.3216818e-07 -2.6781845e-07 3.1615627e-07 4.1408475e-07
0002b0 93 27 50 34 f8 59 19 b5 dc 08 06 35 7f 90 84 b4
       1.9385907e-07 -5.7127863e-07 4.993178e-07 -2.469205e-07
0002c0 bb 9d 87 34 0f c9 12 34 bb 03 ac 34 c2 cb 6d 34
       2.5260474e-07 1.3670454e-07 3.204021e-07 2.2146472e-07
0002d0 7e dc 13 b4 18 80 7f b4 eb a5 05 b5 31 ec 95 34
       -1.3770656e-07 -2.3795326e-07 -4.9787803e-07 2.7925265e-07
0002e0 8c 61 38 b4 8a 51 08 34 9d 44 60 b4 29 a5 02 34
       -1.7171823e-07 1.2695651e-07 -2.0886587e-07 1.2167278e-07
0002f0 89 4a e6 34 4c 6c 98 34 7b bf d3 34 02 e8 89 b4
       4.289507e-07 2.8391003e-07 3.9441133e-07 -2.5687046e-07
000300 5d a1 bf b1 b9 f7 9e b4 ff 70 8d 34 08 0e 88 b4
       -5.5771765e-09 -2.9610035e-07 2.6345512e-07 -2.5342183e-07
000310 23 6d 16 35 1f 11 b2 33 da e7 9f b4 34 7f 67 34
       5.603817e-07 8.291885e-08 -2.9784752e-07 2.1559828e-07
000320 03 ae f8 33 61 b5 3f 34 c2 2f 61 34 9e 03 68 34
       1.15800525e-07 1.7854246e-07 2.0972132e-07 2.1608e-07
000330 6c 0c 86 34 2a f2 aa b3 e9 3d ab b4 83 25 0a b5
       2.4968483e-07 -7.960291e-08 -3.1896278e-07 -5.1463593e-07
000340 1e 5b 42 34 da 3e ba 34 ae db ae 34 87 46 b6 34
       1.8100806e-07 3.469093e-07 3.2569864e-07 3.3951457e-07
000350 78 7c 70 34 98 72 0e 35 a8 de db 33 55 1f 7b 34
       2.2397023e-07 5.306588e-07 1.0238483e-07 2.3387595e-07
000360 79 8f 64 34 8f e5 94 34 4f 8e 09 b5 ae ce 2c 35
       2.128635e-07 2.7734174e-07 -5.1243563e-07 6.437575e-07
000370 e6 6a fe 34 87 0c 77 b4 80 d7 c2 b4 8f c7 96 b4
       4.7388966e-07 -2.3008225e-07 -3.6292113e-07 -2.8084875e-07
000380 6c e0 2d b4 ae c7 7b 34 a4 2e e3 b4 da 3a ca b4
       -1.6193525e-07 2.344884e-07 -4.231598e-07 -3.7668252e-07
000390 0e 4e d5 34 bc ea 8c 34 4d 13 62 34 e4 16 70 b4
       3.9731134e-07 2.6247824e-07 2.1054912e-07 -2.236007e-07
0003a0 b9 72 89 b4 d6 8a 9f b4 b1 56 bc 34 28 bd f5 34
       -2.560171e-07 -2.9717074e-07 3.5080805e-07 4.5772435e-07
0003b0 e7 bb 64 34 6d 41 2d b5 1c 33 16 35 61 d7 93 b4
       2.1302513e-07 -6.454273e-07 5.595373e-07 -2.7537592e-07
0003c0 5b 9e 95 34 2a 59 24 34 00 ec bf 34 af 74 83 34
       2.7868631e-07 1.5306128e-07 3.5748235e-07 2.448555e-07
0003d0 46 01 27 b4 d1 ac 8c b4 07 65 15 b5 1c 7b a6 34
       -1.555355e-07 -2.6202773e-07 -5.565384e-07 3.1009483e-07
0003e0 de af 59 b4 5d 25 15 34 a5 d2 76 b4 a6 57 10 34
       -2.027368e-07 1.3890299e-07 -2.2987167e-07 1.3442931e-07
0003f0 e5 21 02 35 8f c3 a8 34 f9 ad ef 34 02 47 98 b4
       4.8478097e-07 3.1434726e-07 4.46438e-07 -2.836387e-07

feature.2.weight_hh_l0 f4 [128, 32]
000000 63 51 94 af 33 21 9d 2f 39 6f bf af 6b 49 cd af
       -2.6978872e-10 2.8581723e-10 -3.4821726e-10 -3.734145e-10
000010 2a 30 91 2f bf 22 cd 2f 86 64 ae 2f 35 e4 a2 2f
       2.640957e-10 3.731397e-10 3.1721842e-10 2.962978e-10
000020 10 7f b9 2f ef a1 a7 b3 1e 91 99 2f d3 31 b9 2f
       3.3741587e-10 -7.805999e-08 2.793365e-10 3.3686706e-10
000030 e6 35 c7 af 89 0f c2 af 3d 04 8c af c2 ba cd 2f
       -3.6236186e-10 -3.5299433e-10 -2.5468863e-10 3.7421982e-10
000040 93 ff b3 2f 9e e5 be 2f 3f 59 9c af 76 cb be af
       3.2741507e-10 3.4723951e-10 -2.8439648e-10 -3.4705366e-10
000050 64 f9 b8 af a8 39 cc 2f d2 5a aa 2f 2c e9 94 af
       -3.3646608e-10 3.714835e-10 3.0987352e-10 -2.7086722e-10
000060 d2 50 b4 af 2c 9f b9 2f da 91 ac 2f f8 45 ba af
       -3.2799236e-10 3.3764402e-10 3.1390252e-10 -3.388292e-10
000070 db f1 9a 2f a2 17 cd 2f 0e fd b2 af cf e8 bf af
       2.8184285e-10 3.7306075e-10 -3.2557818e-10 -3.4908118e-10
000080 fa 8a ac af be 22 b9 2f 66 49 e5 af f5 72 f7 af
       -3.1385367e-10 3.367599e-10 -4.170701e-10 -4.501072e-10
000090 32 a2 a8 2f fe 3e f7 2f d8 ae ce 2f f9 46 bf 2f
       3.067427e-10 4.4973797e-10 3.7595416e-10 3.4793127e-10
0000a0 53 9f dd 2f 80 54 be b3 c0 1a b3 2f 50 33 dd 2f
       4.0312872e-10 -8.862935e-08 3.2578917e-10 4.0236126e-10
0000b0 00 7e ef af 0b bb e8 af 21 21 a2 af c0 13 f8 2f
       -4.3563375e-10 -4.2333456e-10 -2.9491168e-10 4.512497e-10
0000c0 5a 66 d6 2f 1a 98 e4 2f 6c dc b6 af 9a 78 e4 af
       3.8999098e-10 4.1581033e-10 -3.3262226e-10 -4.155865e-10
0000d0 98 e2 dc af 1c f3 f5 2f 80 ff c9 2f 35 fe ad af
       -4.0178771e-10 4.473798e-10 3.674323e-10 -3.1649142e-10
0000e0 04 cf d6 af f8 ca dd 2f f4 66 cc 2f d4 a3 de af
       -3.9073467e-10 4.0343884e-10 3.7180536e-10 -4.0497972e-10
0000f0 a0 f4 b4 2f 05 28 f7 2f 88 da d4 af 3e e4 e5 af
       3.2915626e-10 4.4957474e-10 -3.871785e-10 -4.1817033e-10
000100 fe 54 08 b0 9b 5f 16 30 7e 05 40 b0 70 61 51 b0
       -4.9597293e-10 5.4705546e-10 -6.9857e-10 -7.6172224e-10
000110 48 c0 04 30 20 2f 51 30 89 d5 29 30 01 49 1a 30
       4.829457e-10 7.6100726e-10 6.1785294e-10 5.612862e-10
000120 7b cf 38 30 1b ef 04 b4 0c 57 0e 30 70 5e 38 30
       6.723366e-10 -1.2380444e-07 5.1783e-10 6.7073014e-10
000130 4a ce 49 b0 ad 53 43 b0 dc 67 fd af b0 09 52 30
       -7.341653e-10 -7.1059497e-10 -4.6094228e-10 7.641132e-10
000140 ad d2 31 30 52 5f 3f 30 d9 3c 12 b0 33 44 3f b0
       6.4691613e-10 6.9620854e-10 -5.320096e-10 -6.958231e-10
000150 c7 07 38 b0 9c d2 4f 30 2f 22 26 30 ec d8 0a b0
       -6.694986e-10 7.5605455e-10 6.0439026e-10 -5.051237e-10
000160 47 35 32 b0 2b fb 38 30 92 c4 27 30 43 ca 39 b0
       -6.4831734e-10 6.729574e-10 6.103359e-10 -6.759004e-10
000170 9c 3f 10 30 92 0e 51 30 1c 06 30 b0 68 93 40 b0
       5.247729e-10 7.605446e-10 -6.403711e-10 -7.005867e-10
000180 4e 8d 20 b0 48 59 32 30 74 3b 65 b0 a8 63 7a b0
       -5.8408467e-10 6.48829e-10 -8.33942e-10 -9.109109e-10
000190 5f 2c 1c 30 88 25 7a 30 61 f7 49 30 d6 ad 36 30
       5.6815525e-10 9.1002805e-10 7.347492e-10 6.645825e-10
0001a0 0e 73 5c 30 f6 53 13 b4 1a e4 27 30 43 e6 5b 30
       8.0199036e-10 -1.3720987e-07 6.10784e-10 7.999896e-10
0001b0 ff 2a 71 b0 e0 44 69 b0 d5 bf 14 b0 f2 32 7b 30
       -8.773639e-10 -8.4862783e-10 -5.4114696e-10 9.1385666e-10
0001c0 9c e2 53 30 b4 70 64 30 05 c6 2c b0 62 50 64 b0
       7.7083384e-10 8.310608e-10 -6.285464e-10 -8.306015e-10
0001d0 a0 7a 5b b0 60 78 78 30 29 9a 45 30 85 f3 23 b0
       -7.9845996e-10 9.039294e-10 7.188726e-10 -5.9645117e-10
0001e0 18 5b 54 b0 9c a8 5c 30 62 76 47 30 5b a5 5d b0
       -7.72546e-10 8.027514e-10 7.256401e-10 -8.0634316e-10
0001f0 8b 47 2a 30 3b fd 79 30 bd 9d 51 b0 ba e7 65 b0
       6.194731e-10 9.0945534e-10 -7.6257917e-10 -8.363902e-10
000200 ee 6b 8d af e5 31 95 2f a8 b9 b4 af 63 59 c1 af
       -2.572444e-10 2.7138394e-10 -3.2873726e-10 -3.5170009e-10
000210 07 82 8a 2f a5 36 c1 2f c7 40 a5 2f 4f d7 9a 2f
       2.5194444e-10 3.5145323e-10 3.0059352e-10 2.8165423e-10
000220 1e 47 af 2f a4 b5 a0 b3 33 4e 92 2f 72 02 af 2f
       3.1882846e-10 -7.483621e-08 2.661281e-10 3.1834052e-10
000230 9d cf bb af a0 1e b7 af 86 b4 85 af 5c bd c1 2f
       -3.416262e-10 -3.3309266e-10 -2.432083e-10 3.5241043e-10
000240 15 44 aa 2f 71 3b b4 2f b4 d1 94 af 0d 23 b4 af
       3.0971195e-10 3.2784045e-10 -2.7070046e-10 -3.2766714e-10
000250 eb d0 ae af ee 69 c0 2f 2f 66 a1 2f f1 c8 8d af
       -3.179886e-10 3.4999864e-10 2.9358335e-10 -2.5790528e-10
000260 d2 8e aa af cd 63 af 2f 32 8f a3 2f 54 fc af af
       -3.10243e-10 3.1903227e-10 2.9751274e-10 -3.2011604e-10
000270 a1 8d 93 2f 74 2f c1 2f 3b 68 a9 af 02 2a b5 af
       2.6839778e-10 3.5140213e-10 -3.081498e-10 -3.2953557e-10
000280 0c 2f 20 b0 46 eb 31 30 8a a8 64 b0 62 c1 79 b0
       -5.827452e-10 6.472657e-10 -8.3185425e-10 -9.0860486e-10
000290 79 d1 1b 30 6c 83 79 30 08 79 49 30 ac 3e 36 30
       5.668635e-10 9.0772434e-10 7.329537e-10 6.6300276e-10
0002a0 21 e6 5b 30 3b 2c 13 b4 cb 80 27 30 a0 59 5b 30
       7.999877e-10 -1.3706533e-07 6.093727e-10 7.97991e-10
0002b0 9c 8f 70 b0 24 af 68 b0 a5 6a 14 b0 92 90 7a 30
       -8.751557e-10 -8.465e-10 -5.399364e-10 9.1154917e-10
0002c0 4c 5c 53 30 39 de 63 30 70 5e 2c b0 37 be 63 b0
       7.6892515e-10 8.2897916e-10 -6.270744e-10 -8.285243e-10
0002d0 82 ee 5a b0 98 d7 77 30 16 1e 45 30 9f 91 23 b0
       -7.964688e-10 9.0164454e-10 7.1710937e-10 -5.9505995e-10
0002e0 54 d4 53 b0 db 1b 5c 30 4e f9 46 30 a4 18 5d b0
       -7.706309e-10 8.007512e-10 7.2386264e-10 -8.043435e-10
0002f0 47 e2 29 30 95 5b 79 30 6e 19 51 b0 57 54 65 b0
       6.18034e-10 9.071582e-10 -7.6069895e-10 -8.342957e-10
000300 1e 14 dc af 7c 12 f0 2f 38 8b 17 b0 6d a8 24 b0
       -4.003206e-10 4.366888e-10 -5.513132e-10 -5.99022e-10
000310 40 a0 d6 2f 5c 82 24 30 66 f8 06 30 b8 fe f6 2f
       3.9040238e-10 5.9848104e-10 4.910191e-10 4.4928128e-10
000320 82 13 12 30 ba 82 e4 b3 84 3b e5 2f 75 c0 11 30
       5.3142213e-10 -1.06408564e-07 4.1697146e-10 5.302419e-10
000330 93 ec 1e b0 06 09 1a b0 50 79 cd af 15 24 25 30
       -5.781626e-10 -5.6037697e-10 -3.737548e-10 6.0077926e-10
000340 63 d4 0c 30 be 0c 17 30 34 e9 ea af b6 f7 16 b0
       5.1233523e-10 5.495159e-10 -4.2730053e-10 -5.49217e-10
000350 9f 81 11 b0 4c 82 23 30 47 fc 03 30 29 3b df af
       -5.2934895e-10 5.948422e-10 4.801603e-10 -4.06055e-10
000360 36 1f 0d b0 ab 33 12 30 fc 62 05 30 2b d0 12 b0
       -5.1339855e-10 5.3187915e-10 4.8525783e-10 -5.3410315e-10
000370 f8 04 e8 2f 60 6c 24 30 88 8e 0b b0 d5 f7 17 b0
       4.2204085e-10 5.981686e-10 -5.0770455e-10 -5.528567e-10
000380 8a 7f b9 af a4 fe c7 2f dc 24 f9 af 3c ba 06 b0
       -3.3741926e-10 3.6378822e-10 -4.5319026e-10 -4.901357e-10
000390 db 2e b5 2f 19 9d 06 30 3a c1 df 2f 2c 60 ce 2f
       3.2957e-10 4.8972165e-10 4.070076e-10 3.7539516e-10
0003a0 da 9b f0 2f 51 7d c9 b3 44 be c0 2f 4c 20 f0 2f
       4.3766485e-10 -9.382587e-08 3.5059788e-10 4.3678694e-10
0003b0 fc 47 02 b0 84 ff fc af 20 fc ad af e6 15 07 30
       -4.739602e-10 -4.6020088e-10 -3.1647662e-10 4.9143833e-10
0003c0 42 85 e8 2f 5b 5f f8 2f 1d ff c4 af fa 3c f8 af
       4.229524e-10 4.517869e-10 -3.583346e-10 -4.5154264e-10
0003d0 0e c4 ef af 59 df 05 30 36 b8 da 2f 56 5f bb af
       -4.3613152e-10 4.8702514e-10 3.978486e-10 -3.4082842e-10
0003e0 3a fa e8 af a8 cc f0 2f 8c 3c dd 2f 2e bf f1 af
       -4.237835e-10 4.3801163e-10 4.0242687e-10 -4.3973486e-10
0003f0 19 d6 c2 2f aa 8e 06 30 22 b7 e6 af 46 d0 f9 af
       3.544052e-10 4.8951654e-10 -4.196688e-10 -4.5440823e-10

feature.2.bias_ih_l0 f4 [128]
000000 dc d6 26 b3 0c 57 3d b3 a6 c0 80 b3 97 c3 8e b3
       -3.88453e-08 -4.408416e-08 -5.995507e-08 -6.647968e-08
000010 f7 4c 21 b3 ec 98 8e b3 a0 2f 5d b3 f2 d6 43 b3
       -3.7555733e-08 -6.6402066e-08 -5.1498887e-08 -4.5597467e-08
000020 bd 6d 75 b3 98 40 c0 3e af eb 2f b3 1b ca 74 b3
       -5.7143314e-08 0.3754928 -4.0959716e-08 -5.699449e-08
000030 ce a6 88 b3 4c 50 83 b3 95 d4 17 b3 45 2f 8f b3
       -6.363335e-08 -6.114769e-08 -3.535077e-08 -6.667555e-08
000040 e8 11 6a b3 fe 37 80 b3 a7 ac 36 b3 36 20 80 b3
       -5.4498656e-08 -5.9706494e-08 -4.2532204e-08 -5.9663236e-08
000050 fd 50 74 b3 94 ad 8d b3 f4 da 56 b3 a1 39 2b b3
       -5.6884335e-08 -6.597398e-08 -5.0024894e-08 -3.9866453e-08
000060 7c b9 6a b3 29 b0 75 b3 3d ca 59 b3 bf fb 76 b3
       -5.4651068e-08 -5.7203724e-08 -5.0708184e-08 -5.75053e-08
000070 e8 8d 33 b3 d4 83 8e b3 3c 3f 67 b3 d1 3a 81 b3
       -4.1805748e-08 -6.63637e-08 -5.384139e-08 -6.017729e-08
000080 52 33 b2 b3 96 9a c5 b3 ce a7 00 b4 44 2c 0c b4
       -8.298106e-08 -9.2016464e-08 -1.1981976e-07 -1.305462e-07
000090 36 b4 ac b3 7e 02 0c b4 13 94 e3 b3 5a 57 cd b3
       -8.042154e-08 -1.3039423e-07 -1.0597446e-07 -9.5619455e-08
0000a0 0e 3b f7 b3 a3 37 fb bd c2 9b ba b3 46 af f6 b3
       -1.1512576e-07 -0.12266471 -8.689632e-08 -1.148715e-07
0000b0 9e 2c 07 b4 ca cd 02 b4 84 61 a3 b3 ee 8f 0c b4
       -1.2589086e-07 -1.2182059e-07 -7.608017e-08 -1.3090877e-07
0000c0 5e a0 ed b3 2a 33 00 b4 f4 59 c1 b3 de 20 00 b4
       -1.1065343e-07 -1.1939542e-07 -9.003625e-08 -1.1932886e-07
0000d0 d6 46 f6 b3 1c 46 0b b4 df 56 dc b3 52 ef b5 b3
       -1.1468153e-07 -1.297089e-07 -1.026035e-07 -8.4720014e-08
0000e0 4c 2d ee b3 de 72 f7 b3 ce 64 e0 b3 8f 8b f8 b3
       -1.1090978e-07 -1.1522728e-07 -1.0449149e-07 -1.15737855e-07
0000f0 d8 7e be b3 55 f8 0b b4 b5 fc eb b3 24 0c 01 b4
       -8.870637e-08 -1.3035726e-07 -1.09890074e-07 -1.2018478e-07
000100 87 70 ee 39 d6 82 fb b9 4c 30 15 3a 1c 2d 1d 3a
       0.00045478737 -0.0004797193 0.0005691096 0.00059957965
000110 70 4e e9 b9 2c 14 1d ba c5 cc 0a ba c8 b3 02 ba
       -0.00044499664 -0.00059920806 -0.0005294795 -0.0004985896
000120 dd 70 11 ba 1d 33 a6 bd e0 82 f6 b9 9c 46 11 ba
       -0.0005548129 -0.08115218 -0.00047018286 -0.00055418327
000130 cf bd 19 3a 9f c3 16 3a d5 ba e0 39 d4 60 1d ba
       0.00058647705 0.0005751196 0.0004286381 -0.0006003503
000140 9a f8 0d ba 73 d8 14 ba 13 6e fb 39 12 c7 14 3a
       -0.00054157677 -0.00056780054 0.00047956462 0.0005675416
000150 c3 28 11 3a 68 bc 1c ba 51 34 07 ba f6 b4 ef 39
       0.0005537385 -0.00059790025 -0.0005157637 0.0004572046
000160 f5 2d 0e 3a 56 83 11 ba 79 6d 09 ba e3 eb 11 3a
       0.0005423718 -0.00055508816 -0.0005242448 0.0005566461
000170 ea 36 f9 b9 75 20 1d ba a7 b6 0d 3a 16 7e 15 3a
       -0.00047533895 -0.0005993911 0.00054059405 0.0005702687
000180 ba e8 24 b3 d1 26 3b b3 c1 a0 7e b3 f0 2f 8d b3
       -3.839589e-08 -4.3574634e-08 -5.928519e-08 -6.574544e-08
000190 b3 6d 1f b3 c4 05 8d b3 33 ad 5a b3 5d 99 41 b3
       -3.7119843e-08 -6.566873e-08 -5.0914604e-08 -4.5075797e-08
0001a0 33 ab 72 b3 5b 9d c9 3e 7c e5 2d b3 ea 09 72 b3
       -5.650072e-08 0.39377865 -4.0488416e-08 -5.6354033e-08
0001b0 ac 22 87 b3 9f d9 81 b3 6a 0f 16 b3 2c 9a 8d b3
       -6.292734e-08 -6.046616e-08 -3.4938616e-08 -6.593868e-08
0001c0 d4 6c 67 b3 d7 91 7d b3 1a 93 34 b3 6f 62 7d b3
       -5.3882857e-08 -5.9038793e-08 -4.2043304e-08 -5.8995678e-08
0001d0 d4 91 71 b3 2c 1d 8c b3 ff 67 54 b3 f0 3b 29 b3
       -5.6244815e-08 -6.5245644e-08 -4.945468e-08 -3.940289e-08
0001e0 d3 12 68 b3 19 ed 72 b3 3a 50 57 b3 c0 35 74 b3
       -5.403383e-08 -5.6560655e-08 -5.0131554e-08 -5.6859562e-08
0001f0 a7 7c 31 b3 c0 f0 8c b3 3c a2 64 b3 ec 92 7f b3
       -4.1324395e-08 -6.56305e-08 -5.3232938e-08 -5.950544e-08
