Code/LSTM/LSTMModelOutputs/oldTLbest_model.pth (torch, 217798 bytes, 15 tensors)

feature.0.weight_ih_l0 f4 [256, 54]
0.0029150657 0.006996736 0.007868843 -1.936991e-39 2.785305e-39 1.216703e-39 8.20677e-40 5.220977e-39
1.491808e-39 0.015284705 0.015284377 0.007210357 0.0074724285 0.0020929058 0.0077514714 0.008692924
0.006101107 0.006083787 1.397169e-39 0.008580726 0.002439752 0.012562542 0.014945407 0.012118405
0.010870323 0.0073528294 0.014573786 0.014480738 0.007316131 0.0073491563 0.014979349 0.0039032758
0.0073524024 0.014576447 0.007313108 0.014450777 0.0073408573 0.014977681 0.003831592 0.007343252
0.014574201 0.0073144115 0.014452815 0.007341736 0.014982273 0.00383105 3.92015e-40 0.014620026
0.01156725 0.0015062377 0.004297153 0.014487157 0.014409349 0.014450346 0.0015271658 0.0035403515
0.004040412 3.257206e-39 3.16647e-40 4.3614444e-37 4.675082e-39 4.807586e-39 -3.22331e-40 0.007975275
0.008006477 0.0034386248 0.003566158 0.00028511754 0.0035535484 0.004278461 0.003436272 0.0034270566
3.782922e-39 0.004970242 0.0009443616 0.006829875 0.007840288 0.0065301126 0.005649109 0.0060715964
0.0076277154 0.007524325 0.006086067 0.0060651083 0.007977924 0.0019464233 0.0060710143 0.0075772307
0.0060950974 0.0075114463 0.0060667377 0.007973719 0.001779578 0.006074418 0.007595362 0.0060973857
0.00753103 0.00606728 0.007964705 0.0017796735 6.408652e-39 0.0076024043 0.0062257345 0.0014407473
0.0021961841 0.0075040096 0.0074898 0.0074614994 0.012380172 0.026875773 0.030586576 4.180632e-39
-6.4719806e-37 -4.646291e-38 -4.21983e-40 -6.82131e-40 6.47319e-40 0.05562622 0.055640314 0.026811853
0.027711775 0.011708684 0.028825894 0.03161872 0.021994414 0.02194482 -1.431464e-39 0.033458676
0.010192613 0.046859287 0.05680507 0.044160396 0.040706255 0.02012812 0.053501353 0.05314984
0.019908598 0.020102315 0.056639116 0.014874559 0.020128194 0.053698022 0.019866765 0.053256493
0.02006027 0.056798015 0.014707777 0.020074638 0.053625487 0.019865727 0.05308127 0.020059116
0.05682493 0.014708614 -5.148903e-39 0.053866126 0.04185709 0.0046919724 0.016920736 0.05337166
0.053129196 0.053299315 9.509714e-05 0.0002443063 0.0002809735 3.061414e-39 2.13889e-40 5.61574e-39
-1.4177833e-33 3.05058e-40 1.5532416e-37 0.0006227507 0.0006194524 0.00037989067 0.00039746385 0.00026216754
0.00025307474 0.0003217098 0.00031471587 0.00030646764 -2.476611e-39 0.00017305491 3.8208676e-05 0.0004270308
0.0009121318 0.0004606634 0.00041090776 -8.055051e-05 0.00062672363 0.00062750856 -8.283696e-05 -7.958641e-05
0.0009228008 -2.8082375e-05 -7.994942e-05 0.00062750775 -8.7282955e-05 0.0006253637 -8.084368e-05 0.0009220761
-1.988728e-05 -8.248026e-05 0.0006267471 -8.6306885e-05 0.0006255112 -7.842248e-05 0.0009220579 -1.9689696e-05
1.5985164e-29 0.00063130667 0.00049644284 5.6851626e-05 9.100289e-05 0.0006273705 0.00062391517 0.00062636926
4.7572168e-05 0.00017035867 0.000193481 -6.03677e-40 -9.55757e-40 2.932597e-39 3.61954e-40 3.213142e-39
1.659045e-39 0.0005096963 0.0004765548 0.00022808259 0.00023460804 8.913779e-05 0.00019641385 0.00025334425
0.0002382553 0.00025950544 -5.741016e-39 0.00023949512 3.8302962e-05 0.00035364294 0.00046715542 0.00037345878
0.0003281373 0.0003542825 0.0004790225 0.00046908326 0.00032570996 0.00036741953 0.00048212678 7.8077246e-05
0.00038188664 0.0004729935 0.00032315752 0.00047492055 0.00032470952 0.00050240493 8.986285e-05 0.00033479027
00000000: b00a 3f3b e044 e53b 52ec 003c 8b17 1580
00000010: 4c54 1e00 ac3f 0d00 b7ef 0800 f6d9 3800
00000020: 8e3e 1000 b36c 7a3c 536b 7a3c dc44 ec3b
00000030: 46db f43b 2229 093b 0e00 fe3b c46c 0e3c
00000040: cceb c73b 815a c73b bd36 0f00 2c96 0c3c
00000050: 3fe4 1f3b 1fd3 4d3c 95dd 743c 468c 463c
00000060: 7019 323c 01f0 f03b e4c6 6e3c 9e40 6d3c
00000070: 28bc ef3b 31d1 f03b f26b 753c 1ace 7f3b
00000080: 6cec f03b 0dd2 6e3c cca2 ef3b f4c2 6c3c
00000090: 938b f03b f364 753c 721b 7b3b aa9f f03b
000000a0: a1c8 6e3c bbad ef3b 80cb 6c3c f292 f03b
000000b0: 3578 753c 5a12 7b3b c744 0400 d588 6f3c
000000c0: 9084 3d3c f36c c53a 22cf 8c3b 8a5b 6d3c
000000d0: 3115 6c3c 25c1 6c3c 2e2b c83a 3e05 683b
000000e0: 6f65 843b c477 2300 af72 0300 8a69 1403
000000f0: 3ae8 3200 9859 3400 8782 0380 baaa 023c
00000100: 992d 033c 8d5a 613b 34b6 693b d47b 9539
00000110: a6e2 683b 5532 8c3b 1433 613b 7898 603b
00000120: 3f31 2900 69dd a23b 098f 773a 25cd df3b
00000130: 8d74 003c 8efa d53b 291c b93b 3ef4 c63b
00000140: eaf1 f93b 9d8e f63b a16d c73b d1bd c63b
00000150: d7b5 023c 211f ff3a 5cef c63b 6b4a f83b
00000160: 62b9 c73b 9422 f63b 7ccb c63b 34a4 023c
00000170: bb40 e93a e90b c73b 84e2 f83b 94cc c73b
00000180: dcc6 f63b 09d0 c63b 657e 023c ef43 e93a
00000190: b7c8 4500 971d f93b 3f01 cc3b 75d7 bc3a
000001a0: dbed 0f3b 32e4 f53b ff6c f53b 987f f43b
000001b0: 34d6 4a3c 952a dc3c b390 fa3c e785 2d00
000001c0: e73a 5c83 d8f7 7c81 5198 0480 816d 0780
000001d0: 760c 0700 52d8 633d 19e7 633d 88a4 db3c
000001e0: ce03 e33c c8d5 3f3c 4824 ec3c a282 013d
000001f0: a12d b43c a0c5 b33c 5796 0f80 f70b 093d
00000200: ebfe 263c 86ef 3f3d 6fac 683d 88e1 343d
00000210: 9abb 263d bae3 a43c 3c24 5b3d a6b3 593d
00000220: 5b17 a33c 9cad a43c 6bfe 673d 6cb4 733c
00000230: e2e3 a43c 75f2 5b3d a0bf a23c 7b23 5a3d
00000240: 6f55 a43c 09a5 683d e3f8 703c 9173 a43c
00000250: 66a6 5b3d 73bd a23c bf6b 593d 0453 a43c
00000260: 42c1 683d 66fc 703c 0c11 3880 baa2 5c3d
00000270: 5772 2b3d 1ebf 993b 5b9d 8a3c 3e9c 5a3d
00000280: 009e 593d 6250 5a3d e36e c738 3d16 8039
00000290: a04f 9339 fa55 2100 3c54 0200 6626 3d00
000002a0: d591 eb88 6152 0300 926a 5302 1840 233a
000002b0: bf62 223a 102c c739 b262 d039 8873 8939
000002c0: 1eaf 8439 29ab a839 7300 a539 64ad a039
000002d0: c9f7 1a80 1376 3539 4142 2038 1be3 df39
000002e0: 211c 6f3a 3285 f139 1b6f d739 3aed a8b8
000002f0: b64a 243a 637f 243a c1b8 adb8 a1e7 a6b8
00000300: 1de8 713a 7192 ebb7 85aa a7b8 557f 243a
00000310: ae0b b7b8 73ef 233a 9f8a a9b8 7bb7 713a
00000320: 9cd3 a6b7 41f9 acb8 494c 243a a8ff b4b8
00000330: 59f9 233a c076 a4b8 42b6 713a 4d2b a5b7
00000340: dc1b a20f 467e 253a b723 023a f873 6e38
00000350: ced8 be38 1f76 243a 3d8e 233a ee32 243a
00000360: 3a88 4738 4fa2 3239 29e1 4a39 ce92 0680
00000370: 4368 0a80 e3ee 1f00 fbf0 0300 effc 2200
00000380: be10 1200 249d 053a 1ada f939 7429 6f39
00000390: 1e01 7639 7def ba38 71f4 4d39 4ad3 8439
000003a0: 2cd4 7939 3b0e 8839 9e83 3e80 fb20 7b39
000003b0: 7ea7 2038 2769 b939 8aec f439 cacc c339
000003c0: d809 ac39 febe b939 5025 fb39 4aef f539
000003d0: 0dc4 aa39 37a2 c039 f6c5 fc39 67bd a338
000003e0: f537 c839 1dfc f739 786d a939 c2fe f839
000003f0: c63d aa39 d3b3 033a c074 bc38 ca86 af39

feature.0.weight_hh_l0 f4 [256, 64]
-4.882754e-05 0.0007611792 6.238873e-05 0.0002849154 -0.00015380046 0.001358259 0.001474587 0.001186919
-0.0005554271 -0.0017942805 0.0005017074 -0.0018647454 -0.00069452456 -0.0005108613 0.0018556302 -0.0009417506
-3.996819e-05 0.0010785826 -0.00087445276 0.0011003851 0.0006797071 0.0012725552 0.00059022906 -0.00018589404
0.001496671 -0.0018025761 -0.000952577 -0.001839856 -5.7965724e-05 -9.754987e-06 0.00020255546 -0.0007655444
-0.0011014118 0.00015297323 0.0015137132 -0.000723046 -8.658673e-05 -0.0008216954 0.0016536734 0.0008078265
-0.0007862111 0.0011364681 -0.0020342488 -0.0015857023 0.00055357465 0.0001434546 -0.00027772758 0.0015332281
-0.0017926259 0.0017539974 0.00065961946 -0.00114051 0.0007134723 -2.078732e-08 -0.00077601155 0.0009290599
2.7352464e-05 -0.00049945613 -0.0010765109 -0.00114213 -0.0011625646 0.0011728202 -0.0010623968 0.0014372643
6.398298e-05 0.00022655436 -0.000118840144 0.00013848634 -4.8063543e-05 0.00058603974 0.0005881012 0.00047187583
-0.00034285124 -0.00068867655 0.00021027065 -0.00062843703 -0.00020693544 -0.00021416422 0.0006365824 -0.00028863575
-0.00042434555 0.00040058998 -0.0002611461 0.00036110103 0.00017127227 0.00055177184 0.00025082382 -6.589105e-05
0.0005951781 -0.0006796136 -0.00046016558 -0.0008010803 -1.0938595e-05 -2.2600261e-06 -1.7868184e-05 -0.00021527936
-0.00043599703 3.9026083e-05 0.00059346884 -0.0002930823 -4.8282614e-05 -8.692482e-05 0.00064000563 0.00033766325
-0.00030049102 0.00045358704 -0.0008468069 -0.0006712334 0.000233149 4.5848148e-05 -0.00012378636 0.00066128734
-0.00068805047 0.0006920666 0.00028281586 -0.00048203708 0.00020415809 9.0097165e-09 -0.00026956075 0.00035648284
-0.00022147254 -0.00015298263 -0.00031726758 -0.00046838465 -0.00048058789 0.00047611195 -0.00026666527 0.00061836274
-0.0010270566 0.003915589 0.0016862821 0.0011973827 -0.00066638313 0.00620294 0.0067444528 0.0054822317
-0.0028811013 -0.008026235 0.0022985183 -0.008551722 -0.003894381 -0.0023941325 0.008475873 -0.0048210253
0.0018761387 0.005185953 -0.004490353 0.005376745 0.0037854086 0.00589288 0.0028704703 -0.0008770308
0.006796787 -0.008168446 -0.004496467 -0.0081308475 -8.892485e-05 7.369199e-05 0.001952567 -0.004152844
-0.0053212363 0.0009597419 0.0068738866 -0.0035905258 -0.0002874083 -0.0047523607 0.007535334 0.0039649573
-0.0037667397 0.005340623 -0.008850628 -0.0071550934 0.0035222636 0.000526384 -0.0012772813 0.0069932146
-0.008028601 0.007921357 0.0032718184 -0.005338974 0.0039701546 2.8492117e-08 -0.004013398 0.0044586086
0.0018907526 -0.0034810225 -0.005510119 -0.0053451937 -0.0054577496 0.0055416776 -0.005432586 0.006573137
-4.633347e-05 3.3567037e-05 0.00012914777 -4.071168e-06 -5.226695e-06 3.445921e-05 3.973728e-05 2.5082216e-05
-5.3085307e-05 -6.929779e-05 8.245017e-06 -9.842723e-05 -6.231928e-05 -1.2398277e-05 0.00011148852 -5.4565087e-05
0.000119492484 3.1536154e-05 -3.1347863e-05 3.9633054e-05 3.056095e-05 2.7330223e-05 1.863128e-05 -1.2261015e-05
3.5764042e-05 -5.4845357e-05 -7.322084e-05 -5.0110346e-05 -3.6749955e-06 -4.927638e-07 3.410013e-05 -4.5798926e-05
-3.19374e-05 2.916309e-05 6.0477858e-05 -2.0202875e-05 1.91024e-06 -6.110097e-05 5.3948374e-05 2.6907393e-05
-2.374622e-05 1.984347e-05 -7.5869386e-05 -5.1548574e-05 0.00012910173 5.0111585e-06 -1.9238774e-05 4.0128994e-05
-5.7416135e-05 6.3620915e-05 1.6757636e-05 -2.1899328e-05 3.8278493e-05 1.2924951e-09 -2.8140763e-05 4.8550814e-05
0.00017679395 -0.00012456339 -5.153707e-05 -2.268768e-05 -1.9253574e-05 3.8022907e-05 -7.355055e-05 4.015809e-05
00000000: 2ccc 4cb8 df89 473a b2d6 8238 b360 9539
00000010: 7f45 21b9 9c07 b23a ee46 c13a 6592 9b3a
00000020: 159a 11ba 102e ebba 0485 033a 796a f4ba
00000030: c110 36ba 52eb 05ba 9e38 f33a d0df 76ba
00000040: 84a3 27b8 3a5f 8d3a 883b 65ba cc3a 903a
00000050: 5f2e 323a decb a63a 9ab9 1a3a 8dec 42b9
00000060: f22b c43a 6b44 ecba 5cb6 79ba 5327 f1ba
00000070: 3920 73b8 5aa9 23b7 1165 5439 d1ae 48ba
00000080: 3f5d 90ba 7067 2039 c967 c63a cc8a 3dba
00000090: e695 b5b8 0b67 57ba 12c0 d83a 52c4 533a
000000a0: bc19 4eba 8bf5 943a 0851 05bb 57d7 cfba
000000b0: c41d 113a 4d6c 1639 f79b 91b9 99f6 c83a
000000c0: 8bf6 eaba 63e6 e53a 50ea 2c3a 2a7d 95ba
000000d0: 5108 3b3a cd8f b2b2 416d 4bba 288c 733a
000000e0: f872 e537 efed 02ba b619 8dba 86b3 95ba
000000f0: 3261 98ba 51b9 993a 1f40 8bba 9662 bc3a
00000100: 9a2e 8638 398f 6d39 d139 f9b8 a536 1139
00000110: d697 49b8 76a0 193a ce2a 1a3a 1a66 f739
00000120: b7c0 b3b9 4d88 34ba 197c 5c39 b2bd 24ba
00000130: cffc 58b9 4591 60b9 52e0 263a 0954 97b9
00000140: b27a deb9 4706 d239 70ea 88b9 2952 bd39
00000150: 8d97 3339 c8a4 103a 0181 8339 fd2e 8ab8
00000160: ba05 1c3a 1928 32ba 6142 f1b9 97ff 51ba
00000170: e884 37b7 f4aa 17b6 a2e3 95b7 9dbc 61b9
00000180: 8896 e4b9 f0af 2338 0593 1b3a d7a8 99b9
00000190: 1083 4ab8 684b b6b8 0dc6 273a 6508 b139
000001a0: 398b 9db9 6ccf ed39 40fc 5dba b6f5 2fba
000001b0: 7579 7439 134d 4038 a6cc 01b9 3e5a 2d3a
000001c0: 495e 34ba ce6b 353a e746 9439 ecb9 fcb9
000001d0: 4513 5639 27c9 1a32 d553 8db9 51e6 ba39
000001e0: 153b 68b9 f669 20b9 ef56 a6b9 8691 f5b9
000001f0: 6af7 fbb9 aa9e f939 35cf 8bb9 9f19 223a
00000200: 4d9e 86ba 574e 803b 3d06 dd3a 7ff1 9c3a
00000210: 37b0 2eba 0842 cb3b 9200 dd3b 4ba4 b33b
00000220: dcd0 3cbb 7880 03bc bda2 163b 861c 0cbc
00000230: df38 7fbb e1e6 1cbb 63de 0a3c b1f9 9dbb
00000240: c5e8 f53a edee a93b d023 93bb 682f b03b
00000250: 9e14 783b 0f19 c13b 801e 3c3b 8ae8 65ba
00000260: 95b7 de3b f2d4 05bc 1957 93bb 3f37 05bc
00000270: 2a7d bab8 168b 9a38 47ed ff3a 9514 88bb
00000280: c45d aebb 3097 7b3a 573e e13b 074f 6bbb
00000290: 4aaf 96b9 b1b9 9bbb f7ea f63b 79ec 813b
000002a0: 68db 76bb 6500 af3b 3902 11bc 4675 eabb
000002b0: c7d5 663b 08fd 093a 736a a7ba 5627 e53b
000002c0: 658a 03bc 94c8 013c 016c 563b 8ff2 aebb
000002d0: 1218 823b d4be f432 d382 83bb 8519 923b
000002e0: 21d3 f73a de21 64bb 3a8e b4bb bc26 afbb
000002f0: ecd6 b2bb f696 b53b d603 b2bb 7863 d73b
00000300: 2f56 42b8 55ca 0c38 d76b 0739 119b 88b6
00000310: f860 afb6 4c88 1038 94ab 2638 a667 d237
00000320: eaa7 5eb8 f853 91b8 1454 0a37 b76a ceb8
00000330: 69b1 82b8 3202 50b7 f2ce e938 d1dc 64b8
00000340: 0a98 fa38 b045 0438 837b 03b8 ab3b 2638
00000350: 922e 0038 3543 e537 5f4a 9c37 a9b4 4db7
00000360: 5901 1638 c109 66b8 248e 99b8 932d 52b8
00000370: f19f 76b6 7846 04b5 bc06 0f38 3918 40b8
00000380: 86f4 05b8 42a3 f437 9ba9 7d38 5879 a9b7
00000390: ac31 0036 5523 80b8 a046 6238 30b7 e137
000003a0: 9f32 c7b7 8775 a637 111c 9fb8 dc35 58b8
000003b0: 7b5f 0739 8625 a836 f462 a1b7 2e50 2838
000003c0: 1bd2 70b8 386c 8538 c092 8c37 73b4 b7b7
000003d0: 388d 2038 a1a3 b130 d40f ecb7 0aa3 4b38
000003e0: c461 3939 3b9d 02b9 8229 58b8 6c51 beb7
000003f0: bc82 a1b7 c97a 1f38 273f 9ab8 6c6f 2838

feature.0.bias_ih_l0 f4 [256]
0.015321997 0.007912239 0.055720467 0.000642748 0.0004728124 0.0017011467 0.0029631725 0.0017757075
0.050028104 0.006867317 0.00021886948 0.009676029 0.024708115 0.0008677877 0.009556634 0.011947762
0.0393916 0.0034410132 0.00711284 0.0071471375 0.008659069 0.0014309785 0.0006598372 0.00086651533
0.003260706 0.0063200695 0.02221478 0.002717109 0.00014883184 3.313185e-05 0.017761623 0.012969957
0.002830672 0.005569212 0.0049471115 0.0018725224 6.441546e-05 0.017294815 0.0048569203 0.00088275824
0.0016610876 0.0017617779 0.0056397114 0.0024630595 0.05942907 5.8722475e-05 0.0001586685 0.0021687818
0.006343169 0.006059608 0.0006477658 0.0014065455 0.010799092 1.1708152e-11 0.0052444893 0.008725692
0.052150924 0.041944485 0.010814423 0.0015620039 0.0016027398 0.002138611 0.01778909 0.0019123018
-0.0032553312 -0.00047530327 -0.019154819 -0.00039125246 3.9470968e-05 0.000906039 0.0015326939 0.000957265
-0.0075580687 0.0018903232 9.5079835e-05 0.0027553742 -0.0062836884 8.431054e-05 0.0019839972 -0.0014463186
-0.013700721 0.00064188335 0.00016608048 0.00046697157 -0.0007930436 0.0009660561 0.00031773117 -5.7118134e-05
0.001390782 0.0020254555 -0.0023767923 0.001957206 -1.2785441e-06 -3.450843e-06 -0.0047199326 -0.002415016
0.0005521991 -0.00068226515 0.0010572886 0.00036243568 -7.508296e-05 -0.0016628942 0.0016608413 0.0004682264
0.0004763032 0.0009330299 0.0023547837 0.0013358349 -0.020397497 2.2806094e-05 7.816166e-05 0.0016405425
0.0008935489 0.0016310939 0.0003844803 0.0007100269 -0.0027617484 -1.5285013e-12 -0.00022458349 -0.00028647558
-0.019269487 -0.017212788 -0.0016726847 0.0008733585 0.0009639923 0.00094999786 -0.0023552477 0.0013515223
0.020957068 -0.028837934 -0.07706068 -0.021361228 0.010417366 0.010923745 0.009212051 0.008118395
0.020915147 0.004432981 0.009474941 -0.0054286118 -0.04128763 -0.007750675 0.0031939184 -0.01886648
-0.033460908 0.013049047 0.01501711 0.009652252 0.009609424 0.0103878295 0.003192742 -0.004881211
0.009553157 -0.0065995995 -0.029985297 -0.01700656 0.002665246 0.0033695 -0.036471587 0.025642585
-0.007446143 -0.014242334 -0.020324513 -0.0017287346 -0.0054843486 0.025271798 0.011162372 0.0062951897
-0.004208874 0.0077220597 0.014445523 -0.012054143 -0.05311961 0.0010271544 -0.0022800541 0.019724227
-0.021868795 -0.020790039 0.0050247773 -0.009222512 0.015582302 -8.9375607e-07 -0.0021098703 0.0062693516
0.03908432 -0.046417348 0.00037191182 -0.008215459 -0.008343121 0.007705144 0.004878614 0.011425849
0.015645312 0.008337857 0.05568997 0.0006517786 0.00048492925 0.0018401258 0.0032967986 0.00187609
0.049078085 0.0074274605 0.00022134541 0.010897696 0.025335908 0.00088248524 0.010687192 0.012666328
0.040152177 0.0036230218 0.007497566 0.0076032467 0.009066991 0.0015293723 0.00067282113 0.0008831337
0.0035400612 0.007019111 0.022010783 0.0030218028 0.00015265978 3.319759e-05 0.018178869 0.013570454
0.0029806634 0.00563408 0.0053309742 0.0019302338 6.686337e-05 0.018255118 0.00533467 0.00091226946
0.00172827 0.0018804541 0.0063256603 0.0026886673 0.058453556 6.0147297e-05 0.00021471143 0.002405088
0.0066394955 0.0066565988 0.00070704194 0.0014879435 0.011236438 1.00174495e-11 0.0054774443 0.009107543
0.052217714 0.042254027 0.011540335 0.0016854651 0.0017742603 0.0022660724 0.018916845 0.002062289
00000000: 1d09 7b3c 56a2 013c 253b 643d 177e 283a
00000010: cee3 f739 03f9 de3a c931 423b dbbe e83a
00000020: 45ea 4c3d 3b07 e13b 5480 6539 3588 1e3c
00000030: ac68 ca3c 3f7c 633a 6e93 1c3c 8cc0 433c
00000040: 1659 213d 9f82 613b d412 e93b 8932 ea3b
00000050: c5de 0d3c ac8f bb3a edf8 2c3a dc26 633a
00000060: 92b1 553b 9618 cf3b c5fb b53c 8611 323b
00000070: be0f 1c39 0ef7 0a38 d380 913c f17f 543c
00000080: cc82 393b f07d b63b 611b a23b 6d6f f53a
00000090: c916 8738 dbad 8d3c cd26 9f3b e768 673a
000000a0: dab8 d93a 75eb e63a 54cd b83b 486b 213b
000000b0: e66b 733d c74c 7638 4060 2639 1f22 0e3b
000000c0: 5cda cf3b ad8f c63b d4ce 293a d65b b83a
000000d0: adee 303c d4f8 4d2d f7d9 ab3b 34f6 0e3c
000000e0: 359c 553d fbcd 2b3d fa2e 313c 27bc cc3a
000000f0: 0613 d23a f027 0c3b 6dba 913c 33a6 fa3a
00000100: 6557 55bb 2032 f9b9 91ea 9cbc 0421 cdb9
00000110: a18d 2538 3f83 6d3a ace4 c83a f7f0 7a3a
00000120: ada9 f7bb b9c4 f73a 9965 c738 8293 343b
00000130: 66e7 cdbb e0cf b038 f305 023b 6692 bdba
00000140: fd78 60bc 1044 283a e425 2e39 ddd3 f439
00000150: 41e4 4fba ed3e 7d3a 2895 a639 2192 6fb8
00000160: e64a b63a 81bd 043b f5c3 1bbb 7844 003b
00000170: 719a abb5 0895 67b6 aaa9 9abb 3f45 1ebb
00000180: 74c1 103a 0ada 32ba b894 8a3a 4b05 be39
00000190: db75 9db8 78f5 d9ba 96b0 d93a 497c f539
000001a0: 55b8 f939 9496 743a b752 1a3b 2e17 af3a
000001b0: a718 a7bc b74f bf37 b9ea a338 7907 d73a
000001c0: 0d3d 6a3a 6eca d53a 1394 c939 1921 3a3a
000001d0: 73fe 34bb 101e d7ab 2c7e 6bb9 1a32 96b9
000001e0: 0bdb 9dbc d501 8dbc fc3d dbba 19f2 643a
000001f0: 6eb4 7c3a 4709 793a 805a 1abb 9025 b13a
00000200: 28ae ab3c 883d ecbc fdd1 9dbd befd aebc
00000210: 9aad 2a3c 82f9 323c 24ee 163c 0403 053c
00000220: 3e56 ab3c 8a42 913b c83c 1b3c 7fe2 b1bb
00000230: 381d 29bd 60f9 fdbb 0f51 513b e08d 9abc
00000240: 4e0e 09bd accb 553c 530a 763c 7b24 1e3c
00000250: d870 1d3c b731 2a3c 523d 513b 91f2 9fbb
00000260: d884 1c3c 7441 d8bb baa3 f5bc 5751 8bbc
00000270: 68ab 2e3b d4d2 5c3b 3b63 15bd 6610 d23c
00000280: c6fe f3bb ae58 69bc 987f a6bc b596 e2ba
00000290: 0db6 b3bb cd06 cf3c 62e2 363c e147 ce3b
000002a0: 98ea 89bb 5509 fd3b eaac 6c3c bd7e 45bc
000002b0: f393 59bd 95a1 863a f66c 15bb b494 a13c
000002c0: 3026 b3bc df4f aabc e3a6 a43b 051a 17bc
000002d0: e94c 7f3c 73ea 6fb5 c045 0abb 226f cd3b
000002e0: e116 203d 1e20 3ebd 29fd c239 229a 06bc
000002f0: 96b1 08bc 6f7b fc3b c8dc 9f3b 7c33 3b3c
00000300: 992a 803c 829b 083c 2a1b 643d 1fdc 2a3a
00000310: 1a3e fe39 6030 f13a 1a0f 583b 22e7 f53a
00000320: 1a06 493d 0e62 f33b f518 6839 408c 323c
00000330: 408d cf3c 9556 673a 5519 2f3c 6e86 4f3c
00000340: 9c76 243d 3870 6d3b 24ae f53b a824 f93b
00000350: b78d 143c 3875 c83a 4360 303a 1982 673a
00000360: 5f00 683b 9200 e63b f54f b43c 7009 463b
00000370: 4c13 2039 a43d 0b38 daeb 943c 9c56 5e3c
00000380: 3c57 433b 179e b83b 74af ae3b e6ff fc3a
00000390: 0039 8c38 c28b 953c 75ce ae3b 5e25 6f3a
000003a0: 1e87 e23a 9279 f63a 7c47 cf3b 5a34 303b
000003b0: ff6c 6f3d ab46 7c38 2924 6139 ae9e 1d3b
000003c0: 2090 d93b 991f da3b c858 393a 1907 c33a
000003d0: 0919 383c 953a 302d 227c b33b ce37 153c
000003e0: 3ee2 553d 8f12 2d3d ac13 3d3c d3ea dc3a
000003f0: 4c8e e83a 6382 143b 80f7 9a3c 7827 073b

feature.0.bias_hh_l0 f4 [256]
0.015321618 0.007938089 0.055729754 0.0006395889 0.00047601707 0.0017087361 0.0029636263 0.0017500732
0.0501604 0.0068886895 0.00021886801 0.009675657 0.024637146 0.0008686227 0.009557586 0.012055181
0.03939229 0.003441036 0.0071131373 0.007139062 0.008659799 0.0014315237 0.0006493374 0.00088276906
0.0032605766 0.006322255 0.022237752 0.002717044 0.0001587647 3.60696e-05 0.017761618 0.0129764695
0.0028295603 0.00556923 0.0049457178 0.0018708602 6.451772e-05 0.017279148 0.004856156 0.00088907883
0.0016668707 0.0017475254 0.005591656 0.0024573253 0.059554607 5.4401597e-05 0.00014666138 0.002166815
0.006125863 0.0060442337 0.0006527239 0.0014066234 0.010769615 1.507975e-11 0.005244491 0.008513607
0.052046467 0.041845094 0.010814613 0.0015633632 0.0016470286 0.0021420256 0.017851619 0.0019120899
-0.0032553242 -0.00047531573 -0.018871408 -0.00039129736 4.1408683e-05 0.0009050477 0.0015324242 0.00094914937
-0.008656329 0.0018888303 9.506205e-05 0.0027539507 -0.006169395 8.4882624e-05 0.0019899383 -0.0015266923
-0.01373462 0.0006417586 0.00016635045 0.0004590434 -0.00079251704 0.0009659433 0.00032193676 -5.633458e-05
0.0013912795 0.002025258 -0.0026225522 0.0019560424 -1.3531638e-06 -1.8921914e-06 -0.0047128303 -0.0023750027
0.0005520416 -0.0006829264 0.0010572298 0.00036232074 -7.512691e-05 -0.001677369 0.0016609324 0.00039974443
0.00047639824 0.00092892494 0.0023242526 0.0013361234 -0.019187089 2.2284314e-05 7.90181e-05 0.0016385864
0.0008660378 0.001630933 0.00038384236 0.0007232568 -0.0027691335 -7.5078203e-13 -0.00022553577 -0.00029385195
-0.018680546 -0.016848516 -0.0016043765 0.00087197294 0.00096073374 0.000950332 -0.002356019 0.0013496781
0.031961884 0.004946131 0.035927746 0.00726455 -0.0018975155 0.011083737 0.008987336 0.008126328
0.06891111 0.0024115732 0.012987991 -0.005907387 -0.01412418 -0.006927343 0.0012523904 -0.010087046
-0.034425 0.004936288 0.012748721 0.014552251 -0.0034081023 0.011530364 0.0047208997 0.005899377
0.009510659 -0.010263126 -0.021107458 -0.015470349 -0.0060670925 0.0018810359 -0.02068273 -0.017744292
-0.0054465206 -0.0068797776 0.019411827 -0.0070177293 0.01259311 0.022927085 0.012183955 0.006461654
-0.0031315433 0.00771524 0.0018478053 -0.012648093 0.057741426 0.0003087493 -0.0024654225 0.0057934276
0.004154944 0.024510693 0.005029281 -0.009901459 0.015679805 5.7179614e-07 0.0051908316 -0.01748085
0.018094355 -0.0664391 0.05019791 -0.00820789 -0.00835031 0.0062331078 0.064795755 0.010951594
0.015645018 0.008321795 0.055704467 0.00065174146 0.0004797363 0.00187214 0.0032766298 0.0018883838
0.05006106 0.007469809 0.00022136427 0.01089778 0.02515359 0.00088302593 0.01069493 0.012720564
0.040122017 0.003622931 0.007497151 0.007611607 0.009068397 0.0015307573 0.0006647448 0.00087162654
0.003535248 0.0070214164 0.02215325 0.0030207757 0.00014847695 3.434219e-05 0.018177664 0.013492415
0.0029802655 0.0056342417 0.0053461716 0.0019297422 6.6202396e-05 0.018256066 0.0053382493 0.0009102972
0.0017283091 0.0019218049 0.0062333127 0.0026915483 0.058339868 7.974564e-05 0.0001475908 0.0023990846
0.0067621013 0.0066353804 0.0006936687 0.0014888548 0.011238624 8.275132e-12 0.0054764897 0.008888144
0.051992208 0.04211722 0.011505137 0.0016856676 0.0017452278 0.0022664173 0.017902875 0.0020619975
00000000: 8607 7b3c c20e 023c e244 643d 16aa 273a
00000010: ee91 f939 abf7 df3a 6639 423b b662 e53a
00000020: fe74 4d3d 84ba e13b ef7f 6539 a686 1e3c
00000030: d7d3 c93c 48b4 633a 6c97 1c3c 1883 453c
00000040: cf59 213d 0183 613b 5215 e93b cbee e93b
00000050: d4e1 0d3c f7a1 bb3a 4c38 2a3a a169 673a
00000060: 66af 553b eb2a cf3b f22b b63c 6f10 323b
00000070: 137a 2639 7049 1738 d080 913c 429b 543c
00000080: 2570 393b 167e b63b b00f a23b a737 f53a
00000090: b04d 8738 008d 8d3c 6420 9f3b 1211 693a
000000a0: e67a da3a 390d e53a 363a b73b 140b 213b
000000b0: 88ef 733d 452d 6438 1dc9 1939 2001 0e3b
000000c0: 77bb c83b b50e c63b 8f1b 2b3a 735e b83a
000000d0: 0a73 303c 94a4 842d fbd9 ab3b a87c 0b3c
000000e0: ad2e 553d c365 2b3d c62f 313c c4e9 cc3a
000000f0: 1ce1 d73a 3a61 0c3b 8f3d 923c 179f fa3a
00000100: 4757 55bb cc33 f9b9 3698 9abc 0b27 cdb9
00000110: 3cae 2d38 b940 6d3a a0db c83a 56d0 783a
00000120: 46d3 0dbc a192 f73a 0d5c c738 a07b 343b
00000130: a328 cabb 0303 b238 a069 023b 4b1b c8ba
00000140: 2c07 61bc b13b 283a 5c6e 2e39 c3ab f039
00000150: ebc0 4fba 5c37 7d3a 9fc9 a839 cb48 6cb8
00000160: 985b b63a 31ba 043b 20df 2bbb f230 003b
00000170: 5b9e b5b5 34f7 fdb5 166e 9abb efa5 1bbb
00000180: e2b6 103a 6a06 33ba bf92 8a3a def5 bd39
00000190: 748d 9db8 2adb dbba a5b3 d93a ca94 d139
000001a0: 17c5 f939 1983 733a 7d52 183b dd20 af3a
000001b0: 3e2e 9dbc 33ef ba37 85b6 a538 d6c5 d63a
000001c0: d006 633a 08c5 d53a 733e c939 f198 3d3a
000001d0: 5a7a 35bb 8c53 53ab cc7d 6cb9 2410 9ab9
000001e0: f207 99bc e605 8abc f149 d2ba 1d95 643a
000001f0: c0d9 7b3a b31f 793a 7167 1abb afe7 b03a
00000200: 77ea 023d 2713 a23b f928 133d 760b ee3b
00000210: 0eb6 f8ba 9098 353c 9f3f 133c 4a24 053c
00000220: 4521 8d3d 7c0b 1e3b 95cb 543c c192 c1bb
00000230: 1b69 67bc c4fe e2bb 4027 a43a 2344 25bc
00000240: 3b01 0dbd 96c0 a13b 03e0 503c 916c 6e3c
00000250: 785a 5fbb dae9 3c3c c7b1 9a3b 904f c13b
00000260: 98d2 1b3c ac26 28bc 8ce9 acbc 5977 7dbc
00000270: 76ce c6bb 178d f63a d46e a9bc 7a5c 91bc
00000280: ba78 b2bb c26f e1bb 8d05 9f3c fbf4 e5bb
00000290: 5553 4e3c 95d1 bb3c 369f 473c 48bc d33b
000002a0: 943a 4dbb 20d0 fc3b 0f32 f23a f239 4fbc
000002b0: 4682 6c3d a1df a139 ed92 21bb cbd6 bd3b
000002c0: 3226 883b a6ca c83c abcc a43b bb39 22bc
000002d0: ef72 803c 887d 1935 da17 aa3b 0034 8fbc
000002e0: 9d3a 943c 3911 88bd 539c 4d3d 637a 06bc
000002f0: bdcf 08bc 193f cc3b a3b3 843d 516e 333c
00000300: fb29 803c 2358 083c 5e2a 643d a1d9 2a3a
00000310: 1e85 fb39 9862 f53a babc 563b a583 f73a
00000320: d30c 4d3d 4dc5 f43b 051e 6839 9a8c 323c
00000330: e70e ce3c de7a 673a ca39 2f3c ea69 503c
00000340: fc56 243d b26e 6d3b a9aa f53b ca6a f93b
00000350: 9d93 143c b1a3 c83a 4542 2e3a de7d 643a
00000360: 9faf 673b e913 e63b bc7a b53c 35f8 453b
00000370: 7ab0 1b39 a50a 1038 53e9 943c 4a0f 5d3c
00000380: 8f50 433b 729f b83b f02e af3b 67ef fc3a
00000390: 24d6 8a38 bf8d 953c 7bec ae3b 03a1 6e3a
000003a0: 6e88 e23a 12e5 fb3a d140 cc3b b064 303b
000003b0: c9f5 6e3d 1d3d a738 9bc2 1a39 f639 1d3b
000003c0: 9e94 dd3b 9b6d d93b 52d7 353a ad25 c33a
000003d0: 3522 383c e293 112d 2074 b33b 949f 113c
000003e0: c8f5 543d 1b83 2c3d 0b80 3c3c 9ef1 dc3a
000003f0: 21c0 e43a 2c88 143b 0da9 923c 9422 073b

feature.2.weight_ih_l0 f4 [128, 64]
-0.005669412 0.008175436 0.011998602 0.0014682955 -0.0018286537 0.008541859 0.009599529 0.007906706
-0.012313115 -0.012260519 0.003097199 -0.013221191 -0.0104390895 -0.004005148 0.013140226 -0.009859348
0.010748523 0.008155351 -0.008361303 0.009483141 0.007821166 0.008109477 0.004588608 -0.002286982
0.009702702 -0.011970384 -0.009382095 -0.010832522 -0.0004800779 -2.239796e-05 0.007073183 -0.009078236
-0.007940636 0.0037725545 0.010302444 -0.0059504253 -0.00030722935 -0.010763006 0.0110454755 0.005974329
-0.006000908 0.0076821996 -0.012798568 -0.009806611 0.0135661 0.0012290683 -0.0024706773 0.009494196
-0.011917571 0.011756935 0.0051263594 -0.0075804293 0.008249741 2.0597336e-07 -0.007311996 0.008773097
0.012002039 -0.011253819 -0.010322614 -0.0075560957 -0.007781436 0.008021342 -0.011671472 0.008885546
-0.0048497207 0.0054636835 0.012650879 0.00060742506 -0.0011617135 0.0049157576 0.00564219 0.0046332455
-0.012283638 -0.00751812 0.001632008 -0.008181794 -0.008346947 -0.002412337 0.008139788 -0.0067686373
0.009819109 0.004902172 -0.00542775 0.0060484945 0.0052856877 0.0046230885 0.0026515727 -0.0014903748
0.00568647 -0.00721071 -0.007535381 -0.0061825337 -0.00031491593 -7.2387294e-05 0.0058136564 -0.0064537376
-0.0047262697 0.0029071271 0.006256311 -0.003591771 -0.00015114616 -0.0075941705 0.00660405 0.0034814207
-0.0035519958 0.004491041 -0.0077071693 -0.005671336 0.014004855 0.0006834963 -0.0014428205 0.0054057753
-0.0072026257 0.007130154 0.0029884633 -0.0043688016 0.005716602 1.5659654e-07 -0.004721267 0.0059146
0.012148048 -0.010715957 -0.0068020816 -0.0043561268 -0.0045318287 0.0046841037 -0.008324482 0.0050692675
-0.0031696241 0.0043836916 0.007296869 0.0006320009 -0.0009030558 0.004478535 0.0051022 0.0041784733
-0.007388083 -0.006547732 0.001500714 -0.0071675694 -0.005864548 -0.002035574 0.0071071144 -0.0053670807
0.0063111004 0.0043129516 -0.0044979346 0.00508684 0.004241414 0.0042047244 0.0023512202 -0.0012054951
0.0051402217 -0.006435775 -0.0052894964 -0.00567728 -0.00024541724 -1.3804496e-05 0.003979866 -0.004961081
-0.0042025433 0.0019892587 0.0054982137 -0.0030877409 -0.00013505128 -0.005938913 0.005875925 0.0031225064
-0.0031250967 0.004063929 -0.0067779557 -0.0051593236 0.008223325 0.0005663301 -0.0012119965 0.004963812
-0.0063598105 0.0062882416 0.002646137 -0.003943305 0.0044931006 4.918488e-09 -0.0038908967 0.0047188033
0.007240921 -0.006765963 -0.005585581 -0.003980923 -0.0041003316 0.0042117652 -0.006379516 0.0046511474
-0.0019967465 0.0023766286 0.005395652 0.00027728386 -0.0004167109 0.0021871673 0.0025561163 0.0020637356
-0.005211225 -0.003354907 0.00067775574 -0.0037187224 -0.0035675897 -0.0010221371 0.0036894016 -0.002931944
0.0042411047 0.002161 -0.002391212 0.0026894743 0.0022837052 0.0020291293 0.001109773 -0.000649725
0.0025547927 -0.003271513 -0.0031455993 -0.0027701631 -0.00016554781 -2.5244268e-05 0.0024191285 -0.002755624
-0.0020707161 0.0011217187 0.00279959 -0.0015464781 -5.9292328e-05 -0.0033325476 0.0029552204 0.001504968
-0.0015232511 0.0020182973 -0.0034281581 -0.002532088 0.005959185 0.00024352521 -0.0005682489 0.0023917663
-0.0032314851 0.0032025431 0.0012845473 -0.0019065457 0.002447658 3.2971162e-08 -0.0020307056 0.0025468222
0.005189057 -0.004586496 -0.0029857727 -0.0019447475 -0.0020159332 0.0020674556 -0.0036102897 0.0022717086
00000000: 7ac6 b9bb 44f2 053c c995 443c d273 c03a
00000010: 70af efba 27f3 0b3c 5847 1d3c 218b 013c
00000020: f3bc 49bc 58e0 48bc 60fa 4a3b b29d 58bc
00000030: b708 2bbc 9e3d 83bb 1a4a 573c 1a89 21bc
00000040: 931a 303c 059e 053c d9fd 08bc 2d5f 1b3c
00000050: 5924 003c 9ddd 043c 095c 963b 31e1 15bb
00000060: 15f8 1e3c 6e1f 44bc 5cb7 19bc e47a 31bc
00000070: f7b2 fbb9 41e3 bbb7 29c6 e73b e2bc 14bc
00000080: 7119 02bc f63c 773b 95cb 283c c9fb c2bb
00000090: a013 a1b9 5257 30bc 15f8 343c 4ec4 c33b
000000a0: 44a3 c4bb f6ba fb3b 16b1 51bc e8ab 20bc
000000b0: 5944 5e3c b018 a13a 16eb 21bb 8b8d 1b3c
000000c0: ea41 43bc 29a0 403c 05fb a73b 4065 f8bb
000000d0: ec29 073c 8729 5d34 7899 efbb 09bd 0f3c
000000e0: 33a4 443c f061 38bc 2e20 29bc 2099 f7bb
000000f0: 6bfb febb f26b 033c b439 3fbc ae94 113c
00000100: 68ea 9ebb b308 b33b a245 4f3c 9b3b 1f3a
00000110: a344 98ba 5d14 a13b 1fe2 b83b 7bd2 973b
00000120: 5041 49bc 905a f6bb 1ae9 d53a ee0c 06bc
00000130: a2c1 08bc 4d18 1ebb bf5c 053c 72cb ddbb
00000140: 54e0 203c 66a2 a03b 44db b1bb 7332 c63b
00000150: 9033 ad3b 477d 973b 02c6 2d3b ae58 c3ba
00000160: 9155 ba3b d247 ecbb 5beb f6bb da96 cabb
00000170: 4d1b a5b9 a2ce 97b8 7c80 be3b e079 d3bb
00000180: d3de 9abb 8085 3e3b be01 cd3b eb63 6bbb
00000190: fd7c 1eb9 85d8 f8bb c966 d83b 8c28 643b
000001a0: 9ac8 68bb 9529 933b 6c8c fcbb 9dd6 b9bb
000001b0: 9f74 653c a92c 333a 061d bdba ee22 b13b
000001c0: 0104 ecbb 11a4 e93b 18da 433b 2a28 8fbb
000001d0: 5552 bb3b ee24 2834 dcb4 9abb 43cf c13b
000001e0: 9b08 473c fb91 2fbc ffe3 debb d7bd 8ebb
000001f0: bc7f 94bb 1c7d 993b 6863 08bc 191c a63b
00000200: 78b9 4fbb 12a5 8f3b 931a ef3b ddac 253a
00000210: 0dbb 6cba adc0 923b 5b30 a73b 93eb 883b
00000220: bb17 f2bb 5b8e d6bb 9bb3 c43a eedd eabb
00000230: 652b c0bb 4467 05bb cce2 e83b 56de afbb
00000240: 59cd ce3b a953 8d3b 6963 93bb 82af a63b
00000250: 8ffb 8a3b c9c7 893b ee16 1a3b b401 9eba
00000260: 4e6f a83b 32e3 d2bb 8353 adbb 7a08 babb
00000270: 58ab 80b9 dc99 67b7 8969 823b 9090 a2bb
00000280: 7db5 89bb 395e 023b 5c2a b43b b25b 4abb
00000290: 8d9c 0db9 379b c2bb d58a c03b f7a2 4c3b
000002a0: 6cce 4cbb b52a 853b 9d19 debb 8b0f a9bb
000002b0: 20bb 063c c575 143a dbdb 9eba 79a7 a23b
000002c0: f565 d0bb 980d ce3b d06a 2d3b d736 81bb
000002d0: dc3a 933b 7aff a831 6afe 7ebb 31a0 9a3b
000002e0: 3f45 ed3b 03b5 ddbb 4007 b7bb 6772 82bb
000002f0: 135c 86bb d902 8a3b 420b d1bb a768 983b
00000300: d9db 02bb 36c1 1b3b 02ce b03b 6960 9139
00000310: fd79 dab9 9456 0f3b 8484 273b bd3f 073b
00000320: ecc2 aabb 00de 5bbb 6bab 313a cfb5 73bb
00000330: 39ce 69bb 3bf9 85ba e3c9 713b dc25 40bb
00000340: f7f8 8a3b 909f 0d3b e1b5 1cbb e441 303b
00000350: 37aa 153b 24fb 043b cd75 913a 4f52 2aba
00000360: 4f6e 273b e166 56bb 6626 4ebb a08b 35bb
00000370: e796 2db9 a7c3 d3b7 3e8a 1e3b b397 34bb
00000380: dab4 07bb a206 933a 5379 373b 32b3 caba
00000390: a7b0 78b8 df66 5abb 5fac 413b 5942 c53a
000003a0: d3a7 c7ba 6945 043b f3aa 60bb 63f1 25bb
000003b0: 4445 c33b cd5a 7f39 8af6 14ba 2ebf 1c3b
000003c0: 53c7 53bb c2e1 513b 415e a83a 0fe5 f9ba
000003d0: e368 203b 2d9c 0d33 9615 05bb 96e8 263b
000003e0: f708 aa3b 514a 96bb f4ac 43bb e6e6 feba
000003f0: bf1d 04bb 267e 073b 9c9a 6cbb f2e0 143b

feature.2.weight_hh_l0 f4 [128, 32]
0.0016423834 -0.0046570203 -0.0009782698 -0.0024286576 0.0019595516 0.0015397632 0.0012538761 -0.0038892608
0.0018584239 -0.0036253033 -0.00025362018 0.0061527295 -0.0009356547 -0.001972107 0.002638034 -0.003508564
0.0038591104 0.00024206727 -0.001648007 0.001600266 0.001438652 0.0023083482 0.0018686631 -0.0012174884
-0.002206713 -0.0012648312 0.002633774 -0.0016228331 -0.0046973643 0.004105951 -0.0012086023 0.00064480817
0.00036567566 -0.0020997955 -0.00014958554 -0.0009939463 0.0013906446 0.0007450981 0.00050899736 -0.0015729031
0.00058408757 -0.0017435702 0.0003241753 0.003062486 -0.00027447924 -0.0008209033 0.0012009129 -0.0011772487
0.0018402769 0.00065751805 -0.0005881335 0.0004898422 0.0006628724 0.0008145856 0.00086871855 -0.00040800477
-0.0008182183 -0.00053014315 0.0016313602 -0.00068996724 -0.002179611 0.0016014694 -0.001277933 0.0002144142
0.00074042816 -0.002339798 -0.00037079476 -0.0011810045 0.0011279895 0.00074057694 0.0005958049 -0.001950724
0.0008326593 -0.001793298 -6.1684354e-06 0.0031559365 -0.00038789932 -0.00090904813 0.0012645466 -0.0017773622
0.0019434306 0.00026827687 -0.00077735964 0.0007367578 0.00066300074 0.0011041658 0.0008592943 -0.00057318725
-0.0010159009 -0.00055494846 0.0014055021 -0.00074273616 -0.0023557509 0.0020812987 -0.0008062099 0.00024726143
0.00012386995 -0.00089439726 -2.7988464e-05 -0.0004435181 0.0005813001 0.00031308364 0.00022437825 -0.0006598118
0.00024390627 -0.00070470385 0.00017296162 0.0013570008 -0.00010924694 -0.00030992855 0.00049125525 -0.0004991149
0.0007597775 0.00033115974 -0.00022875286 0.00018016776 0.00027468597 0.0003571528 0.00031819643 -0.00017281705
-0.0003153815 -0.0002223895 0.00062771206 -0.00028280145 -0.00092862797 0.00068860425 -0.00062599307 7.947287e-05
0.0011856082 -0.0028084524 -0.00064203277 -0.0013820395 0.00094685744 0.0007736542 0.00063972565 -0.0024921673
0.0011802381 -0.0021252276 -0.0003340634 0.0036213945 -0.0006666523 -0.0010977028 0.0014580282 -0.0025715567
0.0021861417 -0.000110335495 -0.0009966054 0.0010161328 0.000716823 0.0014643691 0.0010317648 -0.0006855242
-0.0013912075 -0.0006958204 0.0013260329 -0.00085303775 -0.002758709 0.0027503197 -0.00025670626 0.00032651235
3.7368177e-06 -2.3093733e-05 -2.4580086e-06 -1.5456313e-05 1.07866645e-05 9.554305e-06 5.727929e-06 -1.629233e-05
1.2142531e-05 -2.2939326e-05 -2.0689033e-06 2.2746126e-05 -6.450717e-06 -1.3772529e-05 1.0332311e-05 -7.995839e-06
1.6116506e-05 5.0322697e-06 -1.1000024e-05 6.3690977e-06 8.086885e-06 1.03235825e-05 7.4889404e-06 -7.2330527e-06
-7.2804423e-06 -7.2115276e-06 8.208742e-06 -6.7041847e-06 -1.7887087e-05 1.9408837e-05 -4.012313e-06 4.5512393e-06
1.1103432e-05 -0.00013065469 -8.094816e-07 -6.0845672e-05 8.457836e-05 4.5292323e-05 4.55412e-05 -9.126902e-05
2.8197175e-05 -0.00010983473 3.760024e-05 0.00019242642 -2.2651904e-05 -5.7152585e-05 7.9449404e-05 -4.0271494e-05
0.00012251615 6.1570565e-05 -4.1753825e-05 3.0755382e-05 6.0065206e-05 4.888696e-05 5.504111e-05 -3.8644503e-05
-4.6993082e-05 -4.2562107e-05 7.789718e-05 -6.259427e-05 -0.00013111853 9.5802825e-05 -0.00011908706 1.99403e-05
0.001350279 -0.004831448 -0.0008124601 -0.0024904795 0.0025009613 0.0017739862 0.0013279537 -0.0038415128
0.001727828 -0.0039408808 0.0001039093 0.0066572856 -0.00089948904 -0.0020409275 0.002843522 -0.003154062
0.004166836 0.0007394654 -0.0016107801 0.0014630952 0.0015967413 0.0022181987 0.0020166656 -0.0012306232
-0.0021619166 -0.0013484865 0.0031721934 -0.0017409197 -0.004985998 0.003951077 -0.0019474354 0.0005902399
00000000: 3e45 d73a eb99 98bb 4a39 80ba 1d2a 1fbb
00000010: d26b 003b e1d1 c93a 1a59 a43a f8e2 7ebb
00000020: 5c96 f33a 7f96 6dbb 53f8 84b9 d69c c93b
00000030: b946 75ba 773e 01bb dee2 2c3b f0ef 65bb
00000040: 21e9 7c3b 70d3 7d39 f001 d8ba 04c0 d13a
00000050: 2791 bc3a a847 173b eeed f43a 2294 9fba
00000060: 809e 10bb b1c8 a5ba 659b 2c3b 3eb5 d4ba
00000070: 59ec 99bb 378b 863b f769 9eba 5808 293a
00000080: 28b8 bf39 b99c 09bb 10da 1cb9 4e47 82ba
00000090: 4a46 b63a b052 433a 3c6e 053a df29 ceba
000000a0: 741d 193a 8288 e4ba 12f6 a939 fdb3 483b
000000b0: fbe7 8fb9 e331 57ba f367 9d3a e94d 9aba
000000c0: 7235 f13a 4a5d 2c3a f92c 1aba c168 003a
000000d0: 9dc4 2d3a ea89 553a b7ba 633a 79e9 d5b9
000000e0: b37d 56ba 4ef9 0aba 5dd3 d53a ebde 34ba
000000f0: ced7 0ebb 65e8 d13a 5180 a7ba 60d4 6039
00000100: 4b19 423a 4c57 19bb 3b67 c2b9 efcb 9aba
00000110: 0cd9 933a 4723 423a ca2f 1c3a 70af ffba
00000120: d246 5a3a 190d ebba 75fa ceb6 d4d3 4e3b
00000130: f75e cbb9 304d 6eba 25bf a53a 61f6 e8ba
00000140: b6ba fe3a 83a7 8c39 b9c7 4bba fb22 413a
00000150: 3acd 2d3a a8b9 903a 4442 613a f241 16ba
00000160: fa27 85ba f679 11ba d338 b83a 2eb4 42ba
00000170: f162 1abb 6666 083b d557 53ba dea2 8139
00000180: 16e3 0139 fc75 6aba c5c8 eab7 fe87 e8b9
00000190: 6462 183a 6025 a439 1447 6b39 38f7 2cba
000001a0: 17c1 7f39 e0bb 38ba 085d 3539 64dd b13a
000001b0: 811b e5b8 e87d a2b9 95c7 003a 09d7 02ba
000001c0: ce2b 473a 829f ad39 61dd 6fb9 6aeb 3c39
000001d0: ba03 9039 3d40 bb39 9ad3 a639 3936 35b9
000001e0: ca59 a5b9 3a31 69b9 0b8d 243a f844 94b9
000001f0: 2b6f 73ba 7383 343a af19 24ba acaa a638
00000200: 6966 9b3a 030e 38bb 174e 28ba 8d25 b5ba
00000210: 8736 783a 0ecf 4a3a 43b3 273a a153 23bb
00000220: 38b2 9a3a 6747 0bbb 3b25 afb9 eb54 6d3b
00000230: 47c2 2eba cbe0 8fba 4f1b bf3a 9087 28bb
00000240: 5f45 0f3b eb63 e7b8 87a0 82ba c22f 853a
00000250: 2de9 3b3a 13f0 bf3a 483c 873a c0b4 33ba
00000260: 2d59 b6ba b767 36ba 48ce ad3a 659e 5fba
00000270: 75cb 34bb b53e 343b 8896 86b9 bf2f ab39
00000280: 0ac6 7a36 6ab9 c1b7 44f4 24b6 2ea8 81b7
00000290: 5ff8 3437 6d4b 2037 8932 c036 83ab 88b7
000002a0: c6b7 4b37 d46d c0b7 7dd7 0ab6 efce be37
000002b0: 3d73 d8b6 9010 67b7 f058 2d37 de25 06b7
000002c0: ef31 8737 deda a836 be8c 38b7 22b6 d536
000002d0: e8ac 0737 7333 2d37 8249 fb36 73b3 f2b6
000002e0: 864a f4b6 8dfa f1b6 47b8 0937 82f4 e0b6
000002f0: 3a0c 96b7 29d0 a237 82a1 86b6 d9b6 9836
00000300: e148 3a37 5a00 09b9 274b 59b5 8b34 7fb8
00000310: a95f b138 43f8 3d38 7e03 3f38 af67 bfb8
00000320: f988 ec37 1257 e6b8 f3b4 1d38 13c6 4939
00000330: 9804 beb7 1fb7 6fb8 139e a638 30e9 28b8
00000340: ae77 0039 721f 8138 d420 2fb8 57ff 0038
00000350: 86ee 7b38 f90b 4d38 f1db 6638 3816 22b8
00000360: 701a 45b8 b784 32b8 bb5c a338 0b45 83b8
00000370: dd7c 09b9 c0e9 c838 61be f9b8 7845 a737
00000380: d8fb b03a 2051 9ebb 46fb 54ba 5037 23bb
00000390: 2be7 233b 1985 e83a bb0e ae3a e4c1 7bbb
000003a0: 4a78 e23a 8122 81bb e1e9 d938 5c25 da3b
000003b0: b0cb 6bba 15c1 05bb 625a 3a3b 61b4 4ebb
000003c0: f489 883b afd8 413a d020 d3ba 54c5 bf3a
000003d0: bf49 d13a 335f 113b 092a 043b dd4c a1ba
000003e0: f1ae 0dbb b3bf b0ba 93e4 4f3b 922f e4ba
000003f0: 9561 a3bb 0978 813b 1741 ffba 54ba 1a3a

feature.2.bias_ih_l0 f4 [128]
0.060877733 0.041044172 0.035695307 0.016653681 0.038303852 0.0004883332 0.003561099 0.063361436
0.034419302 0.0062946426 0.049374264 0.015127491 0.010497698 0.010851162 0.007691291 0.09103102
0.007849393 0.06157858 0.015883263 0.02958298 0.0012469745 0.040374365 0.0018269222 0.011440023
0.026427232 0.0020833802 0.027364211 0.00486479 0.026405524 0.055748716 0.09423698 0.0038453822
-0.013092308 -0.0050450186 -0.0057713743 -0.0021139835 -0.007071703 8.7479e-05 -0.000451685 -0.0139106745
-0.00528423 3.494028e-05 -0.009242096 -0.0012909612 -0.0016264247 -0.0014058804 -0.00073601387 -0.0026417777
-9.043519e-05 -0.012855616 -0.0022188388 -0.004780969 -5.343319e-05 -0.0075090094 -0.00012423488 -0.0016657528
-0.0040792315 -0.00025404606 -0.0052417945 -0.0006016815 0.0003043554 -0.021470342 -0.02833143 -0.0006476165
-0.04163632 -0.03309825 0.07314027 -0.016846824 0.08753589 0.011464245 0.009219958 -0.03831226
0.090890974 -0.065755635 0.033111043 0.089710906 0.05047266 -0.06319679 0.014080325 -0.106305405
0.09372033 0.01329619 0.057754114 -0.024806637 0.0007257744 0.09742852 0.023106907 -0.04767824
0.05472953 -0.0007098283 0.070253246 -0.029607076 -0.020694034 0.08237155 -0.06507236 -0.0023099268
0.067298 0.026898727 0.038422827 0.017100835 0.038858112 0.00049090607 0.0035959189 0.08220523
0.03586771 0.0064744763 0.050227355 0.0027871397 0.010601956 0.011035042 0.0078346245 0.0997019
0.007947139 0.063656494 0.016066348 0.0326368 0.001281761 0.04030012 0.0018433601 0.011584779
0.026003707 0.0020960926 0.027485518 0.00491067 0.029287618 0.08827341 0.10108293 0.0038627645
00000000: ee5a 793d ef1d 283d 3e35 123d 4d6d 883c
00000010: 80e4 1c3d 7c03 003a 5461 693b a4c3 813d
00000020: 41fb 0c3d 4a43 ce3b ab3c 4a3d 4cd9 773c
00000030: 89fe 2b3c 12c9 313c 3a07 fc3b 796e ba3d
00000040: be9a 003c d239 7c3d 9e1d 823c 0158 f23c
00000050: 8571 a33a 975f 253d 5675 ef3a ef6e 3b3c
00000060: ec7d d83c 5289 083b e92a e03c d168 9f3b
00000070: 6650 d83c c458 643d 51ff c03d cf02 7c3b
00000080: 1f81 56bc af50 a5bb cc1d bdbb c28a 0abb
00000090: bfb9 e7bb ee74 b738 22d0 ecb9 99e9 63bc
000000a0: 5627 adbb d78c 1238 296c 17bc 7835 a9ba
000000b0: c22d d5ba 8545 b8ba 0ef1 40ba ad21 2dbb
000000c0: 06a8 bdb8 5da0 52bc f069 11bb ada9 9cbb
000000d0: 731d 60b8 230e f6bb 0c45 02b9 6455 daba
000000e0: 13ab 85bb 7c31 85b9 5cc3 abbb 29ba 1dba
000000f0: e491 9f39 92e2 afbc 5117 e8bc cfc4 29ba
00000100: d98a 2abd 0892 07bd 91ca 953d 5a02 8abc
00000110: 0446 b33d 87d4 3b3c 4f0f 173c 51ed 1cbd
00000120: 0c25 ba3d e4aa 86bd 729f 073d 5aba b73d
00000130: 6cbc 4e3d 526d 81bd 2ab1 663c a6b6 d9bd
00000140: 72f0 bf3d 43d8 593c 948f 6c3d 4a37 cbbc
00000150: e541 3e3a 9b88 c73d b24a bd3c 424a 43bd
00000160: 122c 603d c513 3aba efe0 8f3d 8a8a f2bc
00000170: 8986 a9bc 6ab2 a83d a844 85bd 2462 17bb
00000180: 89d3 893d b85a dc3c 4161 1d3d 0d17 8c3c
00000190: af29 1f3d 26b0 003a 82a9 6b3b 375b a83d
000001a0: 05ea 123d d827 d43b 33bb 4d3d 72a8 363b
000001b0: d4b3 2d3c 52cc 343c cc5c 003c 8230 cc3d
000001c0: b834 023c 565e 823d 939d 833c 2aae 053d
000001d0: c300 a83a bd11 253d e79c f13a 16ce 3d3c
000001e0: ba05 d53c 995e 093b 4f29 e13c b0e9 a03b
000001f0: 96ec ef3c b1c8 b43d 9104 cf3d 6f26 7d3b

feature.2.bias_hh_l0 f4 [128]
0.061544478 0.032236677 0.0321308 0.01669124 0.03793432 0.0004871927 0.0035643603 0.057139046
0.034599222 0.006362912 0.049605906 0.0073301923 0.01049748 0.010853238 0.0076901205 0.12497322
0.008147186 0.05547133 0.015883418 0.030425714 0.0012472032 0.037808824 0.0018269422 0.011440461
0.02657351 0.0020970786 0.026780002 0.004865638 0.019003833 0.095638864 0.08704761 0.0038431543
-0.0126972245 -0.009228746 -0.0053884173 -0.0021151055 -0.006857608 8.426936e-05 -0.00045054452 -0.009814163
-0.005341048 3.4248937e-05 -0.008779438 0.0012560413 -0.0016271007 -0.0014037368 -0.0007379457 -0.049288835
-0.00013679081 -0.012863413 -0.0022203142 -0.0051444285 -5.3468237e-05 -0.007456969 -0.00012446503 -0.001666478
-0.004115651 -0.0002540482 -0.0057312744 -0.0006014426 0.001994054 -0.020416101 -0.010791885 -0.00064733846
-0.0030909292 -0.040358186 -0.022015182 -0.02061413 0.059223622 0.036974117 0.019343315 0.03638732
-0.09926515 -0.029984407 0.043465715 0.079732604 -0.05548079 0.028900847 0.04813028 0.11206842
0.003779256 0.091878414 -0.07066481 0.013308073 0.04069142 -0.103640795 0.030495396 0.03877012
-0.070600994 -0.0328721 0.08106108 -0.0075393976 -0.06792493 -0.07711848 -0.11733761 0.009783644
0.058534663 0.038181264 0.03679727 0.0170744 0.03905031 0.00049222505 0.0035859512 0.07431409
0.034286674 0.0063876216 0.04886387 0.016751809 0.010602289 0.011040208 0.007839829 0.11852778
0.008698501 0.062675275 0.016185403 0.032008577 0.0012661006 0.04109907 0.0018400311 0.011586408
0.027159162 0.0021011839 0.027395338 0.0049118567 0.022202725 0.09793616 0.08924504 0.0038613097
00000000: 1016 7c3d 9b0a 043d 969b 033d 11bc 883c
00000010: 0461 1b3d e66d ff39 0b98 693b a20a 6a3d
00000020: eab7 0d3d f97f d03b 902f 4b3d 1c32 f03b
00000030: 9ffd 2b3c c8d1 313c 68fd fb3b f6f1 ff3d
00000040: c67b 053c e835 633d f11d 823c 593f f93c
00000050: 3279 a33a 6ddd 1a3d 0276 ef3a c570 3b3c
00000060: b1b0 d93c 246f 093b bc61 db3c ee6f 9f3b
00000070: edad 9b3c 4fde c33d 0446 b23d 6edd 7b3b
00000080: 0508 50bc 2b34 17bc 5291 b0bb 959d 0abb
00000090: c9b5 e0bb c5b9 b038 1037 ecb9 95cb 20bc
000000a0: f503 afbb 84a6 0f38 a2d7 0fbc c1a1 a43a
000000b0: 7144 d5ba 97fd b7ba b372 41ba 17e3 49bd
000000c0: 816f 0fb9 11c1 52bc b182 11bb 9892 a8bb
000000d0: 1543 60b8 9759 f4bb d482 02b9 b96d daba
000000e0: 95dc 86bb c631 85b9 6acd bbbb 21aa 1dba
000000f0: adae 023b ab3f a7bc 72d0 30bc 26b2 29ba
00000100: 3091 4abb a04e 25bd 2f59 b4bc f7de a8bc
00000110: 7894 723d 2c72 173d df75 9e3c df0a 153d
00000120: 874b cbbd dca1 f5bc 1b09 323d d94a a33d
00000130: d33f 63bd 78c1 ec3c 4224 453d 2184 e53d
00000140: 65ad 773b c02a bc3d b6b8 90bd 1b0a 5a3c
00000150: 0cac 263d a041 d4bd 7bd1 f93c 6bcd 1e3d
00000160: 4197 90bd e5a4 06bd 5a03 a63d 0d0d f7bb
00000170: 3a1c 8bbd 4bf0 9dbd b34e f0bd 944b 203c
00000180: 0bc2 6f3d f563 1c3d bcb8 163d 9ddf 8b3c
00000190: 38f3 1f3d aa08 013a 4702 6b3b fc31 983d
000001a0: 2f70 0c3d 414f d13b 7b25 483d 173b 893c
000001b0: 39b5 2d3c fde1 343c a072 003c b1be f23d
000001c0: 2884 0e3c e55b 803d 4097 843c 6d1b 033d
000001d0: 49f3 a53a 8057 283d 332d f13a ebd4 3d3c
000001e0: e47c de3c 04b4 093b 306c e03c a4f3 a03b
000001f0: 7de2 b53c c192 c83d 1bc6 b63d 070e 7d3b
