Code/LSTM/LSTMModelOutputs/oldTLbest_model.pth (torch, 217798 bytes, 15 tensors)

feature.0.weight_ih_l0 f4 [256, 54]
000000 ab a1 97 39 e9 f9 31 3a 0e 72 48 3a b9 b9 47 00
       0.00028921416 0.00067892537 0.000764639 6.586945e-39
000010 3d c7 00 80 a2 1f 34 80 63 ca 06 80 23 e8 2c 80
       -7.1473e-41 -4.786794e-39 -6.23616e-40 -4.124037e-39
000020 01 14 06 00 2a 92 f3 3a 12 c4 f5 3a b3 9d 26 3a
       5.58189e-40 0.0018582989 0.001875045 0.00063558965
000030 bb da 2a 3a c2 b3 73 38 01 4a 29 3a 34 43 59 3a
       0.0006517579 5.8103127e-05 0.0006457866 0.0008287907
000040 e7 47 20 3a 83 18 2b 3a f2 61 05 80 70 60 7d 3a
       0.000611423 0.0006526785 -4.94314e-40 0.00096655544
000050 23 a0 87 38 30 a3 c4 3a 25 9d 10 3b 1c 96 e8 3a
       6.4671294e-05 0.0015002247 0.0022066322 0.0017744931
000060 ea 67 9e 3a 28 03 eb 3a a6 9d f3 3a 52 ff f0 3a
       0.0012085412 0.0017930018 0.0018586412 0.0018386638
000070 f0 0d ed 3a 56 f3 f0 3a 0f 18 1a 3b 46 5c a8 39
       0.0018085819 0.0018383067 0.0023512875 0.00032112206
000080 90 5d ec 3a d9 94 f2 3a a6 48 f2 3a 68 81 f1 3a
       0.0018033255 0.0018507495 0.0018484786 0.0018425407
000090 16 50 ea 3a c6 c9 1a 3b cc b4 7e 39 a3 da ea 3a
       0.0017876651 0.0023618801 0.0002429068 0.0017917942
0000a0 c1 78 f3 3a ae 39 ee 3a de 7f f1 3a 10 71 ea 3a
       0.0018575416 0.0018175149 0.0018424948 0.0017886478
0000b0 eb 1c 1a 3b 30 f0 7f 39 15 4d 06 80 b4 c4 f3 3a
       0.0023515772 0.00024408172 -5.78665e-40 0.0018598051
0000c0 07 ea d8 3a 5f ec 9c 39 8e fb bc 39 c2 4e f3 3a
       0.0016549238 0.0002993075 0.00036045577 0.00185629
0000d0 12 6c ef 3a 82 18 f5 3a f2 36 08 3c 0f 51 a4 3c
       0.001826646 0.001869932 0.008313881 0.020058183
0000e0 27 4b b2 3c 5c 72 42 00 57 8b 14 00 97 73 1b 00
       0.021764351 6.102167e-39 1.886696e-39 2.521024e-39
0000f0 70 be 0e 80 7e 50 0f 80 16 89 1e 80 e0 6e 2d 3d
       -1.354013e-39 -1.406408e-39 -2.804242e-39 0.042342067
000100 44 ad 2c 3d e1 dd ab 3c a2 a9 b1 3c e3 fe de 3b
       0.042157426 0.020979824 0.021687333 0.006805287
000110 5b 5b ac 3c 5d aa c5 3c 92 c5 92 3c ce 66 92 3c
       0.021039655 0.024129087 0.017916474 0.017871287
000120 78 98 70 01 95 86 be 3c 0c d8 b7 3b 6c 00 16 3d
       4.419043e-38 0.023257533 0.0056104716 0.036621496
000130 ee 78 3b 3d ae 67 0e 3d ae 37 02 3d a2 96 7d 3c
       0.045769624 0.034766845 0.03179138 0.015477808
000140 1c 49 2e 3d e3 2b 2d 3d b0 d8 7a 3c 7c 3c 7d 3c
       0.04255019 0.04227818 0.015310451 0.015456315
000150 38 dd 3b 3d 1f 92 11 3c 36 99 7d 3c 16 2d 2e 3d
       0.045865268 0.008884936 0.015478423 0.042523466
000160 72 45 7a 3c e1 ca 2c 3d 09 a8 7c 3c 92 d6 3b 3d
       0.015275346 0.042185668 0.015420922 0.045858927
000170 2a 9b 0f 3c 40 de 7c 3c 7d 48 2e 3d af 45 7a 3c
       0.008765021 0.015433848 0.0425496 0.015275403
000180 a5 cb 2c 3d 7a a8 7c 3c f8 c4 3b 3d e0 96 0f 3c
       0.042186398 0.015421027 0.04584214 0.008763999
000190 d6 d8 26 80 86 a5 2e 3d ce cb 08 3d 4d 8f 68 3b
       -3.567535e-39 0.042638324 0.03339749 0.0035485805
0001a0 6b 9e 4b 3c 31 20 2d 3d 68 5b 2c 3d 07 d2 2c 3d
       0.0124279065 0.04226703 0.04207936 0.042192485
0001b0 9c 00 ab 3a b0 fc 62 3b a3 ee 73 3b 28 0a 18 00
       0.0013046446 0.0034635477 0.0037221096 2.207695e-39
0001c0 58 8d 16 80 a0 95 39 80 8a 36 41 80 e7 61 32 00
       -2.071085e-39 -5.288299e-39 -5.988872e-39 4.626896e-39
0001d0 a0 cc 12 00 90 50 04 3c 8d 7a 04 3c c6 15 48 3b
       1.726445e-39 0.008075848 0.008085859 0.0030530556
0001e0 1b c6 50 3b 8d 96 08 3a fe 5d 66 3b 24 4a 87 3b
       0.0031856361 0.0005210422 0.0035151239 0.0041287113
0001f0 f7 1c 3a 3b fb 1c 39 3b 71 56 31 00 73 30 a5 3b
       0.0028398612 0.0028246033 4.530949e-39 0.005041176
000200 fe 9d fb 39 2c 5a e2 3b ac 40 05 3c 7a b9 d7 3b
       0.00047992164 0.006907722 0.008133095 0.00658339
000210 3b 44 ba 3b 29 e9 be 3b 92 dc 00 3c 0e 8c ff 3b
       0.0056844032 0.0058261347 0.007865088 0.0077986782
000220 0c 62 bf 3b 52 b9 be 3b d7 33 08 3c 1f e0 e8 3a
       0.0058405455 0.0058204317 0.008313141 0.0017766989
000230 d8 fd be 3b a8 fe 00 3c 9b b9 bf 3b df 90 fe 3b
       0.0058286004 0.007873215 0.0058509833 0.007768735
000240 2e bb be 3b 08 0e 08 3c b2 d5 d6 3a 94 06 bf 3b
       0.0058206534 0.008304127 0.001639059 0.0058296416
000250 75 ee 00 3c 1d b2 bf 3b 95 0c ff 3b a3 b0 be 3b
       0.007869353 0.00585009 0.0077834823 0.0058193966
000260 10 4a 08 3c bc 6d d6 3a 50 ce 15 00 b5 f2 00 3c
       0.008318439 0.0016359608 2.002556e-39 0.007870366
000270 6b b1 ce 3b ba 72 66 3a 1a 92 01 3b 9b 28 00 3c
       0.006307771 0.00087908993 0.0019770921 0.007822181
000280 64 d2 fd 3b 91 e7 fe 3b bb 3d b1 39 45 72 53 3a
       0.007746028 0.0077790697 0.00033806064 0.0008066039
000290 ee 65 80 3a ed cc 01 00 f9 df 3d 00 e2 6a 1a 00
       0.0009796002 1.65349e-40 5.682312e-39 2.426065e-39
0002a0 8f 8c 49 80 a1 24 21 80 95 72 14 80 e2 1b 13 3b
       -6.754414e-39 -3.043711e-39 -1.877814e-39 0.002244704
0002b0 9a 93 13 3b 30 89 76 3a 6d 7d 81 3a 1e 6d 13 3a
       0.0022518397 0.0009404598 0.0009879299 0.00056238647
0002c0 32 6e 65 3a 3f 0e 8b 3a a7 c0 6c 3a 4a b7 6b 3a
       0.0008752077 0.0010609104 0.0009031393 0.0008991851
0002d0 12 c7 1b 80 8d 33 77 3a 24 d7 81 39 d6 d5 e4 3a
       -2.550971e-39 0.0009429984 0.0002476509 0.0017458748
0002e0 5a 4f 2d 3b 8c 4d 04 3b a7 12 b7 3a c8 97 ab 3a
       0.0026445002 0.0020187823 0.0013967351 0.0013091499
0002f0 59 7d 09 3b ef 8e 09 3b 13 c7 af 3a 73 68 b0 3a
       0.0020979254 0.0020989736 0.0013410769 0.0013458863
000300 6c 31 36 3b 07 2b e4 39 f6 3f af 3a 2d ab 09 3b
       0.0027800454 0.00043519607 0.0013370502 0.002100657
000310 b7 0c af 3a f6 af 08 3b af 3b ab 3a 77 f8 35 3b
       0.001335523 0.0020856834 0.0013064052 0.0027766505
000320 73 d4 be 39 01 50 ab 3a d8 7a 09 3b 3f 7b b5 3a
       0.0003639791 0.0013070108 0.0020977762 0.0013845934
000330 1d aa 08 3b da e6 aa 3a c9 b7 36 3b a9 d2 be 39
       0.0020853349 0.001303877 0.002788054 0.00036396578
000340 26 bf 06 00 34 44 0a 3b 9b 40 ee 3a ac 26 4b 3a
       6.19584e-40 0.002109778 0.0018177213 0.0007749598
000350 c2 e3 b9 39 d0 11 09 3b 0d 39 08 3b 85 ac 08 3b
       0.00035455643 0.0020915158 0.0020785958 0.0020854783
000360 2d ef 28 3a a3 27 f1 3a 0e 8a 0a 3b be 2c 0e 00
       0.00064443314 0.0018398653 0.0021139416 1.301747e-39
000370 21 0e 42 80 95 50 0b 00 83 b7 00 80 95 f9 02 80
       -6.066211e-39 1.039098e-39 -6.5832e-41 -2.73204e-40
000380 91 7b 48 80 e3 88 8f 3b 22 8b 8f 3b 13 47 2f 3b
       -6.656483e-39 0.004380332 0.0043805996 0.0026745244
000390 3e cb 35 3b 21 54 cb 3a af 5f ee 3a 68 7a 1b 3b
       0.002773955 0.0015512743 0.0018186475 0.0023724083
0003a0 d6 98 3a 3b 06 0e 3a 3b 2d fc 45 00 b1 d7 fb 3a
       0.0028472445 0.0028389706 6.427113e-39 0.0019214061
0003b0 cf 20 2b 3a b0 17 63 3b 47 29 b4 3b f5 4a 89 3b
       0.0006528021 0.003465157 0.0054980847 0.004189844
0003c0 7a 72 3b 3b ed 05 32 3b f3 d6 85 3b 25 cb 85 3b
       0.002860217 0.0027164177 0.004084462 0.0040830546
0003d0 bd 1e 33 3b f5 8e 31 3b 2e 38 bc 3b f6 20 37 3a
       0.0027331554 0.0027093266 0.005744002 0.00069858076
0003e0 35 d7 31 3b 3f d0 85 3b 89 1e 33 3b 04 7c 85 3b
       0.002713633 0.0040836628 0.0027331433 0.0040736217
0003f0 17 71 31 3b 29 37 bc 3b 16 cf 19 3a b3 fc 31 3b
       0.0027075463 0.0057438803 0.0005867345 0.0027158677

feature.0.weight_hh_l0 f4 [256, 64]
000000 7f 70 94 b8 a6 a3 90 b8 1e 2d 40 38 22 8c 04 b9
       -7.078144e-05 -6.896937e-05 4.5818386e-05 -0.00012640705
000010 46 07 46 b9 4a 2e 44 b9 5c 37 81 37 16 db 19 38
       -0.00018885461 -0.0001870926 1.5403777e-05 3.6682082e-05
000020 79 25 66 38 e0 c3 13 b9 84 11 72 b8 22 e2 9d b8
       5.4871172e-05 -0.00014091982 -5.771361e-05 -7.528464e-05
000030 02 4f 3b b9 db 70 1a b9 33 b4 cb b8 a3 da 16 b7
       -0.00017863142 -0.00014728626 -9.713359e-05 -8.991602e-06
000040 97 08 8d b7 09 63 42 38 f1 c3 20 39 fe f9 36 39
       -1.681251e-05 4.6345438e-05 0.00015331783 0.00017450002
000050 61 16 83 38 ed 3d 26 b7 79 6a b3 36 e4 6e 2a b9
       6.250735e-05 -9.908789e-06 5.3470108e-06 -0.00016253773
000060 a2 93 73 38 06 10 19 b9 cc fe e4 38 7f 92 5d b9
       5.807321e-05 -0.00014597186 0.00010919347 -0.00021130776
000070 4c e3 af b8 61 60 28 39 03 34 66 b9 3a e8 32 39
       -8.3869876e-05 0.00016057632 -0.00021953885 0.00017061914
000080 47 42 4d 38 3c 26 4f 39 90 0a 11 b9 90 10 be 36
       4.8937534e-05 0.00019755302 -0.00013832212 5.6643694e-06
000090 b5 0a 88 b7 76 52 fc 36 b2 2f 9e b8 72 6a a7 b8
       -1.621745e-05 7.519785e-06 -7.542911e-05 -7.9830075e-05
0000a0 b0 44 88 b8 d1 33 b2 b7 3a a5 c6 b8 40 a6 7c 38
       -6.4977794e-05 -2.1243382e-05 -9.4721516e-05 6.0236314e-05
0000b0 52 ea 83 37 70 e8 34 b9 65 91 90 38 79 eb 19 38
       1.572553e-05 -0.00017252727 6.893537e-05 3.6697344e-05
0000c0 40 70 92 b8 3b 8e bd b7 e8 63 ea b8 f0 d5 9f 38
       -6.982731e-05 -2.2596787e-05 -0.000111765985 7.62156e-05
0000d0 05 88 61 37 d1 00 89 b8 f3 6b 5c b8 13 f9 01 39
       1.3442715e-05 -6.532821e-05 -5.2552623e-05 0.00012395186
0000e0 d4 a8 64 32 00 9e 23 b9 e5 12 ef 38 05 24 e2 37
       1.3309734e-08 -0.00015603751 0.000113999275 2.6958072e-05
0000f0 cf c0 fc b8 44 1c d2 b8 de be 07 37 f9 fb 5a b9
       -0.0001205221 -0.00010018845 8.091067e-06 -0.00020883967
000100 df d2 8f bb 12 38 f9 3a da fd 5e 3b ab 19 ae bb
       -0.0043891515 0.0019013903 0.003402582 -0.0053131185
000110 ea 1f f0 bb e6 87 05 bc 1a 8b 08 bb 84 6e 76 3b
       -0.007328023 -0.0081500765 -0.0020834864 0.0037602494
000120 a6 52 2a bb 04 e6 cd bb 27 c0 79 bb a9 ac 4a bb
       -0.0025989204 -0.0062835235 -0.0038108916 -0.0030925667
000130 1c a0 f4 bb ab 9e df bb ce 41 b2 ba 48 8d 1a bb
       -0.0074653756 -0.0068243346 -0.0013599934 -0.0023582745
000140 6c 89 15 bb a8 c9 2c 3b 7f 33 c2 3b 59 a8 f5 3b
       -0.0022817506 0.0026365314 0.005926549 0.0074968752
000150 de 7c 3b bb 83 3c 52 3b b5 12 0a bb 8a 43 e6 bb
       -0.0028608362 0.0032079525 -0.002106828 -0.0070270943
000160 ff e4 e1 ba e6 63 cf bb b9 96 1b bb 2b db 07 bc
       -0.0017234384 -0.0063290475 -0.002374096 -0.008292
000170 1a b3 9d bb 30 d0 d3 3b c0 2a 0b bc 6b ae e5 3b
       -0.0048126103 0.006464027 -0.008494079 0.0070093176
000180 b4 f7 e0 ba 9c 0a 04 3c 8d 40 11 3b 04 52 40 bb
       -0.0017163665 0.00805917 0.002216372 -0.002934576
000190 81 13 ab ba 0d 04 18 3b 18 86 8b bb f2 7f ae bb
       -0.0013052077 0.0023195774 -0.0042579286 -0.005325311
0001a0 df 60 72 bb 2a bc d5 ba 62 7f a6 bb 90 28 85 3b
       -0.003698401 -0.0016306688 -0.005081103 0.0040636733
0001b0 6c e9 4e 3b d1 e8 f1 bb 03 2a 0f bb 92 02 2f b9
       0.0031572236 -0.00738249 -0.002184511 -0.00016690258
0001c0 b6 f1 d9 3a 27 32 f1 3a 8c 73 aa bb b9 a0 c8 ba
       0.0016627822 0.0018401787 -0.0052017625 -0.0015306688
0001d0 20 c7 04 3b d0 5f 93 bb 63 89 37 3b f0 be a1 3b
       0.002026029 -0.0044975057 0.0028005473 0.0049360916
0001e0 5a 9b 88 b4 88 a5 e5 bb 86 e0 b6 3b d3 72 10 bb
       -2.5445007e-07 -0.0070082583 0.0055809645 -0.0022041097
0001f0 e6 c3 bd bb ad 55 a8 bb cd 37 04 3b 07 2b 09 bc
       -0.005791175 -0.0051371665 0.0020174861 -0.008372075
000200 8c 23 b7 b9 8e c0 06 ba 3c b3 66 38 b5 cc 0d ba
       -0.00034930964 -0.0005140387 5.50032e-05 -0.0005409227
000210 de 51 54 ba 3a 29 55 ba 25 a9 95 39 40 78 f1 b7
       -0.00080993574 -0.00081314484 0.00028545517 -2.8785435e-05
000220 e9 3a 01 3a 57 bb 1d ba 4c d3 7b b9 c1 4f 76 b9
       0.0004929738 -0.00060169905 -0.0002401594 -0.00023490099
000230 15 48 4b ba 8d dc 19 ba 8e 23 e1 b8 ee 7f 17 b8
       -0.00077545765 -0.00058693514 -0.000107354586 -3.612035e-05
000240 64 55 80 b9 e3 90 92 38 4d b2 2d 3a fc d6 4c 3a
       -0.00024477683 6.98881e-05 0.0006625995 0.00078140176
000250 81 d0 f0 39 2f b3 f2 b8 42 2c ca b6 5f f7 3a ba
       0.00045931715 -0.00011572835 -6.0252214e-06 -0.0007132198
000260 ce 60 88 b8 cf 33 0a ba 93 62 41 3a a2 39 6a ba
       -6.5030166e-05 -0.00052720023 0.00073770544 -0.00089349796
000270 bb 61 c3 b9 73 89 27 3a 05 86 6b ba 14 84 3c 3a
       -0.00037266113 0.0006391026 -0.0008984509 0.0007191312
000280 e4 13 d9 b7 23 91 64 3a 24 10 52 ba 5f 44 80 39
       -2.5877678e-05 0.0008719137 -0.00080132694 0.00024465003
000290 16 ee 8c b8 8b c3 31 b9 f5 fe 7f b9 85 20 82 b9
       -6.720067e-05 -0.00016952881 -0.00024413674 -0.0002481976
0002a0 18 49 9b b9 60 6e 53 34 22 1c e0 b9 cf 97 95 39
       -0.00029618363 1.969106e-07 -0.0004274557 0.000285326
0002b0 6a ec 74 38 b9 26 45 ba 89 59 b7 39 8a f5 aa 37
       5.839431e-05 -0.0007520724 0.0003497119 2.0379917e-05
0002c0 94 d5 67 b9 33 a0 11 b9 ed cb ae b9 c5 e4 00 3a
       -0.00022109441 -0.00013887956 -0.00033339803 0.0004916902
0002d0 13 8a 32 39 97 68 92 b9 e7 8b 80 b9 43 87 f5 39
       0.0001702684 -0.00027925216 -0.00024518298 0.0004683082
0002e0 3e 01 bf 34 91 72 35 ba b8 66 06 3a 98 54 d3 39
       3.5577426e-07 -0.0006921674 0.00051270006 0.00040308083
0002f0 ec ba 10 ba 09 8d e7 b9 99 a3 43 b9 88 59 6c ba
       -0.00055210176 -0.00044164833 -0.00018657594 -0.0009016027
000300 a3 27 3f b9 06 c1 bf 38 27 35 60 39 48 0d 3f b9
       -0.00018229945 9.143543e-05 0.00021382105 -0.00018220127
000310 05 4e a0 b9 a6 f7 9c b9 cf c7 0e b9 6f 0f 2c 39
       -0.00030575707 -0.0002993915 -0.0001361661 0.00016408948
000320 29 cc 10 b9 4a 29 76 b9 09 ad 1e b9 c9 81 63 b9
       -0.00013808966 -0.0002347577 -0.00015132515 -0.00021696756
000330 a4 ed a3 b9 4f dd 93 b9 16 0a 98 b8 e1 7b da b8
       -0.0003126684 -0.00028202913 -7.2498035e-05 -0.00010418124
000340 9e b9 0e b9 20 d2 e8 38 97 53 61 39 f5 d3 84 39
       -0.00013611323 0.00011101761 0.00021488812 0.00025334922
000350 fe bc ee b8 e1 f4 29 39 cb dc ad b8 76 f8 6d b9
       -0.00011383927 0.0001620832 -8.290409e-05 -0.0002269464
000360 9b 68 b1 b8 f1 2f 98 b9 ca 0e f6 b8 68 28 a5 b9
       -8.459502e-05 -0.00029027418 -0.00011732949 -0.00031501357
000370 4e b2 81 b9 68 8d 9a 39 55 8d ae b9 ad 41 9c 39
       -0.00024737645 0.00029478525 -0.00033293167 0.0002980357
000380 70 c0 00 b9 21 95 a3 39 11 5d e2 38 2d 5f 0f b9
       -0.0001227872 0.00031200892 0.00010793855 -0.00013672998
000390 5a 6a b3 b8 5c 1e fb 38 5c 2b 2f b9 47 6f 82 b9
       -8.555195e-05 0.000119742675 -0.00016705453 -0.0002487844
0003a0 63 29 19 b9 8b db e8 b8 c8 f2 74 b9 95 18 1b 39
       -0.00014606635 -0.00011103515 -0.00023360096 0.0001479111
0003b0 80 e7 36 39 d8 32 a0 b9 17 b9 f3 b8 56 f2 94 b7
       0.00017443113 -0.0003055546 -0.000116216186 -1.7755821e-05
0003c0 cf b9 96 38 ae 2a aa 38 d0 7d 8b b9 d0 c4 a3 b8
       7.187167e-05 8.1141814e-05 -0.00026605884 -7.809105e-05
0003d0 aa 09 04 39 f6 59 73 b9 0a 82 13 39 c2 eb 45 39
       0.00012592101 -0.00023207799 0.00014067456 0.0001887521
0003e0 79 45 46 33 a9 71 9f b9 b6 5e 6c 39 17 8d 0c b9
       4.6163652e-08 -0.00030411527 0.00022541996 -0.00013404
0003f0 46 72 8d b9 4b 93 6c b9 ef f6 18 39 cb b8 9b b9
       -0.00026978756 -0.00022561585 0.0001458784 -0.00029701585

feature.0.bias_ih_l0 f4 [256]
000000 cf bf ee 3a dd 5e 2d 3d 8b fb 02 3c ac 52 13 3b
       0.0018215122 0.042326797 0.007994543 0.0022479696
000010 bd f5 8f 3b d0 c5 ca 3b 07 87 79 3c a5 85 27 3c
       0.004393308 0.006188132 0.015229947 0.010224734
000020 f9 45 3f 3d 1c a1 4e 3b 20 94 1c 3c da 33 11 3d
       0.04669759 0.0031529134 0.0095568 0.03544984
000030 13 b6 a6 3b e1 a9 c7 3b 17 9f f0 3c e3 af cf 3b
       0.005087623 0.006093249 0.029372735 0.006338106
000040 ea 53 2b 3a 23 7b 89 3b 7a cb 8b 3b 0a df 94 3b
       0.00065356365 0.0041955872 0.0042661997 0.00454319
000050 bb 04 1a 3d 7e 47 3d 3c 91 35 b4 3b 4a e5 96 3b
       0.037602168 0.01155269 0.0054995497 0.00460497
000060 fe 35 91 3b c2 8d b4 3b f8 5d 2b 3d 77 b9 c7 3b
       0.004431485 0.005510063 0.041837662 0.006095107
000070 cb 21 2e 3b 8a 1a 8b 3b 81 96 d5 3b 0f 54 8d 3b
       0.0026570435 0.004245107 0.0065181856 0.004312999
000080 3d 2e 23 3b e8 05 ae 3b e8 0b 31 3d 4f 7e a2 3c
       0.0024899386 0.0053107627 0.043224245 0.01983562
000090 ba 47 93 39 0f 54 58 3c c5 0d ca 3b 13 9a fd 3b
       0.00028091465 0.013203635 0.0061661922 0.0077393143
0000a0 6f 95 38 3b e5 eb 4c 3b 14 3f 29 3b 60 c1 80 3b
       0.0028165241 0.0031268534 0.002582495 0.003929302
0000b0 4d 52 c0 3b 4c 6d a7 3b 2b a0 b8 3c 74 62 05 38
       0.005869186 0.0051094647 0.022537312 3.1801363e-05
0000c0 93 1f bf 3c 43 0a 82 3c 26 98 cb 3b f6 86 d7 3c
       0.023330485 0.015874034 0.006213206 0.026309472
0000d0 3b 5a 2d 3a ee 1a a3 3b 5a ee ef 3c aa f8 25 3b
       0.00066128717 0.0049775755 0.02928846 0.0025325217
0000e0 5b cf 91 30 30 cb c4 3b f7 9a 1e 3b 4f 85 0b 3d
       1.0609073e-09 0.006005667 0.0024201253 0.03406268
0000f0 7e 2b 49 3b 66 9a 2c 3b 7d b2 ab 3c f8 71 c9 3b
       0.003069609 0.0026337146 0.020959133 0.0061476193
000100 b6 f6 60 3a 29 17 7a bc 62 bc 5b ba d0 db 92 3a
       0.00085816847 -0.015264311 -0.0008382258 0.0011204425
000110 6b cc 4c 3b 06 63 63 3b 8e 04 a8 bb 8c f8 ab ba
       0.0031249772 0.0034696474 -0.005127496 -0.0013120337
000120 ad b0 8b bc 1a 3e ed 3a 6c 69 12 bb a9 36 b0 bb
       -0.017052019 0.0018100173 -0.0022340668 -0.0053776097
000130 fc 6b 66 3b c7 b9 02 3b bd 69 7c 3b 4e f7 39 bb
       0.0035159579 0.0019947158 0.0038515173 -0.0028376165
000140 99 1b 89 39 9a 03 e7 b9 22 18 3c 3b b2 dc 2d 3b
       0.00026151238 -0.00044062437 0.0028700908 0.002652925
000150 9d 9a 7d bc d6 82 16 bb 7c 43 0c bb 0d 0b 28 3b
       -0.015478757 -0.0022966168 -0.0021402529 0.0025641352
000160 63 4a dc ba 54 46 c8 3a 9e 15 7e bc cf e3 a4 3b
       -0.0016806837 0.0015279748 -0.015508084 0.0050320397
000170 3f a4 85 3a f6 5c 54 3b 87 8a a3 3b 1b df 11 3b
       0.0010196044 0.0032404042 0.004990879 0.0022258225
000180 f3 d6 be b9 f0 6e 43 3b 0d 11 82 bc c0 32 de bb
       -0.00036399774 0.0029820763 -0.015877271 -0.006780952
000190 75 a2 c3 b7 e0 f8 71 bb de 8c 02 39 78 0c 0f 3a
       -2.3321461e-05 -0.0036922023 0.00012450243 0.0005456875
0001a0 e3 27 1b 3a 64 16 5a ba 96 ce a0 3a 71 f8 61 39
       0.00059187243 -0.00083193765 0.0012268599 0.00021550224
0001b0 9e 01 86 ba 72 9c 3d 3b 37 67 16 bc 4e b0 98 b7
       -0.0010223871 0.002893236 -0.009179882 -1.820191e-05
0001c0 ad 18 08 bc 80 a2 94 bb 13 89 2e 39 c2 59 26 bc
       -0.008306664 -0.004535973 0.00016644997 -0.010153236
0001d0 5f f8 d0 39 1f fa 16 b9 a9 b3 36 bc 68 5d fd 3a
       0.00039857902 -0.00014398292 -0.011151233 0.0019330205
0001e0 2d 13 a8 af 3a bb fa 3a 99 09 b2 3a a9 2a 1b bc
       -3.0572647e-10 0.0019129284 0.0013583183 -0.00947062
0001f0 62 cf d4 3a cb fd 8c 3a 34 5a b9 bb ce b9 9d 3b
       0.0016236121 0.0010756789 -0.005656505 0.0048134094
000200 55 c6 06 bc a1 51 46 bb e1 17 20 bc ca 96 59 bc
       -0.008225997 -0.0030261057 -0.009771318 -0.01328058
000210 a0 b5 82 bc 9b 27 3a bc ab 16 02 3c 9d dc 08 bd
       -0.015955746 -0.011361982 0.007939975 -0.03341352
000220 04 21 1f 3c 16 ea 46 bc c6 27 2a bd 92 8f 10 bd
       0.009712461 -0.012140771 -0.041541837 -0.03529317
000230 27 e8 70 bc 09 51 0f bb 0e a5 4d 3c 45 b1 78 bc
       -0.014703787 -0.002186837 0.012551559 -0.015178983
000240 8e 0e 19 bc 2f 33 d2 bc b3 8b 26 3d 32 01 6a 3c
       -0.009341849 -0.025659172 0.04066057 0.014282512
000250 6b 2f 82 3d 96 75 bc 3c d1 9b 1c bc 9a 73 83 bc
       0.063567005 0.023005288 -0.009558634 -0.016046334
000260 47 ae 02 bd 93 8d cd 3b c8 7b 9d 3c 0e ec e1 bb
       -0.031904485 0.0062729805 0.019224063 -0.006894595
000270 e9 e2 03 bc 31 fc 4d 3c da 10 4d bc 02 d1 62 3c
       -0.008049705 0.012572334 -0.012516225 0.013843777
000280 68 06 5a bb 3a 5a 8c 3c 4f c0 e7 bc 69 e6 52 3d
       -0.0033267979 0.017132867 -0.028289942 0.051489267
000290 7e e7 4f bb 2d d0 a6 bc 93 6c 30 bc 55 e9 9d 3b
       -0.0031723673 -0.020362938 -0.010768074 0.004819075
0002a0 c6 2a 5e 3c f8 77 91 3b bc 1d 25 bc 3e 9c 5e bc
       0.013560003 0.00443935 -0.01007789 -0.013587056
0002b0 f0 b6 87 b9 df 0a 4f bc 79 5f 1f 3d cc 9b 02 3c
       -0.00025885506 -0.012636869 0.03890941 0.007971715
0002c0 65 7c a7 3c 33 8f db bb 01 48 59 3c 6d 1a d0 bc
       0.020445058 -0.0067004203 0.013261796 -0.025403226
0002d0 6a e8 09 3c a8 a9 8d bc 93 6d 4a bc 15 78 3e 3c
       0.008417228 -0.017292812 -0.012355226 0.0116253095
0002e0 a7 4b c2 35 5f 52 1d bc 5e 3d 31 3c 88 a5 6c 3d
       1.4476144e-06 -0.009602158 0.010817854 0.05777505
0002f0 fa 54 4b bc ed fb 2a bc 6f e9 c8 3a 2f 78 65 bc
       -0.012410397 -0.01043604 0.0015328358 -0.014005705
000300 6b 03 03 3b 06 50 2e 3d 17 94 0a 3c 14 7e 22 3b
       0.001999105 0.042556785 0.008458159 0.0024794387
000310 a6 d2 a9 3b fe de ef 3b b8 17 7f 3c 49 11 32 3c
       0.005182582 0.007320284 0.01556962 0.010868379
000320 50 f4 3d 3d 47 64 6c 3b b0 17 21 3c 9b 05 0e 3d
       0.046375573 0.0036070512 0.009832308 0.034673315
000330 65 1a c6 3b f7 d8 df 3b b6 5b f0 3c 30 1c d5 3b
       0.006045627 0.006831284 0.029340606 0.0065036044
000340 05 99 30 3a 02 e2 8f 3b df a5 98 3b de 79 ae 3b
       0.0006736669 0.004390956 0.0046584453 0.0053245863
000350 1e 85 1a 3d 9b 09 47 3c 40 53 b9 3b 91 57 af 3b
       0.037724607 0.012148286 0.005655676 0.005351015
000360 ba 95 93 3b 8e 77 c8 3b ed 0a 2b 3d 0c 08 03 3c
       0.004503933 0.0061177677 0.041758467 0.007997524
000370 ab c8 3f 3b 66 22 a2 3b ee 9d 06 3c 86 55 a3 3b
       0.0029263895 0.0049479483 0.008216364 0.0049845604
000380 1e 99 27 3b ad db cd 3b 62 a4 33 3d 56 39 a6 3c
       0.0025573443 0.006282291 0.04385794 0.020291012
000390 3e 14 92 39 44 79 5f 3c 7d 06 d8 3b 3b c0 0a 3c
       0.00027862372 0.013639752 0.0065925703 0.008468683
0003a0 ea b3 42 3b 67 3d 52 3b 75 68 3c 3b d7 cb 89 3b
       0.0029709288 0.0032080056 0.0028748785 0.004205208
0003b0 19 25 ca 3b 76 14 c4 3b fd 45 bb 3c 7c c9 28 38
       0.006168973 0.0059838844 0.022860521 4.024197e-05
0003c0 9c eb bf 3c ba 07 84 3c a7 76 dd 3b 33 22 da 3c
       0.023427777 0.016116966 0.006758529 0.026627636
0003d0 e9 f1 34 3a 0f d1 ae 3b a8 64 f1 3c 73 14 38 3b
       0.00069025025 0.0053349803 0.029466942 0.002808836
0003e0 0d 0a ab b0 eb 23 e1 3b d4 02 35 3b 03 84 0c 3d
       -1.2444744e-09 0.006870737 0.0027620094 0.034305584
0003f0 a2 56 62 3b 43 d0 3e 3b 64 f3 ad 3c cb d5 fd 3b
       0.00345365 0.0029115833 0.021234222 0.0077464334

feature.0.bias_hh_l0 f4 [256]
000000 23 60 f1 3a c1 55 2d 3d d4 27 03 3c 84 eb 12 3b
       0.0018415492 0.04231811 0.008005101 0.002241821
000010 ad f5 8f 3b a3 c0 ca 3b dd 44 78 3c 35 87 27 3c
       0.0043933005 0.006187515 0.015153137 0.010225107
000020 a6 41 3f 3d 52 c6 4e 3b 58 1d 1c 3c 1f fe 0c 3d
       0.046693467 0.0031551314 0.0095284805 0.034422036
000030 3c b6 a6 3b 4d 7a c7 3b 6c b8 f0 3c fc af cf 3b
       0.005087642 0.0060875774 0.029384814 0.0063381176
000040 7e 93 2b 3a f5 7e 89 3b 8c 2b 8d 3b 59 ec 94 3b
       0.00065451104 0.0041960427 0.0043081697 0.0045447764
000050 f8 ed 19 3d dc 4c 3d 3c 87 38 b4 3b a8 e5 96 3b
       0.03758046 0.011553969 0.0054999026 0.004605014
000060 3e f6 90 3b 6e 93 b4 3b d1 40 2b 3d 6b e7 c7 3b
       0.0044238856 0.005510739 0.04180986 0.006100585
000070 f5 09 2e 3b aa 1a 8b 3b dc 7f d5 3b e6 6d 8d 3b
       0.0026556228 0.004245122 0.006515486 0.0043160794
000080 7a 1a 23 3b d2 e7 ad 3b bd e8 31 3d e9 03 a3 3c
       0.0024887607 0.005307176 0.043434847 0.019899325
000090 76 1f 8e 39 d1 51 58 3c 88 53 ca 3b 98 9c fd 3b
       0.0002710779 0.0132031 0.0061745085 0.0077396147
0000a0 8c 8b 38 3b 85 ee 4c 3b fb 30 29 3b cd bf 80 3b
       0.0028159348 0.0031270098 0.0025816548 0.0039291144
0000b0 13 50 c0 3b 79 64 a7 3b c4 a1 b8 3c 53 d5 36 38
       0.0058689206 0.005108413 0.022538073 4.3590855e-05
0000c0 85 22 bf 3c 36 09 82 3c 8f d1 cb 3b 18 9e d7 3c
       0.02333189 0.015873533 0.0062200497 0.026320502
0000d0 bf 20 2d 3a 42 50 a3 3b f1 cc ee 3c fe f7 25 3b
       0.0006604306 0.0049839327 0.029150458 0.0025324817
0000e0 31 16 bb 30 45 54 c5 3b de ad 1e 3b 77 18 0b 3d
       1.3612348e-09 0.0060220086 0.002421252 0.03395888
0000f0 41 70 49 3b 2f 99 2c 3b 4b 24 ac 3c 54 2f c9 3b
       0.0030737075 0.0026336422 0.0210134 0.006139675
000100 5e da 60 3a d1 f0 80 bc a6 3d 5c ba 82 27 93 3a
       0.0008577461 -0.01573983 -0.00084015203 0.0011226984
000110 be cf 4c 3b 7c 68 63 3b 3c e2 a8 bb ec ff ab ba
       0.0031251754 0.0034699729 -0.0051539224 -0.0013122535
000120 37 6f 8a bc c8 3a ed 3a e3 41 16 bb 67 37 b3 bb
       -0.016898734 0.0018099183 -0.0022927455 -0.005469251
000130 ac 6e 66 3b a3 f8 02 3b ed d8 7b 3b ca f7 39 bb
       0.003516118 0.0019984625 0.0038428858 -0.0028376454
000140 55 36 89 39 51 09 e7 b9 9a 96 3c 3b cd c7 2c 3b
       0.00026171157 -0.00044066695 0.002877629 0.0026364208
000150 34 03 7a bc 9c 7c 16 bb 46 42 0c bb b9 05 28 3b
       -0.015259553 -0.0022962457 -0.0021401807 0.0025638177
000160 33 49 dc ba 0e 54 c8 3a 98 15 7e bc 3f e8 a4 3b
       -0.0016806483 0.0015283839 -0.015508078 0.0050325687
000170 ef 3e 85 3a 05 57 54 3b d8 89 a3 3b e6 c5 12 3b
       0.001016585 0.00324005 0.0049907975 0.0022395789
000180 eb d4 be b9 c5 c8 44 3b dd 31 81 bc 48 40 dc bb
       -0.0003639826 0.0030026895 -0.015770847 -0.00672153
000190 61 97 c3 b7 e2 f8 71 bb e7 8d 02 39 cf 26 0f 3a
       -2.3316303e-05 -0.0036922027 0.00012450629 0.00054608
0001a0 c9 30 1b 3a 3e 1b 5a ba b3 ec a0 3a 4d 01 62 39
       0.00059200503 -0.00083200994 0.0012277573 0.00021553524
0001b0 75 0d 86 ba e1 49 3e 3b 31 67 16 bc e3 ce 07 b7
       -0.0010227399 0.0029035734 -0.009179876 -8.094797e-06
0001c0 2f 1b 08 bc c6 a4 94 bb aa 8a 30 39 1c cf 25 bc
       -0.008307262 -0.004536244 0.00016836324 -0.0101201795
0001d0 93 f7 d0 39 41 b9 16 b9 e0 8f 36 bc 31 31 fd 3a
       0.0003985731 -0.00014374127 -0.011142701 0.0019317028
0001e0 3f f8 30 b0 0b f7 f4 3a f9 4a b3 3a 4f f7 1a bc
       -6.4381206e-10 0.0018689347 0.001367896 -0.009458377
0001f0 53 d0 d4 3a 93 27 8f 3a 0d e1 b8 bb cb b9 9d 3b
       0.0016236402 0.0010921828 -0.0056420625 0.004813408
000200 76 e6 12 bc ae f8 84 39 40 df 28 bd 09 b3 57 bc
       -0.008966079 0.00025362283 -0.041228533 -0.013165244
000210 e7 ce 95 bc 97 89 56 bc 37 a4 fc 3c 2a e2 21 bc
       -0.018287135 -0.013094327 0.030840022 -0.009880582
000220 22 9c 19 bb 82 60 45 bc 90 dc f1 3c 6b e7 8b 3d
       -0.002343901 -0.012046935 0.029524118 0.06831249
000230 5c f7 70 bc 95 90 da bb 50 fe d7 3c e1 2c da bc
       -0.014707413 -0.0066700676 0.026366383 -0.026632728
000240 01 ad 79 bc e7 d3 d2 3c 35 c2 11 3d 83 5f 72 3c
       -0.015239001 0.025735809 0.0355856 0.01479328
000250 61 84 5b 3d 2e 81 92 bc 02 72 4b bc 75 b6 58 bc
       0.053593043 -0.017883863 -0.012417318 -0.013227095
000260 e3 e5 05 bd 7b 92 06 bc 96 2d 1d 3d b9 93 7d bc
       -0.03268994 -0.008213635 0.038373552 -0.015477114
000270 ff e1 0e bc 7a ce 39 3c 5c 7b 85 bc 98 86 5c 3c
       -0.008720874 0.011340732 -0.016294174 0.013459824
000280 32 5d 73 3c 90 9e 55 3c b3 52 e5 bc 1c 25 a2 bc
       0.014853762 0.0130382925 -0.027993536 -0.019793086
000290 39 93 2f bb 45 04 35 3d d9 70 d6 3c 7b df 8c bc
       -0.0026790632 0.044193525 0.026176857 -0.017196408
0002a0 0c ba 25 bc 46 e7 16 bc 12 62 26 bc 1d 91 89 3c
       -0.010115158 -0.009210413 -0.010155218 0.016792828
0002b0 75 ea a0 3c a5 75 6c bc 1f c7 17 3d 32 f0 69 3a
       0.019643048 -0.0144323455 0.03705513 0.00089240365
0002c0 ea 2b eb 3c ad 66 88 bc ec ab 56 bc bc ad 3b 3d
       0.028707463 -0.016650522 -0.013102513 0.045819983
0002d0 d1 60 28 3b ab 09 83 3b ad 27 fb 3b 97 34 2a 3c
       0.0025692473 0.0039989552 0.007664642 0.010388515
0002e0 a5 e2 c2 35 4c 4e 00 bc 2a 7d 39 3c 90 4e 88 3d
       1.4520089e-06 -0.007831167 0.011321345 0.066556096
0002f0 db 7e 45 bc 77 b3 28 bc 7c a4 ab bc 06 39 a0 bc
       -0.0120541705 -0.010296694 -0.020952456 -0.01955844
000300 90 03 03 3b e4 71 2e 3d 61 f4 0a 3c 89 80 22 3b
       0.0019991137 0.042589083 0.008481116 0.0024795851
000310 44 de a9 3b 0a 1b f0 3b 00 1f 7e 3c ca 01 32 3c
       0.005183967 0.007327442 0.015510321 0.010864684
000320 c9 0a 3e 3d 3b 8a 6c 3b f0 7c 24 3c a0 6d 0d 3d
       0.046397004 0.0036093134 0.010039553 0.034528375
000330 46 1a c6 3b 07 cf df 3b 27 8e f0 3c dc 19 d5 3b
       0.0060456125 0.0068300995 0.029364659 0.006503327
000340 b1 87 30 3a ef e1 8f 3b 1e eb 89 3b 3d a1 ae 3b
       0.0006734087 0.004390947 0.0042089364 0.0053292797
000350 7e 5a 1a 3d 5c 01 47 3c 3e 53 b9 3b 66 5d af 3b
       0.037683956 0.01214632 0.005655675 0.00535171
000360 03 a4 93 3b 71 d3 c8 3b 55 07 2c 3d 73 b6 01 3c
       0.0045056357 0.0061287214 0.04199918 0.007917034
000370 fa ec 3f 3b 0c 21 a2 3b 2d 85 06 3c 17 4f a3 3b
       0.0029285536 0.004947787 0.0082104625 0.0049837935
000380 a6 88 27 3b 2f 01 ce 3b 48 a2 33 3d b5 03 a7 3c
       0.0025563627 0.006286762 0.043855935 0.02038751
000390 fe ea 90 39 13 7a 5f 3c f2 24 d8 3b 62 af 0a 3c
       0.00027640903 0.013639945 0.006596201 0.008464666
0003a0 93 a3 42 3b 85 3d 52 3b b4 e8 3b 3b 99 c5 89 3b
       0.0029699549 0.0032080126 0.0028672637 0.0042044637
0003b0 d3 33 ca 3b 6c 23 c4 3b ca 47 bb 3c 6e ac 09 38
       0.0061707287 0.005985668 0.02286138 3.2823933e-05
0003c0 79 e2 bf 3c 7b fd 83 3c d9 75 dc 3b 3c 1b da 3c
       0.02342342 0.01611208 0.0067279157 0.026624314
0003d0 2a 9b 34 3a bb 30 af 3b ee ef ee 3c 53 1a 38 3b
       0.00068895763 0.0053463853 0.029167142 0.0028091862
0003e0 40 3b 35 b0 5b 43 e1 3b 98 7a 34 3b bf 69 0c 3d
       -6.5931616e-10 0.0068744845 0.0027538892 0.034280535
0003f0 14 4b 62 3b e2 e6 3e 3b c2 6e ae 3c 10 fe fd 3b
       0.0034529613 0.0029129316 0.021293048 0.007751234

feature.2.weight_ih_l0 f4 [128, 64]
000000 07 17 fe ba 18 ba cb 3b c0 86 30 3b 73 45 15 bb
       -0.0019385525 0.0062172525 0.0026935786 -0.002277699
000010 10 5a 4b bb 39 00 73 bb 81 3b 43 bb 9f 42 43 3b
       -0.0031029023 -0.003707899 -0.0029790106 0.0029794348
000020 bb 2b e2 bb ee 33 33 bb 67 bf 37 bb 7f da a8 bb
       -0.0069021857 -0.0027344185 -0.0028037669 -0.005153
000030 e7 b0 54 bb 54 21 5a bb 8b 8c 85 bb 91 61 e2 ba
       -0.0032454075 -0.0033284025 -0.004075592 -0.0017271509
000040 b5 f1 45 ba ac 42 f2 3a 24 a1 02 3b 66 da 56 3b
       -0.0007550971 0.0018483005 0.0019932473 0.0032783984
000050 f1 07 c1 bb fb ed 39 3b c1 86 d3 ba 0c 6f 4b bb
       -0.0058908393 0.0028370607 -0.0016138182 -0.003104153
000060 38 a1 af ba f4 d3 47 bb 83 c9 d1 bb 4f 43 68 bb
       -0.0013399487 -0.0030491324 -0.006402196 -0.003544051
000070 64 ae 0e bb 53 23 36 3b c9 3c 72 bb 94 42 48 3b
       -0.0021771425 0.002779205 -0.00369625 0.0030557262
000080 b8 16 a4 ba c4 93 66 3b 11 7b db 3b 9b 88 79 bb
       -0.0012518978 0.003518329 0.0066980203 -0.0038075808
000090 21 38 1b ba e9 67 3b 3b 02 52 2e bb 40 92 45 bb
       -0.00059211446 0.002859587 -0.0026599173 -0.0030146986
0000a0 3b 71 01 bb 1c 8a a6 ba 8e 86 13 bb 3f ac 0f 3b
       -0.0019751329 -0.0012705955 -0.002251062 0.0021922735
0000b0 db ea 0a 3b 13 a6 55 bb 10 95 6e bb a3 2c 00 b9
       0.0021197114 -0.0032600209 -0.0036404766 -0.0001222366
0000c0 63 5a 5d 3b 3d 71 40 3b a9 75 3a bb 5b 5d 80 bb
       0.0033775799 0.002936437 -0.0028451479 -0.003917379
0000d0 46 b9 3f 3a e7 d9 1d bb ba 23 98 3b 0d 0b 07 3b
       0.00073136797 -0.0024086179 0.004642931 0.0020605952
0000e0 3a b5 6a 33 b1 95 5c bb 87 31 1f 3b 50 b5 b4 bb
       5.4647195e-08 -0.003365856 0.0024290995 -0.005514778
0000f0 80 33 25 bb 74 ed 16 bb 19 11 6f 3b 40 f1 6a bb
       -0.0025207698 -0.0023029717 0.0036478697 -0.0035849363
000100 7b e9 cf b6 0c 12 ee 37 e2 e5 b4 b6 a2 13 e0 b6
       -6.1962614e-06 2.8380215e-05 -5.39118e-06 -6.678006e-06
000110 15 60 c4 b6 98 8f 34 b7 fe f0 6f b7 f0 33 4c 37
       -5.8524406e-06 -1.0762269e-05 -1.43016205e-05 1.217144e-05
000120 dc d5 02 b8 5a dd 0c b7 63 b1 30 b7 1c 0f c3 b7
       -3.1193587e-05 -8.396188e-06 -1.05317185e-05 -2.3252847e-05
000130 19 58 09 37 73 fc 1d b6 9f ec ba b7 f8 90 de b6
       8.186348e-06 -2.3541768e-06 -2.2283113e-05 -6.632992e-06
000140 7f d5 51 36 22 05 05 37 9c 46 48 36 86 09 09 37
       3.1267698e-06 7.928613e-06 2.9843422e-06 8.168054e-06
000150 33 b3 e0 b7 94 d1 c6 b6 8b 11 69 36 5b 56 7f b6
       -2.6786327e-05 -5.925258e-06 3.4729917e-06 -3.8048227e-06
000160 5a 20 3e 36 11 e7 e7 35 bf be b7 b7 c6 82 be 35
       2.8331037e-06 1.727809e-06 -2.1904123e-05 1.4194163e-06
000170 61 ca ee b6 cb 5a 08 37 ac 30 7a 36 4d 28 a1 35
       -7.1165127e-06 8.127371e-06 3.7281234e-06 1.2007164e-06
000180 64 32 e3 b4 0e 2c f4 36 63 bd 0f 37 0d 1a 8d b7
       -4.231871e-07 7.2768953e-06 8.567559e-06 -1.682064e-05
000190 f3 24 87 36 c1 b5 5e 37 f6 58 0f 37 5a 46 29 b7
       4.027615e-06 1.3274549e-05 8.544177e-06 -1.0089565e-05
0001a0 16 1b a0 b5 d1 ed d7 36 c8 2d 99 36 5e 86 fb b6
       -1.1928812e-06 6.435185e-06 4.565085e-06 -7.4960253e-06
0001b0 ad b1 09 37 34 e2 19 b7 20 13 f8 b6 94 4f 58 b5
       8.207205e-06 -9.172178e-06 -7.3932024e-06 -8.058207e-07
0001c0 59 eb 88 37 80 2a f2 b5 a2 ec 2d 36 64 5c 45 b7
       1.6322056e-05 -1.8042774e-06 2.5916747e-06 -1.1763626e-05
0001d0 c6 2b c0 b7 82 2d 0e b6 06 f7 83 37 48 51 3c b6
       -2.2908567e-05 -2.1186138e-06 1.5731446e-05 -2.8061495e-06
0001e0 42 7c 03 30 f3 8a 38 b7 e2 da ae b6 e4 ed 30 b7
       4.7834103e-10 -1.0999606e-05 -5.2110854e-06 -1.0545806e-05
0001f0 14 e9 f8 b6 06 7f 04 b7 b3 55 99 37 34 c6 de b6
       -7.41811e-06 -7.897388e-06 1.8278928e-05 -6.6391895e-06
000200 8a 7d b6 bc 41 f7 6b 3c 6f ef b5 3c 94 af de bc
       -0.022276659 0.014402212 0.022208897 -0.027183332
000210 11 96 18 bd 30 0a 25 bd 92 cd 8c bc 05 bc c3 3c
       -0.03725249 -0.04029292 -0.017187867 0.023893366
000220 6d d6 99 bc a6 38 fc bc 0f 4e b1 bc b2 2d 88 bc
       -0.018779004 -0.03078873 -0.021643667 -0.016623352
000230 51 b8 19 bd fa ad 15 bd de 09 2b bc f0 cf 69 bc
       -0.037529293 -0.03654287 -0.010439364 -0.014270768
000240 b6 4c 4d bc d8 33 87 3c 96 3c ef 3c a0 ba 15 3d
       -0.012530496 0.016504213 0.029203694 0.036554933
000250 82 34 a7 bc 86 fb a5 3c 7f d6 5d bc b4 3a 10 bd
       -0.02041078 0.020261537 -0.013539909 -0.035212234
000260 dd 80 31 bc 85 9f 08 bd 96 aa 9e bc 19 25 2d bd
       -0.010833946 -0.033355255 -0.019368451 -0.042271707
000270 0d 54 c6 bc b0 f1 04 3d aa 82 33 bd 0a d6 0c 3d
       -0.02421 0.032457054 -0.043825783 0.03438381
000280 c7 8b 48 bc bd 68 26 3d 99 2d 9c 3c f7 ea b3 bc
       -0.012240357 0.04062723 0.019064711 -0.021962626
000290 a1 ef 0f bc 17 06 90 3c 74 bb ca bc 57 64 ec bc
       -0.008785159 0.017581029 -0.024747588 -0.02885644
0002a0 d9 fa a7 bc 2c 74 40 bc 67 e9 cf bc 07 3f b6 3c
       -0.020505356 -0.0117464475 -0.02537985 0.02224685
0002b0 dc 53 9b 3c bc 13 16 bd 2b 97 81 bc ab 8b 91 ba
       0.018960886 -0.036639914 -0.015819153 -0.0011104246
0002c0 0b 78 3e 3c 55 c8 67 3c 4b 74 e8 bc 4f 5b 5a bc
       0.0116253 0.014146884 -0.028375765 -0.013327434
0002d0 85 df 43 3c 24 0f cb bc 7a 54 97 3c e2 ad ce 3c
       0.011955147 -0.024787493 0.018472899 0.025229398
0002e0 3a dc a2 b6 ba 17 14 bd ea a9 e1 3c 4c eb 9d bc
       -4.853614e-06 -0.03615544 0.027546842 -0.019277237
0002f0 6b 5d ed bc 43 af d2 bc 6f c9 81 3c d0 b8 30 bd
       -0.02897521 -0.025718337 0.015843121 -0.043145
000300 ca 8f de b9 ae 98 a0 3a 64 b7 0f 3a 50 10 16 ba
       -0.0004245027 0.0012252533 0.00054823444 -0.00057244767
000310 68 4b 59 ba 5a 8b 84 ba 36 d6 06 ba 6c be 22 3a
       -0.00082891295 -0.0010112331 -0.0005143614 0.00062081846
000320 2d 1e ba ba ee 90 34 ba ea 1b 16 ba 40 00 86 ba
       -0.0014199667 -0.0006888051 -0.00057262054 -0.0010223463
000330 7b 68 64 ba 74 eb 5e ba 29 9d 37 ba 8c 41 a9 b9
       -0.00087130786 -0.0008503713 -0.00070043147 -0.00032283028
000340 cf c1 2a b9 26 0a be 39 e2 f0 15 3a b0 bd 6d 3a
       -0.00016284663 0.00036247185 0.0005719793 0.0009069098
000350 b3 52 a4 ba 6c 0f 16 3a d1 eb c4 b9 c3 70 5f ba
       -0.0012536853 0.0005724344 -0.0003755973 -0.00085235777
000360 ee fa 89 b9 a2 05 48 ba 53 ef ae ba de ce 7e ba
       -0.00026317633 -0.0007630234 -0.0013346471 -0.00097201567
000370 f8 9f 01 ba 81 8c 3a 3a 5d 31 86 ba 27 71 51 3a
       -0.00049447967 0.00071162736 -0.00102381 0.00079895783
000380 97 ca 9b b9 4b 83 7f 3a 32 06 b8 3a be 09 51 ba
       -0.00029714845 0.0009747042 0.0014039932 -0.0007974169
000390 0b f4 00 b9 56 a1 09 3a 0a e6 24 ba df cf 39 ba
       -0.00012297944 0.0005250176 -0.0006290382 -0.0007088165
0003a0 94 7f f9 b9 02 84 6d b9 83 0a 1b ba a0 c6 00 3a
       -0.00047588034 -0.00022651258 -0.0005914347 0.000491241
0003b0 5e b1 d8 39 62 2f 64 ba 9a f7 3c ba a8 d9 37 37
       0.0004133088 -0.00087045704 -0.00072085264 1.0958327e-05
0003c0 22 54 3b 3a f6 6f 22 3a 08 ae 38 ba 7d b5 31 ba
       0.00071460207 0.0006196493 -0.00070449756 -0.0006779058
0003d0 f7 31 22 39 1f 0e 0d ba ec 1c 6d 3a 14 2d 07 3a
       0.00015468137 -0.00053808274 0.0009045142 0.00051565585
0003e0 7d b4 a4 b3 b7 01 60 ba 6e 61 22 3a 74 dd 9b ba
       -7.669676e-08 -0.00085451774 0.0006194328 -0.001189156
0003f0 e9 0e 21 ba 58 08 11 ba 8f 21 35 3a 82 bc 84 ba
       -0.00061438844 -0.00055325544 0.00069096027 -0.001012698

feature.2.weight_hh_l0 f4 [128, 32]
000000 00 f0 82 ba f9 c5 38 b8 27 56 87 b9 f1 af c5 b8
       -0.0009989738 -4.4053395e-05 -0.00025813395 -9.426464e-05
000010 e4 ee cd b9 05 67 d7 b8 fc 52 32 38 1b 3c 29 38
       -0.00039278634 -0.00010271188 4.2515792e-05 4.0348717e-05
000020 41 1a 32 3a c4 f0 83 b8 97 fc a4 39 39 8c 50 3a
       0.0006794073 -6.291413e-05 0.00031468712 0.0007955465
000030 00 ee 61 3a fb 0e 85 39 69 b8 bd 39 33 5c 8a 38
       0.00086185336 0.00025378898 0.00036186285 6.597526e-05
000040 f1 ca b8 37 10 14 66 b9 95 46 52 ba 09 e8 c8 39
       2.2029011e-05 -0.00021941983 -0.0008021382 0.00038319852
000050 b3 79 07 b8 82 eb 15 38 66 4b c7 37 5f 4a 3c b7
       -3.229985e-05 3.5743702e-05 2.3757759e-05 -1.1222989e-05
000060 b8 03 c3 38 19 5b b6 b9 60 d1 83 b7 76 ad 16 3a
       9.299017e-05 -0.00034781618 -1.5713915e-05 0.00057478936
000070 51 c8 1b b8 f5 3b 76 35 19 59 92 38 78 a6 a2 b9
       -3.714144e-05 9.172939e-07 6.978418e-05 -0.00031023077
000080 f0 dd 13 37 01 45 46 36 d7 43 48 b7 ae f9 9b b5
       8.813557e-06 2.9544465e-06 -1.1936724e-05 -1.1621066e-06
000090 3e 6b 5a 35 92 13 78 b5 f9 4c b4 b5 85 b2 6e b6
       8.1367386e-07 -9.241568e-07 -1.3433447e-06 -3.5568676e-06
0000a0 68 25 ba b6 4e 9c b3 b6 74 43 ae b6 be 29 4f b7
       -5.5475866e-06 -5.352812e-06 -5.1934567e-06 -1.234788e-05
0000b0 a2 eb 10 36 4a 7c e2 36 38 b7 6b 37 12 53 f1 b4
       2.1594828e-06 6.749794e-06 1.40497505e-05 -4.495019e-07
0000c0 d9 35 68 b7 86 d4 f4 b5 64 37 22 34 2c 6d f7 35
       -1.3840815e-05 -1.8241269e-06 1.5107577e-07 1.8434707e-06
0000d0 2e 27 8e b2 08 39 3a b7 52 54 cb 35 4e 80 d4 b5
       -1.6548793e-08 -1.1099743e-05 1.5149219e-06 -1.5832572e-06
0000e0 48 3c ff 35 4f e5 a2 37 2a 98 84 34 42 30 31 36
       1.9016525e-06 1.9418685e-05 2.469763e-07 2.6403145e-06
0000f0 db 3a 2e b7 c7 74 05 b3 f9 b3 9f 37 28 5b 41 37
       -1.0384912e-05 -3.1072684e-08 1.9038083e-05 1.152492e-05
000100 a9 5d a3 bc 61 2f 0f bb 23 5a ff 3b a8 f7 cc bb
       -0.019942122 -0.0021848308 0.0077927276 -0.006255109
000110 0d 24 a7 bb 69 dd 81 3b 63 18 c0 3b 48 3c 04 3c
       -0.005100733 0.0039631617 0.005862282 0.008071013
000120 ee 00 8a 3c 0e d5 91 3a 87 ca 24 3c 86 81 9e 3c
       0.016846146 0.0011126117 0.010058052 0.019348871
000130 72 c0 9c 3c 76 a0 69 bb 9f 7c 91 bb 84 c8 a1 ba
       0.019134734 -0.003564862 -0.004439905 -0.0012343084
000140 c3 35 f6 3b 39 f0 20 3c 05 2c 94 bc 60 8e 35 3c
       0.007513733 0.009822899 -0.018087396 0.011081308
000150 ca 23 e7 b9 d1 64 80 3b 75 ca e9 3b 85 28 eb 3a
       -0.00044086418 0.0039182683 0.0071347305 0.0017941153
000160 0d 7c 1a 3c 60 0f 66 bc 08 a3 09 bb e7 96 6d 3c
       0.00942899 -0.014041752 -0.0021001715 0.01450131
000170 e1 3a 07 3c 27 bb c5 b7 24 80 ae bb 96 ae 25 bc
       0.008253784 -2.357138e-05 -0.005325334 -0.010112425
000180 0c 18 7e b9 aa e1 92 37 9b 87 81 b9 99 12 92 b8
       -0.00024232286 1.750964e-05 -0.0002470583 -6.9652866e-05
000190 74 5b a9 b7 1a c4 34 38 24 ec 24 38 1e 47 eb 37
       -2.0188956e-05 4.3097978e-05 3.932057e-05 2.80473e-05
0001a0 d7 47 33 39 1e 4d bb b7 01 5c bb 38 1d ec 37 39
       0.00017097533 -2.2328048e-05 8.933992e-05 0.00017540199
0001b0 27 57 46 39 f0 76 17 37 84 46 0e 39 4a 9b 7d b7
       0.00018915218 9.027994e-06 0.00013568444 -1.5116131e-05
0001c0 6c 46 17 38 f1 1f 74 b9 1c 9a 3c b9 a4 69 05 39
       3.606679e-05 -0.00023281552 -0.00017986487 0.00012723223
0001d0 83 9f 5b 36 16 62 42 38 f2 44 b4 37 28 dc aa 37
       3.272639e-06 4.6344554e-05 2.1489777e-05 2.0368097e-05
0001e0 d6 36 17 37 86 9a 88 b8 35 6e c7 b7 27 16 0a 39
       9.013069e-06 -6.5137676e-05 -2.3773968e-05 0.00013168958
0001f0 7e 91 32 b8 53 97 d4 34 42 31 1b b8 eb f9 d5 b8
       -4.2574007e-05 3.959818e-07 -3.7000755e-05 -0.00010203182
000200 0c b8 2f ba 6d 26 b4 b8 11 0d 1b 3a 87 1d 9b b9
       -0.00067031453 -8.590226e-05 0.0005914728 -0.00029585903
000210 74 0c 04 b9 80 5b 52 39 e4 64 a2 39 2b fc c0 39
       -0.0001259314 0.00020061247 0.00030974217 0.00036808974
000220 dd 94 25 3a 8e b1 8d 39 d9 4a bc 39 4b 37 48 3a
       0.0006316433 0.00027025904 0.0003591392 0.0007637634
000230 3e a9 28 3a 85 b0 86 b9 0c 3d 8e b9 76 ce 1b b9
       0.00064339105 -0.0002568999 -0.00027129834 -0.00014858865
000240 80 66 b4 39 8b 85 33 3a 65 89 26 ba 40 d0 c1 39
       0.00034408644 0.00068482076 -0.0006352871 0.00036966987
000250 14 6d f7 36 35 40 84 39 1a ba c0 39 80 fc bd 38
       7.373872e-06 0.0002522484 0.0003675975 9.059254e-05
000260 c3 92 e8 39 c0 23 17 ba d7 6d 1c b9 53 d1 03 3a
       0.00044359834 -0.000576552 -0.00014918238 0.0005028445
000270 53 82 b9 39 38 c7 2c 37 be 7e 72 b9 e8 23 c5 b9
       0.0003538305 1.0298383e-05 -0.00023126134 -0.0003760152
000280 29 f5 4b ba 4e cc 9e b8 35 1a 5a 38 1a f0 40 b9
       -0.0007780367 -7.572082e-05 5.1999657e-05 -0.00018399992
000290 43 12 55 b8 03 c5 86 38 4c 93 1b 39 1e cf 23 39
       -5.0800165e-05 6.426314e-05 0.00014836824 0.00015622049
0002a0 e9 8e 15 3a 48 0f aa 38 c5 21 99 39 7b 46 39 3a
       0.0005705194 8.109078e-05 0.00029207594 0.00070676923
0002b0 ca 55 37 3a f0 e2 d9 37 d6 a4 a8 38 e5 a6 b2 b8
       0.00069936796 2.5974092e-05 8.041567e-05 -8.518788e-05
0002c0 3e d4 1f 39 04 f5 0c 39 72 0d 35 ba 85 0b c6 39
       0.00015242488 0.00013442716 -0.00069066056 0.00037774086
0002d0 42 b1 d6 b7 a7 70 12 39 4d e4 16 39 8e f1 71 38
       -2.559333e-05 0.00013965611 0.00014390163 5.7683843e-05
0002e0 a1 44 4b 39 85 08 d6 b9 79 bd b2 b8 4f 74 fd 39
       0.00019385155 -0.00040823608 -8.5229934e-05 0.00048342577
0002f0 ab 25 e1 38 65 b6 f5 b5 a8 ad c7 b8 5e 7e a1 b9
       0.00010735852 -1.8307006e-06 -9.5214054e-05 -0.00030802464
000300 42 c5 c8 b9 4c 5f 2c b8 39 1c 1b b9 db bd d5 b8
       -0.0003829394 -4.1096748e-05 -0.00014792466 -0.00010191995
000310 05 36 01 b8 59 85 74 38 11 df a7 38 de 2d 70 38
       -3.0806306e-05 5.8298323e-05 8.00473e-05 5.7263176e-05
000320 89 54 86 39 ec 48 cc 37 8d b6 2d 39 57 5f a7 39
       0.00025621455 2.4352652e-05 0.00016566571 0.00031923756
000330 ee fd ad 39 9a e1 da 37 b0 d2 dc 38 3a d6 fd b7
       0.00033186324 2.6092679e-05 0.00010529661 -3.0259707e-05
000340 6a 3f 75 38 ec 0f e6 b8 40 a2 9c b9 26 93 2c 39
       5.847161e-05 -0.0001097022 -0.00029875524 0.00016458015
000350 ba a4 7b b6 70 0e 83 38 0c c2 76 38 d8 9e 15 b5
       -3.7497798e-06 6.249256e-05 5.883169e-05 -5.5737974e-07
000360 0b 59 7d 38 30 d2 2e b9 8f 50 1d b8 27 19 69 39
       6.040283e-05 -0.00016672234 -3.7506743e-05 0.00022229982
000370 88 f9 9f 36 75 9c dc b4 d7 f9 0a b8 9f 97 22 b9
       4.7676185e-06 -4.109203e-07 -3.3134445e-05 -0.00015506007
000380 17 6f 1a bb 5e ee 40 b9 26 c5 3b 3a d4 52 f7 b9
       -0.002356475 -0.00018399346 0.00071628613 -0.00047173223
000390 c7 5d 12 ba 4f 2a 45 39 37 4e f3 39 84 c8 29 3a
       -0.0005583432 0.00018803145 0.00046406846 0.00064767175
0003a0 fb 2e f9 3a db ea c3 b7 1e cd 7a 3a 88 89 14 3b
       0.0019011194 -2.3355175e-05 0.0009567308 0.0022664983
0003b0 74 67 10 3b d4 f2 ab b7 77 66 05 b9 40 35 e4 b4
       0.002203432 -2.0497864e-05 -0.0001272204 -4.2507054e-07
0003c0 e2 2c 18 3a db bb 6a 3a ce ff 0a bb 39 d9 91 3a
       0.0005805028 0.0008954384 -0.00212096 0.001112736
0003d0 14 50 13 b8 3d 7e 89 39 be b3 0b 3a 14 82 fe 38
       -3.512211e-05 0.0002622473 0.0005329213 0.00012135893
0003e0 64 b3 5a 3a 3e ca c4 ba 48 5d 22 b9 5b 32 d1 3a
       0.00083427713 -0.0015013886 -0.00015484274 0.0015960442
0003f0 e8 2a 2a 3a 76 9d e8 37 36 19 a8 b9 da 6a 7f ba
       0.0006491379 2.7729879e-05 -0.0003206224 -0.00097434

feature.2.bias_ih_l0 f4 [128]
000000 60 5d 45 3c ab 6b 1c 38 ab ca 1e 3e 9c 62 b0 3b
       0.012046188 3.7293572e-05 0.15506999 0.005382849
000010 7e 5c 07 3c df 44 3e 3c 1f 10 e7 3b 32 83 de 3c
       0.008261798 0.0116131 0.0070514823 0.027162168
000020 c5 7c cd 3c fd 73 87 3b 83 1b 1a 3c 55 ab 8a 3d
       0.025083909 0.0041337 0.009405973 0.0677096
000030 f5 5c 1e 3d 77 e3 ee 3c 95 16 81 3d 92 13 94 3b
       0.03866287 0.029161198 0.06303135 0.0045189345
000040 2c 0e c0 3c c3 a2 28 3e 5b 6d 40 3d f1 5c ef 3b
       0.023444258 0.16468339 0.04697929 0.0073047807
000050 68 80 08 38 99 69 1d 3b c2 90 90 3c 8a 8a 0d 3a
       3.2544514e-05 0.002401924 0.01764715 0.0005399367
000060 ca d0 1b 3d b1 6e 32 3d 34 82 0f 3a 92 db 84 3c
       0.038040914 0.043562595 0.0005474419 0.01621798
000070 af 18 49 3d 87 9d f9 35 ef 33 7e 3c 8d 03 ea 3b
       0.049095806 1.8597792e-06 0.015515312 0.0071415366
000080 a2 63 04 3b 9f 3c 2a b7 8e ea 16 bc a5 34 63 ba
       0.0020200987 -1.0146904e-05 -0.009211196 -0.00086672074
000090 e5 77 06 bb f3 89 0d bb 23 f1 7c ba f3 7a 8e bb
       -0.002051824 -0.0021597117 -0.0009648969 -0.004348153
0000a0 10 70 b1 ba 4e 2e 8b ba f5 b3 7b ba 69 d8 8b 3b
       -0.0013537426 -0.0010618658 -0.0009601706 0.0042677415
0000b0 a2 20 d1 bb 7c ca aa bb 23 0b 86 bc 46 15 98 ba
       -0.006382064 -0.0052121263 -0.016362732 -0.001160302
0000c0 f2 83 82 bb 21 44 78 bc dc a9 1d bc 28 33 86 39
       -0.0039830143 -0.015152962 -0.009623017 0.00025596586
0000d0 e9 69 90 b6 08 ef cd b9 ef 06 fa ba a8 b3 81 b9
       -4.303864e-06 -0.0003927874 -0.0019075553 -0.00024738652
0000e0 c0 e7 fe bb 03 07 25 bc d9 b0 6f b9 ea 48 02 bb
       -0.0077790916 -0.0100724725 -0.00022858697 -0.0019879886
0000f0 e0 9a 2a bc 3a 12 50 b6 9d 70 20 bb 25 92 52 ba
       -0.010412902 -3.1005025e-06 -0.0024481185 -0.00080326415
000100 7d 61 be bd 17 dc 2b bd 7a fe 0a bd 89 3b 74 bd
       -0.09295938 -0.04195794 -0.033934094 -0.05962709
000110 27 c7 15 bd 9a 8f b4 bc 3d 78 56 3c 99 20 b0 3d
       -0.03656688 -0.02204113 0.0130901905 0.085999675
000120 dc 40 48 3d fe 4f 3e 3c 3d 5a 1a 3d a0 ce e7 3c
       0.04888998 0.011615751 0.037683714 0.028296769
000130 aa c5 e2 3d eb c8 70 3d 9a d9 4c 3d a5 9c c8 3c
       0.11072858 0.05878536 0.05001221 0.024488756
000140 93 14 92 bc 7a 30 b7 bd 76 6b 80 bd e7 e4 67 3d
       -0.017832076 -0.08944793 -0.062704965 0.056614783
000150 d5 1b 92 bb 15 a5 ce bc e0 dc 0b 3c fb 9b f6 3b
       -0.0044588842 -0.025225202 0.008536547 0.0075259185
000160 ee af 0a 3d c8 7b 7d bd 6f ac 7c bc e2 ce bc 3c
       0.033859186 -0.061885625 -0.015421971 0.023047868
000170 de 9e c4 bc 02 dc 8e 37 a6 c5 90 3c 5e 50 e2 bc
       -0.024001535 1.7030168e-05 0.017672371 -0.027626213
000180 3d 3e 79 3c 13 36 07 38 ac ec 12 3e 7d 14 b3 3b
       0.015212593 3.223687e-05 0.14348096 0.005465089
000190 8b f1 08 3c 25 1a 41 3c 3d ed eb 3b db 71 d6 3c
       0.00835837 0.0117860185 0.007199912 0.026177337
0001a0 a8 68 13 3d b8 35 88 3b ff bf 1d 3c de b0 64 3d
       0.03598848 0.0041567944 0.009628295 0.055832736
0001b0 d8 17 9d 3c 1b d2 f4 3c f6 11 87 3d 09 d1 94 3b
       0.019176409 0.029885342 0.06595223 0.0045415205
0001c0 d7 f7 c5 3c dd 90 0a 3e b5 34 8b 3c 9d 95 f4 3b
       0.02416603 0.13531823 0.016992906 0.0074641244
0001d0 3c ca 14 38 27 a0 1e 3b a6 e5 94 3c a2 f8 14 3a
       3.5474295e-05 0.0024204345 0.018175911 0.0005682801
0001e0 8e e7 1c 3d cb c0 83 3d a8 20 12 3a 95 21 86 3c
       0.038306765 0.06433257 0.0005574324 0.016373435
0001f0 ee 25 4e 3d cf 8b 6b 36 48 d1 81 3c 89 53 ef 3b
       0.05032914 3.5099108e-06 0.015846863 0.0073036593
