Code/LSTM/LSTMModelOutputs/TLbest_model.pth (torch, 217738 bytes, 15 tensors)

feature.0.weight_ih_l0 f4 [256, 54]
00000000: 1f68 e739 0506 793a 0bfd 873a e9aa 0900
00000010: d2e1 0700 96ec 6680 6bc8 1a00 322c 1500
00000020: 638b 0c80 1f75 ec3a 3472 ec3a 6d2a b23a
00000030: 6b6f b73a 6ed9 fe39 51f4 9b3a c740 a93a
00000040: c675 b03a f6fe af3a 6e55 0680 84fd 1e3a
00000050: 9eae ff39 a63b 8e3a dd0b d73a 4d74 c23a
00000060: 7c20 ac3a 88d7 923a a1f5 dd3a 273b dd3a
00000070: f987 923a 7ef4 913a 0881 d73a 8221 2c3a
00000080: fe12 933a 0bf4 dd3a 1097 923a 3db2 dc3a
00000090: 442c 933a 0b7f d73a c374 2a3a d6ba 913a
000000a0: a6ed dd3a 453e 923a 4fb2 dc3a a0ef 723a
000000b0: 0887 d73a 5d37 2a3a d321 1300 10ac de3a
000000c0: 627b c93a a150 923a 290d 2b3a 933d dd3a
000000d0: b532 dc3a 2ccf dc3a e9ee 223a 4b58 883a
000000e0: 8720 b23a 7cba 1b80 e378 1200 2186 0080
000000f0: 0f6b 1600 e552 0b00 315c 0c80 d2e4 f33a
00000100: 42b2 f03a d343 ac3a 5257 ad3a 549e 0a3a
00000110: 1c9b a23a 522a b43a 2ac6 a53a a3ee a33a
00000120: 5c94 1c80 e7d0 a43a 3d6b 213a b029 cd3a
00000130: cc66 f23a 50ac d83a 4963 c83a 6551 c83a
00000140: 4847 f03a 9b7d eb3a 7698 c83a 803c c63a
00000150: 358f f73a 4b51 3d3a b1cf c73a 7053 f03a
00000160: 84dd c83a 196d ef3a 2d55 c83a 59a8 f43a
00000170: c71c 2b3a 7e70 c83a a256 f03a 1858 c73a
00000180: 0a4b ed3a 2058 843a 03d6 f43a 833e 373a
00000190: 13ff 2600 100e ee3a f79e db3a ce7c c43a
000001a0: f198 4d3a 85f2 ee3a a6ea ed3a 8207 ef3a
000001b0: 7ffc c839 4757 963a 00c7 943a 9f88 2780
000001c0: 09c0 3d00 0ff1 1e80 e184 0e00 87ed 2380
000001d0: 22d8 0080 0b05 133b e504 133b 93ff e03a
000001e0: ee60 ea3a a79c fe39 5a98 ca3a 8da9 d23a
000001f0: 6779 cc3a 180a cc3a 50d4 0400 8a89 be39
00000200: e014 203a c398 813a 70d5 f53a c4ee e63a
00000210: bec1 cb3a 4886 723a 3d5c 053b b810 053b
00000220: 6ac3 6f3a 071c 723a 2cd7 f33a 6623 5b3a
00000230: 2c87 723a cf5b 053b d160 6f3a 01a4 043b
00000240: bb23 723a c2d6 f33a 919a 573a 792b 723a
00000250: 055c 053b 0f7f 6f3a 8ba3 043b 4cc2 913a
00000260: 8bd7 f33a fe61 573a 622f 4580 b4e2 053b
00000270: 3f4f f13a 9384 6f3a ca0c 353a 6909 053b
00000280: a35c 043b 8eca 043b 59cb ab39 2ee5 333a
00000290: a38f 2c3a e3cd 1500 8518 0680 6a6f 1580
000002a0: 8c02 2180 f10b 1c00 6ce9 0380 c75b a23a
000002b0: b75a a23a 1ca8 723a 42a6 783a 9a48 e039
000002c0: 0877 583a b924 683a cf65 613a 7d66 643a
000002d0: 8729 2200 2cbd cc39 b8ab b539 2207 443a
000002e0: 98ee 883a 92d9 7b3a 97a0 6e3a 6bcb 123a
000002f0: 1c6f 983a 20c5 973a 5755 113a 8bff 123a
00000300: da03 873a 8769 053a 99c7 123a 9a6d 983a
00000310: ba66 113a 994b 973a 1c01 133a 8f06 873a
00000320: 46c0 083a de8f 123a a86e 983a d161 113a
00000330: 9253 973a 7e91 1f3a de06 873a fa55 093a
00000340: 65c2 0780 a4fa 983a f8ae 833a bddd 103a
00000350: 0c96 f839 9cc3 973a 7f00 973a 7f74 973a
00000360: 6271 b03a ad38 633b 9087 8b3b 3f5c 0000
00000370: d279 0700 24f9 0400 3530 0a80 5523 2480
00000380: a7be 2400 4688 e13b 6d69 e13b c6dc 9d3b
00000390: ab18 a43b 2d92 9a3a b228 883b d26c 973b
000003a0: 9a3e a33b d8db a23b 3018 0000 293c 363b
000003b0: f9fb d23a e5b4 8e3b af38 ec3b 1eec ce3b
000003c0: d5dd 9f3b 64ee ba3b 0070 d33b 3c26 d33b
000003d0: da7f bb3b f6bc ba3b 384d f33b 7926 e53a
000003e0: b1eb ba3b a487 d33b 13b5 bb3b dcbf d23b
000003f0: edc6 ba3b 6147 f33b de75 d23a 5ff6 ba3b
0.0004413733 0.0009499493 0.0010375095 8.8783e-40 7.23858e-40 -9.452092e-39 2.45962e-39 1.9444e-39
-1.152028e-39 0.0018040276 0.0018039406 0.0013592966 0.0013994997 0.00048608653 0.0011898373 0.0012912982
0.0013462834 0.0013427425 -5.8166e-40 0.00060649985 0.0004876749 0.0010851517 0.0016406734 0.0014835686
0.001313224 0.0011203149 0.0016934165 0.0016878591 0.0011179439 0.0011135486 0.0016441653 0.00065662724
0.001122087 0.0016933692 0.0011183936 0.0016837787 0.0011228402 0.001644106 0.0006502384 0.0011118304
0.0016931787 0.0011157474 0.0016837808 0.0009267274 0.0016443441 0.0006493235 1.757008e-39 0.0016988534
0.0015371854 0.0011162945 0.00065250933 0.0016879312 0.001679978 0.001684641 0.000621541 0.001040229
0.0013590016 -2.546456e-39 1.696405e-39 -4.8116e-41 2.058786e-39 1.039927e-39 -1.135098e-39 0.0018607622
0.0018363672 0.0013142772 0.0013224876 0.0005287875 0.0012405845 0.0013745523 0.0012647558 0.0012507032
-2.624615e-39 0.0012574465 0.00061576423 0.0015652683 0.0018493771 0.0016530845 0.0015288378 0.0015283047
0.001833179 0.001796651 0.0015304226 0.0015124232 0.0018887284 0.00072218914 0.0015244392 0.0018335413
0.0015324806 0.0018266767 0.0015284173 0.0018665894 0.00065274205 0.0015292314 0.0018336365 0.0015208749
0.0018104028 0.0010097064 0.0018679503 0.0006990211 3.581252e-39 0.001816215 0.0016755749 0.0014990808
0.00078429194 0.0018230235 0.0018151596 0.001823649 0.00038335097 0.0011470102 0.001135081 -3.630595e-39
5.670854e-39 -2.84154e-39 1.333365e-39 -3.299451e-39 -7.7534e-41 0.0022433426 0.0022433337 0.0017166011
0.001788167 0.0004856337 0.0015456781 0.0016072259 0.0015600146 0.0015566973 4.43505e-40 0.000363421
0.0006106626 0.0009887445 0.0018755626 0.0017618765 0.001554541 0.0009251577 0.0020349168 0.0020304155
0.00091462454 0.0009235744 0.0018603555 0.0008359462 0.00092517096 0.0020348912 0.0009131553 0.0020239356
0.00092368916 0.0018603432 0.00082246313 0.00092380453 0.0020349037 0.00091360597 0.002023908 0.0011120527
0.0018603666 0.0008216201 -6.353647e-39 0.0020429315 0.0018410458 0.00091368816 0.0006906508 0.0020299798
0.0020196817 0.0020262334 0.00032767167 0.00068624585 0.0006582683 2.002404e-39 -5.59809e-40 -1.968513e-39
-3.031485e-39 2.575678e-39 -3.59242e-40 0.0012386971 0.0012386654 0.00092566176 0.00094852236 0.00042778702
0.0008257483 0.000885557 0.00085982395 0.0008712782 3.137304e-39 0.00039050856 0.0003465095 0.00074778695
0.0010447083 0.00096073106 0.0009102909 0.00055997696 0.0011629793 0.0011579134 0.00055440277 0.0005607537
0.001030083 0.0005089272 0.00055992004 0.0011629343 0.00055466185 0.0011542916 0.000560777 0.0010301637
0.0005216639 0.0005590896 0.0011629658 0.0005545887 0.0011545292 0.00060870487 0.0010301729 0.0005238947
-7.12584e-40 0.0011671376 0.0010046652 0.00055262056 0.0004741404 0.0011578682 0.0011520534 0.0011555104
0.0013461525 0.0034671233 0.0042581037 3.3092e-41 6.8655e-40 4.56717e-40 -9.35648e-40 -3.318753e-39
3.374471e-39 0.0068827 0.006879023 0.004817578 0.0050078235 0.0011792831 0.004155242 0.0046211267
0.004981828 0.004970055 8.677e-42 0.0027806854 0.0016096822 0.0043550604 0.0072089056 0.0063147685
0.0048787394 0.005704688 0.0064525604 0.006443767 0.005722028 0.0056987954 0.0074249767 0.0017482779
0.005704366 0.0064553786 0.005728373 0.006431563 0.0056999833 0.0074242805 0.0016056856 0.0057056393

feature.0.weight_hh_l0 f4 [256, 64]
00000000: 213d ccb9 0cc7 cf39 bee3 d539 43b2 b4b9
00000010: 7333 1aba c91d af39 b535 ef39 eef5 c8b9
00000020: 23d2 c539 b158 09ba afe8 5cb9 2c0d 07ba
00000030: b096 d639 71a9 8eb9 eac6 c439 073f 163a
00000040: 083f 5fb9 67b1 bdb9 fd73 d0b9 1994 ad39
00000050: 7029 aa39 50b1 83b9 38cd d639 af2c b539
00000060: dc78 c7b9 44bf ffb9 c5ed 0b3a 69b4 1dba
00000070: c815 2dba fe65 b0b9 f931 a539 a7ba bd39
00000080: 395f d2b9 8d59 d7b9 6186 063a acd0 cab9
00000090: 0c1d c739 21cc d2b9 24b0 d439 b896 99b9
000000a0: 7d56 d539 07c5 dfb9 ef2f c139 a948 1cba
000000b0: 4842 c2b9 b028 dd39 cbb2 0cba ded7 d3b9
000000c0: 6d5c 7739 5330 56b9 8cb8 50b8 7108 9c39
000000d0: 9454 dfb8 ecfe c439 b0a2 153a 0d46 d4b9
000000e0: f24e 3939 c874 adb9 470a 7d39 370c 5eba
000000f0: df05 06ba 57bd ce39 764e d4b9 2467 4838
00000100: 63b7 cdb9 ffb6 b439 a9e2 e339 d21a a6b9
00000110: 99a1 2dba a07b 4439 6138 043a ce71 c5b9
00000120: 448f be39 091f 19ba 71f4 7bb8 16a4 0fba
00000130: 0b0d e639 7053 96b8 8a73 4d39 8f87 1c3a
00000140: 11ee 2bb8 b286 9db9 57a4 d7b9 0f28 4339
00000150: d52b 4539 c683 d5b8 202d db39 d847 e938
00000160: cb08 c9b9 a5e4 0dba d7e4 1a3a 6144 28ba
00000170: 3658 1cba a8fd f1b8 f612 ec38 51bc ba39
00000180: d7b5 d8b9 74e7 e6b9 7e52 143a 8ea2 cab9
00000190: 8e20 c439 aec4 c7b9 ee47 e039 5a98 1ab9
000001a0: dd8c dd39 3ae6 f4b9 687e b439 7ff2 2eba
000001b0: bead b9b9 68e0 9139 d7fa 17ba bddb dbb9
000001c0: bae6 5b38 b173 27b8 73ae 8c37 3c46 3839
000001d0: d611 6037 2c50 c239 3255 283a bd97 d3b9
000001e0: 8625 a137 4e41 53b9 a338 8538 b06c 2cba
000001f0: 869a 12ba fa43 d439 2473 dcb9 f5d0 2838
00000200: 2806 b6b9 de30 b939 c0c4 c039 bbd0 9cb9
00000210: c970 1aba 7afb 9939 c1d8 dd39 6701 b2b9
00000220: 6e63 b039 f803 04ba 8408 34b9 b4cb 00ba
00000230: 4ab6 c139 6e22 6cb9 8c55 b339 72d0 153a
00000240: 3291 71b9 4697 a4b9 a29c bab9 b202 9839
00000250: ca53 9139 1561 6eb9 519a c139 f2d5 a439
00000260: b891 b0b9 ad36 f1b9 1548 073a 40eb 1dba
00000270: b481 3dba cf43 9cb9 6d67 8c39 0aaf a439
00000280: a68c bcb9 24ac c2b9 900d 003a a741 b4b9
00000290: 9d73 b039 a24d bcb9 7aa2 bf39 9b97 84b9
000002a0: 7bbc bf39 8348 ccb9 fa30 a939 2725 1dba
000002b0: f5de aab9 c7d1 d439 e542 08ba 2f23 beb9
000002c0: 7d88 4c39 7621 32b9 0f91 c5b8 c874 8339
000002d0: 52d7 f3b8 5b68 ae39 9281 143a c0df beb9
000002e0: 1948 3939 6e5e 94b9 432e 5839 0c0c 82ba
000002f0: d66d ffb9 f6bd b839 f3a1 beb9 a6f6 d037
00000300: b810 95b9 a3b3 9b39 67d5 9a39 413b 85b9
00000310: a2bf d9b9 a6f5 8439 566b ab39 aa89 93b9
00000320: 40d1 9139 bab9 c3b9 9a3e 27b9 9426 c3b9
00000330: dc0f 9b39 62a8 60b9 a47f 9639 bdc0 d539
00000340: 2172 20b9 7484 8eb9 528e 97b9 52f2 8339
00000350: 0f9f 8239 8038 41b9 74bc 9c39 2c98 8b39
00000360: 9ed8 91b9 83df b6b9 1cac c739 3fd6 e0b9
00000370: 2914 f2b9 5462 89b9 8a91 8239 af4b 8b39
00000380: f148 99b9 cf6a 9bb9 ab77 c039 6f82 94b9
00000390: 9230 9239 b65b 9cb9 93d0 9939 ec5d 6cb9
000003a0: 0450 9b39 2cfe a0b9 c281 8e39 f7c7 dcb9
000003b0: ca0d 8fb9 44e7 a439 47e7 c9b9 2224 9ab9
000003c0: 7705 4439 018c 2db9 3e74 46b8 1dd8 6d39
000003d0: 84c6 8eb8 8a41 9039 6d9e d339 5ed7 9bb9
000003e0: 87fc 1339 16ed 84b9 fe4a 4239 9ff1 15ba
000003f0: 248c c0b9 2899 9639 c098 9ab9 65d2 4638
-0.00038955457 0.00039630418 0.00040796207 -0.0003446509 -0.00058823003 0.00033400793 0.00045625647 -0.00038330205
0.00037731332 -0.00052393513 -0.00021067516 -0.0005151804 0.00040929532 -0.00027210594 0.00037532236 0.00057314377
-0.00021290418 -0.00036181064 -0.0003975927 0.00033107473 0.000324558 -0.00025118375 0.0004097016 0.00034556302
-0.00038046285 -0.00048779894 0.00053378596 -0.0006015958 -0.0006602672 -0.00033645326 0.00031508485 0.00036187956
-0.00040125268 -0.00041074716 0.00051317184 -0.00038683915 0.0003797788 -0.0004020641 0.00040567026 -0.00029294728
0.00040690965 -0.0004268067 0.00036847542 -0.0005961755 -0.00037051947 0.0004218272 -0.00053672184 -0.0004040589
0.00023590187 -0.00020426633 -4.9762937e-05 0.00029760928 -0.000106492225 0.00037573965 0.0005708141 -0.00040487983
0.00017672384 -0.0003308414 0.00024131789 -0.0008470448 -0.0005112569 0.0003943245 -0.0004049425 4.7779773e-05
-0.0003923728 0.00034468618 0.0004346569 -0.0003168197 -0.0006623506 0.0001873807 0.00050438015 -0.0003765956
0.00036346365 -0.00058411114 -6.0070717e-05 -0.0005479468 0.00043878736 -7.168099e-05 0.00019593365 0.00059711275
-4.0991294e-05 -0.0003004573 -0.00041130438 0.00018611572 0.00018803713 -0.00010181176 0.00041804556 0.00011123688
-0.0003834426 -0.0005412794 0.00059087336 -0.00064188807 -0.0005964072 -0.00011539023 0.00011256889 0.0003561699
-0.00041334212 -0.00044041465 0.0005658044 -0.00038649555 0.00037408288 -0.00038102776 0.000427782 -0.0001474334
0.00042257356 -0.0004671084 0.00034426455 -0.0006673708 -0.00035415398 0.0002782375 -0.0005797571 -0.00041934653
5.242855e-05 -3.992365e-05 1.6770535e-05 0.00017573772 1.3355593e-05 0.00037062296 0.00064213865 -0.0004035811
1.9210169e-05 -0.00020146856 6.3524836e-05 -0.0006577475 -0.0005592484 0.00040486438 -0.00042047456 4.0248928e-05
-0.00034718332 0.0003532236 0.00036767684 -0.00029910155 -0.000589144 0.000293698 0.000423139 -0.0003395185
0.00033643417 -0.0005035992 -0.0001716931 -0.00049131666 0.00036947645 -0.0002251954 0.00034205278 0.00057149597
-0.0002303764 -0.00031393225 -0.00035593385 0.00028993707 0.00027718983 -0.00022733615 0.00036926803 0.0003143992
-0.00033677905 -0.0004600784 0.00051605824 -0.00060241297 -0.0007229105 -0.0002980516 0.0002677994 0.00031410932
-0.00035962946 -0.00037130818 0.00048848335 -0.0003438119 0.00033655475 -0.00035915995 0.00036551413 -0.00025289957
0.00036570788 -0.00038963938 0.00032270682 -0.0005994611 -0.00032591043 0.00040592087 -0.00051979563 -0.00036265838
0.00019505802 -0.00016987868 -9.420711e-05 0.00025073276 -0.000116272495 0.00033265617 0.00056650594 -0.0003640633
0.00017669833 -0.00028299115 0.00020616599 -0.0009921803 -0.00048719224 0.00035236747 -0.00036360286 2.4910387e-05
-0.0002843195 0.00029697744 0.00029532166 -0.00025411884 -0.00041532243 0.00025360024 0.00032695633 -0.00028140593
0.0002781246 -0.00037331675 -0.00015949682 -0.0003722204 0.0002957572 -0.00021425032 0.0002870533 0.00040770127
-0.00015301305 -0.00027183036 -0.00028907 0.0002516681 0.0002491404 -0.00018426962 0.00029895047 0.00026625523
-0.00027817948 -0.00034880274 0.0003808447 -0.00042884235 -0.00046172857 -0.00026203936 0.00024903967 0.00026568535
-0.0002923678 -0.00029643482 0.00036710253 -0.0002832594 0.00027883478 -0.0002982297 0.00029337834 -0.00022541702
0.0002962352 -0.0003070695 0.00027181028 -0.00042110655 -0.0002728536 0.00031452824 -0.00038510023 -0.0002940009
0.00018694052 -0.00016550721 -4.7315138e-05 0.0002268259 -6.808064e-05 0.0002751465 0.00040363093 -0.00029724365
0.00014113086 -0.00025353645 0.00018529219 -0.0005719903 -0.00036725507 0.0002872434 -0.00029486977 4.7402824e-05

feature.0.bias_ih_l0 f4 [256]
00000000: 9728 ee3a 5c61 f43a e670 143b a1aa a33a
00000010: 984c e23b 4c9c 7e3a 1288 523b 3569 e63a
00000020: ffe0 e03a 354f 9e3b 4420 1e3b ef91 893b
00000030: c54d 153b eb82 9a3a 0837 a23a 787b cc3b
00000040: cfd8 4d39 8729 2b3b a19c 033b 2aeb 4b3a
00000050: 19d6 8a3a 077a 8e3b 6c95 083b 81f6 7d3a
00000060: 7509 e23a 68ff 7e3b 5e72 a63b dbfa eb3b
00000070: 87ec 9c3c 6753 433a 3f98 573a 4ffc d63a
00000080: 319f 043b 993d 173b 4621 923b 4a27 e73a
00000090: b84a e23a 6582 083b 3a10 103b 9bc3 0e3b
000000a0: 4cef 0a3b 4fe8 2d3b f21d c23a a48b ea3b
000000b0: 8959 cf3a ad0c 2e3b 9f0c a03b 8f0c 083b
000000c0: 678a 8a39 8d12 193a bbaf a338 fc4c 273a
000000d0: 9a83 cc3a ee75 d43a 36f7 d03b c436 123b
000000e0: a3bd e23a af42 8f3a 767d 133b 948d 173e
000000f0: b8bb 903b 9657 fd3a 095d 083b d8d1 eb3a
00000100: 1a14 c73a 9d8e bd3a 0c06 fa3a 2afc 883a
00000110: 707a ba3b 5411 9939 db6d 303b 4ac9 c33a
00000120: 8e9e c13a 09b6 813b 1334 4dba 3491 333b
00000130: c011 fb3a f157 55b9 82ad c939 f6c6 323b
00000140: 41b4 6d38 4e18 a83a b564 db3a dc94 013a
00000150: ae56 723a 52c1 beba f440 e53a 88bc 2e39
00000160: 85ff bc3a 4809 513b 906a 833b d77e 983b
00000170: 4d15 3aba 238c a039 a5c0 3c3a d073 a63a
00000180: cd13 dd3a 83fd fb3a 7426 6e3b 5a84 c13a
00000190: 27e2 bd3a c1f0 e23a ddc5 ef3a 24c3 053a
000001a0: 6a48 e73a 34cd 123b 7120 a13a a509 bf3b
000001b0: f07e b03a 2497 5239 806b 523b 10c0 e23a
000001c0: 7252 3739 04fb c038 9a17 0238 37bd 0c3a
000001d0: 75e3 0cba 867b b33a 4e23 ac3b 288b f13a
000001e0: e26c cb39 ccc3 7d3a 9747 4aba 7a78 cfbd
000001f0: 9a32 5d3b 335f d33a 9777 e43a 575d 3ab9
00000200: 0336 53bc 8f7e 243c e29d 653c a95e 37bc
00000210: 5c69 b5bc ad71 e43a d285 893c 708b 43bc
00000220: 6fed 523c cba4 a4bc 6068 f53b b828 65bc
00000230: 0b1f 6e3c db19 e93b dbd9 0f3b b4c3 563c
00000240: c93f 2b3a 44c1 9abc 92eb 5abc cc40 ac3b
00000250: 4314 f33b bea8 8a3b d743 603c 44c0 b539
00000260: ee7b 54bc 091b 8fbc d088 913c c4b4 7cbc
00000270: 91df 8cbc 7951 1abb 1c52 be3b 93a7 463c
00000280: 8f2d 5abc ba2c 71bc ab86 a13c 7305 51bc
00000290: f107 5c3c 40db 37bc 8e4d 623c 2c3a 28bc
000002a0: 5c96 5d3c dc0d 82bc 1984 473c 4b9d b3bc
000002b0: e498 3bbc 2f6e 5b3b 5251 76bc c847 5fbc
000002c0: a9f7 d33b 3976 03bc 362d 36bb 1095 0f3c
000002d0: 9dc7 0b3c 365c 503c a225 bc3c fe1c 55bc
000002e0: 82ab 703c 5bdf fbbb 2be3 03bc deb3 223e
000002f0: c7c1 83bc cfce 583c b31d 64bc 5544 c83b
00000300: 99e7 f93a ffef fa3a adf1 1d3b 2dab a83a
00000310: 46c9 083c a6bc 803a b86f 663b 54eb ef3a
00000320: a0e6 ea3a ef3b b53b 97de 1e3b 24c0 963b
00000330: 33df 1e3b dfc7 9a3a 17da a43a 347e e33b
00000340: ab17 4e39 4654 343b db97 0a3b 1282 4e3a
00000350: e088 8c3a dd76 8f3b 65b7 103b c109 803a
00000360: 0c8f ec3a 6e0d 8e3b cd2d be3b 2d92 093c
00000370: db38 a83c 8826 453a 2434 5a3a 59c1 e03a
00000380: 63e0 0b3b 23e9 203b fc93 a53b c73e f23a
00000390: c7db ec3a 3333 0d3b e45b 183b ef9b 133b
000003a0: 25f0 123b 3c25 3b3b 4100 ca3a 913d 0e3c
000003b0: 89b5 d63a 8fc6 313b e361 b23b 49cf 0f3b
000003c0: 1e54 8b39 4a71 1a3a e9c1 a338 c6e3 293a
000003d0: bbea cc3a 4de2 dd3a 6b15 f93b 7de1 1a3b
000003e0: 8948 e53a d93f 913a f913 143b 37e1 273e
000003f0: d9f8 a03b 4842 053b d958 103b 72a9 ed3a
0.0018170056 0.0018644738 0.00226503 0.0012486764 0.0069061033 0.0009712621 0.0032124561 0.0017578962
0.0017156898 0.0048312196 0.0024128119 0.004198305 0.002278195 0.0011788284 0.001237602 0.0062403046
0.00019631091 0.0026117282 0.0020082372 0.00077788776 0.001059237 0.004348043 0.0020841016 0.0009687916
0.001724525 0.0038909558 0.0050795516 0.007201535 0.019155754 0.00074510876 0.00082242856 0.0016402098
0.0020236487 0.0023077487 0.004459533 0.001763561 0.00172647 0.0020829674 0.0021982328 0.002178407
0.002119976 0.0026536172 0.001480995 0.0071577597 0.001581953 0.0026557848 0.004884317 0.0020759439
0.0002642453 0.0005839251 7.805178e-05 0.0006382016 0.0015603185 0.0016209462 0.006377126 0.0022310475
0.0017298948 0.0010929907 0.00225052 0.14800102 0.004416909 0.0019328471 0.0020807406 0.0017991615
0.0015188486 0.0014462058 0.0019075288 0.0010451127 0.005690865 0.00029195345 0.0026920948 0.0014937308
0.0014771984 0.003958468 -0.0007827889 0.002739978 0.001915507 -0.00020346024 0.0003846698 0.0027279234
5.6673078e-05 0.0012824626 0.0016738387 0.0004943141 0.00092444837 -0.0014553464 0.0017490671 0.00016664166
0.0014419412 0.0031896401 0.004010506 0.0046537924 -0.0007098511 0.00030621988 0.0007200337 0.001269931
0.0016866863 0.0019225333 0.0036338838 0.0014764175 0.0014486954 0.0017314182 0.0018293221 0.00051026256
0.0017645482 0.0022400143 0.0012292993 0.005830007 0.0013465565 0.00020083465 0.0032107532 0.0017299671
0.00017482953 9.202029e-05 3.1016396e-05 0.00053687714 -0.000537447 0.0013693429 0.005253232 0.0018428313
0.000388003 0.000968036 -0.0007716356 -0.10130401 0.0033752085 0.0016126394 0.001743066 -0.00017773114
-0.012891295 0.01003994 0.014014693 -0.011192002 -0.022144966 0.0017428898 0.016787443 -0.0119351
0.012873991 -0.02009811 0.007489249 -0.013986759 0.014533768 0.007113678 0.002194992 0.013108183
0.0006532637 -0.018890984 -0.013361828 0.005256748 0.007418187 0.0042315414 0.013688049 0.0003466626
-0.012969 -0.017468946 0.017765433 -0.015423957 -0.017196449 -0.0023547097 0.005808128 0.012124914
-0.013316526 -0.014720136 0.019717535 -0.012757647 0.013429628 -0.011221707 0.013812436 -0.0102677755
0.013524618 -0.01587575 0.012177491 -0.02192559 -0.011450026 0.0033482423 -0.015034037 -0.013627954
0.0064687324 -0.008023792 -0.0027797944 0.008763567 0.008531478 0.012717297 0.022967163 -0.013007401
0.014689328 -0.007686538 -0.0080497665 0.15888926 -0.016083611 0.013232901 -0.0139230965 0.0061116614
0.0019066214 0.0019145011 0.0024100349 0.0012868397 0.008348769 0.0009821847 0.0035161804 0.0018304386
0.0017921515 0.0055308263 0.002424156 0.0046005417 0.0024241924 0.0011808834 0.0012577203 0.006942535
0.00019654508 0.0027516051 0.0021147642 0.00078776584 0.0010721944 0.0043781833 0.0022081968 0.0009768532
0.0018048002 0.004335097 0.0058037997 0.008396667 0.020534923 0.0007520695 0.00083238096 0.0017147466
0.0021343462 0.0024553023 0.0050530415 0.0018481844 0.001807087 0.002154541 0.002324813 0.0022523364
0.002242097 0.002855613 0.0015411453 0.008681671 0.0016381006 0.0027126407 0.005443798 0.002194362
0.00026574818 0.0005891515 7.808564e-05 0.0006480779 0.001563392 0.0016928405 0.00760143 0.0023632937
0.0017492931 0.001108165 0.0022594912 0.16394506 0.0049124775 0.0020333696 0.0022025614 0.0018132164

feature.0.bias_hh_l0 f4 [256]
00000000: 9728 ee3a 5c61 f43a e670 143b a1aa a33a
00000010: 984c e23b 4c9c 7e3a 1288 523b 3569 e63a
00000020: ffe0 e03a 354f 9e3b 4420 1e3b ef91 893b
00000030: c54d 153b eb82 9a3a 0837 a23a 787b cc3b
00000040: cfd8 4d39 8729 2b3b a19c 033b 2aeb 4b3a
00000050: 19d6 8a3a 077a 8e3b 6c95 083b 81f6 7d3a
00000060: 7509 e23a 68ff 7e3b 5e72 a63b dbfa eb3b
00000070: 87ec 9c3c 6753 433a 3f98 573a 4ffc d63a
00000080: 319f 043b 993d 173b 4621 923b 4a27 e73a
00000090: b84a e23a 6582 083b 3a10 103b 9bc3 0e3b
000000a0: 4cef 0a3b 4fe8 2d3b f21d c23a a48b ea3b
000000b0: 8959 cf3a ad0c 2e3b 9f0c a03b 8f0c 083b
000000c0: 678a 8a39 8d12 193a bbaf a338 fc4c 273a
000000d0: 9a83 cc3a ee75 d43a 36f7 d03b c436 123b
000000e0: a3bd e23a af42 8f3a 767d 133b 948d 173e
000000f0: b8bb 903b 9657 fd3a 095d 083b d8d1 eb3a
00000100: 1a14 c73a 9d8e bd3a 0c06 fa3a 2afc 883a
00000110: 707a ba3b 5411 9939 db6d 303b 4ac9 c33a
00000120: 8e9e c13a 09b6 813b 1334 4dba 3491 333b
00000130: c011 fb3a f157 55b9 82ad c939 f6c6 323b
00000140: 41b4 6d38 4e18 a83a b564 db3a dc94 013a
00000150: ae56 723a 52c1 beba f440 e53a 88bc 2e39
00000160: 85ff bc3a 4809 513b 906a 833b d77e 983b
00000170: 4d15 3aba 238c a039 a5c0 3c3a d073 a63a
00000180: cd13 dd3a 83fd fb3a 7426 6e3b 5a84 c13a
00000190: 27e2 bd3a c1f0 e23a ddc5 ef3a 24c3 053a
000001a0: 6a48 e73a 34cd 123b 7120 a13a a509 bf3b
000001b0: f07e b03a 2497 5239 806b 523b 10c0 e23a
000001c0: 7252 3739 04fb c038 9a17 0238 37bd 0c3a
000001d0: 75e3 0cba 867b b33a 4e23 ac3b 288b f13a
000001e0: e26c cb39 ccc3 7d3a 9747 4aba 7a78 cfbd
000001f0: 9a32 5d3b 335f d33a 9777 e43a 575d 3ab9
00000200: 0336 53bc 8f7e 243c e29d 653c a95e 37bc
00000210: 5c69 b5bc ad71 e43a d285 893c 708b 43bc
00000220: 6fed 523c cba4 a4bc 6068 f53b b828 65bc
00000230: 0b1f 6e3c db19 e93b dbd9 0f3b b4c3 563c
00000240: c93f 2b3a 44c1 9abc 92eb 5abc cc40 ac3b
00000250: 4314 f33b bea8 8a3b d743 603c 44c0 b539
00000260: ee7b 54bc 091b 8fbc d088 913c c4b4 7cbc
00000270: 91df 8cbc 7951 1abb 1c52 be3b 93a7 463c
00000280: 8f2d 5abc ba2c 71bc ab86 a13c 7305 51bc
00000290: f107 5c3c 40db 37bc 8e4d 623c 2c3a 28bc
000002a0: 5c96 5d3c dc0d 82bc 1984 473c 4b9d b3bc
000002b0: e498 3bbc 2f6e 5b3b 5251 76bc c847 5fbc
000002c0: a9f7 d33b 3976 03bc 362d 36bb 1095 0f3c
000002d0: 9dc7 0b3c 365c 503c a225 bc3c fe1c 55bc
000002e0: 82ab 703c 5bdf fbbb 2be3 03bc f54b 173e
000002f0: c7c1 83bc cfce 583c b31d 64bc 5544 c83b
00000300: 99e7 f93a ffef fa3a adf1 1d3b 2dab a83a
00000310: 46c9 083c a6bc 803a b86f 663b 54eb ef3a
00000320: a0e6 ea3a ef3b b53b 97de 1e3b 24c0 963b
00000330: 33df 1e3b dfc7 9a3a 17da a43a 347e e33b
00000340: ab17 4e39 4654 343b db97 0a3b 1282 4e3a
00000350: e088 8c3a dd76 8f3b 65b7 103b c109 803a
00000360: 0c8f ec3a 6e0d 8e3b cd2d be3b 2d92 093c
00000370: db38 a83c 8826 453a 2434 5a3a 59c1 e03a
00000380: 63e0 0b3b 23e9 203b fc93 a53b c73e f23a
00000390: c7db ec3a 3333 0d3b e45b 183b ef9b 133b
000003a0: 25f0 123b 3c25 3b3b 4100 ca3a 913d 0e3c
000003b0: 89b5 d63a 8fc6 313b e361 b23b 49cf 0f3b
000003c0: 1e54 8b39 4a71 1a3a e9c1 a338 c6e3 293a
000003d0: bbea cc3a 4de2 dd3a 6b15 f93b 7de1 1a3b
000003e0: 8948 e53a d93f 913a f913 143b 37e1 273e
000003f0: d9f8 a03b 4842 053b d958 103b 72a9 ed3a
0.0018170056 0.0018644738 0.00226503 0.0012486764 0.0069061033 0.0009712621 0.0032124561 0.0017578962
0.0017156898 0.0048312196 0.0024128119 0.004198305 0.002278195 0.0011788284 0.001237602 0.0062403046
0.00019631091 0.0026117282 0.0020082372 0.00077788776 0.001059237 0.004348043 0.0020841016 0.0009687916
0.001724525 0.0038909558 0.0050795516 0.007201535 0.019155754 0.00074510876 0.00082242856 0.0016402098
0.0020236487 0.0023077487 0.004459533 0.001763561 0.00172647 0.0020829674 0.0021982328 0.002178407
0.002119976 0.0026536172 0.001480995 0.0071577597 0.001581953 0.0026557848 0.004884317 0.0020759439
0.0002642453 0.0005839251 7.805178e-05 0.0006382016 0.0015603185 0.0016209462 0.006377126 0.0022310475
0.0017298948 0.0010929907 0.00225052 0.14800102 0.004416909 0.0019328471 0.0020807406 0.0017991615
0.0015188486 0.0014462058 0.0019075288 0.0010451127 0.005690865 0.00029195345 0.0026920948 0.0014937308
0.0014771984 0.003958468 -0.0007827889 0.002739978 0.001915507 -0.00020346024 0.0003846698 0.0027279234
5.6673078e-05 0.0012824626 0.0016738387 0.0004943141 0.00092444837 -0.0014553464 0.0017490671 0.00016664166
0.0014419412 0.0031896401 0.004010506 0.0046537924 -0.0007098511 0.00030621988 0.0007200337 0.001269931
0.0016866863 0.0019225333 0.0036338838 0.0014764175 0.0014486954 0.0017314182 0.0018293221 0.00051026256
0.0017645482 0.0022400143 0.0012292993 0.005830007 0.0013465565 0.00020083465 0.0032107532 0.0017299671
0.00017482953 9.202029e-05 3.1016396e-05 0.00053687714 -0.000537447 0.0013693429 0.005253232 0.0018428313
0.000388003 0.000968036 -0.0007716356 -0.10130401 0.0033752085 0.0016126394 0.001743066 -0.00017773114
-0.012891295 0.01003994 0.014014693 -0.011192002 -0.022144966 0.0017428898 0.016787443 -0.0119351
0.012873991 -0.02009811 0.007489249 -0.013986759 0.014533768 0.007113678 0.002194992 0.013108183
0.0006532637 -0.018890984 -0.013361828 0.005256748 0.007418187 0.0042315414 0.013688049 0.0003466626
-0.012969 -0.017468946 0.017765433 -0.015423957 -0.017196449 -0.0023547097 0.005808128 0.012124914
-0.013316526 -0.014720136 0.019717535 -0.012757647 0.013429628 -0.011221707 0.013812436 -0.0102677755
0.013524618 -0.01587575 0.012177491 -0.02192559 -0.011450026 0.0033482423 -0.015034037 -0.013627954
0.0064687324 -0.008023792 -0.0027797944 0.008763567 0.008531478 0.012717297 0.022967163 -0.013007401
0.014689328 -0.007686538 -0.0080497665 0.14775069 -0.016083611 0.013232901 -0.0139230965 0.0061116614
0.0019066214 0.0019145011 0.0024100349 0.0012868397 0.008348769 0.0009821847 0.0035161804 0.0018304386
0.0017921515 0.0055308263 0.002424156 0.0046005417 0.0024241924 0.0011808834 0.0012577203 0.006942535
0.00019654508 0.0027516051 0.0021147642 0.00078776584 0.0010721944 0.0043781833 0.0022081968 0.0009768532
0.0018048002 0.004335097 0.0058037997 0.008396667 0.020534923 0.0007520695 0.00083238096 0.0017147466
0.0021343462 0.0024553023 0.0050530415 0.0018481844 0.001807087 0.002154541 0.002324813 0.0022523364
0.002242097 0.002855613 0.0015411453 0.008681671 0.0016381006 0.0027126407 0.005443798 0.002194362
0.00026574818 0.0005891515 7.808564e-05 0.0006480779 0.001563392 0.0016928405 0.00760143 0.0023632937
0.0017492931 0.001108165 0.0022594912 0.16394506 0.0049124775 0.0020333696 0.0022025614 0.0018132164

feature.2.weight_ih_l0 f4 [128, 64]
00000000: d2b2 c2b4 8a5e bd34 8d41 d534 150e a7b4
00000010: 6233 08b5 d6e9 8c34 18e6 e134 afba c9b4
00000020: 4856 a034 61a6 1db5 5566 0cb4 fde1 21b5
00000030: 94d4 d134 3616 a0b3 bced 8eb3 f4e5 3835
00000040: a86c 3b34 a344 ccb4 6e69 c5b4 4ee1 6434
00000050: 0a9a 5d34 14d2 29b4 1899 ce34 f4b1 03b4
00000060: 0c23 cab4 06e4 09b5 2c89 2b35 a6e0 3bb5
00000070: 3118 5cb5 78d2 34b3 4c68 97b3 ecae be34
00000080: 7ec5 dbb4 6384 b6b4 ca86 2335 26ef cab4
00000090: ebd8 c534 3bd7 b1b4 d85d aa34 2a9b 45b4
000000a0: eaca df34 b040 d7b4 e103 b634 6d6a 08b5
000000b0: 935f beb4 e4d3 6834 aeb4 1ab5 b81a dfb4
000000c0: 58bf c9b2 9c2e 9632 0102 5933 a24d 4934
000000d0: a161 d2b3 469c c234 22cc 0235 056e c5b4
000000e0: 6452 26b4 5c08 80b4 d0b1 2933 961c 4cb5
000000f0: 38e9 18b5 8854 ce34 2c0f d8b4 e8b3 73b2
00000100: d78c b0b4 d0ae a534 85a2 c134 8a99 96b4
00000110: 6d7f f5b4 009e 7d34 d2ef cd34 543b b4b4
00000120: 1d19 8e34 fc3e 0fb5 c874 f6b3 d2c2 0cb5
00000130: bcca be34 eacd 77b3 605c adb3 f2a7 2435
00000140: e6f6 2b34 527f b9b4 5a67 b3b4 a825 4a34
00000150: 6498 4634 ce1d 10b4 e8e8 b534 cfac 06b4
00000160: b479 b4b4 fee5 fab4 6bd3 1a35 eebd 26b5
00000170: f5dd 47b5 30ca c0b2 78f5 a8b3 eec5 a934
00000180: 1db2 c4b4 cb26 a6b4 4370 1235 8242 b4b4
00000190: 854e b034 a842 9fb4 6ed9 9a34 8991 2fb4
000001a0: 0002 c734 100e c4b4 acb3 a134 2a60 f5b4
000001b0: 8832 aab4 1318 3c34 9191 08b5 d375 c7b4
000001c0: 1011 05b3 34e2 c832 4c8f 4933 201c 3634
000001d0: f2c1 b6b3 c808 af34 e4e3 eb34 4c9f b3b4
000001e0: 32b2 1cb4 5f45 68b4 c82e e132 505d 37b5
000001f0: b7a1 06b5 018e ba34 9602 bfb4 9891 47b2
00000200: de9b a9b4 f698 9934 0c19 ba34 4dc3 8fb4
00000210: 13b1 e9b4 3d54 7134 45a3 c634 1cc9 aab4
00000220: 7f27 8734 756e 09b5 61b7 e5b3 789a 02b5
00000230: 0598 b734 0ae3 49b3 a617 c7b3 4007 1c35
00000240: 13f3 2434 f870 b1b4 71a4 acb4 e13f 3f34
00000250: 53ac 3e34 53aa 00b4 f438 ab34 3351 0cb4
00000260: bfe8 aab4 592f f1b4 1cd0 1335 12a6 1eb5
00000270: 5115 40b5 0080 fdb1 30ed b6b3 234b a034
00000280: d0a6 bab4 b93d a0b4 0e14 0b35 2e1e aab4
00000290: 1eb2 a634 71b2 98b4 2331 9534 3ce9 26b4
000002a0: b409 bc34 9ae5 bcb4 fa71 9834 56fc e8b4
000002b0: 485b a1b4 5c97 1c34 845c 01b5 3420 bdb4
000002c0: a2b3 1bb3 f4a5 ef32 acb8 4333 ad39 3034
000002d0: 801e a7b3 32c0 a634 bfb3 e034 eb47 adb4
000002e0: 729d 18b4 8bae 5fb4 e87d 9a32 f48d 33b5
000002f0: 2dd8 fdb4 0c95 b234 f4ec b3b4 7823 3cb2
00000300: 28c0 c2b4 b459 bd34 ad4b d534 2c14 a7b4
00000310: b432 08b5 d5e8 8c34 98ef e134 30be c9b4
00000320: 4366 a034 89a5 1db5 ee53 0cb4 c6dc 21b5
00000330: d0dc d134 cbe5 9fb3 507e 8fb3 cbe6 3835
00000340: c060 3b34 913e ccb4 6375 c5b4 60e0 6434
00000350: 64af 5d34 6abf 29b4 7da1 ce34 5fc5 03b4
00000360: 0727 cab4 c1e5 09b5 568a 2b35 aee8 3bb5
00000370: 2d09 5cb5 489f 33b3 0060 97b3 28b2 be34
00000380: a0c9 dbb4 988f b6b4 a888 2335 22f3 cab4
00000390: 25dd c534 5ce6 b1b4 106b aa34 c6b0 45b4
000003a0: 90cf df34 d046 d7b4 0205 b634 e468 08b5
000003b0: 1463 beb4 7c94 6834 a4bc 1ab5 c41e dfb4
000003c0: f823 c9b2 b408 9532 f415 5933 ba62 4934
000003d0: de49 d2b3 57a1 c234 aecb 0235 0b71 c5b4
000003e0: 8c18 26b4 e20f 80b4 1a69 2933 74f8 4bb5
000003f0: c9ec 18b5 d55b ce34 9a17 d8b4 40d2 72b2
-3.6265425e-07 3.527278e-07 3.9722036e-07 -3.111642e-07 -5.073872e-07 2.624717e-07 4.207693e-07 -3.7574998e-07
2.98651e-07 -5.872917e-07 -1.3075744e-07 -6.030603e-07 3.9083955e-07 -7.454621e-08 -6.655634e-08 6.887997e-07
1.7455261e-07 -3.80479e-07 -3.677082e-07 2.131612e-07 2.0638268e-07 -1.5815777e-07 3.848188e-07 -1.2265065e-07
-3.7650932e-07 -5.1368295e-07 6.3902075e-07 -6.9989835e-07 -8.199159e-07 -4.2100936e-08 -7.050457e-08 3.551753e-07
-4.0935623e-07 -3.3996466e-07 6.0918376e-07 -3.7799435e-07 3.6851938e-07 -3.312542e-07 3.1733248e-07 -1.8403503e-07
4.1684626e-07 -4.0093937e-07 3.3902964e-07 -5.081882e-07 -3.5459797e-07 2.1683769e-07 -5.7632394e-07 -4.1556427e-07
-2.3486493e-08 1.7483494e-08 5.0526072e-08 1.8747826e-07 -9.7966456e-08 3.624902e-07 4.8725826e-07 -3.677416e-07
-1.5489928e-07 -2.384794e-07 3.95101e-08 -7.603752e-07 -5.696379e-07 3.8431995e-07 -4.0244174e-07 -1.41853675e-08
-3.288503e-07 3.0860838e-07 3.60673e-07 -2.8051392e-07 -4.572752e-07 2.3619941e-07 3.8358718e-07 -3.357078e-07
2.6467833e-07 -5.3363306e-07 -1.147651e-07 -5.2437565e-07 3.5537767e-07 -5.7696447e-08 -8.072743e-08 6.1339153e-07
1.6015437e-07 -3.4551573e-07 -3.3416546e-07 1.8826415e-07 1.8495626e-07 -1.3421888e-07 3.388334e-07 -1.254259e-07
-3.3616163e-07 -4.673347e-07 5.7677124e-07 -6.2116203e-07 -7.4456267e-07 -2.2443686e-08 -7.86776e-08 3.1622716e-07
-3.663744e-07 -3.0948135e-07 5.45526e-07 -3.3576003e-07 3.2839685e-07 -2.9664557e-07 2.8842936e-07 -1.635109e-07
3.7068094e-07 -3.6518077e-07 3.0119315e-07 -4.5704775e-07 -3.1701734e-07 1.7517623e-07 -5.0875775e-07 -3.7152367e-07
-3.0981994e-08 2.338593e-08 4.6929287e-08 1.6960303e-07 -8.510314e-08 3.260268e-07 4.3937973e-07 -3.3457252e-07
-1.4593459e-07 -2.1631921e-07 2.6214721e-08 -6.83086e-07 -5.0154216e-07 3.474852e-07 -3.5578404e-07 -1.1616429e-08
-3.159211e-07 2.8609765e-07 3.4663424e-07 -2.6777926e-07 -4.352847e-07 2.247552e-07 3.6999168e-07 -3.1811294e-07
2.5174447e-07 -5.1197213e-07 -1.0697e-07 -4.8653555e-07 3.4197015e-07 -4.700545e-08 -9.270961e-08 5.812508e-07
1.536212e-07 -3.3051015e-07 -3.2157143e-07 1.78115e-07 1.775782e-07 -1.1982893e-07 3.189267e-07 -1.3068056e-07
-3.1834313e-07 -4.4924198e-07 5.5064606e-07 -5.910125e-07 -7.1556593e-07 -7.377821e-09 -8.5181796e-08 2.9856992e-07
-3.4766572e-07 -2.9847232e-07 5.181072e-07 -3.1686926e-07 3.1049507e-07 -2.844204e-07 2.7789164e-07 -1.5544805e-07
3.502479e-07 -3.5184786e-07 2.8395135e-07 -4.3396966e-07 -3.0055003e-07 1.4583696e-07 -4.819087e-07 -3.5227424e-07
-3.6252125e-08 2.7898729e-08 4.5569934e-08 1.641226e-07 -7.7820914e-08 3.105975e-07 4.1854034e-07 -3.2276088e-07
-1.4213381e-07 -2.0831992e-07 1.7985215e-08 -6.6889265e-07 -4.728221e-07 3.326353e-07 -3.3513754e-07 -1.0951105e-08
-3.6275128e-07 3.526926e-07 3.9729403e-07 -3.112085e-07 -5.073773e-07 2.624644e-07 4.2083843e-07 -3.7577547e-07
2.9876728e-07 -5.8727943e-07 -1.306905e-07 -6.029844e-07 3.9089946e-07 -7.4458136e-08 -6.6819325e-08 6.888119e-07
1.745093e-07 -3.8043484e-07 -3.677952e-07 2.1315782e-07 2.0646036e-07 -1.5808988e-07 3.8487988e-07 -1.2272129e-07
-3.7653828e-07 -5.1370813e-07 6.390377e-07 -7.000152e-07 -8.196974e-07 -4.182155e-08 -7.048948e-08 3.5519884e-07
-4.093863e-07 -3.400462e-07 6.0921093e-07 -3.7802334e-07 3.6855013e-07 -3.3136428e-07 3.1742866e-07 -1.8411365e-07
4.1688008e-07 -4.0098394e-07 3.3903785e-07 -5.0816584e-07 -3.5462347e-07 2.1660702e-07 -5.764398e-07 -4.1559372e-07
-2.3415836e-08 1.734984e-08 5.0544216e-08 1.87555e-07 -9.7923234e-08 3.6252706e-07 4.8725167e-07 -3.677636e-07
-1.5468885e-07 -2.3853414e-07 3.9443968e-08 -7.598494e-07 -5.696898e-07 3.8437307e-07 -4.0250308e-07 -1.4134059e-08

feature.2.weight_hh_l0 f4 [128, 32]
00000000: be76 8c31 1c0e 8531 cf53 83b1 40a1 8cb1
00000010: 51a0 8cb1 54cf 8131 598b 6431 f209 7c31
00000020: f217 7b31 de7d bb35 2470 8cb1 885e 7931
00000030: 9e8d 88b1 5723 86b1 b545 55b1 c0df 8c31
00000040: 51b2 7331 fe2a 8131 b69f 6b31 6c45 81b1
00000050: 5c17 78b1 6bb5 8b31 b60c 7b31 0143 6e31
00000060: 0fcc 73b1 10bc 7b31 3334 86b1 cb2e 7db1
00000070: ae8c 8bb1 d3a9 8c31 766f 6eb1 2fa2 82b1
00000080: c3c9 7d31 b6c2 7031 b0ee 6db1 0121 7eb1
00000090: 1919 7eb1 cdfa 6a31 ac12 5031 6ea7 6431
000000a0: 54b7 6331 8542 aa35 c1a1 7db1 0032 6231
000000b0: ccfd 76b1 a4cd 72b1 c8fb 42b1 946d 7e31
000000c0: c950 5d31 041c 6a31 a279 5631 0f4b 6ab1
000000d0: 2712 61b1 9685 7c31 5db1 6331 ce45 5831
000000e0: 9e66 5db1 3848 6431 83f0 72b1 208f 65b1
000000f0: f628 7cb1 082b 7e31 64cb 58b1 9fb3 6cb1
00000100: 75cf 7031 90db 6431 4b78 62b1 4d2d 71b1
00000110: 381f 71b1 7176 5f31 9212 4731 f2fc 5931
00000120: 9e04 5931 0d82 a235 7b8b 70b1 059d 5731
00000130: 86a8 6ab1 80df 66b1 f32c 3bb1 b04e 7131
00000140: 4739 5331 66ed 5e31 9425 4d31 5019 5fb1
00000150: d393 56b1 2ab7 6f31 1e03 5931 4351 4e31
00000160: 504c 53b1 7a8a 5931 2e05 67b1 66b8 5ab1
00000170: 1d4b 6fb1 c230 7131 2f27 4fb1 bd53 61b1
00000180: 1e6b 8c31 4f03 8531 6849 83b1 a195 8cb1
00000190: b294 8cb1 dfc4 8131 ba79 6431 34f6 7b31
000001a0: 3e04 7b31 d168 bb35 6b64 8cb1 f14a 7931
000001b0: 8482 88b1 8f18 86b1 7634 55b1 08d4 8c31
000001c0: 689f 7331 c920 8131 818d 6b31 293b 81b1
000001d0: f703 78b1 f3a9 8b31 00f9 7a31 8230 6e31
000001e0: 2eb9 73b1 5ba8 7b31 6629 86b1 e81a 7db1
000001f0: 2381 8bb1 339e 8c31 185d 6eb1 d297 82b1
00000200: a3ab 8c31 6f3e 8531 1782 83b1 04d6 8cb1
00000210: 37d5 8cb1 0bfe 8131 87d1 6431 635f 7c31
00000220: d36d 7b31 f4b0 bb35 8da5 8cb1 6ab3 7931
00000230: bebf 88b1 ba53 86b1 e17e 55b1 4f15 8d31
00000240: a902 7431 1558 8131 74e8 6b31 8d72 81b1
00000250: 766b 78b1 95e9 8b31 7262 7b31 bb92 6e31
00000260: 9b1c 74b1 7612 7c31 8464 86b1 f485 7db1
00000270: 21c1 8bb1 b7de 8c31 97bb 6eb1 16d0 82b1
00000280: cc9b 7031 6792 6431 271f 62b1 04f7 70b1
00000290: 78ea 70b1 af28 5f31 618e 4631 1794 5931
000002a0: d09f 5831 817d a235 c95e 70b1 6636 5731
000002b0: 9f64 6ab1 bc91 66b1 a09c 3ab1 2d21 7131
000002c0: 00c7 5231 4590 5e31 faa0 4c31 53bc 5eb1
000002d0: a02b 56b1 867d 6f31 759d 5831 91e5 4d31
000002e0: 57da 52b1 5426 5931 5cb6 66b1 c155 5ab1
000002f0: 0916 6fb1 f7fb 7031 76aa 4eb1 5af9 60b1
00000300: f9a5 3131 46c4 2931 b39c 28b1 2303 32b1
00000310: 48ea 31b1 1efb 2531 2d3e 1631 0207 2331
00000320: 3c27 2231 9aa4 6d35 de32 31b1 4832 2131
00000330: bdc5 2db1 c864 2bb1 f734 0eb1 72c4 3131
00000340: 556f 1e31 cc2e 2631 5eb8 1a31 704d 26b1
00000350: ef7e 20b1 3013 3131 5f2e 2231 0d98 1a31
00000360: 507a 1eb1 7d82 2231 b889 2bb1 e94f 23b1
00000370: 0098 30b1 f4f7 3131 6ad8 1bb1 c3d2 27b1
00000380: 9d33 5c31 fca2 5131 28b6 4fb1 3393 5cb1
00000390: 5b80 5cb1 5bc8 4c31 ba77 3731 c93c 4831
000003a0: 1348 4731 7ebf 9435 ecda 5bb1 a907 4631
000003b0: d4d6 56b1 ce8b 53b1 e403 2db1 9c8e 5c31
000003c0: 5d39 4231 508c 4c31 7005 3d31 b6b3 4cb1
000003d0: 441c 45b1 6d4b 5b31 4b4a 4731 91a2 3d31
000003e0: 6549 42b1 56bf 4731 15b2 53b1 05cc 48b1
000003f0: fad6 5ab1 f590 5c31 9eb0 3eb1 61b0 4eb1
4.0880357e-09 3.8724135e-09 -3.8221297e-09 -4.0928683e-09 -4.092762e-09 3.7779646e-09 3.3257577e-09 3.667648e-09
3.6538919e-09 1.3969218e-06 -4.087285e-09 3.6288004e-09 -3.974221e-09 -3.903931e-09 -3.1035203e-09 4.0999737e-09
3.5462515e-09 3.7592818e-09 3.4287786e-09 -3.7622865e-09 -3.6102028e-09 4.0660573e-09 3.6532533e-09 3.4671646e-09
-3.5477148e-09 3.6632208e-09 -3.9058476e-09 -3.6842944e-09 -4.061426e-09 4.093843e-09 -3.4696916e-09 -3.801936e-09
3.6931034e-09 3.5035277e-09 -3.4623717e-09 -3.6980625e-09 -3.697613e-09 3.4194045e-09 3.0278597e-09 3.327354e-09
3.3137058e-09 1.2685347e-06 -3.6908292e-09 3.291575e-09 -3.5941978e-09 -3.5332528e-09 -2.8373837e-09 3.7024153e-09
3.2205654e-09 3.4067407e-09 3.1210239e-09 -3.4094148e-09 -3.2752128e-09 3.6746761e-09 3.3133667e-09 3.1471816e-09
-3.2218064e-09 3.3219418e-09 -3.535235e-09 -3.3405243e-09 -3.669411e-09 3.6986325e-09 -3.154775e-09 -3.4444623e-09
3.5042522e-09 3.3303174e-09 -3.2955707e-09 -3.5095866e-09 -3.5087862e-09 3.2518097e-09 2.8968867e-09 3.1721439e-09
3.158028e-09 1.210779e-06 -3.5003882e-09 3.1375873e-09 -3.4147276e-09 -3.359645e-09 -2.7237632e-09 3.5114844e-09
3.07371e-09 3.2440197e-09 2.9852787e-09 -3.246516e-09 -3.1225127e-09 3.4883194e-09 3.1579428e-09 3.0023137e-09
-3.074792e-09 3.165637e-09 -3.3617868e-09 -3.1827994e-09 -3.4821774e-09 3.5097831e-09 -3.0144738e-09 -3.278941e-09
4.086714e-09 3.8711856e-09 -3.820947e-09 -4.091547e-09 -4.091441e-09 3.776776e-09 3.324756e-09 3.6665257e-09
3.6527719e-09 1.3963091e-06 -4.0859525e-09 3.6276868e-09 -3.972959e-09 -3.9027053e-09 -3.10254e-09 4.0986414e-09
3.5451766e-09 3.7581214e-09 3.4277436e-09 -3.76112e-09 -3.6091004e-09 4.0647534e-09 3.6521328e-09 3.4661132e-09
-3.5466416e-09 3.6621006e-09 -3.9046197e-09 -3.683164e-09 -4.0601136e-09 4.0925214e-09 -3.4686476e-09 -3.800758e-09
4.094049e-09 3.8779073e-09 -3.8273913e-09 -4.098867e-09 -4.098776e-09 3.7832755e-09 3.329747e-09 3.6725047e-09
3.6587735e-09 1.3984086e-06 -4.093357e-09 3.6336254e-09 -3.9799195e-09 -3.909432e-09 -3.1067702e-09 4.1060626e-09
3.5508185e-09 3.764408e-09 3.4329135e-09 -3.767417e-09 -3.6149834e-09 4.0719876e-09 3.6581267e-09 3.4716965e-09
-3.5522933e-09 3.668132e-09 -3.9113406e-09 -3.689249e-09 -4.0673886e-09 4.099856e-09 -3.474019e-09 -3.8071546e-09
3.5013157e-09 3.3261587e-09 -3.2905036e-09 -3.5065009e-09 -3.5057877e-09 3.2473897e-09 2.8893725e-09 3.1661835e-09
3.152298e-09 1.2106467e-06 -3.4978476e-09 3.131754e-09 -3.4108678e-09 -3.3552245e-09 -2.7155593e-09 3.5088974e-09
3.067214e-09 3.238726e-09 2.9777412e-09 -3.2412302e-09 -3.1165897e-09 3.485043e-09 3.152164e-09 2.996192e-09
-3.0683134e-09 3.1599443e-09 -3.3573064e-09 -3.177192e-09 -3.4791603e-09 3.5067822e-09 -3.0073841e-09 -3.273803e-09
2.5851234e-09 2.4704305e-09 -2.453629e-09 -2.5904192e-09 -2.5890063e-09 2.4153404e-09 2.1863216e-09 2.3723605e-09
2.3596405e-09 8.8528907e-07 -2.5785805e-09 2.3457165e-09 -2.5287215e-09 -2.4941063e-09 -2.0693827e-09 2.5868556e-09
2.305531e-09 2.418278e-09 2.251475e-09 -2.4200197e-09 -2.3355218e-09 2.5767797e-09 2.3600462e-09 2.249638e-09
-2.3061553e-09 2.3648277e-09 -2.496206e-09 -2.3765045e-09 -2.5697773e-09 2.5897835e-09 -2.2678486e-09 -2.4421503e-09
3.2043552e-09 3.0506149e-09 -3.0226008e-09 -3.2097887e-09 -3.2087175e-09 2.9799796e-09 2.6698062e-09 2.9138383e-09
2.899928e-09 1.1082591e-06 -3.1993137e-09 2.8817146e-09 -3.1263214e-09 -3.078401e-09 -2.5177025e-09 3.2095278e-09
2.8263323e-09 2.9765665e-09 2.750621e-09 -2.978806e-09 -2.868334e-09 3.191157e-09 2.9000542e-09 2.7595528e-09
-2.8272436e-09 2.9067073e-09 -3.080577e-09 -2.9219802e-09 -3.1845375e-09 3.2096612e-09 -2.7749034e-09 -3.0077205e-09

feature.2.bias_ih_l0 f4 [128]
00000000: c115 0c35 ec53 0435 1511 0235 a230 0c35
00000010: 5e37 0c35 c6a2 0035 da24 da34 94c6 f734
00000020: 4a25 f734 d7f6 c73e c720 0c35 fc29 f534
00000030: a1dd 0735 452d 0535 9dc5 c034 8c80 0c35
00000040: cdec ed34 5854 ff34 01c7 e134 ae8f ff34
00000050: a9ac f334 c842 0b35 59f6 f634 1609 e934
00000060: f70e ee34 46e1 f734 c638 0535 3984 f934
00000070: 2e27 0b35 f341 0c35 1ae2 e534 f84d 0135
00000080: f641 4f35 da0f 4235 460d 3f35 a145 4f35
00000090: 6c57 4f35 37f0 3d35 bf22 1e35 a01a 3535
000000a0: b465 3535 8334 04be e16d 4f35 7ee1 3335
000000b0: 3390 4835 8f36 4435 567b 0635 245c 5035
000000c0: 85bc 2d35 507f 3b35 8b1e 2335 74a8 3b35
000000d0: 3db8 3235 1ae1 4d35 7942 3535 040a 2b35
000000e0: 79dd 2d35 6ff4 3535 7936 4435 1935 3735
000000f0: 4803 4e35 0c93 4f35 0fd6 2735 eaed 3d35
00000100: 0406 3fba 2a74 36ba f563 323a df1b 3f3a
00000110: 9f34 3f3a 03ac 31ba c2b3 19ba 2511 2bba
00000120: b3b1 2aba c42b 9cbd ff81 3f3a 4689 29ba
00000130: c6b8 393a 9965 363a c6a0 0a3a 92b2 3fba
00000140: cd22 25ba 4792 2fba 7314 1eba 2ab5 2f3a
00000150: 51ab 283a 72c9 3dba 0c9d 2aba 4d6e 22ba
00000160: 273a 253a 4b20 2bba 5d65 363a 9919 2c3a
00000170: 94d2 3d3a 4918 3fba 1dd2 203a ce7e 313a
00000180: f79d 0b35 cce4 0335 58a7 0135 d4b8 0b35
00000190: 68bf 0b35 7337 0035 6382 d934 ff01 f734
000001a0: a15f f634 e661 d03e b5a7 0b35 9166 f434
000001b0: 976b 0735 c9be 0435 8e46 c034 f106 0c35
000001c0: b033 ed34 5686 fe34 4b1f e134 ccc0 fe34
000001d0: 28eb f234 7ccc 0a35 c630 f634 4251 e834
000001e0: c455 ed34 2a1a f734 5cca 0435 24bc f834
000001f0: 37b0 0a35 34ca 0b35 5532 e534 ece4 0035
5.218572e-07 4.9295954e-07 4.845363e-07 5.2224834e-07 5.2234634e-07 4.792058e-07 4.0632477e-07 4.615182e-07
4.6034467e-07 0.3905551 5.220176e-07 4.5665354e-07 5.061393e-07 4.9612237e-07 3.590657e-07 5.2341125e-07
4.4316985e-07 4.755882e-07 4.205431e-07 4.7601992e-07 4.5387904e-07 5.1878715e-07 4.6000312e-07 4.3406243e-07
4.4341843e-07 4.6171243e-07 4.962898e-07 4.647607e-07 5.183855e-07 5.2250033e-07 4.2819084e-07 4.8169704e-07
7.7209495e-07 7.22937e-07 7.117236e-07 7.721483e-07 7.7240725e-07 7.0757545e-07 5.891015e-07 6.74665e-07
6.757575e-07 -0.12910657 7.7273404e-07 6.701083e-07 7.4715643e-07 7.3095083e-07 5.009837e-07 7.762012e-07
6.4721854e-07 6.984819e-07 6.076668e-07 6.990806e-07 6.657827e-07 7.6696017e-07 6.7524485e-07 6.371704e-07
6.476981e-07 6.778345e-07 7.309496e-07 6.825008e-07 7.6745755e-07 7.732749e-07 6.2523844e-07 7.07542e-07
-0.0007286968 -0.0006960059 0.0006805056 0.0007290225 0.0007293913 -0.0006777646 -0.0005863273 -0.0006525687
-0.00065114646 -0.07625535 0.00073054427 -0.0006467294 0.00070847233 0.0006957888 0.00052882393 -0.0007312681
-0.0006299436 -0.0006697517 -0.0006030269 0.0006702716 0.00064342195 -0.00072397955 -0.0006508387 -0.00061962457
0.0006302916 -0.00065279444 0.00069578533 0.00065650936 0.00072411564 -0.00072896905 0.0006134825 0.00067709095
5.2011404e-07 4.9134246e-07 4.829976e-07 5.2050495e-07 5.206007e-07 4.7764405e-07 4.0514269e-07 4.6008788e-07
4.589065e-07 0.4069969 5.202558e-07 4.5523169e-07 5.0447983e-07 4.945146e-07 3.5814122e-07 5.2164165e-07
4.4182298e-07 4.740893e-07 4.1932284e-07 4.7451465e-07 4.524711e-07 5.170657e-07 4.5856558e-07 4.327249e-07
4.4207093e-07 4.6026372e-07 4.9468304e-07 4.633049e-07 5.166543e-07 5.207578e-07 4.2691195e-07 4.801684e-07

feature.2.bias_hh_l0 f4 [128]
00000000: c115 0c35 ec53 0435 1511 0235 a230 0c35
00000010: 5e37 0c35 c6a2 0035 da24 da34 94c6 f734
00000020: 4a25 f734 d7f6 c73e c720 0c35 fc29 f534
00000030: a1dd 0735 452d 0535 9dc5 c034 8c80 0c35
00000040: cdec ed34 5854 ff34 01c7 e134 ae8f ff34
00000050: a9ac f334 c842 0b35 59f6 f634 1609 e934
00000060: f70e ee34 46e1 f734 c638 0535 3984 f934
00000070: 2e27 0b35 f341 0c35 1ae2 e534 f84d 0135
00000080: f641 4f35 da0f 4235 460d 3f35 a145 4f35
00000090: 6c57 4f35 37f0 3d35 bf22 1e35 a01a 3535
000000a0: b465 3535 8334 04be e16d 4f35 7ee1 3335
000000b0: 3390 4835 8f36 4435 567b 0635 245c 5035
000000c0: 85bc 2d35 507f 3b35 8b1e 2335 74a8 3b35
000000d0: 3db8 3235 1ae1 4d35 7942 3535 040a 2b35
000000e0: 79dd 2d35 6ff4 3535 7936 4435 1935 3735
000000f0: 4803 4e35 0c93 4f35 0fd6 2735 eaed 3d35
00000100: 0406 3fba 2a74 36ba f563 323a df1b 3f3a
00000110: 9f34 3f3a 03ac 31ba c2b3 19ba 2511 2bba
00000120: b3b1 2aba 1c55 d9bc ff81 3f3a 4689 29ba
00000130: c6b8 393a 9965 363a c6a0 0a3a 92b2 3fba
00000140: cd22 25ba 4792 2fba 7314 1eba 2ab5 2f3a
00000150: 51ab 283a 72c9 3dba 0c9d 2aba 4d6e 22ba
00000160: 273a 253a 4b20 2bba 5d65 363a 9919 2c3a
00000170: 94d2 3d3a 4918 3fba 1dd2 203a ce7e 313a
00000180: f79d 0b35 cce4 0335 58a7 0135 d4b8 0b35
00000190: 68bf 0b35 7337 0035 6382 d934 ff01 f734
000001a0: a15f f634 e661 d03e b5a7 0b35 9166 f434
000001b0: 976b 0735 c9be 0435 8e46 c034 f106 0c35
000001c0: b033 ed34 5686 fe34 4b1f e134 ccc0 fe34
000001d0: 28eb f234 7ccc 0a35 c630 f634 4251 e834
000001e0: c455 ed34 2a1a f734 5cca 0435 24bc f834
000001f0: 37b0 0a35 34ca 0b35 5532 e534 ece4 0035
5.218572e-07 4.9295954e-07 4.845363e-07 5.2224834e-07 5.2234634e-07 4.792058e-07 4.0632477e-07 4.615182e-07
4.6034467e-07 0.3905551 5.220176e-07 4.5665354e-07 5.061393e-07 4.9612237e-07 3.590657e-07 5.2341125e-07
4.4316985e-07 4.755882e-07 4.205431e-07 4.7601992e-07 4.5387904e-07 5.1878715e-07 4.6000312e-07 4.3406243e-07
4.4341843e-07 4.6171243e-07 4.962898e-07 4.647607e-07 5.183855e-07 5.2250033e-07 4.2819084e-07 4.8169704e-07
7.7209495e-07 7.22937e-07 7.117236e-07 7.721483e-07 7.7240725e-07 7.0757545e-07 5.891015e-07 6.74665e-07
6.757575e-07 -0.12910657 7.7273404e-07 6.701083e-07 7.4715643e-07 7.3095083e-07 5.009837e-07 7.762012e-07
6.4721854e-07 6.984819e-07 6.076668e-07 6.990806e-07 6.657827e-07 7.6696017e-07 6.7524485e-07 6.371704e-07
6.476981e-07 6.778345e-07 7.309496e-07 6.825008e-07 7.6745755e-07 7.732749e-07 6.2523844e-07 7.07542e-07
-0.0007286968 -0.0006960059 0.0006805056 0.0007290225 0.0007293913 -0.0006777646 -0.0005863273 -0.0006525687
-0.00065114646 -0.026529841 0.00073054427 -0.0006467294 0.00070847233 0.0006957888 0.00052882393 -0.0007312681
-0.0006299436 -0.0006697517 -0.0006030269 0.0006702716 0.00064342195 -0.00072397955 -0.0006508387 -0.00061962457
0.0006302916 -0.00065279444 0.00069578533 0.00065650936 0.00072411564 -0.00072896905 0.0006134825 0.00067709095
5.2011404e-07 4.9134246e-07 4.829976e-07 5.2050495e-07 5.206007e-07 4.7764405e-07 4.0514269e-07 4.6008788e-07
4.589065e-07 0.4069969 5.202558e-07 4.5523169e-07 5.0447983e-07 4.945146e-07 3.5814122e-07 5.2164165e-07
4.4182298e-07 4.740893e-07 4.1932284e-07 4.7451465e-07 4.524711e-07 5.170657e-07 4.5856558e-07 4.327249e-07
4.4207093e-07 4.6026372e-07 4.9468304e-07 4.633049e-07 5.166543e-07 5.207578e-07 4.2691195e-07 4.801684e-07
