Code/CNN/Outputs/best_model.pth (torch, 22818 bytes, 15 tensors)

feature.0.weight f4 [16, 5, 3]
00000000: 2f47 5bbe 5929 643d f32b 253d e47d d53d
00000010: dfdd 4c3d 8fe7 25bc f783 debc 9be2 7d3c
00000020: 7304 28be 63b8 db3d 212b 413d dabe 913d
00000030: bda4 073e 9749 fa3d b9bb 523e cbeb 463b
00000040: c937 18be 932b 1abd fc6b 0a3e 9e98 4abe
00000050: 3517 0cbd 3ebb a73c d8b3 333e 6fcc fc3d
00000060: dea1 d43c b03e a9bd 5e15 26be aded 843c
00000070: a579 6c3e 3b1b 503e 36dc 163e 8322 bd3b
00000080: e1a8 8a3d fa33 3b3e 101a 24be 43fa 263e
00000090: 5ff9 5cbe b087 55bc 95a4 aabd 3b87 2a3d
000000a0: 8199 5ebb fc77 b5bd 7cd5 063e 9f75 14be
000000b0: 7918 953d e29a 0ebe 86e3 b33d 6675 c43c
000000c0: cd07 d83d fb44 313e d6da b63d 53d1 ea3c
000000d0: 2b3e 54be 0b3b a2bd 6d64 56bd 4a38 93bc
000000e0: 75f6 ecbd a576 7fbe ae32 35bd abb8 92be
000000f0: 8738 2a3d f06a cf3d 5f04 2cbd d1ab f93d
00000100: 8f57 22bd 16a7 b13d 895d 4cbe a347 6d3d
00000110: 365b 8e3d 1f72 87bd c93b 12bd f609 293e
00000120: 4632 0abe 9eb3 b13d 5e2d 063e 16eb c93d
00000130: 86a3 22bb 192a 2b3e 5160 5bbe 6d2e b33d
00000140: 17a2 453e 4495 b23d 7d7f bbbd 1fdc 813d
00000150: 2d64 1abd 287c e43c 1cef f4bb 4d26 60bd
00000160: d25e 073c eab2 69be 5c5b ac3d 3def 1b3e
00000170: 705a 153c dfd4 f43d 2323 d63d 2026 e0bc
00000180: 5e66 a4bd 278c a73d aed8 10be 95cd 063e
00000190: d2eb 3fbd 26f6 2cbd b2af f63d be4d 6cbd
000001a0: 5cc6 853c c985 a33d ef49 c3bd dbd1 ef3c
000001b0: 761b b1bd 6038 c8bb 6a36 04be ef81 babd
000001c0: e022 143e cef5 103e 7696 d13d c2f2 d33d
000001d0: 34fc c4bc ca65 64be b9ab 20be e867 603e
000001e0: 591e 99bd 6aa2 bdbd eb07 203e d01f 57bd
000001f0: 6a2c 503d 2b89 bebd cad0 0abe 5cb0 84ba
00000200: b5c2 00bd 9af4 973b 4e19 5abe d21a ff3d
00000210: 0cfe b43d d1de b5bd b243 1bbe 6d8b c53c
00000220: 992f b03c 1853 c53d 29d0 19be 52df 0ebd
00000230: a889 b6bd bf61 2b3d dd61 5ebd 4c05 82bd
00000240: 889f f63d 2e19 593d c091 9ebd fdec 083d
00000250: cb3d 68bc 9af4 e33d 9c56 bd3c 8e3e 5cbc
00000260: 4754 bd3c 6c35 29be c5cb 153e f4de 0cbe
00000270: d2d7 9b3d 0312 233e b71f 08be 2e79 163d
00000280: 1475 7fbd f09b 2fbd d51f 85be 3d33 0b3e
00000290: 7dd7 193e d796 fdbd 3045 78bd 6147 de3d
000002a0: c911 24bd 36f2 9abd 81bf f13d 4de8 023e
000002b0: 96de 183b 15a7 90bd 7639 083e 4d48 063d
000002c0: 1e73 15be 23bf 983c 7c2c 673e 0405 663e
000002d0: 6f25 f1bd 53b7 15be c97e ba3d 5fc9 aabd
000002e0: 9a8d 2f3d 19ce d93d 38b7 dc3d 4206 da3d
000002f0: d8a9 88bd 1ef6 52bb 4d61 2abd f58c 853d
00000300: c998 76bd a532 e7bc b939 eabd 1b96 bebd
00000310: 4cf0 10bd 7111 32be bc05 973d de86 07be
00000320: 994b dd3c a11d e2b9 9788 ca3d aee2 503d
00000330: 2383 1ebe 70c4 cd3d aa05 b63d bab7 6c3e
00000340: 6b58 493e 4263 e43d 6eeb 22bd 05bc ce3c
00000350: b9d4 a03d 1bc5 123e abfa 1b3e e803 2ebe
00000360: 75a4 53be 0f12 0abc b1a3 e5bd 9711 0ebe
00000370: 225f 2c3c 8c7c ba3d 0ef7 abbd ebdc 6abd
00000380: a093 203e 976c 03be 0fc0 753d 8ee5 533e
00000390: e7c9 76bc 9a0e 143c f320 b8bc 5543 1a3e
000003a0: 107d 0dbe 6f4f 413d ede9 aabc d818 15be
000003b0: 4a98 0fbe 05f0 d5bd c6fa 2dbe 7fd7 5dbe
-0.21413873 0.055703495 0.040325116 0.10424402 0.05001628 -0.010126009 -0.027162535 0.0154959215
-0.16407947 0.10728528 0.04716027 0.0711648 0.13246436 0.122210674 0.20579423 0.0030352946
-0.1486503 -0.037639212 0.13517755 -0.19784781 -0.03420182 0.020475026 0.17549074 0.1234368
0.02595609 -0.0826391 -0.16219088 0.016226614 0.23093279 0.20322888 0.14732441 0.0057719364
0.06770492 0.18281546 -0.16025567 0.16306405 -0.21579503 -0.013032839 -0.08332173 0.041632872
-0.0033966007 -0.08860776 0.13167375 -0.14497994 0.072800584 -0.1392627 0.08783631 0.023981761
0.10548363 0.1731147 0.089284584 0.028664267 -0.2072684 -0.07921418 -0.052341867 -0.017971177
-0.115704454 -0.24947603 -0.044237785 -0.28656515 0.041557815 0.101278186 -0.041996356 0.121909745
-0.039634284 0.08674447 -0.19957556 0.057929646 0.06950991 -0.06613564 -0.035701547 0.16507706
-0.1349574 0.086768374 0.13103244 0.09859292 -0.0024816706 0.16715278 -0.2142346 0.087490894
0.19300114 0.087198764 -0.09155176 0.06340813 -0.03769319 0.027891234 -0.007474793 -0.054724026
0.008262353 -0.22822157 0.08415863 0.15227981 0.0091158 0.119546644 0.104559205 -0.02736193
-0.080273375 0.08181029 -0.14145157 0.13164361 -0.046855755 -0.042226933 0.1204523 -0.05769133
0.016329937 0.07984502 -0.09535586 0.029274872 -0.08647816 -0.006110236 -0.12911382 -0.09106814
0.14466429 0.14156267 0.10233776 0.10349037 -0.024046041 -0.22304454 -0.15690507 0.21914637
-0.074764915 -0.09259494 0.1562802 -0.052520573 0.050823607 -0.093035065 -0.13556209 -0.001012336
-0.031435687 0.004637313 -0.21298715 0.124562874 0.08837518 -0.088803895 -0.15162542 0.024114335
0.021507071 0.096349895 -0.15020813 -0.034880944 -0.089129746 0.041841265 -0.05429255 -0.063486665
0.12042147 0.05300253 -0.07742643 0.033429135 -0.014174889 0.111306384 0.023112588 -0.013442649
0.023111476 -0.16524285 0.14628513 -0.13756925 0.07609524 0.1592484 -0.13293348 0.03673666
-0.062367514 -0.042873323 -0.26000848 0.13593765 0.15023609 -0.12382286 -0.060612857 0.10853458
-0.040056024 -0.07565729 0.118041046 0.12783928 0.002332603 -0.07063118 0.1330317 0.032783795
-0.14594695 0.018645829 0.22575563 0.22462851 -0.11774718 -0.14620714 0.091062136 -0.0833919
0.04285965 0.10635013 0.10777134 0.10645725 -0.0667302 -0.0032190154 -0.0415967 0.06521026
-0.0602043 -0.028222391 -0.11436791 -0.09305974 -0.035385415 -0.17389466 0.073741406 -0.13235041
0.027013587 -0.00043128154 0.09889334 0.05099743 -0.15479712 0.10047233 0.08887799 0.23116961
0.19662635 0.111517444 -0.039775304 0.02523614 0.078530736 0.14333002 0.15232341 -0.16993678
-0.20668204 -0.008427157 -0.11212862 -0.13873897 0.010520728 0.09105787 -0.08396731 -0.05733959
0.15681314 -0.12834392 0.059997614 0.20693037 -0.015062786 0.009036684 -0.022476649 0.15064748
-0.13817239 0.047194894 -0.020863498 -0.14560258 -0.14022937 -0.10446171 -0.16990194 -0.21664236

feature.0.bias f4 [16]
00000000: 10c5 a53d 5451 4f3d e2bb 0fbe 995b 633e
00000010: 48cc 853d 1d14 d0bd 0b64 043e d732 16bd
00000020: 1310 373e eab4 0dbe d5ae 4b3d 9c21 913d
00000030: 520c 2e3d 38aa 1fbe be8b f63d c4bc 273e
0.08094227 0.05061467 -0.14036515 0.2220291 0.06533104 -0.10160086 0.12928788 -0.03666958
0.17877226 -0.13838544 0.04972728 0.070864886 0.04249222 -0.15592277 0.120383725 0.16380602

feature.2.weight f4 [16]
00000000: 4cb7 3c3f ef6f 2e3f c0ca 043f 2c75 3f3f
00000010: c0de 293f 7e4c 1a3f b04b 1f3f be17 3b3f
00000020: f673 2a3f 57fa 0b3f e504 2a3f 5115 393f
00000030: 5861 1b3f 61c6 533f b508 2a3f 96a4 553f
0.7371719 0.6813955 0.5187187 0.74788165 0.66355515 0.6027297 0.62224865 0.730831
0.6658319 0.54678863 0.6641372 0.7229815 0.6069541 0.8272458 0.66419536 0.83454263

feature.2.bias f4 [16]
00000000: 0d3b 2fbd 60ba e1bc b55e 81ba 072f 4f3b
00000010: 96b6 c4bc 1519 e1bc e63d e9bc fa8f 0d3d
00000020: 27b6 59bc 40a8 06bb 7586 76bd 2b4f d0bc
00000030: 8140 a73c 5c15 63bc 6724 67bd 94b4 8f3c
-0.042780925 -0.02755469 -0.0009870144 0.0031613724 -0.024012845 -0.02747778 -0.028471898 0.034561135
-0.013288057 -0.0020547062 -0.060186822 -0.025428375 0.0204165 -0.013860073 -0.0564312 0.017542161

feature.2.running_mean f4 [16]
00000000: 6b93 613e bc93 043e 76ae e0bd 50c6 233d
00000010: 3e18 1e3e de78 b2bd b2d3 8b3e f1da 4abd
00000020: 8073 023d c752 0abe 5b19 0f3d 8077 473e
00000030: 0659 5dbb dbf8 6ebd 766f 9b3d 8ece 4d3b
0.22028892 0.12946981 -0.10970776 0.039984047 0.15438935 -0.0871446 0.27309948 -0.049525205
0.03184843 -0.1350814 0.03493629 0.1947918 -0.0033774986 -0.058342796 0.07589619 0.0031403634

feature.2.running_var f4 [16]
00000000: d363 9d3d 6d36 0d3d 682d 2d3d 9580 5a3d
00000010: 695f 863d c660 bf3c ed18 ee3d 8084 b43c
00000020: 264e 143d 5312 a13c 7d9c 1b3d 77f7 833d
00000030: 8710 063c f066 c43c d01e eb3c 2715 1f3d
0.076850556 0.034475733 0.04227963 0.05334528 0.06561167 0.023361575 0.11625848 0.022035837
0.03620734 0.019662058 0.037991036 0.064436845 0.008182651 0.023974866 0.028701216 0.03883853

feature.6.weight f4 [32, 16, 3]
00000000: 8724 87bd d311 0c3e 9476 c33d e18a ae38
00000010: e76d c73b f6a9 8e3d 3a92 bdbd e78b bebd
00000020: 15a6 0ebc 43e1 a73c 66cf 8abd a982 fc3c
00000030: 428c e63c 28a4 cc3d 9267 e2bd 6aff d83d
00000040: d1f9 a8bd bc5a 29bd 0b6e 073d 5ace 90bd
00000050: 9ccf 91bd 1eff 4e3d 040d ac3b 0057 dabd
00000060: e499 3b3d 465d c1bd 3ccc 543d 6e5a 013c
00000070: 547c d4bc f195 4ebd 06d1 abbc 2322 833b
00000080: a280 c1bd 33a1 ca3d ac17 f13d 4110 20bd
00000090: 2d12 19bd d67e 5fbc ff55 d9bc 7bc3 b53b
000000a0: c3d7 f9bb c6e8 003e acad c83a 946e 613d
000000b0: 3850 92bd 55a3 4bbd e892 00be 94a7 a1bd
000000c0: add4 3dbd 9da3 a3bc c00d 303d fe71 643d
000000d0: 9284 91bc 8b6c c13c f0a8 b23c 6241 323c
000000e0: 3aea 3abd aa69 de3c dda7 823c 2d4f 7b3c
000000f0: 9f5e 0e3d 92e4 0ebd bef9 9bbd 3d20 14bd
00000100: ae77 ddbd cdc7 133d ba6a bfbd a574 a3bd
00000110: ae32 89bd e8a6 f9bb 4972 79bc 5d9b 983c
00000120: 2db3 2f3d 9a8e 55bd 79e1 f0bc 480b 173d
00000130: f3a5 85bb 6449 71bc 8ad9 90bc e76e 1cbd
00000140: 0ab6 be3d 97b5 a3bc 4d98 13bd 38f5 e1bc
00000150: 90ef 5ebc f043 7b3d 7ed8 0fbd 706f 2b3c
00000160: 242f 40bc a0a7 5d3d 8707 b4bc 44c9 38bd
00000170: 6e42 a4bc c457 393b ce02 fd3d 6802 bf3c
00000180: 47fc 3ebd d229 5abd a110 27bd 86ab 04bd
00000190: 2f23 13bd c6fe 95bd b8e3 14bd 76c3 45bc
000001a0: ab25 743d 59c8 8e3d 6276 47bd b70c 0e3e
000001b0: bafb 76bd 26a4 78bd 6fc5 c43b e5c6 24bd
000001c0: aad3 293d fb40 21bd e777 28bd 11fa 82bd
000001d0: 7b55 77bc 5760 67bb 6179 a33c d74f 943d
000001e0: 4677 5e3d 1c65 b13d 97be 40bb fa96 49bd
000001f0: f04d a23d 39ec 693d 49c6 e83c ac42 453c
00000200: 2cda 8a3d 5fd5 443c 6ecf 763c 7929 d2bc
00000210: 09de 303d e50f 8d3d df7e 8f3c e7a4 653d
00000220: 0e34 82bd 0015 2bbc ff20 ecbc 7930 1abd
00000230: 68d0 133d 0b14 893d 51a5 2e3d df6c 943d
00000240: 1f6a b7bd 5269 56bd 7692 00bd c74a 503d
00000250: 986e 5a3c 7d16 2f3c bbf6 3dbd 4113 a5bc
00000260: 78d1 4b3d 5192 60bd 35e2 a43d d08d 813d
00000270: 997f d8bd 8d84 49bd 2e68 d23d cce3 60bb
00000280: 8473 bf3c 8e00 ee3c 3dd8 3a3c 3c7f eebd
00000290: 7eb4 d6bc 9e86 e43c 9473 c1bd 6913 113e
000002a0: 7f0e 47bd 62ff 7e3d 5246 a7bd bab0 f0bc
000002b0: 7480 253d 24a9 8bbd 7ed8 a5bc aa59 393b
000002c0: 7f88 3e3d 79d7 adbd 4769 293d 3875 b9bb
000002d0: 732d 81bd f42e 2c3d 734a f8bc 44d7 0a3b
000002e0: 7713 d1bd ec4d d4bc d58b 82bd febf 3fbd
000002f0: 90f0 bf3d 64d9 8cbc 606e 023e 4d43 89bd
00000300: 603a abbb 218b 68bd 84f2 63bb b766 68bd
00000310: a883 79bd 98f8 003c fc58 2d3d d89d 2ebc
00000320: 6516 193d d223 60bc 1dd3 033e 7ba1 1e3e
00000330: ed5c 56bd 23b4 7abd b19d 8ebd 9fae a8bc
00000340: cfc7 a7bb dfe3 a93d 6f96 a4bc ccaf 51bc
00000350: 27d7 383d b309 28bc d39e ef3c e1f8 923d
00000360: a2ea 95bd 9bb5 a63d 7b76 8d3d 8df3 3b3d
00000370: 57ac b53b 7a5d 613d 9af5 40bd e27a 42bb
00000380: 167e 2c3d 8421 e83c e58c 4fbd b28e 59bd
00000390: 1df8 5c3d 8d85 29bc d2ca b93d c071 973d
000003a0: 09bc 363d b8e4 9fbd 9c6c 61bd 6cc0 5abd
000003b0: e8fd f63c a5cd d23d ee65 44ba 5747 94bc
000003c0: 9658 c1bd c2e6 09be 2d1e cc3c d549 603d
000003d0: cf8e d4bd 7a64 b93c 8d80 dabc d511 9fbc
000003e0: b013 823c 188b 103c 0eb8 493d 7a7f 453d
000003f0: 5ead 9ebc 2e76 9abd b5e6 28bd c93b b5bb
-0.06598764 0.13678674 0.09544101 8.322835e-05 0.0060860994 0.06966011 -0.09256406 -0.09304028
-0.008706589 0.020493155 -0.06777839 0.030824022 0.028143052 0.09992248 -0.11054911 0.10595591
-0.08250774 -0.041346297 0.03306393 -0.070706084 -0.071196765 0.050536267 0.005250575 -0.10661125
0.04580106 -0.094416186 0.051952586 0.007895095 -0.02593819 -0.050435964 -0.020973694 0.004001872
-0.09448363 0.098940276 0.11772093 -0.039078 -0.03737085 -0.01364108 -0.026530264 0.0055469847
-0.0076245978 0.12588796 0.0015310547 0.055037096 -0.07144207 -0.049716312 -0.1255604 -0.07893291
-0.0463454 -0.019975478 0.042981863 0.055772774 -0.01776341 0.023611328 0.021809071 0.010879846
-0.045633532 0.027149994 0.015949184 0.015338701 0.034758206 -0.03488595 -0.07615994 -0.036163557
-0.10813843 0.036079217 -0.09346528 -0.079812326 -0.066991195 -0.0076187737 -0.015225002 0.01862877
0.042895485 -0.05213795 -0.029404389 0.036875993 -0.0040786206 -0.01472697 -0.017681856 -0.038191702
0.09312065 -0.01998405 -0.036033917 -0.02758275 -0.013606921 0.061344087 -0.035118572 0.0104635805
-0.011729989 0.054114938 -0.021976246 -0.045113817 -0.020051207 0.0028281072 0.123540506 0.023316577
-0.04662731 -0.05326254 -0.040787343 -0.03239014 -0.035922226 -0.07323985 -0.036349982 -0.012070527
0.059606235 0.06971807 -0.048696883 0.13872038 -0.06029866 -0.06070342 0.006004981 -0.040228743
0.041461624 -0.03936861 -0.041129973 -0.06395353 -0.015096064 -0.0035305226 0.019955339 0.07241791
0.054312967 0.08661863 -0.0029410475 -0.049216248 0.07925022 0.057110045 0.028414862 0.012039822
0.06779894 0.012013762 0.0150641035 -0.025654541 0.0431805 0.06887797 0.017516552 0.056065466
-0.06357585 -0.0104420185 -0.028824328 -0.037643883 0.036087424 0.06693276 0.042638127 0.07247328
-0.08955788 -0.052346535 -0.031389676 0.050852563 0.013332032 0.010686514 -0.04637788 -0.020150783
0.04976031 -0.05482704 0.08050958 0.06325877 -0.10571212 -0.049198676 0.10273777 -0.0034315465
0.023370512 0.029052999 0.011404094 -0.11645362 -0.026209112 0.027896222 -0.09445873 0.1416756
-0.04859781 0.06225527 -0.081677094 -0.029381145 0.040405706 -0.068193704 -0.020244833 0.0028282204
0.04651689 -0.08488364 0.041360166 -0.0056597255 -0.06307497 0.042036965 -0.030308938 0.0021185437
-0.10208791 -0.025916062 -0.06374327 -0.046813957 0.093720555 -0.017193504 0.12737417 -0.0670229
-0.0052254647 -0.05677331 -0.0034782002 -0.05673858 -0.060916573 0.007871769 0.04232119 -0.01065775
0.037374873 -0.013680415 0.12873502 0.15491287 -0.052334715 -0.061206948 -0.06963671 -0.020591078
-0.0051202546 0.08295416 -0.020091264 -0.012798261 0.04512706 -0.010256219 0.029250538 0.07176376
-0.07320143 0.08140107 0.06907364 0.045886565 0.005544226 0.055020787 -0.047109224 -0.0029675295
0.042112432 0.028336294 -0.050671477 -0.0531146 0.053947557 -0.010346782 0.09071888 0.07394743
0.044612918 -0.078072965 -0.05503522 -0.053406164 0.030150369 0.1029313 -0.00074919953 -0.018100424
-0.094407246 -0.13466933 0.024916733 0.05475791 -0.10378801 0.022630919 -0.026672626 -0.019417683
0.015878528 0.008822225 0.049247794 0.048217274 -0.019369777 -0.07542072 -0.041235644 -0.0055308086

feature.6.bias f4 [32]
00000000: 8790 77bc 503c 143d 5f3f 65bd 372e a23d
00000010: 5706 95bc 8925 303d c17a 6b3d 0142 0abd
00000020: 5fbf 653d 1003 9a3a c2ad aebd 5217 b1bd
00000030: d403 bb3d 6329 6cbd eab4 9bbd ffa5 3e3d
00000040: 63b2 6e3d a74f 01bd 894b 613d 5a36 39bd
00000050: a360 24bd 626e 4d3b ba0d 56bc ed1e 8d3d
00000060: 53ad 213d ac59 9d3d 1cc0 023c b1c1 77bd
00000070: fb98 473d 3412 86bd bd17 3bbd 94f5 bc3d
-0.015110142 0.03619033 -0.05596864 0.07918971 -0.0181915 0.043004546 0.057490114 -0.033754352
0.05609071 0.001175018 -0.085292354 -0.08647026 0.091315895 -0.057656657 -0.07602866 0.046545025
0.05827559 -0.031570103 0.055003677 -0.04521785 -0.040131222 0.003134631 -0.013064796 0.06890664
0.039471935 0.07683119 0.007980373 -0.060487453 0.048729878 -0.06546441 -0.045676935 0.09226528

feature.8.weight f4 [32]
00000000: cfb8 393f 958e e83e c6d1 f43e afd4 143f
00000010: 4967 103f 479f 033f 51cd 1a3f 6bd2 2e3f
00000020: d48a 133f 9eb9 0b3f efd1 323f c474 1b3f
00000030: 55ef 113f bf0a 073f e6ad c73e 8c9b 063f
00000040: cc10 1a3f 04c4 0e3f 0a6b 103f 0206 293f
00000050: ea7d 3a3f bc88 f03e be09 123f f2e2 1e3f
00000060: 8cff 033f 7fe2 063f 2e56 123f a104 2a3f
00000070: 26c4 ef3e febf 193f 5dd0 333f 7a80 0b3f
0.7254762 0.4542128 0.47816294 0.5813703 0.564076 0.5141491 0.6046954 0.6828982
0.5763371 0.54580104 0.69851583 0.60725045 0.57005817 0.5275077 0.3899986 0.52581096
0.6018188 0.55767846 0.5641333 0.6602479 0.7284838 0.4697932 0.57046115 0.6206504
0.5156181 0.52689356 0.5716275 0.66413313 0.46829337 0.6005858 0.7023981 0.54492915

feature.8.bias f4 [32]
00000000: 6ed3 023c e595 473c b935 c33b 3eb8 0d3c
00000010: 29ab 083c a4ae 85bc 283b fc3c 2d66 c1bb
00000020: 3e8e d43b e71c 6a3c eb68 be3c ec37 84bb
00000030: 9660 243c 8513 1fbc c110 a3bc 7d6e e0bc
00000040: 74e2 eabc 51ce 453c 2e74 5e3b cd89 0fbd
00000050: a5de a5bc 91c0 913b 1296 ca3c 660d 163d
00000060: debc 85bc 8919 1e3c 6967 c4bc a597 89bb
00000070: d512 49bc b55b 873c e3a2 cb3b cbf3 af3b
0.007984979 0.012181734 0.005957332 0.008649884 0.008341589 -0.016318627 0.030789927 -0.005902073
0.006486683 0.014289117 0.023243388 -0.0040349867 0.0100327935 -0.009709244 -0.01990545 -0.027396435
-0.028672434 0.012073115 0.003394376 -0.035043526 -0.020247767 0.0044480045 0.024729762 0.03663387
-0.01632541 0.009649643 -0.023975091 -0.0041989856 -0.012272556 0.016523222 0.006214486 0.0053696386

feature.8.running_mean f4 [32]
00000000: 8a45 bdbd 05d9 9ebd dc66 a73d 6960 8fbd
00000010: 1431 223e 8e00 553d f793 323e 78b6 2cbe
00000020: a715 153e 97e9 2e3e 6258 7ebe 278f 7ebe
00000030: 8229 6cbd d7b9 9dbd 8c52 2bbe 16a8 963e
00000040: 35a7 dc3e 2d14 273e 56d5 213e 6351 973e
00000050: f955 7abe 6e7f c8bb 52b8 e5bb 55a3 873e
00000060: 84ab d83d 6228 2ebe 933c 3dbe ef50 70be
00000070: 32b3 1abe 4ea4 143e ce0c d9bd 5572 5cbd
-0.09241779 -0.07756237 0.08173916 -0.07000811 0.15839034 0.052002482 0.17439257 -0.16866481
0.14559041 0.17081295 -0.24838403 -0.24859296 -0.057656772 -0.07701462 -0.16730708 0.29425114
0.4309632 0.1631629 0.15804037 0.2955428 -0.24446858 -0.0061187064 -0.007010498 0.264918
0.10579589 -0.17007592 -0.18480138 -0.23468374 -0.1510742 0.14515802 -0.105981454 -0.053819973

feature.8.running_var f4 [32]
00000000: 674c a63e af25 bc3d f616 523e 03f7 863e
00000010: 8f82 343e 840e 413e 8123 bc3e f3ef 9a3e
00000020: 271f 893e 72ea 933e 1397 153e 0e72 2e3e
00000030: 4b8a 183e 0c34 953d 6fc7 6d3d ed01 323e
00000040: 8b86 bc3e d76c 773e 4b03 743e 92c8 a63e
00000050: 2318 813e 9089 023e a47e 9d3e c00e e63e
00000060: 8a19 433e 2b02 983d b4fc 003e 32b3 9f3e
00000070: 5b67 e13d 7bad 943e 1410 5c3e 8f2e 203e
0.32480165 0.09186875 0.20516571 0.2636033 0.17627929 0.18853194 0.36745837 0.30261192
0.2678158 0.28889805 0.14608411 0.17035696 0.14896505 0.07285318 0.058051523 0.17383547
0.36821398 0.24162613 0.23829381 0.32574898 0.25213727 0.12747788 0.30760682 0.44933128
0.19052711 0.074222885 0.12596399 0.31191403 0.110060416 0.29038605 0.21490508 0.1564276

classify.0.weight f4 [32, 64]
00000000: 4d41 053d 5201 9ebd ba1c 57bc c968 8c3d
00000010: 8fbb 6c3c 0ee7 e93d 78f3 43bd b19a f0bc
00000020: 3889 d33b 9936 883b 1821 a73b 047b 9e3c
00000030: 9b3e 78bd 7fba 953d ac7c 853c 2ec8 a9bc
00000040: 9ddc b3bc c734 a73d c527 8cbd 62cd dfba
00000050: a037 163d 266a 463c 9c2e a53c 38ea a0bc
00000060: f7a7 04bc aa53 aebc 2f17 843d 2fdb 563c
00000070: 6b51 a3bc 2fbb 46bd 8841 15bd d1cd 89bc
00000080: 8c0f ecbc c80c 06bd 7262 6c3d ee20 ca3d
00000090: fff1 2e3d a9a7 043c 5f33 133d 6b2c a0bd
000000a0: 2321 febc 9458 84bd 06fa 963c 2648 cb3c
000000b0: 361c 28bd 09e5 6c3d 20d8 ba3b aceb 9e3d
000000c0: 4321 553c 65fa 4c3d ab4f e93c 5641 e2bc
000000d0: c5a6 88bd 552f d53c 27f9 953b b989 263d
000000e0: b311 1e3d ff46 f53c c33b 74bd 4db7 a63c
000000f0: 53b7 7e3d 8ae0 1dbd 9302 353c 751c 8abd
00000100: 6b66 33bc 00ec ddbc 9a83 47bc b53e 183d
00000110: 53bc cf3b e523 363d db19 30bd f545 5cbb
00000120: d080 8d3b adc7 7b3c 0436 80bc 58a2 583d
00000130: cabf 1e3c 2509 8f3d a688 11bd 771a 243c
00000140: cf78 61bc bcb6 a03d 52d1 8abb 312c 1ebb
00000150: 722e fcbc fa24 e1bc 9bbc b5b9 3f7d 0abd
00000160: f14a 7f3d 6941 0f3c f0e2 73bc ef3a 11bd
00000170: 8680 0fbd 0704 8d3c faf3 08bd 3f9d a2bc
00000180: fa73 453d ef56 c83c 2424 e03c d0af 773c
00000190: 99e8 563c 2ebd 35bc 9df8 31bd 686a 993b
000001a0: a87c ccbb 54a6 21bd 9d15 c7bc c8f2 7ebc
000001b0: e615 703a 110c be3c 06bf e03c 72e5 8f3d
000001c0: b75a 77bc 454e 9e3c 19dd 1bbd f219 383b
000001d0: 5660 d7bc 2a1e fd3c a509 f23b 001f 063c
000001e0: f7e2 983c b1d5 58bc 991c c2bc 6032 7a3d
000001f0: 34db 74bc c296 dbbc 88fa 7ebc d998 6a3c
00000200: 8b50 f73b 5182 64bc e0e9 3c3c 7f0b 17bc
00000210: b513 693c 7006 8abc 5918 1fbc ea5e 3abc
00000220: 262a 0abc 3e49 14bd 9725 c43c 0134 ccbc
00000230: 26f5 0d3c 5dee 24bd fdba 8ebc 4b39 873d
00000240: 1b4e 6ebb cfb2 12bd 06c3 5d3c 5f66 21bc
00000250: 9d5c 423d 6b82 59bb ab35 e23c ad91 ad3c
00000260: ac1b b9bc 20ee b13c 0b10 2bbc 9937 a83c
00000270: 0737 f83c a17b 853b 9225 c83b 49d9 023d
00000280: 03b4 f3bb 97d6 3f3c 1b3f 79bb 61ee acbc
00000290: 896c 233c d4fb f2bc 7724 7bbc 4d57 713d
000002a0: 441d b9bb 353e 753d 1a1a 7d3c 3973 09bd
000002b0: f827 e03c 3c8d 00bd 71b9 7e3b 8dca 25bd
000002c0: 16d5 b938 c815 cebc 7074 83bc f84b 713b
000002d0: 90af 06bc 2512 f23b 7ef5 68bb e7dd f73c
000002e0: 3bf9 fbbb 885d b43b 4339 923d 00a0 57bc
000002f0: 5946 1a3d db2d 573c 9aa1 eebb 90f5 9c3c
00000300: 71cf 843d 20a5 77bd 8765 783c 4c7e 013d
00000310: bcb0 09bd 89e0 813d 470d 63bd 6249 56bc
00000320: 94c1 393d 3ea3 8f3d c2fe d1bc 1451 893d
00000330: c048 133d 5a3e 1ebb 4f3d 493c ac96 823b
00000340: 9567 47bd 9887 ed3b a742 bfbc aad6 f53c
00000350: 45d4 39bd 5dfb 5abd 397f 4b3c 016d ac3b
00000360: 5436 983d 5094 c33c 4f14 39bd 887a 273d
00000370: 6667 333d cb10 463d 7ac7 c23c 894f 75bc
00000380: 172e c5bc 0cff a7bd cbe4 b73b 2a06 b33d
00000390: 21d3 20bd c576 c73c c51f 4cbd 6c35 c9bc
000003a0: 436b 833d 0c11 363c 74c0 d73a 601e 493d
000003b0: c18a 953b 7d09 2bbc 3e17 323d fa6f 903d
000003c0: 0c14 ecbb 4d40 7b3d f272 2ebd dea4 53bc
000003d0: c999 8e3b 68ec 46bd db85 0e3d 38e8 86bc
000003e0: 63e9 44bd 1f4b f0ba 1449 72bd e349 ae3c
000003f0: dec1 3b3c 59d0 14bd e104 9dbc 5d46 8cba
0.03253298 -0.077150956 -0.013129408 0.06855924 0.014449014 0.11421023 -0.04783961 -0.029370638
0.0064555667 0.004156899 0.0051003806 0.019345768 -0.06060658 0.07310962 0.0162948 -0.020725336
-0.021955783 0.08164363 -0.06843523 -0.0017074759 0.036674142 0.012110269 0.020163827 -0.019642934
-0.008096687 -0.021280129 0.064497344 0.013113781 -0.019936284 -0.048518356 -0.03643945 -0.016821774
-0.028816007 -0.032727033 0.057711072 0.09869562 0.042711254 0.008096614 0.035937663 -0.07820972
-0.03102166 -0.064622074 0.018429767 0.024814676 -0.04104253 0.057835612 0.0057020336 0.077597946
0.0130084185 0.050043482 0.028480371 -0.027619045 -0.06672434 0.026023546 0.0045768204 0.040658686
0.038591098 0.02994108 -0.059627306 0.020351076 0.06218655 -0.038544215 0.011047977 -0.06743709
-0.010949711 -0.027090073 -0.012177372 0.037169177 0.0063395887 0.044467825 -0.042993408 -0.0033611034
0.004318334 0.015367431 -0.015650757 0.052889198 0.009689281 0.06984166 -0.03553071 0.010016075
-0.013761713 0.07847354 -0.0042363787 -0.0024135227 -0.030783866 -0.027483452 -0.00034663532 -0.03381085
0.06232733 0.008743622 -0.014885649 -0.035456594 -0.03503468 0.017213834 -0.0334358 -0.019850371
0.048206307 0.024455516 0.027360983 0.015117601 0.013116979 -0.011092467 -0.043449987 0.004681874
-0.006240446 -0.039465263 -0.024302298 -0.015560813 0.00091585366 0.023199113 0.027434837 0.07026185
-0.015097312 0.019324431 -0.038052652 0.0028091636 -0.026291054 0.030898172 0.0073864036 0.008186102
0.018662913 -0.013234542 -0.023695277 0.061083198 -0.01494484 -0.026805285 -0.015562661 0.014318668
0.0075474433 -0.0139470855 0.0115303695 -0.0092190495 0.01422589 -0.016848773 -0.009710395 -0.011375168
-0.0084329005 -0.03620266 0.023943705 -0.024927141 0.008664405 -0.040266383 -0.017423147 0.06602725
-0.0036362472 -0.035815056 0.013535267 -0.009851067 0.047451604 -0.0033189307 0.027613482 0.021187628
-0.022596203 0.021719992 -0.010440837 0.020534324 0.030299677 0.0040735756 0.0061079944 0.0319455
-0.0074372306 0.011708877 -0.0038031999 -0.021109762 0.009974607 -0.029661097 -0.015328518 0.058921147
-0.0056492407 0.05987378 0.015448118 -0.03355715 0.027362809 -0.03138469 0.0038867856 -0.04047637
8.861178e-05 -0.02515687 -0.016046733 0.0036818963 -0.008220568 0.007387417 -0.0035546715 0.030257178
-0.0076896227 0.005504314 0.07139828 -0.013160706 0.037664745 0.013133491 -0.007282448 0.019160062
0.06484879 -0.06046021 0.015160925 0.031614587 -0.033615813 0.06341655 -0.055432584 -0.013079019
0.045350626 0.07013558 -0.025634173 0.067049176 0.03595805 -0.002414605 0.0122826835 0.0039852466
-0.048682768 0.00724883 -0.023347212 0.030009586 -0.04536845 -0.053462375 0.012420469 0.0052620177
0.07432237 0.023874432 -0.045185383 0.04088834 0.04379978 0.04835586 0.023776758 -0.014972576
-0.024069829 -0.08202943 0.005611991 0.0874141 -0.03926385 0.024348626 -0.049834985 -0.024561606
0.06416943 0.011112463 0.0016460554 0.049101233 0.00456366 -0.010439274 0.043479197 0.07052608
-0.007204538 0.06134062 -0.04259009 -0.012917725 0.0043518287 -0.0485653 0.034795623 -0.016468152
-0.048074137 -0.0018332935 -0.059151724 0.021275466 0.011459796 -0.03633151 -0.019167366 -0.0010702122

classify.0.bias f4 [32]
00000000: 35b6 35bd ba61 9a3c 05da d939 5579 89bd
00000010: d516 edbb 772a 103c 0df7 08bd c70c bbbc
00000020: ad4a a9bd 3fbf 1c3c 864d 523b 46b8 0dbd
00000030: cbfd 2c3d 27d9 80bc a496 eebb ed0a b13d
00000040: 8924 a1bd b667 93bc 4eee 343d 5784 bd3c
00000050: 0ceb af3c ed2c e73c 8532 03bd 22a5 063c
00000060: 852a c23c 6359 16bd 1e01 4dbc 6c2f 66bd
00000070: 0f36 be3d 255c 103d 591c 963d 2d76 4c3c
-0.04436322 0.018845428 0.00041551903 -0.067125954 -0.007235388 0.008799187 -0.03343873 -0.022833241
-0.082661964 0.009567081 0.0032089665 -0.034599565 0.042234223 -0.015728546 -0.0072811414 0.08644662
-0.07868297 -0.01799379 0.044172578 0.023134394 0.021474384 0.028219664 -0.0320306 0.008218082
0.023701916 -0.03670634 -0.012512473 -0.05619757 0.092876546 0.035244126 0.07329626 0.012479347

classify.3.weight f4 [1, 32]
00000000: f410 a8bd b5dc 98bd 8410 803d 06ca bebd
00000010: 2591 793d 9341 1f3d 32a5 97bd 4578 303d
00000020: adac d7bd b29d 383d 768f 543d cc04 573d
00000030: d2b0 9e3d d39d a43d 3829 363d 86ff 583d
00000040: f328 d4bd c7da 673d d65c b23d a1ac 6fbd
00000050: 9658 9abd 9634 3e3d b219 93bd 1b97 943d
00000060: 2d0f 90bd 4407 d3bd 3d36 38bd 102b 7dbd
00000070: 17f8 823d 9d3c cdbd 18ef bc3d a2db d03d
-0.082063586 -0.074639715 0.0625315 -0.09315877 0.060929436 0.038880896 -0.074045554 0.043083448
-0.10530982 0.045072265 0.051894628 0.05249481 0.077485695 0.08037915 0.044472903 0.05297806
-0.10359373 0.056605127 0.08709113 -0.05851424 -0.07536428 0.04643687 -0.07182635 0.072553836
-0.070341446 -0.1030412 -0.0449736 -0.061808646 0.06394976 -0.10021327 0.09225291 0.10198142
