Code/CNN/Outputs/NonPretrained/best_model.pth (torch, 63778 bytes, 15 tensors)

feature.0.weight f4 [16, 5, 3]
-0.20210189 0.10711722 0.061920717 0.11249121 0.20131762 -0.18088062 0.15768565 0.18181999
-0.100329496 0.15726434 0.11362066 -0.25661492 -0.1071912 -0.1266051 0.0028516867 -0.2523359
0.10841239 -0.06919761 0.19873957 -0.13270038 -0.02703329 0.04655893 -0.22670037 -0.25252444
-0.040558342 0.14127402 0.1688502 0.03444867 -0.20386378 0.24382369 0.006510771 0.19449094
-0.24911788 -0.03970415 -0.19543308 0.083103396 -0.08306837 0.04817844 -0.18675901 0.03196056
0.049296718 0.07200422 0.036756895 -0.06298305 0.19677472 0.12509528 -0.10425392 -0.2527743
0.013725345 -0.058311645 0.06980994 0.066296734 0.19411118 0.22798555 -0.24935642 -0.024174893
0.021922357 -0.14284012 0.14625943 0.08933252 0.12284285 0.16789047 0.07406056 -0.25217882
-0.06008881 0.20508417 0.09599275 -0.06938009 0.24096018 -0.112785935 -0.13979554 -0.20658365
0.2045725 -0.16315916 -0.008342405 -0.25710928 -0.1733262 -0.05422272 0.23477393 0.017349172
0.037190415 0.17597401 0.047150195 -0.20034839 0.18071759 -0.084847055 0.13956635 -0.13630864
0.14778538 -0.19218421 0.15048988 0.20171668 -0.19561264 0.03600126 -0.1455379 0.17182554
0.1829697 0.015746092 -0.10300607 0.10421256 -0.041617427 -0.2351024 0.15293913 -0.17023459
-0.17538318 -0.13098806 -0.007613237 0.20026447 -0.17724591 -0.09570761 -0.12132496 -0.20275699
0.00016164166 0.19574273 0.01415533 0.07557114 -0.17623523 -0.13877581 -0.15235549 0.11374305
-0.06638723 -0.052282423 -0.039621703 0.09798846 0.061904076 0.047698945 -0.1591573 -0.0692736
0.17164236 -0.044083793 -0.03642658 0.18813284 0.03492997 -0.20050383 0.25180736 -0.015321305
0.24854842 0.1359768 0.10168948 0.24010392 -0.018332016 0.1971233 -0.1919145 -0.22688536
0.20167771 -0.18741818 -0.035179853 -0.17364357 0.003756797 -0.09738544 0.14052409 -0.08947548
0.104182474 -0.041884042 -0.17152725 0.17908373 -0.12324307 -0.21244724 0.18434823 -0.099998675
-0.111182764 0.2346728 -0.149875 -0.12111183 -0.02400536 0.08771767 -0.051993538 0.17271453
0.010047643 -0.15439372 0.20452498 0.14790887 -0.09560987 0.23953067 0.029947586 0.16314928
0.086783655 -0.07246483 -0.21137118 0.25212067 -0.16320604 0.24252601 0.14281015 -0.1637011
-0.23533763 -0.15641649 0.15806681 0.2098417 0.20514628 -0.020731708 0.11762191 -0.2218164
0.1463454 -0.1282415 0.16843736 0.177114 -0.110089675 -0.13783199 -0.009800414 0.11149536
0.080188245 0.1523365 -0.15447892 0.17270662 0.19666457 0.17633548 0.05064656 -0.019736756
-0.20482087 0.19152866 -0.19676293 0.018391615 0.24818423 0.12348678 -0.10456342 -0.25003156
0.08351518 -0.12692228 0.004354489 -0.23495503 0.0026021826 0.015401772 0.15856346 0.21304007
0.22181322 -0.17896901 0.07668819 0.233213 0.07650571 0.14773837 -0.046887584 0.033394683
0.17179094 0.111521356 0.204993 0.24492392 -0.24803846 -0.15242311 -0.24353497 0.0422945
00000000: ccf3 4ebe 4660 db3d 94a0 7d3d cb61 e63d
00000010: 3526 4e3e c538 39be 5978 213e 052f 3a3e
00000020: 8d79 cdbd e709 213e f3b1 e83d 0863 83be
00000030: 0f87 dbbd c4a4 01be 5de3 3a3b 2c32 81be
00000040: 5107 de3d 7ab7 8dbd 6382 4b3e 9ce2 07be
00000050: eb74 ddbc 94b4 3e3d 2424 68be e24a 81be
00000060: 8120 26bd 23aa 103e 11e7 2c3e 0c1a 0d3d
00000070: abc1 50be ebac 793e 4e58 d53b a228 473e
00000080: c218 7fbe d2a0 22bd 9c1f 48be 1d32 aa3d
00000090: c01f aabd c256 453d c13d 3fbe 13e9 023d
000000a0: 5beb 493d f376 933d 668e 163d 42fd 80bd
000000b0: 507f 493e fa18 003e 1483 d5bd a26b 81be
000000c0: 45e0 603c 31d8 6ebd 84f8 8e3d 95c6 873d
000000d0: 15c5 463e 0b75 693e 4a57 7fbe 6d0a c6bc
000000e0: 8496 b33c ae44 12be 08c5 153e f8f3 b63d
000000f0: 0895 fb3d 7beb 2b3e 10ad 973d 951d 81be
00000100: af1f 76bd 9601 523e d997 c43d 2617 8ebd
00000110: 44be 763e 50fc e6bd 9026 0fbe aa8a 53be
00000120: 747b 513e 3213 27be 95ae 08bc d4a3 83be
00000130: 6c7c 31be a518 5ebd 9468 703e da1f 8e3c
00000140: fa54 183d 8832 343e 9020 413d 2128 4dbe
00000150: 080e 393e 4bc4 adbd 7bea 0e3e 7e94 0bbe
00000160: 0d55 173e f0cb 44be 051a 1a3e d18e 4e3e
00000170: ae4e 48be 0f76 133d e307 15be 09f3 2f3e
00000180: 695c 3b3e f3fd 803c d9f4 d2bd 656d d53d
00000190: 0977 2abd afbe 70be 139c 1c3e fa51 2ebe
000001a0: a697 33be bc21 06be 7678 f9bb 2112 4d3e
000001b0: f47f 35be 5a02 c4bd 3879 f8bd 879f 4fbe
000001c0: 5a7e 2939 c870 483e c2eb 673c 0bc5 9a3d
000001d0: 0277 34be 3f1b 0ebe 1403 1cbe 1ef2 e83d
000001e0: 07f6 87bd 1826 56bd 5e4a 22bd 2cae c83d
000001f0: 218f 7d3d f85f 433d 22fa 22be 51df 8dbd
00000200: 04c3 2f3e 3591 34bd 0a34 15bd e5a5 403e
00000210: ba12 0f3d e050 4dbe e5ec 803e 3606 7bbc
00000220: 7a83 7e3e 813d 0b3e 9342 d03d cddd 753e
00000230: 062d 96bc b1da 493e 3c85 44be a354 68be
00000240: 9a84 4e3e 8dea 3fbe c018 10bd 9fcf 31be
00000250: 9834 763b 0472 c7bd 8ce5 0f3e ec3e b7bd
00000260: 9f5d d53d 9a8e 2bbd d7a4 2fbe ba61 373e
00000270: dd66 fcbd c58b 59be c8c5 3c3e 1bcc ccbd
00000280: cab3 e3bd 114e 703e d578 19be 7b09 f8bd
00000290: e4a6 c4bc 52a5 b33d 2df7 54bd 14dc 303e
000002a0: df9e 243c 6319 1ebe ff6e 513e 6c75 173e
000002b0: 1ccf c3bd 8747 753e a454 f53c 9b10 273e
000002c0: a1bb b13d 7168 94bd b071 58be f615 813e
000002d0: 7c1f 27be bd58 783e d33c 123e 43a1 27be
000002e0: 59fc 70be a52b 20be 44dc 213e bee0 563e
000002f0: de11 523e 8bd5 a9bc c2e3 f03d d723 63be
00000300: 92db 153e bd51 03be d87a 2c3e 5f5d 353e
00000310: b276 e1bd d423 0dbe ea91 20bc ae57 e43d
00000320: bc39 a43d 19fe 1b3e b92f 1ebe 01da 303e
00000330: 7062 493e 4a91 343e c472 4f3d faae a1bc
00000340: 90bc 51be 1720 443e 397c 49be 03aa 963c
00000350: 0224 7e3e a3e6 fc3d 5925 d6bd 2304 80be
00000360: 020a ab3d eaf7 01be 1ab0 8e3b 0d98 70be
00000370: 6189 2a3b b757 7c3c 765e 223e 2d27 5a3e
00000380: 0123 633e a743 37be b30e 9d3d 64cf 6e3e
00000390: 07af 9c3d ba48 173e 320d 40bd ddc8 083d
000003a0: f7e9 2f3e 4f65 e43d afe9 513e 56cd 7a3e
000003b0: cbfd 7dbe ce14 1cbe 3b61 79be ff3c 2d3d

feature.0.bias f4 [16]
0.010661712 0.06491057 0.16424538 0.09039546 0.21536961 0.095089436 0.047034997 0.071236834
-0.06766297 0.055996012 0.23018621 -0.015492912 0.21561736 -0.030178756 0.12272759 0.10067005
00000000: 76ae 2e3c d5ef 843d f12f 283e 4121 b93d
00000010: da89 5c3e 40be c23d c5a7 403d 9ee4 913d
00000020: e292 8abd 135c 653d efb5 6b3e fcd5 7dbc
00000030: ccca 5c3e 7039 f7bc 9a58 fb3d 192c ce3d

feature.2.weight f4 [16]
0.9926464 0.9935869 0.99049586 0.994058 0.9927801 0.9929506 0.99413913 0.989036
0.99068195 0.993682 0.99328715 0.99214846 0.99126464 0.99249315 0.9895682 0.9929793
00000000: 131e 7e3f b65b 7e3f 2391 7d3f 967a 7e3f
00000010: d626 7e3f 0332 7e3f e77f 7e3f 7731 7d3f
00000020: 559d 7d3f f261 7e3f 1148 7e3f 71fd 7d3f
00000030: 85c3 7d3f 0814 7e3f 5754 7d3f e433 7e3f

feature.2.bias f4 [16]
0.00019070682 0.002078318 -0.0014429974 0.00086624967 0.0012571056 -0.002062722 -0.00068769103 -0.0013293604
-0.0029772467 0.00020754627 0.0023595334 -0.0006891435 -0.00022286587 -0.00069049635 -0.0010065462 0.0008009748
00000000: 79f8 4739 6434 083b f522 bdba 0815 633a
00000010: 77c5 a43a bc2e 07bb 2a46 34ba ef3d aeba
00000020: e91d 43bb c7a0 5939 67a2 1a3b a3a7 34ba
00000030: 1ab1 69b9 6d02 35ba 16ee 83ba 82f8 513a

feature.2.running_mean f4 [16]
0.058400467 -0.029207489 0.123264745 0.13486964 0.25996512 7.4954384e+15 -4.3725986e+15 -0.109532505
-0.005324914 0.12096541 -4.0510223e+15 -2.5635508e+15 4.7121455e+15 0.17801376 5.668389e+15 5.2238377e+15
00000000: 5435 6f3d 8b44 efbc 3a72 fc3d 441b 0a3e
00000010: 261a 853e 7e08 d559 af8d 78d9 9452 e0bd
00000020: 9e7c aebb b6bc f73d 2246 66d9 93b8 11d9
00000030: 5fed 8559 3d49 363e f51a a159 6c78 9459

feature.2.running_var f4 [16]
0.1259572 0.051059704 0.03347459 0.059016686 0.13143542 inf inf 0.13988389
0.13027681 0.08536237 inf inf inf 0.15948693 inf inf
00000000: edfa 003e fb23 513d a71c 093d 7bbb 713d
00000010: 0297 063e 0000 807f 0000 807f b93d 0f3e
00000020: 4967 053e 77d2 ae3d 0000 807f 0000 807f
00000030: 0000 807f 8b50 233e 0000 807f 0000 807f

feature.6.weight f4 [32, 16, 3]
0.047578827 -0.012023747 0.081601426 0.07998503 -0.026045382 -0.12323801 0.08343559 0.0027628301
0.05665064 -0.12153075 -0.12319485 0.0028304376 -0.1401301 0.05461099 0.13306575 -0.06478948
0.10650162 -0.13131139 0.089135304 0.12089124 -0.06511233 -0.03465955 -0.011252331 0.08940753
0.10237451 0.0049726577 0.11263806 -0.101077735 0.12469976 0.12046345 0.11018928 0.032462604
0.08623152 -0.11665207 0.04558973 -0.12672356 -0.028215446 -0.09426086 0.021571085 0.12274786
0.0061129965 0.11873741 0.06546289 -0.0994397 -0.13804887 -0.122648254 0.13257876 0.077716514
-0.12744483 0.07376092 0.08250935 -0.06094359 0.11640385 -0.09500555 -0.087120645 -0.08146468
0.14281577 0.14011952 -0.048380688 -0.09082167 0.08861473 -0.07351838 -0.031741302 0.03200602
0.111556545 0.032595653 -0.14168191 -0.06263261 -0.031167297 0.05072481 -0.09637674 0.006242573
-0.1283044 0.050682843 0.11772162 -0.12958404 -0.020456327 -0.048464894 -0.08392669 0.09893327
0.042862054 0.08879643 0.12040349 -0.0993077 -0.08615681 0.050648537 -0.013720006 0.057159636
0.07790495 -0.027746255 -0.11147519 0.0856362 -0.021842716 0.04126709 -0.05295326 0.06997662
0.0760817 -0.04576425 0.08855226 -0.1168222 0.11929307 0.0026085163 -0.059769418 0.09712881
-0.010114194 -0.025112972 -0.04273696 -0.1330984 -0.08503627 -0.120500326 -0.13546497 0.14158295
-0.08521021 0.13735451 0.09469031 0.08754065 0.047935132 -0.09331172 0.04765053 0.07741151
-0.08622707 0.08646962 0.105140336 -0.025198767 0.051385794 0.09850694 -0.03882293 0.05835008
0.0071405475 0.013419626 -0.06810739 0.105854206 0.021904834 0.10453691 0.06993474 0.013542427
0.09243313 0.090229996 -0.029237755 0.1288034 -0.05086346 0.009242425 0.011823429 -0.091132395
0.09714964 0.1103582 0.058887504 0.1337944 -0.12515508 -0.076899834 -0.03155545 -0.07758586
0.108894624 0.05993398 0.1069585 0.113988005 0.056865796 0.043369897 0.035625253 -0.0063112522
0.02262096 -0.13602711 0.05202437 0.07496843 0.058047973 0.11030821 0.0819862 -0.01363827
0.020202419 0.06190062 -0.09619673 -0.0078053367 0.027502635 0.053628955 -0.13569137 -0.05297568
0.03421105 -0.025234072 -0.06318751 0.013434239 0.05409877 -0.13841838 -0.14062269 -0.11132536
-0.07444901 -0.0025419479 0.12001213 -0.07957598 -0.09088927 0.054454967 -0.050199114 -0.0961895
0.077420495 0.13422869 0.008207722 0.1351483 0.05920246 0.11103462 0.025257055 -0.124490246
0.070397414 0.11918612 0.090331346 -0.10960667 -0.072343834 0.04848594 0.0542933 -0.034825657
0.09738142 -0.072369084 0.012855663 -0.029760227 0.13694833 0.10889194 0.054210924 0.11219446
-0.11962628 0.029263606 0.0896804 0.08598276 -0.04718307 -0.09477406 -0.12637858 -0.03885357
0.048595596 0.06454204 0.123854235 -0.10761634 -0.088908605 0.1424573 -0.100129284 -0.1363492
-0.03582985 0.1297154 0.024114942 0.118899375 -0.007857849 0.124221675 -0.0765926 -0.124620974
0.08367557 -0.11343284 -0.049049135 0.025636857 -0.1360546 -0.11674747 -0.020525651 -0.09065588
-0.06561427 0.063304335 -0.06357468 -0.11457269 0.008666582 0.049207073 0.13340056 -0.07533016
00000000: 04e2 423d 40ff 44bc a61e a73d 31cf a33d
00000010: 205d d5bc 3664 fcbd 47e0 aa3d 9910 353b
00000020: 800a 683d 1de5 f8bd 954d fcbd dd7e 393b
00000030: 447e 0fbe c6af 5f3d 6342 083e 59b0 84bd
00000040: 851d da3d 7e76 06be 928c b63d d495 f73d
00000050: 9d59 85bd 2cf7 0dbd b25b 38bc 4c1b b73d
00000060: baa9 d13d adf1 a23b c8ae e63d d801 cfbd
00000070: 9662 ff3d 8bb5 f63d ebaa e13d 82f7 043d
00000080: 279a b03d 48e7 eebd 4cbc 3a3d d2c3 01be
00000090: 1424 e7bc d60b c1bd d8b5 b03c 3b63 fb3d
000000a0: 884f c83b 992c f33d 6811 863d 0ba7 cbbd
000000b0: af5c 0dbe 022f fbbd bac2 073e d629 9f3d
000000c0: e680 02be f70f 973d a9fa a83d fc9f 79bd
000000d0: 2465 ee3d 4592 c2bd 4f6c b2bd f4d6 a6bd
000000e0: 4c3e 123e 7e7b 0f3e d42a 46bd b600 babd
000000f0: a47b b53d ce90 96bd 2b03 02bd bf18 033d
00000100: c277 e43d 0583 053d 1015 11be 8745 80bd
00000110: 8f52 ffbc d2c4 4f3d 2b61 c5bd 7f8e cc3b
00000120: 3b62 03be d098 4f3d 0818 f13d aeb1 04be
00000130: 0794 a7bc 2083 46bd c2e1 abbd 879d ca3d
00000140: 1f90 2f3d e7da b53d 1b96 f63d d661 cbbd
00000150: fb72 b0bd d774 4f3d e0c9 60bc 3920 6a3d
00000160: a18c 9f3d 1d4c e3bc 1b4d e4bd 0862 af3d
00000170: 7fef b2bc ae07 293d 84e5 58bd e74f 8f3d
00000180: b9d0 9b3d 4b73 3bbd e35a b53d 7a40 efbd
00000190: ed4f f43d a4f3 2a3b c7d0 74bd 78eb c63d
000001a0: 01b6 25bc b8b9 cdbc f30c 2fbd f24a 08be
000001b0: 7f27 aebd e0c8 f6bd 54b7 0abe 1ffb 103e
000001c0: b182 aebd a9a6 0c3e feec c13d 8348 b33d
000001d0: a157 443d 371a bfbd 342d 433d ed89 9e3d
000001e0: d197 b0bd fc16 b13d d153 d73d a56d cebc
000001f0: e979 523d 02be c93d cb04 1fbd 7e00 6f3d
00000200: 41fb e93b fedd 5b3c e37b 8bbd 17ca d83d
00000210: c471 b33c 7317 d63d f239 8f3d 0ee1 5d3c
00000220: 954d bd3d 81ca b83d 0484 efbc 0ae5 033e
00000230: 3456 50bd 8a6d 173c 0eb7 413c 9fa3 babd
00000240: 64f6 c63d 7b03 e23d 0634 713d 6601 093e
00000250: a728 00be a97d 9dbd 4a40 01bd 56e5 9ebd
00000260: 2504 df3d 557d 753d 0f0d db3d 8b72 e93d
00000270: 1cec 683d a2a4 313d c9eb 113d 9fce cebb
00000280: 974f b93c b14a 0bbe 8117 553d 0c89 993d
00000290: b6c3 6d3d 45e9 e13d 61e8 a73d 0d73 5fbc
000002a0: 8b7f a53c 818b 7d3d cb02 c5bd e9c3 ffbb
000002b0: 354d e13c 09aa 5b3d aef2 0abe 07fd 58bd
000002c0: e320 0c3d afb7 cebc 7468 81bd 481b 5c3c
000002d0: ac96 5d3d 8cbd 0dbe 65ff 0fbe 8dfe e3bd
000002e0: b978 98bd cf96 26bb ebc8 f53d bbf8 a2bd
000002f0: 2724 babd 2c0c 5f3d 969d 4dbd 00ff c4bd
00000300: a38e 9e3d 3f73 093e ae79 063c 5164 0a3e
00000310: 477e 723d 1e66 e33d e2e7 ce3c bef4 febd
00000320: 852c 903d da17 f43d a4ff b83d 7679 e0bd
00000330: 0129 94bd 3199 463d a762 5e3d 59a5 0ebd
00000340: e96f c73d 3e36 94bd 8fa0 523c b8cb f3bc
00000350: 2f3c 0c3e bd02 df3d 460c 5e3d 36c6 e53d
00000360: a0fe f4bd 3bba ef3c 5caa b73d bb17 b03d
00000370: 0943 41bd e718 c2bd 6369 01be ec24 1fbd
00000380: 2d0c 473d 9e2e 843d 4aa7 fd3d f565 dcbd
00000390: b715 b6bd 54e0 113e 9510 cdbd 209f 0bbe
000003a0: 52c2 12bd 1dd4 043e b38c c53c 8481 f33d
000003b0: 35be 00bc ef67 fe3d 95dc 9cbd 4839 ffbd
000003c0: 195e ab3d 7a4f e8bd bfe7 48bd 6304 d23c
000003d0: e651 0bbe 4c19 efbd 6925 a8bc caa9 b9bd
000003e0: c660 86bd b4a5 813d 7133 82bd 16a5 eabd
000003f0: 48fe 0d3c 5b8d 493d 289a 083e b346 9abd

feature.6.bias f4 [32]
-0.07023406 -0.04554941 0.12498915 0.0065291547 0.09879811 0.06823504 -0.1380566 0.07702666
-0.13588274 -0.045417994 0.09112502 0.062710546 -0.003200784 0.10375741 0.122804955 -0.11098074
0.12941338 -0.08452763 0.06741137 0.072677724 0.08299462 -0.026153611 0.029064026 0.056674305
0.10790434 -0.015641112 0.011846813 0.12604341 -0.019658074 0.05472331 0.03112889 0.056201708
00000000: e0d6 8fbd 0592 3abd 50fa ff3d 85f2 d53b
00000010: aa56 ca3d d0be 8b3d b65e 0dbe 27c0 9d3d
00000020: d824 0bbe 3808 3abd c19f ba3d 636e 803d
00000030: 3fc4 51bb c47e d43d 2a81 fb3d df49 e3bd
00000040: f184 043e d21c adbd f90e 8a3d 0fd8 943d
00000050: 15f9 a93d 1940 d6bc ae17 ee3c 5123 683d
00000060: f3fc dc3d ca21 80bc 2319 423c 8611 013e
00000070: f809 a1bc 8d25 603d 0402 ff3c c333 663d

feature.8.weight f4 [32]
0.99122876 0.991897 0.9906617 0.9907005 0.9918071 0.9935335 0.9930586 0.9895258
0.99004185 0.9869111 0.9885804 0.99126995 0.9874378 0.9898014 0.98716336 0.9882911
0.9896909 0.9916007 0.9870311 0.99092066 0.99263334 0.98949254 0.988009 0.99637085
0.98750716 0.9915629 0.99182355 0.9913145 0.98721844 0.9917108 0.9903929 0.9888469
00000000: 2bc1 7d3f f6ec 7d3f 019c 7d3f 8c9e 7d3f
00000010: 12e7 7d3f 3658 7e3f 1739 7e3f 9051 7d3f
00000020: 6273 7d3f 35a6 7c3f 9b13 7d3f dec3 7d3f
00000030: b9c8 7c3f a063 7d3f bdb6 7c3f a500 7d3f
00000040: 625c 7d3f 8bd9 7d3f 12ae 7c3f faac 7d3f
00000050: 381d 7e3f 624f 7d3f 28ee 7c3f 2912 7f3f
00000060: 45cd 7c3f 11d7 7d3f 26e8 7d3f c9c6 7d3f
00000070: 59ba 7c3f c2e0 7d3f 648a 7d3f 1225 7d3f

feature.8.bias f4 [32]
-0.0022174877 0.0010477185 -0.002889571 0.0014248942 -0.0029005301 0.0018133834 0.0031139145 -0.001167941
-0.0009384407 -0.003121046 0.001991805 -0.002948655 -0.00036840182 -0.003242181 0.0025258837 7.855227e-06
-0.0010964469 0.0037583786 0.0014828128 -0.002936074 -0.00025329206 0.00303917 -0.002754916 0.0038958301
0.0012560867 0.0009947927 -0.003002021 0.0021715325 -0.0002181204 -0.0027386155 -0.00252313 -0.0024979485
00000000: 4553 11bb 9953 893a f55e 3dbb 84c3 ba3a
00000010: d216 3ebb 0daf ed3a d112 4c3b 9915 99ba
00000020: b001 76ba 768a 4cbb f188 023b 393e 41bb
00000030: 0e26 c1b9 c57a 54bb 4c89 253b f1c9 0337
00000040: a7b6 8fba 214f 763b f15a c23a 266b 40bb
00000050: 49cc 84b9 d02c 473b d28b 34bb 2f51 7f3b
00000060: 47a3 a43a b463 823a 8ebd 44bb 4550 0e3b
00000070: 40b7 64b9 587a 33bb 195b 25bb 9fb4 23bb

feature.8.running_mean f4 [32]
0.28116882 -0.083944604 0.52147025 0.022668447 0.5722447 -0.7440408 -0.47806454 0.696653
-0.015421415 -0.21229196 -0.22550699 0.012847283 0.52101237 -0.38119215 -0.051580343 -0.7265779
0.12978801 0.031686783 -0.88020617 0.5671116 0.095163055 -0.32891864 0.004892346 0.17781273
-0.52308697 0.055561375 -0.08159812 0.1554358 -0.26510113 -0.35325694 -0.4198462 0.13196401
00000000: 5cf5 8f3e 26eb abbd 137f 053f 2eb3 b93c
00000010: a17e 123f 7579 3ebf e0c4 f4be da57 323f
00000020: 1aaa 7cbc 1063 59be 4eeb 66be 697d 523c
00000030: 1161 053f 9e2b c3be e945 53bd 0201 3abf
00000040: 26e7 043e 00ca 013d 3155 61bf 3a2e 113f
00000050: d9e4 c23d 0668 a8be f94f a03b 8a14 363e
00000060: 07e9 05bf 5394 633d ea1c a7bd 902a 1f3e
00000070: 56bb 87be 18de b4be 15f6 d6be 9321 073e

feature.8.running_var f4 [32]
0.6338803 0.52253956 0.7416236 0.3795652 0.811997 1.0715418 0.59416044 0.9754663
0.33106524 0.5643901 0.61402893 0.534607 0.65883785 0.64377373 0.3763789 0.86112595
0.35600406 0.41264802 1.4030288 1.0011976 0.35337037 0.51257867 0.36320043 0.36613622
0.92306536 0.5259537 0.5633581 0.61691546 0.5940042 0.59676677 0.6067191 0.45284724
00000000: fb45 223f 27c5 053f 0bdb 3d3f 5f56 c23e
00000010: 09df 4f3f 4828 893f e61a 183f 29b8 793f
00000020: 6281 a93e df7b 103f 0031 1d3f 01dc 083f
00000030: 99a9 283f 5bce 243f bcb4 c03e c072 5c3f
00000040: 2a46 b63e 9a46 d33e 7396 b33f 3e27 803f
00000050: f6ec b43e 5b38 033f 68f5 b93e 3576 bb3e
00000060: 034e 6c3f e7a4 063f 3d38 103f 2cee 1d3f
00000070: a910 183f b5c5 183f f151 1b3f 98db e73e

classify.0.weight f4 [32, 384]
-0.015704209 -0.024676492 -0.021436114 -0.0055178036 -0.0051448816 -0.038478915 -0.023768611 0.031516172
0.024543809 0.002230202 0.04055089 -0.01469964 0.027039729 0.012324871 -0.023789912 -0.0041427724
0.0079905335 0.0050762934 -0.03141641 0.010674679 0.043737233 0.013931061 0.047322743 0.028415436
-0.010714744 0.011799982 0.01863752 -0.010593482 -0.023292774 0.0031995182 0.02204915 0.0090032425
0.0069693853 -0.009683238 -0.032831687 0.026849963 -0.00962896 0.011340969 -0.036018655 0.0347874
0.025627047 -0.023454808 0.04394038 0.032039333 -0.042894304 0.008460997 0.02354182 0.048899736
0.032654896 -0.015687998 0.04432541 0.048215326 0.0224117 -0.018992096 -0.0029639232 -0.018320337
0.030211963 -0.017315868 0.011859784 0.048607185 -0.034065735 0.018314293 0.027675655 -0.042957596
-0.01513941 0.050739057 0.037735898 -0.009325185 0.035123166 -0.01278523 -0.03513878 -0.009499964
-0.0454545 0.051161617 0.043644194 0.017335791 0.0026504705 0.012684395 -0.00794231 0.026537417
0.050928976 0.0383388 -0.0038119538 -0.02652339 -0.010023367 -0.023562891 0.033524714 -0.0024040965
0.006829204 0.05115449 0.026013564 -0.04548869 -0.01668084 -0.041798264 0.017120099 0.00884669
0.0034162458 0.040049955 -0.0147512285 0.0058509368 -0.0065647764 0.005218212 -0.031123351 0.007877278
0.009859881 0.026714984 0.025282875 0.009851377 0.023249881 -0.004282862 -0.032027043 0.008927725
0.026417913 0.03413262 -0.04005347 0.005145992 0.011849768 -0.040047273 -0.03317591 0.006102292
0.0079834135 -0.017420566 0.048869483 -0.02035945 -0.0066974084 -0.031373397 0.010915943 0.03706424
0.040105414 0.015159717 0.03593065 -0.045140702 -0.0067966515 0.0041252323 -0.04448242 -0.02787866
0.008767537 0.005692923 0.044823162 -0.030976983 -0.043437064 0.0027894517 -0.00973778 0.00796138
-0.006039992 0.03319522 0.05166176 0.042675212 0.035129916 -0.023633761 -0.010663887 -0.030544385
-0.0477291 0.011268585 0.008315477 0.017386809 0.024163043 0.04303387 -0.032250013 0.041346744
0.03352202 0.018744532 0.019175645 0.0306818 -0.03926094 -0.019559735 -0.008991624 0.020825088
0.015682619 -0.014819841 0.024781352 -0.012814384 0.0009683107 0.0229197 0.028760755 -0.015006129
-0.0058987425 -0.018113129 0.0025794788 0.041166134 -0.03981276 -0.027619302 0.045364507 0.015456544
0.035925936 0.009683708 -0.028238198 -0.030444616 0.026156167 0.042703133 -0.024775485 0.04259575
-0.035008222 -0.004064693 -0.01959353 -0.025222795 0.025993085 -0.005378002 -0.0071337097 -0.011504809
0.012628926 -0.036099624 0.03732344 -0.011934137 -0.008722755 -0.015608539 0.03468704 -0.042283885
-0.028553626 -0.011197786 0.0034797948 0.016977685 -0.031726964 -0.025568938 0.030309519 -0.00024216395
0.0013380232 0.016396405 0.017783323 0.028229695 0.008738587 -0.00964004 0.04343563 0.021988615
-0.026853599 0.015608647 -0.0046896306 -0.023426477 -0.013755007 0.038781587 0.04712888 -0.039936643
0.028332338 -0.0324738 0.026707053 0.0256332 -0.022113064 -0.043897647 0.008626579 0.021235758
0.00786217 0.0090051 0.014392662 -0.024519142 -0.039905973 -0.02376048 0.040814996 0.04095619
-0.01029682 0.0055501326 0.02986201 -0.032960534 -0.017364578 0.008831938 0.007006522 0.04313011
00000000: 1da6 80bc 5b26 cabc ca9a afbc b1ce b4bb
00000010: 6596 a8bb 119c 1dbd 64b6 c2bc 1a17 013d
00000020: 1910 c93c 9528 123b b118 263d c2d6 70bc
00000030: 6c82 dd3c 41ee 493c 10e3 c2bc 18c0 87bb
00000040: baea 023c 0957 a63b 7eae 00bd d9e4 2e3c
00000050: d025 333d 1b3f 643c 7ed5 413d 7dc7 e83c
00000060: e58c 2fbc b654 413c b6ad 983c 4990 2dbc
00000070: 7dd0 bebc 02af 513b 6ba0 b43c 5682 133c
00000080: 715f e43b 72a6 1ebc 857a 06bd 74f4 db3c
00000090: c9c2 1dbc 79cf 393c 4c88 13bd 3c7d 0e3d
000000a0: d0ef d13c 4c24 c0bc d4fa 333d ad3b 033d
000000b0: f0b1 2fbd fe9f 0a3c c6da c03c 174b 483d
000000c0: 24c1 053d 1e84 80bc 908e 353d 6f7d 453d
000000d0: be98 b73c 5095 9bbc 613e 42bb 8814 96bc
000000e0: 147f f73c 02da 8dbc 8a4f 423c 5418 473d
000000f0: 8388 0bbd db07 963c 0eb8 e23c 4ef4 2fbd
00000100: 4a0b 78bc c2d3 4f3d f590 1a3d a9c8 18bc
00000110: 4fdd 0f3d 2479 51bc aeed 0fbd bda5 1bbc
00000120: 7f2e 3abd d88e 513d 41c4 323d ca03 8e3c
00000130: 84b3 2d3b 35d2 4f3c 7620 02bc ff64 d93c
00000140: e79a 503d 2509 1d3d f9d1 79bb 9547 d9bc
00000150: 0c39 24bc f706 c1bc 3651 093d 0c8e 1dbb
00000160: 84c7 df3b 5f87 513d 661a d53c 5952 3abd
00000170: 42a6 88bc a834 2bbd 733f 8c3c b5f1 103c
00000180: 18e3 5f3b 6c0b 243d 23af 71bc 37b9 bf3b
00000190: 561d d7bb 89fd aa3b 66f6 febc b30f 013c
000001a0: 578b 213c 62d9 da3c 081e cf3c ac67 213c
000001b0: 8976 be3c 4057 8cbb ca2e 03bd 9845 123c
000001c0: 616a d83c a5ce 0b3d 1b0f 24bd b69f a83b
000001d0: 8825 423c 9c08 24bd 77e3 07bd bcf5 c73b
000001e0: ddcc 023c 93b5 8ebc 5e2b 483d dcc8 a6bc
000001f0: ef75 dbbb 6481 00bd c9d8 323c acd0 173d
00000200: 9345 243d 7660 783c 042c 133d 75e5 38bd
00000210: 72b6 debb f52c 873b 3333 36bd ca61 e4bc
00000220: b7a5 0f3c b38b ba3b 7e98 373d 71c3 fdbc
00000230: 10eb 31bd 3ccf 363b 368b 1fbc 7370 023c
00000240: 20eb c5bb b6f7 073d 489b 533d 34cc 2e3d
00000250: 63e4 0f3d 979b c1bc 95b7 2ebc 3838 fabc
00000260: 977f 43bd df9f 383c a33d 083c c86e 8e3c
00000270: 93f1 c53c 4944 303d 9718 04bd 345b 293d
00000280: 634e 093d 228e 993c 3e16 9d3c 6658 fb3c
00000290: 14d0 20bd bd3b a0bc 9b51 13bc 6099 aa3c
000002a0: d678 803c ebce 72bc 4302 cb3c 6cf3 51bc
000002b0: 3bd6 7d3a 18c2 bb3c ad9b eb3c 44dc 75bc
000002c0: 3d4a c1bb fc61 94bc 790c 293b d29d 283d
000002d0: b412 23bd e041 e2bc 22d0 393d 723d 7d3c
000002e0: 1327 133d 6aa8 1e3c cb53 e7bc fd66 f9bc
000002f0: 7545 d63c 7be9 2e3d f5f5 cabc e278 2e3d
00000300: c864 0fbd 1e31 85bb 9c82 a0bc 09a0 cebc
00000310: 73ef d43c f339 b0bb e5c1 e9bb ab7e 3cbc
00000320: 8ee9 4e3c 33dd 13bd 77e0 183d 6687 43bc
00000330: e3e9 0ebc f5ba 7fbc ff13 0e3d de31 2dbd
00000340: 4be9 e9bc eb76 37bc 450d 643b c914 8b3c
00000350: 22f4 01bd f375 d1bc ab4b f83c 64ed 7db9
00000360: 9c60 af3a c151 863c 55ae 913c f641 e73c
00000370: 4a2c 0f3c 42f1 1dbc 8fe9 313d 7821 b43c
00000380: 14fc dbbc 69bb 7f3c 79ab 99bb e2e8 bfbc
00000390: ae5c 61bc 71d9 1e3d 360a 413d 9b94 23bd
000003a0: 3819 e83c 3f03 05bd c0c8 da3c b7fc d13c
000003b0: 7526 b5bc 05ce 33bd 7f56 0d3c 9df6 ad3c
000003c0: 55d0 003c 208a 133c 33cf 6b3c 5edc c8bc
000003d0: 7274 23bd 57a5 c2bc a02d 273d aec1 273d
000003e0: feb3 28bc e3dd b53b 2da1 f43c a001 07bd
000003f0: 2940 8ebc d5b3 103c f796 e53b 33a9 303d

classify.0.bias f4 [32]
0.043832194 -0.051114663 -0.035511088 0.025922341 0.016803112 -0.014899667 -0.023953252 0.01651244
-0.011715444 0.04303051 0.0037253718 0.050899733 -0.043164156 -0.05246838 0.032749042 -0.046297714
0.0338497 0.04281 -0.03915648 -0.004622897 0.04270317 -0.003162969 0.022742018 0.008501229
-5.64437e-05 0.037933875 -0.023746166 0.046178218 -0.03754299 0.019846175 0.0028418938 -0.021314668
00000000: 6389 333d 9c5d 51bd 1374 11bd 175b d43c
00000010: aea6 893c bc1d 74bc 9c39 c4bc 1945 873c
00000020: 22f2 3fbc c340 303d 5e25 743b 3d7c 503d
00000030: e6cc 30bd 16e9 56bd dc23 063d aca2 3dbd
00000040: fca5 0a3d 8a59 2f3d 8c62 20bd ac7b 97bb
00000050: 85e9 2e3d d049 4fbb 784d ba3c bd48 0b3c
00000060: f6bd 6cb8 8d60 1b3d 5287 c2bc 5f25 3d3d
00000070: aec6 19bd 7294 a23c 113f 3a3b 199c aebc

classify.3.weight f4 [1, 32]
-0.08673921 0.050230343 0.056619238 0.1518619 0.057226676 0.050450195 -0.16867872 0.05555133
-0.10755596 0.09118906 0.12794806 -0.12317419 -0.03682303 0.10077268 0.051335417 -0.11732372
0.011606888 0.060346488 0.09500594 0.1357844 -0.046356935 0.057521023 -0.1155084 -0.052713238
-0.07029308 -0.0824348 0.13293953 0.12245854 0.044022422 0.067221485 0.006113485 -0.11474883
00000000: 54a4 b1bd 55be 4d3d 93e9 673d b081 1b3e
00000010: 8566 6a3d dda4 4e3d 1dba 2cbe cb89 633d
00000020: 4d46 dcbd 54c1 ba3d d104 033e c042 fcbd
00000030: bfd3 16bd e861 ce3d 1645 523d 6b47 f0bd
00000040: d12a 3e3c e12d 773d 7992 c23d 110b 0b3e
00000050: c5e0 3dbd 2a9b 6b3d ab8f ecbd d6e9 57bd
00000060: d1f5 8fbd 94d3 a8bd 4d21 083e 8bcb fa3d
00000070: db50 343d 6bab 893d a153 c83b 6f01 ebbd
