Code/LSTM/Outputs/NonPretrained/best_model.pth (torch, 217698 bytes, 15 tensors)

feature.0.weight_ih_l0 f4 [256, 54]
0.009744891 0.021705529 0.024347506 7.4074e-40 -4.372268e-39 -8.552e-42 6.290946e-39 -3.637101e-39
-5.199526e-39 0.046056528 0.04592455 0.022825766 0.023607893 0.008359153 0.023667868 0.026696548
0.01946988 0.019423863 -1.105834e-30 0.02699083 0.006748971 0.03978548 0.052861687 0.03906447
0.03575368 0.018219192 0.047440857 0.047057264 0.018048089 0.018187951 0.053030554 0.0075160633
0.018211912 0.04706965 0.018009825 0.04699182 0.018144505 0.053089194 0.0073174452 0.018170414
0.047326174 0.018008653 0.046877027 0.018145436 0.05301457 0.0073174583 -4.599241e-39 0.04737577
0.037551 0.005834185 0.014678357 0.047042686 0.04667133 0.046624277 0.000338846 0.00056140905
0.0006162783 -2.7507993e-31 2.782732e-39 2.085145e-39 -1.770346e-39 -8.58643e-40 -6.736234e-39 0.0011912895
0.001189672 0.0005587645 0.0005855082 0.000119129865 0.0007913399 0.0008080579 0.0004184856 0.00041528506
6.099531e-39 0.0008081253 0.00031288085 0.00091058685 0.0011684585 0.0010311648 0.00095508783 0.0010328703
0.0012615132 0.0012552327 0.0010367049 0.001035356 0.0011930205 0.0003880555 0.0010328705 0.001266618
0.0010391749 0.001249493 0.0010328756 0.0011929851 0.0003606964 0.0010361044 0.0012640224 0.0010390074
0.0012501109 0.0010328915 0.001195235 0.00039112533 5.075502e-39 0.0012660985 0.0010439833 0.00027215452
0.00044822478 0.0012542569 0.0012454028 0.0012500014 0.00052391505 0.0007451244 0.00081120443 3.136453e-39
-5.145543e-39 -4.879278e-39 -5.09592e-40 3.423584e-39 2.6524e-39 0.0016517659 0.0016522092 0.0006661035
0.0006998643 -3.923395e-05 0.00096079725 0.0010114603 0.0005765046 0.00057350885 -3.64104e-39 0.0011408301
0.00035882829 0.0012845031 0.0015856426 0.0014652306 0.0012708695 0.0018399613 0.001675995 0.0016618015
0.001855398 0.0018389806 0.0016440616 0.00050361356 0.0018405262 0.001675959 0.0018577373 0.0016596428
0.0018401286 0.0016435843 0.00047052314 0.0018426661 0.0016765677 0.0018595781 0.0016596474 0.0018400548
0.0016447863 0.00046435322 3.243297e-39 0.0016777132 0.0014402572 0.00055863004 0.00054310594 0.0016640702
0.0016537933 0.001659713 0.0064136595 0.013879354 0.015619431 -6.34156e-39 -2.588261e-39 -1.976358e-39
2.059373e-39 -5.29954e-40 -2.327083e-39 0.030167717 0.030128147 0.014263421 0.014782331 0.0029438185
0.014692339 0.01685196 0.012719501 0.012689611 -2.27205e-39 0.017430218 0.0036017217 0.026137916
0.033797048 0.02443358 0.022880306 0.014120889 0.03059672 0.030186547 0.014016732 0.014107123
0.033917803 0.0047907084 0.014120328 0.030618211 0.01400152 0.030375954 0.014084695 0.033833347
0.0046434356 0.014095318 0.030579397 0.014001512 0.03021583 0.014084423 0.0337334 0.004642924
4.804685e-39 0.03074013 0.0241651 0.003928195 0.009096656 0.030270185 0.030258732 0.03024208
0.0025644787 0.0050889626 0.0054952926 -1.8531e-39 5.77891e-40 -6.217495e-39 -6.412015e-37 5.307878e-39
8.03663e-40 0.012054943 0.0119156465 0.0046672006 0.00484056 -0.0008033788 0.004580678 0.005788312
0.0049330974 0.0049213953 -5.803707e-39 0.007329092 0.0006965749 0.010422533 0.012250807 0.009767976
0.0086160945 0.0091531845 0.011542147 0.011569426 0.009170959 0.009143366 0.01258077 0.0020242406
0.009152487 0.012001905 0.009186822 0.011806418 0.0091419155 0.012453836 0.0017995283 0.009161275
00000000: 09a9 1f3c cbcf b13c 6c74 c73c e210 0800
00000010: 1b9c 2f80 d717 0080 9980 4400 c29a 2780
00000020: 2a9e 3880 c5a5 3c3d 621b 3c3d 1afd ba3c
00000030: 5765 c13c d4f4 083c 1ee3 c13c b8b2 da3c
00000040: 4c7f 9f3c cb1e 9f3c 8c6e b38d e01b dd3c
00000050: 7926 dd3b 19f6 223d 7f85 583d 1102 203d
00000060: 7372 123d 6a40 953c 5851 423d 1ebf 403d
00000070: 96d9 933c e6fe 943c 9136 593d 4f49 f63b
00000080: 2631 953c 1bcc 403d 5789 933c 7f7a 403d
00000090: c9a3 943c 0e74 593d 2ec7 ef3b 1fda 943c
000000a0: 17d9 413d e286 933c 2002 403d bda5 943c
000000b0: ce25 593d 4ac7 ef3b d014 3280 180d 423d
000000c0: 14cf 193d b12c bf3b 7e7d 703c d5af 403d
000000d0: 702a 3f3d 19f9 3e3d 24a7 b139 862b 133a
000000e0: bd8d 213a 7e89 b28c 204d 1e00 89b4 1600
000000f0: 0147 1380 8c59 0980 e159 4980 0b25 9c3a
00000100: c5ee 9b3a 0d7a 123a ca7c 193a 5cd5 f938
00000110: ec71 4f3a d9d3 533a 3068 db39 9eba d939
00000120: 036b 4200 5fd8 533a 280a a439 73b4 6e3a
00000130: f626 993a 2628 873a dc5e 7a3a 6061 873a
00000140: 5c59 a53a 9f86 a43a 0be2 873a c8b4 873a
00000150: 205f 9c3a ed73 cb39 6261 873a a604 a63a
00000160: ec34 883a 07c6 a33a 8e61 873a f05d 9c3a
00000170: da1b bd39 e5cd 873a 8ead a53a 4e2f 883a
00000180: c3da a33a 1662 873a 6ea9 9c3a f40f cd39
00000190: 6f44 3700 37f3 a53a 44d6 883a f6af 8e39
000001a0: b6ff ea39 e165 a43a c93c a33a 16d7 a33a
000001b0: 5857 093a 7454 433a 02a7 543a 2827 2200
000001c0: ae07 3880 7121 3580 898c 0580 8f47 2500
000001d0: d0e1 1c00 1180 d83a f18e d83a 739d 2e3a
000001e0: 1977 373a 228f 24b8 03de 7b3a fa92 843a
000001f0: 9220 173a 8757 163a bda5 2780 e887 953a
00000200: 1e21 bc39 c65c a83a 56d5 cf3a fb0c c03a
00000210: 4e93 a63a db2a f13a 0fad db3a ced0 d93a
00000220: d330 f33a f309 f13a 8e7d d73a ef04 043a
00000230: d03d f13a daab db3a 527f f33a 5f88 d93a
00000240: 7830 f13a 8a6d d73a 8cb0 f639 9d85 f13a
00000250: 47c0 db3a 16bd f33a 8788 d93a fe2d f13a
00000260: df95 d73a 6f74 f339 fe50 2300 b7e6 db3a
00000270: 03c7 bc3a 0771 123a 395f 0e3a ee1c da3a
00000280: 18c4 d83a ba8a d93a ad29 d23b 3b66 633c
00000290: a4e8 7f3c b00d 4580 052f 1c80 4885 1580
000002a0: b26c 1600 4cc5 0580 f656 1980 4a22 f73c
000002b0: 4ecf f63c 20b1 693c 9731 723c 14ed 403b
000002c0: 23b8 703c 1f0d 8a3c 7465 503c 16e8 4f3c
000002d0: 8dbd 1880 d1c9 8e3c dd0a 6c3b 2f1f d63c
000002e0: c66e 0a3d ee28 c83c 7b6f bb3c 4d5b 673c
000002f0: f9a5 fa3c c749 f73c 6fa6 653c 9021 673c
00000300: 65ed 0a3d 60fb 9c3b f358 673c 0bd3 fa3c
00000310: a266 653c fed6 f83c 7ec3 663c d694 0a3d
00000320: f627 983b 0cf0 663c a581 fa3c 9966 653c
00000330: 3087 f73c 5ac2 663c 092c 0a3d ab23 983b
00000340: 8251 3400 bad2 fb3c e3f5 c53c 17b8 803b
00000350: 240a 153c 2ef9 f73c 29e1 f73c 3dbe f73c
00000360: d010 283b 50c1 a63b db11 b43b b02d 1480
00000370: ed4a 0600 d9b3 4380 8730 5a83 34cc 3900
00000380: 49c0 0800 1882 453c d839 433c 51ef 983b
00000390: 8f9d 9e3b d799 52ba 8319 963b e1ab bd3b
000003a0: d2a5 a13b a843 a13b 6032 3f80 e128 f03b
000003b0: 5a9a 363a 46c3 2a3c 9cb7 483c dc09 203c
000003c0: 852a 0d3c 3df7 153c 461b 3d3c b18d 3d3c
000003d0: ca41 163c 0ece 153c 931f 4e3c 1fa9 043b
000003e0: 50f4 153c a3a3 443c 5384 163c b56f 413c
000003f0: f9c7 153c 2d0b 4c3c 26de eb3a 2c19 163c

feature.0.weight_hh_l0 f4 [256, 64]
0.003942812 0.0020973827 -0.003985443 -0.0036789426 -0.006239416 0.006219541 0.009542091 -0.0036345746
0.0045398427 -0.0040631844 -0.0032842157 -0.004090716 -0.0062240367 -0.0029744061 0.007278184 -0.009567303
-0.0065309084 0.0061385827 -0.00060191174 -0.0038366679 -0.0071168724 0.0071181487 -0.007096469 -0.0050646993
0.0033232565 -0.0056417137 -0.0057413536 9.28523e-07 0.0068768836 -0.0055529755 0.003238952 0.008071781
0.0074039306 0.004517374 0.0048118746 -0.0067348755 0.004490903 0.0055544423 0.00019970385 -0.005091505
-0.0056436714 -0.0033829277 0.008325923 -0.0037950084 -0.003718782 0.0048185 0.007142523 -0.0035557179
0.008414567 -0.0049213883 -0.0072837532 0.0068022124 -0.00665065 0.0075771427 0.0069396123 -0.0027934196
-0.0035840722 0.0068657226 -0.004090024 -0.0051828595 0.007777012 0.003980961 0.005267632 0.0075782877
2.8146955e-05 6.01976e-05 -0.00013081028 8.664523e-05 -0.00013559044 0.00020820662 0.00027474493 -2.9239e-06
4.2533153e-05 7.091593e-05 -2.4472147e-06 -0.00011713645 -0.00014656798 1.3188472e-05 0.0001978775 -0.00025434783
-0.00017626933 0.00017322763 -3.0294861e-05 -5.1057526e-05 -0.00017834727 0.00022142346 -0.00023249799 -7.179368e-05
-8.931242e-05 -0.0001382138 -0.0001273409 1.4171441e-07 0.00020834905 -0.000140434 0.000116195355 0.00025486998
0.00020320059 0.00017295394 9.978842e-05 -0.00019491187 2.6255897e-05 0.00016008968 6.9198622e-06 -6.133418e-05
-0.00016587894 -0.00011099792 0.0002492928 0.000108069384 -7.259908e-05 0.00014340955 0.00023083563 2.1658867e-05
0.00023192629 -5.6416313e-05 -0.00021288388 0.00019595308 -0.0002081996 0.00024274882 0.00023314665 -9.9078854e-05
-2.9621006e-05 0.00019599471 3.509656e-05 -0.00014293184 0.000259197 8.080472e-05 0.00012490562 0.00023455158
8.059926e-05 7.320611e-05 -0.00015100883 8.458739e-05 -0.00012844434 0.0002099465 0.00025508658 1.8185916e-05
3.0223253e-05 6.382187e-05 -3.799923e-05 -0.00012629335 -0.00012889481 -8.4115645e-06 0.0002227366 -0.00023999877
-0.00019318434 0.00019486427 -9.826335e-06 -4.4492128e-05 -0.00019921585 0.00022728299 -0.00023246446 -6.870698e-05
-9.2781265e-05 -0.0001324302 -0.00014066607 3.5953028e-07 0.00018177833 -0.00014627876 0.00011154021 0.0002497288
0.00021189875 0.00016439198 0.00011350826 -0.00021561189 1.4054302e-05 0.00015001648 1.3847661e-05 -4.5111425e-05
-0.00019292813 -0.00013697846 0.0002624776 0.0001245844 -6.420275e-05 0.00015775226 0.00020754506 -1.8758692e-05
0.00025262852 -2.9272154e-05 -0.00020477206 0.00018951003 -0.0001989483 0.00023021502 0.00022585364 -0.0001511347
-4.0492672e-05 0.00018620302 4.2078827e-05 -0.0001312939 0.0002590407 0.00017576228 0.00012649565 0.00022754187
0.0028743923 0.0012046274 -0.0022316915 -0.0023446628 -0.0035089033 0.003457993 0.0053660315 -0.0022570794
0.0026218086 -0.0029717009 -0.0023258037 -0.002247851 -0.0034734542 -0.0022362773 0.004055215 -0.0053819413
-0.0036364065 0.003398712 -0.00031005155 -0.0022286861 -0.0039828564 0.003973534 -0.0039479043 -0.0029960675
0.0022733593 -0.0031554839 -0.00338365 5.1500444e-07 0.0038387212 -0.0031565404 0.0017941963 0.004506568
0.004128211 0.0024820354 0.0028332858 -0.0037497305 0.0025139581 0.003100185 0.00012470868 -0.0030154346
-0.0031348502 -0.001867107 0.0046721087 -0.0026411482 -0.002113078 0.0027054294 0.00397511 -0.0021346204
0.0047106203 -0.0028231107 -0.004054838 0.0037863096 -0.0037297057 0.0042273216 0.0038729075 -0.0015471758
-0.0021583217 0.0038584152 -0.002355524 -0.002878168 0.0043444564 0.0029186564 0.0029448618 0.004278362
00000000: b432 813b 3e74 093b 5298 82bb 6a1a 71bb
00000010: 0474 ccbb 4bcd cb3b 6e56 1c3c 0b32 6ebb
00000020: f6c2 943b 7624 85bb ff3b 57bb 6a0b 86bb
00000030: 01f3 cbbb 41ee 42bb d57d ee3b 2dc0 1cbc
00000040: 3b01 d6bb 2a26 c93b 9dc9 1dba 9b70 7bbb
00000050: a734 e9bb 5c3f e93b 7f89 e8bb c7f5 a5bb
00000060: feca 593b 20de b8bb f721 bcbb 9d3f 7935
00000070: 7b57 e13b bcf5 b5bb 9944 543b 813f 043c
00000080: ac9c f23b 7b06 943b eeac 9d3b 3bb0 dcbb
00000090: 6d28 933b 0a02 b63b 9867 5139 a4d6 a6bb
000000a0: 8cee b8bb 1cb4 5dbb 7469 083c adb5 78bb
000000b0: cfb6 73bb 82e4 9d3b d30b ea3b 0c07 69bb
000000c0: 41dd 093c 9943 a1bb 8dac eebb 18e5 de3b
000000d0: b2ed d9bb ae49 f83b b065 e33b ce11 37bb
000000e0: c1e2 6abb dbf9 e03b 9c05 86bb fad4 a9bb
000000f0: 4ed6 fe3b b972 823b 1a9c ac3b 4953 f83b
00000100: 201d ec37 ae7c 7c38 1e2a 09b9 4eb5 b538
00000110: 482d 0eb9 0a52 5a39 a40b 9039 3838 44b6
00000120: a065 3238 b3b8 9438 d43a 24b6 27a7 f5b8
00000130: 0bb0 19b9 0e44 5d37 567d 4f39 fd59 85b9
00000140: f0d4 38b9 70a4 3539 b821 feb7 9a26 56b8
00000150: bb02 3bb9 e82d 6839 b4ca 73b9 f08f 96b8
00000160: 3e4d bbb8 7ced 10b9 d086 05b9 292a 1834
00000170: 4678 5a39 7741 13b9 e8ad f338 12a0 8539
00000180: 3e12 5539 f85a 3539 8045 d138 4261 4cb9
00000190: 1c40 dc37 bfdd 2739 2a31 e836 8aa0 80b8
000001a0: caef 2db9 8ec7 e8b8 83b3 8239 4fa3 e238
000001b0: 5640 98b8 3560 1639 780c 7239 10b0 b537
000001c0: 3d31 7339 8ea0 6cb8 9539 5fb9 c178 4d39
000001d0: 2850 5ab9 648a 7e39 d478 7439 8ec8 cfb8
000001e0: a07a f8b7 ee83 4d39 a534 1338 f9df 15b9
000001f0: d5e4 8739 b475 a938 19f9 0239 f6f1 7539
00000200: 6607 a938 3b86 9938 2058 1eb9 8264 b138
00000210: 04af 06b9 1625 5c39 24bd 8539 f58d 9837
00000220: f187 fd37 1bd8 8538 5d61 1fb8 9d6d 04b9
00000230: f027 07b9 651f 0db7 678e 6939 2ea8 7bb9
00000240: 8791 4ab9 7b54 4c39 cadb 24b7 0f9d 3ab8
00000250: 99e4 50b9 d052 6e39 b4c1 73b9 c716 90b8
00000260: 9093 c2b8 f6dc 0ab9 c37f 13b9 7705 c134
00000270: c09b 3e39 6862 19b9 b2ea e938 08ee 8239
00000280: 2331 5e39 a360 2c39 480b ee38 e015 62b9
00000290: c4ca 6b37 be4d 1d39 4053 6837 0636 3db8
000002a0: c04c 4ab9 e0a1 0fb9 269d 8939 dfa2 0239
000002b0: 97a4 86b8 4d6a 2539 74a0 5939 fc5b 9db7
000002c0: 3a73 8439 798d f5b7 15b8 56b9 36b7 4639
000002d0: c79c 50b9 e065 7139 20d3 6c39 ea79 1eb9
000002e0: add6 29b8 7e3f 4339 cc7d 3038 f0ab 09b9
000002f0: dbcf 8739 d44c 3839 eba3 0439 4e98 6e39
00000300: 4d60 3c3b 97e4 9d3a 9241 12bb eaa8 19bb
00000310: a1f5 65bb 7f9f 623b 89d5 af3b 82eb 13bb
00000320: a6d2 2b3b dec0 42bb 836c 18bb af50 13bb
00000330: e4a2 63bb 828e 12bb 9ce1 843b ff5a b0bb
00000340: c750 6ebb edbc 5e3b 6a8e a2b9 260f 12bb
00000350: 9f82 82bb 6b34 823b 6c5d 81bb ac59 44bb
00000360: a4fc 143b 3ccc 4ebb 3ac0 5dbb d63e 0a35
00000370: 0e93 7b3b f6dd 4ebb 3d2b eb3a d5ab 933b
00000380: f245 873b a5a9 223b a6ae 393b 0abe 75bb
00000390: 38c1 243b 792c 4b3b 3bc4 0239 999e 45bb
000003a0: 0f72 4dbb b7b9 f4ba 7d18 993b 1d17 2dbb
000003b0: 917b 0abb 934d 313b a441 823b fde4 0bbb
000003c0: 8c5b 9a3b f003 39bb 72de 84bb bc23 783b
000003d0: 146e 74bb 5885 8a3b 9bd0 7d3b 9bca caba
000003e0: a172 0dbb 77dd 7c3b 235f 1abb a59f 3cbb
000003f0: f15b 8e3b ee46 3f3b 95fe 403b 8031 8c3b

feature.0.bias_ih_l0 f4 [256]
0.045647833 0.0011856512 0.0016358932 0.030129647 0.0119535895 0.002609057 0.0069689327 0.025269242
0.014346155 0.046307515 0.0376708 0.0011693306 0.008356193 0.046326175 0.0033845596 0.008148894
0.0027323032 0.0030936475 5.2257725e-05 0.015381002 0.0052803676 0.0036170129 0.0031461457 0.017041538
0.039992377 0.0060842596 0.011481993 2.5159574e-09 0.0048065893 0.007196577 0.000621738 0.0044710524
0.0038668567 0.0014389071 0.012264687 0.0063472916 0.014494578 0.0040764916 8.46347e-05 0.012996364
0.0017683168 0.00052902964 0.003936034 0.041529316 0.007037917 0.0063199433 0.0032787672 0.014764187
0.004616126 0.012853102 0.0052290247 0.0050762584 0.0043925666 0.0040364903 0.0029223165 0.0007933743
0.022540944 0.005618302 0.020393217 0.0057457364 0.0035241747 0.03919828 0.005134792 0.004938144
-0.01302855 -9.763011e-05 0.000348186 -0.010791744 -0.00016074089 0.0014447947 0.0033447817 -0.007755722
-0.0036206099 -0.021298748 -0.011539437 0.0007286135 0.0002784289 -0.013282369 0.0020876413 0.003382539
0.0014706261 0.0015542826 1.1428108e-05 -0.003181134 0.0017782087 0.0020907505 0.001942684 -0.0044069416
-0.014052989 0.00045025558 -0.0033980166 -1.2222243e-09 0.0015567889 -0.0005470727 0.0004871714 0.0028645876
0.0025806145 0.0007339441 -0.0014911534 0.0013133128 -0.0028884083 0.0007679443 -2.0592823e-05 -0.004317414
0.0012891657 0.00022841172 0.002796342 -0.017493377 -0.0012259833 0.00025070485 0.0019676478 -0.00450339
0.0030058597 -0.0025002833 0.0021772692 0.0015979223 0.0011904989 0.00246375 0.0018973653 -0.00011547336
-0.00451157 0.00073549163 -0.0052084187 0.00040562247 0.0027480794 -0.006904671 0.0004284856 0.0015525749
-0.001725109 -0.00045382298 0.0024714028 0.072866194 0.03873632 0.008698225 0.016357718 0.04893725
0.036503263 0.05884312 0.00024569774 -0.007138214 0.003246035 0.020662876 0.013598901 -0.010654787
-0.0111038145 0.008140432 -8.789709e-05 0.038235877 -0.009306722 0.014585392 -0.0131194955 0.038316026
-0.077730395 -0.005531211 -0.026697984 -1.6633365e-06 0.005248528 -0.0073568905 0.0060227485 0.0117479265
0.014699116 0.010926582 0.018646264 0.021293646 -0.010765899 0.0039844695 0.011345571 -0.035039384
-0.010494278 0.001985912 0.018182812 -0.03033612 -0.028020272 -0.037302546 0.011780305 0.013088137
0.014710701 0.02268615 -0.0071848365 0.009673898 0.001545874 0.010893647 0.013545718 -0.013918379
0.06366292 0.009267801 0.018474383 0.0076953396 0.015171581 0.019361008 0.021738887 0.014737238
0.045566767 0.0011993031 0.0016937107 0.030329796 0.012861911 0.0028144175 0.007971914 0.025833564
0.015046034 0.045987837 0.03767374 0.0012218053 0.009096574 0.04563604 0.0037389067 0.009428865
0.0029434862 0.003360356 3.778996e-05 0.01586886 0.0058448934 0.0040089246 0.003458977 0.017933005
0.039962508 0.0065506287 0.01211991 1.2979541e-09 0.0052683414 0.007706432 0.0006352949 0.0051163803
0.004389405 0.0015661325 0.012674576 0.0070004305 0.015213154 0.004370683 8.482148e-05 0.013573544
0.0019310565 0.00055129133 0.004557194 0.041219812 0.007307958 0.006639524 0.0036136704 0.015128637
0.005360041 0.013577538 0.0058272895 0.0055761836 0.004766071 0.0045389803 0.0032386717 0.00082034443
0.022880886 0.006119548 0.021007067 0.0061359648 0.0041903565 0.038512047 0.0054972554 0.005340645
00000000: 39f9 3a3d da67 9b3a 786b d63a 73d2 f63c
00000010: fdd8 433c b6fc 2a3b a55b e43b 7101 cf3c
00000020: 230c 6b3c f3ac 3d3d b24c 1a3d 3944 993a
00000030: 6ae8 083c 84c0 3d3d 7dcf 5d3b f082 053c
00000040: 7110 333b cbbe 4a3b 4e2f 5b38 9900 7c3c
00000050: ef06 ad3b 680b 6d3b 912f 4e3b b29a 8b3c
00000060: 0ccf 233d 785e c73b f81e 3c3c 31e5 2c31
00000070: 9880 9d3b 43d1 eb3b 22fc 223a e881 923b
00000080: 176b 7d3b b699 bc3a d3f1 483c f1fc cf3b
00000090: ab7a 6d3c 1794 853b e97d b138 b4ee 543c
000000a0: dec6 e73a 94ae 0a3a d9f9 803b a51a 2a3d
000000b0: 549e e63b 8717 cf3b 96e0 563b 7de5 713c
000000c0: df42 973b d195 523c 3d58 ab3b be56 a63b
000000d0: 85ef 8f3b 8944 843b 5684 3f3b 73fa 4f3a
000000e0: c9a7 b83c bc19 b83b ad0f a73c bb46 bc3b
000000f0: d7f5 663b 608e 203d c241 a83b 27d0 a13b
00000100: b375 55bc c4be ccb8 bc8c b639 dbcf 30bc
00000110: 8e8c 28b9 445f bd3a 2034 5b3b b623 febb
00000120: c147 6dbb b67a aebc e80f 3dbc 6d00 3f3a
00000130: 18fa 9139 4b9e 59bc cfd0 083b 96ad 5d3b
00000140: 06c2 c03a 12b9 cb3a 5abb 3f37 927a 50bb
00000150: c812 e93a f904 093b a8a1 fe3a 1b68 90bb
00000160: 823e 66bc 4810 ec39 42b1 5ebb 32fb a7b0
00000170: 2b0d cc3a 6d69 0fba 0a6b ff39 cebb 3b3b
00000180: 871f 293b 2866 403a ce72 c3ba 7723 ac3a
00000190: 734b 3dbb df4f 493a c0be acb7 1879 8dbb
000001a0: 39f9 a83a ce81 6f39 d542 373b 454e 8fbc
000001b0: 2cb1 a0ba 0971 8339 a7f3 003b 2c91 93bb
000001c0: f5fd 443b cbdb 23bb 84b0 0e3b 6071 d13a
000001d0: 840a 9c3a de76 213b 04b1 f83a 4a2a f2b8
000001e0: cbd5 93bb 02ce 403a 62ab aabb baa9 d439
000001f0: 1f19 343b 9440 e2bb 5da6 e039 c57f cb3a
00000200: 0d1d e2ba 17ef edb9 42f7 213b df3a 953d
00000210: faa9 1e3d 0083 0e3c 9f00 863c 6d72 483d
00000220: 7284 153d 7c05 713d fed0 8039 aee7 e9bb
00000230: 6ebb 543b 3145 a93c edcd 5e3c 6a91 2ebc
00000240: c6ec 35bc 725f 053c 6455 b8b8 399d 1c3d
00000250: 397b 18bc 91f7 6e3c 27f3 56bc 44f1 1c3d
00000260: 1d31 9fbd 293f b5bb bbb5 dabc cf3f dfb5
00000270: d8fb ab3b 1212 f1bb 7a5a c53b 607a 403c
00000280: 90d4 703c 6805 333c 0dc0 983c 0370 ae3c
00000290: 7463 30bc 2790 823b c6e2 393c 7585 0fbd
000002a0: 31f0 2bbc 1326 023b 1ff4 943c 7483 f8bc
000002b0: c58a e5bc 8eca 18bd 2e02 413c a06f 563c
000002c0: 2705 713c 4ed8 b93c c76e ebbb 457f 1e3c
000002d0: ed9e ca3a 447b 323c dcee 5d3c ea09 64bc
000002e0: b461 823d fad7 173c 9757 973c 3029 fc3b
000002f0: 3992 783c fa9a 9e3c c015 b23c 7574 713c
00000300: 38a4 3a3d ef31 9d3a 80ff dd3a 3176 f83c
00000310: c4ba 523c 1772 383b a19c 023c e9a0 d33c
00000320: a483 763c be5d 3c3d c84f 1a3d fc24 a03a
00000330: cc09 153c dbec 3a3d 7208 753b 877b 1a3c
00000340: 81e7 403b 6b39 5c3b a980 1e38 69ff 813c
00000350: 8586 bf3b 4c5d 833b 01b0 623b 3de8 923c
00000360: baaf 233d a8a6 d63b 9692 463c b363 b230
00000370: 0da2 ac3b 3d86 fc3b eb89 263a 4fa7 a73b
00000380: ffd4 8f3b b046 cd3a 06a9 4f3c de63 e53b
00000390: 9840 793c f237 8f3b 2fe2 b138 9263 5e3c
000003a0: 811b fd3a 8984 103a 8454 953b 1bd6 283d
000003b0: 9877 ef3b 5d90 d93b 54d3 6c3b 1ade 773c
000003c0: 48a3 af3b 5274 5e3c d9f2 be3b 6bb8 b63b
000003d0: b42c 9c3b babb 943b e53f 543b 620c 573a
000003e0: b270 bb3c 7d86 c83b 0317 ac3c 3410 c93b
000003f0: 424f 893b cfbe 1d3d 5222 b43b 9400 af3b

feature.0.bias_hh_l0 f4 [256]
0.046088286 0.0011838234 0.001636598 0.03005774 0.0117171155 0.0026100394 0.006965904 0.025181236
0.014342381 0.045962125 0.037669413 0.0011795639 0.008351647 0.045982424 0.0033823678 0.008150668
0.0027371112 0.0030937933 5.0562652e-05 0.0154012535 0.0052803983 0.0036167915 0.003146089 0.017034467
0.039382122 0.0060855444 0.011658407 1.4088677e-09 0.0048074997 0.007203597 0.0006179934 0.004471
0.0038652276 0.0014346509 0.012309241 0.006411227 0.014494671 0.004076729 8.479156e-05 0.012929914
0.0017681652 0.00052927557 0.003935939 0.04153208 0.007041283 0.006282778 0.003278677 0.01476474
0.004615452 0.012854968 0.005228979 0.005076107 0.004394275 0.004035808 0.0029237254 0.0007935446
0.022540957 0.00561836 0.020394597 0.0057449955 0.003542402 0.03924459 0.0051362864 0.0049107685
-0.013144737 -9.547434e-05 0.0003486083 -0.010932091 -0.0002004801 0.0014449114 0.0033390746 -0.007712656
-0.0036218045 -0.021217093 -0.0114555415 0.0007309268 0.00027782744 -0.013267476 0.0020876962 0.00336951
0.0014704425 0.0015540895 6.4619617e-06 -0.0031826447 0.0017785168 0.0020882257 0.0019410464 -0.004434734
-0.014130886 0.0004501383 -0.0036485991 -1.2015942e-09 0.0015572462 -0.00054765184 0.00044043153 0.0028647322
0.0025752592 0.0007340937 -0.0014791829 0.0013391038 -0.0028901428 0.0007687418 -2.3785888e-05 -0.0043388437
0.0012882929 0.0002284152 0.0027971016 -0.017593304 -0.0012259559 0.0002516934 0.0019661842 -0.004503479
0.0030058997 -0.0025017406 0.0021771912 0.0015978115 0.0011907954 0.002463902 0.0018907249 -0.00011562001
-0.0044806674 0.0007367882 -0.0052114828 0.00040567934 0.0027477557 -0.0068649026 0.00042704458 0.0015574754
-0.06881284 0.017740855 -0.0070197163 -0.0068806917 -0.034343183 0.01131057 0.00901467 -0.012599511
-0.0015834031 0.011875639 0.017382303 -0.00718948 -0.008293046 0.07837262 0.013501586 -0.017678447
-0.010335523 0.008848183 0.0010766835 -0.03147595 -0.0048133326 0.015851147 -0.013322089 -0.007610794
0.015763234 0.018834494 0.006583571 1.1931987e-06 0.0059403763 -0.021512099 0.006022792 0.0129715875
0.010929234 0.010332455 -0.030914461 0.019574508 -0.022639325 0.003564088 -0.003711294 -0.0027700718
-0.005345679 0.00061681564 0.018824078 0.031795 0.04437293 -0.014754717 0.0106858285 -0.019478263
0.013586212 -0.0084281 -0.007215518 0.0091723 -0.01622223 0.012059302 0.013521345 -0.019097297
0.04936544 0.009378135 0.003757583 0.016525382 0.014640271 0.016756186 0.019834943 0.024342403
0.045432996 0.0011993081 0.0016933862 0.030382007 0.012900885 0.0028120414 0.007989529 0.025764018
0.015061479 0.045936782 0.037675355 0.0012219897 0.009082888 0.045619752 0.0037394634 0.009413709
0.0029420287 0.00336088 4.8415397e-05 0.015843209 0.0058520576 0.004007555 0.0034575798 0.017907849
0.039451957 0.006548512 0.0114814695 1.7342943e-09 0.005268333 0.0077148792 0.0006348101 0.0051143505
0.004389801 0.0015661316 0.0127272755 0.0070576277 0.015213 0.004367582 8.410103e-05 0.013555253
0.0019310408 0.0005512562 0.004557572 0.04121648 0.007307124 0.0066381292 0.0036058442 0.015129964
0.005360046 0.013571772 0.0058255987 0.0055756224 0.004766249 0.0045394264 0.0032388952 0.0008202642
0.022856973 0.0061191455 0.02101906 0.0061360025 0.004190225 0.038512 0.005495972 0.0053243176
00000000: 12c7 3c3d 862a 9b3a 1e83 d63a a63b f63c
00000010: 25f9 3f3c 320d 2b3b 3d42 e43b e148 ce3c
00000020: 4efc 6a3c c842 3c3d 3e4b 1a3d 999b 9a3a
00000030: 59d5 083c 1158 3c3d b7aa 5d3b 618a 053c
00000040: 1b61 333b 3dc1 4a3b 3c13 5438 8a55 7c3c
00000050: 3107 ad3b b107 6d3b 9d2e 4e3b de8b 8b3c
00000060: 264f 213d 3f69 c73b e702 3f3c 20a2 c130
00000070: 3b88 9d3b 270c ec3b d600 223a 7781 923b
00000080: c24f 7d3b e50a bc3a b3ac 493c 4515 d23b
00000090: 0e7b 6d3c 1596 853b 1fd2 b138 fdd7 533c
000000a0: c7c1 e73a 15bf 0a3a 0df9 803b 8b1d 2a3d
000000b0: 90ba e63b c3df cd3b 12df 563b cfe7 713c
000000c0: 383d 973b a59d 523c db57 ab3b 7955 a63b
000000d0: dafd 8f3b d03e 843b f99b 3f3b e005 503a
000000e0: d0a7 b83c 381a b83b 9212 a73c 8440 bc3b
000000f0: a527 683b efbe 203d 4b4e a83b 83ea a03b
00000100: 065d 57bc 6539 c8b8 6ac5 b639 831c 33bc
00000110: f837 52b9 2e63 bd3a 60d4 5a3b 73ba fcbb
00000120: cc5b 6dbb 78cf adbc 06b0 3bbc ab9b 3f3a
00000130: 5ea9 9139 d45f 59bc bbd1 083b ffd2 5c3b
00000140: ddbb c03a 97b2 cb3a d4d3 d836 eb93 50bb
00000150: 1f1d e93a 9dda 083b b66a fe3a 3f51 91bb
00000160: 3b85 67bc 8a00 ec39 561d 6fbb 5625 a5b0
00000170: 831c cc3a 4b90 0fba b8e9 e639 3bbe 3b3b
00000180: aec5 283b 3270 403a 24e1 c1ba de84 af3a
00000190: 8d68 3dbb 6485 493a ce87 c7b7 dc2c 8ebb
000001a0: f0db a83a bd82 6f39 944f 373b d51f 90bc
000001b0: 41b0 a0ba b7f5 8339 19db 003b ec91 93bb
000001c0: a1fe 443b 3ef4 23bb 35af 0e3b a86d d13a
000001d0: 7714 9c3a 6b79 213b 33d2 f73a 0579 f2b8
000001e0: 90d2 92bb 0525 413a 16c5 aabb 5cb1 d439
000001f0: b113 343b faf2 e0bb f4e4 df39 3424 cc3a
00000200: bfed 8cbd 4555 913c a605 e6bb 6d77 e1bb
00000210: 70ab 0cbd f84f 393c 44b2 133c 2e6e 4ebc
00000220: 318a cfba 0a92 423c 5565 8e3c bb95 ebbb
00000230: 8edf 07bc d381 a03d c235 5d3c 64d2 90bc
00000240: 5356 29bc f8f7 103c 811f 8d3a edec 00bd
00000250: 29b9 9dbb 44da 813c e444 5abc f863 f9bb
00000260: e621 813c cc4a 9a3c ffba d73b ff25 a035
00000270: 7da7 c23b 243a b0bc d75a c53b c886 543c
00000280: 8810 333c 7549 293c 5340 fdbc b85a a03c
00000290: 1b76 b9bc 7993 693b 2e39 73bb 188a 35bb
000002a0: ce2a afbb ccb1 213a f434 9a3c 793b 023d
000002b0: 64c0 353d c5bd 71bc 9d13 2f3c e190 9fbc
000002c0: b498 5e3c 0316 0abc 2770 ecbb 6a47 163c
000002d0: 7be4 84bc 6194 453c a288 5d3c ef71 9cbc
000002e0: 6a33 4a3d c0a6 193c c841 763b 3d60 873c
000002f0: bfdd 6f3c 4544 893c e47c a23c b869 c73c
00000300: f317 3a3d 1a32 9d3a 9df4 dd3a b0e3 f83c
00000310: 3c5e 533c 3a4a 383b 83e6 023c 100f d33c
00000320: 6cc4 763c 3528 3c3d 7951 1a3d 2c2b a03a
00000330: 65d0 143c c7db 3a3d c911 753b f53b 1a3c
00000340: 0dcf 403b 3642 5c3b a311 4b38 9ec9 813c
00000350: 9ec2 bf3b cf51 833b 9098 623b 7bb3 923c
00000360: 6098 213d e694 d63b c61c 3c3c 0e5c ee30
00000370: fba1 ac3b 19cd fc3b 6269 263a 4896 a73b
00000380: 52d8 8f3b a846 cd3a 1086 503c ac43 e73b
00000390: f23f 793c ef1d 8f3b 665f b038 da16 5e3c
000003a0: fa1a fd3a 2d82 103a af57 953b 9dd2 283d
000003b0: 9970 ef3b aa84 d93b 0750 6c3b abe3 773c
000003c0: 53a3 af3b 235c 5e3c aae4 be3b b6b3 b63b
000003d0: 322e 9c3b 78bf 943b a543 543b 0007 573a
000003e0: 8c3e bb3c 1d83 c83b 2a30 ac3c 8510 c93b
000003f0: 284e 893b c2be 1d3d 8e17 b43b 9d77 ae3b

feature.2.weight_ih_l0 f4 [128, 64]
0.0013860906 0.00027522582 -0.00045458617 -0.0010108078 -0.000831792 0.0005875651 0.0009222674 -0.0009178537
0.00074248883 -0.0013906214 -0.0011515185 -0.00038983632 -0.0007399584 -0.0013254244 0.000674684 -0.000944321
-0.00060983095 0.00061189086 -5.537642e-05 -0.00071590574 -0.0007233861 0.0006688123 -0.0006479926 -0.00084823254
0.0012218754 -0.00065153034 -0.0007648853 -7.3573744e-08 0.0006960745 -0.0006725926 0.0003328827 0.0007530014
0.00070140196 0.00043085002 0.0007223534 -0.00073207845 0.000748384 0.00059144595 -1.13969045e-05 -0.0007424302
-0.0005338023 -0.00031153075 0.00074707624 -0.001277433 -0.0005373641 0.00060648675 0.0006567025 -0.00067304797
0.0007745252 -0.0007438674 -0.00073598756 0.0006978801 -0.00067091023 0.00071868586 0.00064606505 -0.00019472287
-0.00083960016 0.00071181095 -0.00085545034 -0.0006223422 0.0006845222 0.0011464858 0.0005958696 0.0007457256
0.0019442348 0.00029192556 -0.00044664607 -0.0012119097 -0.00094336504 0.0006191672 0.0009967188 -0.0011481787
0.0008469803 -0.0018375702 -0.0015764575 -0.00041342262 -0.00080911035 -0.0018446144 0.0007188582 -0.0010232922
-0.000641314 0.0006330739 -5.1832158e-05 -0.000873838 -0.00075958483 0.00071083463 -0.0007002427 -0.0010006824
0.001572743 -0.0006699319 -0.000860164 -1.4109308e-07 0.0007399335 -0.000735101 0.0003362464 0.0008072125
0.0007372256 0.00040243322 0.0008615194 -0.00084135355 0.00083056255 0.000628407 -9.020487e-06 -0.00081851
-0.0005343661 -0.00032427613 0.0008061919 -0.0016090284 -0.00059226225 0.0007065079 0.00070531946 -0.000772815
0.00083100435 -0.00079776294 -0.0007787968 0.0007362593 -0.0007246505 0.0007656712 0.00067932147 -0.0002054742
-0.0010556574 0.00076774275 -0.0009527327 -0.00068134273 0.0007229822 0.0016641039 0.00061842974 0.00080812076
0.006315516 0.0017708604 -0.0032137742 -0.0057395636 -0.0061528003 0.004899343 0.0077394876 -0.005305961
0.00508361 -0.006682514 -0.0054628174 -0.0031873106 -0.005718027 -0.0059756353 0.005721014 -0.0079058735
-0.005128799 0.004940589 -0.00038475412 -0.0045266775 -0.0059247846 0.005647995 -0.0055511435 -0.0057573444
0.006105268 -0.004989599 -0.005442785 2.858476e-07 0.005683774 -0.0050863833 0.00246761 0.006407501
0.005912869 0.0033021856 0.0049085403 -0.0057315263 0.005063743 0.004692412 2.017504e-05 -0.005286964
-0.004293927 -0.0024540892 0.0064631407 -0.006389961 -0.0037440525 0.00441583 0.0056394637 -0.0042280806
0.006675497 -0.005275709 -0.0060570394 0.0057119206 -0.0054476936 0.006008088 0.005399059 -0.0017891616
-0.004815294 0.005784129 -0.0053160163 -0.004690458 0.0059570274 0.0054108966 0.004641148 0.006188671
0.0097179925 0.0019653079 -0.0033177156 -0.0076524806 -0.0068464945 0.004944996 0.007919311 -0.007027087
0.006009227 -0.010000055 -0.00814083 -0.0032200173 -0.0061585195 -0.009277529 0.0057799844 -0.008139171
-0.0051758974 0.005019591 -0.00039842178 -0.0055919425 -0.00607546 0.005700556 -0.005600332 -0.006832939
0.008836615 -0.0052779303 -0.006166034 -6.77245e-08 0.0058380053 -0.005515884 0.0024996463 0.00647747
0.0059434595 0.00317835 0.005728073 -0.0061040223 0.005948892 0.004871203 -3.1223837e-05 -0.0060387193
-0.004240376 -0.0024000825 0.0064779925 -0.009265118 -0.0042621614 0.0048684524 0.0057013878 -0.0052301227
0.0067484546 -0.006012662 -0.006225042 0.005877121 -0.0056102495 0.0060760505 0.0054265256 -0.0016314369
-0.006353637 0.0060159657 -0.0066004293 -0.0050605573 0.0058890325 0.0081816325 0.0048901397 0.0063517094
00000000: 7cad b53a 2f4c 9039 8655 eeb9 157d 84ba
00000010: 9e0c 5aba d406 1a3a 51c4 713a 1e9c 70ba
00000020: 95a3 423a 8345 b6ba 8dee 96ba f262 ccb9
00000030: c5f9 41ba ddb9 adba 47dd 303a 4f8c 77ba
00000040: 10dd 1fba 4d67 203a fa43 68b8 9fab 3bba
00000050: 9fa1 3dba 3c53 2f3a 0cde 29ba ec5b 5eba
00000060: 5627 a03a 76cb 2aba 9582 48ba 98ff 9db3
00000070: c578 363a ed50 30ba c286 ae39 1265 453a
00000080: 4ade 373a b6e3 e139 515c 3d3a f4e8 3fba
00000090: 332f 443a 440b 1b3a 5535 3fb7 a69f 42ba
000000a0: deee 0bba f354 a3b9 70d7 433a 8a6f a7ba
000000b0: e5dd 0cba a3fc 1e3a 8f26 2c3a 7c6f 30ba
000000c0: 8209 4b3a 1900 43ba 4aef 40ba f1f1 363a
000000d0: 06e0 2fba 3166 3c3a b15c 293a 862e 4cb9
000000e0: 9d18 5cba d398 3a3a 4d40 60ba ae24 23ba
000000f0: 8271 333a ae45 963a 2234 1c3a cc7c 433a
00000100: b2d5 fe3a 960d 9939 d22b eab9 f1d8 9eba
00000110: 284c 77ba 9b4f 223a 55a4 823a 7c7e 96ba
00000120: e307 5e3a a0da f0ba 23a1 ceba a5c0 d8b9
00000130: 7a1a 54ba fdc6 f1ba c271 3c3a fd1f 86ba
00000140: db1d 28ba dff4 253a 5b66 59b8 4712 65ba
00000150: e01e 47ba 4e57 3a3a 7e90 37ba 5429 83ba
00000160: 8024 ce3a 5e9e 2fba a17c 61ba 5f7f 17b4
00000170: 19f8 413a cbb3 40ba 3a4a b039 1d9b 533a
00000180: 5f42 413a acfd d239 97d7 613a 488e 5cba
00000190: 1cba 593a aebb 243a b256 17b7 4791 56ba
000001a0: b414 0cba 9b03 aab9 9f56 533a 09e6 d2ba
000001b0: 0c42 1bba f134 393a 30e5 383a bd96 4aba
000001c0: c2d7 593a f720 51ba 2b28 4cba 8601 413a
000001d0: 79f6 3dba 53b7 483a 7e14 323a 9074 57b9
000001e0: fc5d 8aba 5842 493a cfc0 79ba 239c 32ba
000001f0: 8486 3d3a 101e da3a 1e1e 223a 11d8 533a
00000200: 63f2 ce3b 371c e83a 2f9e 52bb f312 bcbb
00000210: 6e9d c9bb ab8a a03b 879b fd3b a0dd adbb
00000220: 6994 a63b fef8 dabb 6f01 b3bb 33e2 50bb
00000230: 495e bbbb 43cf c3bb 5877 bb3b a387 01bc
00000240: 7c0f a8bb aae4 a13b d3b8 c9b9 8654 94bb
00000250: b224 c2bb d112 b93b 5ee6 b5bb 1ba8 bcbb
00000260: b30e c83b ca7f a3bb 6459 b2bb 9876 9934
00000270: f43e ba3b adab a6bb a0b7 213b 04f6 d13b
00000280: bdc0 c13b 7b69 583b d2d7 a03b 87cf bbbb
00000290: c1ed a53b cec2 993b 923d a937 453e adbb
000002a0: 12b4 8cbb c9d4 20bb c1c8 d33b e162 d1bb
000002b0: c75e 75bb abb2 903b 40cb b83b b68b 8abb
000002c0: 21be da3b dbdf acbb 217a c6bb 102b bb3b
000002d0: 9182 b2bb 7fdf c43b 97ea b03b 4d82 eaba
000002e0: 9dc9 9dbb ca88 bd3b fa31 aebb 6ab2 99bb
000002f0: 2b33 c33b e44d b13b c514 983b 56ca ca3b
00000300: 3738 1f3c 65cc 003b 086e 59bb a9c1 fabb
00000310: 8f58 e0bb a209 a23b ffbf 013c 7a43 e6bb
00000320: 0de9 c43b 45d7 23bc 1e61 05bc ed06 53bb
00000330: 68cd c9bb c700 18bc 0666 bd3b 285a 05bc
00000340: 939a a9bb 627b a43b 44e3 d0b9 9d3c b7bb
00000350: a714 c7bb bbcb ba3b fd82 b7bb d9e6 dfbb
00000360: 73c7 103c 7df2 acbb 710c cabb f06f 91b3
00000370: bd4c bf3b 97be b4bb 1bd1 233b f540 d43b
00000380: 5ac1 c23b dd4b 503b 8fb2 bb3b 4004 c8bb
00000390: ecee c23b 9d9e 9f3b 57f6 02b8 73e0 c5bb
000003a0: daf2 8abb b44a 1dbb 5745 d43b b9cc 17bc
000003b0: 9aa9 8bbb 8a87 9f3b b5d2 ba3b 7361 abbb
000003c0: 2422 dd3b dd05 c5bb 70fb cbbb dd94 c03b
000003d0: 2fd6 b7bb 9b19 c73b ffd0 b13b f0d5 d5ba
000003e0: 2c32 d0bb 9421 c53b 6a48 d8bb 08d3 a5bb
000003f0: c9f8 c03b 410c 063c 773d a03b 0022 d03b

feature.2.weight_hh_l0 f4 [128, 32]
-8.7187116e-05 0.000275053 -9.833337e-06 0.00018603013 4.9377173e-05 -0.00020974458 -6.63743e-05 0.00031323926
0.0003032216 0.00036150246 -0.00012501309 0.0001317032 -0.00011753531 -0.00018422469 0.00015298184 -0.00021990569
-3.0881423e-05 8.4894375e-05 -0.000107940876 4.985835e-05 -8.7385386e-05 -0.0004071547 0.00034541468 0.00020156548
-0.00011653324 7.578045e-05 8.800501e-05 0.00010203915 7.1735303e-07 -8.2225866e-05 -0.00018719542 -0.00011959599
-4.3949396e-05 0.00022255463 -0.0002194886 3.542473e-05 -4.031223e-05 -8.338527e-05 -0.00038465514 0.00017254087
8.736449e-05 0.00028179883 -8.090504e-05 7.755207e-05 -1.27115e-05 -0.000105953244 0.00012766762 -0.00014915489
0.000169755 1.4458423e-05 3.819166e-05 -0.00014828578 0.00018348069 -0.00029740992 0.00023698807 2.6423319e-05
-0.000118573174 1.8574368e-05 6.802017e-06 -7.1715964e-05 0.00025896102 5.542334e-05 -0.000103607556 0.00011508497
-0.0009448429 0.002094037 0.00073518686 0.0022645905 0.00053413975 -0.002284969 0.00079778425 0.003581707
0.0039023508 0.0034125918 -0.0011550064 0.0011551376 -0.0013694336 -0.0016321951 0.0014969539 -0.00229606
-0.0010189161 0.0009551413 -0.0013522453 0.0012256331 -0.002192697 -0.0043018106 0.0035137527 0.0025950233
-0.0010227419 0.0008508122 0.0010835741 0.0014381898 -0.0010208547 -0.0011579437 -0.001686877 -0.0021201412
-0.00078033627 0.0019570903 0.00030574668 0.001834474 0.00039132484 -0.0019167734 3.503842e-05 0.0029988005
0.0031159783 0.0030939092 -0.0009874952 0.0009818933 -0.0011120652 -0.001422416 0.00134077 -0.0020131797
-0.0005837535 0.0007517366 -0.0010257718 0.00075924676 -0.0013354659 -0.0038107296 0.0030978285 0.0020730013
-0.0009958872 0.00066724676 0.0008423901 0.0010378838 -0.00046829475 -0.00084736815 -0.0014533255 -0.0014961308
-3.942712e-05 0.000108487395 -5.058934e-05 7.509128e-05 1.3906708e-05 -8.8152294e-05 -2.6969175e-05 0.00013761563
0.00012546658 0.00016415375 -5.3721073e-05 5.197868e-05 -3.0288742e-05 -5.444305e-05 6.145244e-05 -9.1350994e-05
-1.8168932e-05 3.7953072e-05 -2.970564e-05 2.4986573e-05 -3.78026e-05 -0.0001600606 0.00015010087 7.7828925e-05
-4.6845944e-05 3.1177442e-05 3.725578e-05 4.863159e-07 4.9802675e-05 -3.88893e-05 -7.663555e-05 -5.135413e-05
-0.00053947506 0.0014388285 8.223358e-05 0.00124908 0.00026296487 -0.0013303615 -0.00020507067 0.002103411
0.0021437886 0.0022425381 -0.00069925736 0.0006959544 -0.0007469085 -0.0010126284 0.0009518347 -0.001436416
-0.00030199465 0.00051334914 -0.00065772294 0.00042040637 -0.00076207827 -0.0027358916 0.0022176278 0.00139794
-0.00073382526 0.00045326608 0.0005693338 0.0006559394 -0.00017748468 -0.00053699967 -0.0010223506 -0.00094014127
-0.0032771518 0.0072695822 0.0023175399 0.007466082 0.0017133467 -0.0076346113 0.0021290386 0.011688927
0.012318375 0.011507712 -0.003994613 0.003939138 -0.0046674516 -0.0056135086 0.0052111573 -0.007753956
-0.003298065 0.0032685958 -0.004542731 0.003972193 -0.0065765698 -0.014386395 0.011726308 0.008515276
-0.003749652 0.0029124813 0.0037149314 0.004724975 -0.0030721882 -0.0038999477 -0.0057874797 -0.0067319376
-0.001131727 0.002940595 0.00021779929 0.0025050163 0.0005392052 -0.0027007374 -0.00052666 0.004157574
0.0041196137 0.0045546363 -0.0014469983 0.0014415665 -0.0015410652 -0.0020594106 0.0019578664 -0.0029154217
-0.000624713 0.0010473147 -0.0013516574 0.0008657834 -0.0013339369 -0.0055088312 0.0044677206 0.0027979377
-0.0015337608 0.00094261137 0.0011753408 0.0013388625 -0.00032962768 -0.001127457 -0.0021013042 -0.0018210799
00000000: 3ad8 b6b8 fd34 9039 dcf9 24b7 1511 4339
00000010: 561a 4f38 e2ee 5bb9 6e32 8bb8 433a a439
00000020: b7f9 9e39 0a88 bd39 f215 03b9 cf19 0a39
00000030: 4a7d f6b8 702c 41b9 c069 2039 7c96 66b9
00000040: ad86 01b8 5209 b238 515e e2b8 ff1e 5138
00000050: ac42 b7b8 6177 d5b9 c618 b539 525b 5339
00000060: 4f63 f4b8 52ec 9e38 548f b838 dafd d538
00000070: 2090 4035 ad70 acb8 e349 44b9 9ccf fab8
00000080: 4e56 38b8 8e5d 6939 8626 66b9 0495 1438
00000090: ed14 29b8 20df aeb8 8aab c9b9 16ec 3439
000000a0: 7437 b738 66be 9339 90ab a9b8 73a3 a238
000000b0: 7a43 55b7 3733 deb8 84de 0539 7666 1cb9
000000c0: 4300 3239 7492 7237 fc2f 2038 297d 1bb9
000000d0: b964 4039 afed 9bb9 0080 7839 a5a7 dd37
000000e0: 7daa f8b8 27d0 9b37 e23c e436 3766 96b8
000000f0: 29c5 8739 5c76 6838 e247 d9b8 c659 f138
00000100: 55af 77ba 1c3c 093b 8eb9 403a 8669 143b
00000110: 8305 0c3a 6bbf 15bb 6522 513a 12bb 6a3b
00000120: 95be 7f3b caa5 5f3b 9563 97ba fc67 973a
00000130: 917e b3ba 61ef d5ba 7035 c43a 7f79 16bb
00000140: 278d 85ba 7362 7a3a d33d b1ba 6ca5 a03a
00000150: 5ab3 0fbb 34f6 8cbb fd46 663b 4411 2a3b
00000160: 860d 86ba 0a09 5f3a b706 8e3a a481 bc3a
00000170: 33ce 85ba 25c6 97ba 331a ddba 11f2 0abb
00000180: 7b8f 4cba 8742 003b a04c a039 bc72 f03a
00000190: bb2a cd39 3e3c fbba 38f6 1238 8687 443b
000001a0: 7135 4c3b 2fc3 4a3b d76e 81ba dfb2 803a
000001b0: b7c2 91ba 5c70 baba c7bc af3a 8def 03bb
000001c0: 0907 19ba 3010 453a 3173 86ba 3008 473a
000001d0: cd0a afba 6fbd 79bb f004 4b3b 31db 073b
000001e0: 6e88 82ba 2cea 2e3a d8d3 5c3a 9a09 883a
000001f0: 7585 f5b9 ea21 5eba 837d beba d219 c4ba
00000200: 8c5e 25b8 ba83 e338 e42f 54b8 537a 9d38
00000210: db50 6937 67de b8b8 dd3b e2b7 ea4c 1039
00000220: ae8f 0339 b020 2c39 9052 61b8 af03 5a38
00000230: 9414 feb7 c859 64b8 07e0 8038 b193 bfb8
00000240: 7c69 98b7 cd2f 1f38 6030 f9b7 429a d137
00000250: 3c8e 1eb8 f1d5 27b9 6564 1d39 1638 a338
00000260: 737c 44b8 86c4 0238 1743 1c38 608b 0235
00000270: 37e3 5038 111d 23b8 66b7 a0b8 1465 57b8
00000280: 8f6b 0dba 1397 bc3a d174 ac38 2cb8 a33a
00000290: 8cde 8939 865f aeba 3d08 57b9 61d9 093b
000002a0: ce7e 0c3b 8cf7 123b 5e4e 37ba b670 363a
000002b0: 2ecc 43ba 2cba 84ba 8c84 793a 1f46 bcba
000002c0: 0955 9eb9 4792 063a 0a6b 2cba fd69 dc39
000002d0: 35c6 47ba a54c 33bb 9f55 113b 153b b73a
000002e0: 2e5e 40ba 58a4 ed39 583f 153a 59f3 2b3a
000002f0: 2e1b 3ab9 70c5 0cba 6500 86ba d073 76ba
00000300: 7cc5 56bb ad35 ee3b dee1 173b 09a6 f43b
00000310: 6092 e03a c32b fabb 5787 0b3b ea82 3f3c
00000320: 02d3 493c d88a 3c3c 3ee5 82bb e213 813b
00000330: 6cf1 98bb 86f1 b7bb 5bc2 aa3b e614 febb
00000340: 5924 58bb f035 563b 31db 94bb 2c29 823b
00000350: 4480 d7bb eab4 6bbc b31f 403c a883 0b3c
00000360: b9bc 75bb 54df 3e3b 3576 733b f7d3 9a3b
00000370: c456 49bb 4496 7fbb e6a4 bdbb 9697 dcbb
00000380: 7556 94ba ffb6 403b 0d61 6439 332b 243b
00000390: 7359 0d3a dbfe 30bb 8e0f 0aba 423c 883b
000003a0: d3fd 863b 0f3f 953b 35a9 bdba f2f2 bc3a
000003b0: 91fd c9ba 2df7 06bb 8c4f 003b a910 3fbb
000003c0: c8c3 23ba 0d46 893a 192a b1ba bef5 623a
000003d0: 7fd7 aeba 6d83 b4bb f565 923b 9b5d 373b
000003e0: 7908 c9ba 9419 773a e50d 9a3a c57c af3a
000003f0: e1d1 acb9 2ec7 93ba 09b6 09bb 4db1 eeba

feature.2.bias_ih_l0 f4 [128]
0.0037427773 0.004171085 0.033744533 0.02910407 0.0013686613 0.022280667 0.08798099 0.046237517
0.10707155 0.01980202 0.0035543912 0.0037131612 0.013333473 0.008171958 0.0047577852 0.011333502
0.035476856 0.0062715565 0.020197485 0.04099712 0.11020723 0.03844332 0.017860593 0.04144828
0.00035547945 0.0043393746 0.009100366 0.02825604 0.06274488 0.017202077 0.009692801 0.071934186
-0.0003372672 0.00096775073 -0.006929093 -0.0040057995 -0.00025795345 -0.0029036668 -0.02480387 -0.009611366
-0.02504691 -0.0003676784 -7.95564e-05 -0.00028534725 -0.00093514175 -0.000600939 -5.7764377e-05 -0.00084976753
-0.0066928095 -0.000985553 -0.0030565062 -0.007928512 -0.033007562 -0.0065357513 -0.004792184 -0.013874113
0.00017013976 -0.0006342624 -0.0011639707 -0.004751008 -0.014110894 -0.0028099332 -0.0008489972 -0.01529793
-0.030855449 0.09682249 -0.059381966 0.113938585 0.017633392 -0.0057749115 -0.12184459 0.05767331
0.062329773 0.023735574 -0.022167388 -0.03211016 0.0013855208 -0.03778434 0.031476457 -0.07854807
-0.000995743 0.02670895 0.0006201297 -0.0383842 -0.04469862 -0.06754191 0.017798092 -0.06572149
-0.033241186 0.0010420749 0.022455223 0.01858256 0.10807746 -0.06901658 -0.07979939 0.035048842
0.0037831813 0.004841178 0.03570712 0.033055425 0.0013718443 0.025424976 0.09787809 0.05547208
0.11556352 0.0036234949 0.003595558 0.0037620673 0.013952163 0.008395986 0.004842727 0.011357437
0.036688793 0.0063335397 0.02079348 0.042011663 0.11399669 0.046552252 0.027740518 0.03151344
0.00035825738 0.004374755 0.009247073 0.028664034 0.06220603 0.017499203 0.009912473 0.06221617
00000000: 6249 753b 99ad 883b b537 0a3d a96b ee3c
00000010: a764 b33a f285 b63c 612f b43d 8d63 3d3d
00000020: 5448 db3d d937 a23c caf0 683b 8258 733b
00000030: a474 5a3c ade3 053c 32e7 9b3b 27b0 393c
00000040: 2e50 113d a181 cd3b 3275 a53c 99ec 273d
00000050: 54b4 e13d be76 1d3d 6150 923c acc5 293d
00000060: a55f ba39 5031 8e3b b419 153c 3679 e73c
00000070: 6380 803d 5feb 8c3c 8ece 1e3c 3b52 933d
00000080: 3dd3 b0b9 a7b0 7d3a 720d e3bb 1543 83bb
00000090: ed3d 87b9 724b 3ebb 7c31 cbbc fe78 1dbc
000000a0: 2d2f cdbc f6c4 c0b9 84d7 a6b8 a99a 95b9
000000b0: 4d24 75ba 5588 1dba 0748 72b8 efc2 5eba
000000c0: 5b4f dbbb ac2d 81ba aa4f 48bb 97e6 01bc
000000d0: f032 07bd db29 d6bb c107 9dbb 3f50 63bc
000000e0: 8b67 3239 a144 26ba 6090 98ba 58ae 9bbb
000000f0: 6131 67bc db26 38bb 3d8f 5eba 2ba4 7abc
00000100: 91c4 fcbc df4a c63d 813a 73bd a258 e93d
00000110: e773 903c 783b bdbb a889 f9bd d93a 6c3d
00000120: 814d 7f3d 1b71 c23c 6298 b5bc f185 03bd
00000130: 5d9a b53a c1c3 1abd 75ed 003d cfdd a0bd
00000140: 9783 82ba bacc da3c 3390 223a c038 1dbd
00000150: e615 37bd 6a53 8abd 4ecd 913c fd98 86bd
00000160: e927 08bd 3b96 883a 04f4 b73c 743a 983c
00000170: b757 dd3d 9158 8dbd dd6d a3bd 608f 0f3d
00000180: 40ef 773b bfa2 9e3b a141 123d 2065 073d
00000190: 75cf b33a 0a48 d03c 4f74 c83d b136 633d
000001a0: 91ac ec3d 2878 6d3b 74a3 6b3b 048d 763b
000001b0: 9d97 643c 518f 093c bdaf 9e3b 8b14 3a3c
000001c0: fd46 163d 9589 cf3b 1757 aa3c 6c14 2c3d
000001d0: 1977 e93d 93ad 3e3d 1540 e33c 3d14 013d
000001e0: 7ed4 bb39 1b5a 8f3b 0981 173c d6d0 ea3c
000001f0: c0cb 7e3d 7d5a 8f3c ed67 223c 62d6 7e3d

feature.2.bias_hh_l0 f4 [128]
0.0037388566 0.0053862752 0.034738764 0.034733694 0.0013679521 0.021998173 0.1050554 0.03138209
0.10389606 0.017452149 0.0035650556 0.0037159687 0.013507056 0.008185756 0.0047569023 0.009847279
0.035519727 0.006265847 0.020277916 0.04103426 0.124167934 0.01761053 0.030170284 0.053718567
0.0003553619 0.0043400135 0.009100339 0.028089046 0.06308067 0.017164376 0.0097036185 0.058664802
-0.00033701348 0.0010514032 -0.0069318847 -0.005760856 -0.0002581794 -0.003100857 -0.024972027 -0.012193351
-0.021891149 -0.0006619956 -8.156012e-05 -0.0002853386 -0.0009325801 -0.00060659606 -5.784614e-05 -0.00080314727
-0.00670825 -0.0009861024 -0.0030564885 -0.007657256 -0.029427754 0.0052747144 -0.0066039213 -0.0030604657
0.00017216161 -0.0006367301 -0.0011641637 -0.004666154 -0.014586601 -0.0028179649 -0.0008489971 -0.011574754
0.0069304155 0.009227717 -0.036728807 -0.086898275 -0.007011533 -0.037392054 -0.086452626 0.05745163
0.021231743 0.11839896 -0.019055959 0.07261896 -0.0029245429 -0.016520845 0.028947966 0.0042063487
0.06983526 -0.0070971274 0.004898937 -0.037045315 0.15145813 -0.09367305 0.11273499 0.07152491
-0.03193137 0.014704 -0.013741925 -0.03513499 0.009549517 0.079407685 0.027255906 0.010283502
0.003786482 0.006181438 0.035601474 0.03462882 0.0013721309 0.023261787 0.105113864 0.058572758
0.074304156 0.013089115 0.0035939002 0.0037598915 0.0135769015 0.00834614 0.004851927 0.016762214
0.03643724 0.0063286647 0.020794364 0.04254382 0.104576655 0.037557572 0.03070069 0.06336914
0.0003582946 0.0043791835 0.0092473095 0.028888837 0.066573896 0.017531892 0.009926609 0.07305356
00000000: 9b07 753b 5a7f b03b 3c4a 0e3d eb44 0e3d
00000010: db4c b33a 8335 b43c 4927 d73d 828a 003d
00000020: 75c7 d43d cff7 8e3c b5a3 693b 9c87 733b
00000030: b34c 5d3c 8d1d 063c cadf 9b3b 7b56 213c
00000040: 227d 113d bc51 cd3b df1d a63c 8a13 283d
00000050: c24b fe3d f543 903c ac27 f73c 0008 5c3d
00000060: de4f ba39 ac36 8e3b 9719 153c 001b e63c
00000070: 7030 813d 4e9c 8c3c edfb 1e3c 814a 703d
00000080: 2fb1 b0b9 3dcf 893a dd24 e3bb 90c5 bcbb
00000090: 415c 87b9 bf37 4bbb 2392 ccbc 9fc6 47bc
000000a0: 1155 b3bc c689 2dba 420b abb8 8099 95b9
000000b0: 6478 74ba f903 1fba d29f 72b8 4d8a 52ba
000000c0: e1d0 dbbb 1b40 81ba 5e4f 48bb b8e9 fabb
000000d0: 7912 f1bc 83d7 ac3b b565 d8bb 1892 48bb
000000e0: 4886 3439 3cea 26ba da96 98ba 89e6 98bb
000000f0: a4fc 6ebc 9bad 38bb 3b8f 5eba 09a4 3dbc
00000100: 8a18 e33b da2f 173c f270 16bd b9f7 b1bd
00000110: 00c1 e5bb 6928 19bd 130e b1bd 6652 6b3d
00000120: 31ee ad3c 277b f23d 3e1b 9cbc 40b9 943d
00000130: b0a9 3fbb b956 87bc 4924 ed3c 69d5 893b
00000140: ca05 8f3d 058f e8bb 4387 a03b d4bc 17bd
00000150: d717 1b3e a8d7 bfbd 9ae1 e63d a77b 923d
00000160: 78ca 02bd 0ce9 703c d025 61bc b5e9 0fbd
00000170: 9475 1c3c 7fa0 a23d c747 df3c 227c 283c
00000180: a026 783b a98d ca3b dad2 113d f3d6 0d3d
00000190: 13d9 b33a 818f be3c f045 d73d fde9 6f3d
000001a0: c72c 983d ba73 563c a487 6b3b 8368 763b
000001b0: a771 5e3c 40be 083c eafc 9e3b e950 893c
000001c0: 373f 153d b060 cf3b f158 aa3c 6e42 2e3d
000001d0: 492c d63d f8d5 193d 0380 fb3c aec7 813d
000001e0: 7dd9 bb39 417f 8f3b 0782 173c 48a8 ec3c
000001f0: e557 883d 0b9f 8f3c 37a3 223c 1b9d 953d
