Code/CNNLSTM/Outputs/Pretrained/best_model.pth (torch, 425954 bytes, 27 tensors)

conv1.weight f4 [64, 5, 2]
0	0x3ac0ef4e	0.0014719756
1	0x3d905b2a	0.07048638
2	0xbd79cc11	-0.06098563
3	0xbb712c2a	-0.0036800005
4	0xbce3543c	-0.027750127
5	0xbc8b66f4	-0.017016865
6	0x3ca8a497	0.020586295
7	0xbcb96203	-0.022629743
8	0x3bda89d7	0.006669264
9	0xbc8543f4	-0.016267754
10	0xbb0ddb7f	-0.0021645722
11	0x3c02faa5	0.007994329
12	0xbb528146	-0.003212051
13	0x3ba43017	0.0050106156
14	0xbba7fb6a	-0.0051264064
15	0x3c0c37de	0.008558242
16	0xbbe84336	-0.0070880903
17	0x39ce762f	0.00039379435
18	0xbb7ca56f	-0.0038550755
19	0xbcaad13b	-0.020851722
20	0x3d826895	0.06367604
21	0xbd5cef0a	-0.053938903
22	0xbcbd884b	-0.023136279
23	0xbd34248e	-0.043980174
24	0x3bed18db	0.007235629
25	0x3d145475	0.036213357
26	0xbd710f59	-0.058852527
27	0xbd9897d1	-0.07450832
28	0xbb21206f	-0.0024585982
29	0x3d7c7a40	0.061640024
30	0x3caefde8	0.021361306
31	0xbb9b016a	-0.004730393
32	0x3b852309	0.0040630144
33	0x3b269e93	0.0025424107
34	0x3c6b4126	0.014358794
35	0xbc7221db	-0.01477858
36	0x3c1b634a	0.009484122
37	0x3c42fbd8	0.011900865
38	0x3c1633f5	0.009167661
39	0xbac3b5e4	-0.0014931527
40	0x3ce553dd	0.02799409
41	0x3d8ec307	0.06970792
42	0x3cc3a318	0.02388148
43	0xbda4db5d	-0.08049653
44	0x3d0ea98e	0.03482967
45	0x3b61d56a	0.003445948
46	0x3a9f0b90	0.0012134183
47	0xbcdac5b1	-0.026705595
48	0xbd522606	-0.051305793
49	0x3cd674ba	0.026178706
50	0xbb7705b3	-0.0037692606
51	0x3bca3568	0.0061709173
52	0xbb53e2fe	-0.0032331343
53	0x3b935187	0.004495803
54	0xbb6b0753	-0.003586252
55	0x3bf40b89	0.007447664
56	0xbba37429	-0.0049882126
57	0x3a3fd3a0	0.00073176064
58	0xb8b20556	-8.488695e-05
59	0xbc621826	-0.013799703
60	0xbd738d66	-0.05946102
61	0x3bc7123e	0.0060751727
62	0xbcdc64e0	-0.02690357
63	0x3d6d18c4	0.057884946
64	0xbc8fd3dd	-0.017557079
65	0xbc9540cc	-0.018219374
66	0xbcb21310	-0.021737605
67	0x3d1274c2	0.03575588
68	0xbcde4bce	-0.027135756
69	0x3d2c5f26	0.042082928
70	0x3d68fbc8	0.056880742
71	0x3dd5ddbd	0.10442684
72	0x3d8f05cb	0.06983527
73	0xbd46c932	-0.04853172
74	0xbccce623	-0.025012081
75	0xbdcc143b	-0.09964796
76	0xbd929b3f	-0.07158517
77	0xbd68eaff	-0.056864735
78	0xbca295b1	-0.019846769
79	0xbdb0e19d	-0.08636782
80	0xba3b2c59	-0.0007140092
81	0x39a16011	0.00030779888
82	0xba89ca92	-0.0010512641
83	0x399d127f	0.00029959154
84	0xba39a044	-0.00070810714
85	0x3ad6b07a	0.0016379498
86	0x38ff9281	0.00012186636
87	0xb9cf9b1b	-0.0003959768
88	0x3a7c5e52	0.0009627092
89	0xbaeed0e4	-0.0018220213
90	0xbbc2f7b9	-0.005949941
91	0x3ce3e902	0.027821068
92	0x3bc897ca	0.0061216103
93	0xbc3690a3	-0.0111428825
94	0xbb2ed4f3	-0.002667722
95	0xbc9fca46	-0.019505631
96	0x3c18f951	0.009336785
97	0xbb261109	-0.0025339744
98	0xba14463f	-0.00056562194
99	0x3a2f8044	0.0006694833
100	0x3bc01ce0	0.005862817
101	0xbc18aae8	-0.009318091
102	0xbcdb6a04	-0.02678395
103	0x3ac4b86a	0.0015008573
104	0xbca096a8	-0.019603088
105	0xbc4e960b	-0.012609015
106	0xbce87605	-0.028376589
107	0xbc5fd7cf	-0.013662293
108	0x3c2eadae	0.010661526
109	0xbccdb5d9	-0.025111126
110	0xba7373e1	-0.00092869817
111	0x39d34c54	0.00040301925
112	0xba91fb34	-0.0011137486
113	0x39ba51ca	0.00035537622
114	0xba60416d	-0.0008554671
115	0x3aef694d	0.0018265635
116	0x39a3f50a	0.0003127235
117	0xb9a6dab4	-0.00031824934
118	0x3a8f0e1e	0.0010914241
119	0xbb032ef7	-0.0020017007
120	0xba163f29	-0.00057314575
121	0xba30fb9a	-0.0006751359
122	0x39869e79	0.00025676543
123	0x399548e4	0.00028473802
124	0x3a6335f1	0.00086674007
125	0xb9068b98	-0.00012831239
126	0xb95aa0b5	-0.00020849968
127	0xba46d840	-0.00075853243
128	0x3311ff80	3.399282e-08
129	0x3a3f623c	0.000730071
130	0xbb071044	-0.002060906
131	0xbb2521b9	-0.0025197102
132	0xba8bae3d	-0.0010656785
133	0x3b42d1fa	0.0029727207
134	0x3b30cd51	0.0026977847
135	0x3a62c018	0.000864984
136	0x39ccc738	0.00039058342
137	0x3a1ba112	0.0005936782
138	0xbab4c850	-0.0013792608
139	0xba22474a	-0.00061904325
140	0xbde1fe3a	-0.11034818
141	0x3cb10a3c	0.021611325
142	0xbccb1f36	-0.024795156
143	0xbcadec77	-0.02123092
144	0x3d4764af	0.048680004
145	0xbd922d1f	-0.071375124
146	0xbd8a5313	-0.067541264
147	0x3dd24ac2	0.10268165
148	0xbca409fe	-0.020024296
149	0xbcd922ea	-0.026505906
150	0xbd600e16	-0.054700933
151	0x3d373f9c	0.044738397
152	0x3bb212c6	0.005434367
153	0xbccfd07c	-0.025367968
154	0xbd054a9e	-0.032541864
155	0x3d5ca527	0.05386844
156	0xbb812779	-0.003941473
157	0xbcf5130a	-0.029916305
158	0xbccab30c	-0.02474358
159	0x3cae5208	0.02127935
160	0xbd280603	-0.04102136
161	0xbd1c202a	-0.03811661
162	0xbd080bcb	-0.03321437
163	0x3cd4ec0c	0.025991462
164	0xbc9408c0	-0.018070579
165	0xbd181d1f	-0.037137147
166	0x3c47aec0	0.01218766
167	0xbd36a3b3	-0.04458971
168	0xbc1faab1	-0.009745286
169	0xbcbaf37a	-0.022821177
170	0x3d532fdc	0.051559314
171	0xbae77608	-0.0017659077
172	0xbd05aee9	-0.03263751
173	0xbd6d9270	-0.05800098
174	0x3b25c2da	0.0025293143
175	0xbd3908a2	-0.04517425
176	0xbca06e7e	-0.019583937
177	0x3d09903b	0.033584815
178	0xbc381656	-0.011235794
179	0x3d2f33c7	0.042773988
180	0xbdb46804	-0.08808902
181	0x3d199337	0.03749391
182	0xbd21f450	-0.039539635
183	0x3d2f2496	0.0427595
184	0x3cbfd517	0.023417039
185	0x3dd697c0	0.10478163
186	0xbdd55054	-0.10415712
187	0xbd774683	-0.06036998
188	0x3d6cf1f5	0.057847936
189	0x3e14f797	0.14547573
190	0x3ae074cc	0.0017124652
191	0x3a6e6094	0.0009093371
192	0x3b75f7bc	0.0037531694
193	0xbb7fd044	-0.0039034048
194	0x3b72c618	0.0037044343
195	0xbbc356f8	-0.005961295
196	0x3b3039b7	0.002688987
197	0xbb11386b	-0.0022158872
198	0x3b804911	0.00391496
199	0x3aa4c14f	0.0012569817
200	0x3b9d5a7f	0.0048020477
201	0x3c15b7f2	0.009138094
202	0x3bd637f3	0.0065374314
203	0xbbf6117a	-0.0075094076
204	0xbad375e5	-0.0016133158
205	0x3b2015b0	0.002442699
206	0x3b5ac8a6	0.0033383756
207	0xbbc90dd1	-0.0061356802
208	0x3b9bdd89	0.0047566337
209	0xbb9e3dc3	-0.00482914
210	0xbc488e43	-0.012240949
211	0xba85ae99	-0.0010199129
212	0xbbaadcbe	-0.005214303
213	0xbce3525e	-0.027749237
214	0xb9a9466e	-0.00032286666
215	0xbb28be0c	-0.0025748042
216	0x3c26090c	0.010133993
217	0xbc7efe63	-0.01556358
218	0x3b964e43	0.0045869662
219	0x3b955ea6	0.004558402
220	0xb99c98bb	-0.00029868432
221	0xbaad5427	-0.0013223932
222	0xbaaa2513	-0.001298102
223	0x3b0c04c7	0.0021365152
224	0xba26e988	-0.00063671963
225	0x3b237812	0.0024943394
226	0x3a80960c	0.0009810342
227	0x39edebc4	0.00045379822
228	0x3afd6626	0.0019332811
229	0xbaa95e3e	-0.0012921763
230	0x3cee800b	0.02911379
231	0xbd0bb310	-0.034106314
232	0x3d37258c	0.044713542
233	0x3d096ea8	0.033552796
234	0x3c839b9c	0.016065411
235	0x3b35cdb2	0.0027741012
236	0x3d01b445	0.03166606
237	0x3c98d775	0.018657425
238	0x3d030b81	0.031993393
239	0x3d1f4bd3	0.03889067
240	0xba35d749	-0.0006936682
241	0x39a3a699	0.00031213908
242	0xba6e9612	-0.0009101342
243	0x3991b423	0.00027790767
244	0xba23d7bf	-0.0006250105
245	0x3ac0f252	0.0014720655
246	0x394a2bd7	0.00019280553
247	0xb9aeac41	-0.00033316205
248	0x3a604a16	0.00085559615
249	0xbad51212	-0.0016255996
250	0xba4793d9	-0.00076132786
251	0x39cdeb24	0.0003927584
252	0xba8ed91b	-0.0010898443
253	0x39a2ff7d	0.000310894
254	0xba4e1488	-0.0007861336
255	0x3adb3f90	0.0016727317

conv1.bias f4 [64]
0	0x3d3bddba	0.04586575
1	0x3c58a9e4	0.013224099
2	0x3c06bb04	0.008223299
3	0xbcef7c22	-0.029233996
4	0xbcf4159d	-0.029795462
5	0x3c07ba39	0.008284145
6	0x3dacdfcb	0.084411226
7	0x3d2e01d2	0.042482205
8	0x3a094eee	0.00052378967
9	0x3cc8f9a7	0.024533106
10	0x3ce79790	0.028270513
11	0x3a0f1cf8	0.0005459334
12	0xba0883ac	-0.0005207609
13	0x3ac980b2	0.0015373437
14	0xbbf84221	-0.0075762426
15	0x3d98fddc	0.07470295
16	0x3ce1eeea	0.027579743
17	0xba93190e	-0.0011222677
18	0xbcee4e54	-0.029090084
19	0xbaa44078	-0.001253142
20	0x39bb8c69	0.00035772033
21	0x3d47ac57	0.04874834
22	0xbb81a5ec	-0.003956547
23	0xbcaa6126	-0.020798277
24	0x39ed03ed	0.00045207088
25	0x3a087101	0.0005204827
26	0xbcd2ac10	-0.025716811
27	0xbda33208	-0.07968527
28	0x3c748c74	0.014926065
29	0xbcf9ded5	-0.030501762
30	0x3c3735b8	0.011182241
31	0xbcd1114f	-0.025520949
32	0x39551a35	0.00020323026
33	0xbc0e8762	-0.00869927
34	0xba5e101c	-0.00084710284
35	0x3c095106	0.008381134
36	0x3bda14e7	0.006655324
37	0x3c23441c	0.009964969
38	0x3961261a	0.00021471866
39	0xbccc7391	-0.02495745
40	0x3c07404e	0.0082550775
41	0xbb464469	-0.0030253178
42	0xbc6ec580	-0.014573455
43	0xbd61fa02	-0.055170067
44	0xbdb68039	-0.08911175
45	0xbd95de8c	-0.07317838
46	0x39928597	0.00027946822
47	0x3bbf671e	0.00584115
48	0xba02f187	-0.0004995097
49	0xbb617302	-0.0034400825
50	0x3cfab2e2	0.030602876
51	0xbd64c49a	-0.055851556
52	0x3a8b7a52	0.0010641313
53	0xbc637a8a	-0.013884196
54	0x3ba9e719	0.0051850197
55	0x3ad651fa	0.0016351335
56	0xb99e8f61	-0.00030242934
57	0x398369ba	0.0002506504
58	0xbc69ffac	-0.014282148
59	0xbd1e810e	-0.038697295
60	0xba987bd7	-0.0011633587
61	0x38b628be	8.686025e-05
62	0x3c029580	0.007970214
63	0x3b27fad5	0.0025631685

conv2.weight f4 [32, 64, 1]
0	0xbd018d18	-0.031628698
1	0xbb8459ed	-0.0040390403
2	0xbd394aed	-0.04523747
3	0xbc254c74	-0.010089029
4	0xbd7b0f52	-0.061293907
5	0xba967d32	-0.0011481403
6	0x3d2e49d4	0.042550877
7	0x3d53a28e	0.051668696
8	0x3a0c09ec	0.00053420546
9	0xbcbc332b	-0.022973618
10	0xbd1e0403	-0.038578045
11	0x3a12d643	0.00056013855
12	0xbb8173d0	-0.0039505735
13	0x3b125c69	0.0022332913
14	0xbd73e690	-0.059546053
15	0x3d45b1e4	0.048265353
16	0xbd4acdb0	-0.049512565
17	0x3cfb80ca	0.03070106
18	0x3da84d99	0.082179256
19	0xbb0af188	-0.0021201093
20	0x3c162988	0.009165175
21	0xbd269f19	-0.04067907
22	0x3bcbdf5d	0.0062216953
23	0x3d63b821	0.05559552
24	0x39eca8fe	0.00045139337
25	0x3a0c6d91	0.0005356903
26	0x3d399da0	0.04531634
27	0x3da003a9	0.07813198
28	0x3da8a239	0.082340665
29	0x3d59cd1e	0.05317413
30	0xbd752832	-0.059852786
31	0xbb96cc32	-0.0046019787
32	0xb8e25a4a	-0.000107933374
33	0xbd406103	-0.046967518
34	0xbab0e95a	-0.0013497279
35	0xbab64fd4	-0.0013909289
36	0x3b2e142b	0.0026562314
37	0x3b2cb6b5	0.002635402
38	0xb8b27d90	-8.511089e-05
39	0x3c935cd4	0.0179886
40	0xbabd0116	-0.0014419879
41	0xba18c1d3	-0.0005827222
42	0x3c8ad05e	0.01694506
43	0xbd3d7580	-0.046254635
44	0xbd70779d	-0.058707822
45	0x3d86ea51	0.06587661
46	0xbbbe2a59	-0.005803388
47	0xbc8c69f5	-0.017140368
48	0xba82c243	-0.0009976107
49	0x3be691d8	0.007036429
50	0xbd0a4ed7	-0.033766594
51	0x3d1c5ef9	0.03817651
52	0x3bd5454e	0.006508506
53	0xbca6df8e	-0.020370271
54	0x3a342e47	0.0006873351
55	0x3bef2085	0.007297578
56	0xbb04024a	-0.0020142966
57	0xba509b55	-0.00079577166
58	0x3cbb3d78	0.022856459
59	0xbd39f7b0	-0.04540223
60	0xbaf5cdb1	-0.0018753317
61	0xbb4431c3	-0.0029936887
62	0xbaaea16f	-0.0013323257
63	0xbbbe2126	-0.0058022914
64	0x002dbed8	4.201059e-39
65	0x0040c179	5.946877e-39
66	0x8032544b	-4.622013e-39
67	0x802183ea	-3.077893e-39
68	0x0005cbc4	5.32275e-40
69	0x00305238	4.437598e-39
70	0x8019889d	-2.344895e-39
71	0x80103f64	-1.492108e-39
72	0x8123d848	-3.0093546e-38
73	0x00105ecf	1.503379e-39
74	0x000a878e	9.66983e-40
75	0x80f64ad0	-2.261837e-38
76	0x00229009	3.174077e-39
77	0x802c1030	-4.046569e-39
78	0x802cdba3	-4.119553e-39
79	0x00309596	4.461765e-39
80	0x80096306	-8.62042e-40
81	0x8032013f	-4.592222e-39
82	0x800c7a76	-1.145957e-39
83	0x810dd84a	-2.605279e-38
84	0x80049c80	-4.23484e-40
85	0x001fbeab	2.915299e-39
86	0x80204acb	-2.965567e-39
87	0x800d27c7	-1.208131e-39
88	0x002cbad0	4.107778e-39
89	0x003db5de	5.667207e-39
90	0x003700aa	5.05119e-39
91	0x00429c29	6.117162e-39
92	0x8004c4b4	-4.37906e-40
93	0x8041dc65	-6.04837e-39
94	0x80088210	-7.81342e-40
95	0x002c309b	4.058198e-39
96	0x81435455	-3.587635e-38
97	0x802f012b	-4.316687e-39
98	0x01047cda	2.4334148e-38
99	0x001a1c4a	2.397871e-39
100	0x0018ee7e	2.289607e-39
101	0x8038bd87	-5.210777e-39
102	0x8182de46	-4.8073405e-38
103	0x00269958	3.544758e-39
104	0x821b39ce	-1.1404191e-37
105	0x000f9f6c	1.434722e-39
106	0x0013e02c	1.825292e-39
107	0x00425a77	6.093595e-39
108	0x801d2716	-2.677251e-39
109	0x002fed7b	4.40146e-39
110	0x80014787	-1.17495e-40
111	0x012603a4	3.0491997e-38
112	0x8156442c	-3.9354503e-38
113	0x800cc3fa	-1.172329e-39
114	0x003aecaf	5.411365e-39
115	0x00173023	2.129485e-39
116	0x00064bc7	5.78197e-40
117	0x802d07e7	-4.135432e-39
118	0x003a35c2	5.345743e-39
119	0x0012c504	1.723715e-39
120	0x800b956e	-1.063796e-39
121	0x0049e438	6.78586e-39
122	0x0018fbae	2.294338e-39
123	0x801136bc	-1.580838e-39
124	0x0135d6da	3.3398598e-38
125	0x002e4c5b	4.251824e-39
126	0x8007e31c	-7.2432e-40
127	0x80049702	-4.21513e-40
128	0xb928ba23	-0.0001609107
129	0xb662f92a	-3.3821657e-06
130	0x39f2e9fd	0.00046332172
131	0x3802cde1	3.1186155e-05
132	0x39b2dfd7	0.0003411758
133	0xb6acfd98	-5.1555216e-06
134	0xb8e01236	-0.000106845444
135	0xba84f1e5	-0.0010142891
136	0xb562c06b	-8.4471566e-07
137	0x37034977	7.825313e-06
138	0xb9f8bfe2	-0.0004744521
139	0xb59b07a0	-1.1550619e-06
140	0x33351bb7	4.2167553e-08
141	0xb33025f1	-4.10127e-08
142	0x38bb6d7b	8.937247e-05
143	0xb9127f0d	-0.00013970975
144	0xba0e90fd	-0.0005438475
145	0xb70be551	-8.3384375e-06
146	0x3a2d067f	0.0006600394
147	0xb68e1dca	-4.2353977e-06
148	0x36b8fa72	5.512783e-06
149	0xb85202cf	-5.0070517e-05
150	0xb61b0bb1	-2.3103605e-06
151	0x3935976e	0.00017317917
152	0xb55df88c	-8.26906e-07
153	0xb5793e57	-9.2850445e-07
154	0x3897b55b	7.234021e-05
155	0x39a29fae	0.00031018018
156	0x398975b9	0.00026218386
157	0x3a2a69b6	0.00065007375
158	0xba36270d	-0.0006948568
159	0x3761834f	1.3441618e-05
160	0xb391cae9	-6.788998e-08
161	0x37fc3c81	3.0068915e-05
162	0xb44c5813	-1.9031022e-07
163	0xb6c52393	-5.875199e-06
164	0xb785f92c	-1.5970865e-05
165	0xb69186af	-4.337016e-06
166	0xb2482353	-1.1649564e-08
167	0x39263972	0.00015852394
168	0xb6a4b15d	-4.9082287e-06
169	0xb6a35c34	-4.8685124e-06
170	0xb68d44fc	-4.2101583e-06
171	0x38a77525	7.9850004e-05
172	0x393c9cce	0.00017987491
173	0x39b3444f	0.00034192434
174	0xb60b1146	-2.0722669e-06
175	0xb5f9764a	-1.8586372e-06
176	0x34b1ffd4	3.315496e-07
177	0x37986663	1.816749e-05
178	0x36e2916c	6.752254e-06
179	0x3951312f	0.00019950116
180	0xb478dda7	-2.3177437e-07
181	0x391eb073	0.00015133787
182	0xb6916ada	-4.333776e-06
183	0x366469b8	3.4036184e-06
184	0xb2f5cbf0	-2.8614494e-08
185	0x3525f714	6.1826836e-07
186	0xb6233427	-2.431925e-06
187	0xb83ef36f	-4.5526245e-05
188	0xb6bea784	-5.6819426e-06
189	0xb5323f39	-6.640217e-07
190	0xb6ccdb15	-6.1051783e-06
191	0xb58ebf40	-1.0635486e-06
192	0x30858f80	9.717809e-10
193	0x2f083666	1.2388454e-10
194	0x2fd2d54a	3.8350328e-10
195	0xaf513f27	-1.9030875e-10
196	0x31a7cba8	4.8834927e-09
197	0x2f73dd40	2.2179325e-10
198	0x3073cfc2	8.8698127e-10
199	0xb38858da	-6.3491555e-08
200	0xae5c3e81	-5.0077723e-11
201	0x2d2d1b1f	9.8399336e-12
202	0xafab13b4	-3.111872e-10
203	0xae98bc73	-6.945635e-11
204	0xabe6d205	-1.6400775e-12
205	0x2bd786a2	1.5314037e-12
206	0xb3db3f61	-1.0209511e-07
207	0x2f4ee690	1.8817503e-10
208	0xb26369e0	-1.3237212e-08
209	0x305476d3	7.729401e-10
210	0x31fbdfe1	7.3305135e-09
211	0xaf114312	-1.3211501e-10
212	0x2f1bb0d4	1.415999e-10
213	0xb00eac16	-5.190385e-10
214	0x2e202f84	3.642199e-11
215	0xb052a4ca	-7.6631734e-10
216	0xae66d05b	-5.2481002e-11
217	0xae72fc6c	-5.5248625e-11
218	0xaedd14cf	-1.0053613e-10
219	0xb22ae067	-9.9463255e-09
220	0x358a5e22	1.0309197e-06
221	0xb11c12af	-2.2711608e-09
222	0xb4107ea8	-1.3457122e-07
223	0xaf3dae81	-1.7251446e-10
224	0x2b89405f	9.752302e-13
225	0xaff23c90	-4.4062576e-10
226	0x2d354086	1.0302986e-11
227	0x2f7ba88c	2.2888197e-10
228	0xafa1759c	-2.9369296e-10
229	0xaf26f99b	-1.518629e-10
230	0xad40d988	-1.0962238e-11
231	0x301ef0f9	5.782251e-10
232	0x2f7719c6	2.2473676e-10
233	0xada0ced3	-1.8281742e-11
234	0xb0328462	-6.494415e-10
235	0xb04f2f53	-7.5373413e-10
236	0xb15e0b8e	-3.231182e-09
237	0x31da8c3b	6.3605774e-09
238	0x2e3d43ac	4.303373e-11
239	0x2d7824fe	1.4105382e-11
240	0xae85e2cf	-6.088429e-11
241	0xb07c6563	-9.1821145e-10
242	0x2f43baa3	1.7801453e-10
243	0x309e7eca	1.1532049e-09
244	0x2db86e6e	2.0967419e-11
245	0xafee181a	-4.3309073e-10
246	0x2e885633	6.199876e-11
247	0xae7f54be	-5.8055553e-11
248	0xae570b19	-4.8895197e-11
249	0x2d91462b	1.6515752e-11
250	0xae1d7d35	-3.5808873e-11
251	0x3185d0e2	3.8945567e-09
252	0xaf1a9df6	-1.4062337e-10
253	0xaed3b3c6	-9.627103e-11
254	0x2f8001d2	2.3284358e-10
255	0xae067f14	-3.058094e-11

conv2.bias f4 [32]
0	0xb6f5b499	-7.3225933e-06
1	0x0198bffa	5.6111455e-38
2	0xb14a89b6	-2.9473148e-09
3	0x28208d0c	8.912369e-15
4	0x2f140b28	1.3464485e-10
5	0xb049d100	-7.342038e-10
6	0x80bb29b0	-1.7188192e-38
7	0x36408770	2.8689064e-06
8	0xb680f64c	-3.84337e-06
9	0xb37a3bbf	-5.8262e-08
10	0x0121a438	2.968885e-38
11	0x81acfa4a	-6.354197e-38
12	0x8103e240	-2.4223226e-38
13	0x36e3db38	6.7906476e-06
14	0x013b3b14	3.4388862e-38
15	0x33a215c1	7.54767e-08
16	0xb323f2ca	-3.817221e-08
17	0x009432d0	1.3609882e-38
18	0xb20e4518	-8.281198e-09
19	0x362f990c	2.6166117e-06
20	0x8257e3ba	-1.586106e-37
21	0x9bb1cd1c	-2.9414743e-22
22	0xb31d9d2e	-3.6697365e-08
23	0x81a01fca	-5.882033e-38
24	0x34b03815	3.282336e-07
25	0x33261d14	3.8676333e-08
26	0x3684b3cc	3.9548377e-06
27	0x36d5913a	6.3648013e-06
28	0xb1ab8609	-4.991993e-09
29	0xb718a383	-9.0979765e-06
30	0xb3829b56	-6.081852e-08
31	0xa5a8d09a	-2.9284708e-16

batch1.weight f4 [32]
0	0x3e001ac4	0.1251021
1	0x00010009	9.1848e-41
2	0xbbb8e96c	-0.0056430604
3	0xb9746ecb	-0.00023310927
4	0xbb2d88d6	-0.0026479266
5	0x3bbc2dfb	0.005742786
6	0x0011b227	1.625112e-39
7	0x3d73d235	0.05952664
8	0x3d8c0369	0.06836588
9	0x3c81439c	0.015779309
10	0xa076117e	-2.0842798e-19
11	0x8021cc28	-3.103809e-39
12	0x001f547b	2.877206e-39
13	0x3e034991	0.12821032
14	0x28f2b9d6	2.694799e-14
15	0x3c6ca184	0.014442805
16	0x3d045ebb	0.032316905
17	0x0012954b	1.706595e-39
18	0x3c2c4c83	0.010516289
19	0x3de7ba64	0.11314848
20	0x148509ac	1.3433383e-26
21	0xb500574d	-4.7810755e-07
22	0xbbe6a562	-0.007038758
23	0x8363de0c	-6.69642e-37
24	0xbc25a661	-0.010110469
25	0xbbe3aac6	-0.006947848
26	0x3e1a1285	0.15046127
27	0x3de3b307	0.11118131
28	0x3b8e6c7c	0.0043464284
29	0x3db7e76f	0.08979689
30	0x3df36e72	0.118863
31	0x37bd8394	2.2591827e-05

batch1.bias f4 [32]
0	0x3d55a2ce	0.052157216
1	0x00024f09	2.12023e-40
2	0xba0c286d	-0.00053466
3	0x338e7658	6.633917e-08
4	0xb9b99f2c	-0.00035404542
5	0xb9193fb6	-0.00014614951
6	0x0048bec2	6.680587e-39
7	0x3cc4a0fe	0.024002548
8	0x3cc3e697	0.023913665
9	0x3bc6940a	0.006060128
10	0x0000d6ac	7.701e-41
11	0x000111f8	9.8281e-41
12	0x003b6f32	5.458184e-39
13	0x3c63aff4	0.013896931
14	0x80195dca	-2.329533e-39
15	0xbab065df	-0.0013458094
16	0x3b0b449b	0.002125061
17	0x0004137b	3.7433e-40
18	0x3a686856	0.0008865645
19	0x3d2c897f	0.042123314
20	0x00040ae9	3.71256e-40
21	0x2c2bb797	2.4402474e-12
22	0xba3c31ba	-0.00071790407
23	0x0006b92b	6.17439e-40
24	0x3bb37835	0.0054769763
25	0xb90afcaa	-0.0001325483
26	0x3a083f6b	0.00051974383
27	0xbb6537f2	-0.0034975973
28	0xba34bf63	-0.0006894974
29	0x3cf9075a	0.030399013
30	0xbc6d2c7b	-0.014475937
31	0x32fe0667	2.9572403e-08

batch1.running_mean f4 [32]
0	0x3c271252	0.010197239
1	0x805d6949	-8.57847e-39
2	0xb8c4ecdd	-9.3901275e-05
3	0xb4113e28	-1.352679e-07
4	0xb7506389	-1.2420941e-05
5	0xb8010600	-3.0761585e-05
6	0x00e63167	2.1139886e-38
7	0x3b775a82	0.0037743156
8	0x3b6143f7	0.0034372786
9	0xbac06d40	-0.0014680997
10	0x006470f3	9.224068e-39
11	0x005436a9	7.73379e-39
12	0x003a954f	5.38002e-39
13	0x3ac65f9a	0.0015134693
14	0x006f2746	1.0207829e-38
15	0x3a952329	0.0011378276
16	0xbb2bc792	-0.0026211482
17	0x008d8789	1.2997426e-38
18	0x3a056423	0.0005088469
19	0x3bd5c997	0.0065242755
20	0x80147e08	-1.881921e-39
21	0x2588bf18	2.372173e-16
22	0x3a4cbe8c	0.0007810376
23	0x003d4a2e	5.628576e-39
24	0xbabf06f9	-0.0014574222
25	0xb7fec401	-3.0370431e-05
26	0x3b871932	0.0041228766
27	0x3a9e7c94	0.001209157
28	0x389f1f97	7.587595e-05
29	0x3bcae123	0.006191389
30	0xbc09f10d	-0.008419287
31	0xac9e6741	-4.5020936e-12

batch1.running_var f4 [32]
0	0x39c94233	0.0003838703
1	0x00000004	6e-45
2	0x33976061	7.049017e-08
3	0x28997299	1.7036111e-14
4	0x2ff2c287	4.4157764e-10
5	0x346d0ed2	2.2077737e-07
6	0x00000004	6e-45
7	0x3891c34e	6.950517e-05
8	0x3886ec9e	6.433691e-05
9	0x3730317f	1.0501942e-05
10	0x00000004	6e-45
11	0x00000004	6e-45
12	0x00000004	6e-45
13	0x394119b8	0.00018415495
14	0x00000004	6e-45
15	0x36490598	2.995459e-06
16	0x36d780b0	6.4224805e-06
17	0x00000004	6e-45
18	0x34c55abe	3.6760133e-07
19	0x39706a37	0.00022927752
20	0x00000004	6e-45
21	0x0b6d0fba	4.565637e-32
22	0x35166636	5.602809e-07
23	0x00000004	6e-45
24	0x35eef057	1.780233e-06
25	0x35258504	6.1660853e-07
26	0x3919c9bd	0.0001466637
27	0x388c5f35	6.693454e-05
28	0x32cea727	2.4057568e-08
29	0x388dcb07	6.761221e-05
30	0x38e35613	0.00010840236
31	0x1a2ce9af	3.5757534e-23

conv3.weight f4 [32, 32, 1]
0	0x3caf6745	0.021411547
1	0x80072306	-6.55413e-40
2	0xb83ae2cb	-4.4557073e-05
3	0xb2c4474b	-2.2849823e-08
4	0x36d61f37	6.381331e-06
5	0x3931a9b2	0.00016943252
6	0x002b2217	3.961155e-39
7	0x3c29a40c	0.010354053
8	0x3c70e5ab	0.014703195
9	0xbb28a2aa	-0.002573172
10	0x00260c7c	3.494227e-39
11	0x001b494c	2.505852e-39
12	0x80296d46	-3.804455e-39
13	0x3ca5e801	0.02025223
14	0x0005fba9	5.49456e-40
15	0x38f7da88	0.000118185824
16	0x3b6553d5	0.0034992595
17	0x80099fd2	-8.83852e-40
18	0xb98c6208	-0.0002677592
19	0x3caf2c2a	0.021383364
20	0x0027e134	3.662372e-39
21	0xa9fcdc02	-1.12292134e-13
22	0x3a4c8587	0.00078018795
23	0x002e180c	4.233059e-39
24	0xbac39a1c	-0.0014923248
25	0x39c7c838	0.00038105412
26	0xbc0a56d3	-0.008443552
27	0x3bde2c8d	0.006780213
28	0x36cb6b54	6.062366e-06
29	0xbc807bfd	-0.015684122
30	0x3a9d2692	0.0011989644
31	0xb0968fd8	-1.0954819e-09
32	0x3cb90bcb	0.022588631
33	0x8022d2b4	-3.197993e-39
34	0xb8989fec	-7.2777126e-05
35	0xb2d6250e	-2.492973e-08
36	0x371bccad	9.286375e-06
37	0x394c87e9	0.00019505587
38	0x00154cbc	1.956073e-39
39	0x3c447a1a	0.011992002
40	0x3c780c41	0.01513964
41	0xbb2164d0	-0.002462674
42	0x00175af5	2.144846e-39
43	0x8014c1d1	-1.906238e-39
44	0x802e0027	-4.224487e-39
45	0x3cac4d0f	0.021032838
46	0x800d8318	-1.240889e-39
47	0x390aa62f	0.00013222614
48	0x3b883684	0.0041568894
49	0x80264926	-3.51599e-39
50	0xb8b86671	-8.792885e-05
51	0x3cb1a244	0.02168382
52	0x0031448d	4.52453e-39
53	0xaa0a5867	-1.2287533e-13
54	0x3a57b6fe	0.0008228867
55	0x0010d9fb	1.547565e-39
56	0xbad119d3	-0.0015953131
57	0x39e19a6e	0.00043030403
58	0xbbad093b	-0.0052806414
59	0x3b98c17f	0.0046617384
60	0x37b31fac	2.1353211e-05
61	0xbc7967f7	-0.015222541
62	0x3a8a3576	0.0010544497
63	0xb0a46442	-1.1961065e-09
64	0x3cc365f2	0.023852322
65	0x801e913a	-2.807162e-39
66	0xb894f248	-7.102318e-05
67	0xb2dcb548	-2.5693808e-08
68	0x3711e780	8.696574e-06
69	0x393bc53c	0.00017907185
70	0x0026a200	3.547864e-39
71	0x3c35bc34	0.011092234
72	0x3c748cfa	0.01492619
73	0xbb224bbc	-0.002476438
74	0x80004f86	-2.8528e-41
75	0x801a3428	-2.406433e-39
76	0x802bf934	-4.038324e-39
77	0x3ca8474e	0.020541813
78	0x8015f922	-2.017917e-39
79	0x3a2158c1	0.0006154888
80	0x3b85d820	0.004084602
81	0x8026b25b	-3.553731e-39
82	0xb913be12	-0.00014089819
83	0x3cb0de45	0.021590361
84	0x0011f9b0	1.650774e-39
85	0xaa06ad02	-1.1961615e-13
86	0x3a52e939	0.0008045617
87	0x001130d2	1.578717e-39
88	0xbad3fe2d	-0.0016173773
89	0x39d1b05b	0.00039994981
90	0xbb88128f	-0.004152603
91	0x3b2be94e	0.002623159
92	0x378e15e3	1.6937911e-05
93	0xbc83a0f4	-0.01606796
94	0x3a154ac8	0.0005695042
95	0xb0a04eef	-1.1663966e-09
96	0x3caf8faf	0.021430818
97	0x801f98d7	-2.901729e-39
98	0x35cc93c4	1.524219e-06
99	0xb2c128bb	-2.248668e-08
100	0x36d0778e	6.212801e-06
101	0x389a218f	7.349543e-05
102	0x00156731	1.965564e-39
103	0x3c250861	0.0100727985
104	0x3c68f07b	0.014217491
105	0xbb2d46b4	-0.0026439847
106	0x00361c4b	4.969266e-39
107	0x80147d90	-1.881753e-39
108	0x8024209f	-3.31778e-39
109	0x3cacacc9	0.021078484
110	0x00013f86	1.14623e-40
111	0x3a0e371d	0.00054250826
112	0x3aa1c8c9	0.0012343164
113	0x00067d46	5.95953e-40
114	0x391bd37a	0.00014860733
115	0x3cb29fdb	0.02180474
116	0x0021bfda	3.099395e-39
117	0xa9ca8209	-8.9931595e-14
118	0x3a185d6b	0.000581226
119	0x801faee1	-2.909635e-39
120	0xba9c433d	-0.0011921894
121	0x398aae2a	0.00026451173
122	0xbc1bfc06	-0.009520536
123	0x3c15c30d	0.009140742
124	0x360e194d	2.1174376e-06
125	0xbc66d741	-0.0140894065
126	0x3b134498	0.0022471305
127	0xb07659da	-8.9621965e-10
128	0x3ca99ab1	0.020703645
129	0x80259b30	-3.453584e-39
130	0x363fff51	2.8609832e-06
131	0xb2bd3792	-2.2027766e-08
132	0x36e92777	6.9485354e-06
133	0x389fe69e	7.6246666e-05
134	0x002c7623	4.083141e-39
135	0x3c1cd10a	0.009571323
136	0x3c6b1aaf	0.014349624
137	0xbaad317d	-0.0013213601
138	0x00336cd7	4.722655e-39
139	0x800533e3	-4.77791e-40
140	0x80242a29	-3.321202e-39
141	0x3ca9ec46	0.020742547
142	0x0004ded2	4.47275e-40
143	0x36fc41de	7.517853e-06
144	0x3a56bfa6	0.000819201
145	0x8006fc08	-6.41425e-40
146	0xb9fc9f02	-0.00048183656
147	0x3cb7d002	0.022438053
148	0x00155089	1.957436e-39
149	0xa9c88345	-8.904556e-14
150	0x3a1bfb03	0.00059501844
151	0x8007a2e5	-7.01284e-40
152	0xba99b38c	-0.0011726483
153	0x3994cf5c	0.00028383255
154	0xbc1ddbc9	-0.00963492
155	0x3c390e55	0.011294921
156	0x37221d67	9.662798e-06
157	0xbc4a2809	-0.012338647
158	0x3a925f17	0.0011167255
159	0xb06fc7d9	-8.7231694e-10
160	0x3cb3669b	0.021899512
161	0x8025d960	-3.475893e-39
162	0xb81be5a6	-3.7168757e-05
163	0xb2cc5a7b	-2.3789871e-08
164	0x3715771a	8.908823e-06
165	0x38f82551	0.00011832512
166	0x00290bd3	3.769497e-39
167	0x3c281676	0.010259261
168	0x3c66c56a	0.014085153
169	0xba8e4c91	-0.0010856559
170	0x000e3b43	1.306956e-39
171	0x800ed5d9	-1.362411e-39
172	0x802759b2	-3.613761e-39
173	0x3ca85b6c	0.020551406
174	0x8006238c	-5.63765e-40
175	0xb9f637e9	-0.00046962433
176	0x3ae76109	0.001765282
177	0x8029777d	-3.80812e-39
178	0xba8a9029	-0.0010571528
179	0x3cb0fc2d	0.021604622
180	0x001850c4	2.233025e-39
181	0xa9e1c4eb	-1.0026167e-13
182	0x3a318249	0.0006771428
183	0x00118a08	1.61072e-39
184	0xbaaf3ecd	-0.0013370157
185	0x39b8b8c8	0.00035232888
186	0xbbe01bd5	-0.0068392553
187	0x3c15da20	0.009146243
188	0x37c998c4	2.4032204e-05
189	0xbc447cf9	-0.011992686
190	0xb9a0eea2	-0.00030695373
191	0xb087f3be	-9.891818e-10
192	0x3ca9f7cf	0.020748047
193	0x800a3f59	-9.4108e-40
194	0x3752015c	1.2517292e-05
195	0xb2a8ffff	-1.9674188e-08
196	0x36d042a7	6.2066424e-06
197	0x3710baae	8.626534e-06
198	0x002c17cb	4.049297e-39
199	0x3c0d4af9	0.008623832
200	0x3c597186	0.013271695
201	0xbb0b238d	-0.0021230907
202	0x00348bc1	4.82558e-39
203	0x00042d13	3.83512e-40
204	0x8010b846	-1.535473e-39
205	0x3ca8af8a	0.020591516
206	0x001c6908	2.609072e-39
207	0xb9cca419	-0.00039032174
208	0x3afabc77	0.0019129653
209	0x80306b58	-4.446611e-39
210	0x38c97f0f	9.6080934e-05
211	0x3cb0f7dd	0.021602565
212	0x0041ceb2	6.043456e-39
213	0xa9c1116a	-8.5739426e-14
214	0x39e37c4f	0.0004338943
215	0x8006f1ef	-6.37802e-40
216	0xba8fd155	-0.001097242
217	0x39394a87	0.00017670738
218	0xbc2af937	-0.010435394
219	0x3c4e6f2e	0.0125997495
220	0x3681fa7e	3.8736607e-06
221	0xbc2636c1	-0.01014489
222	0x3a1cc74e	0.00059806264
223	0xb063d13e	-8.287947e-10
224	0x3ca2548c	0.019815706
225	0x8002fe1b	-2.74827e-40
226	0x36f7bf3e	7.383437e-06
227	0xb2a50740	-1.9211825e-08
228	0x36ddde90	6.612223e-06
229	0x34839928	2.4512087e-07
230	0x002aed85	3.942297e-39
231	0x3c16da3e	0.009207306
232	0x3c58db86	0.013235932
233	0xba9d67ec	-0.001200912
234	0x00256ca8	3.436892e-39
235	0x001d7101	2.703768e-39
236	0x8011b1d6	-1.624999e-39
237	0x3ca72f45	0.020408282
238	0x001dc7fd	2.734972e-39
239	0xba5b4ba7	-0.000836546
240	0x38dc0e4e	0.00010493082
241	0x8007544b	-6.73087e-40
242	0xba27eecd	-0.00064061285
243	0x3cafc197	0.021454616
244	0x0001c8be	1.63848e-40
245	0xa9d9a06a	-9.664563e-14
246	0x39d61cad	0.00040838626
247	0x802ef0f8	-4.310876e-39
248	0xba8826a7	-0.0010387496
249	0x39326069	0.00017011318
250	0xbc2977a6	-0.010343468
251	0x3c6fa604	0.014626984
252	0x37170b35	9.002911e-06
253	0xbc25d416	-0.010121366
254	0x398a44d5	0.00026372695
255	0xb0818beb	-9.425752e-10

conv3.bias f4 [32]
0	0x35c30a38	1.4531606e-06
1	0xb68f681d	-4.2738525e-06
2	0x336e8a00	5.5539203e-08
3	0x362dd77f	2.5904444e-06
4	0xb61bb049	-2.3199411e-06
5	0x340beb78	1.3031047e-07
6	0x35f9aabe	1.8601638e-06
7	0xb548ba53	-7.4776943e-07
8	0xb56a6d5e	-8.7330943e-07
9	0x35c15d7e	1.440683e-06
10	0x320b2f00	8.101551e-09
11	0x350a2d94	5.147533e-07
12	0xb550e1d3	-7.7814656e-07
13	0x35034a10	4.890908e-07
14	0xb6112ed5	-2.1633944e-06
15	0x34a1133a	3.0002576e-07
16	0x35e8b8ad	1.7339095e-06
17	0x34ed3801	4.4185438e-07
18	0x3560a8ee	8.369233e-07
19	0x33a0f7f2	7.4956816e-08
20	0xb3ba55b1	-8.676887e-08
21	0xb41eb34d	-1.4780126e-07
22	0x3459ceb6	2.0284901e-07
23	0xb4d07244	-3.8826158e-07
24	0x34aecaa2	3.255746e-07
25	0x3401ff1f	1.2106874e-07
26	0x344a746b	1.8855069e-07
27	0xb4483198	-1.8644494e-07
28	0xb2c21274	-2.2592964e-08
29	0x320dcb5e	8.2535205e-09
30	0x006dd8b0	1.0087802e-38
31	0x024432be	1.4414368e-37

batch2.weight f4 [32]
0	0x3e349e96	0.1763862
1	0x3e36f82a	0.17868105
2	0x3e37d1c1	0.17951109
3	0x3e38c1e1	0.18042709
4	0x3e38a957	0.18033348
5	0x3e37ebaf	0.17961
6	0x3e35ebf7	0.17765795
7	0x3e34a3e5	0.17640646
8	0x3e33f999	0.17575683
9	0x3e2f26aa	0.17104593
10	0x3e2e06c8	0.16994774
11	0x3e2ada29	0.16684784
12	0x3e285a73	0.16440754
13	0x3e2b3e26	0.16722926
14	0x3e1d3baf	0.15354799
15	0x3e1a3ae9	0.15061535
16	0x3e142524	0.14467293
17	0x3e0ec9b1	0.13944127
18	0x3e07ebb5	0.13273509
19	0x3dfff4b0	0.12497842
20	0x3dfad985	0.1224852
21	0x3dd5fa19	0.10448093
22	0x3dc36252	0.095402375
23	0x3dab280e	0.08357249
24	0x3d8fe6e5	0.070264615
25	0x3d68cdbe	0.056836836
26	0x3d310c91	0.043224875
27	0x3cf84d40	0.030310273
28	0x3c9af4e7	0.018915607
29	0x3c17bfcc	0.0092620365
30	0x809e1044	-1.4515843e-38
31	0x00100d6a	1.47418e-39

batch2.bias f4 [32]
0	0xbc93b5e8	-0.018031076
1	0xbc85fd8c	-0.016356252
2	0xbc79c3de	-0.015244452
3	0xbc6d5360	-0.01448521
4	0xbc557047	-0.013027257
5	0xbc42760c	-0.011868965
6	0xbc3d98b0	-0.011572048
7	0xbc2f4dc5	-0.010699694
8	0xbc42e97c	-0.011896487
9	0xbc6d7be1	-0.014494867
10	0xbc335835	-0.010946323
11	0xbc13344f	-0.008984639
12	0xbc25d67f	-0.010121941
13	0xbc9818b3	-0.018566465
14	0xbc51fee1	-0.0128171155
15	0xbc15cc21	-0.009142906
16	0xbc1891d4	-0.009312112
17	0xbc210748	-0.009828396
18	0xbc2720bb	-0.010200675
19	0xbc29f967	-0.010374404
20	0xbc7807bd	-0.015138564
21	0xbc37ee87	-0.011226303
22	0xbc25daf9	-0.010123008
23	0xbc1ccf09	-0.009570845
24	0xbc1981fb	-0.009369369
25	0xbc0ae8b9	-0.008478337
26	0xbbe3722e	-0.0069411015
27	0xbba66d79	-0.005078968
28	0xbb69a8fe	-0.0035653706
29	0xbb147e6b	-0.0022658359
30	0x38ffbc85	0.00012194462
31	0x389eb7d7	7.56827e-05

batch2.running_mean f4 [32]
0	0x3a9f9c46	0.001217731
1	0x3aa6c185	0.0012722468
2	0x3aaf3a30	0.0013368782
3	0x3a970c15	0.0011523986
4	0x3a9851f9	0.001162111
5	0x3aa2912f	0.0012402887
6	0x3a966ffa	0.0011477463
7	0x3a8d9402	0.0010801556
8	0x3ac9e56d	0.0015403457
9	0x3a28aed0	0.00064347405
10	0x3ac0cead	0.0014710032
11	0x3a8d15a7	0.0010763899
12	0x3aa407d8	0.0012514545
13	0x39e42fda	0.000435232
14	0x3a9a752e	0.001178419
15	0x3a853693	0.0010163359
16	0x3a869704	0.0010268395
17	0x3a8132a2	0.0009857009
18	0x3a8061c4	0.0009794761
19	0x3a78e745	0.0009494911
20	0xb8480b0b	-4.7694e-05
21	0x3a574384	0.000821166
22	0x3a69e8e8	0.00089229504
23	0x3a57e43a	0.00082356075
24	0x3a5adb1f	0.00083486916
25	0x3a4af41b	0.0007742063
26	0x3a352fc7	0.00069117214
27	0x3a1a1473	0.0005877681
28	0x39fa73d4	0.00047770014
29	0x39ab1e59	0.00032638272
30	0x00661456	9.374516e-39
31	0x80081c1a	-7.44765e-40

batch2.running_var f4 [32]
0	0x392762c2	0.00015963151
1	0x3922ecdc	0.00015537761
2	0x391f2d6d	0.00015180344
3	0x392bcbe8	0.00016383792
4	0x392e3f10	0.00016617426
5	0x39263bca	0.00015853267
6	0x392cba78	0.00016472663
7	0x392bad4e	0.00016372392
8	0x3906c8ac	0.00012853992
9	0x393dd94b	0.00018105393
10	0x39064fd3	0.00012808973
11	0x391e5786	0.00015100659
12	0x390607e6	0.00012782178
13	0x39277589	0.00015970146
14	0x38f94fd3	0.00011888114
15	0x390ba3c7	0.00013317085
16	0x38fcfc82	0.000120633296
17	0x38f895e3	0.0001185348
18	0x38e55163	0.000109347304
19	0x38d54730	0.00010169891
20	0x390343f8	0.00012518454
21	0x38b47249	8.604356e-05
22	0x38a4de9e	7.861595e-05
23	0x389491bc	7.084335e-05
24	0x387db335	6.04868e-05
25	0x385244b5	5.013189e-05
26	0x38239dd6	3.9009225e-05
27	0x37e81f52	2.767114e-05
28	0x378d4f11	1.6845328e-05
29	0x36e87b34	6.9284815e-06
30	0x00000004	6e-45
31	0x00000004	6e-45

LSTM.weight_ih_l0 f4 [256, 57]
0	0xba3cfd6a	-0.00072093925
1	0xbaeaff7e	-0.0017928926
2	0xb9cb6488	-0.0003879408
3	0x3a938454	0.0011254647
4	0xbb2aa68b	-0.0026039209
5	0xbc02ce58	-0.0079837665
6	0xbafd292c	-0.0019314638
7	0xba9e3d15	-0.0012072647
8	0xbb983c4a	-0.004645859
9	0xbba4f412	-0.0050339783
10	0x3a920a22	0.0011141936
11	0x3ae3b6bc	0.0017373185
12	0x3b0c4f24	0.0021409476
13	0x3b135796	0.0022482625
14	0xba6dfa92	-0.00090781704
15	0x3b2cbf09	0.0026358983
16	0x3b63cd4a	0.0034759813
17	0x3a2a269e	0.000649074
18	0xba8e8d65	-0.0010875879
19	0xbb6b91be	-0.0035945023
20	0x38ead8c1	0.00011198363
21	0x3a89dcf0	0.0010518115
22	0x3ac97b42	0.0015371817
23	0x3afa64b0	0.0019103494
24	0x3b162cb8	0.0022914838
25	0x3a23e750	0.0006252425
26	0x3b254818	0.0025219973
27	0x3a86b8a2	0.0010278414
28	0x3b6cbdf0	0.0036123954
29	0x3b67b12f	0.0035353412
30	0x3b175d06	0.0023096218
31	0x3a8538a3	0.0010163974
32	0x39aab25b	0.00032557812
33	0x3aba60ae	0.0014219487
34	0x3a99441d	0.0011693273
35	0x3b2125de	0.002458922
36	0x3a90d243	0.0011048991
37	0x3b481f82	0.0030536358
38	0x3a61dabb	0.0008615662
39	0x3a2ed337	0.00066690467
40	0x3ac46ff8	0.0014986983
41	0x3a82cca9	0.0009979206
42	0x3b45d548	0.003018694
43	0x3a8d1d8b	0.0010766251
44	0x3b4d68b3	0.0031342923
45	0x3a81acba	0.0009893395
46	0x3a2d13e6	0.00066023914
47	0xbb7d0cd4	-0.0038612382
48	0xb9d33eaa	-0.00040291745
49	0x3aeb442a	0.0017949392
50	0xbb074fd1	-0.002064694
51	0xbb1e04b4	-0.002411169
52	0x38a704f7	7.964105e-05
53	0x3a73161c	0.0009273009
54	0xba9037c0	-0.0011002943
55	0xbaf20ae1	-0.0018466377
56	0xba3cb95f	-0.00071992533
57	0xb9524fa0	-0.00020056823
58	0x3982b605	0.00024931147
59	0x39c62285	0.00037791222
60	0x3997cae4	0.0002895213
61	0xb92e5da1	-0.00016628813
62	0xb9de6ced	-0.00042424296
63	0xb9e15464	-0.0004297822
64	0xb9e0d9e0	-0.0004288694
65	0xb9e175f7	-0.00043003235
66	0xb9dc6997	-0.0004204034
67	0x3a2a91de	0.0006506721
68	0x3a88d080	0.0010438114
69	0x3a58998c	0.00082626264
70	0x3a1f50bc	0.0006077399
71	0x399bea4f	0.00029738477
72	0x399f9574	0.00030438195
73	0x3a151e82	0.0005688445
74	0x39db9c09	0.0004188719
75	0x3984b950	0.0002531507
76	0xb9465a58	-0.00018916407
77	0xb8cc0e77	-9.730172e-05
78	0x3807471d	3.2252738e-05
79	0x39ff1ac3	0.0004865733
80	0xb88f9edd	-6.848362e-05
81	0xb84ae6bc	-4.837544e-05
82	0x39f28165	0.00046254243
83	0xb97991a8	-0.00023800752
84	0x39c531ff	0.00037612018
85	0x3a17979b	0.0005782784
86	0xb91037f2	-0.00013753751
87	0xba3da15b	-0.00072338217
88	0xba14059d	-0.00056465884
89	0x398399c3	0.00025100828
90	0xb9a7be34	-0.00031994435
91	0x39c789aa	0.00038058806
92	0xb90e4626	-0.00013568308
93	0x39c34917	0.00037247755
94	0xb899b3d2	-7.329103e-05
95	0xba15f126	-0.0005719833
96	0x39a1bba0	0.00030848105
97	0xb9a174b1	-0.00030795255
98	0x39c8b7f8	0.0003828404
99	0xb908bff2	-0.00013041476
100	0x39c0ca5f	0.00036771872
101	0xb8b25d49	-8.505077e-05
102	0xba13b21f	-0.0005634147
103	0x399bf34a	0.00029745168
104	0xb5a5c932	-1.2352014e-06
105	0x39bab2e3	0.00035609966
106	0x39ba6519	0.00035552008
107	0xb91d331b	-0.00014991725
108	0x381cd01f	3.7387126e-05
109	0x39ddcd90	0.0004230556
110	0x3a15c1e5	0.00057127915
111	0x3a1603d1	0.00057226146
112	0x397fa4fd	0.00024380158
113	0xb95fbeaa	-0.00021337965
114	0xb7d9a9bf	-2.594746e-05
115	0xb8215a03	-3.846922e-05
116	0x3803be1a	3.140988e-05
117	0x38589a27	5.164198e-05
118	0xb8de0f56	-0.000105886415
119	0xb9267b68	-0.00015876966
120	0xb92663f4	-0.00015868229
121	0xb927c7ba	-0.00016000765
122	0xb92974c4	-0.00016160595
123	0xb92959c8	-0.00016150542
124	0x389c6013	7.456555e-05
125	0x3925b6de	0.0001580375
126	0x38cd6c44	9.795328e-05
127	0x384a877c	4.8286733e-05
128	0x37f3b13c	2.9050389e-05
129	0x38a070d7	7.6504126e-05
130	0x38bb125e	8.920276e-05
131	0xb772d7b8	-1.447455e-05
132	0xb8b7cd53	-8.7643646e-05
133	0xb923bb38	-0.00015614636
134	0xb73b2060	-1.11536065e-05
135	0xb6cfe8e7	-6.196194e-06
136	0x3878c9be	5.9315695e-05
137	0x386c21b5	5.6298177e-05
138	0x38b44cf5	8.597403e-05
139	0x38ad0e96	8.252e-05
140	0x37a4aaee	1.9629919e-05
141	0x386a9bf0	5.5935176e-05
142	0x38cd00c1	9.775302e-05
143	0x3800156f	3.053754e-05
144	0xb874f27e	-5.839997e-05
145	0x3678a9ee	3.7053792e-06
146	0x382e8998	4.1612977e-05
147	0xb65d4f1c	-3.2977614e-06
148	0x387582e3	5.853445e-05
149	0x3803e46f	3.144558e-05
150	0x385a31b8	5.2021554e-05
151	0x37def3c8	2.6577982e-05
152	0x369a574a	4.5997194e-06
153	0x3836cd55	4.358341e-05
154	0x367f22da	3.8018247e-06
155	0x387cc3c7	6.0263814e-05
156	0x37cea362	2.4633195e-05
157	0x385399ad	5.0449442e-05
158	0x380bd74d	3.3340697e-05
159	0x36c94d4f	5.9992667e-06
160	0x38307300	4.2068772e-05
161	0xb8d2e8ea	-0.00010056964
162	0x37cfc39a	2.4767407e-05
163	0x38abbff0	8.1896666e-05
164	0xb8da66ea	-0.00010414219
165	0xb8930549	-7.010491e-05
166	0x386ae842	5.6006254e-05
167	0x38cb8441	9.7044285e-05
168	0x38de8540	0.00010610605
169	0xb7e79eaf	-2.7611239e-05
170	0xb85061c4	-4.9682116e-05
171	0xb451283b	-1.9479278e-07
172	0xb4643df3	-2.1256692e-07
173	0x348dd754	2.6419968e-07
174	0x34d112ec	3.894305e-07
175	0xb5452558	-7.344256e-07
176	0xb5c24752	-1.4474883e-06
177	0xb5b68d83	-1.3601242e-06
178	0xb5bd7d82	-1.4118125e-06
179	0xb5c958d8	-1.5001524e-06
180	0xb5bc69a2	-1.4037835e-06
181	0x358c09cc	1.0433664e-06
182	0x35e22c6d	1.6851242e-06
183	0x342b6bec	1.5964878e-07
184	0xb4e2578d	-4.2159482e-07
185	0x34bd4213	3.525207e-07
186	0x34a5bf8c	3.0873014e-07
187	0x34929e11	2.7309628e-07
188	0xb59a7272	-1.1507202e-06
189	0xb5e4a81a	-1.7036248e-06
190	0xb5b0669b	-1.3142884e-06
191	0x34779b8a	2.3060252e-07
192	0xb4203d54	-1.4923472e-07
193	0x359a042a	1.1475106e-06
194	0xb4df1fe8	-4.1560202e-07
195	0xb4232871	-1.519527e-07
196	0x33a39e42	7.619066e-08
197	0xb5bb8b71	-1.3973169e-06
198	0xb547c326	-7.4417255e-07
199	0xb34ec755	-4.8144404e-08
200	0xb5c1428b	-1.4398987e-06
201	0xb60d85fe	-2.108863e-06
202	0xb5f1d230	-1.8017072e-06
203	0x350eb68d	5.316477e-07
204	0xb574c499	-9.118317e-07
205	0xb5426728	-7.2420744e-07
206	0xb5c26a82	-1.4485124e-06
207	0xb540b671	-7.179106e-07
208	0xb5ac646d	-1.2844226e-06
209	0xb5e00dd1	-1.6693322e-06
210	0x350cb8ae	5.242281e-07
211	0xb58f6736	-1.0684369e-06
212	0xb545ce29	-7.368822e-07
213	0xb5ace51d	-1.2881679e-06
214	0xb544ff9f	-7.338767e-07
215	0xb5bad6e1	-1.3920618e-06
216	0xb5e496d2	-1.7031218e-06
217	0x350e191d	5.2935667e-07
218	0xb36dde5c	-5.5383097e-08
219	0xb4f6e7c8	-4.5989714e-07
220	0xb50a45e3	-5.1510705e-07
221	0xb5a11ac2	-1.2003222e-06
222	0xb565eddf	-8.5655296e-07
223	0xb4caadef	-3.7751985e-07
224	0xb39e96c6	-7.384874e-08
225	0xb3337b15	-4.1788628e-08
226	0xb48eaf7c	-2.6577243e-07
227	0xb437d2bf	-1.7119872e-07
228	0xb82cd537	-4.1206567e-05
229	0xb8440bc9	-4.6741017e-05
230	0x37e61b77	2.7430926e-05
231	0x390b2e96	0.00013273428
232	0xb92a75da	-0.00016256367
233	0xb9897db3	-0.0002622433
234	0xb983f001	-0.00025165084
235	0xb982e917	-0.00024969198
236	0xb981893b	-0.00024707042
237	0xb988e829	-0.00026112914
238	0x390adccf	0.00013242963
239	0x39acb90e	0.00032944273
240	0x392fd232	0.00016767604
241	0x38bb3db5	8.928349e-05
242	0x387cf776	6.0311948e-05
243	0x38f26c80	0.00011559669
244	0x39025c52	0.00012432158
245	0xb7e88357	-2.7717715e-05
246	0xb941d036	-0.00018483479
247	0xb97e8770	-0.00024273782
248	0xb6797f86	-3.717812e-06
249	0xb68144c6	-3.852506e-06
250	0x38fdf938	0.00012110401
251	0x38d9c02d	0.00010383162
252	0x38de669a	0.00010604896
253	0x391d97a4	0.00015029177
254	0xb5bd4f77	-1.4104725e-06
255	0x38cb3e67	9.691418e-05

LSTM.weight_hh_l0 f4 [256, 64]
0	0xba6f367e	-0.00091252464
1	0xb5921408	-1.0883678e-06
2	0x38c6221a	9.447728e-05
3	0x37484a4d	1.1938228e-05
4	0x38cf5f64	9.888297e-05
5	0xba539735	-0.0008071543
6	0xb99353d0	-0.0002810047
7	0xba527fe6	-0.00080299226
8	0x38a78f83	7.989912e-05
9	0x3895f939	7.151295e-05
10	0xb7d06d63	-2.484647e-05
11	0xb8503cd6	-4.9647722e-05
12	0xb7adb3d0	-2.0706939e-05
13	0x388a7701	6.602519e-05
14	0x399adb81	0.00029536712
15	0x39077d4c	0.0001292128
16	0xb987decb	-0.000259152
17	0x38d5e65f	0.000101995414
18	0x39b284a6	0.00034049636
19	0x39b3d5d6	0.0003430086
20	0xba821b69	-0.0009926382
21	0x39f36e70	0.00046430854
22	0x397e56c0	0.00024255645
23	0xb81f1826	-3.7931044e-05
24	0x38bca803	8.995833e-05
25	0xba2d447d	-0.0006609632
26	0xba3e6873	-0.0007263489
27	0xb9b64450	-0.00034764642
28	0x3a6e47ed	0.0009089697
29	0x3a4ab658	0.000773286
30	0xb9241671	-0.00015648619
31	0x38f18c4b	0.00011517907
32	0x3a12fff4	0.0005607598
33	0x38fd221d	0.00012070334
34	0x390beaaa	0.00013343492
35	0xba3dae8c	-0.00072357873
36	0x38273131	3.9861716e-05
37	0xba946be6	-0.001132366
38	0x37741300	1.4547957e-05
39	0x36111444	2.161848e-06
40	0x35801470	9.542691e-07
41	0x39e5874e	0.00043779094
42	0x392005d5	0.00015260962
43	0xb6713387	-3.5941791e-06
44	0xb814e5ca	-3.5499957e-05
45	0xba9bd033	-0.001188761
46	0xb987180d	-0.00025767126
47	0xb88639ad	-6.400361e-05
48	0x3809a8b9	3.282048e-05
49	0xb7495225	-1.1999659e-05
50	0xb95c38bb	-0.00021001969
51	0xb94d3217	-0.00019568983
52	0xb8a46c53	-7.840306e-05
53	0x39ea175e	0.00044649368
54	0x3623865d	2.4367102e-06
55	0xb9ac2171	-0.00032831312
56	0xba5421c7	-0.00080921914
57	0x39839387	0.00025096184
58	0xba87fea5	-0.0010375573
59	0x3a43ed11	0.00074739853
60	0xb8bedcef	-9.101058e-05
61	0xba1b8cbb	-0.0005933751
62	0x3961f5f9	0.00021549304
63	0xb992ff48	-0.0002803749
64	0xb63f8950	-2.8541144e-06
65	0xb91e4244	-0.0001509274
66	0xb82a06dc	-4.0537547e-05
67	0x36962df9	4.4757003e-06
68	0xb89530dd	-7.113975e-05
69	0xb83dc51b	-4.524468e-05
70	0xb9923a32	-0.0002789065
71	0xb85e35ac	-5.297891e-05
72	0xb84c8816	-4.876413e-05
73	0xb75e7995	-1.3260539e-05
74	0x380b83bf	3.326288e-05
75	0x3863b636	5.4290715e-05
76	0x378021d9	1.527455e-05
77	0xb89e2737	-7.5413314e-05
78	0xb95ef529	-0.00021262899
79	0xb91a51ab	-0.00014717008
80	0x389efe01	7.581339e-05
81	0xb75ecf3b	-1.3280481e-05
82	0xb8ba4848	-8.8826346e-05
83	0xb7e095fd	-2.6772725e-05
84	0x38f0ffe0	0.00011491752
85	0xb838c753	-4.4054654e-05
86	0xb89b3ce2	-7.402316e-05
87	0xb9088ca0	-0.00013022358
88	0xb8557cec	-5.08995e-05
89	0x39821d93	0.00024817567
90	0x392bc64a	0.00016381699
91	0x3993c081	0.00028181451
92	0xb67fc17e	-3.8110588e-06
93	0xb889813c	-6.556741e-05
94	0x3921244a	0.00015367675
95	0xb86e45d1	-5.6808643e-05
96	0xb94e5c92	-0.00019680176
97	0xb8ac941b	-8.229186e-05
98	0xb88b98f3	-6.6565255e-05
99	0x39ae478d	0.00033241176
100	0xb731bf8b	-1.0594619e-05
101	0xb8e1ea94	-0.0001077253
102	0x38293f34	4.0351602e-05
103	0x35aeb1f3	1.30158e-06
104	0x3534f0c7	6.74056e-07
105	0xb98778c2	-0.00025839178
106	0xb9147f51	-0.00014161809
107	0xb5dd7536	-1.6499896e-06
108	0x37ffe05b	3.0502842e-05
109	0x35d50644	1.587156e-06
110	0x391e7b2e	0.00015113942
111	0x3824accd	3.926158e-05
112	0xb8a5f837	-7.914047e-05
113	0x38f847db	0.00011838946
114	0x390371ef	0.00012535577
115	0x3915b451	0.0001427692
116	0x3890003b	6.866498e-05
117	0xb86e437b	-5.6806468e-05
118	0x349d7bc4	2.933358e-07
119	0x38c4fe00	9.3933195e-05
120	0x3906136e	0.00012786474
121	0xb92ebb02	-0.00016663599
122	0x38bdd6ed	9.052255e-05
123	0xb99a26a2	-0.00029401953
124	0x384da798	4.9031893e-05
125	0x393f04f0	0.00018217019
126	0xb9563457	-0.00020428128
127	0xb6ca1ce7	-6.023434e-06
128	0x367ee821	3.7984066e-06
129	0xb7c3b32c	-2.3329245e-05
130	0xb5fb9220	-1.8743485e-06
131	0x3500e830	4.8021593e-07
132	0x363b3e08	2.7901278e-06
133	0xb748c9fa	-1.1967955e-05
134	0xb800e14c	-3.0727402e-05
135	0x3720fac6	9.595131e-06
136	0x36346ed6	2.6886605e-06
137	0x342061d6	1.4936754e-07
138	0x3401d36e	1.2090979e-07
139	0x3604b65c	1.977568e-06
140	0xb5f5ac97	-1.8304153e-06
141	0xb70e8cde	-8.496658e-06
142	0x362c077f	2.563436e-06
143	0xb39e2864	-7.364795e-08
144	0x341c3e70	1.4551347e-07
145	0xb5daab24	-1.6292074e-06
146	0xb735e2e5	-1.0841269e-05
147	0xb697eb3a	-4.5275347e-06
148	0x369fdb4a	4.764098e-06
149	0x3649a97a	3.0049982e-06
150	0x37940c88	1.764881e-05
151	0xb7512403	-1.2465755e-05
152	0x3660b3b1	3.3483195e-06
153	0x37c77102	2.3775272e-05
154	0x378f1661	1.705735e-05
155	0x383401a4	4.2916872e-05
156	0x36c012f7	5.7242537e-06
157	0x3617cbe0	2.2619424e-06
158	0xb6e78b8d	-6.9005823e-06
159	0x36b1047d	5.2755336e-06
160	0xb7856bf1	-1.59051e-05
161	0x36ed30ba	7.068823e-06
162	0x36eafb0a	7.0029682e-06
163	0x35a5754c	1.2327596e-06
164	0xb560d28e	-8.37529e-07
165	0xb6573730	-3.206962e-06
166	0x36c205d3	5.7823286e-06
167	0x31f0cb44	7.008028e-09
168	0xb3a92968	-7.8772075e-08
169	0x36aff96c	5.244443e-06
170	0x3791ece5	1.739566e-05
171	0x3408a07d	1.2724372e-07
172	0xb6170fbe	-2.2509917e-06
173	0xb7a38561	-1.9493224e-05
174	0xb782d15b	-1.5594696e-05
175	0xb6f69655	-7.3488723e-06
176	0xb6d5629b	-6.359374e-06
177	0xb5a3d379	-1.2205993e-06
178	0xb71a9961	-9.214827e-06
179	0xb658faef	-3.233257e-06
180	0xb5ed8d0c	-1.7698926e-06
181	0xb6884628	-4.061283e-06
182	0x33d87345	1.0079251e-07
183	0xb708426a	-8.121695e-06
184	0x372f6f32	1.04567025e-05
185	0x37c1e896	2.31157e-05
186	0x36b164ea	5.286759e-06
187	0xb7cf52af	-2.4714825e-05
188	0xb6e049c3	-6.684307e-06
189	0x376dd9c8	1.4177007e-05
190	0x379052fd	1.7204782e-05
191	0xb761a869	-1.3450256e-05
192	0x348f8aac	2.6736723e-07
193	0xb48e8314	-2.6544933e-07
194	0xb3b33326	-8.344641e-08
195	0x32472ee1	1.15939836e-08
196	0xb4040e1e	-1.2298594e-07
197	0x348d94b2	2.6371487e-07
198	0xb4f26d25	-4.5155426e-07
199	0x34b27e4d	3.324698e-07
200	0xb39fa1a6	-7.433418e-08
201	0xb2fd1f8f	-2.9467428e-08
202	0x338963aa	6.3976884e-08
203	0x33d42c6c	9.8800996e-08
204	0x32c2e472	2.2688457e-08
205	0xb3dd9fab	-1.0320158e-07
206	0xb49f046c	-2.9619275e-07
207	0xb46b2b97	-2.1901938e-07
208	0x341b92bb	1.448888e-07
209	0xb38ad811	-6.465428e-08
210	0xb497579d	-2.818969e-07
211	0xb4224425	-1.5112217e-07
212	0x3501659f	4.8204123e-07
213	0xb4f2f7ce	-4.5256314e-07
214	0xb4779794	-2.3058811e-07
215	0xb49b2033	-2.8894428e-07
216	0xb3a5aa32	-7.7143696e-08
217	0x35088505	5.0857517e-07
218	0x34c961d9	3.751036e-07
219	0x353c7554	7.020619e-07
220	0xb420c30a	-1.4972116e-07
221	0xb472333d	-2.2556647e-07
222	0x345ff65e	2.0858121e-07
223	0xb3a819d9	-7.827811e-08
224	0xb5061df8	-4.99625e-07
225	0xb3f80775	-1.1549756e-07
226	0xb3d0fdbd	-9.7319095e-08
227	0x35098739	5.123325e-07
228	0x32e8f12a	2.7118023e-08
229	0x3464dbd6	2.131413e-07
230	0x33a8662a	7.841693e-08
231	0x31246c9d	2.392688e-09
232	0x30dc78ac	1.6041404e-09
233	0xb4b3df97	-3.350403e-07
234	0xb479fd4b	-2.328208e-07
235	0xb1a906e5	-4.919331e-09
236	0x3357927a	5.0191808e-08
237	0x34ad25f6	3.225138e-07
238	0x3497e6a8	2.8293766e-07
239	0x3392ce0d	6.836135e-08
240	0xb413bf33	-1.376e-07
241	0x34743db0	2.2746713e-07
242	0x34324703	1.6603376e-07
243	0x344c32d3	1.901747e-07
244	0x33dedf9e	1.0378356e-07
245	0xb43b2910	-1.743067e-07
246	0x3110fc08	2.109802e-09
247	0x349f8a58	2.9716716e-07
248	0x34c803ab	3.7255572e-07
249	0xb4c3b995	-3.645661e-07
250	0x34b7ca23	3.423348e-07
251	0xb568171b	-8.646036e-07
252	0x33b7654b	8.5400266e-08
253	0x3516c01b	5.6158905e-07
254	0xb4da4994	-4.06592e-07
255	0x343f1003	1.7794086e-07
