Code/CNNLSTM/Outputs/NonPretrained/best_model.pth (torch, 425954 bytes, 27 tensors)

conv1.weight f4 [64, 5, 2]
0.052028835 -0.15020199 -0.05347688 -0.018793784 0.102327086 0.0022124732 -0.12610672 -0.02852605
0.061678957 -0.018327381 0.025592385 -0.035411026 0.008671206 -0.08839575 0.07734157 0.017862493
-0.038142156 0.058519494 0.05942272 -0.06749416 0.087738246 -0.0070980885 -0.0140021 0.023673154
0.056260813 -0.080247305 0.12789436 0.04119845 0.10208152 0.018945744 -0.08045256 -0.08329908
0.089002796 0.03676452 -0.098940216 -0.058155753 0.019313179 0.084448315 0.04675746 -0.010968365
-0.043060247 0.10278795 0.0054819877 -0.17241552 0.0155944545 0.17705251 -0.03208979 -0.092068404
0.07891 -0.107308015 0.092762575 -0.069344506 0.039461676 0.08625119 -0.06444477 -0.07990927
0.07208893 -0.038977053 0.09233583 0.01057252 0.02296602 -0.061832048 -0.00036276193 0.03547667
-0.023412945 -0.056960113 -0.047919642 0.030090714 -0.037571494 -0.085954785 -0.049814135 0.08153519
-0.027982144 0.07569382 0.13791831 -0.055952247 -0.006406049 0.07978417 -0.04053197 0.030656854
0.0062111635 0.047049705 -0.05696563 -0.060926694 0.042534158 -0.09080056 -0.020918954 -0.071764685
-0.0169432 0.008227616 -0.025322786 0.040254395 -0.007182258 -0.076227754 0.04768909 -0.030455595
0.0010010365 -0.033663683 0.027938921 -0.03232154 -0.051452316 0.129656 0.010042915 -0.06861003
-0.09229902 -0.04417133 -0.11372014 0.16751072 0.11014047 -0.14461455 -0.007843883 0.025048923
0.006384973 0.0062805726 0.007499372 0.009868198 0.008920771 0.0051958733 0.015083816 -0.029651994
-0.04233247 0.13552098 0.057290755 -0.05411546 -0.055541027 0.07226429 -0.060308613 -0.11009632
0.015859796 0.02658904 0.023789829 -0.017003465 -0.031233653 -0.024970327 0.002811262 -0.0043975003
-0.048033696 0.031719897 -0.03174074 -0.05053914 -0.009538677 0.027295848 0.10017893 -0.020118037
-0.06014286 0.029041195 -0.0106569175 0.052760433 0.02003764 0.017835341 -0.11388084 0.08975982
-0.06784381 -0.15015317 -0.04018249 -0.05643493 0.10365055 -0.06665223 0.0022722597 0.08858457
0.027218873 -0.13647287 0.015919691 -0.04372374 -0.05125837 0.06654592 0.04631081 0.057492927
0.03485056 -0.056181464 0.08777463 0.11734929 0.07667934 0.06687618 -0.04682476 -0.055325165
0.0043625594 0.022297747 0.036471717 -0.076591454 -0.10798738 0.026896158 -0.054194655 -0.15728682
0.031473923 0.10786285 -0.025232814 0.105302185 0.089803874 0.10410612 -0.027891684 -0.11130204
-0.009185342 0.13079567 -0.044157986 0.14698286 -0.07132343 0.12496271 0.09150734 0.036762834
-0.070924394 0.18374187 -0.046090387 -0.16561463 -0.07594271 0.06971372 -0.10257078 -0.055222627
-0.098380215 -0.12726682 0.08976652 0.0072011417 0.024652138 -0.04150551 -0.00621665 -0.05652051
-0.007367683 0.12477034 0.03896651 0.08372832 0.019680906 -0.07541811 -0.10284889 -0.19489415
-0.013378113 -0.19522607 0.062389456 0.11829325 0.07634564 0.11760709 -0.005731597 -0.05104925
0.004793939 0.06048411 0.040277664 0.07979233 0.050569873 0.028773183 0.05239083 0.07868458
-0.04669749 0.017782241 -0.087721735 0.018259255 -0.11013746 -0.026493354 -0.043995604 -0.085424654
-0.0348928 -0.09413957 -0.13211454 -0.015542249 0.09677629 0.11337384 0.0022203396 -0.05374661
00000000: 301c 553d 8dce 19be 930a 5bbd 6cf5 99bc
00000010: dd90 d13d 24ff 103b 1f22 01be 76af e9bc
00000020: 13a3 7c3d 4e23 96bc 1fa7 d13c 270b 11bd
00000030: ad11 0e3c d508 b5bd 4265 9e3d 5d54 923c
00000040: f33a 1cbd 23b2 6f3d 3d65 733d 613a 8abd
00000050: 1cb0 b33d 1597 e8bb 1069 65bc 34ee c13c
00000060: bd71 663d b358 a4bd bdf6 023e b5bf 283d
00000070: 1e10 d13d 1b34 9b3c 50c4 a4bd b598 aabd
00000080: 1947 b63d 6596 163d 2ba1 cabd ba34 6ebd
00000090: ac36 9e3c 3df3 ac3d c084 3f3d a8b4 33bc
000000a0: f15f 30bd 7d82 d23d 3fa2 b33b b28d 30be
000000b0: e27f 7f3c 414d 353e 9570 03bd 5c8e bcbd
000000c0: 919b a13d 4ec4 dbbd 4efa bd3d 7e04 8ebd
000000d0: 91a2 213d 77a4 b03d 9ffb 83bd 79a7 a3bd
000000e0: 5ca3 933d 67a6 1fbd 911a bd3d 5d38 2d3c
000000f0: 3c23 bc3c 9a43 7dbd 1531 beb9 fc4f 113d
00000100: 81cc bfbc 024f 69bd 6347 44bd cd80 f63c
00000110: 91e4 19bd 1009 b0bd e809 4cbd ecfb a63d
00000120: cf3a e5bc 5d05 9b3d 753a 0d3e 2f2e 65bd
00000130: d5e9 d1bb e265 a33d da04 26bd 1524 fb3c
00000140: 0487 cb3b 31b7 403d cb54 69bd 458e 79bd
00000150: 4c38 2e3d a5f5 b9bd 3a5e abbc 5df9 92bd
00000160: 77cc 8abc 1fcd 063c bb71 cfbc cbe1 243d
00000170: 2659 ebbb 4c1d 9cbd a355 433d 037e f9bc
00000180: 3635 833a eee2 09bd 2ae0 e43c 9763 04bd
00000190: aabf 52bd 8bc4 043e 0a8b 243c 6a83 8cbd
000001a0: 4507 bdbd ffec 34bd 1be6 e8bd ee87 2b3e
000001b0: 5491 e13d d615 14be a183 00bc 6633 cd3c
000001c0: 0939 d13b 43cd cd3b 4bbd f53b 39ae 213c
000001d0: 6d28 123c 2542 aa3b 1c22 773c bde8 f2bc
000001e0: d064 2dbd 03c6 0a3e b6a9 6a3d 2ca8 5dbd
000001f0: fd7e 63bd 4dff 933d 2a06 77bd 2e7a e1bd
00000200: 67ec 813c 42d1 d93c e3e2 c23c da4a 8bbc
00000210: b8dd ffbc 928e ccbc 263d 383b e818 90bb
00000220: fbbe 44bd b9ec 013d 9402 02bd 2102 4fbd
00000230: 1c48 1cbc 8b9b df3c 9c2a cd3d 95ce a4bc
00000240: 5c58 76bd cde7 ed3c 5a9a 2ebc 531b 583d
00000250: fa25 a43c 6c1b 923c 5c3a e9bd ffd3 b73d
00000260: b2f1 8abd c1c1 19be 6596 24bd 5028 67bd
00000270: bd46 d43d f780 88bd 31ea 143b d46b b53d
00000280: 1dfa de3c 8bbf 0bbe 036a 823c aa17 33bd
00000290: 4cf4 51bd 3a49 883d 67b0 3d3d b47d 6b3d
000002a0: 76bf 0e3d 891e 66bd 2fc3 b33d d354 f03d
000002b0: 0f0a 9d3d 61f6 883d 52cb 3fbd a49c 62bd
000002c0: cdf3 8e3b c4a9 b63c 5e63 153d fbdb 9cbd
000002d0: 7d28 ddbd 5555 dc3c 37fb 5dbd cc0f 21be
000002e0: cdea 003d 33e7 dc3d 0cb5 cebc aca8 d73d
000002f0: 18eb b73d 9735 d53d 1a7d e4bc 53f2 e3bd
00000300: 1e7e 16bc 4def 053e 01df 34bd ad82 163e
00000310: 0512 92bd 73ec ff3d 3368 bb3d a094 163d
00000320: cf40 91bd d426 3c3e 46c9 3cbd e296 29be
00000330: da87 9bbd 11c6 8e3d a110 d2bd 1f31 62bd
00000340: 917b c9bd 3c52 02be 82d7 b73d 8ef7 eb3b
00000350: 48f3 c93c af01 2abd 0ab5 cbbb 0d82 67bd
00000360: 9b6c f1bb 9887 ff3d 599b 1f3d c179 ab3d
00000370: da39 a13c cf74 9abd 70a2 d2bd 5592 47be
00000380: df2f 5bbc 58e9 47be 168c 7f3d bb43 f23d
00000390: 1a5b 9c3d fcdb f03d 1fd0 bbbb 0519 51bd
000003a0: 7a16 9d3b 30be 773d 31fa 243d 296a a33d
000003b0: 5b22 4f3d bdb5 eb3c c497 563d 6225 a13d
000003c0: de45 3fbd 10ac 913c 74a7 b3bd 6f94 953c
000003d0: c08f e1bd 9708 d9bc bc34 34bd 1ff3 aebd
000003e0: c1eb 0ebd 3fcc c0bd 0949 07be eba4 7ebc
000003f0: a632 c63d 8b30 e83d 1e83 113b 6825 5cbd

conv1.bias f4 [64]
0.008627079 -0.049042847 0.018217485 0.020956041 -0.05517661 0.0063066753 0.024897723 -0.08050635
-0.035864938 0.049459137 0.09289712 0.004971982 -0.057288412 0.01151897 0.031639412 0.035543326
0.025267696 0.06586812 0.1247804 -0.0036387728 0.10620731 0.0117114885 0.021752195 -0.022846064
-0.0080953315 0.09213435 -0.027909955 -0.09338337 -0.11394292 0.0039860024 0.014214859 -0.07708653
0.03740491 -0.10044228 0.15062177 -0.019895356 -0.010461008 -0.01148148 -0.0097667435 -0.051717184
0.04099732 0.17380583 -0.0072591947 -0.06707714 0.05362561 0.0035396493 -0.017050566 0.11307092
0.036217745 0.04600501 -0.03547771 0.09561025 -0.022922754 -0.016306395 -0.0022470567 -0.07698484
0.02762159 -0.08589231 0.003230384 -0.0810686 0.025899038 -0.077618174 0.11452099 -0.0033157098
00000000: 9858 0d3c 27e1 48bd d63c 953c 01ac ab3c
00000010: de00 62bd 3aa8 ce3b 4ff6 cb3c 83e0 a4bd
00000020: 1de7 12bd aa95 4a3d d840 be3d 02ec a23b
00000030: 41a7 6abd 10ba 3c3c 5498 013d e195 113d
00000040: 33fe ce3c dde5 863d de8c ff3d 7a78 6ebb
00000050: 3883 d93d 8be1 3f3c a931 b23c ab27 bbbc
00000060: 48a2 04bc efb0 bc3d 6ba3 e4bc c83f bfbd
00000070: e85a e9bd 039d 823b 71e5 683c 8bdf 9dbd
00000080: e435 193d afb4 cdbd 983c 1a3e 96fb a2bc
00000090: a664 2bbc d11c 3cbc b104 20bc 66d5 53bd
000000a0: ceec 273d 28fa 313e 8ade edbb bd5f 89bd
000000b0: 87a6 5b3d 76f9 673b a1ad 8bbc ba91 e73d
000000c0: 0f59 143d c06f 3c3d 1351 11bd 4fcf c33d
000000d0: 80c8 bbbc fd94 85bc 5b43 13bb 3aaa 9dbd
000000e0: ac46 e23c 4fe8 afbd dab4 533b 4b07 a6bd
000000f0: 382a d43c 47f6 9ebd fb89 ea3d 614c 59bb

conv2.weight f4 [32, 64, 1]
-0.017263485 -0.014508869 0.016245037 0.041471135 0.061973386 -0.01105451 -0.026753737 -0.05856175
-0.08261993 -0.056957982 0.04799272 0.019689808 -0.08378513 0.028222144 -0.033911243 -0.05245061
-0.06999743 0.0072300383 -0.017617697 -0.04267534 0.09022855 -0.05155857 0.064112075 -0.0031938246
0.068238385 -0.014701987 -0.048853967 -0.043219443 0.06794108 -0.0039384654 -0.03552498 0.010136714
-0.01851202 -0.005247552 0.034681465 -0.04616768 0.061905388 -0.021490963 0.0066794306 -0.053808045
-0.04639194 0.048164718 0.0029357248 -0.053065367 0.059956085 0.01806092 0.014253445 0.041909993
-0.04874136 0.015474321 -0.05726653 0.03310334 -0.0375754 -0.034205154 0.06997597 0.059400897
-0.0016683538 -0.08072696 -0.012278057 0.07572926 -0.028753905 0.0022321674 0.0479086 -0.025433376
0.030957755 -0.007457773 -0.018951906 0.0024514305 -0.011013514 0.018093482 0.0037939698 0.009403413
-0.0012343694 -0.0073358202 -0.014654644 -0.00017179722 -0.0072009102 -0.0025820236 0.0031373508 -0.0063985055
-0.0191319 -0.024501052 0.0010013642 0.032299146 -0.024505213 0.003352417 0.01621769 0.0093260845
-0.015698636 -0.0027386735 0.017887397 -0.008081694 0.010894819 -0.0042404435 -0.01729332 0.0030813492
-0.0025400724 -0.012210336 -0.0005863484 0.0058064535 -0.014989591 -0.007558704 0.010898608 -0.002287528
0.00097606814 -0.020903816 0.0074542277 0.0002275351 -0.005397182 0.004124564 -0.0014968549 0.013029014
0.0010913799 -0.0022045812 0.013651684 0.004866477 -0.020030016 -0.003953223 -0.009883771 -0.0040617194
-0.011909398 0.06143597 0.004809856 -0.019079475 -0.0059762467 0.009433687 -0.022513902 -0.003629023
-0.009712217 -0.014289022 -0.030996831 -0.0019066631 -0.012600892 -0.006308077 0.009669626 -0.009872515
-0.0112188095 0.014836517 -0.0064002657 -0.0033971106 -0.009628696 0.0031528368 0.0026149338 -0.0013686612
0.0034716367 0.017399795 -0.013104452 -0.010193465 0.02907634 -0.009195694 0.026759887 0.0128913885
0.037001234 -0.00080268714 0.017636668 -0.0074211555 -0.024004253 -0.0016480269 0.012811178 -0.009479622
0.0005546387 -0.005059427 -0.016648794 -0.0026637777 0.02163969 -0.003848702 0.012166662 -0.0003937848
0.019669471 0.036071606 0.0007947425 -0.0148522835 -0.01037967 -0.015083733 -0.015302031 0.0008150549
0.017424082 0.008749444 -0.0057577607 -0.025474664 -0.005841206 0.008168528 -0.019601688 0.014979916
-0.0021218779 0.002919532 -0.020959627 0.019180302 -0.0039600935 0.0031142528 0.023005076 -0.0075395983
0.0056555807 -0.02855922 0.0050086468 0.012145753 0.0047621825 0.013325766 0.010055688 -0.020705132
-0.0059857597 -0.004859846 -0.0041572135 -0.0025058328 -0.04178372 -0.0051566274 0.0003662905 -0.00967806
0.0039476817 -0.0019985233 0.018046936 -0.024415165 -0.01136317 -0.03192908 0.039316908 -0.027366538
0.043936525 0.0010309641 0.0009747743 0.03265555 -0.024373071 -0.0003732941 0.03177688 -0.016409254
0.0056105526 0.024343137 0.011942298 0.011804195 -0.017328098 0.011575327 0.010702989 -0.007725766
0.0054561733 0.029659206 0.005368995 -0.0058971015 -0.0016017035 0.0009864322 0.039025858 -0.022993268
0.0009006796 -0.0078903595 -0.012936738 0.010739609 0.00032958656 -0.012234449 0.029656097 0.00458284
0.011645944 -0.021786187 0.04930791 -0.016684417 0.0035857838 -0.009003857 0.00423434 0.0027118835
00000000: 276c 8dbc 9bb6 6dbc 5014 853c a3dd 293d
00000010: ced7 7d3d fa1d 35bc a72a dbbc 72de 6fbd
00000020: a334 a9bd c64c 69bd 0494 443d 854c a13c
00000030: 8a97 abbd 2032 e73c 84e6 0abd 73d6 56bd
00000040: d05a 8fbd f5e9 ec3b fd52 90bc 56cc 2ebd
00000050: bfc9 b83d 142f 53bd 314d 833d 7c4f 51bb
00000060: 91c0 8b3d 9ae0 70bc 191b 48bd df06 31bd
00000070: b124 8b3d 3e0e 81bb a482 11bd 7614 263c
00000080: 85a6 97bc a8f3 abbb 270e 0e3d 521a 3dbd
00000090: 8190 7d3d d10d b0bc 20df da3b d365 5cbd
000000a0: 7a05 3ebd 5e48 453d 4a65 403b 125b 59bd
000000b0: 8394 753d 7ff4 933c 4887 693c d0a9 2b3d
000000c0: 05a5 47bd 0288 7d3c 4f90 6abd 5e97 073d
000000d0: aae8 19bd b41a 0cbd 904f 8f3d 5b4e 733d
000000e0: aaac daba 2d54 a5bd e729 49bc f117 9b3d
000000f0: 4f8d ebbc 8e49 123b cf3b 443d a859 d0bc
00000100: 1e9b fd3c 5660 f4bb 0741 9bbc 2ea8 203b
00000110: 0772 34bc c838 943c 40a4 783b c610 1a3c
00000120: 90ca a1ba 5261 f0bb 081a 70bc 7724 34b9
00000130: 9df5 ebbb 2b37 29bb 039c 4d3b 8eaa d1bb
00000140: 81ba 9cbc 6eb6 c8bc 3540 833a 1c4c 043d
00000150: 28bf c8bc 39b4 5b3b f6da 843c 6fcc 183c
00000160: 6d9a 80bc 517b 33bb 9788 923c 1569 04bc
00000170: 2f80 323c 6bf3 8abb b8aa 8dbc 76f0 493b
00000180: 5877 26bb dc0d 48bc 2db5 19ba 1044 be3b
00000190: e796 75bc 01af f7bb 1390 323c 5aea 15bb
000001a0: d3de 7f3a 7b3e abbc 9842 f43b 7d96 6e39
000001b0: d8da b0bb 5a27 873b 1e32 c4ba a577 553c
000001c0: a20c 8f3a bc7a 10bb 50ab 5f3c f876 9f3b
000001d0: fd15 a4bc 0a8a 81bb 8aef 21bc 2c18 85bb
000001e0: a31f 43bc 49a4 7b3d ff9b 9d3b 8f4c 9cbc
000001f0: 64d4 c3bb c08f 1a3c 136f b8bc e7d4 6dbb
00000200: fe1f 1fbc 811c 6abc 11ed fdbc ffe8 f9ba
00000210: f973 4ebc fcb3 cebb 5a6d 1e3c 54c0 21bc
00000220: 19cf 37bc dd14 733c 52b9 d1bb 0fa2 5ebb
00000230: aec1 1dbc d39f 4e3b 4f5f 2b3b a664 b3ba
00000240: 6684 633b 048a 8e3c 0eb4 56bc 7e02 27bc
00000250: 8131 ee3c 89a9 16bc 8d37 db3c 6736 533c
00000260: 9b8e 173d 6c6b 52ba c67a 903c 2a2d f3bb
00000270: 91a4 c4bc 9b02 d8ba fae5 513c 6b50 1bbc
00000280: 2c65 113a 8dc9 a5bb 0d63 88bc c692 2ebb
00000290: b845 b13c 813a 7cbb ae56 473c e774 ceb9
000002a0: df21 a13c d2bf 133d 4456 503a fe56 73bc
000002b0: 7e0f 2abc c321 77bc 5fb5 7abc 69a9 553a
000002c0: f3bc 8e3c d459 0f3c 99ab bcbb 3eb0 d0bc
000002d0: 9667 bfbb 4ad5 053c b893 a0bc 526e 753c
000002e0: 340f 0bbb 9e55 3f3b 86b3 abbc 0220 9d3c
000002f0: acc3 81bb 7e18 4c3b 2475 bc3c bc0e f7bb
00000300: 7352 b93b 06f5 e9bc 931f a43b fbfe 463c
00000310: 150c 9c3b 5054 5a3c 9dc0 243c cf9d a9bc
00000320: 3124 c4bb 583f 9fbb 3c39 88bb e638 24bb
00000330: 6825 2bbd edf8 a8bb ae0a c039 ba90 1ebc
00000340: 8e5b 813b a8f9 02bb 2bd7 933c 5002 c8bc
00000350: 972c 3abc 11c8 02bd c40a 213d ca2f e0bc
00000360: c9f6 333d 6a21 873a ff87 7f3a d3c1 053d
00000370: 09aa c7bc b0b6 c3b9 7928 023d b36c 86bc
00000380: bad8 b73b 426b c73c a1a9 433c 6266 413c
00000390: a8f3 8dbc 71a6 3d3c 975b 2f3c 6c28 fdbb
000003a0: b3c9 b23b ddf7 f23c 65ee af3b 793c c1bb
000003b0: 40f0 d1ba 2c4b 813a 94d9 1f3d 615c bcbc
000003c0: 961b 6c3a 9146 01bc 9df4 53bc 2ff5 2f3c
000003d0: 5ccc ac39 0073 48bc 58f1 f23c a62b 963b
000003e0: a1ce 3e3c f278 b2bc 17f7 493d c2ad 88bc
000003f0: 78ff 6a3b ea84 13bc 38c0 8a3b dbb9 313b

conv2.bias f4 [32]
2.9484275e-07 3.7807688e-08 1.09033806e-07 3.0435876e-07 -3.522092e-08 -9.592619e-08 -3.6151604e-08 1.0624723e-07
1.8905594e-07 -6.2347304e-08 6.951818e-08 3.2337388e-09 -1.6110441e-08 -1.396274e-07 9.757969e-07 -2.2057105e-07
-7.828293e-08 1.8555423e-07 -5.048633e-08 1.2923426e-08 -1.0652801e-07 2.0799535e-09 -6.0528954e-08 -1.7591383e-08
-8.064389e-08 6.560867e-08 -7.343704e-08 1.1833474e-07 7.843964e-08 -6.412515e-09 7.721307e-08 1.372148e-07
00000000: e14a 9e34 fe61 2233 f825 ea33 c066 a334
00000010: d045 17b3 fbff cdb3 1c45 1bb3 082a e433
00000020: 4dff 4a34 cbe3 85b3 064a 9533 8938 5e31
00000030: 3c63 8ab2 7dec 15b4 20f8 8235 1cd6 6cb4
00000040: 7f1c a8b3 c23c 4734 4fd6 58b3 d405 5e32
00000050: 65c4 e4b3 eeee 0e31 25fc 81b3 dc1b 97b2
00000060: 732e adb3 bfe4 8c33 71b4 9db3 361f fe33
00000070: a672 a833 1455 dcb1 56d0 a533 5155 1334

batch1.weight f4 [32]
0.5411166 0.51477134 0.51438934 0.5437271 0.5187958 0.5152673 0.60996985 0.5150281
0.5180884 0.5174223 0.5286485 0.5158827 0.54862154 0.5261369 0.52568936 0.5407628
0.5304353 0.5212667 0.5546715 0.54419994 0.51352596 0.538687 0.5309829 0.55330044
0.52174026 0.5218755 0.5244682 0.5173371 0.533385 0.51981485 0.54396886 0.53069735
00000000: 9e86 0a3f 0ec8 033f 05af 033f b331 0b3f
00000010: cdcf 043f 8fe8 033f fc26 1c3f e2d8 033f
00000020: 71a1 043f ca75 043f 8255 073f e310 043f
00000030: 7672 0c3f e8b0 063f 9493 063f 6e6f 0a3f
00000040: 9cca 073f bc71 053f f4fe 0d3f b050 0b3f
00000050: 7076 033f 64e7 093f 7fee 073f 19a5 0d3f
00000060: c590 053f a299 053f 8c43 063f 3470 043f
00000070: eb8b 083f 9612 053f 8b41 0b3f c8db 073f

batch1.bias f4 [32]
-0.0014636902 0.004269056 0.0002215023 -0.005216496 0.0060043815 -0.0010066982 0.0328335 -0.0018424434
-0.0011357947 0.00025217934 0.004529012 0.0011838984 -0.00038280207 -0.0020730838 0.012674029 -0.0025183845
-0.0002737108 0.008224874 -0.00067007565 -0.0010628541 -0.002280937 0.0021576856 0.0005432308 0.0004931037
-0.00087052636 -0.00066612154 0.00010349932 0.0017204763 0.0007142611 0.004550353 0.019538011 -0.0016441608
00000000: 4bd9 bfba 70e3 8b3b 1243 6839 24ef aabb
00000010: 67c0 c43b 30f3 83ba 6c7c 063d 247e f1ba
00000020: f2de 94ba f036 8439 1b68 943b 0a2d 9b3a
00000030: d3b2 c8b9 93dc 07bb bba6 4f3c 7b0b 25bb
00000040: d780 8fb9 9fc1 063c 04a8 2fba 774f 8bba
00000050: c67b 15bb f567 0d3b 9a67 0e3a a143 013a
00000060: 0934 64ba a99e 2eba c60d d938 9b81 e13a
00000070: 403d 3b3a 211b 953b 2e0e a03c e280 d7ba

batch1.running_mean f4 [32]
0.012945112 0.0018151265 -0.011755263 -0.008966451 0.013618344 0.0029017963 0.008567646 -0.007582654
0.009256156 0.0050895954 -0.006665785 -0.010613793 -0.027809873 0.0007280707 -0.0016144002 0.02402832
-0.010497535 0.0019896831 0.042176116 -0.0035822466 0.004561214 0.0059760013 0.018581454 -0.016669154
0.013410976 0.026546165 0.006818721 -0.014664365 0.041768163 -0.011071554 0.0018150822 0.031963605
00000000: bc17 543c 8ae9 ed3a 2699 40bc 05e8 12bc
00000010: 7a1f 5f3c 102c 3e3b 505f 0c3c e977 f8bb
00000020: 22a7 173c 9fc6 a63b a86c dabb 79e5 2dbc
00000030: 88d1 e3bc ffdb 3e3a 489a d3ba 0ad7 c43c
00000040: dafd 2bbc 5865 023b ddc0 2c3d 20c4 6abb
00000050: 3c76 953b 55d2 c33b 2238 983c c08d 88bc
00000060: b6b9 5b3c 5877 d93c 946f df3b ce42 70bc
00000070: 1815 2b3d 7765 35bc 0de8 ed3a 45ec 023d

batch1.running_var f4 [32]
0.0012157969 0.00035210338 0.0005731508 0.0010535651 0.00048040156 0.0007687077 0.0029241766 0.0013513407
0.0007820582 0.00068723946 0.00049516646 0.00029565807 0.0010694576 0.0002188672 0.00041504792 0.0006081725
0.00045332822 0.00046891152 0.0006525281 0.0006333989 0.00028104626 0.000446064 0.0008559828 0.00032679102
0.00036226853 0.0011211361 0.00025575704 0.00029582414 0.00042157242 0.0011031207 0.0006558565 0.0004320524
00000000: 605b 9f3a 849a b839 803f 163a c717 8a3a
00000010: 68de fb39 1a83 493a 8ba3 3f3b 781f b13a
00000020: 0a03 4d3a dc27 343a 0fce 013a 8e02 9b39
00000030: 0b2d 8c3a b77f 6539 ca9a d939 c46d 1f3a
00000040: afac ed39 3dd8 f539 6b0e 2b3a ae0a 263a
00000050: 6459 9339 b2dd e939 0964 603a 2655 ab39
00000060: dcee bd39 16f3 923a 2117 8639 d818 9b39
00000070: 7e06 dd39 9796 903a c9ed 2b3a 1785 e239

conv3.weight f4 [32, 32, 1]
-0.018226169 -0.038581964 0.002750624 -0.04093527 0.027138513 -0.02039321 -0.039777216 0.0126306685
0.046322443 0.017791677 0.02569939 -0.018189417 0.021162128 -0.013717539 0.013993406 0.009437706
-0.049071446 0.009966621 0.042661745 0.008231052 0.033174332 -0.039300088 -0.008616909 0.032838807
-0.050270982 -0.02151212 0.008312075 0.036488485 0.016349597 -0.024659218 -0.045930643 0.01752018
0.001358404 0.003757685 0.023263818 -0.04013067 -0.05423129 -0.021242188 -0.071520045 0.019821672
0.015796516 -0.052321386 -0.031578347 0.01686417 -0.042063974 -0.053785693 -0.039106797 -0.0030249085
-0.014767725 -0.021406317 -0.03365804 -0.013008373 0.00936681 0.02458016 -0.014318221 0.04295279
0.024594776 0.001348582 0.02475669 -0.05130166 -0.0029365304 -0.04411889 -0.04226506 0.02759542
-0.016910588 -0.01235544 0.041221946 0.004920979 -0.025551153 0.015155882 -0.010295923 0.020628175
0.03039688 -0.00055524404 -0.033584677 0.0031211912 0.038657945 -0.023966892 0.0121628465 0.05727009
-0.0031942034 0.011925545 -0.043663643 0.01201534 0.006383517 0.010953789 -0.01111171 -0.026869938
-0.021108042 0.026854146 0.02233054 -0.036063608 -0.007129067 0.041257 -0.008634002 0.008241887
0.004667993 -0.06546449 0.039078265 0.027118746 -0.057219602 -0.055557158 0.032419026 -0.054789487
0.0035829789 -0.018883362 -0.059324395 0.048762273 -0.05202865 0.043095194 0.0002862466 0.043070666
0.029516514 -0.0017041669 -0.0074303234 -0.025931804 -0.0055062575 -0.023715466 0.02900926 0.006090723
0.06439674 0.037101876 0.01315809 -0.014285284 0.0050778775 -0.023289796 -0.017990684 -0.047109727
0.03429033 0.055184066 0.03028455 0.0124183055 -0.008136732 0.04269368 -0.038617477 0.011004838
-0.0059551387 -0.053987905 0.030390713 0.025691833 -0.0067761946 0.03327525 -5.3283224e-05 0.07187781
-0.017679539 0.07429788 0.010897539 0.0366062 0.024849232 -0.084466554 0.079154745 0.04837301
-0.0076464834 -0.0008506101 -0.05311911 0.0075445874 0.001030146 0.021133104 -0.04502877 -0.049682118
0.055152338 0.07420225 0.07539032 -0.04038369 -0.03296218 -0.0003923691 -0.10009426 -3.126174e-05
0.055925082 0.008375727 0.06671711 0.06870106 0.06756279 -0.01940498 0.053037625 0.08119171
0.030371767 -0.032139204 0.044309877 -0.05699895 -0.048186652 0.06735192 0.008654705 0.0039082416
-0.03215228 0.055837605 0.012007154 0.036648538 0.043626156 -0.033371717 -0.06276186 -0.024551034
0.010888083 -0.01896589 -0.048091717 -0.027480295 -0.06096685 -0.02361513 -0.020044941 0.015630761
0.04444955 -0.014712004 -0.0014931256 0.031439833 -0.02599023 0.007675552 0.040963694 -0.00015108063
-0.02413137 -0.030183805 0.03805125 0.017532628 0.021674832 -0.053909317 -0.07615747 -0.05316108
-0.029659191 -0.01871467 0.034607213 0.025450815 0.01914151 0.016852818 0.015209906 0.033803996
0.0091421595 -0.027728213 -0.00561444 0.049487013 0.030759227 -0.01148484 -0.040461566 -0.008106501
0.01580818 0.064994514 -0.0555164 0.028702414 -0.010828832 0.028865742 -0.0014259453 0.0010748084
-0.03327103 0.009419607 -0.0024854257 0.026728299 0.018565848 -0.017886473 0.038286306 0.014481612
-0.021112079 0.016817378 0.018960511 -0.0068265577 0.0028951964 0.0072154137 0.011854805 -0.013239476
00000000: 0c4f 95bc 1f08 1ebd d043 343b beab 27bd
00000010: 9651 de3c a90f a7bc 6fed 22bd ddf0 4e3c
00000020: 9abc 3d3d dabf 913c 8787 d23c f901 95bc
00000030: 335c ad3c 87bf 60bc 9944 653c 9ca0 1a3c
00000040: 24ff 48bd 0a4b 233c 15be 2e3d 89db 063c
00000050: cfe1 073d 21f9 20bd f02d 0dbc fc81 063d
00000060: f2e8 4dbd 2f3a b0bc 5f2f 083c f374 153d
00000070: 97ef 853c 2102 cabc c521 3cbd 7b86 8f3c
00000080: 7a0c b23a 7e43 763b c393 be3c 0f60 24bd
00000090: a121 5ebd 1904 aebc 1a79 92bd 0f61 a23c
000000a0: b267 813c f34e 56bd 4c58 01bd ba26 8a3c
000000b0: 464b 2cbd 634e 5cbd 732e 20bd 8b3d 46bb
000000c0: 54f4 71bc 4d5c afbc 03dd 09bd 1221 55bc
000000d0: 4077 193c 555c c93c f996 6abc 44ef 2f3d
000000e0: fc7a c93c e7c2 b03a 8bce ca3c b021 52bd
000000f0: ce72 40bb 02b6 34bd 211e 2dbd ca0f e23c
00000100: 1388 8abc 796e 4abc 58d8 283d 2a40 a13b
00000110: a750 d1bc 6050 783c 3bb0 28bc 6bfc a83c
00000120: e102 f93c cc8d 11ba 1690 09bd e68c 4c3b
00000130: cb57 1e3d 3756 c4bc ad46 473c 0b94 6a3d
00000140: d755 51bb 5c63 433c a6d8 32bd fddb 443c
00000150: d22c d13b 8577 333c e40d 36bc 581e dcbc
00000160: c6ea acbc 3afd db3c 89ee b63c 6fb7 13bd
00000170: f39a e9bb 1afd 283d a175 0dbc fb08 073c
00000180: f7f5 983b 3f12 86bd 8810 203d 2228 de3c
00000190: 1a5f 6abd e78f 63bd d0c9 043d f16a 60bd
000001a0: 69d0 6a3b 48b1 9abc 23fe 72bd f3ba 473d
000001b0: fe1b 55bd 9684 303d 5e13 9639 de6a 303d
000001c0: 9ecc f13c 5a5e dfba 127a f3bb ef6e d4bc
000001d0: d66d b4bb f046 c2bc d4a4 ed3c b094 c73b
000001e0: 70e2 833d 23f8 173d 0895 573c d30c 6abc
000001f0: 5364 a63b 3eca bebc 3361 93bc 21f6 40bd
00000200: 0474 0c3d b008 623d 4e17 f83c 2676 4b3c
00000210: ed4f 05bc 91df 2e3d 5c2d 1ebd a34d 343c
00000220: 5323 c3bb 6c22 5dbd f2f5 f83c ae77 d23c
00000230: d70a debb a14b 083d 6d7c 5fb8 ac34 933d
00000240: aed4 90bc 7d29 983d 978b 323c 62f0 153d
00000250: 9e90 cb3c cdfc acbd e21b a23d c722 463d
00000260: 5a8f fabb 7afb 5eba 6d93 59bd 9638 f73b
00000270: f705 873a 551f ad3c 1670 38bd 7a7f 4bbd
00000280: 6be7 613d 59f7 973d 3d66 9a3d 5e69 25bd
00000290: 5a03 07bd e4b6 cdb9 38fe ccbd 0a1f 03b8
000002a0: b311 653d 583a 093c fba2 883d 24b3 8c3d
000002b0: 5c5e 8a3d 31f7 9ebc fb3d 593d d747 a63d
000002c0: 36ce f83c 66a4 03bd 467e 353d bb77 69bd
000002d0: 5e5f 45bd ceef 893d 77cc 0d3c b510 803b
000002e0: 1cb2 03bd f9b5 643d a7b9 443c c71c 163d
000002f0: 57b1 323d c8b0 08bd 4a89 80bd 401f c9bc
00000300: ee63 323c 5b5e 9bbc d2fb 44bd 5b1e e1bc
00000310: 60b8 79bd 8474 c1bc 4a35 a4bc 150c 803c
00000320: bb10 363d 9e0a 71bc fbb4 c3ba 0ec7 003d
00000330: 76e9 d4bc 3283 fb3b 8cc9 273d 666b 1eb9
00000340: 27af c5bc 0744 f7bc a1db 1b3d 96a0 8f3c
00000350: 6b8f b13c 04d0 5cbd 73f8 9bbd 6fbf 59bd
00000360: d5f7 f2bc 824f 99bc 4bc0 0d3d 3a7e d03c
00000370: a8ce 9c3c ec0e 8a3c f832 793c 0f76 0a3d
00000380: ffc8 153c 4726 e3bc 56f9 b7bb e5b2 4a3d
00000390: c6fa fb3c e92a 3cbc 07bb 25bd 21d1 04bc
000003a0: 2880 813c d81b 853d 2a65 63bd 5321 eb3c
000003b0: 6a6b 31bc d977 ec3c c9e6 baba 96e0 8c3a
000003c0: 3447 08bd b254 1a3c 86e2 22bb 4ef5 da3c
000003d0: 6817 983c a786 92bc 1ad2 1c3d 4844 6d3c
000003e0: 3df3 acbc 99c4 893c 1353 9b3c 51b1 dfbb
000003f0: 56bd 3d3b 476f ec3b a83a 423c 63ea 58bc

conv3.bias f4 [32]
-1.6945334e-08 1.6061072e-08 -6.050438e-09 5.6972342e-09 1.1467098e-08 1.7298495e-08 3.543361e-08 5.4281895e-09
3.5646124e-09 8.558614e-09 -1.1939575e-08 1.3724106e-09 7.369166e-10 5.0679256e-09 -1.535791e-08 7.009813e-09
-5.5969784e-10 3.7111484e-08 2.2414227e-08 6.960185e-08 2.6504388e-09 7.3037715e-11 2.169573e-08 -1.2087727e-08
4.7940603e-08 -4.6267676e-08 -1.3938955e-08 2.1904768e-08 1.967815e-08 -4.9517492e-09 6.446431e-09 8.719932e-09
00000000: 2f8f 91b2 acf6 8932 37e4 cfb1 67c1 c331
00000010: d500 4532 cb97 9432 ab2f 1833 dc82 ba31
00000020: 53f5 7431 2f09 1332 ce1e 4db2 689f bc30
00000030: e58f 4a30 f221 ae31 67ec 83b2 f8da f031
00000040: 3cd9 19b0 8264 1f33 6889 c032 0678 9533
00000050: 0323 3631 949c a02e 6a5d ba32 63aa 4fb2
00000060: 40e7 4d33 d9b7 46b3 2c78 6fb2 1829 bc32
00000070: b608 a932 0c24 aab1 687f dd31 abce 1532

batch2.weight f4 [32]
0.535253 0.52453333 0.52118766 0.54599136 0.5354504 0.5325733 0.5295468 0.5511457
0.54270786 0.54076505 0.5462732 0.54669493 0.54631656 0.542503 0.53579104 0.5445342
0.5374215 0.5433036 0.53945786 0.5346044 0.53217405 0.5396157 0.534267 0.5255804
0.5326329 0.5196528 0.51810294 0.5175551 0.51388264 0.512583 0.51089364 0.50948244
00000000: 5706 093f d147 063f 8e6c 053f 17c6 0b3f
00000010: 4713 093f b956 083f 6190 073f e217 0d3f
00000020: e7ee 0a3f 946f 0a3f 8fd8 0b3f 33f4 0b3f
00000030: 67db 0b3f 7ae1 0a3f 9a29 093f 9866 0b3f
00000040: 7594 093f f215 0b3f e919 0a3f d5db 083f
00000050: 8f3c 083f 4124 0a3f b9c5 083f 708c 063f
00000060: a15a 083f f707 053f 65a2 043f 7e7e 043f
00000070: d08d 033f a438 033f edc9 023f 716d 023f

batch2.bias f4 [32]
0.0017805144 0.0062561906 0.0056749415 -0.00047874887 0.006856302 0.0047680326 0.008407117 -0.0042366474
0.005896325 -0.0050767707 -0.0024524478 -0.0005110046 -0.003262819 -0.0012016352 0.0065272152 0.0066674496
0.0064017707 0.00067001523 0.0044295024 0.008569897 -0.0018470272 0.0038248547 -0.0018920326 -0.0009037293
0.0034282238 0.005524047 0.0040108613 0.0005322002 0.0021193067 0.000818721 0.00077018887 8.628772e-05
00000000: 2660 e93a bb00 cd3b dcf4 b93b 9600 fbb9
00000010: d4aa e03b 283d 9c3b 01be 093c 93d3 8abb
00000020: f635 c13b 0a5b a6bb 3fb9 20bb f0f4 05ba
00000030: 05d5 55bb 3080 9dba 40e2 d53b 9f7a da3b
00000040: f2c5 d13b f6a3 2f3a 5c25 913b c168 0c3c
00000050: f317 f2ba 6aaa 7a3b 14fe f7ba 3fe8 6cba
00000060: 0dac 603b 1103 b53b 8b6d 833b 5a83 0b3a
00000070: 11e4 0a3b 709f 563a 80e6 493a 5ef5 b438

batch2.running_mean f4 [32]
0.00316894 0.021340847 -0.0018509214 0.00723897 -0.01640745 -0.026729181 0.013207059 -0.006338385
0.0026725426 0.010104832 -0.0019123058 -0.021248236 0.021790814 0.014221308 -0.0011590897 -0.0195687
0.022387972 0.014355513 -0.00049892237 -0.007217254 -0.0061936076 -0.006316768 -0.005580857 -0.004189169
0.00074384967 -0.004345949 0.0021434657 0.0057108877 -0.0018802139 0.0007950349 0.001525734 0.00083520915
00000000: fead 4f3b 00d3 ae3c 9e9a f2ba e234 ed3b
00000010: eb68 86bc 28f7 dabc 6c62 583c 3ab2 cfbb
00000020: d325 2f3b bd8e 253c 56a6 faba c810 aebc
00000030: a682 b23c 7d00 693c 99ec 97ba 8a4e a0bc
00000040: fb66 b73c 6333 6b3c 1dca 02ba b77e ecbb
00000050: bff3 cabb e4fc cebb 9fdf b6bb 4c45 89bb
00000060: e8fe 423a 7668 8ebb 6379 0c3b 6622 bb3b
00000070: 8271 f6ba e469 503a 23fb c73a f0f1 5a3a

batch2.running_var f4 [32]
0.0108701475 0.010711148 0.017264869 0.012830413 0.017367346 0.0093507115 0.019343745 0.013888334
0.024782084 0.013458049 0.011049178 0.011525534 0.022522928 0.018037762 0.015619192 0.019710599
0.0098523805 0.028236128 0.0069245836 0.020149821 0.022886112 0.012918578 0.007521276 0.008924432
0.008333545 0.013773386 0.012404963 0.0081483545 0.004391653 0.0027177571 0.0015225268 0.00083937397
00000000: b418 323c d07d 2f3c 0e6f 8d3c a736 523c
00000010: f745 8e3c ba33 193c c676 9e3c e58b 633c
00000020: cc03 cb3c 267f 5c3c 9d07 353c 98d5 3c3c
00000030: 0182 b83c eec3 933c a4e7 7f3c 1f78 a13c
00000040: e16b 213c 744f e73c 9ee7 e23b 3d11 a53c
00000050: a87b bb3c 72a8 533c 0975 f63b c837 123c
00000060: 6c89 083c c5a9 613c 303e 4b3c ad80 053c
00000070: dbe7 8f3b 661c 323b 868f c73a 6f09 5c3a

LSTM.weight_ih_l0 f4 [256, 57]
1.2989671e-05 -4.6557245e-05 -0.0001368054 -0.0010470601 0.0011622858 0.0013128245 0.0013139222 0.0013022003
0.0013024459 0.0013158965 -0.001605154 -0.001930437 -0.0004318638 -0.00020626403 0.0005986992 -0.0010525719
-0.0012131323 0.0006313497 0.0007190392 0.0013877058 -0.000233533 0.00041950695 -0.0012844868 -0.00040016693
-0.0010018119 -0.00062983553 0.00020725632 -0.00091638876 -0.000980723 0.00020099957 0.0003188917 -0.00012988105
-0.00026313413 0.0003495389 -0.0009174236 0.00018003258 -0.00090426323 0.00017690573 -0.00013005442 -0.00028779972
0.00035275292 -0.0009152256 0.00019576222 -0.00090373337 0.00014405536 -0.00013435795 -0.00033363947 0.0013192301
-0.00075017835 -0.00060891866 0.0011589121 0.000717121 -0.00089006504 -0.0009773509 -0.000981591 -6.04867e-05
1.12105945e-05 3.760279e-05 0.0012571708 -0.0016743427 -0.0054959394 0.007021611 0.0075123063 0.0076604653
0.007815238 0.0077975383 0.0076456787 -0.008646986 -0.010480126 -0.0023539416 -0.00059262937 0.0021690053
-0.006307313 -0.006474078 0.0029193168 0.0037258926 0.007811261 -0.0015722254 0.0031858694 -0.0078247385
-0.0027406323 -0.006024481 -0.004571118 0.0002247785 -0.006632711 -0.0060129445 -6.753369e-05 0.0010544461
-0.0035058286 -0.0001704621 0.0012981303 -0.0053494154 -0.00014666116 -0.006610402 0.00024041867 -0.0012062427
-0.00075921253 0.0012077955 -0.006180193 0.00024306113 -0.006530356 0.00016575963 -0.0029733472 -0.0007549494
0.007559794 -0.005289806 -0.0046364143 0.0072907866 0.0047829524 -0.0056976685 -0.0075426865 -0.0066990326
0.001255827 -6.744246e-06 6.219148e-06 -5.143704e-05 -5.872446e-05 -0.00014987393 0.00015867031 0.00015918801
0.00019625963 0.0001945278 0.0001550535 0.00015759323 -0.0002778009 -0.00031502612 -3.318647e-05 1.5708609e-05
0.00014012841 -0.00022093698 -0.0002041193 0.00018614643 0.00023946849 0.00018574797 -8.35752e-05 8.083516e-05
-0.00023206288 -3.495505e-05 -0.00016855975 -9.450377e-05 0.00012269612 -0.00012974627 -0.00014062088 0.00011758008
0.00015492279 2.4964833e-05 -7.085277e-05 0.00014207489 -0.00012944327 7.429504e-05 -0.00011371858 0.000104306804
2.6268166e-05 -9.8620454e-05 0.0001526856 -0.00012626719 0.00011929914 -0.00012695254 0.000114374234 2.0367122e-05
-9.6430485e-05 0.00019500266 -0.0001392182 -7.3932075e-05 0.00013884119 8.704085e-05 -0.00014388471 -0.00014039292
-0.00013571739 -4.6141817e-05 3.7796465e-06 7.388981e-05 0.0024542394 -0.002106491 -0.0068056434 0.009562708
0.00792941 0.010952971 0.00886631 0.008147793 0.009753437 -0.010723315 -0.012091191 -0.0043785716
-0.0041187387 0.0015434858 -0.0076531097 -0.0059807776 0.0025486727 0.005974577 0.010196675 -0.0032592318
0.0040235417 -0.009507809 0.0014050299 -0.012029173 -0.005814122 0.0011568704 -0.013848715 -0.0007734876
-0.0014914164 0.001401915 -0.0038741394 -0.0004152421 0.00079567934 -0.00130627 -0.000871368 -0.007936961
0.0014306953 -0.004833292 -0.00089215237 0.0008909861 -0.002804966 -0.0014434017 -0.0009472297 -0.0027545327
-0.0042814217 -0.0009085412 0.01037029 -0.0056558424 -0.009941799 0.009992695 0.007232639 -0.0050434945
-0.0059012705 -0.0033153272 0.002553578 5.2120427e-05 -7.0183946e-06 -0.0002612706 -0.00027868335 -0.0011534772
0.0012905505 0.001414465 0.0014117537 0.0014095198 0.00141734 0.0014103674 -0.0017828649 -0.002099108
-0.00046659744 -0.00026418307 0.0005355286 -0.0012051056 -0.001350951 0.00068238354 0.00077612145 0.0015034103
-0.0003296929 0.0005009743 -0.0014928364 -0.00043759993 -0.0012076899 -0.0006010124 0.0002207834 -0.00086372095
00000000: 36ee 5937 7646 43b8 6c73 0fb9 823d 89ba
00000010: d757 983a 1513 ac3a ea37 ac3a 97ae aa3a
00000020: d5b6 aa3a 297a ac3a 0864 d2ba b806 fdba
00000030: c76b e2b9 9448 58b9 06f2 1c3a 74f6 89ba
00000040: f701 9fba 2981 253a e77d 3c3a aee3 b53a
00000050: 8ae0 74b9 45f1 db39 3a5c a8ba 7fcd d1b9
00000060: 3b4f 83ba 8c1b 25ba f252 5939 cf39 70ba
00000070: 9a8b 80ba 69c3 5239 eb30 a739 ae30 08b9
00000080: 44f5 89b9 5142 b739 417f 70ba 21c7 3c39
00000090: 140c 6dba c57f 3939 385f 08b9 d3e3 96b9
000000a0: b2f1 b839 c0eb 6fba 8545 4d39 85e8 6cba
000000b0: 910d 1739 70e2 0cb9 55ec aeb9 04ea ac3a
000000c0: 9ea7 44ba d79f 1fba a3e6 973a 2dfd 3b3a
000000d0: 4153 69ba 741a 80ba baa8 80ba 19b3 7db8
000000e0: 2315 3c37 b0b7 1d38 a7c7 a43a 9e75 dbba
000000f0: 4817 b4bb 8b15 e63b cb29 f63b a404 fb3b
00000100: 7c0b 003c 7e82 ff3b 9a88 fa3b 17ac 0dbc
00000110: d6b4 2bbc 9644 1abb af5a 1bba df25 0e3b
00000120: 94ad cebb 8124 d4bb 0252 3f3b 1b2e 743b
00000130: 9bf5 ff3b 2113 ceba 05ca 503b 5533 00bc
00000140: 2e9c 33bb 0269 c5bb 51c9 95bb 85b2 6b39
00000150: 3657 d9bb 3c08 c5bb e0a0 8db8 5735 8a3a
00000160: 0bc2 65bb 12be 32b9 0626 aa3a 264a afbb
00000170: 0ec9 19b9 129c d8bb e518 7c39 ca1a 9eba
00000180: e405 47ba e44e 9e3a 3783 cabb 3ade 7e39
00000190: 99fc d5bb c3cf 2d39 7ddc 42bb cce7 45ba
000001a0: 26b8 f73b 1c56 adbb 10ed 97bb 8de7 ee3b
000001b0: 50ba 9c3b 82b3 babb a428 f7bb 8f83 dbbb
000001c0: 909a a43a a24c e2b6 13ae d036 1abe 57b8
000001d0: e94e 76b8 7a27 1db9 bd60 2639 b5eb 2639
000001e0: 0bcb 4d39 29fa 4b39 db95 2239 9c3f 2539
000001f0: cea5 91b9 172a a5b9 b331 0bb8 fbc5 8337
00000200: 6fef 1239 52ab 67b9 db08 56b9 4d30 4339
00000210: d519 7b39 57c5 4239 1845 afb8 0c86 a938
00000220: e855 73b9 b39c 12b8 6abf 30b9 5330 c6b8
00000230: fda7 0039 800c 08b9 a173 13b9 5395 f638
00000240: c572 2239 926b d137 cb96 94b8 f0f9 1439
00000250: 2abb 07b9 d9ce 9b38 337c eeb8 4abf da38
00000260: 755a dc37 74d2 ceb8 3b1a 2039 9766 04b9
00000270: 3d30 fa38 901e 05b9 33dc ef38 10da aa37
00000280: b93a cab8 a179 4c39 1afb 11b9 fb0b 9bb8
00000290: e695 1139 b389 b638 c2df 16b9 7036 13b9
000002a0: 5c4f 0eb9 6688 41b8 d5a5 7d36 4af5 9a38
000002b0: 4ed7 203b 0e0d 0abb e001 dfbb e8ac 1c3c
000002c0: 5bea 013c 1774 333c 0044 113c 527e 053c
000002d0: e1cc 1f3c d8b0 2fbc 211a 46bc 1f7a 8fbb
000002e0: 7cf6 86bb ca4e ca3a f0c6 fabb 66fa c3bb
000002f0: a207 273b 62c6 c33b f40f 273c d698 55bb
00000300: ead7 833b a4c6 1bbc fb28 b83a 0216 45bc
00000310: 6484 bebb 21a2 973a b9e5 62bc e0c3 4aba
00000320: a17b c3ba 76c0 b73a 46e5 7dbb dab4 d9b9
00000330: 2395 503a 2637 abba 846c 64ba 070a 02bc
00000340: 2b86 bb3a 9860 9ebb 55df 69ba 1191 693a
00000350: 85d3 37bb 8630 bdba 824f 78ba 6485 34bb
00000360: 2b4b 8cbb 2b2b 6eba 26e8 293c a554 b9bb
00000370: ede2 22bc 67b8 233c c6ff ec3b e643 a5bb
00000380: 725f c1bb f645 59bb ee59 273b e29b 5a38
00000390: 8d7f ebb6 25fb 88b9 3f1c 92b9 4630 97ba
000003a0: b027 a93a 9265 b93a 980a b93a a3bf b83a
000003b0: 0ac6 b93a 14dc b83a 05af e9ba 3091 09bb
000003c0: a6a1 f4b9 0d82 8ab9 b762 0c3a a2f4 9dba
000003d0: 6512 b1ba fce1 323a a174 4b3a 140e c53a
000003e0: a2da acb9 d153 033a 47ab c3ba ab6d e5b9
000003f0: 594b 9eba 428d 1dba 1882 6739 556b 62ba

LSTM.weight_hh_l0 f4 [256, 64]
0.00011963553 -0.00026918156 4.9215767e-05 0.00021029265 -0.00011521691 0.00015228694 7.795869e-05 -1.3548366e-05
-4.9752147e-05 9.030979e-05 -0.00023044621 7.283773e-06 3.06827e-05 4.056699e-05 -0.00016638816 0.0002100778
-1.673543e-06 -4.753011e-06 0.00014988538 0.000106168525 1.4436326e-06 3.3691755e-05 3.5536982e-07 0.00032673357
-4.3214313e-06 0.00026731897 0.000103271675 -1.3478618e-05 8.82445e-05 0.000107724256 0.00016210308 -0.00018307671
9.467266e-06 -6.713961e-05 -5.3950036e-05 0.00010481524 -0.00028971626 3.8221522e-05 -6.7929475e-05 9.653248e-05
0.0001517746 -0.0001427113 0.00017604737 -0.00024101659 -1.8422556e-05 6.8287256e-05 8.212893e-05 -0.00012717428
1.4822957e-06 -0.00017501731 -3.5952344e-05 0.00025572744 -8.449632e-05 -0.000103375234 -0.00012277724 -9.656487e-05
0.0002750066 -0.00022048387 -0.0001464365 0.00011982414 7.932528e-05 0.0002014577 -0.00010571756 -0.00030607686
0.00045029106 -0.00054862926 0.00025627218 0.00026183773 -0.0004272605 0.0005245488 0.00020657829 -6.833565e-05
-0.00019656347 0.00019226466 -0.000412913 4.117869e-05 -0.00019367492 -5.1052266e-05 -0.0002801052 0.00016813903
-1.0568359e-05 -2.7696182e-05 6.161693e-05 0.00042134128 8.528123e-06 5.1768508e-05 3.1030024e-06 0.00079607684
-2.6656584e-05 0.0005706818 0.00040733643 -7.993331e-05 0.00013522804 0.0004240893 0.00053263333 -0.00015196855
2.2370088e-05 0.00015187805 0.000113928516 0.00029749342 -0.00055956614 -0.00046248198 0.0002265588 0.00034571477
0.00022018641 -0.00039680852 0.00024403002 -0.00096603774 -0.00010923102 0.0002719604 0.0001030942 -0.0007231189
9.230167e-06 -0.00032090204 -0.00017745953 0.00015895364 -0.00047004208 -0.00035042502 0.0001504779 -0.00012244511
0.00049112295 -0.00062617386 0.00011731562 0.0002671564 -0.00040581953 0.00083149003 -0.00038852383 -0.0007838263
5.203532e-05 -5.167818e-05 2.1296515e-05 3.8913924e-05 -4.007376e-05 2.9306111e-05 1.4697733e-05 -2.4491833e-06
-1.6829235e-05 1.9361289e-05 -4.3507614e-05 1.1346264e-06 5.2135572e-05 9.631324e-06 -2.6561192e-05 6.823541e-05
-9.498746e-08 -8.2012974e-07 4.6986832e-05 5.1611838e-05 2.49525e-07 7.0319616e-06 6.51683e-08 5.37384e-05
-8.3067897e-07 7.299165e-05 1.9548825e-05 7.521021e-06 4.6428413e-05 1.6469996e-05 3.5151752e-05 -3.2963573e-05
6.0126837e-07 -2.3825654e-05 -2.3650602e-05 1.7353796e-05 -7.39915e-05 3.507071e-05 -1.486471e-05 1.7030088e-05
1.7633216e-05 -2.8694221e-05 3.594915e-05 -3.79416e-05 -3.5054668e-06 3.1628417e-05 1.4980297e-05 -2.7278047e-05
-2.2961909e-07 -2.9744515e-05 -6.4547826e-06 5.0509512e-05 -1.5890968e-05 -2.9420142e-05 -2.3235494e-05 -3.130735e-05
8.25477e-05 -3.7893187e-05 -2.3652823e-05 1.802794e-05 4.11371e-05 4.842203e-05 -5.6645156e-05 -6.9990434e-05
0.00040874307 -0.0003275615 0.00024892783 -6.636039e-05 -0.00038994072 0.0004974609 0.00019038754 -8.5960986e-05
-8.822109e-05 8.3475876e-05 -0.00026856124 4.9733797e-05 -0.00035065663 -0.00015325085 -0.00016498758 -0.00038733822
-1.4447621e-05 -3.4699202e-05 -0.00017349061 0.0004223385 1.0642584e-05 9.588208e-06 3.4541144e-06 0.0006819735
-3.4893852e-05 0.00037267053 0.00037525204 -8.031781e-05 9.269621e-05 0.0004133732 0.00045515748 0.00011449717
2.2470958e-05 0.00034840344 0.00038179013 0.0002768223 -0.00010250908 -0.00091352576 0.00046473456 0.0002594774
5.337974e-05 -0.0002545056 0.000110712805 -0.0011139604 -0.00012644085 0.00026408056 -7.2168095e-06 -0.00069113355
1.223375e-05 -0.00013822078 -0.00020801318 -0.00031069524 -0.0004160925 -0.00027036757 0.00045857823 0.00010916867
-0.00018079951 -0.0005175993 0.00048493943 0.00021229425 -0.00084844476 0.0008013032 -0.00026828412 -0.0005432373
00000000: d6e4 fa38 f020 8db9 076d 4e38 0182 5c39
00000010: 9ca0 f1b8 37af 1f39 c17d a338 ca4d 63b7
00000020: f6ac 50b8 b364 bd38 efa3 71b9 2267 f436
00000030: 4cb1 0038 7926 2a38 7b78 2eb9 5448 5c39
00000040: 809e e0b5 0e7c 9fb6 8d2a 1d39 cba6 de38
00000050: d7c2 c135 3f50 0d38 a8c9 be34 704d ab39
00000060: d000 91b6 f226 8c39 8f93 d838 3922 62b7
00000070: e80f b938 05ea e138 37fa 2939 48f8 3fb9
00000080: 99d5 1e37 4ecd 8cb8 6948 62b8 41d0 db38
00000090: 0fe5 97b9 0c50 2038 5c75 8eb8 7b71 ca38
000000a0: af25 1f39 c6a4 15b9 5b99 3839 66b9 7cb9
000000b0: 238a 9ab7 7135 8f38 a23c ac38 165a 05b9
000000c0: 4bf3 c635 da84 37b9 89cb 16b8 2813 8639
000000d0: 9e33 b1b8 28cb d8b8 c4bd 00b9 df82 cab8
000000e0: c32e 9039 b031 67b9 c08c 19b9 184a fb38
000000f0: 6f5b a638 643e 5339 afb4 ddb8 f178 a0b9
00000100: 0b15 ec39 e3d1 0fba 455c 8639 4447 8939
00000110: ef01 e0b9 e081 093a f09c 5839 6c4f 8fb8
00000120: 9b1c 4eb9 a79a 4939 3f7c d8b9 48b7 2c38
00000130: 3715 4bb9 f420 56b8 15db 92b9 7a4e 3039
00000140: c24e 31b7 1955 e8b7 5638 8138 78e7 dc39
00000150: 0214 0f37 0322 5938 2d3d 5036 d0af 503a
00000160: 949c dfb7 cf99 153a c58f d539 dea1 a7b8
00000170: 00cc 0d39 4d58 de39 6ba0 0b3a bf59 1fb9
00000180: 66a7 bb37 7441 1f39 e8ec ee38 e4f8 9b39
00000190: d9af 12ba 4879 f2b9 6a90 6d39 0d41 b539
000001a0: d7e1 6639 bd0a d0b9 4fe2 7f39 b23d 7dba
000001b0: f512 e5b8 e895 8e39 4734 d838 b08f 3dba
000001c0: 44db 1a37 be3e a8b9 6e14 3ab9 cbac 2639
000001d0: fb6f f6b9 40b9 b7b9 9bc9 1d39 9c64 00b9
000001e0: b4be 003a d125 24ba 5807 f638 2011 8c39
000001f0: 2dc4 d4b9 5af8 593a c9b2 cbb9 b179 4dba
00000200: 8040 5a38 06c1 58b8 eba5 b237 8237 2338
00000210: df14 28b8 65d6 f537 4896 7637 a65c 24b6
00000220: 822c 8db7 0d6a a237 f27b 36b8 7749 9835
00000230: 25ac 5a38 3996 2137 bacf deb7 9b19 8f38
00000240: e9fb cbb3 e326 5cb5 ba13 4538 ca79 5838
00000250: 74f6 8534 17f4 eb36 a7f2 8b33 2b65 6138
00000260: d3fb 5eb5 1813 9938 c8fc a337 145d fc36
00000270: 21bc 4238 0c29 8a37 e86f 1338 5e42 0ab8
00000280: d966 2135 34dd c7b7 4865 c6b7 fe92 9137
00000290: e22b 9bb8 e318 1338 7163 79b7 d6db 8e37
000002a0: 0beb 9337 5fb4 f0b7 1bc8 1638 7c23 1fb8
000002b0: 763f 6bb6 c1a8 0438 e353 7b37 29d3 e4b7
000002c0: 378d 76b4 dc83 f9b7 2996 d8b6 2dda 5338
000002d0: 984d 85b7 46cb f6b7 d8e9 c2b7 0350 03b8
000002e0: 751d ad38 80ef 1eb8 0d6a c6b7 b53a 9737
000002f0: a08a 2c38 c218 4b38 4696 6db8 d4c7 92b8
00000300: 914c d639 8fbc abb9 8782 8239 f72a 8bb8
00000310: f570 ccb9 0968 023a c4a2 4739 f445 b4b8
00000320: 5603 b9b8 c50f af38 aecd 8cb9 4299 5038
00000330: 56d8 b7b9 f6b1 20b9 8400 2db9 a813 cbb9
00000340: 0f64 72b7 fc89 11b8 08eb 35b9 506d dd39
00000350: 8d8d 3237 0add 2037 3ccd 6736 78c6 323a
00000360: fd5a 12b8 fe62 c339 7abd c439 4c70 a8b8
00000370: e665 c238 03ba d839 34a2 ee39 331e f038
00000380: 0480 bc37 eba9 b639 012b c839 7622 9139
00000390: 25fa d6b8 ad79 6fba 9ea7 f339 780a 8839
000003a0: 0fe4 5f38 2a6f 85b9 7c2e e838 4f02 92ba
000003b0: 3595 04b9 4b74 8a39 ec27 f2b6 302d 35ba
000003c0: 8e3f 4d37 5cef 10b9 1d1e 5ab9 cfe4 a2b9
000003d0: fd26 dab9 1fc0 8db9 546d f039 7cf1 e438
000003e0: 0095 3db9 80af 07ba 783f fe39 4e9b 5e39
000003f0: 2a6a 5eba 8c0e 523a 7ca8 8cb9 0a68 0eba

LSTM.bias_ih_l0 f4 [256]
0.0020963408 0.010819459 0.00032675278 0.014923504 0.0022915774 0.0057834224 0.001088582 6.039359e-06
0.0014873936 0.0036459754 0.011511051 1.3294691e-06 0.0029607422 0.0019624513 0.0076504145 0.0047446107
-1.4344215e-09 1.5383044e-07 0.0065904884 0.0012030804 -2.3569287e-08 0.0004087384 -7.524673e-09 0.0120284995
5.210719e-07 0.01209807 0.0024427073 1.0913828e-05 0.002195197 0.0016565959 0.0050269575 0.010062198
1.4268577e-06 0.0074477773 0.0067712776 0.0022359747 0.020268898 0.020448815 0.005183597 0.0037980494
0.005592259 0.0052072005 0.009881178 0.004437353 1.4859277e-05 0.00077538844 0.0022018543 0.0022077726
4.7370026e-08 0.0065658335 0.00014661065 0.019364754 0.0012829172 0.001955638 0.008169241 0.007561843
0.025327776 0.007014791 0.00844924 0.0028296711 0.0105287405 0.0038652492 0.0031958425 0.015560717
0.001994602 0.012330507 0.00030386265 0.014716368 0.0021820567 0.0056896736 0.0010286535 5.8990263e-06
0.0014125297 0.0035160806 0.011422865 8.458508e-07 0.0027372334 0.001853003 0.008125593 0.015436126
4.7909348e-09 5.0141966e-07 0.0066762753 0.0011261932 -1.2248944e-08 0.00038161213 -3.4980343e-09 0.012303959
4.0138482e-07 0.012895947 0.0023251034 9.605409e-06 0.0020811833 0.0015693906 0.004935894 0.0119859
1.2147235e-06 0.010589295 0.0086279595 0.0021289745 0.02977458 0.014527607 0.009891168 0.0036799859
0.005555193 0.0051517542 0.010647621 0.0044182804 1.6385407e-05 0.0007304385 0.0020980132 0.002113656
4.8426024e-08 0.0066184876 0.0001390582 0.024139483 0.0012105999 0.0018612229 0.008893121 0.0077219927
0.03043439 0.0070912736 0.011290577 0.0027075335 0.0125031825 0.0037785545 0.003090166 0.01947412
-0.014991607 0.013985524 0.0006678481 0.035999283 -0.021959476 0.0068334644 0.010376214 -0.00087569014
0.014187522 -0.016904442 0.0023120076 4.632999e-05 0.019879723 -0.008320072 -0.058299363 -0.0062016
-0.00020327595 0.00040226648 0.009722563 0.017107882 6.733989e-05 -0.0005228198 1.239626e-05 -0.054964453
-0.00021771793 0.026059397 0.040374413 -0.0024092926 0.017392857 0.021129576 -0.010593435 0.01696489
-0.00039058886 0.04777388 -0.026025409 0.0103285415 -0.08112712 0.027889967 0.0024332863 -0.038307615
0.036280025 0.013096096 0.0488726 -0.05215394 -0.00086513505 -0.005101805 -0.011926601 -0.0043117586
0.00011743421 0.03479089 -0.001954623 0.033176843 -0.011270567 -0.025789076 0.02495878 0.037562173
0.004496314 -0.0044000377 0.044499207 -0.014783628 0.010604033 0.03617178 0.021099195 -0.08537543
0.0021559463 0.012609335 0.00033098785 0.014534975 0.002359626 0.0062606446 0.0011075609 6.6601538e-06
0.0015135416 0.0038153585 0.012673033 8.100359e-07 0.0032319743 0.002047234 0.008203441 0.042024933
6.6456276e-09 2.222589e-07 0.006882217 0.0012318367 -1.18910854e-08 0.00041383327 -4.59116e-09 0.013727805
5.0474074e-07 0.013548877 0.0025210823 1.0401779e-05 0.0022789561 0.0016958419 0.005371099 0.012295526
1.3424739e-06 0.0062538376 0.005267739 0.0023054485 0.04586732 0.024647573 0.0063692247 0.0039990544
0.0058984444 0.0055216346 0.007680288 0.0053886143 1.4019907e-05 0.0007821 0.002269487 0.0022256905
5.2548216e-08 0.0069977893 0.00014434227 0.020395871 0.0013025033 0.002014578 0.009183353 0.008703875
0.027909191 0.0075350907 0.013176722 0.0029395972 0.020173507 0.004107871 0.0032885876 0.018701434
00000000: c362 093b 1a44 313c 0450 ab39 b681 743c
00000010: 4a2e 163b dd82 bd3b c0ae 8e3a b3a5 ca36
00000020: a6f4 c23a 51f1 6e3b d998 3c3c 3670 b235
00000030: 0309 423b 789c 003b 54b0 fa3b ae78 9b3b
00000040: 3825 c5b0 972c 2534 06f5 d73b aeb0 9d3a
00000050: 6975 cab2 f04b d639 dd45 01b2 2f13 453c
00000060: cadf 0b35 fc36 463c d415 203b 891a 3737
00000070: 4bdd 0f3b 2222 d93a 2db9 a43b ebdb 243c
00000080: 7582 bf35 7c0c f43b 98e1 dd3b 6e89 123b
00000090: f60a a63c 4684 a73c 2adb a93b b2e8 783b
000000a0: 453f b73b 2aa1 aa3b aae4 213c 3767 913b
000000b0: 1c4c 7937 7043 4b3a fc4c 103b 47b0 103b
000000c0: e573 4b33 3426 d73b 7fbb 1939 d5a2 9e3c
000000d0: 8f27 a83a 292a 003b 48d8 053c 56c9 f73b
000000e0: 327c cf3c 55dc e53b ae6e 0a3c 0172 393b
000000f0: bd80 2c3c 1f50 7d3b 5771 513b 61f2 7e3c
00000100: deb7 023b e505 4a3c c14f 9f39 ec1c 713c
00000110: d600 0f3b 7170 ba3b e2d3 863a 40f0 c536
00000120: a224 b93a 0b6e 663b f826 3b3c 6d0e 6335
00000130: 2863 333b 77e0 f23a 3521 053c cee7 7c3c
00000140: 829d a431 4c99 0635 a8c4 da3b c69c 933a
00000150: 6d6f 52b2 1d13 c839 1262 70b1 8b96 493c
00000160: e97d d734 8649 533c c360 183b eb26 2137
00000170: 7664 083b 03b4 cd3a 48bd a13b 8260 443c
00000180: 9509 a335 b97e 2d3c 495c 0d3c 4486 0b3b
00000190: d2e9 f33c 3305 6e3c 910e 223c eb2b 713b
000001a0: 5608 b63b 0cd0 a83b 5c73 2e3c 39c7 903b
000001b0: 6573 8937 e67a 3f3a d27e 093b 4385 0a3b
000001c0: fafc 4f33 e6df d83b 27d0 1139 2ac0 c53c
000001d0: feac 9e3a 47f4 f33a 74b4 113c c508 fd3b
000001e0: 8b51 f93c ea5d e83b 1dfc 383c e070 313b
000001f0: 26da 4c3c a0a1 773b 6284 4a3b 3188 9f3c
00000200: 5b9f 75bc 8a23 653c 8712 2f3a fc73 133d
00000210: 5ce4 b3bc 41eb df3b ff00 2a3c 928e 65ba
00000220: c872 683c 2f7b 8abc 0d85 173b 7352 4238
00000230: cdda a23c e950 08bc 50cb 6ebd cb36 cbbb
00000240: 7926 55b9 4be7 d239 634b 1f3c d425 8c3c
00000250: d438 8d38 d80d 09ba 88f9 4f37 6822 61bd
00000260: 364b 64b9 847a d53c a45f 253d 39e5 1dbb
00000270: 777b 8e3c ef17 ad3c 1690 2dbc f4f9 8a3c
00000280: f3c7 ccb9 8bae 433d 3d33 d5bc 0b39 293c
00000290: fa25 a6bd 8079 e43c c577 1f3b 72e8 1cbd
000002a0: 5d9a 143d 0291 563c a32e 483d 5f9f 55bd
000002b0: 3bca 62ba 0b2d a7bb ca67 43bc a749 8dbb
000002c0: 0347 f638 e480 0e3d 2219 00bb 71e4 073d
000002d0: 2fa8 38bc 9d43 d3bc 5b76 cc3c cbda 193d
000002e0: d155 933b 312e 90bb cd44 363d 0837 72bc
000002f0: 8abc 2d3c dc28 143d 38d8 ac3c 50d9 aebd
00000300: c74a 0d3b 6297 4e3c 7088 ad39 1b24 6e3c
00000310: f5a3 1a3b 1826 cd3b 942b 913a 497a df36
00000320: 0762 c63a 180b 7a3b 8ea2 4f3c 3e71 5935
00000330: 88cf 533b e32a 063b ba67 063c 5622 2c3d
00000340: 8f57 e431 10a6 6e34 3884 e13b 9575 a13a
00000350: 8c49 4cb2 c3f7 d839 45c0 9db1 96ea 603c
00000360: 857d 0735 1cfc 5d3c be38 253b 4d83 2e37
00000370: 8a5a 153b 0347 de3a 0b00 b03b 2d73 493c
00000380: 0d2f b435 feec cc3b ff9c ac3b 0217 173b
00000390: 5fdf 3b3d b5e9 c93c eeb4 d03b 800a 833b
000003a0: bd47 c13b d4ee b43b edaa fb3b f992 b03b
000003b0: 0b37 6b37 d805 4d3a acbb 143b e4dc 113b
000003c0: 60b1 6133 b64d e53b 955a 1739 3e15 a73c
000003d0: c2b8 aa3a 0307 043b c675 163c b39a 0e3c
000003e0: d1a1 e43c ece8 f63b 2ee3 573c 42a6 403b
000003f0: e942 a53c 529b 863b 5885 573b c033 993c
