Code/CNN/CNNOutputs/best_model.pth (torch, 22818 bytes, 15 tensors)

feature.0.weight f4 [16, 5, 3]
00000000: 7d29 ecbc d2b4 3fbe c471 75be f0d4 7c3e
00000010: 73cb da3d ecc3 163e f619 273e 7d8c bf3d
00000020: 175f 1abe 20bf dcbc 25fb 5bbe c774 3bbe
00000030: 405b 453e e5da e23d 24d6 c93d 62a6 493e
00000040: ce7e 2ebe 43a9 41be b73a 2b3e fb0a 5fbe
00000050: d12d bb3b 2554 683e 2b4f 433d 0d3d a9bc
00000060: 3a93 26bd 2b78 3fbe 224c 12be 7451 22bc
00000070: 1e04 88bc 0837 75be 9608 5bbc ccc3 2c3e
00000080: bcb3 69be f541 3f3e 9c7d 78be 1002 423e
00000090: 0cd0 7a3e 4aaa 353d 08fe 05be ce69 b93c
000000a0: b855 cdbd 8d86 0dbe 7a93 44be 4174 ab3d
000000b0: 6e06 0a3e bbe3 6abd 7f34 3e3d 4459 573e
000000c0: d76b 2b3e b8d4 07be a333 6c3e 7aba 16be
000000d0: 99ea 8c3d 0601 e63d 67c9 e5bd 01b0 28bd
000000e0: 5a6a 223e ef16 7dbd f802 423e 5931 9a3d
000000f0: 40c8 433e 93ad c13d f28d 22bd de2c 6b3d
00000100: ddfb 4a3e 7dca 653e 57f8 3c3e 5408 213e
00000110: 97b5 05be beda 303e 378e 5d3e c2f7 debd
00000120: 412f 2ebe 53e1 253e 657c 53bd 868f 153e
00000130: 82fb 203e aa74 303e d27e 293e cdfd 7dba
00000140: 4ce3 053e fe84 1fbe 973f 113c a4d7 ec3d
00000150: ac18 6f3d a97e 5cbe eee0 4d3e 5086 82be
00000160: d4a7 2fbe eefa 543e 48d5 203e 87bb b2bd
00000170: 6084 58be 6210 3f3d 01dd 47bd f319 3b3e
00000180: 576e 133e 1e12 173e 4170 6c3d 3abc 5b3e
00000190: cc03 263e 3f41 843e c91a 00be 2238 423d
000001a0: 116b 243e 5323 19be 366f 843d decb 253e
000001b0: 9e0c 313e fd54 b8bd d028 3a3e c926 71bd
000001c0: cbcc 80be 5f56 7b3d 3f85 753e 8564 52be
000001d0: eaa4 07be 96fd 7fbe 9ca0 173d 4ba3 06be
000001e0: 43e3 bb3b 4ccc 80be 8f81 54bd e0ca 51be
000001f0: 1cc9 a83d b7aa 22be d704 483d 58d6 be3d
00000200: 15b2 5b3e 5288 713e ef0f 213e 116e 9b3d
00000210: fdd2 7dbe 3e9d c83d 9809 59be 2fc8 4e3e
00000220: 3ceb 213e cfc8 69be a3a4 78be 737b b7bd
00000230: c581 e3bd 1cbf 93bd abd0 003e 2115 fbbc
00000240: 2f27 f23c f873 783e 8904 543e 98d5 d43d
00000250: e0bb 05be f98a 673e 6f25 ffbd 2f21 dd3d
00000260: 4364 0e3e d507 31be e35e c2bd e15c 63be
00000270: 4d87 923d a2c3 193e 20a9 2dbc 0e40 93bd
00000280: c701 eebd 6f8a cf3d 6d5e 0a3d 99df c4bd
00000290: e89e 043d ab21 d73d d2a4 543e 4ed4 0abe
000002a0: e0f7 1b3e 3cd2 e6bd bca6 563e aca6 0a3d
000002b0: a0f3 fc3d aeb1 f43d f22e 0b3e 5a6b c33d
000002c0: 8f97 623e 80e7 4f3e 6e6a 6c3d 5f70 4fbe
000002d0: d71a 20be 8899 b7bd 3744 18be d235 983d
000002e0: 3ab7 2ebe 6508 023d 9ee7 40be c284 50bd
000002f0: 279f 2abd ca94 40be 83e2 663e 3f17 83be
00000300: 9cb6 f53d c6bc 673d e578 763e 41f8 433e
00000310: bfbd ae3c ac98 a03d 03f0 9f3d 08db f43c
00000320: 0fdb 0b3e 0352 58be a036 1f3e e1eb 18be
00000330: 171e 5a3d 7caf 6cbe 3df3 53be a997 063e
00000340: 16bc 173e cb64 57be 7aeb 373e 34b1 043e
00000350: c1c6 cdbd a9dd 1ebe 63ed 61be 49e0 c8bc
00000360: e232 813e 8483 413e 156c febd 428d 313e
00000370: 9cd2 8e3d f1d8 1f3e 1bb1 303c dcf5 42b9
00000380: 8ab9 a63d 7089 7a3e fce6 8d3c 99f3 403e
00000390: 56e6 32be 0bee 27be d306 3c3e a985 4bbe
000003a0: 1206 00be 01bd 0ebe c695 e43c e4c6 ffbd
000003b0: e3b6 80be ceb0 6abe dfc7 6dbd 7df9 813e
-0.028828377 -0.18721321 -0.2396918 0.24690604 0.10683336 0.14723176 0.16318497 0.09352968
-0.15075336 -0.026946604 -0.21482523 -0.18306266 0.1927309 0.11076907 0.09855297 0.19692376
-0.1704056 -0.18912224 0.16721617 -0.21781532 0.005712249 0.22688349 0.047682922 -0.020658994
-0.04066775 -0.18698184 -0.14286855 -0.009907115 -0.016603526 -0.23946774 -0.013368746 0.16871566
-0.2282247 0.18677504 -0.24266666 0.189461 0.24493426 0.044351853 -0.13085186 0.02263346
-0.10026115 -0.13820858 -0.19196883 0.08371783 0.13479015 -0.057346087 0.046436783 0.21030146
0.16740356 -0.1326474 0.23066573 -0.14719573 0.068806835 0.11230664 -0.11220055 -0.041183475
0.15860882 -0.06178945 0.18946445 0.075289436 0.19119358 0.09456935 -0.03968615 0.057415836
0.1982264 0.22440524 0.18454109 0.15725833 -0.13057552 0.17270944 0.21636282 -0.108871
-0.17010213 0.16199236 -0.051632304 0.14605531 0.15720943 0.17232004 0.16552284 -0.00096890033
0.13074988 -0.15578076 0.008865259 0.11564568 0.05837314 -0.21532692 0.20105335 -0.25493097
-0.17153865 0.20798847 0.1570636 -0.08727174 -0.21144247 0.046646483 -0.04879475 0.18271618
0.1439756 0.14753005 0.05772424 0.21458521 0.16212386 0.2583103 -0.12510218 0.047416814
0.16056468 -0.14954881 0.06466524 0.1619105 0.1728997 -0.09000585 0.18179631 -0.05887488
-0.25156245 0.061361667 0.2397661 -0.20546158 -0.13246503 -0.24999079 0.037018403 -0.13148229
0.005733879 -0.25155866 -0.05188137 -0.20487547 0.082414836 -0.15885435 0.04883274 0.093182266
0.21454652 0.23587158 0.15728734 0.07589353 -0.24787517 0.097956166 -0.21195066 0.20193551
0.15812391 -0.22830509 -0.24281554 -0.08959093 -0.11108736 -0.072141856 0.125796 -0.030649723
0.0295597 0.24262989 0.20704855 0.10392302 -0.1305995 0.22611608 -0.12458312 0.10797345
0.13905434 -0.17288144 -0.094907545 -0.22203399 0.07154713 0.15016034 -0.010599405 -0.07189952
-0.11621433 0.10133826 0.033781458 -0.0961296 0.032378107 0.105044685 0.20765999 -0.1355755
0.15231276 -0.11270568 0.20962042 0.033850357 0.12351155 0.11947952 0.13592127 0.0954196
0.22128128 0.20303154 0.057718687 -0.2025771 -0.15635239 -0.08964831 -0.14869772 0.074321404
-0.17062083 0.031746287 -0.18838355 -0.050907858 -0.041655686 -0.18806759 0.22547345 -0.25603673
0.119977206 0.056576513 0.24069555 0.1913767 0.021330712 0.0784162 0.078094505 0.029889598
0.13657783 -0.21125035 0.15548182 -0.1493373 0.053251352 -0.23113817 -0.20698257 0.13143791
0.14817843 -0.21034543 0.17960921 0.12958223 -0.10047675 -0.15514244 -0.22063212 -0.02452101
0.25234133 0.18897825 -0.12422959 0.17339042 0.06973764 0.156101 0.010784413 -0.00018592871
0.081408575 0.24466491 0.017322056 0.18842925 -0.17470679 -0.163994 0.18361978 -0.19875206
-0.12502316 -0.13939287 0.027903449 -0.12489107 -0.25139531 -0.22919008 -0.05805194 0.25385657

feature.0.bias f4 [16]
00000000: 3906 263e ddbb 7ebd 1247 a5bd e3dd dcbd
00000010: efba ac3b 7d66 9d3d e82e 363e 6c24 7ebd
00000020: 4b52 30be 453d 0ebe 0bdb 533e c2c4 94bd
00000030: d77c a03c 1cf9 d03d 7b01 883d 5402 d73d
0.16213311 -0.06219088 -0.08070196 -0.10784509 0.0052713077 0.07685564 0.17791331 -0.062046453
-0.17218892 -0.1389056 0.20689027 -0.07264091 0.019590778 0.10203764 0.066409074 0.10498491

feature.2.weight f4 [16]
00000000: c26d 7d3f eb4e 7e3f e9cb 7e3f 303b 7e3f
00000010: 0960 7f3f fdf3 7d3f 76a7 803f 0714 7c3f
00000020: 624f 7c3f a11c 7f3f 0005 7e3f 3e49 7e3f
00000030: 40f0 7b3f 3916 7e3f 5c8f 7f3f 9f2c 7f3f
0.989956 0.9933917 0.9952989 0.9930906 0.99755913 0.9920042 1.0051105 0.9846806
0.9855863 0.9965306 0.9922638 0.9933051 0.9841347 0.9925266 0.99828124 0.9967746

feature.2.bias f4 [16]
00000000: 33b5 81bb ec45 143c d443 033a ecb5 a0bb
00000010: 599b 983b d533 fc39 b90c d43b 6a37 4abb
00000020: 72d5 95bb 4777 463a 10d5 2abb 3574 22bb
00000030: bc83 b5bb 800a 92bb d1e8 993b 29aa 1bbb
-0.003958368 0.009049874 0.00050073606 -0.0049044993 0.0046571908 0.00048103803 0.006471243 -0.0030855783
-0.004572564 0.00075708743 -0.0026066937 -0.0024788503 -0.0055393856 -0.004456818 0.0046969433 -0.0023752546

feature.2.running_mean f4 [16]
00000000: 7cc8 4e3e 49fc 71be 6343 8abd d186 9a3d
00000010: 302c b43e de96 583e 5eff 023f f8cb 31be
00000020: 1be3 49be e3d9 a8bc f690 e83d 4d5d a13e
00000030: fde8 17be ad59 053e dda1 7e3e ba5e 88bd
0.20193666 -0.23631395 -0.06751134 0.075452454 0.35189962 0.21151301 0.5117091 -0.17362964
-0.1971554 -0.020611709 0.11355774 0.31516495 -0.14834972 0.1302249 0.24866433 -0.06658693

feature.2.running_var f4 [16]
00000000: 19e7 e23d 0adf 693e ac21 e13c ccc0 0a3e
00000010: a919 aa3e bccc 393e 53e8 d03e 7a2a a63d
00000020: c046 6e3d ba3d 0e3d b623 ff3c 79ac 7c3e
00000030: f7af 8c3d b9d2 783d 7419 f73d d52c b93d
0.11079235 0.22838989 0.027481876 0.13550109 0.33222702 0.18144506 0.4080225 0.081135705
0.05817294 0.034726836 0.031144958 0.24675168 0.068695 0.060747836 0.12065402 0.09041754

feature.6.weight f4 [32, 16, 3]
00000000: 68f4 af3c 8e60 233d 175d e63c 361c 11be
00000010: b300 febd be8e 03be 96fe c53d 85e0 3d3d
00000020: 16a7 4f3c 6023 dbbc 3442 d83d 3027 07be
00000030: 373e f13d f15f d0bd 8b8b 4b3d e9b4 d83d
00000040: aa35 98bd 7e2d c1bd 2eec 8f3d 197c 1fbc
00000050: 7854 ae3d 7e58 013e e5e2 71bd 176f 133c
00000060: ed19 1ebe 86de 83bd d885 ff3c 1c1e d8bd
00000070: 1b2f 51bb 8c0c f63c a8b9 cebd 4687 89bd
00000080: 72df 9b3d c7a4 99bd 19d5 b8bc 3ca2 043e
00000090: 5ddb 633d 1ad7 bd3c d146 95bd 336c d6bd
000000a0: 047a 68bd 1311 ac3c b75c ee3d 5eb1 373d
000000b0: 213d f33c ad37 e93c 5eae 833d c316 323d
000000c0: 59ac 83bc d7e4 0abe 9a5f 703b 69eb a1bd
000000d0: c1a3 0b3e 38cd 83bd 74ab e5bc 3176 413d
000000e0: 1fbb 093e 07de c13c e79b 153a 2c1c 16bd
000000f0: 4c26 d9bd 16c8 c1bd 2d15 1ebc 2ade 14bd
00000100: 0499 c53d a296 6e3c a046 97bd 9aa8 0abd
00000110: 877a aabd e1d4 323c c6d0 ea3d e381 a1bd
00000120: 6d95 1fbd a251 143d f510 b73d 1b93 513d
00000130: cdaa 89bd 8cb1 0ebe 9324 ee3d 19f8 e1bd
00000140: 4e97 6fbd 8350 69bc a2fe c03b 89e8 fa3c
00000150: 08c7 86bc e851 cabd 4a72 1ebd 0cdd dabd
00000160: 98ae 9dbd 6dc9 abbd db35 9dbd 7d6a 7bbc
00000170: 71d6 f03d 88ad d0bd 35d3 fdbd 4af0 2cbc
00000180: c145 f6bc 260e bdbd 2326 143d 8bed b73d
00000190: b2ce d6bd b3d1 a7bd e92c a13d 9d7a 5f3c
000001a0: 19f0 84bd d4c8 a5bd 143c a73d 9632 d73d
000001b0: fa3c 1c3d a427 053b 9cbc fbbd 61c1 fd3d
000001c0: 3943 ec3d e741 48bd 8187 8abd fd5d 853d
000001d0: 7d81 76bb 1fed b03d 4f0d 08bd db36 a53d
000001e0: c8e0 c7bc 3759 3f3d 1326 df3d cf87 97bd
000001f0: 9326 d3bc 1cbc fdbc e98f 9f3d 8c14 ff3d
00000200: 731a e9bc aa4d a53d 719f fcbc 352e 1c3d
00000210: 2ede 4b3d 494e a1bd 44b0 b2bd 9e4f dd3d
00000220: c845 32bd 836e 0abe 33bb 003e d2a3 033e
00000230: c638 a63d a84c febd ff36 5bbd 50e1 05be
00000240: c3d2 d13c 4841 37bd eff3 eabd a95e 993d
00000250: 2974 8e3d 09a2 903d 2195 69bc 8cb4 cfbd
00000260: b4d4 703d 8db5 f7bb 4ba0 fd3d 64f1 92bd
00000270: 6f31 e83d 6e7c c8bd 5f1e 963d 1287 903d
00000280: e3ba 053e 89c2 d93d b033 49bb 6cb6 d1bd
00000290: 171f 05be 5e59 953d b704 bebd 3e91 8f3c
000002a0: 4ba5 0c3d 37ab de3d 5727 043e c644 67bd
000002b0: 8824 aa3d d6b3 983d fe0e 07bc 2e68 f13d
000002c0: 4ec9 95bd 0bbb 883d 561b 12bd 84b9 043d
000002d0: a7f0 d93b 7629 c43d d0e7 88bd a52c da3c
000002e0: 3f28 a8bc ff61 083e e5e9 93bd 5efc 163d
000002f0: 3f2e fb3d a163 bfbd df28 0f3e 5ff7 403d
00000300: 78c6 a5bd e329 023e afd8 32bd 6e37 67bd
00000310: 0232 623d 230e f83d 0f3d a1bd fddd 7d3d
00000320: ed1a 96bd 3cb6 2fbc 6399 d9bd 77bf f73c
00000330: 349c d13b ae21 0a3e 5067 a23d 4fe7 bebd
00000340: 1b07 a63d ee31 8a3b f8c6 d23d cd07 cebd
00000350: 4b32 d4bd 6f0d abbd b969 da3d ef9e 8d3c
00000360: 467a 1c3d c26d 003e 1029 ba3d 707c bc3d
00000370: b396 933d 001a e2bd f439 b2bc 4161 e83c
00000380: d710 c1bb 06d9 b6bd 4151 a03d 1574 253d
00000390: 2f6e 043e 32c0 da3d cf14 ffbd ed72 653b
000003a0: 4784 123e 237a 44bc 9555 243b e2aa 963d
000003b0: 8a46 f4bc 7086 1c3d d01d abbd 0054 9c3d
000003c0: 2ea2 90bd 1449 a2bb 1b0a 0c3e cf49 073e
000003d0: bb40 dc3d b15c 193c 4dea cebd 58de 07be
000003e0: 2b0b 5e3c 49bf a83d 6cb5 8a3d 7c54 4abd
000003f0: 9724 053e f4b9 553d 0595 063e bcac 72bc
0.021478847 0.039887004 0.02812056 -0.14170918 -0.12402477 -0.1284742 0.09667699 0.046356697
0.012674114 -0.026750267 0.10559502 -0.13198543 0.11779445 -0.10174549 0.049693625 0.10581381
-0.074321106 -0.09432505 0.070274696 -0.009734177 0.08512205 0.12631413 -0.059054274 0.008998654
-0.15439577 -0.06438927 0.031191751 -0.10552618 -0.0031918946 0.03003528 -0.10094005 -0.067152545
0.07610978 -0.07502132 -0.02256255 0.12952513 0.055629123 0.023173857 -0.07288898 -0.10469856
-0.05675699 0.021004235 0.11638778 0.044846885 0.029692234 0.028468931 0.06429742 0.04347874
-0.016073393 -0.13563858 0.0036678077 -0.07906229 0.13636686 -0.06435627 -0.028035857 0.047231857
0.13450287 0.023665441 0.000570713 -0.03664796 -0.10603008 -0.094619915 -0.009648603 -0.036344685
0.09648326 0.014562281 -0.073865175 -0.033852197 -0.083241515 0.010915012 0.114656016 -0.07886102
-0.038960863 0.036210664 0.08938781 0.05116568 -0.06722031 -0.13934916 0.1162807 -0.11033649
-0.058493905 -0.014240387 0.0058897296 0.03062846 -0.016452327 -0.098789036 -0.038683213 -0.106866926
-0.07699317 -0.08388028 -0.07676288 -0.015345213 0.117596515 -0.101893485 -0.123938 -0.010555336
-0.030062558 -0.09231214 0.036169183 0.089808546 -0.10488643 -0.08194294 0.07869894 0.013640073
-0.064911075 -0.080949455 0.08165756 0.105076954 0.03814409 0.0020317817 -0.12291834 0.123904
0.11536259 -0.048890974 -0.067641266 0.065120675 -0.0037613802 0.08638977 -0.033215817 0.080671035
-0.024399176 0.04671594 0.10895934 -0.0739895 -0.02577523 -0.030973487 0.077911206 0.12455091
-0.028454995 0.08071454 -0.030837746 0.038130004 0.049772434 -0.0787626 -0.08725026 0.108062014
-0.04352358 -0.1351872 0.12571411 0.12855461 0.081162974 -0.12416965 -0.053519245 -0.13074231
0.025613194 -0.04473999 -0.11472308 0.07488758 0.069557495 0.07062156 -0.0142567465 -0.101418585
0.0587966 -0.0075594843 0.12384089 -0.07174948 0.11337554 -0.09789358 0.073300116 0.070570126
0.13059573 0.10632808 -0.0030700974 -0.10239872 -0.13000141 0.07292436 -0.09278243 0.017525312
0.034337323 0.108725004 0.12905632 -0.05646207 0.08307749 0.07456176 -0.0082433205 0.11787449
-0.073137864 0.066763006 -0.0356706 0.032403484 0.0066510024 0.095782205 -0.0668484 0.026632616
-0.020527003 0.13318633 -0.07222346 0.03686177 0.1226468 -0.093451746 0.13980435 0.04711091
-0.080944955 0.12711291 -0.043663677 -0.056449346 0.055223472 0.12112071 -0.07872974 0.061979283
-0.073293544 -0.0107246 -0.10624959 0.030242665 0.0063967947 0.1348941 0.079298615 -0.09321462
0.08106824 0.004217378 0.102918565 -0.10060082 -0.10361155 -0.08352172 0.10664696 0.0172877
0.038202547 0.1254187 0.09089863 0.09203422 0.07206478 -0.11040115 -0.02175615 0.028366687
-0.0058919 -0.08928113 0.07827998 0.040393908 0.12932657 0.106811896 -0.12455141 0.0035011128
0.14308272 -0.01199201 0.0025075425 0.07356812 -0.029818792 0.038214147 -0.08355296 0.07633209
-0.07062183 -0.0049525592 0.1367573 0.1321175 0.10754534 0.009360478 -0.10103283 -0.13268411
0.013552467 0.0823961 0.06772885 -0.049396977 0.13002239 0.05217929 0.13142784 -0.014811691

feature.6.bias f4 [32]
00000000: 99d9 fdbd a2ee a13d 0be0 183c 3495 db3d
00000010: 75cf 073e 9f09 59bb 3d73 003c 14b8 ddb9
00000020: fa49 f53c e485 97bd 0247 393d de74 bebd
00000030: b503 e2bd 7a3b 0fbe 7f5d 683d 27a9 65bd
00000040: 1bfb 4a3d 1d78 14be 37bb aa3c ef7e 093e
00000050: 06f6 02be a7b0 d8bc b766 963d 1827 0a3e
00000060: 086f 88bd 44e7 eb3d 5bdb 183d 2c08 da3c
00000070: b453 bd3d 014c cd3d b293 f5bd b442 c73d
-0.12395019 0.07906844 0.00933076 0.107218176 0.13262732 -0.0033117307 0.007839975 -0.00042289554
0.029942501 -0.073985845 0.045233734 -0.092996344 -0.11035863 -0.13987532 0.05672979 -0.05606952
0.04955588 -0.14498945 0.020841224 0.13427328 -0.12789163 -0.026451422 0.0734381 0.13491476
-0.066618025 0.1151872 0.03731857 0.026615225 0.09244481 0.10024262 -0.11991061 0.097295195

feature.8.weight f4 [32]
00000000: 453a 7c3f b2f6 7c3f eecc 7e3f 1d91 7b3f
00000010: 51e5 7c3f d215 7e3f 8d56 793f 4a25 7f3f
00000020: bb60 793f 8728 7e3f 4421 7b3f 6f13 7b3f
00000030: d2e9 7b3f 2fdc 7d3f abe4 7f3f 204c 7e3f
00000040: d071 803f c955 7e3f b578 7b3f 462f 803f
00000050: a601 7d3f 3fc5 7d3f fb31 7b3f 677f 7e3f
00000060: b17e 7c3f db38 7c3f 9963 7d3f 08d0 7e3f
00000070: 1504 7f3f 2546 803f 1815 7e3f 8a3c 793f
0.9852641 0.9881393 0.9953145 0.982683 0.9878741 0.99252045 0.9739769 0.99666274
0.97413224 0.9928059 0.98097634 0.9807653 0.98403656 0.991641 0.99958295 0.9933491
1.0034733 0.9934965 0.9823106 1.0014427 0.9883064 0.991291 0.9812314 0.9941315
0.98630816 0.98524255 0.989801 0.9953618 0.99615604 1.0021406 0.99250937 0.97358

feature.8.bias f4 [32]
00000000: 63c3 02bb 1b53 cbba a50e 2cba b9c6 bdbb
00000010: d2c6 75bb 0b65 84bb 0ff2 6fbc f019 933b
00000020: 722a 82bc 14b2 b13a 27ad 53bc 0751 29bc
00000030: 6e8d 2cbb d430 e8bb 7707 be3b 61c8 3e3c
00000040: 3755 a53b d336 ba3b f4c4 3cbc ec67 e33b
00000050: d947 efba a19c 8bbb 1827 38bc 0e8f 6fba
00000060: 7b5c 71ba 6c51 18bc 5b08 533a 2035 f23a
00000070: 2ae2 893b 320e 1b3c 3d79 ba3a 71ad f2bb
-0.0019952885 -0.0015512438 -0.00065634615 -0.005791512 -0.003750254 -0.0040403656 -0.014645114 0.004489176
-0.01588938 0.00135571 -0.012919701 -0.01033426 -0.0026329416 -0.007085899 0.0057992297 0.011644454
0.005045559 0.005682805 -0.011521567 0.0069398787 -0.0018255665 -0.004260615 -0.011239789 -0.0009138443
-0.0009207201 -0.009296756 0.00080502563 0.0018478967 0.004207869 0.009463834 0.0014226806 -0.0074059297

feature.8.running_mean f4 [32]
00000000: 2e98 40be 970b 18bf 9ac5 8e3e 3cea 3d3f
00000010: 4788 083f cd51 103f 553b ebbd 9f31 6c3d
00000020: 7287 08bf e888 823e a6bb 71be 8ec9 503e
00000030: 3673 eebd c06b 83be 4631 e2bd 5907 c8be
00000040: 2a94 4c3c f241 ccbe 28e0 9d3e bcad 753f
00000050: 134f e0be a3b1 ff3e c22a f83e 257c 3d3e
00000060: 1105 9ebd 40f0 893e afbb bdbd 1dde 543f
00000070: 7132 e03e dba9 2fbe 60d4 9f3e 2d17 63be
-0.18808052 -0.59392685 0.27885133 0.7418554 0.5333294 0.5637482 -0.11485926 0.05766451
-0.53331673 0.25495076 -0.23606738 0.20389387 -0.116430685 -0.25668144 -0.110445544 -0.39068106
0.012486497 -0.39894062 0.3083508 0.9596822 -0.4381033 0.49940214 0.48470122 0.18504389
-0.0771581 0.2694111 -0.092643134 0.8315142 0.43788484 -0.17154638 0.31216717 -0.2217681

feature.8.running_var f4 [32]
00000000: 5643 8d3e a56e 1d3f f2d7 0c3f 2249 833f
00000010: e262 283f d71f 303f 4e33 673e 22e1 f43e
00000020: bcb6 1e3f f9b7 e53e 4436 fe3e 6312 113f
00000030: 0f50 d03e 3341 ba3e da53 b33e 25ae 113f
00000040: 6a54 983e 8ce7 c93e 9edc dc3e be3b e93f
00000050: 415c 293f 81b8 1a3f 92ce 0f3f 4f15 0f3f
00000060: d6f9 c43e c741 e63e 5ff9 c03e 6d5b 9a3f
00000070: 38c4 3a3f de39 833e e178 e23e 16b1 603f
0.27590436 0.61496955 0.55017006 1.0256693 0.65775883 0.68798584 0.22578165 0.47828013
0.6199758 0.44866922 0.49650776 0.5666868 0.4068608 0.36377868 0.3502491 0.5690635
0.29751903 0.3943447 0.43137068 1.8221357 0.66156393 0.6043778 0.56174576 0.5589189
0.3847186 0.4497206 0.37690255 1.2059151 0.72955656 0.25630087 0.44232848 0.8777021

classify.0.weight f4 [32, 64]
00000000: bdf8 95bd d33a 733d 852a dfbd 9a11 bdbd
00000010: d713 223d 400b e7bc 13cf d7bd 0804 81bc
00000020: 381e 2f3c e01c ecbd 444e d33c 8b34 cbbd
00000030: 5abe 863d e72c 95bd 92f2 b83d b08b ec3d
00000040: a918 053c 25d3 c8bd 4a2a 85bc ee65 0d3d
00000050: def4 75bc f291 9b3d 7a5d 8dbd 5827 74bd
00000060: d134 bb3d 2e82 f83d 6334 edbd e7c8 623c
00000070: ceca e2bd e92a d3bd 4248 c8bc 16f1 f13c
00000080: 5a8c 96bd 91ad 9f3d a655 4dbd 9343 ff3d
00000090: 185e 953c 7a26 dfbd 51bd 61bd f01f ef3d
000000a0: a209 ecbd 01aa 05bd 5fea 82bd 825b 57bd
000000b0: e496 74bd 4a26 b6bd f6b1 c33d 2b4f 863b
000000c0: 6b4c b73d 1468 753d b6fc da3d 70c5 8ebd
000000d0: eee1 48bd 8ed7 22bd 616e eabc 0215 e63d
000000e0: fee0 083d 52b6 e8bd a29c edbd 58df 663c
000000f0: a92f c33d 929e 0f3c 0c54 0cbd 1f48 4cbd
00000100: 59d9 653d 9ece e63c 5753 20bd 0436 843d
00000110: 41e4 29bd bd58 a53d 4640 bdbd 7d92 8f3d
00000120: fce5 febd 6464 dfbd 8582 e3ba da86 d33d
00000130: 49b8 c0bd eb48 8b3d dad0 02be 9465 cdbd
00000140: 9535 b43d e9eb 92bd 7e0e d83d 7e06 8b3d
00000150: 128e 723b c5ce 56bd 7fbe 013d 772e 21bd
00000160: fbec cbbd 9384 cc3d b680 b33d 97f4 47bd
00000170: 00ef 8c3d c828 093b be16 bcbd 5c6f b83d
00000180: c31b 94bd bf53 07be 9585 82bc d8f3 edbd
00000190: 5dfa 7c3d d33b 20bd 7aec bc3d 420e 07bd
000001a0: 5a62 2ebd de52 a63d 0bd1 0bbb 5df6 b9bd
000001b0: f2b5 ef3d dbda 8ebd baba ea3d d61f e0bc
000001c0: 9c68 09bd ee6a 773d 4a35 ebbb a350 db3d
000001d0: 30cf 8f3d b2b6 ba3c 501e 79bd 11a8 e7bc
000001e0: 8e37 873d deed f33c 5b83 533d 9dc4 cabd
000001f0: 4930 25bd 75ae 653c d282 b13c db59 dbbc
00000200: b048 57bd edf9 49bd 4c25 49bd 6a84 f53d
00000210: 1d70 4bba a7a6 923c bb6f e2bc 69d4 acbd
00000220: d8ea b53d a439 003d 3676 99bc b402 4abd
00000230: 5f94 9b3d 0cce 0cbd 0f0d f2bc 142c fd3c
00000240: a745 aa3b 5c29 b93d 26f1 4cbd 2ad5 b53d
00000250: 299e a6bd ec5a 803d 73e1 58bc bea2 363b
00000260: ec43 84bd 2899 94bd 49b8 9c3d efeb 45bd
00000270: 6707 96bd 2055 84bd 6de0 92bc 6db0 bf3d
00000280: 7f02 cd3d 219f 1b3d e603 af3d 98c5 053d
00000290: e4cd 34bd e7d6 a7bd e473 f0bc 07b8 49bd
000002a0: a753 17bd 28ef 04bd 0f06 bc3d 7469 513c
000002b0: aebd 6dbb 9505 ef3c e9d7 02bd c15c a33d
000002c0: a50b e9bd febf fdbc e181 af3d 3fab a43d
000002d0: 5add 08bd c567 d4bd 2061 a9bd b1c6 7b3c
000002e0: 19e0 e73c acd1 673d ed32 83bd 9794 b3bb
000002f0: 9f7b 35bc 2a6b e7bd 4daa 7c3d 3822 83bd
00000300: 509e 8fbd 054e 043d 91a0 9bbd c54c e8bd
00000310: a432 81bd 0420 9cbd 384f 8abc 2ed3 cebd
00000320: 1eb6 29bd 32b4 ad3d 7b0d b43d 6f2f 0bba
00000330: cdf6 8dbd 77f7 743d d034 32bc 4938 ec3c
00000340: bcb0 b7bd d561 513d 26bc 813b 7f4c 9cbc
00000350: b4e7 8c3d 82fe edbc aa6c 1cbd 1693 5e3b
00000360: ccf7 74bd 82e3 9a3d 8e10 aa3c 7174 b2bd
00000370: 287d 8abc 5111 94bd 799d 3dbd e8e5 5cbd
00000380: b92a 0e3c 8610 26bc d5ed 6a3d 7b06 af3d
00000390: 3501 613d 1590 78bc 7135 b6bd ff8a 80bb
000003a0: fea5 3a3d 2416 85bc 7410 0ebd af43 b9bd
000003b0: aae4 5a3d 14eb 76bc f24c 50bc 0124 b83d
000003c0: a4ad 44bd 74c7 aaba 5f6f a73b 5e56 00bd
000003d0: 01e4 d33d c2e1 bbbd b8c1 ca3d 884a 0d3d
000003e0: c26a 3ebd 1801 e9bc ba93 a8bd 25bf 11bd
000003f0: 2f94 e9bc 1edd cdba a480 44bd 79b8 64bd
-0.07322834 0.05938227 -0.10896782 -0.09231873 0.039569702 -0.028203607 -0.10537543 -0.015748993
0.010688357 -0.11528945 0.025794156 -0.09922131 0.065792754 -0.07283955 0.090306416 0.11550081
0.008123555 -0.098058976 -0.016255517 0.034521036 -0.015011994 0.07596196 -0.06902595 -0.059607834
0.09140933 0.12134205 -0.115822576 0.013841844 -0.11073838 -0.10310919 -0.024448518 0.029533904
-0.07350989 0.07796777 -0.05013051 0.12464061 0.018233344 -0.10896011 -0.055112187 0.116760135
-0.11525275 -0.03263283 -0.06392359 -0.052577503 -0.059714213 -0.08894022 0.09555428 0.004098793
0.089501224 0.05991371 0.10692732 -0.06971252 -0.04904359 -0.03975635 -0.028617086 0.11234476
0.033417694 -0.113629 -0.11602141 0.014091335 0.09530575 0.008765833 -0.03425984 -0.049873468
0.056115482 0.028174695 -0.03914198 0.06455615 -0.041477446 0.08073566 -0.09240775 0.07010362
-0.1244621 -0.1090782 -0.0017357623 0.10328455 -0.094101496 0.068010174 -0.12774983 -0.1002914
0.087992825 -0.071739025 0.10549639 0.06788348 0.003701095 -0.052443285 0.03167581 -0.039350953
-0.0995731 0.09986224 0.08764784 -0.048817243 0.06881523 0.0020928849 -0.09184025 0.09005615
-0.07231858 -0.1321554 -0.015932838 -0.11618775 0.061762203 -0.039119553 0.09224792 -0.03297258
-0.042574264 0.081212744 -0.0021334316 -0.09080193 0.11704625 -0.06975337 0.114613965 -0.02735893
-0.03354703 0.06040471 -0.0071779834 0.107087396 0.0702194 0.022792194 -0.060819924 -0.028278382
0.06602393 0.02977651 0.051638942 -0.09900782 -0.04032925 0.014018645 0.021668825 -0.026776245
-0.052559555 -0.049310613 -0.049107835 0.119881466 -0.00077605416 0.017901732 -0.027641168 -0.084389515
0.088826835 0.03130497 -0.018733125 -0.049318984 0.07596659 -0.03437619 -0.029547242 0.030904807
0.0051962915 0.09041092 -0.050034665 0.088785484 -0.081356354 0.06267342 -0.013237345 0.0027867998
-0.064582676 -0.07255775 0.07652337 -0.048320707 -0.07325631 -0.06461549 -0.01792928 0.093598224
0.10010242 0.037993554 0.085456654 0.032659143 -0.044141665 -0.08195286 -0.029352136 -0.049247768
-0.03694501 -0.03245464 0.09180843 0.01278149 -0.0036276388 0.029177466 -0.03194419 0.07976676
-0.11379174 -0.030975338 0.08569694 0.08040475 -0.033414222 -0.10371355 -0.08270478 0.015367196
0.0283051 0.056596443 -0.06406198 -0.00548036 -0.011076837 -0.11299737 0.06168585 -0.06403011
-0.070126176 0.032300968 -0.07598985 -0.113427676 -0.06308487 -0.07623294 -0.016883478 -0.10098873
-0.041433446 0.08481635 0.08791634 -0.00053094974 -0.06931839 0.059806313 -0.010876849 0.028835433
-0.08969256 0.05111869 0.0039591966 -0.019079445 0.06880131 -0.029052023 -0.038189568 0.0033962182
-0.05980663 0.07562925 0.020759847 -0.08713616 -0.016905382 -0.07229865 -0.046292756 -0.053930193
0.008677178 -0.010135775 0.05735572 0.08546158 0.05493279 -0.015171071 -0.08896912 -0.0039228196
0.04556846 -0.016245909 -0.03468366 -0.09046113 0.053440727 -0.015070695 -0.012713658 0.08991242
-0.04801716 -0.0013029412 0.005109712 -0.031332366 0.10346223 -0.09173919 0.0990023 0.034494907
-0.04648853 -0.028442904 -0.082313016 -0.03558268 -0.028513042 -0.0015706157 -0.047974244 -0.05583999

classify.0.bias f4 [32]
00000000: 1300 013e 4ba8 1cbd ce5b 57bd 3f2c 503d
00000010: db6b 35bd b997 503d b122 c93c c8bb dabd
00000020: 09ec 803d a736 9ebd 4b65 de3d 5fa7 83bc
00000030: 9672 2a3c 66b2 923c 7c7e aebd 41c7 893d
00000040: 3490 01bd 0f0e 863d 81ca 4c3b 53db bfbd
00000050: 16f6 fabd 3003 0fbd 2c4b a33c 0fc1 3cbd
00000060: 3f54 3ebd b0b2 87bd 0094 ea3d 26c1 dbbc
00000070: db05 0ebd 7c5a 5ebd bd3a 12bd 8e25 6abd
0.12597685 -0.038246434 -0.052577786 0.050823446 -0.044292312 0.050925944 0.024552675 -0.10680348
0.0629502 -0.07725268 0.10859164 -0.01607102 0.010403296 0.017907333 -0.08520219 0.06727458
-0.031631663 0.0654565 0.0031248631 -0.09368005 -0.122539684 -0.03491515 0.019933306 -0.046082553
-0.046467062 -0.06625879 0.1145401 -0.026825499 -0.034673553 -0.05428551 -0.03570055 -0.05716472

classify.3.weight f4 [1, 32]
00000000: eae6 f03d da18 15be 8f11 09be 0a05 65bd
00000010: 3c42 473c ff2d 9cbd 5688 fe3d 7935 4e3d
00000020: 8056 0fbe 2d3e a1bd b810 a8bc 5d46 ad3d
00000030: 49a6 2abd e8a3 80bd 1be5 4a3d 604f 923c
00000040: 17a0 1cbe ef2f 13be 4c03 013d 1fa2 cbbd
00000050: 555f 10be e8e0 1e3e 9c14 bb3d f980 1dbe
00000060: cccc dd3d 437f a4bd 248f de3c 0bdc 10be
00000070: 5bd6 943d 7073 06be 850b 0d3e b5e5 9f3d
0.11762793 -0.14560261 -0.13385604 -0.05591301 0.012161788 -0.076259606 0.12428348 0.050343964
-0.13997841 -0.07873187 -0.020515785 0.08460686 -0.041662488 -0.06281263 0.0495349 0.017860115
-0.15295444 -0.14373754 0.031497285 -0.099430315 -0.14098866 0.15515482 0.0913479 -0.1538123
0.108300775 -0.08032086 0.027167864 -0.1414644 0.072674476 -0.13129973 0.13773926 0.07807485
