Code/CNN/CNNOutputs/best_model.pth (torch, 22818 bytes, 15 tensors)

feature.0.weight f4 [16, 5, 3]
000000 47 bf a6 bd 98 a1 9b bd 40 e5 f9 3c 42 a5 5d be
       -0.08141952 -0.07599181 0.030504823 -0.21645072
000010 ad 2f 39 bd e9 d8 05 be ed 0d bf bd 5d 41 e2 bd
       -0.045211483 -0.13071026 -0.09328828 -0.11047623
000020 3a 02 a1 3d b9 ae 40 3e e5 56 d6 bd 9d 70 2a be
       0.07861753 0.18816651 -0.104657926 -0.16644521
000030 0e a8 68 3e af e4 8d bc 20 03 9f bd 8b a1 29 3e
       0.22720358 -0.017320959 -0.07764268 0.1656553
000040 9a f9 5f bc e4 14 36 3e c4 b4 6a 3d 9b d0 58 be
       -0.0136703495 0.17781407 0.057301298 -0.21173327
000050 5e 5f 32 be 4a 14 e8 bc 4d 34 6b 3b 3e f4 25 3e
       -0.17419192 -0.028329987 0.0035889328 0.16206452
000060 bd ce 6a be 7a 31 db bd 55 8f 59 bd e0 54 2b 3d
       -0.22930427 -0.10702796 -0.053115208 0.04182899
000070 a6 dd 8c be 80 5b a2 bd af 4a 73 3d 5b af 8d 3d
       -0.27512854 -0.079276085 0.059397396 0.06918212
000080 89 6e 5f 3e 64 be e3 3d 3a 68 62 be c2 df f0 3d
       0.2181951 0.111202985 -0.22110072 0.117614284
000090 be af f5 3c 8a 90 0e 3e aa 3f 65 bd e1 6c 8f bd
       0.029991027 0.13922325 -0.055968918 -0.07003189
0000a0 7e 2d 21 3e 32 55 14 3d 14 e1 2b bd b8 92 17 3e
       0.1574001 0.03621406 -0.041962698 0.14802063
0000b0 53 c9 41 3e 98 d3 63 be 51 77 47 bd 16 d4 b5 3b
       0.18924455 -0.22248685 -0.048697773 0.0055489643
0000c0 00 98 02 3e cd 85 1f 3e 2f 50 49 3e 71 89 a9 3d
       0.12753296 0.15578385 0.19659494 0.08278168
0000d0 00 35 88 3d 1e d3 3f 3e 8d 94 ac bd e8 62 72 bd
       0.06650734 0.18732879 -0.08426771 -0.059176356
0000e0 85 90 2c 3c 4c d1 50 be 1b d1 ca 3d b8 43 64 be
       0.010532503 -0.2039234 0.09903165 -0.22291458
0000f0 4a 6e a5 3d 05 44 f6 bd d4 cf 8b 3d 6e d2 d5 3d
       0.080776766 -0.120246924 0.068267494 0.10440527
000100 19 39 8e 3d cf 5b ef bd 6b 0f fc bc 2e 94 96 bc
       0.06944484 -0.11687433 -0.03076907 -0.018381204
000110 26 33 7b bd 42 ca 6c 3e 70 a2 84 3e 70 9c 80 3e
       -0.061328076 0.2312403 0.2590518 0.25119352
000120 0e c2 27 be cf 22 8f 3d 09 7e a3 3d 60 de 59 3e
       -0.1638262 0.06989061 0.07983024 0.21276236
000130 89 8f 12 be 89 fe 26 be 98 dd 26 3e 59 33 6e 3e
       -0.14312567 -0.16308035 0.16295469 0.23261775
000140 c9 e1 dc 3d 17 d7 7b be 36 85 67 be 59 ca 17 3d
       0.107852526 -0.24593769 -0.2260941 0.03705821
000150 70 40 03 bd df e9 f3 bd 9f 46 70 be 57 ef 13 be
       -0.032043874 -0.11909842 -0.2346444 -0.1444677
000160 2e 4a 9b bd 1e 6d 67 3d 00 b9 2b be 14 19 52 bd
       -0.07582508 0.056500547 -0.1676979 -0.051293448
000170 c0 50 00 be c3 82 ea 3d f4 1f 8e 3c a8 01 89 bd
       -0.12530804 0.11450722 0.01734922 -0.06689769
000180 32 b2 a9 bd 8a de da 3d 0d fd 1d be 1a 5e 03 3d
       -0.08285941 0.10686977 -0.15428562 0.032072164
000190 a9 fb d9 bd 91 b1 f5 bc 92 f5 64 3e 75 36 15 3e
       -0.106437035 -0.029991897 0.22359303 0.14571555
0001a0 d7 7d 45 3e bb c5 f0 bd 50 29 86 3d 44 fb b3 3d
       0.19286285 -0.11756464 0.065508485 0.087881595
0001b0 2a 44 01 be ff ba 1c 3e 65 7b 4d be 9e 3f f9 bd
       -0.12623659 0.15305708 -0.20066603 -0.12170337
0001c0 a0 01 81 be a9 cf 99 3a ce 62 56 3e 38 25 0b be
       -0.25196552 0.0011734861 0.20936128 -0.13588417
0001d0 55 5f 77 3e 2c cb 5b 3e 83 b4 31 be 7a 19 ca bd
       0.2415746 0.21464223 -0.17354016 -0.098681405
0001e0 b3 28 70 bd 21 bc a5 bc ee fc 82 3e 17 35 8c 3d
       -0.058632564 -0.020231308 0.25583595 0.068460636
0001f0 fb ec b7 3c 57 1a 9d 3d 23 a8 05 3e 56 b2 df bd
       0.022451868 0.076710396 0.1305242 -0.10922687
000200 ea f3 2a be 52 43 58 bd da 38 c5 bd 99 9a 3c be
       -0.16694608 -0.052798577 -0.09629984 -0.1841835
000210 16 1b 6c be da ef 2a be ee bf e3 bd 93 9c 12 3e
       -0.23057207 -0.16693059 -0.11120592 0.14317541
000220 86 3b 59 be 54 f2 d8 3d 14 65 f3 3c 2e b5 4b 3e
       -0.21214113 0.105930954 0.029711284 0.19893333
000230 a3 c4 12 be 8f a6 57 3d 73 2d 0e be ed 99 16 3e
       -0.14332823 0.052649077 -0.13884525 0.14707156
000240 e5 51 6c 3e d0 ac 1f be 44 a9 18 be 8a f5 69 be
       0.23078115 -0.15593266 -0.1490832 -0.22847572
000250 39 95 86 3e 52 b2 31 bd 2f 76 43 be 79 e8 c3 3d
       0.26285723 -0.04338295 -0.19088052 0.09565825
000260 a0 b2 60 bd b0 87 21 bd 6a b8 48 bc 6d 81 29 3e
       -0.05485785 -0.039436042 -0.012250999 0.16553278
000270 3a 87 d5 3d cb 01 4f be 46 09 f4 3d b2 32 48 be
       0.10426183 -0.20215528 0.11915831 -0.19550589
000280 1c e1 bd 3d 96 54 7a 3e 04 19 31 3e c4 04 aa 3d
       0.09271452 0.2444633 0.17294699 0.0830169
000290 47 77 a6 bd 62 3e b9 3d 61 1b ae bd a0 c2 72 3b
       -0.08128219 0.09045102 -0.08501316 0.0037042275
0002a0 90 02 6d be 39 63 63 3d 51 79 fe bc 82 8f b7 bc
       -0.23145509 0.055514548 -0.031063708 -0.022407297
0002b0 fa 40 1d 3e a4 71 3a be 81 1b 28 3e 02 57 34 3e
       0.15356818 -0.18207413 0.16416742 0.17611316
0002c0 a7 bd 01 3e 9e aa 8e 3d d1 0a 8c 3d 86 9a 6b 3e
       0.12670003 0.069661364 0.068380006 0.23008165
0002d0 45 31 54 3e 32 f7 1c be f3 b7 b1 3c a6 72 56 3d
       0.2072192 -0.15328673 0.02169416 0.05235543
0002e0 39 a9 d3 bd 68 b2 11 3d a3 40 b0 3d af 04 b5 3d
       -0.10335011 0.035570532 0.086060785 0.08838784
0002f0 a7 f6 48 be 96 a4 cb bc 2e 8f 2c 3e 8d de d8 bd
       -0.1962534 -0.024858754 0.16851494 -0.10589323
000300 42 23 62 bd df ee 2e bb 62 a2 6b 3d e9 7a 5f bb
       -0.055209406 -0.0026692671 0.057527907 -0.003410036
000310 7a e0 3f bd 02 61 61 3d 99 0a 03 bd 59 d0 72 bd
       -0.046844937 0.055024154 -0.03199253 -0.059280727
000320 51 c3 80 3d 39 fe 1c bd 28 d3 52 bd 35 b0 87 bd
       0.06287254 -0.038328383 -0.051470906 -0.06625406
000330 c7 a9 55 bd 90 bb 0c bd 49 c0 5c bd df 56 97 bd
       -0.052163865 -0.03435856 -0.053894315 -0.07389616
000340 ca b0 2c bd 2d f9 2b bd d7 3a 30 bd 4a 16 71 3d
       -0.042160787 -0.04198568 -0.043024864 0.058859147
000350 5f 19 43 be ad 0d 25 be 92 73 ff bd a5 9b b0 bd
       -0.19052647 -0.16118498 -0.12473215 -0.08623437
000360 63 df 5e 3e d4 ad 24 3e c0 e1 00 be ec 35 0d 3c
       0.21764903 0.16081935 -0.12586117 0.008618813
000370 de 28 06 be 54 85 62 3e 25 f9 0f be 7b cb 09 3e
       -0.13101527 0.22121173 -0.14059885 0.13456528
000380 a2 64 e2 bd cd 1d fb bc 21 e9 b7 3d b0 54 2f 3d
       -0.110543504 -0.030653859 0.08980013 0.042805374
000390 90 e1 bc bb 6b 16 2b be 15 1e 83 bd 3f 98 2c 3d
       -0.005764194 -0.1670777 -0.06402222 0.04213738
0003a0 92 43 41 bd 01 49 bf bd 75 71 27 3e d5 64 9d 3c
       -0.04718358 -0.09340096 0.16351874 0.01921312
0003b0 a8 bb 4e 3d 56 b8 d2 3a 69 2f 75 3e 14 43 80 3e
       0.05047193 0.0016076665 0.23943867 0.25051177

feature.0.bias f4 [16]
000000 16 74 79 3d c6 d9 4b 3e e4 9a 60 be 1b 2f 20 bd
       0.060901724 0.19907293 -0.21934086 -0.039107423
000010 54 1f 6d 3d 33 72 52 3e f8 68 05 3e ab 72 70 bd
       0.057891205 0.20551376 0.13028324 -0.058703106
000020 2d 76 58 3e 13 7c f8 bd cd bf 65 be 66 98 a0 bd
       0.2113883 -0.1213304 -0.22436447 -0.07841568
000030 96 a2 68 3e cf 65 ee bd 5f 94 45 bc be 42 e3 3d
       0.22718272 -0.11640512 -0.0120593 0.110967144

feature.2.weight f4 [16]
000000 50 b3 39 3f da b3 5b 3f 57 e6 4e 3f dc 70 58 3f
       0.72539234 0.85821307 0.8082022 0.8454721
000010 42 f9 58 3f 45 01 5d 3f 06 03 5a 3f 30 fb 3e 3f
       0.8475534 0.8633006 0.85160863 0.7460203
000020 6b 3f 75 3f 0b 09 4e 3f 0d ed 43 3f cc a3 69 3f
       0.95799893 0.8048255 0.76533586 0.9126556
000030 79 a0 46 3f 9b ce 42 3f a2 7a 35 3f eb 73 69 3f
       0.7758861 0.76096505 0.7089025 0.911925

feature.2.bias f4 [16]
000000 29 98 f2 bb e3 96 a5 bc f4 67 a8 bc 2f c3 25 3c
       -0.007403393 -0.02021355 -0.020557381 0.010117336
000010 cd 20 35 3c 42 d5 68 b9 43 5b d2 bc df ab 79 bc
       0.011055184 -0.00022204689 -0.025678283 -0.015238731
000020 63 b0 c0 3c 69 e4 58 bc 8f ed a2 bb 4c 6d 16 3d
       0.023521608 -0.013238051 -0.004972167 0.036725327
000030 71 1c fe bc 9c 63 99 bc b1 14 44 ba ba c6 9f bc
       -0.031019421 -0.018724255 -0.000747989 -0.01950394

feature.2.running_mean f4 [16]
000000 91 72 d3 bd 03 35 bf 3c 36 8e 88 3b 67 f8 db bc
       -0.10324586 0.023340708 0.0041673435 -0.026851846
000010 ed 6e 7c 3e 84 c5 26 3d fa 08 15 3e 62 d2 0d be
       0.2465169 0.04071571 0.14554206 -0.13849786
000020 bc 19 69 3c ea c8 b0 bd ec 94 1e be d6 1e ae 3d
       0.014227327 -0.08632071 -0.15486497 0.08501975
000030 b9 60 83 3e 42 71 81 be c4 8e a9 bd 8e 1d 6e 3e
       0.2565973 -0.2528172 -0.082791835 0.23253462

feature.2.running_var f4 [16]
000000 62 2d 70 3d 7f 9f a4 3d 1f 4e 80 3d 04 2e f8 3c
       0.05863703 0.08038234 0.062649004 0.03029538
000010 7b 3b d7 3d 24 bf 2c 3d 5d 39 26 3d 97 88 4e 3d
       0.10509392 0.042174473 0.04058205 0.05042323
000020 3d 6b 5b 3d 73 75 c6 3c 0a 7e 63 3d 44 b8 4c 3d
       0.053569067 0.024225926 0.055540122 0.049980417
000030 11 fb b1 3d c8 1c b3 3d 5f c5 d5 3c 04 bf a4 3d
       0.08690465 0.08745724 0.02609509 0.08044246

feature.6.weight f4 [32, 16, 3]
000000 41 1c b9 bd 8d dc 16 3d 89 e4 c6 bd 10 3b d6 bd
       -0.09038592 0.036831427 -0.09711558 -0.10460484
000010 e3 54 36 3c fc f1 a7 bd b7 24 b3 3d df f4 fd 3c
       0.011128637 -0.08200452 0.08747237 0.031000553
000020 b2 63 a0 bc b5 61 43 bd 37 95 77 bd ec 95 99 bc
       -0.019578788 -0.047700603 -0.060445037 -0.018748246
000030 e1 90 a6 3d 81 d0 d5 3b 6d ae 5d bd cb 17 71 3d
       0.08133102 0.0065250997 -0.054121424 0.05886058
000040 dc 30 cf 3d c3 20 a2 3d b6 7f 50 bd ea 83 b1 3d
       0.10116741 0.07916405 -0.050903045 0.08667739
000050 b9 27 b3 bd 22 4b 9f 3d 5f 42 98 bd f9 fe b4 bd
       -0.08747811 0.07778002 -0.07434534 -0.08837695
000060 cc 4a 97 3d fc 88 a2 bb d9 36 97 bc 43 56 ac bd
       0.07387313 -0.0049601775 -0.01845877 -0.084148906
000070 e9 30 15 bd 6a 64 97 3d 04 0b a9 bd 35 99 47 3c
       -0.036423597 0.07392199 -0.08254054 0.0121825235
000080 3d a7 2f bd a2 74 b4 bd 96 92 1d 3d 9d fa b3 bd
       -0.0428841 -0.088113084 0.038469873 -0.08788035
000090 d8 74 53 bd b5 21 a9 3d 06 e8 dc bd 66 c5 d1 bc
       -0.051625103 0.08258382 -0.107864425 -0.025606822
0000a0 ec 5e 63 bd 59 6e 94 3d 25 01 95 bd 2f e5 b9 bc
       -0.055510446 0.0724761 -0.07275609 -0.022692291
0000b0 be 63 3e bd 36 00 8f 3d 58 4a cb bd c0 f2 6b bd
       -0.04648184 0.06982462 -0.09926289 -0.05760455
0000c0 56 76 5c bd 5a 82 6b bd 2a d0 66 3c d0 00 91 3d
       -0.05382379 -0.05749736 0.014087716 0.07080233
0000d0 5f 72 0a bd 2b 26 a7 bd 51 8c c9 bd b5 13 a5 3d
       -0.03380048 -0.08161577 -0.09841216 0.080603994
0000e0 72 ba 7f bd 55 40 4a bc 1c 38 75 bd 76 82 ad bd
       -0.062433667 -0.0123444395 -0.059867963 -0.08472149
0000f0 42 5b e3 bd db 0e 2d bd 77 42 f2 bd a7 e7 e8 bd
       -0.111013904 -0.042250495 -0.118290834 -0.11372309
000100 f6 3b a9 3d 93 9d 91 3c 9e 96 e4 3d a4 b7 64 bd
       0.0826339 0.017775333 0.111615404 -0.055839196
000110 0f 4a 9f bd 0e 76 ac 3d 0d 3c 82 bd 66 99 46 3b
       -0.077777974 0.08420955 -0.0635911 0.0030303835
000120 e0 8d 7a bd 79 10 0f 3d 50 77 94 3d ab 3b 15 bd
       -0.06117046 0.03492782 0.072493196 -0.036433857
000130 70 93 ea 3d 0d 57 12 3b 6b c0 5e 3a 6c 75 9b 3d
       0.11453903 0.0022329718 0.00084973004 0.07590756
000140 c1 fd e3 bd ad 0d bc 3d 43 37 d8 3c 26 ae 6d 3d
       -0.11132384 0.09182296 0.026393538 0.05802741
000150 3d 5f b0 3d ed 8c 0e bb 3e 6c 91 bc 9c 41 be bd
       0.08611915 -0.0021751479 -0.01775181 -0.09289858
000160 4c c4 11 bd 67 c7 9d bd 49 d9 2e bd eb f5 cc bc
       -0.035587594 -0.077040486 -0.042687688 -0.025019607
000170 92 57 c5 3d d5 16 98 bd eb 17 fd bd 51 3e 26 3d
       0.09635843 -0.0742623 -0.123580776 0.040586773
000180 66 cb ba 3d 69 9b 35 bd b0 e1 b2 3d 63 3c ed bd
       0.091208264 -0.044337664 0.08734453 -0.115837835
000190 5d 0c ba bd fc f6 a8 bd 94 96 fe 3b c7 a4 8c bd
       -0.09084389 -0.082502335 0.007769415 -0.06867366
0001a0 63 a5 04 bd df 7a c9 3d a1 d1 97 bd 59 5e 91 bd
       -0.032384288 0.09837889 -0.074130304 -0.070980735
0001b0 72 14 a0 bd 6b 52 c0 3d 1a 42 f8 bd bd 19 c6 3d
       -0.078164 0.0939072 -0.12121983 0.09672878
0001c0 0a 1d 1c bd 4b 3d 05 be 31 55 a0 bc f9 82 24 bd
       -0.03811363 -0.13011663 -0.019571872 -0.040163968
0001d0 f6 78 11 3e 26 c9 d8 bc fe a4 6b 3d 04 62 8b 3d
       0.14206299 -0.026463103 0.057530396 0.06805804
0001e0 02 78 ca bd ba 8d af bd 65 a5 ee bd 26 6b 93 3d
       -0.09886171 -0.08571954 -0.1165264 0.07198171
0001f0 ce 6a df 3d ff 55 0a bc b9 7f 3a 3d 93 80 b4 3d
       0.10909043 -0.008443355 0.045531962 0.08813586
000200 20 9a 2e 3d 74 08 a3 3d d1 b4 05 3d 63 3c 77 bd
       0.042627454 0.07960597 0.032643143 -0.060360324
000210 de 18 ce bc c7 92 86 bd ff 5a 90 3d cd 6a f5 3c
       -0.025158342 -0.06570964 0.07048606 0.029958153
000220 a9 38 8b 3d bc 62 c2 3d 4b fd 0b bd 8d 49 17 3d
       0.067979164 0.09491488 -0.034177106 0.036935378
000230 c2 f2 90 bd e5 ad a8 bd 1b 44 e4 3d c6 4e aa 3d
       -0.070775524 -0.08236293 0.111458026 0.08315806
000240 98 9f c8 3c e1 09 87 3d 77 05 80 3d be 9d 7b bd
       0.024490163 0.06593681 0.06251042 -0.06142973
000250 82 dc 4b 3d 22 44 a5 bd e9 d2 a1 3d aa 9d e5 bd
       0.04977084 -0.08069636 0.07901556 -0.11211713
000260 09 c9 0b bd 80 84 e0 bd f5 b4 8b bd 7d bf 89 bd
       -0.03412727 -0.10962772 -0.06821624 -0.067259766
000270 1b fc 8c bd 11 f0 bf bd 48 9e 4a 3d cc e5 55 bd
       -0.06884023 -0.09371961 0.049467355 -0.052221105
000280 56 a5 5f bd 6c cf 69 bb 36 e1 c9 3d 0e 46 b4 3d
       -0.054601036 -0.0035676612 0.09857409 0.08802424
000290 14 d4 3a bd 1e f9 2c bd 93 ba 89 3d ad c2 e9 bc
       -0.04561241 -0.042229764 0.06725039 -0.028535211
0002a0 0f da 5d 3d e8 a5 9f 3d 6f e4 c2 bd b0 db b1 bd
       0.054163035 0.07795316 -0.095162265 -0.0868448
0002b0 2c 32 b0 bb c0 0f 2c bd 66 71 5a 3c 7b 1a 9d bc
       -0.0053770747 -0.042007208 0.0133327 -0.019177666
0002c0 ca 9c 10 bd 66 12 a6 bd 4c 3b 7d 3d d3 67 cc bd
       -0.035305776 -0.08108978 0.061824128 -0.099807404
0002d0 3b a3 95 3d 58 fa ce bd e9 c6 69 3d 82 89 d7 3c
       0.07306524 -0.10106343 0.05707446 0.026310686
0002e0 36 09 a9 bd c0 1e de ba ee f7 19 3d f2 c4 be bc
       -0.0825371 -0.001694642 0.03758996 -0.02328727
0002f0 66 eb 71 3b 28 c4 9a 3d 4b 83 fc bd 24 0c e4 3d
       0.003691399 0.07556945 -0.1232973 0.11135128
000300 06 5d bd 3d 04 b1 c2 bc 2d 8b a1 bd 49 46 d5 bd
       0.092462584 -0.023766048 -0.07887874 -0.104137965
000310 c2 71 0e 3d cd 9a 8d bd 17 6b 2b bd 50 75 36 bc
       0.034776457 -0.069142915 -0.041850176 -0.011136368
000320 95 a4 4d 3d 82 62 46 bd b2 21 59 3c 84 d5 df 3d
       0.050205786 -0.048433788 0.0132526625 0.10929397
000330 e0 2f 7b bd 4c 39 dd 3c 5c bf 83 3d 06 36 ce 3d
       -0.061324954 0.02700486 0.06432983 0.10068898
000340 b3 17 c6 bd ca fa 8c bd 3a b0 a8 bd 98 65 91 3c
       -0.09672489 -0.06883772 -0.082367375 0.017748639
000350 ca 73 03 bd 9f 2d 3d 3d d1 bb ba bd 88 fa 9d 3d
       -0.032092847 0.046186086 -0.091178544 0.07713801
000360 30 4c bc 3d 29 99 76 bd 0e e6 04 bc 5d b3 89 bd
       0.09194219 -0.06020466 -0.00811149 -0.06723664
000370 7a eb 51 bd 7b 70 4f 3d c4 a1 7a 3d d0 8e 84 3b
       -0.05124996 0.05064438 0.061189428 0.004045345
000380 88 79 9f bc 9a 4e 3c bd ac bc 9e bd f9 de 3a bd
       -0.01946713 -0.045973398 -0.0775083 -0.0456228
000390 0a a5 df 3d ca 65 df 3d ef 2b d4 3d c1 01 59 bd
       0.109201506 0.109080866 0.10359942 -0.05298019
0003a0 ae 30 ad bb 22 04 ae bd 8b f1 be bd 1e e9 e4 3c
       -0.005285344 -0.08496882 -0.093234144 0.02794319
0003b0 7d 12 b3 bd 80 c9 d8 bc e5 32 9d bd 0b 02 ea 3d
       -0.08743761 -0.02646327 -0.07675723 0.11426171
0003c0 ad 92 85 3d 0b 99 1f bd 6b 38 9e bd 34 32 ec 3b
       0.06522117 -0.038964313 -0.077256046 0.007208133
0003d0 c1 4d 67 bd 28 27 9a bd 9d 38 ad bd 9a e2 9f 3b
       -0.056470636 -0.07527 -0.08458064 0.004879308
0003e0 a0 68 6f bd 0b 6f 02 3d 0b d3 61 bd 78 0b c7 3c
       -0.058449388 0.03184418 -0.055132907 0.02429746
0003f0 b8 3c d0 3d fd bd 8b bb e0 f6 20 bd 2a a6 05 3e
       0.10167831 -0.0042645917 -0.03929794 0.13051668

feature.6.bias f4 [32]
000000 17 42 6d bd 2f ec d2 3d 16 90 ac 3d 0b 9f 42 bd
       -0.057924356 0.10298955 0.0842592 -0.047514956
000010 55 bb b2 bd 25 ad 48 bd 5c 06 ed bd a2 0e 56 bd
       -0.08727137 -0.04899325 -0.115734786 -0.05226005
000020 9c f3 c0 bc c5 ea 4f bd 11 23 ac 3c df 3c ae 3d
       -0.023553662 -0.050761003 0.021012815 0.08507704
000030 db 0d 00 3e 70 ae b7 bd 6c 57 1f 3d c6 04 c6 3d
       0.12505285 -0.08968818 0.03890173 0.09668879
000040 2b f0 53 bd 55 49 c5 3d 2c 04 82 bd a0 9b 85 bd
       -0.051742714 0.096331276 -0.06348452 -0.06523824
000050 af 7c bf bc 5a c2 ef bb d3 81 a5 3d 92 81 0a 3e
       -0.023374883 -0.0073168697 0.08081403 0.1352599
000060 90 3e a9 3d 55 7e 33 3d 31 0f d6 bd 50 85 c2 3c
       0.08263886 0.04382165 -0.10452116 0.023745209
000070 cd 6e ce bd 68 37 cd bc 37 2f d8 3d ab d5 19 bd
       -0.10079727 -0.025050834 0.105558805 -0.037557285

feature.8.weight f4 [32]
000000 a8 5d 28 3f a3 4d 2f 3f 9c e4 56 3f de 35 39 3f
       0.6576791 0.6847784 0.8394258 0.7234782
000010 22 a0 46 3f b1 5b 2f 3f 9f 7c 2e 3f 55 9a 46 3f
       0.77588093 0.68499285 0.68158907 0.7757924
000020 75 e2 59 3f ba e0 37 3f 54 28 25 3f 6f 4a 61 3f
       0.8511117 0.7182728 0.6451466 0.880042
000030 d3 89 30 3f 3a 47 3f 3f 2c f5 4d 3f 4c 45 49 3f
       0.68960303 0.7471806 0.8045223 0.78621364
000040 55 b5 4b 3f 53 d1 59 3f 97 16 2c 3f d5 35 40 3f
       0.79573566 0.8508503 0.6722197 0.7508214
000050 96 45 42 3f 1b ce 41 3f ca 4e 14 3f 08 e4 67 3f
       0.7588743 0.75705117 0.5793272 0.90582323
000060 2b fd 56 3f 67 48 36 3f 12 4c 57 3f 48 9a 38 3f
       0.83980054 0.7120423 0.8410045 0.72110415
000070 1f 85 51 3f f3 b7 4d 3f 74 68 45 3f 42 d8 36 3f
       0.8184375 0.8035881 0.7711251 0.71423733

feature.8.bias f4 [32]
000000 29 61 0a bd 97 4a 9b bb 77 de 9a bb 75 a0 55 3b
       -0.033784065 -0.0047391164 -0.004726227 0.003259686
000010 fb 33 97 3c ef f8 79 bc 96 0f 36 bc 0a 40 21 bc
       0.018457403 -0.015257104 -0.011112114 -0.009841928
000020 ba c2 d7 bb c7 52 0f bb 3e f2 c4 bb ed bb a7 3a
       -0.0065844925 -0.0021869408 -0.006010323 0.0012797095
000030 5a 20 96 bc da 21 a1 bb 89 c0 ac bc e4 7b d2 bc
       -0.018325973 -0.0049173655 -0.021087902 -0.025693841
000040 f2 26 fb 3c ac 8c e3 3c ba b0 90 b7 43 35 41 bc
       0.030658219 0.027777039 -1.7248432e-05 -0.011792484
000050 85 c0 7e 3b 9e b8 51 3c 7b 5d 27 bd cd 61 bf 3b
       0.0038872075 0.012800364 -0.040860634 0.005840516
000060 cb 34 23 3b f6 5b c6 bc 1d 3d 09 bc 4a 78 90 bc
       0.0024903293 -0.024213772 -0.008376387 -0.017635483
000070 a8 99 c3 3c 8e 37 9a 3a f2 af 4a 3a 9c 89 68 3c
       0.02387698 0.0011765824 0.00077319064 0.014192965

feature.8.running_mean f4 [32]
000000 68 b4 bd be 02 3d 11 be 05 c5 e7 3c 79 ea a0 be
       -0.37051702 -0.14183429 0.028292188 -0.31428888
000010 23 85 a0 be 69 e3 8b be cf a8 e2 be d1 81 2f ba
       -0.31351575 -0.27321938 -0.44269416 -0.00066950644
000020 ed 01 eb 3e b7 93 72 be 5e e2 b3 be 4e d6 45 bd
       0.45899907 -0.23689161 -0.35133642 -0.04830008
000030 2d 07 59 3d a1 43 ad 3d f7 0e 0d 3f 2c dc 2a 3f
       0.05298536 0.08460165 0.5510096 0.66742206
000040 c7 86 3d be eb 9e 09 3d be e9 6a be 09 a2 8f be
       -0.18508445 0.03359882 -0.22940728 -0.2805331
000050 86 45 0c be 68 ae 92 3e 1a 63 7b be 2b 94 3f be
       -0.13698396 0.28648686 -0.24549523 -0.18708865
000060 6e 7c 8f bc d9 89 21 3f 88 2c 9e bd 04 b1 8c 3e
       -0.017515387 0.63100964 -0.077233374 0.27478802
000070 72 e9 99 3c ba e1 14 3e 1c 2d bc be 1c cc bc bd
       0.018788073 0.14539233 -0.36753166 -0.09218618

feature.8.running_var f4 [32]
000000 7e d5 b0 3e ac f8 15 3e 10 05 9b 3e 42 e5 88 3e
       0.34537882 0.14645642 0.302773 0.2673741
000010 8a fb 90 3e 7a 9e 21 3e 5f 83 b1 3e ca 1f 95 3e
       0.2831691 0.1578311 0.3467054 0.29125816
000020 55 a1 20 3f 5a cb 68 3e ad 4a 7b 3e aa 5c 9b 3e
       0.62746173 0.22733822 0.24540205 0.30344135
000030 10 e6 a6 3e f1 40 b2 3e 38 77 31 3f 15 3b 35 3f
       0.325974 0.3481517 0.6932254 0.7079328
000040 d8 79 3d 3e af 89 7e 3e 76 ac 60 3e 0f 2d 64 3e
       0.18503511 0.2485721 0.21940789 0.22282813
000050 4f 1b cf 3e 47 a6 db 3e e8 a2 6f 3e 98 90 02 3f
       0.40450522 0.42900297 0.23401988 0.5100188
000060 de 4b b6 3e 4d 3c 13 3f 55 6c 8b 3e fc a8 d9 3e
       0.35604757 0.57513887 0.27231088 0.42511737
000070 9a e7 c2 3e ac 13 f2 3e 90 99 8a 3e 5c 2a 43 3e
       0.38067323 0.47280633 0.27070284 0.19059128

classify.0.weight f4 [32, 64]
000000 db 6e b2 bb af 64 08 3d 3f b9 99 bc ce 66 7a bd
       -0.005445344 0.033299144 -0.01876509 -0.0611332
000010 28 c5 b5 3d 19 25 ed 3c e8 16 80 3d 37 87 20 bd
       0.08875495 0.028948354 0.06254369 -0.03919145
000020 73 27 3d 3d 3b 65 89 bd 1a c1 b2 bc ca 7d 8a 3a
       0.0461802 -0.06708761 -0.021820594 0.0010566053
000030 1a ac 09 bd da 69 4c bc 2f e9 85 3d 7c bb 39 bd
       -0.033611394 -0.012476409 0.06538617 -0.045344815
000040 4f a4 aa bd 24 35 21 bc bb c0 a9 bd b1 be bf ba
       -0.083321206 -0.00983933 -0.082887135 -0.0014628974
000050 94 28 54 3d 63 0e 1f 3d 80 5a 84 3d 84 20 a1 3c
       0.05179651 0.03883208 0.06462574 0.019668825
000060 14 f8 71 bc 0d 81 1d 3d 04 18 2b 3d 52 0b 3d 3d
       -0.014768619 0.03845315 0.04177095 0.046153374
000070 3f b7 ad bd b9 b4 b1 bc 16 cf a0 bd e0 c7 91 3c
       -0.08482217 -0.02169262 -0.078519985 0.017795503
000080 bc 92 90 3d fb 6e 6f bd 3b 80 b0 bd d8 b7 94 bd
       0.07059237 -0.05845545 -0.08618208 -0.07261628
000090 e2 0c a6 bb 72 a1 3d bd dc f2 4e 3d a7 61 12 bd
       -0.0050674537 -0.046296544 0.050524577 -0.03573766
0000a0 6f 9a 2c bd 85 9b 57 bc b9 0d 8b bd ce 43 b4 3b
       -0.042139467 -0.013159637 -0.06789727 0.005501247
0000b0 7d c6 3c bd 2a 7f 8c 3d 02 13 4a 3d 32 6a d6 bd
       -0.04608773 0.06860192 0.049334534 -0.10469474
0000c0 e2 dd 55 bd 6a e5 43 3c 2b c0 84 bc 02 01 5c bb
       -0.052213557 0.011956552 -0.016204914 -0.0033569937
0000d0 fd 8b 04 3b 06 54 2b 3d 8f 01 7f bd d6 f8 2b 3d
       0.002022504 0.041828178 -0.062257346 0.041985355
0000e0 c2 45 22 bd 96 b4 fe bc 1d 8b 5d bd bf 52 85 3d
       -0.039617307 -0.03109197 -0.054087747 0.06509923
0000f0 17 c2 4d 3d a2 b5 57 3d d4 6d 33 3d 7f 1c 46 3d
       0.050233927 0.052663453 0.043805912 0.04836702
000100 a3 bb 2f bc a7 8b 24 bd 7c 51 52 bd 0f 5c ab ba
       -0.010725888 -0.040172245 -0.05134724 -0.00130737
000110 71 ed 06 3d e2 e3 6c 3c fe 2d 39 3d 4f ad 4d 3d
       0.032941286 0.014458628 0.045209877 0.050214108
000120 b6 f8 6f bd c2 70 5d bd 13 bb 5f bd 63 1b 05 bd
       -0.0585868 -0.054062612 -0.054621767 -0.03249682
000130 64 46 0e bc 8d 7b d3 bc 3b 82 3b 3d d9 b0 50 3c
       -0.008683775 -0.02581575 0.045778494 0.012737476
000140 66 88 24 bd e4 20 02 bd 37 09 5a 3c 9d ae fc 3b
       -0.040169142 -0.03176965 0.013307861 0.007711245
000150 dc ff 06 bd d5 63 bd bc c5 da 04 bd c3 6c 85 bc
       -0.03295885 -0.023118893 -0.032435197 -0.016287213
000160 7b 9e 0d bd d8 ed b4 bc 57 ac 8f bc 7e 75 08 bb
       -0.034574967 -0.022086069 -0.017538233 -0.0020821984
000170 5f 4a 09 bd b5 2b 3e bb 2e 40 9b 3d 70 2c 28 bd
       -0.03351819 -0.002901775 0.07580601 -0.041058004
000180 ad 4b 65 3d d5 5c ee bc 10 16 43 bd c4 19 a7 bc
       0.055980373 -0.029097 -0.047628462 -0.020398028
000190 30 bc 86 3c 72 31 45 3c e2 a6 f6 bc fa e2 1e bd
       0.016447157 0.012035714 -0.030108873 -0.03879068
0001a0 93 54 9d bc 99 59 4f bd 63 a7 1c 3d 5c 3e d9 3b
       -0.019205367 -0.050622556 0.03824557 0.0066297483
0001b0 80 cd dc ba 12 b9 0c 3c 7b 0b 6a 3d 7b 6e 23 bc
       -0.0016845912 0.008589046 0.057139855 -0.009975071
0001c0 c9 ca e3 bb a6 6b 2d bc e7 07 39 3d 80 dc 11 bd
       -0.006951664 -0.010584747 0.045173552 -0.035610676
0001d0 83 75 7b bd cf de 38 bd a4 b3 2a bd ca 92 0c 3d
       -0.061391365 -0.04513436 -0.041675225 0.034319676
0001e0 e4 f4 a2 3c fd 46 bd 3c 48 97 6d 3d 5f 31 2b bc
       0.019892164 0.023105139 0.0580056 -0.010448783
0001f0 74 35 48 bd 9f 3a f5 3c db 4e 7f bc 42 d4 15 bd
       -0.048879102 0.02993518 -0.015582765 -0.036579378
000200 b7 3a dc bc 6e 52 33 3a c0 7f fe bc 3a 43 75 bd
       -0.026883466 0.0006840591 -0.031066775 -0.059878565
000210 84 1e d8 bd 0d 9f b6 bd 14 45 d2 bd 02 96 82 bd
       -0.105526954 -0.08917055 -0.10267082 -0.06376268
000220 a3 69 85 bd 41 8b a2 bd 4d 66 26 bd e3 43 bb 3b
       -0.06514289 -0.07936717 -0.040624905 0.00571488
000230 f8 ab 42 bc 20 1d e1 3c 6b be 1c 3c 71 86 3a 3d
       -0.011881821 0.027479708 0.009566884 0.04553837
000240 22 ae 65 3d 46 87 3c bd 2f 75 23 3d d9 0d 36 3d
       0.05607427 -0.046027444 0.039906677 0.0444468
000250 22 1d 1c bd ae 81 09 bd b9 17 ad bd 80 b8 bc bc
       -0.03811372 -0.033570938 -0.0845179 -0.023037195
000260 a3 a1 5a 3c dd 73 d0 bc 22 96 9e 3c 5f e0 61 bd
       0.013344201 -0.025445873 0.019358698 -0.055145618
000270 82 1f 36 3d d7 e1 70 3d 1f fb 2b bd 3e 26 a4 3d
       0.044463642 0.058809128 -0.041987535 0.080151066
000280 ab 1a dc bc 1d d5 35 3b c1 8a 99 bd 75 29 ba bd
       -0.026868185 0.0027745434 -0.07497168 -0.090899386
000290 3b aa 07 3d 06 f8 ba bd ed 52 37 3d 41 8e 38 3d
       0.03312133 -0.09129338 0.04475682 0.04505754
0002a0 ce f8 6a bd d5 c4 dc bb ed 16 cd bd 69 dc 23 bd
       -0.057366185 -0.0067373314 -0.10014138 -0.04000512
0002b0 51 0b d8 bc 7a 25 58 bd d0 28 49 3d 75 6d 91 3d
       -0.026372584 -0.052770115 0.049111187 0.071009554
0002c0 93 bd 9c bb be 93 ab 3c 94 cd 19 bd ef 72 01 bd
       -0.004783341 0.020944472 -0.03754957 -0.03160375
0002d0 38 57 96 bd 06 19 34 bd a6 79 66 3d 26 66 24 3d
       -0.073408544 -0.043969177 0.056268357 0.04013648
0002e0 75 73 e1 bc f4 de 06 3d 7f eb 07 bd 55 e7 0b 3a
       -0.027520875 0.03292747 -0.03318357 0.00053369004
0002f0 9e de 95 bb 75 90 09 bd 76 03 a2 bd bc 64 81 bd
       -0.004573657 -0.03358503 -0.07910816 -0.06318042
000300 fd 8a 88 3a 41 1f c9 3d bd 53 20 3c a4 9d 46 bd
       0.0010417398 0.09820414 0.00978559 -0.04849018
000310 ae 9b 0f 3d 25 bb 46 bc aa 50 e0 ba 84 48 ae bd
       0.035060577 -0.01212958 -0.0017113884 -0.08509925
000320 71 65 bf 3d e2 81 af 3d 22 89 6a 3c 1f 71 3f bd
       0.0934552 0.08569695 0.014314922 -0.04673874
000330 1e e0 80 3c 3a 1e 92 3d 31 23 b2 3d 7d 56 74 bb
       0.015731867 0.071346715 0.086981185 -0.0037282996
000340 9b 9c 68 3c 67 e7 ae 3d 33 f6 a9 bd 36 93 b9 bd
       0.014197494 0.0854023 -0.08298912 -0.090612814
000350 fb 64 8a 3d e6 02 98 bc 83 db 36 ba 44 45 c1 3c
       0.06757542 -0.01855607 -0.0006975459 0.023592599
000360 37 67 cc 3d f6 e4 2a bd 71 51 98 3d 6c 02 0a be
       0.09980624 -0.04172226 0.07437409 -0.13477486
000370 6d d3 e8 ba e7 10 99 bd 1a 11 a0 3c dc 6e a1 3d
       -0.0017763205 -0.07473927 0.019539405 0.07882473
000380 ba 81 1a 3b 80 8d 35 3d 15 a1 8d bc 48 f3 b7 3d
       0.0023575858 0.044324398 -0.017288724 0.08981949
000390 1b 02 33 3d ee 51 f1 3d 2f d2 da 3d 04 e9 b0 3d
       0.04370318 0.11783205 0.106846206 0.08638194
0003a0 b9 d9 91 3d b7 72 5c bc 68 4e 8f bd e0 c2 91 3c
       0.071216054 -0.0134550845 -0.06997377 0.017793119
0003b0 64 f9 29 bd b0 23 7d bc a1 20 f4 bc 43 21 a8 3b
       -0.041497603 -0.015450403 -0.029800715 0.005130918
0003c0 0c f4 45 bd 75 4d fc 3c fe 56 1d bd bb 36 9d bd
       -0.048328444 0.030798653 -0.03841304 -0.07676455
0003d0 9a ae bb bd e5 78 63 bc b1 ba 61 3d 85 23 34 bd
       -0.09164162 -0.013883804 0.055109683 -0.043979187
0003e0 85 80 ac 3d f9 90 d1 b9 49 34 4d bd 11 94 14 be
       0.08422951 -0.000399716 -0.05009869 -0.14509608
0003f0 e6 c5 4d 3d c9 02 3e bc 0b 93 54 bd 80 cb cf bb
       0.05023756 -0.011597344 -0.051898044 -0.0063413978

classify.0.bias f4 [32]
000000 3b b8 9b bd 00 c9 bf bd 91 be e5 bb 2e 0f d4 3a
       -0.076034985 -0.093645096 -0.0070112427 0.001617884
000010 78 91 b1 bd 5c 19 88 3c 6f 71 83 bc 1e e8 be 3d
       -0.08670324 0.016613655 -0.0160453 0.093216166
000020 20 37 be 3d c5 e0 95 3c 9c 3d 67 3d 81 68 cc bd
       0.09287858 0.018295655 0.05645524 -0.0998087
000030 8e eb 91 3c 53 6f 36 bd 51 32 b1 3d ac 69 ff bc
       0.017812517 -0.04453976 0.08652175 -0.031178318
000040 b0 50 cf bd 06 07 bc 3c e7 14 1e 3a 1e b4 d3 bd
       -0.10122812 0.022952568 0.00060303364 -0.10337089
000050 e3 7a eb bd 1b dc 40 bd 13 25 93 3c ee 58 81 bd
       -0.11498048 -0.04708491 0.017962014 -0.0631579
000060 da 8b 9b bd de 2b 0b 3d be d7 c3 3c be cd b4 bc
       -0.07595034 0.033977382 0.023906585 -0.022070762
000070 44 11 f9 3c ae 96 20 bc b3 bd 85 bd 93 e9 c7 bd
       0.03040374 -0.00980155 -0.06530323 -0.097613476

classify.3.weight f4 [1, 32]
000000 3d 8c 94 bd 83 e0 ca 3d 92 46 cb bd b9 8c 9f 3d
       -0.07253311 0.099061035 -0.099255696 0.077905126
000010 e5 79 b4 bc e6 ac 67 3d a1 39 dd bc 2f 77 b4 3d
       -0.02203078 0.056561373 -0.027005019 0.08811795
000020 7d 3b fc 3d c8 df f1 bc 9c e8 ef bd 9c 77 b3 bd
       0.12316034 -0.029525653 -0.117142886 -0.08763048
000030 8a 3b 4d 3d 89 63 60 3d 37 d5 75 3d 69 ed a5 bc
       0.05010561 0.054782424 0.06001779 -0.020254808
000040 26 24 8e 3d 64 00 28 3d 7e 24 35 3d aa 76 d8 bd
       0.069404885 0.041015998 0.044224255 -0.105695084
000050 56 43 cc bd 9d 2a 90 bd d5 35 1d 3d a1 8a d3 bd
       -0.09973781 -0.07039378 0.038381416 -0.10329176
000060 a6 28 c5 bd 20 bd 99 3d 41 05 df bd ae be 44 bd
       -0.09626894 0.07506776 -0.10889674 -0.04803341
000070 70 39 43 bd f4 ac 99 3d 58 ca f6 bc af 1d ad 3d
       -0.0476622 0.07503691 -0.030125782 0.08452927
