Code/CNN/CNNOutputs/best_model.pth (torch, 22818 bytes, 15 tensors)

feature.0.weight f4 [16, 5, 3]
00000000: c3a6 98bd 1662 60be f67b 2bbd c5d4 093e
00000010: 485b a0bd 4d29 ae3d 0a6d 62bd efbd 223e
00000020: a790 20be e2e6 d6bd aefc 54be bd48 ff3d
00000030: 62f9 57be 54e5 2bbe 59e8 753d eef7 39be
00000040: 1caa 4dbe bc38 7abe 9c8e 26be f98b 5cbe
00000050: 1741 2bbe c1b5 51be 01b1 6c3e 1882 f23d
00000060: 7954 4dbd 7a16 663e 41ab 6f3d 9f67 7abe
00000070: 806b 4f3e e5c8 7c3e d1c7 4fba 0109 403e
00000080: b1ab 2a3e 9807 2b3e 68f4 3c3e 900f 5e3d
00000090: 3b2a 5a3e cae1 853e 47b8 26bd de64 cabc
000000a0: 2cfa 9dbd ade7 8f3d 9f6a 1cbe cc51 96bd
000000b0: 5c03 9c3d 78e0 023e 473c 1b3d a759 36bd
000000c0: bf08 82be cd75 51bd 20e3 3fbe 9379 1cbe
000000d0: 5ce5 31be a1b5 103e 1d98 57be 7f23 4b3e
000000e0: 3e72 71be 2f9c a03d faa1 15be c2f6 49bc
000000f0: ed33 2cbe 5bc1 3d3e 6818 a1bd 5c4d 1dbe
00000100: cd91 cd3d 71e1 72be 8d04 673e b8d8 cd3d
00000110: ad02 e4bd 3f1a 51be b45a 133e b6f5 df3c
00000120: 6125 233e dd56 783e 9623 853e 9ffe 1d3c
00000130: 758b 45be f07b a93d 8ead 003e 1dc2 67bd
00000140: 2ec4 6abd 904d 05bd b914 613e 6d6b 8fbd
00000150: adf5 98bc dbc8 4bbe 10d4 603d bdf2 65bc
00000160: 70d6 bbbd e35a eebd b50d 433e 911e 44be
00000170: 329a d6bd 25df fc3d 895f c2bd 0b2d ddbd
00000180: d3a3 553e 3234 f8bc dca9 30be a009 653e
00000190: aa62 0bbe c391 54be 2cf0 b73c 24e2 c93c
000001a0: e348 6abd 9c1c e63d a16c 9fbc 7e6a 8e3d
000001b0: ffd0 983c 9330 cbbc a67f 06be 37ea ccbd
000001c0: f95f 3b3e 983a a9bd 9e50 82bd 0f12 2b3e
000001d0: b400 813e 634b 223d 4ed4 6fbe 15c5 a53d
000001e0: 6a2e 4b3e 5a1f d33b 3392 3ebe 0ab8 7e3e
000001f0: b638 a7bd 46e2 86be 2830 5e3d 45a6 e73d
00000200: c243 80be 12e5 35be 05b4 f2bd 047f 2b3e
00000210: 261d 393e 6ab1 12be 4595 493e 9795 313e
00000220: 38bf 81be 2d81 cd3d 168d 08be 6fcb 8cbd
00000230: 1fa9 343e a16c c8bc 11c1 54be ffa5 76be
00000240: 7d6f 10be fd3d 243e 425c a9bd fd30 803e
00000250: f04b 7e3e 0799 2fbe 2f93 56be b350 debc
00000260: fad5 26be 5b16 2d3e ca6e 7e3e 0b1f 81be
00000270: 95a8 283e fc98 043e 291e 203c 3758 163e
00000280: d052 2e3e 2e86 57be 9f7f 5bbd 0cf2 00be
00000290: 390a 833c a583 6abd 1305 613c 690f d2bd
000002a0: 2356 cd3d 97c0 68be f264 2c3d 3f37 1dbc
000002b0: 316e 37bc b326 5cbe 591f 483e f692 143d
000002c0: 674d 03be 4f58 3c3e 2c58 163e c945 78bd
000002d0: a71f 0fbe 1330 ebbd 44a2 01be 6bf3 f53d
000002e0: 0eeb 533d e4d4 343e ae23 debd 45ca f9bd
000002f0: 2921 363e d639 523e 16ef ee3d 412f 51bd
00000300: 3eaa 56be 054b 293d e590 26be a59d a93c
00000310: 4eba e7bd bd88 ed3d a1f6 913d 8a36 c83d
00000320: 37c8 a43d 34e9 54be 10b6 153c c257 533e
00000330: 13fe 1ebe 9f45 183e 9cab e0bd dcf6 d2bd
00000340: 1966 56be 34e5 493e 04b9 67be 69fd 32be
00000350: a17c 403d c2b6 55bd 230b 63be 20a4 56bc
00000360: 9d3a 0a3d a538 42bd 6375 003c 4a91 593e
00000370: a756 60be 5e2b 72be 606b 3fbc a3fb 0bbe
00000380: b2bf 5cbe 1ca6 23be 5f08 17be bf7e 3cbd
00000390: 4f42 0dbe 460e 08bd ee12 4a3e 7838 69be
000003a0: e802 1d3e e2d5 d83d aec0 7a3e b9d4 4b3e
000003b0: cfc8 3cbe 1202 02bd fbd6 da3d fdeb 5e3e
-0.07453682 -0.21912417 -0.041866265 0.13460071 -0.078299105 0.08503971 -0.05527977 0.15892766
-0.1568018 -0.10493256 -0.20799515 0.124650456 -0.21091226 -0.167867 0.060036037 -0.18160984
-0.20084423 -0.24435705 -0.16265339 -0.2153777 -0.16724049 -0.2047949 0.23114397 0.1184122
-0.050129388 0.22469512 0.05851293 -0.24453591 0.20255852 0.2468601 -0.00079261983 0.18753435
0.16667058 0.16702116 0.18452609 0.05421406 0.21305172 0.26148826 -0.040703084 -0.0247063
-0.07713732 0.070266105 -0.15275048 -0.0733982 0.07617828 0.1278094 0.03789928 -0.044519093
-0.25397298 -0.051137734 -0.18738985 -0.15280752 -0.1737265 0.14131786 -0.2105412 0.1983776
-0.23578736 0.0784229 -0.1461257 -0.012326898 -0.16816683 0.1853079 -0.07865983 -0.15361542
0.10037575 -0.23718812 0.2256033 0.100511014 -0.11133323 -0.20420168 0.14390069 0.027338844
0.15932228 0.24251886 0.26003712 0.009643226 -0.1929148 0.08275592 0.12566206 -0.056581605
-0.057315998 -0.032544672 0.21980561 -0.07002912 -0.018671835 -0.19900839 0.05488974 -0.014034924
-0.0917176 -0.11638429 0.19048198 -0.19152285 -0.10478629 0.12347249 -0.09490878 -0.10799607
0.20863275 -0.030298326 -0.17252296 0.22366953 -0.13611856 -0.20758729 0.02245339 0.024643965
-0.057198416 0.112359256 -0.019460978 0.069539055 0.018654345 -0.024803435 -0.13134632 -0.100056104
0.1829833 -0.08263129 -0.06363033 0.16706108 0.2519585 0.039622676 -0.23420832 0.08094231
0.19841924 0.0064429464 -0.18610458 0.24874893 -0.08165114 -0.26344508 0.054245144 0.1131101
-0.25051695 -0.17763165 -0.11850742 0.16747671 0.18077525 -0.1432549 0.19685848 0.1734222
-0.253412 0.10034404 -0.1333507 -0.068747394 0.1764264 -0.02446586 -0.20776774 -0.2408676
-0.1410503 0.16039272 -0.0826955 0.25037375 0.24833655 -0.17148219 -0.20954584 -0.02713809
-0.16292563 0.16903059 0.2484695 -0.25218996 0.16470559 0.12948984 0.009772816 0.14682089
0.17023778 -0.21047279 -0.053588506 -0.12592334 0.015996085 -0.057254452 0.01373412 -0.102568455
0.10026195 -0.22729717 0.042088456 -0.009595691 -0.011195705 -0.21499138 0.19543208 0.036272965
-0.12822495 0.18393062 0.14682072 -0.060613427 -0.13976918 -0.11483779 -0.12659556 0.12009319
0.051737837 0.17659336 -0.10846649 -0.12196783 0.17786087 0.20529875 0.11666696 -0.051070455
-0.2096338 0.04133131 -0.1626621 0.020705054 -0.11314832 0.115983464 0.07127119 0.097760275
0.080460005 -0.20792085 0.009137645 0.20638946 -0.15526609 0.14870308 -0.10970232 -0.10300991
-0.20937385 0.1971634 -0.22629172 -0.17479481 0.046993855 -0.052176245 -0.22172217 -0.013100654
0.033747304 -0.0474173 0.007840487 0.2124683 -0.21908055 -0.23649356 -0.011683315 -0.1367021
-0.21557501 -0.15981334 -0.14749287 -0.046019312 -0.13794826 -0.033216737 0.19733784 -0.22775447
0.1533314 0.1058767 0.24487564 0.19905366 -0.18435977 -0.031740256 0.106855355 0.2176971

feature.0.bias f4 [16]
00000000: fba2 3cbe 8a20 36be 2d51 283e e082 5bbd
00000010: 54ba c63c e8b6 673e 7178 643e 8c67 bebd
00000020: c88f 673e d46a 51bd 0a78 3d3e 03dd 323e
00000030: b507 913d 03c8 fc3c fa5e 263d 5022 44bd
-0.18421547 -0.1778585 0.16437216 -0.05359161 0.02425877 0.22628367 0.2231157 -0.09297094
0.22613442 -0.05112727 0.18502823 0.17467122 0.07081548 0.030857092 0.04061792 -0.047884285

feature.2.weight f4 [16]
00000000: 4ea8 7f3f e61a 7e3f e64b 7e3f d880 7d3f
00000010: df6a 7f3f feb6 7e3f a633 7d3f 5ced 803f
00000020: 9454 7b3f c2d4 7d3f 5f2d 7e3f e55a 7d3f
00000030: abb2 7d3f 7c66 813f 2acb 7c3f 567e 803f
0.9986619 0.99259794 0.9933456 0.99024725 0.9977245 0.99497974 0.98906934 1.0072436
0.9817593 0.9915277 0.9928798 0.9896682 0.9910075 1.0109401 0.98747504 1.0038555

feature.2.bias f4 [16]
00000000: 39e3 d53b ea28 0a3b 4485 28bb 3b4c b1ba
00000010: 9b78 2b3b c3b8 cb39 c7f8 f8bb 2963 633a
00000020: 85ce 1dbc 7cfa a8ba ef93 febb 05bc b2bb
00000030: ce9e 3cbc 282f 103c 6199 89bb 13e6 dc3a
0.006527331 0.0021081516 -0.0025714198 -0.0013526747 0.0026164416 0.00038856835 -0.007598016 0.0008674139
-0.009631758 -0.0012892033 -0.0077691 -0.0054545426 -0.011512471 0.008800305 -0.0041991924 0.0016853235

feature.2.running_mean f4 [16]
00000000: 9654 cabe 646e c3be b037 f23e e693 a9be
00000010: 7391 3c3e e98f e53d 356b 173e ec29 09bc
00000020: d79a 653e 3a7f f0bd 6bef 663e ea6d 2c3e
00000030: f5fa e23c 8484 ae3c 31e0 b3be 0ef7 5b3c
-0.3951766 -0.3817016 0.4730811 -0.3312065 0.1841486 0.11209089 0.1478699 -0.008371811
0.22422348 -0.117430165 0.22552268 0.16838804 0.027707556 0.021303423 -0.35131982 0.013425602

feature.2.running_var f4 [16]
00000000: 07dd 823e f002 9d3e f610 af3e 12ac 443e
00000010: ed4f 1d3e 83ea 113d 3549 683e f19a 913c
00000020: 6154 063e a8e7 4a3d d94c 143e eaea d53d
00000030: 7e14 0c3c 4ddb 9c3d 1bbb 9a3e e9de 703d
0.25559255 0.30666304 0.34192628 0.19206265 0.1536252 0.03562404 0.22684176 0.017774077
0.13118125 0.04953733 0.1448244 0.10445197 0.008549808 0.07659016 0.30220875 0.058806334

feature.6.weight f4 [32, 16, 3]
00000000: b2ad ac3c dc55 06bd e6e6 f03c 5ed5 ccbd
00000010: b227 03be 1f54 01be f28d e93c 214c f73d
00000020: d19f 90bd e3d7 10bd 2ce9 a73c 42f8 083e
00000030: 9f7d 263c 0620 09be 9a22 f9bc 9917 e0bc
00000040: 8b20 bebd 0c69 eabc 5676 193d fb49 843d
00000050: c721 603d 4a0c b23d e55e c03b af97 e83d
00000060: b859 9b3d 5e95 59bd 267a e03c 0a1c 9ebd
00000070: 131a edbd 7428 d23d 2b20 c83c 69d2 ea3d
00000080: cf31 d03c d6db 213d 0bec 033e ff38 0bbe
00000090: d72d 2dbd 5c26 f63d 4e66 1b3d e68c 24bd
000000a0: 1a16 bb3d 47fc 55bd 6e68 59bb b929 983c
000000b0: 2eff a33d 5a59 8f3d 13a5 cb3d f674 15be
000000c0: aea0 e53a 3b5d 9dbd a693 4f3d 0bf0 a33d
000000d0: cf95 f8bc ea8e 2a3c 6d3a b9bd 4f44 d43d
000000e0: 3531 ff3d 3453 cc3d 23a0 cb3d cfac 56bc
000000f0: 636d a03d 41a4 a6bd d432 0e3e b81e 2bbd
00000100: 2028 013d fd1b eabd d0ed 9dbc 9bf9 89bd
00000110: 537b ae3c a49e e4bb 870c 08bc c74b 1f3d
00000120: 034c e83d 3796 b5bd 9b95 dcbd d543 ff3d
00000130: 9e89 ccbd 114a 80bc 9578 483c 84d7 163e
00000140: 6dcd 54bd aa3c 03be 0851 d6bd 4e84 fa3d
00000150: b7df b3bd 0589 083e 4649 a93d 8cbb dd3d
00000160: 5d6f 82bb d74f 79bd 9f62 b23d 67e8 acbd
00000170: 0583 883c 0f73 8e3c e951 4f3d 098d 083e
00000180: 4c09 2b3c c89e 86bd 8aa4 94bd 93a4 9dbd
00000190: 0c9b 323c fd37 89bd 6781 ed3c 953f 9d3c
000001a0: 3026 9a3d 6289 e43d 1dd2 af3d 553e f6bd
000001b0: 3a7f 50bc 60cd 2bbd db23 be3d f631 d6bd
000001c0: bcfc 293d a7d7 abbc c496 56bd ac1c 99bd
000001d0: eba3 ccbd 98d2 06be 8a00 c83c 57d3 97bd
000001e0: 8adf 0bbd 3008 fcbd b9d0 c9bd 1f83 eebd
000001f0: 9c13 cdbd 7b01 56bd 360a a63d f5fd 67bb
00000200: 5ebe e7bd a244 c2bd e9e2 88bd 54d4 e1bd
00000210: eab8 48bd 125f fbbd 31f8 0a3e ae73 33bc
00000220: e607 89bd 5873 c7bd ec06 95bd 3d09 973d
00000230: 56ac ef3d 62ce ba3d e5ee 93bd 40cd 283d
00000240: aa78 7f3d 6143 b13d a90e 9dbc ca4a bdbc
00000250: 1394 4b3d 739a 3c3d f6c7 18be 02d0 ddbd
00000260: 4310 00be 4b8c 073e 2e48 00bc c1b1 a9bc
00000270: cce8 14be 56ef d5bd 7f5b 4dbd 3641 9e3d
00000280: ca72 a93c 5ddb 873d bb82 fbbd 8cb8 013e
00000290: 8025 7a3d c7fe 92bd 2298 113d 13fa 803d
000002a0: da3b d23d 50ae 0cbe 96cd 5ebd 5136 b5bc
000002b0: a36b a93b 9066 053b 85fd 043e 60f8 0fbb
000002c0: 23f4 613d 32db 97bd 5c9e 043e b751 043e
000002d0: 9a10 04be 5c1a 09be 17d3 073e 90a6 273d
000002e0: 42d1 23bd f96d 1f3e 69f3 813d 097a 8b3d
000002f0: 081a aabd 13db 903d 884c 38bc 5d54 203c
00000300: 2a79 0d3d 8092 ec3b 058d b33d 8ba9 903d
00000310: da55 2d3d 76e0 1b3d 9df4 9b3d 9a31 be3d
00000320: f2b5 443d 7e7d 2bbc 67c5 fabd a548 b8bb
00000330: f430 89bd 6616 c6bd d3dc 9b3d 920f eebd
00000340: 5572 91bd a4ca 373c a0b2 273d c63f 043e
00000350: cf1b 483c 73d0 153e b6df f9bc 0f9d e6bc
00000360: 15ed 6fbd 5f02 d33d 7496 f8bd e1f3 1e3d
00000370: b234 593d 1fe1 afbc d591 60bd aac0 f5bd
00000380: 1cdb 11bd 4223 c8bd 8a1f e63c 64a2 943c
00000390: 21e6 a6bd 1735 1f3c 7ad1 0abe 73a8 e03c
000003a0: 046a ddbd 8f98 683d 49eb f3bc da3c b03c
000003b0: 73f4 eebd 8712 003e efc1 86bd 9144 713c
000003c0: 93ee 66bd 503d a23d fa52 04be 72d9 073e
000003d0: cbf9 01bc 7904 053e 9131 6ebd ebb7 b73d
000003e0: 2454 163b eca3 a43d 9bfa 0a3d c0bf 3cbd
000003f0: fcd2 003e 8383 503b 07fc 5bbd 2d6a 1b3d
0.021078918 -0.032796726 0.029406976 -0.10001634 -0.12808111 -0.12629746 0.028510068 0.12075067
-0.070617326 -0.035362136 0.020496927 0.13375953 0.010161786 -0.13391122 -0.030412007 -0.027355002
-0.09283551 -0.028614543 0.03746637 0.06459423 0.054719713 0.0869375 0.0058706873 0.11357056
0.07585472 -0.053120963 0.027401995 -0.07720192 -0.11577239 0.10261622 0.024429401 0.11465914
0.025414376 0.039516293 0.12883012 -0.13595961 -0.042280044 0.12019035 0.037939362 -0.040173434
0.09135075 -0.052242544 -0.0033173817 0.018574582 0.08007656 0.06999464 0.09943595 -0.14595398
0.00175192 -0.07683798 0.050677918 0.08004769 -0.030344872 0.01041005 -0.09044347 0.10364591
0.12460557 0.09976807 0.09942653 -0.013102724 0.07833364 -0.08136798 0.13886577 -0.041777343
0.031532407 -0.114311196 -0.019278437 -0.067370616 0.02129904 -0.0069769192 -0.008303768 0.038890626
0.11342623 -0.08866542 -0.107707225 0.1246411 -0.09987186 -0.015660318 0.01223578 0.1473065
-0.05195372 -0.1281611 -0.10464674 0.12232266 -0.087829046 0.13333519 0.08265929 0.10826787
-0.0039805607 -0.060867157 0.08710217 -0.08442765 0.016664037 0.017388849 0.050615225 0.1333505
0.010439228 -0.06573254 -0.07257946 -0.07697406 0.010901224 -0.06700132 0.028992368 0.019195357
0.07526815 0.11159016 0.08584998 -0.12023608 -0.012725646 -0.041943908 0.09284183 -0.10458748
0.041500792 -0.020976854 -0.052389875 -0.07476172 -0.09992202 -0.13166273 0.02441432 -0.07413357
-0.03414873 -0.12306249 -0.09854264 -0.11646103 -0.10013506 -0.052247506 0.08107416 -0.0035399173
-0.113156065 -0.09485747 -0.06683905 -0.110268265 -0.049004473 -0.122739926 0.1357124 -0.010952873
-0.0669096 -0.09738797 -0.07276711 0.07374809 0.11702792 0.09121396 -0.072233 0.041211367
0.062370934 0.0865543 -0.01917203 -0.023106951 0.04970176 0.04604573 -0.14920029 -0.1083069
-0.12506203 0.13237111 -0.007829709 -0.020714642 -0.1454193 -0.1044604 -0.050136086 0.07727282
0.020684619 0.06633637 -0.12280794 0.12668055 0.06107092 -0.07177501 0.035545476 0.06297698
0.10265322 -0.1373837 -0.05439528 -0.022120627 0.005170302 0.0020355321 0.12987335 -0.0021968111
0.055164468 -0.07414855 0.12951034 0.12921797 -0.12896958 -0.13388962 0.13264118 0.04093033
-0.039994486 0.15569295 0.06345255 0.06810386 -0.08305746 0.07073035 -0.011248715 0.009785739
0.03453938 0.0072196126 0.08767132 0.07063588 0.042318203 0.03805586 0.07615016 0.092868045
0.04802508 -0.010466931 -0.12244683 -0.0056238943 -0.0669879 -0.09672241 0.07610478 -0.116240636
-0.07101885 0.011217747 0.040941834 0.12914953 0.012213661 0.14630298 -0.030502182 -0.028151063
-0.05857571 0.103031866 -0.12138072 0.0388068 0.05302877 -0.02146965 -0.054826576 -0.119996384
-0.03560935 -0.0977235 0.02809121 0.01814384 -0.08149362 0.009717247 -0.13556471 0.027424073
-0.108112365 0.056786116 -0.029775279 0.021513391 -0.11667719 0.12507068 -0.06579959 0.01472582
-0.056379866 0.07921851 -0.12922278 0.13266543 -0.00793309 0.12989987 -0.05815274 0.089706264
0.0022938335 0.08039078 0.033930402 -0.046081305 0.12580484 0.0031816668 -0.05370715 0.037943054

feature.6.bias f4 [32]
00000000: 0f1f 4cbd afa3 d3bd 9154 033e 1d16 e33d
00000010: 7b76 dbbd 3c25 11be 9eaa 82bd 8b59 a03b
00000020: 5de1 b0bd bfe6 f6bd 7cc2 043e b27b a2bd
00000030: 637c b2bd faeb 053c 3bea a73d 1001 91bd
00000040: d2ef 463d f7d6 1f3c 0ee0 cd3d 57dc 32bc
00000050: c2f5 a93c e9a1 963d 1d56 bb3c a348 fbbd
00000060: 0d0a 053d be08 1a3d 7657 ff3b 75ac e13d
00000070: 7063 0bbe eb9b b73d bcf8 35bc 1ab9 f23b
-0.049834307 -0.103339545 0.12825228 0.11088202 -0.10715958 -0.1417436 -0.06380199 0.004893487
-0.08636735 -0.1205573 0.12964815 -0.07933749 -0.08715131 0.008173937 0.08198973 -0.07080281
0.048568554 0.009755841 0.10052501 -0.010916791 0.02074707 0.07355101 0.02286821 -0.12269714
0.03248029 0.037605993 0.0077924086 0.11019222 -0.13612151 0.08965286 -0.011106666 0.0074073197

feature.8.weight f4 [32]
00000000: 3a8c 7a3f da23 803f 0320 7f3f ef5f 7f3f
00000010: c118 7d3f dd06 7d3f 015a 7d3f f3d5 7d3f
00000020: ef16 7e3f 5c7e 7b3f 270a 803f ebb2 7c3f
00000030: ab47 793f 2430 7c3f 4250 803f c2cf 793f
00000040: 051b 7c3f ef01 7a3f 643e 793f a48b 7d3f
00000050: 3141 7d3f d411 803f 21ec 7d3f eaba 7b3f
00000060: 6553 7d3f 23e2 7e3f 8345 803f 7da5 7b3f
00000070: a6c3 7b3f 604e 7a3f d13e 7f3f fc2d 7c3f
0.9787022 1.0010941 0.9965822 0.9975576 0.98865896 0.988386 0.9896546 0.99154586
0.99253744 0.98239684 1.0003098 0.9871051 0.9737498 0.98510957 1.0024493 0.9758264
0.9847873 0.976592 0.97360826 0.990412 0.989276 1.0005441 0.9918843 0.98332083
0.98955375 0.9956381 1.0021213 0.9829939 0.9834541 0.9777584 0.99705225 0.98507667

feature.8.bias f4 [32]
00000000: 8663 8fbc 0278 ba3a bdbb f33b 741d b43a
00000010: 3a47 0dbc f264 21bc 962a 9cbb b7ff 0f3b
00000020: 8fe8 243b f0ba 2ebc d710 473c 374f dabb
00000030: bf00 b5bc 0e2b bebb aac4 393b d305 8cbc
00000040: 2e1b 08bc e7fe 79bc fc3f a8bc d3e2 843a
00000050: c17f 3ebb a251 943a 9940 983a 1832 5ebc
00000060: 5aab 423a 2277 653b 5835 b73b fc95 95bb
00000070: db2c 15bc f4f0 91bc 56fc 003c 2b7a 30bb
-0.017503511 0.0014226439 0.0074381516 0.0013741688 -0.008622939 -0.009850727 -0.004765819 0.0021972486
0.002516303 -0.010664687 0.012150011 -0.006662275 -0.022095082 -0.0058034724 0.002834598 -0.017092621
-0.008307261 -0.015258527 -0.020538323 0.00101384 -0.0029067846 0.0011315832 0.0011615931 -0.013561748
0.0007426046 0.0035013636 0.005591076 -0.0045649987 -0.009104933 -0.01781509 0.007872662 -0.0026928287

feature.8.running_mean f4 [32]
00000000: 114e 313e ce4f 9a3e aad2 33bf 0b36 773e
00000010: 5e9a adbe 6453 0f3e 0912 fcbd 0c33 df3d
00000020: c392 85be 23c4 12bd e5af 09bf 6295 65be
00000030: 80c8 6cbe eaa8 03bf fa6e b23e d5ae ffbe
00000040: 1fb9 b9be ea55 87be 271b e7be 0d6a 94be
00000050: af76 143f 8c00 3d3e b329 93bd cb8b 933e
00000060: 92cf ad3d 2aa5 e8be bcc7 853b 6373 9ebe
00000070: ca02 edbe 37d9 a0be 70c5 c4be 0c93 0a3e
0.17314936 0.3013901 -0.7024332 0.2414171 -0.33906835 0.13996655 -0.123081274 0.10898408
-0.26088533 -0.03583158 -0.5378402 -0.22420266 -0.2312336 -0.5142962 0.34850293 -0.49938074
-0.3627405 -0.26432735 -0.45137903 -0.2898716 0.57993597 0.1845724 -0.07185688 0.2881759
0.084868565 -0.4543851 0.004082648 -0.30947408 -0.4629119 -0.31415722 -0.38431883 0.13532656

feature.8.running_var f4 [32]
00000000: ad80 a43e 3b6a 103f 41b1 473f 65ee 0c3f
00000010: 573d 1c3f 4b86 7a3e 74dc cd3e 0604 ae3e
00000020: ac36 b73e ed5b 843e ee26 4a3f 65ef 9c3e
00000030: 39be a73e 318a 213f 0e37 083f 0d69 4a3f
00000040: 18c0 de3e 214e c13e 2f9f ed3e 0529 b53e
00000050: 9de7 163f 1fc2 aa3e 8965 b23e 1336 8f3e
00000060: c0d3 c23e f161 023f b142 ae3e a50c dd3e
00000070: fd21 0b3f d041 003f 1cfc 143f 54d4 c13e
0.32129422 0.56412095 0.78004843 0.5505126 0.610311 0.24465291 0.40207255 0.33987445
0.357839 0.25851384 0.7896565 0.30651394 0.32762316 0.6310149 0.53209007 0.79066545
0.4350593 0.3775492 0.4641051 0.35382858 0.58947164 0.33351228 0.3484309 0.27970943
0.38052177 0.50930697 0.34035257 0.4317371 0.54348737 0.5010042 0.5819719 0.37857306

classify.0.weight f4 [32, 64]
00000000: 81c6 95bc 4fcf 9ebd 7c4e b83d ec0b 96bc
00000010: d3b4 5e3b fb12 ddbd a26d f43b ba52 30bc
00000020: d84c a8bd 6ceb bdbc c9e6 6abd 35e1 37ba
00000030: b9ac 50bc d0d0 f53b bda2 9d3d ceba af3d
00000040: 2249 753d 8833 123c 11aa 18bd 1f30 eabd
00000050: 3ac2 b8b8 1499 31bc 8bc0 bf3c 5664 213d
00000060: 9b80 693c e773 17bd 46bf 983d ad66 d83d
00000070: 1d2f e33c 4515 5abd 7005 823d 8c1c bdbd
00000080: d56d b9bd 5fe6 86bc 670a a2bd 1246 863d
00000090: fbe4 ab3d 090b c63d 4f3b d1bd 029e 863d
000000a0: 1d59 ad3c debb 68b8 dfac 8dbc e01b 093e
000000b0: fcf6 5fbd f335 3c3c e02e a3bd 7e67 e83d
000000c0: b4a8 303d bfe3 ec3d 7de6 b53c 7962 3d3c
000000d0: f0d4 d9bd 181a 443c c8ac 283d 0a02 5ebd
000000e0: 1191 3cbc b898 b33d 74fb d1bd 5eae c7bc
000000f0: 7042 d1bd a2d9 733d 88f5 e73d 9f70 9cbc
00000100: 3752 c23d 7092 f2ba 9dae 933d 7177 a0bd
00000110: 4e24 f93c cc02 cebb 6929 0dbd 2a4d dc3c
00000120: ddc3 f0bc 84b5 25bc b37d e9bd 745b 6c3d
00000130: ec6a 15bc 8433 01be dd47 6f3d 92fd 253d
00000140: 9f82 ec3d d16e 0c3d f578 15bd a248 d4bd
00000150: 4357 e73d d8f7 b23d c97f 7bbc bd6e cabd
00000160: 79d0 b1bc 5a78 6bbd afe1 2f3d 37c4 0f3c
00000170: 19e1 e5bd d754 e4bd 8560 943d 3efc c3bd
00000180: 59c5 0d3c 5140 f03d 2baf 69bd 2187 8e3d
00000190: 5a32 833a eb3e f63c 68dc 8cbc b2fd be3d
000001a0: 408b 87bd 7b61 ad3d 36f8 1f3c 54ed 0abc
000001b0: ce8d 93bd 679e 1f3d 034c c2ba a0ab 743c
000001c0: f3f4 47bd 4e0e 33bd 1af0 30bd 03b9 d0ba
000001d0: cd3a bbbd 5760 c0bd e5c6 be3c 13f1 eebb
000001e0: 6e89 41bd 2f9a 98bd 9221 12bd 039d 64bd
000001f0: cd00 d3bd d823 bfbd 9999 40bd 950d a03d
00000200: b985 f13d 99ec ef3d 8196 c4bd 39ff 41bd
00000210: 8318 40bd 66cd 77bd 44fe 543c 7dcb e2bd
00000220: b239 b03d f762 9b3d 9cd3 743d 2b18 b33c
00000230: 3b4d 18bc be63 a03c fc50 d93c 1356 c73d
00000240: d24d f5bd f40c 2d3d 17cf 7abd d699 83bd
00000250: 2c8f 2d3d 3ab3 323c 074a a2bd aa95 debc
00000260: 1dcb ebbd 534b ef3d 7c28 853c 4179 bd3d
00000270: 467f 9cbb f40a 7cbd 9db1 7ebd 7896 a53d
00000280: 9fd3 63bd efac 5ebd 8aab 0ebd bfaa d63c
00000290: 019a 86bd 8dcc 703d fe7a dfbc 2d18 c3bd
000002a0: 715d 1739 c3de f8bb afcd f33d 53f1 bebd
000002b0: b914 d6bd e645 69bd fa02 993d b88a a83d
000002c0: 9114 23bd d477 d3bd 00e8 24bd 4883 ddbd
000002d0: 19f3 f63d 5c3f 96bb efc7 9fbc d691 eab7
000002e0: 30bb 953c 80cc 31bd 5300 debd 4339 fcbc
000002f0: 5cee bebd f8fb c4bd a189 923d 13a8 f23d
00000300: c9b0 423d 100b bebd 2e73 f83c f691 043e
00000310: 61ac 6c3d 9f2c 703d 5407 81bd dfbd 783b
00000320: fcd7 903d f60b b4bd c6f7 853d d842 943d
00000330: efa8 e3bd f8f4 14bd a346 d33d 21af debd
00000340: c526 8ebd 4e21 b93d 4ede f3bc 1cec afbc
00000350: 9e45 c23d 1936 21bd 4088 803d 1b15 0f3d
00000360: de97 a4bd ec12 963d 3258 ca3d 3333 fcbc
00000370: cdfb a5bc fa5f 843d 27e8 e33d 3415 2bbd
00000380: 2088 ce3d 33a7 abbd 4fe1 943b 32fb d93d
00000390: c7fc 80bd 1a6c d93d 7f86 b63b a788 99bd
000003a0: 88a2 61bd 7cdf c13d 318f 183d 6ee0 e33c
000003b0: 43ef fc3c 658b a3bd 5216 8cbd cf41 c93d
000003c0: 403f 8dbd d2a8 0b3c cce4 eb3d 6f91 f7bd
000003d0: 9c02 383d 3858 91bd 0b62 643d c887 79bd
000003e0: b20e f23d c1bf ddbc 374d 823d 2bbe e6bc
000003f0: a6ff d13d 3be1 e23c e002 27bd 8187 ed3d
-0.01828313 -0.07754385 0.08999345 -0.018316232 0.0033982291 -0.10794636 0.0074593583 -0.010761911
-0.08217782 -0.023183547 -0.057349 -0.00070144545 -0.012736493 0.007501699 0.076970555 0.08580552
0.059884198 0.008923419 -0.037271563 -0.114349596 -8.809981e-05 -0.010839719 0.023407241 0.03940233
0.014251853 -0.036975767 0.074583575 0.10566459 0.027732426 -0.05324294 0.06348693 -0.092339605
-0.09054152 -0.016467271 -0.0791214 0.065563336 0.08393284 0.096700735 -0.1021639 0.06573106
0.021160657 -5.5488075e-05 -0.017294345 0.1338954 -0.054678902 0.011487472 -0.07967925 0.113478646
0.043129638 0.115668766 0.022204632 0.011559122 -0.10636318 0.011969112 0.041180402 -0.054201163
-0.011509196 0.08769363 -0.10253039 -0.024375137 -0.1021775 0.059533723 0.11326128 -0.01909667
0.094883375 -0.0018506777 0.07211039 -0.07835282 0.03041282 -0.0062869545 -0.03446332 0.026892263
-0.02939027 -0.0101140775 -0.11400928 0.057704404 -0.00911973 -0.12617308 0.058418144 0.040525027
0.115483515 0.03428537 -0.036492307 -0.10365416 0.11295941 0.08738679 -0.015350291 -0.09884403
-0.021705853 -0.057487823 0.042939838 0.008774809 -0.112245746 -0.111489944 0.07244972 -0.09569596
0.008653008 0.117310174 -0.05705182 0.069593675 0.0010009513 0.030059299 -0.017194942 0.09325732
-0.06618357 0.084658585 0.009763768 -0.008479435 -0.072047815 0.038969424 -0.0014823679 0.014933497
-0.048817586 -0.043714814 -0.04319773 -0.0015924278 -0.09142075 -0.09393375 0.0232882 -0.007291922
-0.047250204 -0.07451283 -0.035676546 -0.0558138 -0.10302887 -0.093330085 -0.047021482 0.078150906
0.11793084 0.11715049 -0.09599019 -0.04736254 -0.046898376 -0.060498618 0.013000075 -0.110739686
0.086047545 0.075872354 0.05977212 0.02186211 -0.009295757 0.01957881 0.026527874 0.09733214
-0.11977734 0.04224868 -0.061232653 -0.06425826 0.042372867 0.010906989 -0.07924276 -0.027170975
-0.1151335 0.11684289 0.016254656 0.09251643 -0.0047759144 -0.061533883 -0.062181104 0.0808534
-0.05562174 -0.05436414 -0.03483156 0.026204465 -0.06572343 0.058788825 -0.027280327 -0.095260955
0.00014435292 -0.0075949146 0.119044654 -0.09323373 -0.10453171 -0.056951426 0.07471271 0.082295835
-0.039814536 -0.1032559 -0.040260315 -0.108160555 0.12058086 -0.0045851897 -0.019504515 -2.7962884e-05
0.018277735 -0.043407917 -0.108399056 -0.030789023 -0.09322807 -0.09618372 0.07155157 0.11848464
0.047531877 -0.09279454 0.03032836 0.12946305 0.05778158 0.058636304 -0.06300226 0.003795497
0.07072446 -0.08791344 0.065414 0.07239312 -0.11116206 -0.036366433 0.10316207 -0.10873247
-0.069409885 0.090395555 -0.02976909 -0.02147489 0.09485935 -0.039358232 0.062759876 0.034932237
-0.08036779 0.07327828 0.09880103 -0.030786132 -0.02026167 0.064636186 0.11128264 -0.041768268
0.100845575 -0.083815 0.0045434604 0.10643615 -0.062982135 0.10616322 0.0055702324 -0.074967675
-0.055086643 0.094664544 0.037245933 0.027816977 0.030875808 -0.07985572 -0.06840195 0.09827005
-0.068968296 0.008524137 0.11518249 -0.12088286 0.044924363 -0.070969045 0.055757564 -0.060920507
0.11819209 -0.027068974 0.06362384 -0.028166851 0.10253839 0.027695289 -0.040774226 0.11598111

classify.0.bias f4 [32]
00000000: d57e af3c dd9c 42bd 8639 af3d f84f e8bd
00000010: 9663 93bd 68d4 a0bd 77af 193d 97ab afbd
00000020: 0924 823d 53c7 db3d 6fc1 e8bd dca7 f9bd
00000030: 29a1 943b 3c91 d8bd 7884 90bd d22e 5bbd
00000040: 0782 b4bd c9a2 dc3d 07ce ca3d b3f7 4dbd
00000050: d9b8 47bc b006 933d 0f05 e8bc 4452 8ebc
00000060: 5de5 f33d ec9d ea3d a86a 62bd 6243 b03d
00000070: de2e b73b 95f9 00be 6689 7abd 35f6 bc3d
0.021422783 -0.047512878 0.085558936 -0.11343378 -0.07196729 -0.07853013 0.037520852 -0.0857765
0.063545294 0.107313775 -0.113650195 -0.1219022 0.0045358134 -0.10574576 -0.070565164 -0.05351145
-0.08813863 0.10773236 0.09902578 -0.050285053 -0.012190067 0.0717901 -0.028322725 -0.017373212
0.11908982 0.114559025 -0.055277497 0.08606602 0.005590304 -0.12595208 -0.06116619 0.09226648

classify.3.weight f4 [1, 32]
00000000: 0cab 563d 6571 00be 32a3 943d 6081 843d
00000010: 8dc9 e4bd b440 b4bd 8ba3 ebbd 7cf4 bc3d
00000020: 6317 d9bb c69a 303e cc36 eabd ce69 aebd
00000030: 99f5 59bd 77b0 203e 50d6 e13d 29a4 0ebe
00000040: e334 a1bd 3fe6 93bd d44b 1abe 3139 003e
00000050: 504e fb3c 86df 82bd 2059 c93d 62a5 a2bc
00000060: d3d8 863d 5336 003d b3c0 86bd f41a f5bd
00000070: 5304 29be 366c 82bd 05c7 ba3d 6965 a23c
0.052409217 -0.12543257 0.072576895 0.06469989 -0.11171255 -0.08801404 -0.11505803 0.09226319
-0.0066251024 0.17246541 -0.11436233 -0.085162744 -0.053212736 0.15692316 0.11027205 -0.1392981
-0.078714155 -0.0722165 -0.15067989 0.12521817 0.03067699 -0.0639029 0.09831452 -0.019854251
0.06584325 0.031301808 -0.06579723 -0.119680315 -0.16505556 -0.06368296 0.09119991 0.019823747
