Code/CNN/CNNOutputs/newTLbest_model.pth (torch, 63888 bytes, 15 tensors)

feature.0.weight f4 [16, 5, 3]
00000000: ee99 47bc 7dec 54bd 9719 f43c 5dc9 2abc
00000010: e022 2f3d e795 97bc e9fc 9bba bfd8 abbb
00000020: d631 9237 77f3 32bd d2b8 a23d c0ac 3ebd
00000030: 0790 0d3d 8c7c 2b3c 3cba fa3d 8b03 1bbb
00000040: 5085 423b 9b4b 82bc 20e6 9c3b 63cf 243a
00000050: 2bcd c03b 9085 663c ea93 7bba 8296 d4bc
00000060: ced7 553c 55fd 653b 6e0a 9c3b 408e f3bd
00000070: 5ea6 36bd 0190 813d cfd9 373b 9eab d73b
00000080: 558c c1ba 4ef8 403c 643c 22bb c0ba 0cbc
00000090: 13c5 f93b 8ed0 6ebc c23b c3bb bc56 8b3c
000000a0: 8c28 c0bc c6f9 b1bc ca97 3fbd 2d18 c1bc
000000b0: 99bd 8a3d 1c11 e5bb 6bb7 9bbb 1629 90bc
000000c0: 406c dbbc fa66 803c 1474 6a3d 4069 0f3d
000000d0: 6408 c4bc 80ee 5dbc 0b16 5dbb 2102 18bd
000000e0: 62ab be3d dad3 d5bd a570 adbd 0caf cebd
000000f0: 4800 1f3c 102d ccbc 5a5f 47bc b9c1 63ba
00000100: aeb2 253b 81f7 653c ecdd 5bbb 087c 9c3c
00000110: 8aff 303c 7345 473c cfb3 fc3b a50f 3ebc
00000120: 6175 a33c 9a2d 8d3d 0474 5c3d a24a f3bc
00000130: 7c51 04bd de3d a0bb 16a4 083d 9c22 0a3b
00000140: 9143 c33c e58b 45bd 9609 c5ba 7df3 033d
00000150: 9e5d 13bd 6eb5 db3c 1fcf a13c 3307 e33d
00000160: 7b38 213d b4f4 16bd 3896 06bd 820a ed3b
00000170: 1bb0 6f3c 156c 9e3c 6aaa debc 0f2c 2fbc
00000180: eb1e 9c3c 53ae 3a3b 3842 803c 60a2 9e3c
00000190: 1710 4ebd c96e 45bb f455 613c dd2d f93d
000001a0: d49c 883c 4aca 593b c31a 413c 2362 b93c
000001b0: 2e3d bebb a090 9dbc 79bd 17bc c967 303c
000001c0: d5b8 82ba dd32 253c eddc 7b3c 0588 143d
000001d0: b2b5 66ba 55ec 323c de59 6f3d fbba 843d
000001e0: b8f2 27bd 4827 713c c77e 623d 3cdb 8ebc
000001f0: bedc b1bc d413 6bbd 0597 e83c b989 0f3c
00000200: fbc3 443d 0f4d 893d 8579 d3bd cf3d a9bd
00000210: b3ee 49be 7518 593e 07ba 39bc 4ceb a4bc
00000220: cd3b 2ebc 5b25 953b c6d7 85bb c097 203c
00000230: aeb0 4e3b c08e 533a 36cc 18bd 642e 983c
00000240: bef6 263d e6db 87bc 079b 693d 2dc0 6d3a
00000250: dd00 d23d b4a6 59bc ece1 09bd edf4 51bd
00000260: c9d6 19bd 2a39 88bb 297a 093d bbac d5bc
00000270: 371a e83c 95db 853d 75a3 293d 1457 203d
00000280: d469 803d fff6 07bc e053 29be 4334 42bd
00000290: 99f0 223c adaf 363c 2d06 be3c e4c0 81bc
000002a0: e7ab 83bc 423e bbbb 7280 373d cc19 523d
000002b0: d1b4 92bb 783d b4bc 7698 d23c f4ba 5bbd
000002c0: a115 e13c d36f bebd 42b3 d5bd 09c6 95bc
000002d0: d53b 5abc 2871 363d 627e 7a3b 7611 ba3c
000002e0: d64e 78bc 5a96 89b9 d081 c23c 3807 8838
000002f0: 40f4 573d 030b 943d bbc2 86bd 87f7 6abd
00000300: 63d7 10be e1c8 03be cce6 043d 0a1a 76bc
00000310: 4bdd 893c ebf2 cabb ff7e 7abc fa1b 1fbd
00000320: 16cb 8cbc 05dc 92bc bdae 873c c2d7 993d
00000330: fad7 88bb 61e3 c9bc eb5a 823d 5149 35be
00000340: b91f 5bbd 1a19 633b d57a 313a ed31 cabc
00000350: 1805 c3bc 7c1a 06bb bf95 cb3c 7b0e 59bb
00000360: 25bf d63c b310 3dbc 4f88 b13c fafa 873c
00000370: 2b3f 013c cf64 49bc b05b 7b3b 6e7e 9b3d
00000380: 7554 353d 6be0 c73b c9d2 02bc b801 5dbb
00000390: 32fb eb39 4339 a13a 1f13 323b a661 093c
000003a0: 2b79 52bc 5d13 3abc 697d 833c b4d3 7cbc
000003b0: 59a5 1abc 55a9 82bd 5ed2 8d3d 713e b33a
-0.012182696 -0.051983345 0.029797358 -0.010423985 0.04275787 -0.018504096 -0.0011900935 -0.005244344
1.7427763e-05 -0.043689217 0.07945408 -0.046551466 0.034561183 0.010466706 0.12242553 -0.0023653235
0.0029681511 -0.015905192 0.004788175 0.00062870065 0.005883833 0.01406993 -0.0009596931 -0.025950674
0.01305194 0.0035093625 0.0047619855 -0.118923664 -0.044592254 0.06326295 0.0028053408 0.0065817377
-0.0014766554 0.01177795 -0.0024755234 -0.008589447 0.00762237 -0.0145760905 -0.0059580514 0.017009132
-0.023456834 -0.021725547 -0.046775617 -0.023571098 0.06774444 -0.006990565 -0.0047520897 -0.017597716
-0.026785016 0.015674103 0.057239607 0.035012484 -0.023929782 -0.013545632 -0.0033735062 -0.037111405
0.093100324 -0.10440798 -0.08468751 -0.10091981 0.009704657 -0.024923831 -0.01216873 -0.000868823
0.0025283503 0.01403606 -0.0033549024 0.019102111 0.010803113 0.012162554 0.0077118645 -0.01160041
0.019953432 0.068934634 0.05382158 -0.029698674 -0.032304272 -0.0048901876 0.03335961 0.0021077758
0.02383593 -0.048229117 -0.0015032764 0.03221463 -0.035977952 0.02681991 0.019752083 0.110853575
0.039360505 -0.03685446 -0.032858104 0.0072339186 0.014629389 0.019338647 -0.02718087 -0.010691657
0.019057712 0.0028485253 0.015656576 0.019364536 -0.050308313 -0.0030125848 0.013753403 0.12166951
0.016676344 0.0033232146 0.011786166 0.022629803 -0.005805633 -0.019234002 -0.009261482 0.010766932
-0.0009973297 0.0100829275 0.015372497 0.03626253 -0.00088008784 0.010920604 0.058435313 0.06480976
-0.04100296 0.014718838 0.055296686 -0.017438523 -0.021711703 -0.057391956 0.028392324 0.008760863
0.048038464 0.06704151 -0.103259124 -0.08263742 -0.19719963 0.21200736 -0.011335856 -0.02013173
-0.010634375 0.0045515723 -0.00408456 0.009801805 0.0031538415 0.00080702826 -0.037304126 0.018576808
0.040762655 -0.016584348 0.05703261 0.0009069469 0.10254071 -0.013284374 -0.03366272 -0.05125897
-0.03755835 -0.004157205 0.033563767 -0.02608334 0.028332813 0.065360226 0.04141565 0.039145544
0.06270185 -0.008298635 -0.16535902 -0.047413122 0.009945058 0.011150283 0.023196304 -0.015839048
-0.01607318 -0.005714209 0.04480023 0.051294133 -0.0044771214 -0.022001967 0.025707465 -0.05364509
0.027476134 -0.092986725 -0.10434581 -0.018282907 -0.013319929 0.044541508 0.0038222303 0.022713404
-0.015155515 -0.00026242697 0.02374354 6.48633e-05 0.05272317 0.07228663 -0.06580111 -0.057364967
-0.14144664 -0.12869598 0.032446668 -0.015020857 0.016829154 -0.006193509 -0.015289067 -0.03884504
-0.017186683 -0.01792718 0.016562814 0.07511856 -0.004176137 -0.024644556 0.063649975 -0.17703749
-0.05349705 0.0034652413 0.00067703176 -0.02468201 -0.02380614 -0.0020462563 0.024851678 -0.0033120203
0.026214192 -0.011539626 0.021671442 0.016599167 0.007888596 -0.012292101 0.003835421 0.07592474
0.044269998 0.0060997508 -0.007984825 -0.0033722948 0.00045009848 0.001230039 0.0027172042 0.008385098
-0.0128462715 -0.011357156 0.016051011 -0.015431333 -0.009438836 -0.06379954 0.0692489 0.0013675225

feature.0.bias f4 [16]
00000000: 4847 afbd 905c 2a3c 3682 bcb9 93d5 3a3d
00000010: 0223 afbc 85cf 173c 8221 56bd c28e 8dbb
00000020: fa29 a9bc 4aa5 75bd 3521 92bb 036f 283d
00000030: 99df 6a3d 7d47 c33c ab59 b2bd a12f 5dbb
-0.08558518 0.010398045 -0.0003595517 0.045613836 -0.021378998 0.009265785 -0.05227805 -0.0043199966
-0.020649899 -0.059972085 -0.004459525 0.041121494 0.057342146 0.0238378 -0.08708509 -0.0033750313

feature.2.weight f4 [16]
00000000: 7190 0c3e 6135 323e 0622 133e 8e35 433e
00000010: 918f cf3d f32c f43d 8dc9 e13d cf1e d13d
00000020: 177a 373e 92b3 ff3d 9930 093e e6e7 243e
00000030: 49c0 473e 44af 263e b4d7 1c3e 7f29 143e
0.13726975 0.17403175 0.14368448 0.19063398 0.10134805 0.11922636 0.11024771 0.102109544
0.17917667 0.12485422 0.13397445 0.16104087 0.19506945 0.16277796 0.15316659 0.14468955

feature.2.bias f4 [16]
00000000: dff7 fbbb f676 15bc c513 27bc caac e7bc
00000010: b4a0 30bc 3166 24bd b7ae 5bbd f06c 64bb
00000020: 2dfb ba3c e62b 5dbd eb1b 583c 9d58 16bd
00000030: 15de 14bd 073d d73c ac56 3abd 1f2f 403c
-0.0076894606 -0.009122601 -0.0101975845 -0.028280634 -0.010780502 -0.04013652 -0.053633418 -0.003485497
0.022824848 -0.053996943 0.01319025 -0.036705602 -0.036344606 0.026274217 -0.045492813 0.011729985

feature.2.running_mean f4 [16]
00000000: fcfe 1cbd a037 ccbc ece2 62bc 6212 11bd
00000010: e9f4 203d 3e57 373d 3bc8 f5bb 2734 8e3d
00000020: 2a91 59bd c20d 31bc 2b3d 13bd 0368 4ebc
00000030: 9be7 2bbb 5f7c 30bd 9a2e 0ebd c519 32bc
-0.03832911 -0.024928868 -0.013848048 -0.03541792 0.039296065 0.044760935 -0.007500676 0.06943541
-0.053116955 -0.010806503 -0.035947006 -0.0125980405 -0.0026230577 -0.04308736 -0.03471241 -0.010870402

feature.2.running_var f4 [16]
00000000: 2fa2 eb3b 3a15 923b 0c40 ed3a d48b 493c
00000010: 23a6 ba3b 4c5c 9b3b 4fe9 493b e769 323c
00000020: 9651 963c 2094 803b 31bc 183c 8519 0e3c
00000030: d136 3f3c abec b93c 282d 983b 2eeb b33a
0.0071909647 0.004458097 0.0018100752 0.012301404 0.0056960746 0.0047412273 0.0030809229 0.010889507
0.01834945 0.003923908 0.009322212 0.0086730765 0.011670784 0.02269586 0.004644055 0.0013726705

feature.6.weight f4 [32, 16, 3]
00000000: 647f 3e3c 91b8 4a3b 9b82 ab3b 5729 3ebc
00000010: 4351 b3bb c241 28bc c9a0 6abc 0b60 0b3b
00000020: 67be 82bc bd0a 73bc e216 eabc fcb0 85bb
00000030: c03b 0e3c 474d 52bc 7546 99bb 1f57 883c
00000040: 9d88 3bbc 77de 783c dcc1 df3b 2bbe 073c
00000050: 0587 ca3b f726 a4bb eee9 d03b c0b4 4cbb
00000060: 6cd0 fd3b d855 a23c 2252 cabc 530c af3c
00000070: 9f95 ee3b 58c0 18bc 5f5c 013c 67c3 1f3b
00000080: 533c bdbc 7fa1 bdbc b72e b0bc 5863 3e3c
00000090: 6a96 06bd 11b4 85bc ba05 5c3b 8b08 b3bb
000000a0: 6fda 0f3a a1d5 afbc 373a a73c fcda 643c
000000b0: 41e8 683c a1c2 603c c652 293c 98ec c3bc
000000c0: 2934 373c 97ef 3abc adea b93c d16f 3fbc
000000d0: 7a09 943b aacf 98bc e17d b7bc a046 cebb
000000e0: 382c 75bc d25d 273c cd2d a2bb 4c5f 17b9
000000f0: 10b4 173c e11e 873b 3325 6c3c 7d6f b23a
00000100: 4877 74bc 56cd cdbb be41 393c f2ec 073d
00000110: 1bbd 3abb 4ceb 543c fef7 b83c 0ae7 2938
00000120: 68de 80bc 07ad 12bb 13b6 b5bc 5b43 e83c
00000130: 9c08 723b 5425 913c c065 79bc dbb5 fabb
00000140: 6b28 d3bc 79b0 11bc 515e 02bc 0a90 c2bb
00000150: c650 05bc d83f 93bb d92f babb dcee 38bc
00000160: 9b28 01ba 450e efbc a7f2 163c f022 463c
00000170: d2e8 223c 3012 11bc 8527 9ebb d9b6 c0bc
00000180: 8793 8b3c ade1 373c 1a03 77bc 5b9f bb3a
00000190: a6ab bdbc ef8a 03bc 6378 e93a b8b8 d3bb
000001a0: 7edc 9bbc f793 0fbd 13ec bcbb 38e1 663c
000001b0: 4a3f b5ba eff0 f23b 4011 27bc 8155 b7bb
000001c0: deea 083c 607a 123c 10c7 443c 60b3 ccbb
000001d0: 7afe c03a f636 9a3b bfb8 043c 5ebe a3bc
000001e0: 268c 883c bf00 073b c410 e5bc 206d 42ba
000001f0: 4ab4 f6bb bd3b b93a 0549 ba3c b15c c4bb
00000200: 244c edbc 46a8 a8bc 4ff4 aeba b771 273c
00000210: 93a9 5bbc 9af4 a2bb 340a cd3a 089c 933b
00000220: 5737 78bc 93c1 80bb da5d 1f3c f900 463c
00000230: d61c 903a 7845 8f3c 3aeb aa3b 3358 a7bc
00000240: 5616 413b ae3c 65bb 5c27 e1bb e9e0 79bb
00000250: 10a6 11bd a788 1dbc 6eb5 0bbc 620e 6bbc
00000260: eea6 89bc 1c4d 85bc 3859 3bbc 77fb e33b
00000270: 883c 463c 6ce9 a53b 6b9c 23bc 9709 4bbb
00000280: 4fd7 053c ab76 c0bb 71f1 943c c231 54ba
00000290: a40d 76bc bd91 143b 8e83 a43b b9f8 27ba
000002a0: 2e91 733b 2dbb e1bb 37b4 d3bc 9fcb e53b
000002b0: 669d b73a 8053 95bc a6a6 6ebb 4a8e 80bc
000002c0: 0603 d0bc c121 3cbc 8a89 79bc 8ef2 243b
000002d0: 81a3 17bc 8958 21bc 9c10 013a 1bbc e5ba
000002e0: ebff 17bd ed58 2abb 3e5c 2d3c 2ec4 5b3c
000002f0: 76ea dd3b 1934 423c 938f 3c3a bf76 cdbc
00000300: ea66 afbb af6d 353c d6db 11bb 8e41 0e3b
00000310: 2859 193b 3fb1 413d 65cf 353c a705 26bc
00000320: 304f 053d f29b 493b ffeb c73a d034 053d
00000330: 9ffa 23bc 8503 f8bb ae68 97bb da6d 9fbb
00000340: 6bf9 f4bb f268 bdbb 99ea 95bb 8eac 393b
00000350: 72fa 9ebb 1680 7cb9 63b6 29bc cd10 2ebb
00000360: 112d 9d3b cd29 dfb9 079a 963b 8b13 f6bb
00000370: eac1 a339 3e20 1dbb 78ce 9bbb 6c73 2dbc
00000380: f7e7 123c ac71 803c 29a2 683c ab79 203d
00000390: 4dff 793c 83ce 093b aea8 243d f5a6 20bc
000003a0: 15c2 8c3b d648 c63c cf49 5b39 6afe 3b3c
000003b0: 0e6e ee3b 87fd 243c 60e8 263b 6c7a d53b
000003c0: 3f6c 66ba 1cd2 1f3c 7344 14bc 03a4 54bb
000003d0: 1bc5 043c edca 183d 2f52 ef3b 0894 bcb9
000003e0: 3e36 173d 0364 04bc 0d62 ec3b 5cba d33c
000003f0: a129 debb 8067 2bbc 2b66 81bc 997f 91bb
0.011627052 0.0030932764 0.0052340752 -0.011606536 -0.0054723336 -0.010269584 -0.014320561 0.0021266963
-0.015959932 -0.014834103 -0.028575365 -0.004079936 0.008681238 -0.012835807 -0.0046775886 0.016643105
-0.011446145 0.0151897585 0.0068285298 0.008285086 0.0061806464 -0.005009528 0.006375543 -0.0031235665
0.007745793 0.019816324 -0.024697367 0.021368181 0.00728102 -0.009323202 0.007895558 0.0024377943
-0.023100054 -0.023148296 -0.02150665 0.011620365 -0.03285829 -0.016321214 0.003357275 -0.005463665
0.0005487566 -0.02146417 0.020413501 0.013968226 0.01421553 0.013718278 0.010334676 -0.023916528
0.01118187 -0.011409662 0.02269491 -0.011684374 0.0045177313 -0.01865371 -0.02239889 -0.0062950402
-0.014964156 0.01021524 -0.0049493075 -0.00014435983 0.009259239 0.004123554 0.014413166 0.0013613548
-0.014921017 -0.0062805815 0.011307178 0.033184953 -0.0028494063 0.012995552 0.02257919 4.050791e-05
-0.015731052 -0.0022380964 -0.022181546 0.02835243 0.00369314 0.017717995 -0.015222013 -0.0076510734
-0.025776109 -0.008892172 -0.007957057 -0.005937581 -0.008136934 -0.0044936948 -0.0056819734 -0.011287417
-0.000492701 -0.029181609 0.009213126 0.012093291 0.009943204 -0.008854434 -0.0048264884 -0.023524689
0.01703812 0.011223239 -0.015076423 0.0014314459 -0.023153137 -0.00802873 0.0017812367 -0.006461229
-0.019026037 -0.03505322 -0.005765447 0.014091782 -0.0013828066 0.0074139754 -0.010196984 -0.0055949097
0.008356778 0.008940309 0.012010351 -0.006246969 0.0014724277 0.004706259 0.0081006875 -0.019988235
0.01666839 0.002059981 -0.027962096 -0.00074167736 -0.0075288163 0.0014132183 0.022739897 -0.005992495
-0.02896697 -0.020588052 -0.0013347956 0.010219983 -0.013407129 -0.0049730064 0.00156433 0.0045046844
-0.015149913 -0.003929326 0.009726966 0.012085193 0.0010994922 0.01748918 0.0052160295 -0.020427799
0.0029462776 -0.0034978795 -0.006871147 -0.0038128442 -0.03555876 -0.0096151 -0.008527143 -0.014346691
-0.016803231 -0.01627212 -0.011434846 0.006957467 0.012099393 0.0050632264 -0.009986023 -0.0030981058
0.008169009 -0.0058735213 0.018181534 -0.00080945727 -0.015017901 0.0022669875 0.0050205654 -0.0006407607
0.0037165391 -0.006888768 -0.02584277 0.007012799 0.00140087 -0.018228292 -0.0036415248 -0.015692849
-0.025392067 -0.011482657 -0.015230546 0.0025168988 -0.009255291 -0.009847769 0.00049234345 -0.0017527373
-0.037109297 -0.0025992945 0.010581074 0.013413472 0.0067723347 0.011853241 0.0007193025 -0.025081037
-0.0053528445 0.011073514 -0.0022256277 0.0021706554 0.0023399089 0.047288176 0.01109681 -0.010133184
0.032546222 0.0030763117 0.0015252827 0.03252107 -0.010008483 -0.007568779 -0.004620633 -0.0048653902
-0.007476022 -0.0057803327 -0.0045750854 0.002833161 -0.0048516328 -0.00024080309 -0.010358426 -0.0026560307
0.004796632 -0.00042565019 0.004595998 -0.007509654 0.0003123426 -0.0023975517 -0.0047548376 -0.010586601
0.008966438 0.015679203 0.014198818 0.03917853 0.015258622 0.0021027632 0.040199928 -0.009805431
0.0042955973 0.024204653 0.00020912963 0.011474231 0.007276303 0.010070211 0.0025468096 0.006514838
-0.00087899336 0.009754684 -0.009049523 -0.0032446391 0.008103634 0.0373029 0.007303498 -0.00035968446
0.036916964 -0.008080485 0.007213837 0.025845699 -0.006779865 -0.010461688 -0.015795788 -0.0044402597

feature.6.bias f4 [32]
00000000: 1773 83bc 4c3f 4c3c 747d 36bc 84c8 c63b
00000010: fa9c 0cbc e9aa 49bb c8a6 27bc f3e2 103b
00000020: 2594 6dbc 9f54 553a d072 d1bb d680 d0ba
00000030: f974 0d3a d80b 323c 700b b6b8 abe2 963c
00000040: c157 32bb c3a3 37ba ef7f 57bb 6919 e03c
00000050: 32d2 c33c c7d8 94ba 4e3e 003c f3ef 4b3c
00000060: 3ac8 19bb 2a78 e0bb 6240 a53b 01e4 87bc
00000070: ed96 37bc 68dc bfbb bd86 cf3b f5f9 d53b
-0.01604609 0.012466263 -0.011138309 0.006066384 -0.008582348 -0.0030772036 -0.010232635 0.0022107929
-0.014500652 0.00081379147 -0.0063918605 -0.0015907537 0.00053961534 0.010867082 -8.680567e-05 0.01841863
-0.002721295 -0.00070052984 -0.003288265 0.027355867 0.02390394 -0.0011356109 0.007827355 0.012447345
-0.0023465292 -0.006850262 0.0050430754 -0.016588213 -0.011205417 -0.005855132 0.0063332007 0.0065300413

feature.8.weight f4 [32]
00000000: 67fc 1e3e 0739 223e d705 0e3e f87e 0a3e
00000010: a566 723e 62f5 6f3e c5c2 6c3e 2e3e 003e
00000020: 7316 183e 4960 1e3e 7a82 5e3e d2dd 6e3e
00000030: 1d11 743e a84c 383e 63fd fe3d b803 2b3e
00000040: 595b f33d 329a 1c3e 23df 0f3e 252c 313e
00000050: a304 293e 3343 2d3e 5a9b 4e3e c7e4 2b3e
00000060: a7a9 0e3e 9c9d 213e 2a2b 023e 5bb4 273e
00000070: 29af 7f3e beb1 383e b763 0d3e 5d38 0e3e
0.15525971 0.15842067 0.13869415 0.13524997 0.23671968 0.2343345 0.23121174 0.1252372
0.14852314 0.15466417 0.2172946 0.23326805 0.23834653 0.17997992 0.124506734 0.16700637
0.118826576 0.15293196 0.14049964 0.17301996 0.16505675 0.16920166 0.2017645 0.1678649
0.13931905 0.1578278 0.12711778 0.16377394 0.24969162 0.18036553 0.1380757 0.13888688

feature.8.bias f4 [32]
00000000: 1a26 d63c ff51 043d 73fd af3c b59d d93c
00000010: 7edb 7e3d 266e 5a3d 0a8a 6d3d a081 de3c
00000020: 6669 b63c 877e 2b3d 1958 673d 3da9 1d3d
00000030: 122d 423d b205 113d c3d5 103d be8b 123d
00000040: 7880 243d 0c86 0c3d 2583 073d 577f 1b3d
00000050: c0d1 163d cab0 473d 95cc 423d e566 cc3c
00000060: e6d8 f93c a53b d23c 8707 283d cc73 783d
00000070: 43fa 883d 75ca 583d 39a9 0f3d 47d3 183d
0.026141215 0.03230476 0.021483159 0.026564458 0.062221043 0.053327702 0.057992972 0.02716142
0.022267055 0.041868713 0.0564805 0.038491476 0.047406264 0.035405822 0.03536011 0.0357778
0.04016158 0.034307525 0.033084054 0.037963238 0.036821127 0.048752584 0.047558386 0.024951408
0.030498933 0.025663206 0.041022804 0.060657308 0.06688359 0.052927453 0.035073493 0.037310865

feature.8.running_mean f4 [32]
00000000: aa68 e8bc e1f7 9bbb 43d3 a9bc eed9 8dbc
00000010: a209 3a3c 7027 7a3c 23a9 583c 8ea2 8c3b
00000020: b94d aebb 8e50 863b 9606 ae3c 001e 833b
00000030: 4f17 863c 0f78 173c 1334 8a3b bba5 67ba
00000040: 73b7 05bc bcb6 653a 01cb 033b 731b dfbb
00000050: ba5c c2bb ce75 303c 7221 823c 7cf0 08bc
00000060: eb9e 8cb9 c6bf 80bc 26a1 773c 7f81 5b3b
00000070: 6bce 813c 33d3 7b3c bf73 45bc 2ee8 0f3b
-0.02837022 -0.004759774 -0.02073062 -0.017315831 0.011354836 0.015268192 0.013223919 0.004291839
-0.005319324 0.0040989583 0.021243375 0.004001379 0.016368536 0.009244933 0.0042176335 -0.00088366464
-0.0081614135 0.0008762886 0.0020110013 -0.006808692 -0.005931464 0.010770274 0.015885089 -0.008358117
-0.00026821284 -0.015716445 0.015114104 0.0033493934 0.015845498 0.015370178 -0.012051522 0.0021958458

feature.8.running_var f4 [32]
00000000: b15f 963a 45bc b039 0159 323a f6d8 1d3a
00000010: 6141 193a ae26 273a e461 333a a301 4939
00000020: 7d72 4739 89a6 8039 1287 683a f083 e039
00000030: a3f9 313a 9182 c239 cd1f 3039 b4a2 a539
00000040: a930 6839 8f24 a539 429b 9539 beb2 f639
00000050: 43e2 013a 2499 c039 7592 0e3a b9b9 083a
00000060: 4cfc 7f39 31c5 253a 3d69 c139 05f2 c639
00000070: 7e97 543a 25ea d639 a6ff 013a c798 4a39
0.001147261 0.00033709608 0.0006803424 0.00060214044 0.0005846229 0.0006376308 0.0006842895 0.00019169463
0.00019020769 0.0002453814 0.00088702247 0.0004282291 0.0006789213 0.00037099843 0.00016796515 0.00031592476
0.00022143371 0.0003149849 0.0002853517 0.0004705395 0.0004954675 0.00036735192 0.0005438694 0.0005215663
0.00024412683 0.00063236343 0.00036890237 0.00037945822 0.00081097323 0.00040991712 0.0004959054 0.00019321135

classify.0.weight f4 [32, 384]
00000000: 9157 92bc 3b2b 82bb dfa5 213d 3971 ffbb
00000010: cc0d 9a3c f210 a7bb 6788 0bbd 3eb5 0cbd
00000020: dde8 753c d3cf 3fbc 0f2a 473c a11a 0c3d
00000030: ba11 993c 1e16 bdbb adeb 623c 8271 533c
00000040: 8f68 be3a 3788 afbb df40 a1bc 9892 5f3d
00000050: 5be0 15bc 9065 363d b82d 14bd 9411 1dbd
00000060: 72e7 1ebb 9e53 2abd 4303 183d 7b82 163c
00000070: f772 e83b 0098 123c d992 7d3c 6be6 79bc
00000080: 1248 d1bc da03 b7bc d49a f83b e305 713c
00000090: ec8c 903c c63f b03c 611d 6c3b a60a 75bc
000000a0: bee5 0a3d 8879 e53c 3f87 11bd faba c0bb
000000b0: e53c 233d 94f2 993c d9fd 23bd e581 4fbb
000000c0: aac6 fabc 5460 003d 16d2 a13b 41b3 bf3c
000000d0: a4ec 2c3c 1fea 333c 8f7d ffbc 3692 533c
000000e0: af2f 6a3c bbbd dfbc 7a78 84bb 09df 2c3d
000000f0: 6d1f 9a3c cdd0 083d 0ef8 483c 8bdd 033d
00000100: 4c71 c13b e330 37bc 91f2 3dbd 3cde 35bd
00000110: 61ea 95bb 226a d63c d179 4ebb a7b5 833c
00000120: 6924 debb 66a1 713c 2727 92bc 8fb6 313c
00000130: 1bc9 503c 17e4 45bd 8ce1 56bd 8e29 9cbb
00000140: de12 34bd 2a4b cebc d1de 1e3c 9333 cebc
00000150: 8951 54bc 41c9 9dbc aaf6 14bd 6db4 303d
00000160: 09b8 043d 1ba6 173d 2002 5e3b 23d5 573c
00000170: b816 523d 075e a1bb 2a4f 7137 89f4 7fbc
00000180: 612a 073d 3a8b c63b 0b01 a7bc ab79 8f3c
00000190: 9e10 c43c 1881 11bd 2671 5e3c db0a 913c
000001a0: e826 04bd 8640 973c 9d06 1dbd 6cf8 823c
000001b0: 322f 20bd 416b a4bc 2215 62bc 7440 15bd
000001c0: f131 9f3a e8bd e8bc 87d1 e13b 59b2 4b3c
000001d0: edc6 283b 722f d4bb d747 1dbd 12ba 2ebd
000001e0: afdc 34bd 9175 313a ca88 8a3b d57a bf3c
000001f0: 1faf fabc 1cd3 c2b9 e5ab 8a3c cd72 f7bc
00000200: 7d2d ed3c c9a4 423c 6fee 01bd e25f f4ba
00000210: d482 90bc 7d9b e0bc 2028 653a 9c13 8ebc
00000220: f9c4 10bc a900 2c3c 6376 093d 3c9b d73c
00000230: b05e 84bb 6ed3 8dbc 6d0f 323d b762 f4ba
00000240: 2a14 943c 5550 843c 144b 423c 3cfa 3fbc
00000250: 5a90 5bbb 2c37 893c b9bd 97bc b9a0 523c
00000260: c23e dc3c 7154 153d bc24 a33b 26ee c63c
00000270: 0b49 243d 3c80 083c d104 a1bc 0c9c 6fbc
00000280: 4e37 e8bc 61da 453c 5ba4 d5bc ef3d bd3b
00000290: 47d9 e0bc da1c 633c 8d57 3dbd 931b 63bc
000002a0: 2aed e0bc 6f08 0bbc c4a2 8d3b 8ea6 edbc
000002b0: ed59 e93c 49e7 0c3d b108 8abc 0f87 163d
000002c0: 468b 253d e584 1bbd bd53 efbc 2ed3 a53c
000002d0: 06be 13bb 7301 8f3c 2b60 b53c 4793 fc3c
000002e0: ba8f c43c 2433 3ebd abcf 3a3d 1212 2d3d
000002f0: 2461 0c3b faf3 343d 1a70 0c3b 9695 bb3c
00000300: 1405 08bd 9d97 023d f444 323d eb3d 1cbd
00000310: 202f 18bd 5297 2dbd 2b3a c53c 8eb0 ccbc
00000320: c457 a6ba 6b1a 83bc 6daa efbc 8071 32bd
00000330: 5190 27bb 7870 023d 75c1 893c b269 293d
00000340: 5847 f1bc d198 e4bc 69fc 0cbc 61e3 9dbb
00000350: 13da dd3c 25d8 58bc 1584 4b3c f98c a2bc
00000360: 682a 9fbc f99a dd39 30d1 9c3c c076 f9bc
00000370: 2155 c1bc f555 19bd 76f1 debc ee7e c43c
00000380: 16be b3bc 59a8 d83c b011 6ebc 3c5a 1abc
00000390: 2d0f ff3c 9c4f 43bd b0cb 823b cd42 373d
000003a0: 8723 883c 46cb 773b fde9 8d39 3991 80bc
000003b0: 229b fabc 6454 a63c a313 4fbb cb4e 973c
000003c0: 3c89 fbbc 8a17 f9bc 018c 1c3d 8f62 303d
000003d0: 92a1 00bc 94f3 edbb e1d4 db3c 1fbf e13c
000003e0: d904 eebb 2044 b93c abf5 b63c 3202 c53c
000003f0: 3697 c9bb 1f5a eabc 9a0a 433a fed7 3bbc
-0.01786402 -0.0039724386 0.039464828 -0.0077954796 0.018805407 -0.0050984556 -0.03406563 -0.034352534
0.015009132 -0.011707264 0.012156024 0.034205083 0.01868521 -0.005770459 0.013850135 0.01290548
0.001452701 -0.0053568142 -0.019684253 0.054583162 -0.009147729 0.04453045 -0.036176413 -0.038346842
-0.002424684 -0.04158365 0.037112486 0.009186382 0.007093783 0.008947372 0.015476906 -0.01525269
-0.025547061 -0.022340704 0.0075868163 0.014710876 0.017645322 0.021514785 0.0036028253 -0.014956152
0.033910505 0.028012052 -0.03552937 -0.0058816643 0.039852995 0.018792428 -0.04003701 -0.0031663117
-0.030612309 0.031341866 0.0049383743 0.023400905 0.010554466 0.010981112 -0.0311878 0.012913277
0.014293595 -0.02731215 -0.0040426822 0.04220489 0.018813813 0.033402253 0.012266172 0.0321937
0.0059033986 -0.011181089 -0.046373907 -0.044401392 -0.0045750593 0.026173655 -0.0031505714 0.01607783
-0.006779243 0.014747953 -0.017840935 0.010846748 0.01274326 -0.048313227 -0.052461192 -0.004765696
-0.043963306 -0.025182325 0.009696678 -0.025171077 -0.012958893 -0.019261004 -0.03636805 0.043140817
0.032402072 0.037023645 0.0033875778 0.013173374 0.051291198 -0.004924539 1.4383151e-05 -0.015622267
0.0329994 0.0060590776 -0.02038624 0.01751407 0.023933705 -0.035523504 0.013576781 0.017705372
-0.032263666 0.018463384 -0.038336385 0.015987597 -0.03910751 -0.020070674 -0.013798984 -0.03643842
0.0012145621 -0.028410867 0.0068914327 0.012432658 0.0025753335 -0.0064753825 -0.03839859 -0.04265792
-0.044155773 0.0006769533 0.0042277323 0.023374 -0.030601082 -0.00037159852 0.016927669 -0.030206108
0.028952355 0.011880108 -0.03172153 -0.0018644298 -0.017640509 -0.027417893 0.0008741636 -0.017343335
-0.008836024 0.010498204 0.033560168 0.026319139 -0.004039608 -0.017312732 0.043471742 -0.0018645142
0.018076021 0.016151587 0.01185872 -0.011717375 -0.0033502788 0.01674994 -0.018523084 0.012855702
0.026885394 0.036457483 0.0049787443 0.02428348 0.04010872 0.008331355 -0.019655617 -0.014624607
-0.028346684 0.012075991 -0.026079347 0.0057752053 -0.027447356 0.013861859 -0.046226073 -0.013861555
-0.027456839 -0.008485897 0.0043223817 -0.029010084 0.028485263 0.03440026 -0.016849848 0.036749896
0.040416025 -0.037968535 -0.029214734 0.0202423 -0.0022543683 0.017456746 0.022140583 0.030831946
0.023994315 -0.04643549 0.045608204 0.04225356 0.0021420205 0.044177987 0.0021429122 0.022898477
-0.033207968 0.03188287 0.04352279 -0.038144987 -0.037154317 -0.04238064 0.024075588 -0.024986532
-0.0012690951 -0.016003808 -0.02925607 -0.043565273 -0.0025568197 0.03184554 0.01681588 0.041360565
-0.029452965 -0.0279049 -0.008605101 -0.0048183654 0.027081525 -0.013235127 0.0124216275 -0.019842612
-0.0194294 0.00042267868 0.019142717 -0.030452132 -0.023600163 -0.03743549 -0.027214747 0.023986306
-0.021941226 0.026447462 -0.014530584 -0.009420928 0.031135166 -0.047683343 0.0039915666 0.04474144
0.016618503 0.003781037 0.0002706795 -0.015694248 -0.030591551 0.020303912 -0.0031597398 0.018470189
-0.030705087 -0.030406732 0.038219456 0.043062743 -0.007851021 -0.007261703 0.026834907 0.027556954
-0.0072637615 0.022615492 0.02233394 0.024048898 -0.006152059 -0.028607426 0.00074402394 -0.011465071

classify.0.bias f4 [32]
00000000: ae84 8b3c 296f 823c e381 bd3c f926 753c
00000010: 453b 243d dc56 3e3d 8ad5 d63c 148e 203d
00000020: a5ae 1e3d bbe7 253d 68ce af3c 95c5 ce3c
00000030: 92bc 0c3d ef3a 463c ccfe 283d 7f6f cc3c
00000040: c61e d53c af6c 923c b1e6 a63c aefa 073d
00000050: 5be2 283d 9a14 bc3c 81fa f63c 03e2 5a3c
00000060: 6a77 cb3c 33c3 053d f9af fb3c 03dd 063d
00000070: 6da6 fe3c b799 233c 56f0 db3c 3c66 213c
0.01703104 0.015922146 0.023133224 0.014962905 0.040095586 0.046469554 0.02622487 0.039197996
0.038740773 0.0405042 0.021460727 0.025240699 0.034359522 0.012099012 0.04125862 0.02495551
0.02601565 0.01787409 0.020373674 0.03319805 0.041231494 0.022959042 0.030148746 0.013359549
0.024837214 0.03265686 0.030723559 0.032925617 0.031085217 0.009985379 0.026848 0.009851035

classify.3.weight f4 [1, 32]
00000000: 9dba 0b3e 5416 b23d fcae 033e e4d6 0a3e
00000010: de2c 42be 227d 44be 5978 0f3e 546d 41be
00000020: 965f 41be 8de7 44be 211e 143e 8df1 103e
00000030: bc74 40be 8530 093e 2250 3cbe 6fac 113e
00000040: 1931 45be 4556 103e 3c54 ec3d 85a7 3bbe
00000050: b2dd 42be dd3a ee3d 925e 42be 6209 f63d
00000060: ace1 46be 9898 41be cd38 49be 72eb 41be
00000070: ee75 0e3e 263f cf3d d41a 023e 17cc 0a3e
0.13645406 0.08695665 0.1285972 0.13558537 -0.18962428 -0.1918836 0.14010753 -0.18889362
-0.1888412 -0.19228955 0.14464618 0.14154644 -0.1879453 0.13397415 -0.18389943 0.14225934
-0.1925701 0.14095409 0.11539504 -0.18325622 -0.19029883 0.11632321 -0.18981388 0.120135084
-0.19422024 -0.18905866 -0.19650574 -0.18937472 0.13912174 0.101194665 0.12705547 0.13554417
