Code/CNN/CNNOutputs/newTLbest_model.pth (torch, 63888 bytes, 15 tensors)

feature.0.weight f4 [16, 5, 3]
0.106850944 -0.02181408 0.19688846 -0.048943274 0.19726767 -0.19751956 -0.09897754 -0.17275546
-0.16972521 -0.042758763 0.1516787 0.14214899 -0.13655357 0.03139901 -0.02217992 -0.070564315
-0.119848765 0.10394673 -0.09852215 0.07645511 0.12946074 -0.06609694 0.101740405 0.18657818
-0.0896721 -0.087541975 0.030161789 0.071257666 0.22092468 0.08102943 -0.024120456 -0.03214854
0.11530316 -0.07665266 -0.07931581 -0.06872387 -0.08304164 0.14293224 0.100380555 -0.11647945
0.06934988 -0.22278908 -0.11654334 0.14622015 -0.12418474 0.042912215 -0.048531126 0.19516958
0.0154926 0.08146926 0.11013319 -0.038376708 -0.20883627 -0.1547475 -0.061773572 -0.0719943
-0.09381225 0.011829958 -0.06658023 0.019298669 -0.044471353 -0.04882781 0.093320616 0.08992834
-0.044623177 0.15807058 -0.08555542 0.06440954 -0.03560611 0.01876001 -0.083343044 -0.12200279
0.0067286673 -0.06171128 0.09745753 -0.121091105 0.01515234 0.09102329 -0.09564698 -0.03784136
-0.06817664 0.07591165 0.20408538 0.10787986 0.007844226 0.031664133 -0.14095886 -0.21279676
0.15252917 -0.034233447 0.16053209 -0.0066251648 0.07810924 -0.14665402 -0.017099272 -0.15293212
-0.047124628 0.19997068 -0.067472965 0.13665892 -0.15588121 0.0066793957 -0.04949131 -0.3085407
0.18787259 -0.04417976 -0.06724196 0.14944418 -0.18810834 -0.16156662 0.114837855 -0.20040701
-0.10913007 0.18300879 0.22421786 0.26353914 0.1729402 -0.0049732453 -0.045591407 -0.00067008846
0.10969149 0.16935548 -0.09226867 0.17994253 -0.13176526 0.023129605 0.051259365 0.18330057
0.060013037 -0.046826266 0.17690693 0.1220482 0.014692017 -0.12724091 -0.045812245 0.118090495
0.13449737 0.10859043 0.032633442 0.030965738 0.16834404 -0.062109962 -0.15394306 0.06657271
-0.13788189 -0.17788279 -0.05330936 -0.08454222 -0.1886636 -0.0688503 0.0066399584 -0.029605657
0.15176028 -0.03876089 0.019857327 0.15845962 0.096577756 0.2083904 -0.089888565 0.07361944
0.08487828 0.0072012427 -0.00973393 0.013657366 0.12442979 0.04560287 0.16018695 -0.0074850325
-0.02735976 0.030500537 -0.15016511 -0.095163524 0.07294374 -0.13665877 0.14177363 0.12325392
0.2584496 0.18431616 0.14268021 -0.031427275 -0.07798365 -0.060444355 -0.090727255 -0.07633356
0.1794035 0.06898778 -0.020791473 0.12783957 -0.10833689 0.030869428 -0.104727 0.07702834
-0.1018344 0.06280001 -0.06402024 0.07864165 0.07742677 -0.012026108 0.17884298 -0.116995834
-0.010243186 0.11669078 0.07216311 0.14952506 -0.10094648 -0.02410027 0.17005116 0.041444145
0.2345445 -0.12026699 0.025860196 0.06721549 0.01329399 0.17542315 -0.1273599 0.094776794
0.11419493 0.12898694 0.07774374 0.09173549 0.000315304 -0.17357053 -0.063833706 0.13765042
-0.05294805 -0.023939615 0.101725884 -0.08262088 0.15260957 0.117437445 0.013854872 -0.14315827
0.11121713 0.15301986 -0.12156368 -0.10065617 0.065349475 -0.265786 -0.10374362 -0.1413819
00000000: abd4 da3d 71b3 b2bc 219d 493e be78 48bd
00000010: 8900 4a3e 9142 4abe bdb4 cabd cfe6 30be
00000020: 72cc 2dbe d023 2fbd a951 1b3e 818f 113e
00000030: b3d4 0bbe 409c 003d aab2 b5bc 0684 90bd
00000040: 4573 f5bd 06e2 d43d fbc5 c9bd 7f94 9c3d
00000050: 5b91 043e d55d 87bd 465d d03d 5a0e 3f3e
00000060: 02a6 b7bd 3549 b3bd db15 f73c 8aef 913d
00000070: 143a 623e c2f2 a53d 4398 c5bc 30ae 03bd
00000080: 1024 ec3d 12fc 9cbd 5470 a2bd 1abf 8cbd
00000090: bc11 aabd d45c 123e 5294 cd3d c78c eebd
000000a0: 4f07 8e3d d222 64be 46ae eebd bcba 153e
000000b0: 9254 febd b8c4 2f3d 93c8 46bd 89da 473e
000000c0: add4 7d3c 5bd9 a63d 838d e13d e530 1dbd
000000d0: 2dd9 55be 2176 1ebe 4906 7dbd bf71 93bd
000000e0: a320 c0bd 71d2 413c 375b 88bd 3e18 9e3c
000000f0: 9827 36bd abff 47bd e11e bf3d 592c b83d
00000100: cbc6 36bd 41dd 213e ae37 afbd 26e9 833d
00000110: b6d7 11bd 98ae 993c c2af aabd 99dc f9bd
00000120: 277c dc3b f8c4 7cbd d097 c73d 9dfe f7bd
00000130: 8541 783c 6b6a ba3d 90e2 c3bd 8bff 1abd
00000140: 32a0 8bbd 9177 9b3d c2fb 503e 1ef0 dc3d
00000150: 1285 003c 40b2 013d 8557 10be 65e7 59be
00000160: 9b30 1c3e 5f38 0cbd 8662 243e e917 d9bb
00000170: bdf7 9f3d 792c 16be c613 8cbc 3d9a 1cbe
00000180: c105 41bd 1dc5 4c3e 442f 8abd 51f0 0b3e
00000190: 539f 1fbe d5de da3b 66b7 4abd 0cf9 9dbe
000001a0: ac61 403e d6f5 34bd 27b6 89bd e507 193e
000001b0: 799f 40be b871 25be 1c30 eb3d 7f37 4dbe
000001c0: 967f dfbd a866 3b3e 5e99 653e 9aee 863e
000001d0: 3c17 313e 9bf6 a2bb 0ebe 3abd e0a8 2fba
000001e0: efa5 e03d 866b 2d3e 5bf7 bcbd db42 383e
000001f0: 79ed 06be 4c7a bd3c 57f5 513d 25b3 3b3e
00000200: 3bd0 753d e6cc 3fbd 1727 353e 68f4 f93d
00000210: c9b6 703c 714b 02be 9fa5 3bbd 6ed9 f13d
00000220: aeb9 093e a964 de3d a5aa 053d dcab fd3c
00000230: 6162 2c3e 0467 7ebd 40a3 1dbe 4657 883d
00000240: e930 0dbe e826 36be ea5a 5abd 7924 adbd
00000250: 0831 41be 6301 8dbd 0294 d93b 9087 f2bc
00000260: 0c67 1b3e bdc3 1ebd d5ab a23c 3d43 223e
00000270: 8fca c53d 4b64 553e 7f17 b8bd cac5 963d
00000280: aad4 ad3d 67f8 eb3b 107b 1fbc 25c3 5f3c
00000290: 0cd5 fe3d 13ca 3a3d 0c08 243e 0145 f5bb
000002a0: 9321 e0bc 43dc f93c e2c4 19be 18e5 c2bd
000002b0: 8763 953d 47f0 0bbe 1b2d 113e 8d6c fc3d
000002c0: 8253 843e 60bd 3c3e c31a 123e e3b9 00bd
000002d0: e4b5 9fbd 8094 77bd 36cf b9bd c554 9cbd
000002e0: 8db5 373e 7749 8d3d e152 aabc 60e8 023e
000002f0: bbdf ddbd e2e1 fc3c 1c7b d6bd 09c1 9d3d
00000300: 8e8e d0bd 4b9d 803d 0b1d 83bd e00e a13d
00000310: ed91 9e3d 2709 45bc 9d22 373e 839b efbd
00000320: 09d3 27bc 93fb ee3d 41ca 933d 191d 193e
00000330: 07bd cebd ee6d c5bc e421 2e3e 56c1 293d
00000340: 6f2c 703e 8a4e f6bd c3d8 d33c 46a8 893d
00000350: 09cf 593c 20a2 333e a26a 02be 561a c23d
00000360: 08df e93d 2715 043e 1c38 9f3d d1df bb3d
00000370: 634f a539 79bc 31be 3fbb 82bd 3bf4 0c3e
00000380: 0ee0 58bd 031d c4bc a955 d03d 2335 a9bd
00000390: af45 1c3e 0b83 f03d 8cff 623c 1598 12be
000003a0: cfc5 e33d 3db1 1c3e 61f6 f8bd d224 cebd
000003b0: f2d5 853d 1a15 88be 8977 d4bd 6bc6 10be

feature.0.bias f4 [16]
-0.068318896 -0.20515993 0.037449934 0.13568684 -0.14045875 0.11402092 0.10512778 0.13158903
0.10932288 0.18692167 0.11678032 0.10927953 -0.10294624 0.105316594 0.07974616 0.17919955
00000000: c7ea 8bbd 7215 52be 1a65 193d 7ef1 0a3e
00000010: 6bd4 0fbe cd83 e93d 3c4d d73d 46bf 063e
00000020: ade4 df3d 6568 3f3e 852a ef3d f2cd df3d
00000030: 7ad5 d2bd 3ab0 d73d f451 a33d 1680 373e

feature.2.weight f4 [16]
0.6451196 0.77443486 0.7871585 0.7364209 0.6897133 0.804798 0.8359024 0.76713955
0.7908648 0.8205988 0.82460684 0.8213278 0.6881435 0.8058836 0.8032641 0.90710425
00000000: 8f26 253f 5d41 463f 3883 493f 1586 3c3f
00000010: 0d91 303f 3e07 4e3f b3fd 553f 4263 443f
00000020: 1e76 4a3f c312 523f 6f19 533f 8a42 523f
00000030: 2c2a 303f 634e 4e3f b7a2 4d3f fc37 683f

feature.2.bias f4 [16]
-0.0022472572 -0.0026927334 0.00025017266 -0.016535612 -0.016166942 -0.033805974 -0.012551097 -0.021496808
-0.024933407 0.0071916706 -0.034633834 -0.022749968 -0.010505445 -0.029141968 -0.017810566 0.03355843
00000000: b846 13bb 9278 30bb 9b29 8339 b175 87bc
00000010: 8970 84bc 2278 0abd 1ea3 4dbc 131a b0bc
00000020: 2541 ccbc 1ba8 eb3b 35dc 0dbd 245e babc
00000030: 081f 2cbc 23bb eebc 77e7 91bc 9074 093d

feature.2.running_mean f4 [16]
-0.100114495 -0.04653504 -0.077990375 0.046620287 -0.13752922 0.10756424 0.047846586 0.2280621
0.32193968 0.0951635 0.3630619 0.33418068 -0.15491429 0.3435424 0.24338078 0.09573427
00000000: d408 cdbd 879b 3ebd 6bb9 9fbd eaf4 3e3d
00000010: 76d4 0cbe a44a dc3d c8fa 433d 1c89 693e
00000020: 47d5 a43e 15e5 c23d 40e3 b93e bb19 ab3e
00000030: daa1 1ebe cae4 af3e d038 793e 5410 c43d

feature.2.running_var f4 [16]
0.0482619 0.106896326 0.09126215 0.042539295 0.04061483 0.08623895 0.040657476 0.18330479
0.16331048 0.08426573 0.2057636 0.21721159 0.05951557 0.1849907 0.11308371 0.07409437
00000000: 45ae 453d 76ec da3d a6e7 ba3d af3d 2e3d
00000010: bc5b 263d 0c9e b03d 7488 263d 40b4 3b3e
00000020: dd3a 273e 8393 ac3d b1b3 523e b76c 5e3e
00000030: 99c6 733d 346e 3d3e 6f98 e73d cabe 973d

feature.6.weight f4 [32, 16, 3]
-0.014343029 0.048154775 0.047741175 0.051744442 0.04054384 0.10546121 -0.055786107 -0.007364515
0.072945096 0.021175819 0.074869245 0.0066718264 -0.03764995 -0.01841343 -0.031104235 0.096458666
-0.058624443 -0.05717142 -0.03649024 -0.07775807 -0.061838713 0.008069558 0.025687993 0.09193039
-0.09327993 0.018530468 0.0089409845 -0.012557191 0.11964096 0.025568869 -0.027840905 -0.050832987
-0.09789093 -0.019598274 -0.08087429 -0.040030327 -0.06298863 -0.04881613 -0.06758352 -0.015933711
-0.07442353 -0.07397484 0.048484873 -0.047772948 0.067185186 -0.009881156 -0.01895195 -0.005834192
-0.085863166 -0.072693355 0.05123315 0.046055164 0.020485522 -0.024904788 0.07031067 0.09372155
0.008728033 0.09836938 0.11267805 0.052410204 0.08068697 0.052163083 -0.04311523 -0.027275953
0.047110196 -0.09304354 -0.08378227 -0.04074355 -0.04952679 0.08227815 -0.1068891 -0.026768964
0.0772145 -0.07405156 -0.11707818 0.08128465 -0.08036846 -0.060975038 -0.04349878 0.020680014
-0.06294147 -0.11222427 0.005421482 -0.08296734 0.07899662 0.059409197 -0.06496408 0.024064392
-0.117695615 0.05452886 -0.09948837 0.06024754 0.06616381 0.058237776 -0.052332208 0.056544095
0.029001907 0.011149801 -0.0021831149 0.061248418 0.054794095 -0.008187921 -0.033571836 0.0259727
0.030875029 0.06694678 -0.03967459 -0.0462415 0.04194159 0.04467583 0.026708504 -0.09874877
0.074646994 0.013653315 -0.0417999 -0.07783503 -0.007914682 -0.055248536 0.031633254 0.09101734
-0.08323047 0.08365714 -0.0050199763 0.11678935 0.028678782 -0.018697878 -0.075157486 0.11472954
-0.12005314 -0.014348293 -0.04278411 -0.07429955 -0.06971667 0.011151116 -0.009825749 -0.031600773
0.10646252 0.047018413 -0.102818206 0.0073868274 0.11327282 0.06004799 0.038731113 -0.06733888
0.111099444 0.019049685 0.037634887 -0.058409736 -0.04227357 0.014583487 0.059463084 0.11607633
0.1561167 -0.06114436 -0.009825833 0.032353077 -0.049133576 -0.017882058 -0.06006844 0.09366509
0.12999704 -0.07045553 -0.043749753 0.14479908 0.067768104 0.035582673 -0.014731124 -0.06352733
0.025546517 0.045767047 0.014422788 0.085550964 0.09207646 0.10399782 -0.061721772 0.097117096
-0.032874126 -0.04933507 -0.062198125 -0.002998309 0.089798376 0.023940297 -0.06631353 0.025593879
-0.07455942 -0.003170855 0.021682294 0.015393489 0.09065843 0.08891604 0.10180208 0.08173017
-0.013431839 0.042860918 -0.017242987 0.002292425 -0.047043364 -0.056419168 0.025417516 0.043308705
-0.047100656 0.01924758 -0.013454806 -0.015371264 -0.10360193 0.09297881 -0.08587355 -0.06240184
-0.026364824 -0.005421651 -0.07418738 -0.028149154 0.028811298 0.068524875 -0.07571368 -0.0710108
0.04156312 -0.09630661 -0.09117286 -0.083794154 -0.122741506 0.02354934 0.089438014 0.12872088
0.015255183 0.024981657 0.063749455 0.03517327 -0.04440867 0.05288306 -0.015546862 0.07999518
0.055784542 0.11250366 0.05950451 0.02902477 -0.05534795 -0.07369827 -0.12749529 -0.1438491
0.077681325 0.058805123 0.06798008 -0.09492897 -0.020384498 0.043804392 -0.010647672 -0.065346554
0.032143883 0.06459288 -0.0335792 0.010810598 -0.03673982 -0.0790208 -0.08203526 0.031605147
00000000: 06ff 6abc f13d 453d 408c 433d fbf1 533d
00000010: 4c11 263d 0cfc d73d f97f 64bd 0852 f1bb
00000020: 3d64 953d e978 ad3c 0c55 993d 569f da3b
00000030: d536 1abd c3d7 96bc 4fce febc 1f8c c53d
00000040: 2f20 70bd 942c 6abd ca76 15bd 9f3f 9fbd
00000050: 974a 7dbd 2e36 043c a06f d23c 0046 bc3d
00000060: 8c09 bfbd 35cd 973c 357d 123c adbc 4dbc
00000070: 5206 f53d ce75 d13c 9c12 e4bc 4036 50bd
00000080: 0a7b c8bd 8f8c a0bc 6ba1 a5bd d7f6 23bd
00000090: 2f00 81bd 6cf3 47bd 3b69 8abd 6a87 82bc
000000a0: 5d6b 98bd 1f80 97bd 1398 463d 91ad 43bd
000000b0: 6398 893d 92e4 21bc 1f41 9bbc c02c bfbb
000000c0: 07d9 afbd 41e0 94bd dad9 513d 57a4 3c3d
000000d0: 41d1 a73c 2005 ccbc 0aff 8f3d 16f1 bf3d
000000e0: 0600 0f3c e375 c93d c0c3 e63d 15ac 563d
000000f0: 363f a53d f5a8 553d 9899 30bd d271 dfbc
00000100: 9ff6 403d 9d8d bebd 0a96 abbd b5e2 26bd
00000110: 9adc 4abd 7281 a83d ace8 dabd 964a dbbc
00000120: a322 9e3d 58a8 97bd afc6 efbd 9178 a63d
00000130: 3898 a4bd f6c0 79bd c72b 32bd 2269 a93c
00000140: 75e7 80bd d7d5 e5bd b0a6 b13b c8ea a9bd
00000150: fbc8 a13d 0f57 733d e30b 85bd b022 c53c
00000160: 660a f1bd a759 5f3d 8fc0 cbbd 20c6 763d
00000170: e480 873d bc8a 6e3d 4c5a 56bd c89a 673d
00000180: 6895 ed3c a8ad 363c 9712 0fbb 9fdf 7a3d
00000190: c66f 603d a126 06bc 9f82 09bd b3c4 d43c
000001a0: a1ed fc3c 651b 893d d381 22bd ba67 3dbd
000001b0: f2ca 2b3d 01fe 363d cbcb da3c cc3c cabd
000001c0: 86e0 983d 27b2 5f3c 5f36 2bbd f967 9fbd
000001d0: 95ac 01bc 4a4c 62bd df91 013d 4d67 ba3d
000001e0: bd74 aabd 6f54 ab3d 9d7e a4bb 412f ef3d
000001f0: c4ef ea3c 4b2c 99bc 2bec 99bd 52f7 ea3d
00000200: 6cde f5bd 1a15 6bbc 643e 2fbd 5d2a 98bd
00000210: 9dc7 8ebd 2cb3 363c 2efc 20bc d06f 01bd
00000220: 0609 da3d 6196 403d 5a92 d2bd 330d f23b
00000230: 95fb e73d e2f4 753d 84a4 1e3d f7e8 89bd
00000240: 1b88 e33d 160e 9c3c 0a27 1a3d 0c3f 6fbd
00000250: 0d27 2dbd 94ef 6e3c 908f 733d 6db9 ed3d
00000260: 0edd 1f3e 8272 7abd 88fc 20bc a984 043d
00000270: 4a40 49bd 657d 92bc 530a 76bd 7cd3 bf3d
00000280: f21d 053e fd4a 90bd f132 33bd 3646 143e
00000290: 01ca 8a3d 23bf 113d d05a 71bc 9e1a 82bd
000002a0: ee46 d13c 3a76 3b3d 8f4d 6c3c 5835 af3d
000002b0: 9592 bc3d cffc d43d f8cf 7cbd 54e5 c63d
000002c0: 05a7 06bd 9213 4abd 76c3 7ebd 477f 44bb
000002d0: 36e8 b73d 711e c43c 63cf 87bd 41aa d13c
000002e0: 9cb2 98bd 1fce 4fbb 119f b13c f934 7c3c
000002f0: 20ab b93d 9d19 b63d 9c7d d03d 2662 a73d
00000300: 3711 5cbc ee8e 2f3d 2a41 8dbc 823c 163b
00000310: 8bb0 40bd c917 67bd 6538 d03c 7864 313d
00000320: 9eec 40bd 1aad 9d3c 8c71 5cbc c1d7 7bbc
00000330: 402d d4bd ad6b be3d 79de afbd 1299 7fbd
00000340: 0bfb d7bc 1ba8 b1bb 8eef 97bd 0e99 e6bc
00000350: ac05 ec3c c556 8c3d c60f 9bbd 1c6e 91bd
00000360: 173e 2a3d 663c c5bd d6b8 babd 459c abbd
00000370: e65f fbbd 8cea c03c 472b b73d 68cf 033e
00000380: e0f0 793c 55a6 cc3c 138f 823d d911 103d
00000390: dee5 35bd e89b 583d 44b8 7ebc 83d4 a33d
000003a0: 557e 643d 5268 e63d 00bb 733d 5bc5 ed3c
000003b0: 88b4 62bd 1eef 96bd 208e 02be 2e4d 13be
000003c0: 6317 9f3d a4dd 703d 2439 8b3d 1f6a c2bd
000003d0: 64fd a6bc 3c6c 333d 9373 2ebc 6ad4 85bd
000003e0: 4ea9 033d 4649 843d 588a 09bd ef1e 313c
000003f0: 7e7c 16bd a8d5 a1bd 1a02 a8bd 6674 013d

feature.6.bias f4 [32]
0.03873308 0.045285072 0.061410625 -0.067797944 0.057269335 -0.10617397 -0.0004562624 0.0050155604
0.076442964 -0.007174334 -0.006063478 0.10571801 0.04531197 -0.07358973 -0.06964699 -0.105397955
0.09823789 0.071620494 -0.06574472 0.07611405 0.017661527 0.061834536 -0.04594683 0.086915165
0.048006415 -0.0001515458 -0.0076820594 0.0055654845 -0.083328426 -0.057201184 -0.01648934 -0.02262215
00000000: 94a6 1e3d d77c 393d b589 7b3d a6d9 8abd
00000010: 4093 6a3d bd71 d9bd 8136 efb9 9259 a43b
00000020: 218e 9c3d ad16 ebbb 24b0 c6bb af82 d83d
00000030: 0b99 393d 36b6 96bd 15a3 8ebd e2da d7bd
00000040: f230 c93d c4ad 923d 2ba5 86bd afe1 9b3d
00000050: e8ae 903c 3646 7d3d be32 3cbd 9400 b23d
00000060: 60a2 443d 44e8 1eb9 c9b9 fbbb ab5e b63b
00000070: 18a8 aabd ca4b 6abd a714 87bc 1652 b9bc

feature.8.weight f4 [32]
0.6361892 0.6058256 0.73827404 0.8316116 0.8230315 0.7089815 0.7019046 0.88737607
0.82459956 0.6874493 0.77089965 0.89565575 0.77417153 0.5537858 0.64899975 0.6530362
0.6140487 0.8158818 0.7186621 0.6131471 0.6404224 0.7982088 0.66639256 0.57318306
0.6184831 0.63072246 0.62471366 0.6117257 0.7995632 0.7048246 0.63473153 0.60980767
00000000: 4cdd 223f 6317 1b3f 87ff 3c3f 7fe4 543f
00000010: 31b2 523f d07f 353f 05b0 333f 142b 633f
00000020: f518 533f adfc 2f3f ae59 453f b249 653f
00000030: 1b30 463f e8c4 0d3f d924 263f 612d 273f
00000040: 4c32 1d3f a1dd 503f 3dfa 373f 35f7 1c3f
00000050: b9f2 233f 6957 4c3f b498 2a3f 20bc 123f
00000060: e954 1e3f 0777 213f 3ced 1f3f 0e9a 1c3f
00000070: 2db0 4c3f 636f 343f c47d 223f 5b1c 1c3f

feature.8.bias f4 [32]
-0.005739464 -0.0031430712 -0.010297978 0.022542996 -0.008096668 -0.0035302916 0.008652632 -0.0036074058
0.024126112 -0.013091057 -0.015141663 0.0015970513 0.00231463 -0.00504298 -0.0045339675 -0.022024
0.005483381 -0.008404742 -0.0089341765 0.00023016383 -0.013293957 0.004955113 -0.0064457655 -0.0045527364
0.005411285 -0.0075130044 -0.003485932 0.008977827 -0.0049244114 -0.015795574 -0.011221954 0.0008594759
00000000: 1d12 bcbb fcfb 4dbb dab8 28bc 17ac b83c
00000010: e3a7 04bc 775c 67bb c5c3 0d3c 3a6a 6cbb
00000020: 20a4 c53c df7b 56bc bd14 78bc 2654 d13a
00000030: 0cb1 173b 953f a5bb ad91 94bb ad6b b4bc
00000040: efad b33b 0bb4 09bc a760 12bc 2258 7139
00000050: e6ce 59bc 805e a23b 0037 d3bb 1f2f 95bb
00000060: 2651 b13b a62f f6bb 3c74 64bb bc17 133c
00000070: f55c a1bb b865 81bc 49dc 37bc 744e 613a

feature.8.running_mean f4 [32]
-0.17065439 -0.096898355 0.1426811 0.55116034 -0.20082124 -0.33498177 0.26623872 -0.14595895
0.5029302 -0.11460575 -0.1385495 -0.18855931 0.40899122 -0.12281416 -0.088187285 -0.1492441
-0.091638856 -0.105503574 -0.16242763 -0.08617 -0.3352399 -0.17241867 -0.18670714 -0.11289202
0.2666952 -0.24453583 -0.04733782 -0.3145816 -0.20784962 -0.041856848 -0.054429583 -0.19262306
00000000: 06c0 2ebe a572 c6bd ff1a 123e d818 0d3f
00000010: 15a4 4dbe bb82 abbe 7150 883e 4376 15be
00000020: 09c0 003f 6bb6 eabd ecdf 0dbe b115 41be
00000030: 4c67 d13e fe85 fbbd 899b b4bd 72d3 18be
00000040: 27ad bbbd 4212 d8bd 6e53 26be e679 b0bd
00000050: 90a4 abbe 858e 30be 2830 3fbe ee33 e7bd
00000060: 468c 883e 9a67 7abe 4de5 41bd d710 a1be
00000070: 88d6 54be 1672 2bbd 8ef1 5ebd fb3e 45be

feature.8.running_var f4 [32]
0.17000723 0.19695713 0.28735438 0.5290272 0.30271986 0.27794 0.2801938 0.2967679
0.46312788 0.18572038 0.21655773 0.40095586 0.38693133 0.09717741 0.07433561 0.17190845
0.13036405 0.20764704 0.26145336 0.1316909 0.27696386 0.31397358 0.13978873 0.15000296
0.20348312 0.19052929 0.19296125 0.160944 0.22784838 0.18066452 0.13210666 0.15041769
00000000: 6016 2e3e 21af 493e 1d20 933e 546e 073f
00000010: 19fe 9a3e 274e 8e3e 9075 8f3e f6f1 973e
00000020: 191f ed3e 7c2d 3e3e 4fc1 5d3e 164a cd3e
00000030: dd1b c63e f304 c73d 453d 983d c508 303e
00000040: 277e 053e 6da1 543e 37dd 853e fbd9 063e
00000050: 35ce 8d3e 25c1 a03e c724 0f3e 609a 193e
00000060: e15d 503e 1c1a 433e a297 453e 81ce 243e
00000070: 1651 693e 1f00 393e f846 073e 1807 1a3e

classify.0.weight f4 [32, 384]
0.0009748739 -0.000975159 -0.0008617806 -0.0004568487 -0.00054379256 -0.0009086326 -0.0002763555 0.0002389549
-0.0009670294 -0.00056827324 0.00011934737 -0.00082994055 -0.0014187135 -0.0020340534 -0.00041139076 -0.00017046444
-0.0011313715 -7.299567e-05 -0.00040394513 0.0014831353 -0.00052207045 -0.00079580204 -0.00064892153 -4.5287525e-06
-2.9646783e-08 -0.0026575068 -0.00021905707 0.00016184531 -0.0053971214 0.0017871724 0.0015740177 -0.0009927568
0.0010639762 -0.0005307708 -0.0010767378 -0.0045379982 -0.0032686696 -0.00072044047 -0.00015346974 9.859938e-05
-0.0023906513 8.1571976e-05 0.0010120164 -0.002379763 0.0005339589 0.00022109093 0.0023144651 -0.0021042004
7.317248e-05 -0.0008895271 0.0055259573 -0.0038968164 -0.005787651 -0.007767883 -0.006450013 0.0045357556
0.003076605 0.0046011317 0.010675181 -0.0026501976 -0.00037132576 -0.0014632074 -0.0013509905 -0.0020740572
0.0011694833 0.0027886548 -0.004896049 -0.0073667252 -0.009105584 0.0018450855 0.0064458316 0.0015317444
-0.00279576 -0.0031235144 -0.00020955292 -8.916513e-05 1.0015862e-05 -0.00015297042 0.0006469511 -0.0005287624
-0.0011231225 -0.0009102059 0.0014710508 0.001826734 -0.0007152675 -0.0002107695 -0.005107402 -0.0015715574
-0.0029641134 0.0021466592 -0.00219149 -0.005090224 -0.0014531997 -0.0019782197 -0.012465004 0.017084036
-0.0030298259 0.0032975818 0.00058870576 0.0007359969 -8.362962e-06 -0.00060422043 -0.0018168913 0.0015047165
-0.0013713546 -0.0009717862 0.00071026647 0.0011016633 -0.00040781466 -0.0065503623 0.004970477 -0.0026938443
-0.0005633264 -0.0016795355 0.00018051456 -0.0014361532 -0.00029609958 -6.729567e-05 0.00584449 0.0057013887
-7.933867e-05 0.009188338 0.0016751493 -0.00023826942 -0.0044775745 -0.009080184 0.002627951 -0.00625606
0.0037108636 -0.00091244763 0.0060176556 -0.0076789903 -0.00014104166 0.0032446317 0.0068267193 -2.772026e-05
-0.0077302926 0.0061494564 -0.0019364697 -0.003870813 0.014719631 0.012628564 -0.009104973 -0.0047304085
0.0018536269 0.00060817035 -0.0019316823 -0.0021485607 -0.0010397437 -0.0007673043 -0.001977212 -0.0025205682
-0.0010083104 -0.0015155232 0.00081206794 0.004174531 -0.000950614 -4.2305906e-05 -0.0007274005 -0.0012073108
0.0003457899 -0.0010664078 -0.00063320226 5.1725616e-05 0.00020085771 -0.00038498983 -0.0012447397 0.00019131541
0.0007103905 -0.0011271235 6.310909e-05 -0.0013836429 0.00013111143 -0.00093582406 0.00026085446 -0.0010215901
-0.0015397833 -0.0003523008 0.0013734848 -0.0011488625 -0.000763003 -0.0016651668 -0.004433306 -0.0025444948
0.0007975745 -0.0022891609 0.006893001 -0.0010476359 0.010126288 -0.0018026694 -0.0008013163 -0.0027711063
-0.00052049133 -0.00082576816 -0.0011390632 -0.00048125407 -0.0011185829 -0.002162929 -0.001242928 -0.0020879265
-0.0018301668 -0.0018321832 -0.00060059247 -0.00038431355 -0.0009398339 -0.0026537462 -0.0034752702 -0.003517874
-0.00013347573 0.004760636 -0.0014619356 -0.0016748861 0.0018971245 -0.00047448883 -0.00010468587 -0.0042580403
9.7055505e-05 -0.000590834 -0.0059546954 0.003269905 -0.0009631389 0.01250069 -0.0040942766 0.0027458442
-0.001989759 -0.0031564145 -0.0041843355 0.0031839418 0.0016606806 -0.0010403048 -0.0005912465 -0.0011756538
-0.00068183447 -0.0020300085 -0.0012877003 -0.0019523036 -0.0011962614 -0.00019173913 -0.001297923 0.0011924562
-0.000184037 -0.0032703346 -0.0007694694 -0.001146188 -6.844863e-05 -0.0028260627 -0.0022429975 -0.0031967554
0.0006665377 -0.0022779282 -0.00017782235 0.0011915014 -0.0003898728 0.0054740873 -0.00072328775 -8.247525e-05
00000000: ae8e 7f3a d0a1 7fba 1ee9 61ba 3285 efb9
00000010: 4d8d 0eba 4d31 6eba cfe3 90b9 f88f 7a39
00000020: 3f80 7dba 2cf8 14ba 224a fa38 5e90 59ba
00000030: 20f4 b9ba c14d 05bb efaf d7b9 b3be 32b9
00000040: 874a 94ba 4015 99b8 99c8 d3b9 c365 c23a
00000050: 8edb 08ba 5f9d 50ba 631c 2aba b0f5 97b6
00000060: f7a9 feb2 9129 2ebb afb2 65b9 05b5 2939
00000070: 56da b0bb 8e3f ea3a 454f ce3a 641f 82ba
00000080: 1e75 8b3a 6d23 0bba 5321 8dba 7db3 94bb
00000090: 2d37 56bb f1db 3cba b8ec 20b9 24c7 ce38
000000a0: 79ac 1cbb 9f11 ab38 a3a5 843a ccf5 1bbb
000000b0: 60f9 0b3a a5d4 6739 48ae 173b a0e6 09bb
000000c0: 2d74 9938 272f 69ba 1713 b53b bb61 7fbb
000000d0: 56a6 bdbb ba89 febb a15a d3bb ada0 943b
000000e0: dea0 493b 17c5 963b f4e6 2e3c f0ae 2dbb
000000f0: 80ae c2b9 18c9 bfba b813 b1ba e8ec 07bb
00000100: 5949 993a ddc1 363b 096f a0bb 9264 f1bb
00000110: 962f 15bc ccd6 f13a 8e37 d33b d0c4 c83a
00000120: 1239 37bb e0b3 4cbb 6fbb 5bb9 2afe bab8
00000130: cd09 2837 af66 20b9 2798 293a a59c 0aba
00000140: bd35 93ba e29a 6eba 46d0 c03a 066f ef3a
00000150: ca80 3bba 0202 5db9 fe5b a7bb b7fc cdba
00000160: 9241 42bb f7ae 0c3b 1a9f 0fbb e5cb a6bb
00000170: 4a79 beba 05a5 01bb 043a 4cbc d2f3 8b3c
00000180: 0b90 46bb 3e1c 583b 6053 1a3a eaef 403a
00000190: a64e 0cb7 8c64 1eba c124 eeba e839 c53a
000001a0: 06bf b3ba 78bf 7eba 2d31 3a3a b065 903a
000001b0: f5cf d5b9 6ca4 d6bb 62df a23b 358b 30bb
000001c0: 32ac 13ba dc23 dcba 8248 3d39 4e3d bcba
000001d0: d03d 9bb9 1621 8db8 2383 bf3b b7d2 ba3b
000001e0: a062 a6b8 af8a 163c af90 db3a f6d7 79b9
000001f0: 9eb8 92bb 0dc5 14bc b439 2c3b a3ff ccbb
00000200: f631 733b 5331 6fba c12f c53b 0aa0 fbbb
00000210: 95e4 13b9 e3a3 543b acb2 df3b ce88 e8b7
00000220: 654e fdbb 6181 c93b 24d1 fdba 77ad 7dbb
00000230: 9b2a 713c 09e8 4e3c 062d 15bc 8b01 9bbb
00000240: 66f5 f23a 9f6d 1f3a 8130 fdba dece 0cbb
00000250: 0248 88ba eb24 49ba 1d94 01bb 1e30 25bb
00000260: 4829 84ba 85a4 c6ba f5e0 543a 81ca 883b
00000270: a032 79ba 9f71 31b8 05af 3eba a13e 9eba
00000280: 224b b539 b5c6 8bba 7cfd 25ba f5f3 5838
00000290: 559d 5239 76d8 c9b9 8926 a3ba d79b 4839
000002a0: 8039 3a3a fdbb 93ba 6f59 8438 5a5b b5ba
000002b0: f57a 0939 1752 75ba 4bc3 8839 e0e6 85ba
000002c0: 8ed2 c9ba 03b5 b8b9 8106 b43a 6e95 96ba
000002d0: 4404 48ba ba41 daba 4445 91bb 8ac1 26bb
000002e0: 5214 513a bf05 16bb afde e13b d450 89ba
000002f0: bbe8 253c 8c47 ecba 6d0f 52ba 739b 35bb
00000300: 9571 08ba 5d78 58ba 9e4c 95ba d450 fcb9
00000310: 6a9d 92ba edbf 0dbb bee9 a2ba 98d5 08bb
00000320: 35e2 efba de25 f0ba 1471 1dba b17d c9b9
00000330: 2f5f 76ba 79ea 2dbb 5cc1 63bb 228c 66bb
00000340: 9ef5 0bb9 1cff 9b3b 6b9e bfba da87 dbba
00000350: efa8 f83a d0c4 f8b9 cc8a dbb8 0887 8bbb
00000360: 478a cb38 33e2 1aba 9b1f c3bb e74b 563b
00000370: 287b 7cba b2cf 4c3c 4829 86bb 9ff3 333b
00000380: 9e66 02bb d9db 4ebb c01c 89bb aea9 503b
00000390: 32ab d93a d65a 88ba e2fd 1aba 6518 9aba
000003a0: 23bd 32ba e409 05bb 0dc8 a8ba 70e4 ffba
000003b0: dfcb 9cba 950d 49b9 121f aaba 314c 9c3a
000003c0: 0efa 40b9 1c53 56bb 38b6 49ba b03b 96ba
000003d0: 148c 8fb8 7735 39bb 41ff 12bb a880 51bb
000003e0: 96ba 2e3a 4b49 15bb d375 3ab9 272c 9c3a
000003f0: d767 ccb9 f95f b33b 059b 3dba 90f6 acb8

classify.0.bias f4 [32]
-0.011610641 0.00011882258 0.013849708 -0.009665956 0.028481198 -0.020227484 -0.007556735 0.047271106
0.004053165 0.09337429 0.039228745 -0.07364231 0.026691584 0.067752354 -0.011887767 -0.021522127
-1.5121616e-11 0.030325612 0.007330758 0.07790421 0.005930243 -0.03033827 -0.006483515 0.0007594884
-0.03451387 0.034973186 0.016990239 0.0796826 0.081416264 0.044481415 0.088283345 0.009260627
00000000: 8f3a 3ebc 6330 f938 e3e9 623c f55d 1ebc
00000010: 6751 e93c 1cb4 a5bc 7d9e f7bb 599f 413d
00000020: 6ad0 843b 053b bf3d 52ae 203d c8d1 96bd
00000030: 4fa8 da3c bfc1 8a3d e9c4 42bc 2c4f b0bc
00000040: da02 85ad 6b6d f83c db36 f03b 3e8c 9f3d
00000050: 7c52 c23b f787 f8bc aa73 d4bb 6718 473a
00000060: 6a5e 0dbd 0b40 0f3d 1d2f 8b3c a230 a33d
00000070: 92bd a63d 2532 363d e6cd b43d e3b9 173c

classify.3.weight f4 [1, 32]
0.015235524 -0.018996922 -0.061128452 -0.0909113 0.078147516 0.0677862 -0.08582544 0.03884072
-0.010394945 0.043423668 -0.04447643 -0.042762227 -0.04079427 0.043034904 0.03675142 -0.011681991
0.0013083849 0.11980062 0.03803979 -0.09950133 0.03752261 -0.068153344 -0.042042468 -0.0013642252
-0.044514786 -0.10853462 0.042248584 -0.059526216 0.0412291 0.081429906 0.120595984 0.056662403
00000000: 6b9e 793c 6f9f 9bbc d461 7abd b42f babd
00000010: ce0b a03d 7ed3 8a3d 40c5 afbd 7217 1f3d
00000020: 8f4f 2abc 04dd 313d eb2c 36bd 7227 2fbd
00000030: e417 27bd 5e45 303d a888 163d d265 3fbc
00000040: 1d7e ab3a 075a f53d 9ccf 1b3d 5ac7 cbbd
00000050: 4fb1 193d fb93 8bbd b934 2cbd cdcf b2ba
00000060: 2355 36bd 6647 debd da0c 2d3d c3d1 73bd
00000070: d8df 283d b9c4 a63d 07fb f63d d616 683d
