Code/CNN/CNNOutputs/oldTLbest_model.pth (torch, 63888 bytes, 15 tensors)

feature.0.weight f4 [16, 5, 3]
00000000: 6f29 7b3e 174b e03d b676 abba 1af5 6c3e
00000010: 1343 7abe d2e3 6c3b 6e38 ff3d 96e4 423e
00000020: 6974 bf3d 08ff 21be c37e 823e 2248 963d
00000030: 68b7 42be d318 76be 989f 7a3e 6db1 d43d
00000040: ddab f53d 3dab 483e 3088 073e 509f 6dbd
00000050: 6231 4c3e 47c6 893d a957 ee3c 3d3b 253e
00000060: 282f 63be 297c 7dbe 4002 81be e0cf 54bd
00000070: 306b c6bd f405 573e 7c48 723e 2a41 1cbe
00000080: fecd 14be 439f 143e c056 f6bd 8079 6ebc
00000090: afd5 8cbd 2589 f33d aff1 28be fee7 2cbe
000000a0: 75ec 85bd 6ae9 edbd 261d 71be 4d46 8a3d
000000b0: 51a6 5ebe b00b 413e 7823 9b3d 18c8 113e
000000c0: 398a 46be c624 b63c 8354 343e 4390 61be
000000d0: 5f3f b63d 88e8 053e 8798 623e 07da 5fbe
000000e0: 61b9 b5bd a303 38be 884c 2d3e 85f3 69bd
000000f0: 4bee 47be 9ba2 623e 49d8 fdbd de4a dd3d
00000100: 5c31 b93d c53a 9fbd 3a88 19bd 00eb 7fbd
00000110: 148f 52be 0950 813d 0625 d5bd f979 1cbe
00000120: b85d cf3d 161d 3c3e 240f 33bd c2e3 42be
00000130: 4ed1 153e 7812 b33d 5759 423e e92f 14be
00000140: a2bf 453d 41d7 813d 8042 26be 8e08 73be
00000150: 9fcd 77bd 1e30 ab3d 3c79 3e3b dfbe 1cbe
00000160: 670d 4fbe ce3b 2b3d f68f a93d e12f 83be
00000170: 24ec 35be 1dea ac3d 16cc febd 7ab3 2abd
00000180: d625 0ebe 2621 6a3e 284e 4bbe c340 1e3e
00000190: 5563 4b3d 263f fa3d 2aee 703e 70da acbc
000001a0: 1150 2fbd 5937 68bd b6ab 293e 163a 583e
000001b0: a26d 5fbe aea7 0abe 3315 5abe ba64 5abe
000001c0: 8509 6a3e 143f 773d b462 d9bd 264b 2fbe
000001d0: eb71 80be a8ce 51be 8616 073e 141d 403e
000001e0: c746 563e 8e1b 273e 9abc ce3d 9948 1cbd
000001f0: 76e8 58be c6af 36bd 3cce 6ebe e21b 713e
00000200: 6bfb 923d 075b abbd 9de7 e2bd 7210 de3c
00000210: 1211 1abe 507b 243e 02b7 c1bd 36b8 243e
00000220: bc0a 483e c87f 34be 905b df3d 881a 0dbd
00000230: 1244 63bc 2438 08bd 4208 dcbd 56f1 bc3c
00000240: d3b9 553e 3935 e03d 79bd e53c 146a ea3d
00000250: 002c 54be 78e8 b8bd 35df 993d ee83 1e3e
00000260: af7e 333e a3dd 4fbe 351d 67bc 10e5 14bd
00000270: 3460 4f3d 720d 113c 2349 593e 18e1 053e
00000280: 3aac abbd a6c0 68be bc9c ca3d 2bf3 6a3e
00000290: 6582 723e 0a0c 44be 78b5 423e 4695 063e
000002a0: d892 e9bd ee44 28be 2f35 c4bd 11be f5bd
000002b0: 424d 1a3e b1b8 ecbd 0dbf 60bd 1e8c 1f3e
000002c0: 5780 fb3d 9e7b a13d 02d1 363e f6f9 983d
000002d0: 8819 4d3e 54bf 46be 2ea6 63be 466a 583d
000002e0: a1ac 21be 6cc1 e43d d60b 683e b8fa 883d
000002f0: dfda 2cbd 2ba7 05be ad34 4d3e ceaf d73d
00000300: 8c33 c63b 5a2a 7abe 18d7 343e 0272 383e
00000310: df43 1e3d 774d 89bc 1070 f4bd b7a9 2f3e
00000320: 2058 4b3e 51bf fc3d 0a28 7c3e 8516 90bb
00000330: a6d3 79bd 5178 543d 8cc3 e0bd d2c8 5dbe
00000340: ffb7 943c add9 f6bd ca9a 93bd 5ecc 80bd
00000350: d7c3 18be b47e 9fbd 9eda 723e 37cd 1e3e
00000360: 95da 78bd 862f a5bc 55e9 8c3d 458a 7dbe
00000370: 6fb6 9b3d bc2f 833c 473c f73d a9c4 dabd
00000380: ce90 a7bb ad27 37be b780 f5bd e5c9 cbbd
00000390: 3966 f0bd e177 1abe c5b3 2dbe a8c9 b43d
000003a0: aa7c 5cbe 9ee2 50bd 0cc5 3f3d eed5 5a3e
000003b0: 7856 c0bc 2db2 f4bd 1f8e 7e3e c768 f23d
0.24527524 0.10951822 -0.0013081643 0.23140374 -0.2443965 0.0036146534 0.12461935 0.19032511
0.09348375 -0.15819943 0.25487337 0.07337977 -0.19015276 -0.24032907 0.24474943 0.10385404
0.11995671 0.19596572 0.13235545 -0.05801326 0.19940713 0.067272715 0.029094534 0.16135879
-0.22185957 -0.24754395 -0.2519703 -0.051956058 -0.09688413 0.20998365 0.23660463 -0.15259233
-0.14531705 0.14513879 -0.12028265 -0.014555335 -0.068766944 0.118913926 -0.16498445 -0.16885373
-0.06539241 -0.11616786 -0.23546275 0.0675169 -0.21743132 0.18852115 0.075751245 0.14236486
-0.19388665 0.022234332 0.17610364 -0.22027688 0.08898806 0.13076985 0.22128497 -0.21860515
-0.08873249 -0.17970137 0.16923726 -0.057117004 -0.19524495 0.22132342 -0.12394769 0.108052954
0.09042618 -0.07774881 -0.03748343 -0.062479973 -0.20562392 0.063140936 -0.10407452 -0.15280904
0.10125297 0.1837047 -0.04371561 -0.19032195 0.14630625 0.08743757 0.18979393 -0.14471401
0.04827846 0.063398845 -0.16236305 -0.23733732 -0.06049883 0.08358787 0.002906396 -0.15307187
-0.20219956 0.04180508 0.082794115 -0.25622466 -0.17765862 0.08443091 -0.1244127 -0.04167507
-0.13881621 0.22864208 -0.19854033 0.15454392 0.049655277 0.12219076 0.23528352 -0.021100253
-0.042800967 -0.05669341 0.16569409 0.21115908 -0.21819165 -0.13540527 -0.2129715 -0.21327487
0.22855194 0.06036289 -0.10614529 -0.1711851 -0.25086913 -0.2048899 0.13192186 0.18761092
0.20925437 0.16319105 0.10094567 -0.038155172 -0.21182427 -0.044601224 -0.2332086 0.23545793
0.071768604 -0.083669715 -0.11079333 0.027107451 -0.15045574 0.16062665 -0.09458734 0.16085896
0.19535345 -0.1762687 0.10906136 -0.03444913 -0.01387121 -0.033256665 -0.107437626 0.023064297
0.20871668 0.109476514 0.02804445 0.11446014 -0.2071991 -0.09028715 0.075132765 0.15480015
0.17528795 -0.20299391 -0.014106085 -0.036351264 0.050628856 0.008853303 0.21219306 0.13074148
-0.08382459 -0.2272974 0.09893176 0.22944324 0.23682554 -0.19145218 0.19014537 0.13142881
-0.11404961 -0.16432545 -0.095804565 -0.11999143 0.15068534 -0.115586646 -0.0548697 0.15580794
0.12280338 0.07884906 0.17853168 0.07469551 0.2002927 -0.19408923 -0.22231361 0.052835725
-0.15788509 0.11169705 0.22660765 0.06688446 -0.04220092 -0.13052051 0.20039625 0.10531579
0.0060486253 -0.24430218 0.17660177 0.1801224 0.038638946 -0.01676057 -0.11935437 0.17154585
0.19857836 0.12341178 0.24624649 -0.004397216 -0.06099286 0.051872555 -0.109747976 -0.21658638
0.018154142 -0.12053237 -0.07207258 -0.0628898 -0.14918457 -0.077878386 0.23716208 0.15507971
-0.06075533 -0.020164263 0.06880442 -0.24759777 0.07603156 0.016013972 0.12072044 -0.10682041
-0.0051136976 -0.17886229 -0.11987441 -0.09950618 -0.117382474 -0.15084793 -0.16963108 0.088275254
-0.2153193 -0.05099737 0.046818778 0.2137067 -0.023478732 -0.11948047 0.24858902 0.11836391

feature.0.bias f4 [16]
00000000: b6f6 5f3e a87a 603e c93f 15be 7291 9ebc
00000010: fdb5 eb3d c390 5dbd 6dab 673d e93f 6dbe
00000020: 4225 323e 9d08 69be fe24 5e3e 7677 24be
00000030: 5509 7c3e ce12 183e 5160 6cbd d405 513e
0.21871457 0.2192179 -0.14575113 -0.019356463 0.11509321 -0.054093134 0.05655997 -0.23168911
0.17397025 -0.22757192 0.21693799 -0.16061196 0.24612935 0.14850923 -0.057709042 0.2041238

feature.2.weight f4 [16]
00000000: f9bc 7d3f 55d3 7d3f eac2 7a3f 532c 7d3f
00000010: da9f 7c3f 2732 7b3f 3f33 7e3f f9df 7b3f
00000020: f2db 7c3f 279b 7d3f c7b3 7d3f 9ceb 7d3f
00000030: 41a3 7d3f 64ca 7d3f f9e9 7b3f a94b 7c3f
0.99116474 0.9915059 0.97953665 0.9889576 0.98681414 0.981234 0.99296945 0.9838863
0.9877311 0.9906487 0.99102443 0.99187636 0.9907723 0.9913695 0.9840389 0.9855295

feature.2.bias f4 [16]
00000000: 4361 173a 2d40 7439 2194 55ba 37cf 36bb
00000010: ce06 853a 72d1 8c3a 6b0c f339 c098 8aba
00000020: a052 beba 1b4c ef3a e9f9 ea3a 74cf 94b9
00000030: e9e6 fcb9 f562 383b 173c acb9 7306 c8ba
0.0005774686 0.0002329356 -0.0008147378 -0.0027894506 0.0010149123 0.0010743572 0.00046357824 -0.0010574088
-0.0014520474 0.0018256934 0.0017927262 -0.00028383324 -0.00048237227 0.0028135155 -0.00032851167 -0.0015260711

feature.2.running_mean f4 [16]
00000000: 3901 ed3e b55a a43e 98dc e9be f078 973d
00000010: 7949 3f3d 741b 4dbe 789f ec3c 9878 e1be
00000020: 9de1 1b3e cc54 13be 932a f23e 7e94 afbd
00000030: 05c7 903e 86a5 853e 4e44 bebd c22f ea3c
0.46289995 0.32100454 -0.45676112 0.07396114 0.04670093 -0.20030004 0.028884634 -0.44037318
0.15222783 -0.14387816 0.47298107 -0.085732445 0.2827684 0.26102847 -0.09290372 0.028587226

feature.2.running_var f4 [16]
00000000: 0ec5 a63e b2e5 5c3e f0e9 c43e 910a 843d
00000010: 6059 1059 2ddb 0a59 611f cd57 fb5a c93e
00000020: 703c 2759 4f25 c058 4e86 a93e e9f1 f63d
00000030: 77bf 1959 2a6d fc58 17bb a157 22ae f158
0.32572216 0.21571997 0.3845973 0.06447328 2.5394166e+15 2.4427833e+15 4.510693e+14 0.39327225
2.9420483e+15 1.6901318e+15 0.3311028 0.120578595 2.7047618e+15 2.2203663e+15 3.5564983e+14 2.1258416e+15

feature.6.weight f4 [32, 16, 3]
00000000: d4c2 dcbc 49ac fb3c fb54 57bd 97ef bdbd
00000010: 5e57 003e 91f3 903d 4889 8b3c 1ded 893d
00000020: 82f6 3e3d 8cf4 d23d 79a0 113d 34a8 0f3e
00000030: 9817 0b3e 6de3 f5bd 6f45 98bd 4b1e a9bd
00000040: 6d19 7a3d 9e4d ccbd 42f1 fb3b aad3 273c
00000050: 30ae 843d f007 143d 2b8d 903b c575 10be
00000060: 3a21 c83d 2ffa 0fbe 48fc fa3d 5d38 8b3b
00000070: d619 943c da86 febd 7808 153d 2b13 4c3d
00000080: d279 533d 0182 5cbd 0ce6 643d bfd8 00be
00000090: c60b 4ebd 187f d73d a12a e83d 122f 10bb
000000a0: 2b2a 34bd f7dd 803d 4766 16bd 5c7b f93c
000000b0: 8c88 893d fa14 01be fd80 f2bd 31fa 8abd
000000c0: ad59 07be 3a0d fc3d 5981 023d fb73 07be
000000d0: 9da6 20bd df8d e9bd 162c 8fbd d496 e93d
000000e0: bba2 cbbd a05f 433d 4dfd 043e 15f1 85bd
000000f0: 912b 01be f4cc 0dbd f161 cebd fb92 043d
00000100: e627 0c3e a0fe c33d 9303 26bd f823 d2bb
00000110: 2d02 0d3e e68f a4bd 89f8 c03d 7fa3 913d
00000120: b8a6 0b3e 6348 13bc 33b5 c2bd 8779 0cbd
00000130: 2b75 333c d29a dbbd da62 2cbd 27bf 67bb
00000140: 564d fa3d 83a7 debd 55de 08be 9c31 f7bc
00000150: f1fa c1bb ba77 c6bd 1b45 b93c 1d12 37bc
00000160: 12ee 10be 04fc 163d 5ec4 6e3c 38cb 843c
00000170: c929 52bd b95f 873b f377 0b3e e3d3 03be
00000180: 5a74 3bbd cdcc eabd 640e 07be 9136 74bd
00000190: 2958 c03d fabb 083e 5152 de3c 96ee 6f3d
000001a0: 079b 1ebd da8a c9bd b518 6ebd b89e c4bd
000001b0: a3e7 dc3c 8109 bbbd f3c1 ff3d b9a3 f0bd
000001c0: 75fa a9bd 0486 03be f41c a33b 90b6 d2bc
000001d0: 4456 14bc 6d4f a43d 254d ecbd 102c ba3d
000001e0: 431b b03d 1e6b cc3b 46aa 4b3d 3ff6 0bbd
000001f0: d41f 93bd 5ddc dfbd 3666 61bc cca5 863d
00000200: aac8 033e f74c ac3d d8ac c33d 1395 043d
00000210: 9d6d f13c 4520 f03d e708 c13d c4c6 db3d
00000220: 2ca4 bebd c009 b13c 6b87 e9bc 12a7 833d
00000230: caa8 c13d f12c 123b 6f12 e53c c7b5 52bd
00000240: 119f 6a3d cf8f f73c acc2 04be 05a4 a9bd
00000250: d458 2bbd a108 ac3c 794b 29bd c003 02be
00000260: b093 283d 16da e33d 99d5 ddbd 8b59 04be
00000270: b59c c1bd 5e92 053e 6f97 4fbd 638d 703d
00000280: af2b c0bd 071b a9bd 3fa7 c2bd 3fa8 4b3d
00000290: 9908 e13d 39f0 823c a924 c43d 4237 31bd
000002a0: 89c4 e9bd 1856 b13c 4eaf 0bbd 4c70 d3bd
000002b0: 736a c63c f2c5 c93d 1e99 5c3d 0105 0ebe
000002c0: 3993 a5bd cf3e 0bbd e64e 28bd cd96 e4bc
000002d0: d1ee 7e3d 1f2c e0bc fd73 a1bd b597 8fbd
000002e0: 27ab 533d 6a7d d2bd 27a2 543d f23b a5bd
000002f0: 5030 b53d 2180 0abe 23ec f23c ce28 0d3e
00000300: f2a8 0fbe eda3 273d 26f9 f7bb 8024 073d
00000310: c133 f9bd fc84 9ebc 051a d7bd 51df 7ebc
00000320: ee7b 613d 825f bfbb 277d 0abd 0e3d 333d
00000330: deee bc3d 5494 88bc 8e0b aebc f71e c03d
00000340: 178b 903b 7390 a43d 1d72 733d 8e10 0bbe
00000350: b382 afbd d31d d23b a241 093e c74e b23d
00000360: 03eb 7cbc 9347 883d 2fba 153c 0425 0cbe
00000370: bbc1 cbbd 7fbc d93d edc8 0bbd e685 4d3d
00000380: 2bcb 433d fc60 e63d 0350 2fbd b25d 13bd
00000390: 9ab2 96bd 20f6 9abd f114 4c3d 0120 673d
000003a0: 76ca a8bc 462c a73d c6e2 fd3d 568a a7bd
000003b0: 50f4 2a3c e726 2f3d c545 5e3d c59c bc3d
000003c0: 5a45 0dbe ef4c b83d bf20 d9bc 95ed a3bd
000003d0: 102b 8bbc 631d 8abd d619 773c e019 d33d
000003e0: e128 54bd d9fc 25bc 06b8 8abc 9d35 d5bd
000003f0: d6f3 7a3d cf63 5dbd 3e78 933d 3c93 6fbd
-0.02694837 0.0307218 -0.052571278 -0.09274214 0.12533328 0.070777066 0.017033234 0.06734679
0.046621807 0.1030055 0.03555343 0.14029008 0.13583219 -0.12006269 -0.074351184 -0.08257731
0.061059404 -0.09975742 0.0076886723 0.010243336 0.06478536 0.036140382 0.00441136 -0.14107426
0.097719625 -0.14060281 0.1225515 0.0042486624 0.018078726 -0.12428065 0.03638503 0.049822967
0.05162985 -0.05383492 0.055883452 -0.12582682 -0.050304197 0.10522288 0.11336256 -0.0022000712
-0.043985527 0.062923364 -0.036718633 0.03045433 0.067154974 -0.12605658 -0.11841009 -0.067860015
-0.13217802 0.1230721 0.031861637 -0.13227837 -0.039221395 -0.11404013 -0.069908306 0.11405721
-0.09943148 0.047698617 0.12987252 -0.065401234 -0.12614276 -0.034619287 -0.100772746 0.032366734
0.13687095 0.0957005 -0.040530752 -0.006412979 0.13770361 -0.08035259 0.09422404 0.071112625
0.13637817 -0.008989426 -0.09507217 -0.034295585 0.010953228 -0.10722889 -0.04208646 -0.0035361738
0.12221782 -0.10871794 -0.13366063 -0.030175023 -0.005919807 -0.09690805 0.02261596 -0.011173752
-0.14153317 0.036861435 0.014573185 0.016210184 -0.05130938 0.004131284 0.13619976 -0.12873797
-0.04576526 -0.11464844 -0.13189083 -0.05962235 0.09391815 0.13352957 0.02713886 0.058577143
-0.038722064 -0.09840937 -0.05812903 -0.09600586 0.026965922 -0.09132672 0.12488165 -0.117499776
-0.08299724 -0.12844092 0.0049778167 -0.025721818 -0.00905377 0.08022962 -0.11538152 0.090904355
0.0859895 0.0062383553 0.049722932 -0.034170385 -0.07183805 -0.10930703 -0.013757279 0.06574592
0.12869516 0.084131174 0.09554452 0.03236873 0.029471213 0.11724905 0.09425526 0.10731271
-0.09308657 0.021611094 -0.028506955 0.064283505 0.09456022 0.002230462 0.027962891 -0.051442888
0.057280604 0.03021994 -0.12964886 -0.08283237 -0.04183276 0.021000208 -0.041331742 -0.12696743
0.04115647 0.11125581 -0.10831756 -0.12924783 -0.094537176 0.13044116 -0.050681528 0.058728587
-0.09383332 -0.08257108 -0.09504556 0.049721 0.10987968 0.015983688 0.09577305 -0.04326559
-0.11414439 0.021647498 -0.03410273 -0.10324153 0.02422068 0.09852208 0.05385696 -0.13869096
-0.08084721 -0.033995446 -0.04109087 -0.027903939 0.06223947 -0.027364789 -0.07883451 -0.07011358
0.051676895 -0.10277827 0.051912453 -0.08068074 0.088471055 -0.1352544 0.029653614 0.13785097
-0.14029291 0.040927816 -0.0075675426 0.032993793 -0.121680744 -0.019350521 -0.1050301 -0.0155561725
0.05504983 -0.005840243 -0.03381076 0.0437594 0.09225248 -0.01667229 -0.021245744 0.09380906
0.004411112 0.08035364 0.059435 -0.13580534 -0.08569851 0.0064122467 0.13403943 0.08706432
-0.015436891 0.06654277 0.009138628 -0.13685995 -0.099490605 0.10631656 -0.034127165 0.050176524
0.047801178 0.11248967 -0.042800914 -0.035978027 -0.07358284 -0.07566476 0.04982466 0.056427006
-0.020604353 0.08162741 0.12396769 -0.08180682 0.010434225 0.04276171 0.054265756 0.09209589
-0.13795987 0.08999049 -0.026504872 -0.080042996 -0.016988307 -0.06743886 0.015081843 0.1030767
-0.051796798 -0.010131084 -0.016933452 -0.104106165 0.061267696 -0.054050263 0.07200669 -0.058490023

feature.6.bias f4 [32]
00000000: 05b8 bb3c 7c8f c93d 52cd 07be f5b4 08be
00000010: 287a a83d 26ff 6cbd 6b80 ea3d 3062 083e
00000020: 0647 7a3d f2c7 3e3d 9412 98bd 6e51 013e
00000030: bbf7 bb3d 8ea6 27bd 263d 07bd 793c 8b3d
00000040: 5dd8 84bd ee3f 813d b716 e93d 9070 9ebd
00000050: 6792 01be fd6d fdbd 8c2d 8abc d5a5 0fbe
00000060: 2f72 bc3c d4a3 1c3d bcc3 91bb dd31 823d
00000070: 2b18 1a3d d15d 353d 1b08 953d 338d 9b3d
0.022914896 0.098418206 -0.13261917 -0.1335028 0.082264245 -0.057860516 0.11450275 0.13318706
0.06110289 0.0465774 -0.074254185 0.12628719 0.0917811 -0.040930323 -0.0330173 0.067986436
-0.064865805 0.06311022 0.11381286 -0.07736313 -0.12653504 -0.12374494 -0.016867422 -0.14028104
0.023003666 0.038242176 -0.004448382 0.06357167 0.037620705 0.044278923 0.072769366 0.07595291

feature.8.weight f4 [32]
00000000: 0fca 7b3f 0da4 7a3f 4d63 7d3f 56d3 7b3f
00000010: 71b8 7b3f e7a8 7a3f abda 7b3f ecf1 7b3f
00000020: ea70 7d3f f060 7a3f 10c0 7b3f 3f78 7d3f
00000030: 82a2 7d3f 2c16 7d3f 852c 7c3f a7d3 7b3f
00000040: 9399 793f 201a 7d3f 1baa 7d3f 4e87 7c3f
00000050: c046 7b3f 6c2f 7c3f 0103 7b3f a62c 7c3f
00000060: 43b1 793f 3871 7d3f 9e05 7c3f cec2 7c3f
00000070: 5640 7c3f 990b 7d3f 8075 7c3f 838a 7c3f
0.9835519 0.9790657 0.98979646 0.9836935 0.9832831 0.97913975 0.98380536 0.9841602
0.9900042 0.97804165 0.9833994 0.99011606 0.9907609 0.98861957 0.9850543 0.9836983
0.9749996 0.9886799 0.99087685 0.9864396 0.9815483 0.9850986 0.9805146 0.9850563
0.97536105 0.99000883 0.9844607 0.9873475 0.9853567 0.9884582 0.9861679 0.9864885

feature.8.bias f4 [32]
00000000: de4c 24bb 1640 a33a 3932 48bb c999 15bb
00000010: 0c20 8f3a ef75 ccba 2fd4 afba e2c7 d33a
00000020: 11f3 b83a 388a 9d3a bb4e b73a 5b9c 0ebb
00000030: 75c7 d93a 3686 e5b9 4d70 35bb ed4f efba
00000040: 23de 643b b27c 5bba 6a53 17b9 d48f 303a
00000050: 7888 ce3a 49f6 9b3a 2b56 8cba dfaf 28bb
00000060: 733c 49ba f711 2d3b 712c 28bb d5bf d2ba
00000070: 3fc8 dbba 5d79 04bb a382 c4b7 9e25 c23a
-0.002507023 0.0012455012 -0.0030547513 -0.0022827259 0.0010919585 -0.0015599112 -0.0013414676 0.0016157592
0.0014110525 0.0012019342 0.0013985256 -0.0021760676 0.0016615229 -0.0004377828 -0.0027685345 -0.0018258073
0.0034922443 -0.0008372768 -0.00014431556 0.0006735299 0.0015757224 0.001189896 -0.0010706832 -0.0025739593
-0.0007676549 0.0026408413 -0.0025661255 -0.0016078899 -0.0016768052 -0.002021394 -2.3425853e-05 0.0014812236

feature.8.running_mean f4 [32]
00000000: adce 823e 0030 84be 37e1 893c f22d 3fbf
00000010: 2ea1 653e 0bc5 0bbf 953c 983e 7794 943e
00000020: eb0f 9bbe e74e 4abf 2ce9 dbbe d904 4d3e
00000030: 5262 903e 73f7 113e 14ee e3bd e2b7 d4bb
00000040: e453 6dbe 42df 833e c111 dc3e ed21 4ebe
00000050: 5580 9abe 1953 9bbe 908e debe 420b 80be
00000060: ef9d d4be 5f9d 06bd 7c3a 3ebe 0523 1d3d
00000070: 95b6 09be 6c04 853e 8c0d 9a3e d986 e83e
0.25548306 -0.2581787 0.016831024 -0.7467948 0.22424766 -0.5459754 0.2973372 0.2901952
-0.30285582 -0.79026645 -0.42951334 0.2002138 0.28200012 0.1425455 -0.11129394 -0.006491647
-0.23176533 0.2575627 0.42982295 -0.20130129 -0.30176035 -0.30336836 -0.43468142 -0.2500859
-0.41526744 -0.032864925 -0.18576998 0.038363475 -0.13448556 0.25979936 0.3008846 0.4541538

feature.8.running_var f4 [32]
00000000: da88 e03e 60d4 e73e 5735 953e eafe 843f
00000010: 5725 903e 0319 2d3f a29f d03e f1d9 e73e
00000020: 9744 d63e 3b0d 833f e2a1 fc3e 5a2b 913e
00000030: 2d9c e23e f839 e03e 3c31 bb3e e5ac d23e
00000040: 82e0 ef3e 7e04 bf3e bf21 ed3e 323f 8a3e
00000050: a4cd e43e fb72 fa3e 4a26 0a3f 5258 993e
00000060: 3d63 003f 66ae d53e 455b a93e 644b af3e
00000070: 54c0 b73e 48a4 a03e 3e42 c33e ae14 173f
0.4385441 0.45279217 0.29142258 1.0390294 0.28153488 0.6761629 0.4074679 0.45283464
0.41849205 1.0238413 0.49342257 0.28353387 0.44259778 0.43794227 0.36561 0.41147533
0.46850973 0.37308115 0.4631481 0.2700134 0.4468814 0.48915848 0.53964674 0.29950196
0.50151426 0.41734618 0.33077446 0.34237206 0.35888922 0.31375337 0.38136476 0.5901593

classify.0.weight f4 [32, 384]
00000000: b079 96ba 519b 2cbc eaaf 073d 3569 dd38
00000010: 472e fc3c de7d f4ba 9847 0cbd c7c4 60bc
00000020: 3912 413b 8f71 aebc 9c03 283d 7ce5 2bbd
00000030: 9777 81bc 672f 283c e760 403d cb1c 21bd
00000040: 09a5 3bbd 80c1 d9bc d283 9c3c 0769 8fbc
00000050: 59a2 b9bc b7e1 233b ea4f 13bd d249 39bd
00000060: 392d 01bd 2aa5 763c be3d cc3b 3062 c6bc
00000070: c2a6 793c 6e56 173c b443 293c e226 c43c
00000080: 6b55 e9bc b581 caba ca82 0ebd 4661 7d3c
00000090: 4df9 acbc b070 b33c 3747 16bd 78df 2f3d
000000a0: e517 d23c 3eda 3b3d bbde ff3c 9562 143b
000000b0: 8419 1cbd 6286 163d aa2d 43bc 2ec5 10bd
000000c0: e12e e7bb aa44 13bd bbb6 c03c c4fa d73c
000000d0: 1549 1ebd 9d0c ab3c 5026 0fbd 981e 9cbc
000000e0: 38f2 173d 4e55 fb3c 9f7e 273b 8702 9bbb
000000f0: d9e3 923c 1202 99bb 1111 633c 4b4e 58bc
00000100: 800b e53c 2569 e5bc 8975 11bd a67b 46bd
00000110: f8c5 d93c cda8 1cbd 9096 f13c 5146 f3bc
00000120: 83c4 aebb 45c7 d5bb 2ae0 30bd 1576 fbbc
00000130: 333e 45bc 1421 023c 1c3e 003d 2c5c f13a
00000140: 2f2c 293d dcdb 0bbd 243a 80bc a49e 6d3b
00000150: 20f3 3b3c 69b6 293d fa2a c9bc 6010 16bd
00000160: 0178 1ebd 1843 24bd 1e12 ca3c 313e c23c
00000170: 4a0f ca3c 01ef abbc addf d63b b761 963c
00000180: 0c70 dc3c 9074 0f3d 5e75 4dbc f3d3 1a3d
00000190: 8cd8 d2bc 8f81 c9bc 9a78 21bd f786 013d
000001a0: 2583 fe3c a31c 02bd 1c21 3bbc 053a 04bc
000001b0: 2b6e 37bd b5b5 1bbd 9c65 4bbd 1aed 48bc
000001c0: 8a9d a1bc 4c0f bd3c cd14 323d b051 ff39
000001d0: 19ea 20bd 4b22 08bd d11d 70bc 1746 213d
000001e0: 71f7 54bb 35d8 e93b 4bc2 b0bc b956 373d
000001f0: ed90 42bd b3b6 28bd 2493 3f3d a406 e9bc
00000200: 24ff e7bc f2ce 133d 261a d7bc 0bd5 c4bc
00000210: 40d7 b7bb dfa6 de3a 3e2c a63b e1f5 e23c
00000220: bd2a 96bc 18e2 b8b9 cf3c 93bc 42ec 5c3c
00000230: 8584 a7ba 0cdc 1f3d 2d2e 37bd 95d8 be3c
00000240: ee6c 83bb 251a c7bc a317 4abc be6f f0bc
00000250: 50eb bc3c b26f 19bd e975 caba c550 083d
00000260: f85a d2bc 2a3a 16bc c86f 4f3c 06c4 a5bc
00000270: 86d1 87bc 67b3 c6bb eb3c 5c3c e89a 253d
00000280: 3725 9bbb a603 8ebb 32bc ff3c 60a1 e5bb
00000290: 6c40 853c 2409 293b d567 b33c 20c9 173d
000002a0: 2071 3c3c 9c41 07bd 938e 41bb 50cf 543b
000002b0: c37f 1b3d 8488 133d 6c25 d5bc 23ed c23c
000002c0: 11c0 56bc bd32 b53c 3b3f 43bd 8408 d1bc
000002d0: 454b 33bd dd90 0a3d 1d94 053d f78d 913c
000002e0: ce2b e8bb b129 103d a6a8 14bd 8e34 0fbb
000002f0: dcea 8dbc 0e85 0abc 22d6 003d e539 d1bc
00000300: f586 abbc fadc 483a d465 1cbd 9c39 3bbd
00000310: fd4c 1a3b a897 1e3d 189c 38bb 01fe 013d
00000320: 94e7 4cbd 10b7 843c e376 92bc e6f8 eb3c
00000330: 1d8f 39bd 6a74 adbb 10d4 d63c dd98 d43a
00000340: 38b3 fbbb 7727 bdbc 86a4 32bd 1c6b d13c
00000350: 0ede aa3c 5795 1bbc 1fde 893c 4674 bf3c
00000360: 5c2b 2dbd 6639 bebc d18a 573c 2fc8 383d
00000370: a609 5fbc 8639 14bc 3648 6f3c 735c 833c
00000380: 76b8 eaba a6b8 09bd 51ad 243d 2461 b2bb
00000390: 13e5 bfbc fcca 143d d668 7cbc 2cb4 89bc
000003a0: 3c82 473d a32b 9bbc 896c 2ebd cc6e e3bc
000003b0: 0d6c c13c fb76 21bd e3cd 093d b651 463d
000003c0: 07c3 eb3c 0b3c a1bc b056 2abd 729e 0fbd
000003d0: 40b0 453d a606 623b 9829 0c3c 8578 22bc
000003e0: f441 0ebd ca16 8c3c 2764 f8ba 2951 59bc
000003f0: c6a1 3e3d 7551 513c ba7c 0dbc fa66 e0bc
-0.0011480357 -0.010535077 0.03312675 0.000105576975 0.030783786 -0.0018653234 -0.034247965 -0.01371879
0.0029460324 -0.021294383 0.041019067 -0.0419669 -0.015804095 0.010265208 0.046967413 -0.0393341
-0.045811687 -0.026581526 0.019105826 -0.017506136 -0.022660421 0.0025006363 -0.035964884 -0.045236416
-0.03153727 0.015054027 0.006232946 -0.024216741 0.015237512 0.009236915 0.010331083 0.023944322
-0.028483113 -0.0015450033 -0.0347927 0.015465086 -0.02111497 0.02190432 -0.03668901 0.042937726
0.02564616 0.04586243 0.031234136 0.0022641767 -0.03811027 0.03674925 -0.011912743 -0.035344295
-0.007055149 -0.035954155 0.023524633 0.026364692 -0.038643915 0.020880038 -0.034948647 -0.019057557
0.037096232 0.030680325 0.002555765 -0.004730526 0.017930912 -0.0046694363 0.013859049 -0.01320226
0.027959585 -0.028004238 -0.03551248 -0.048457764 0.026583657 -0.03824692 0.02949074 -0.029696615
-0.0053334846 -0.006523999 -0.04318253 -0.030695954 -0.012038755 0.007942457 0.031309232 0.001841431
0.041301902 -0.03414522 -0.015652724 0.0036257887 0.01147154 0.041433726 -0.024556626 -0.03663671
-0.038688663 -0.040103048 0.024666842 0.023711296 0.024665494 -0.02098799 0.006557426 0.018357141
0.026908897 0.035023272 -0.01254019 0.037799787 -0.025738023 -0.024597911 -0.039421655 0.031622853
0.031068394 -0.03176559 -0.011421468 -0.008070474 -0.0447828 -0.038015086 -0.04965745 -0.012263561
-0.01972844 0.023078583 0.04347687 0.00048698252 -0.039285753 -0.03323583 -0.014655546 0.039373484
-0.003249612 0.0071363696 -0.021577021 0.04476044 -0.047501493 -0.04118986 0.046771184 -0.02844555
-0.028319903 0.03608603 -0.026257586 -0.024027368 -0.0056103766 0.0016986987 0.005071192 0.027705135
-0.018330926 -0.00035263668 -0.017973332 0.013484063 -0.0012780583 0.039028212 -0.04472177 0.023296634
-0.004010788 -0.024304459 -0.012334737 -0.029350158 0.023061424 -0.037460037 -0.0015446517 0.033280153
-0.025678143 -0.009169141 0.012660928 -0.020235073 -0.0165794 -0.006063867 0.013442258 0.040430933
-0.004734661 -0.004333931 0.031217668 -0.007007763 0.01626607 0.0025792802 0.021900097 0.037057042
0.0115015805 -0.033021554 -0.0029534444 0.00324722 0.03796364 0.036018863 -0.02601882 0.023794716
-0.013107316 0.02211892 -0.047667723 -0.025516756 -0.043772954 0.03382956 0.032611955 0.01776789
-0.0070853 0.03519601 -0.03629365 -0.0021851393 -0.017323904 -0.008454574 0.031454213 -0.025540302
-0.020938376 0.00076623226 -0.03818305 -0.045709237 0.0023544424 0.03871885 -0.002816921 0.031736378
-0.050025538 0.016200572 -0.017878955 0.028805207 -0.0453025 -0.0052934187 0.026224166 0.0016219873
-0.0076812766 -0.023090107 -0.043613933 0.025563769 0.020857837 -0.009496055 0.016829548 0.023370873
-0.04227768 -0.02322073 0.013155655 0.045112785 -0.01361314 -0.009046918 0.014604619 0.016035294
-0.0017907757 -0.03362336 0.04020435 -0.005443709 -0.02342466 0.036326393 -0.015405854 -0.016809545
0.048708186 -0.018941706 -0.042583976 -0.027762793 0.023611093 -0.03942011 0.033643615 0.04841777
0.02877952 -0.019681951 -0.041586578 -0.035063215 0.04826379 0.0034488826 0.008554839 -0.009916429
-0.034730867 0.01710071 -0.0018950746 -0.013263979 0.046540998 0.0127757685 -0.008635694 -0.027392853

classify.0.bias f4 [32]
00000000: b7e8 d63a 4089 003d c07b 24bb a097 eaba
00000010: 829c d1bc 48ec de3c 78af 28bd 7084 73bc
00000020: d21c d13c 6ff3 3bbc fc20 ca3c 5883 32bd
00000030: 0e20 ae3c ed86 9c3c 2fa5 983c 7d8a b63c
00000040: 1596 633c 34eb 41bd 47db cfbc 47e9 16bc
00000050: 728f 2d3c e410 0ebc 7f13 4abc 035e 34bd
00000060: b541 49bd 9e8a f73c e09e 57bd 241b f23c
00000070: 7fc0 033c a1cf 213d fa74 2d3d d7c2 203b
0.0016396259 0.03138089 -0.0025098175 -0.0017897971 -0.025587324 0.027212277 -0.041182965 -0.0148631185
0.025526438 -0.011471613 0.024673931 -0.04358229 0.02125552 0.019107306 0.018633453 0.022282833
0.013890763 -0.047343448 -0.025373114 -0.009210891 0.010593282 -0.008671019 -0.01233375 -0.04403497
-0.04913493 0.030217465 -0.05264175 0.029553957 0.0080415 0.03950465 0.042347886 0.0024530196

classify.3.weight f4 [1, 32]
00000000: 22e3 ed3d 3591 af3d b73b 133e a7e2 cdbd
00000010: 3df8 21be 1604 1ebe 33ac bfbd c905 25be
00000020: a1b6 113c c0c9 8dbd 4b70 dabd eff9 62bd
00000030: 4e8f 2dbe e176 6abd 58ce 803c f051 fcbd
00000040: fc68 543c 9781 943c 9bb7 df3d 7868 0e3e
00000050: f901 b7bc 848f 08be f19e cdbd 9bc5 2e3e
00000060: 1f07 9c3d c559 05be ce85 5f3d 02ff f93c
00000070: f648 1c3d 93a9 94bd b1f8 c73d 308c 91bd
0.11615588 0.08572618 0.14378248 -0.10052996 -0.15817352 -0.15431246 -0.09359016 -0.16115488
0.00889364 -0.069232464 -0.106659494 -0.055414136 -0.16949198 -0.057242278 0.015723392 -0.12320316
0.012964483 0.0181282 0.10923692 0.13907039 -0.022339808 -0.13335997 -0.10040081 0.17067568
0.07618546 -0.13022526 0.054570965 0.030517105 0.03815552 -0.07258906 0.09764231 -0.07106817
